model/sub6_20240206_130642/checkpoints/epoch3_0.5287.pt (torch, 195725 bytes, 39 tensors)

net.conv.weight f4 [8, 1, 1, 256]
0	0xbeb783ce	-0.35842746
1	0xbf01493e	-0.50502384
2	0xbf3b1bb8	-0.7308917
3	0xbf5ad833	-0.85486144
4	0xbf44ecfa	-0.769241
5	0xbf524f9d	-0.8215273
6	0xbf7383e4	-0.95123124
7	0xbf81762e	-1.011419
8	0xbf9d5484	-1.2291417
9	0xbf8fe323	-1.1241192
10	0xbf7de34e	-0.99174964
11	0xbf53beda	-0.8271309
12	0xbf115ca3	-0.5678198
13	0xbe744ab6	-0.23856625
14	0x3d345f41	0.044036154
15	0x3e921be2	0.28536898
16	0x3e6cd0a2	0.23126462
17	0x3d1b903b	0.037979346
18	0xbe231be0	-0.15928602
19	0xbeef12fa	-0.46694165
20	0xbf114d3b	-0.5675847
21	0xbf1ef45d	-0.6209162
22	0xbf023cdf	-0.5087413
23	0xbe84c9e5	-0.25935283
24	0x3e05dac7	0.13071738
25	0x3eb800ca	0.35938102
26	0x3ece4897	0.40289757
27	0x3ed8bbac	0.42330682
28	0x3ecae0f8	0.39624763
29	0x3e095fe4	0.13415486
30	0x3e04fb09	0.12986387
31	0x3e02f88b	0.12790124
32	0x3e962154	0.29322302
33	0x3f2a94bc	0.666332
34	0x3f8cd64b	1.1002897
35	0x3f9df243	1.2339557
36	0x3fafa602	1.3722537
37	0x3fa825b7	1.313651
38	0x3f98f88b	1.1950849
39	0x3f4d6eef	0.80247396
40	0x3edc5818	0.4303596
41	0x3de22048	0.110413134
42	0xbda4300b	-0.08016976
43	0xbe05bde0	-0.13060713
44	0xbdfdc9fa	-0.123920396
45	0x3cb09257	0.021554155
46	0xbdb1908f	-0.086701505
47	0xbdadc875	-0.084855
48	0xbe733db8	-0.23754013
49	0xbedd17cb	-0.43182215
50	0xbef53f42	-0.47899824
51	0xbf02f064	-0.51148057
52	0xbf14682a	-0.5797144
53	0xbec15754	-0.3776194
54	0xbe79b6c4	-0.24386126
55	0xbd2136ac	-0.03935878
56	0xbce0e957	-0.027455015
57	0xbdf9963b	-0.12186857
58	0xbe87c62e	-0.26518387
59	0xbed5f504	-0.41788495
60	0xbf323758	-0.696157
61	0xbf728d6e	-0.94747055
62	0xbf8662da	-1.0498917
63	0xbf7caa19	-0.9869705
64	0xbf56c5e2	-0.83895695
65	0xbf1a5c22	-0.60296834
66	0xbefa23f9	-0.4885557
67	0xbeaaccc4	-0.3335935
68	0xbe799e40	-0.24376774
69	0xbdfe3228	-0.1241191
70	0x3dd447ac	0.10365233
71	0x3e4d22c2	0.2003279
72	0x3eae1a0e	0.34004253
73	0x3edae05a	0.42749292
74	0x3f1a0ea1	0.6017857
75	0x3f451cb6	0.76996934
76	0x3f464d07	0.77461284
77	0x3f346ea5	0.7048133
78	0x3f1caebe	0.61204135
79	0x3f1af618	0.6053176
80	0x3eeff529	0.4686673
81	0x3ed3f552	0.41398102
82	0x3ea8ca92	0.3296705
83	0x3f097c50	0.5370531
84	0x3f26c757	0.6514792
85	0x3f4010ef	0.7502584
86	0x3f52de6d	0.82370645
87	0x3f540d1e	0.82832515
88	0x3f3700c1	0.71485525
89	0x3f01d5f8	0.50717115
90	0x3eb030f7	0.34412357
91	0x3df14cab	0.117822014
92	0x3ca1a0eb	0.019730052
93	0x3e1443d6	0.14479002
94	0x3eac638e	0.33669704
95	0x3f21cf7c	0.6320722
96	0x3f418756	0.7559713
97	0x3f5408f3	0.82826155
98	0x3f23a7f1	0.63928133
99	0x3ebf55be	0.37370104
100	0x3c7f2734	0.015573312
101	0xbe9268b6	-0.28595513
102	0xbf0359b8	-0.51308775
103	0xbf0c4265	-0.5478881
104	0xbf0831f3	-0.53201216
105	0xbecf7e7a	-0.4052618
106	0xbe482d40	-0.19548512
107	0xbe550aa2	-0.20804837
108	0xbe966411	-0.2937322
109	0xbf19f817	-0.6014418
110	0xbf67830d	-0.9043434
111	0xbfac94db	-1.3482927
112	0xbfc38e38	-1.5277777
113	0xbfcf3375	-1.6187578
114	0xbfb0fb75	-1.3826739
115	0xbf65e7ed	-0.89807016
116	0xbebdc5d9	-0.37065008
117	0x3dfc79b9	0.12327904
118	0x3eb691dd	0.3565816
119	0x3f04e26d	0.51908
120	0x3ef21f57	0.47289535
121	0x3ef235b9	0.47306612
122	0x3e90ee3f	0.28306767
123	0x3ea50c58	0.3223598
124	0x3ebff807	0.37493917
125	0x3f15c65f	0.58505815
126	0x3f36c4c9	0.7139402
127	0x3f3d8051	0.7402392
128	0x3f39dcb2	0.7260238
129	0x3f03a1b3	0.5141861
130	0x3eb07b4d	0.3446907
131	0x3e26dc32	0.16294935
132	0xbd08ccec	-0.033398554
133	0x3bd6fb9e	0.006560757
134	0xbcd26a10	-0.02568534
135	0x3e11fdd2	0.14256981
136	0x3eb7f10b	0.3592609
137	0x3f11b1aa	0.5691172
138	0x3f366833	0.71252745
139	0x3f509d6d	0.8149021
140	0x3f2fe75e	0.68712413
141	0x3f17e96f	0.59340566
142	0x3ebc76fd	0.3680953
143	0x3e73db4c	0.23814124
144	0x3e8d0526	0.2754299
145	0x3edf91f9	0.43666056
146	0x3eff0e2d	0.49815503
147	0x3f090a51	0.53531367
148	0x3efc5676	0.49284714
149	0x3ee19c92	0.44064766
150	0x3e12186f	0.14267133
151	0xbeb4ff53	-0.35351047
152	0xbf312450	-0.69196033
153	0xbf65db0f	-0.8978738
154	0xbf6ce997	-0.9254393
155	0xbf5dad3d	-0.86592466
156	0xbf2c518f	-0.6731195
157	0xbecf9780	-0.40545273
158	0xbe991503	-0.29898843
159	0xbe9915de	-0.29899496
160	0xbf0d6b73	-0.5524208
161	0xbf3cae92	-0.73703873
162	0xbf885190	-1.0649891
163	0xbf926482	-1.1436923
164	0xbf803b31	-1.0018064
165	0xbf3fa591	-0.7486201
166	0xbeec176e	-0.46111625
167	0xbe52fe68	-0.20604861
168	0xbc3a133f	-0.011357128
169	0x3e2bda95	0.16782601
170	0x3cc13e3b	0.023589244
171	0xbc0d4f94	-0.00862493
172	0xbe2ff7fe	-0.17184445
173	0xbe8fa1b1	-0.28053048
174	0xbe69b70f	-0.22823738
175	0xbe3d4b42	-0.1848574
176	0x3d4e1453	0.05031235
177	0x3ea7449f	0.3266954
178	0x3ef86f27	0.48522303
179	0x3f179533	0.59212035
180	0x3f045242	0.51688015
181	0x3eec3ccb	0.4614013
182	0x3ec337bd	0.38128462
183	0x3e8eb990	0.27875948
184	0x3e4d408c	0.20044154
185	0x3eab71ca	0.33485252
186	0x3f15d6f8	0.5853114
187	0x3f7f110c	0.99635386
188	0x3f987ee2	1.1913722
189	0x3f9aab07	1.2083443
190	0x3f9dd468	1.2330446
191	0x3f85d578	1.045577
192	0x3f2c4271	0.6728888
193	0x3ebe74d2	0.37198502
194	0x3d1d4f72	0.038405843
195	0x3c0f9689	0.008763918
196	0xbd5e3238	-0.05424711
197	0x3d59b460	0.053150535
198	0xbd34d837	-0.04415151
199	0xbcbad6fc	-0.02280759
200	0xbe60e802	-0.21963504
201	0xbefb26f8	-0.49053168
202	0xbf5ea888	-0.8697591
203	0xbf85b76c	-1.0446601
204	0xbf902da9	-1.1263934
205	0xbf7e17e6	-0.99255216
206	0xbf28cd1b	-0.65937966
207	0xbea2981f	-0.31756684
208	0x3dfe151d	0.12406371
209	0x3eed2763	0.46319112
210	0x3ef8ec0e	0.48617595
211	0x3e9b1ba7	0.30294535
212	0xbd0d56c5	-0.034506578
213	0xbedec516	-0.4350974
214	0xbf43acbe	-0.7643546
215	0xbf83c6d7	-1.0295056
216	0xbf8b5887	-1.0886391
217	0xbf7940ef	-0.97364706
218	0xbf23b99c	-0.6395509
219	0xbe87b470	-0.2650485
220	0xbe6510a2	-0.22369626
221	0xbe329272	-0.17438677
222	0xbef2fd91	-0.4745908
223	0xbf4dda22	-0.8041097
224	0xbf618ef2	-0.8810874
225	0xbf28ddc7	-0.65963405
226	0xbecbe39e	-0.39822096
227	0xbd1bc853	-0.03803284
228	0x3ef46e5b	0.47740445
229	0x3f795796	0.9739927
230	0x3f9c7347	1.222268
231	0x3f951284	1.1646276
232	0x3f86300a	1.048341
233	0x3f30f7fb	0.6912839
234	0x3e516dcf	0.20452045
235	0x3ab53fb2	0.0013828187
236	0x3c0396b7	0.008031539
237	0x3e8f564e	0.27995533
238	0x3f3fa656	0.74863183
239	0x3f85846c	1.0431037
240	0x3f9dd449	1.2330409
241	0x3f92f581	1.1481172
242	0x3f6272ff	0.8845672
243	0x3f0d8198	0.5527587
244	0x3dd09b55	0.10185877
245	0xbdc2abd0	-0.09505427
246	0xbe9077a8	-0.2821629
247	0xbe8b8d7d	-0.27256384
248	0xbeaa4ed5	-0.3326327
249	0xbe840169	-0.25782326
250	0xbe9d9a66	-0.3078186
251	0xbedfd9e3	-0.43720922
252	0xbf4a644b	-0.79059285
253	0xbfa66cae	-1.3001916
254	0xbfe2839f	-1.7696418
255	0xc0030984	-2.0474558

net.bn1.weight f4 [8]
0	0x3fc69d12	1.5516684
1	0x3fe42ae2	1.7825587
2	0x400189bd	2.0240319
3	0x3fb5f75f	1.4216117
4	0x3f914a21	1.1350747
5	0x4000d599	2.013037
6	0x3f90c6d1	1.1310674
7	0x3f789597	0.97103256

net.bn1.bias f4 [8]
0	0xbd65aa83	-0.056070816
1	0xbdaf17c0	-0.08549452
2	0xbe616708	-0.2201196
3	0xbd8acd72	-0.06777467
4	0xbdfd5806	-0.12370305
5	0x3e8f8dbf	0.2803783
6	0xbd841441	-0.064491756
7	0x3dee49c6	0.11635165

net.bn1.running_mean f4 [8]
0	0xb9f6d40a	-0.00047078758
1	0xba94724c	-0.0011325567
2	0x38083af8	3.2479846e-05
3	0x3a3c8b32	0.00071923726
4	0xbaefd2a9	-0.0018297035
5	0xba187628	-0.00058159465
6	0xb9c62506	-0.00037793088
7	0x3aab9ac0	0.0013092384

net.bn1.running_var f4 [8]
0	0x4486d10a	1078.5325
1	0x44afcf8b	1406.4857
2	0x44be2483	1521.141
3	0x43c5b80c	395.43787
4	0x44008e11	514.2198
5	0x44be2b75	1521.358
6	0x43300e69	176.05629
7	0x43ea501b	468.62582

net.depth_conv.weight f4 [16, 1, 32, 1]
0	0xbe9a748b	-0.3016704
1	0x3e92dbc9	0.28683308
2	0x3f4fe29a	0.8120514
3	0x3a53a81f	0.0008074063
4	0x3f551151	0.8322955
5	0xbf262bb6	-0.6491045
6	0x3f2cfc80	0.67572784
7	0x3f06ffc3	0.5273401
8	0xbf823258	-1.0171614
9	0x3f19d806	0.6009525
10	0xbfb3e84d	-1.4055268
11	0xbe6917e0	-0.22763014
12	0xbf28dcbe	-0.65961826
13	0xbe620857	-0.22073494
14	0x3eedc39f	0.4643831
15	0x3f5e1217	0.8674635
16	0xbcc888d7	-0.024479313
17	0x3eecb4ed	0.46231785
18	0x3fce8720	1.6134987
19	0x3f3d5c30	0.7396879
20	0xbe4619cd	-0.1934578
21	0x3e839b52	0.25704437
22	0x3e8420be	0.2580623
23	0xbfbf5335	-1.4947268
24	0xbf964b1e	-1.1741674
25	0x3fa2a8ef	1.2707804
26	0xbec3d357	-0.38247177
27	0xbfbf6a5d	-1.4954334
28	0xbeb97630	-0.36222982
29	0xbec39c60	-0.38205242
30	0x3f4bff96	0.7968687
31	0x3bfdfb06	0.0077508716
32	0xbe148738	-0.14504707
33	0x3f508f01	0.81468207
34	0x3f5eedf3	0.8708183
35	0x3db0220b	0.08600243
36	0x3fc00c23	1.5003704
37	0x3eb06f65	0.34459987
38	0xbf1994a3	-0.59992427
39	0xbe9c8f6e	-0.30578178
40	0xbffbfe8d	-1.9687058
41	0x3f5ddb56	0.86662805
42	0xbeecd825	-0.46258655
43	0xbdb93a49	-0.0904432
44	0xbfcf97ea	-1.6218235
45	0xbf3b87bd	-0.73253995
46	0xbc277c2a	-0.010222474
47	0x3f0836af	0.5320844
48	0x3e814bdf	0.25253198
49	0x3e40b856	0.18820319
50	0x3f5a272d	0.8521603
51	0x3f87ab58	1.0599165
52	0x3f35e139	0.7104679
53	0x3fdd90c6	1.7309806
54	0x3eeba3ae	0.46023315
55	0xbf907991	-1.1287099
56	0xbfb2208d	-1.3916184
57	0x3f0feba0	0.5621891
58	0x3ddafd9a	0.10692902
59	0xbefeeb9c	-0.4978913
60	0xbf899171	-1.074751
61	0xbf1cc537	-0.61238426
62	0x3f59345c	0.8484552
63	0x3e04e5e5	0.12978323
64	0x3dda6d2e	0.106653556
65	0x3f6477df	0.8924541
66	0x3ed72645	0.42021385
67	0xbf089c03	-0.53363055
68	0x3f40dc3d	0.75336057
69	0xbda53219	-0.08066196
70	0x3ed76b69	0.42074135
71	0xbe6298d8	-0.22128618
72	0xbe9bb937	-0.30414745
73	0xc023a307	-2.5568254
74	0xbd18948a	-0.037251033
75	0x3eda31ca	0.4261611
76	0x3eb4f410	0.35342455
77	0x3fae63a6	1.362416
78	0xbe18fb20	-0.14939547
79	0x3e626672	0.22109392
80	0x3e8d691d	0.27619258
81	0x3e6f9500	0.23396683
82	0x3ee1b7e3	0.44085607
83	0x3f6c1b12	0.92228806
84	0x3f6a306b	0.9148013
85	0xbeaecabc	-0.3413905
86	0xbd87a4be	-0.06623219
87	0x3bd827e3	0.0065965517
88	0xbf8f0c7e	-1.1175687
89	0xbec3a8e4	-0.3821479
90	0xbf8c13e7	-1.0943574
91	0xbe8a5aac	-0.27022302
92	0xbca3b65a	-0.019984413
93	0xbe9c9bec	-0.3058771
94	0x3ea6afd4	0.3255602
95	0x3e8212fb	0.25405106
96	0xbe91d32b	-0.2848142
97	0xbf42a78e	-0.7603692
98	0xbf5aeb99	-0.85515743
99	0xbf59eb0a	-0.85124266
100	0xbf5a4e25	-0.8527549
101	0x3f19db4f	0.60100263
102	0x3ed35103	0.41272745
103	0x3fc43a4e	1.5330293
104	0xbf10006f	-0.5625066
105	0x40124d5b	2.2859714
106	0xbf040cc9	-0.5158201
107	0x3e6fef2e	0.23431084
108	0xbbedb37e	-0.007254063
109	0xbea9abe9	-0.3313897
110	0xbd6a05d6	-0.05713447
111	0xbe773e15	-0.24144776
112	0xbdbd0506	-0.09229474
113	0xbf0c5477	-0.54816383
114	0xbd1f6720	-0.038916707
115	0x3d53de70	0.051725805
116	0xbf4d668d	-0.80234605
117	0xbe96fead	-0.29491177
118	0xbf14ade4	-0.58077836
119	0x3f2e5886	0.68103826
120	0x3e896a2a	0.2683881
121	0xbf03e5f0	-0.5152273
122	0x3fd5d948	1.6706934
123	0x3ecd97fd	0.4015502
124	0xbf63d298	-0.88993216
125	0x3f2e0671	0.6797858
126	0xbf2abb20	-0.6669178
127	0x3dc18e35	0.09450952
128	0xbd76caa0	-0.060251832
129	0xbf8e8169	-1.1133243
130	0xbefde1a0	-0.495862
131	0xbee9f4b4	-0.45694506
132	0xbe9156d9	-0.28386572
133	0x3edb661d	0.42851344
134	0xbead006b	-0.3378938
135	0x3fab76b2	1.3395598
136	0x3e72a728	0.23696578
137	0x404346d7	3.0511987
138	0x3d0af769	0.033927355
139	0x3dacee09	0.08443839
140	0xbf265810	-0.6497812
141	0xbfbefdd0	-1.4921207
142	0x3e5d3494	0.21602088
143	0x3cb59ff1	0.022170993
144	0xbe9d1867	-0.3068268
145	0xbe9833e1	-0.2972708
146	0xbf3967e5	-0.72424155
147	0xbea63ef5	-0.32469907
148	0xbf5172ad	-0.81815606
149	0x3f394fcb	0.7238738
150	0x3dff243c	0.12458083
151	0x3edd925c	0.43275726
152	0x3efd5557	0.49479172
153	0x3ecd36dc	0.40080917
154	0x3f70ca1a	0.9405838
155	0x3f6c1b0e	0.9222878
156	0xbf04b495	-0.51838046
157	0xbe536559	-0.2064413
158	0xbf2dc844	-0.67883706
159	0x3e91b333	0.2845703
160	0x3ce0881c	0.027408652
161	0x3eac7cfc	0.33689106
162	0xbf0a6b44	-0.54069924
163	0xbf850092	-1.0390799
164	0xbf715700	-0.94273376
165	0x3eefa1bb	0.46803078
166	0x3f203f71	0.62596804
167	0x3fbe7071	1.4878064
168	0xbf825c37	-1.0184392
169	0x3de1eb1c	0.11031172
170	0xbf207320	-0.62675667
171	0x3f172299	0.59037167
172	0x3f30873b	0.68956345
173	0x3f8927b7	1.0715245
174	0xbe968608	-0.29399133
175	0xbe49f314	-0.19721633
176	0x3d693a89	0.05694059
177	0xbe8433c4	-0.25820744
178	0x3f233d2b	0.6376521
179	0x3f06e39e	0.52691066
180	0x3c03dcd9	0.00804826
181	0xbf606f93	-0.8767025
182	0xbf35146e	-0.707343
183	0x3f3ae4a1	0.7300511
184	0xbf2fbdf2	-0.6864921
185	0xbf930e02	-1.148865
186	0x3fa5e9cb	1.2961973
187	0x3d955ab1	0.07292689
188	0xbf9de31b	-1.2334932
189	0x3fb63c53	1.423716
190	0xbe2fcc16	-0.17167696
191	0x3df6bba1	0.12047506
192	0x3f249646	0.642918
193	0xbdd6450a	-0.10462387
194	0x3e9419c5	0.2892591
195	0x3dc48867	0.09596329
196	0x3f1983c9	0.59966713
197	0xbe9f459d	-0.31107798
198	0xbfa9f4ae	-1.3277795
199	0x3e8959ba	0.26826268
200	0xbd8e7165	-0.06955222
201	0xbddb422a	-0.10705979
202	0xbf2988bb	-0.6622426
203	0xbec6605c	-0.3874539
204	0x3f2924c0	0.660717
205	0x3e65712f	0.22406457
206	0xbebd4b31	-0.3697143
207	0x3e69b862	0.22824243
208	0x3dc3fd34	0.09569779
209	0x3db980ac	0.09057745
210	0xbf3df03f	-0.7419471
211	0xbf7ecd1a	-0.9953171
212	0xbe7c31c2	-0.24628356
213	0xbdc3b03d	-0.09555099
214	0x3d80ddd1	0.06292308
215	0x3f06f8d3	0.52723426
216	0x3fe7ac01	1.8099366
217	0xbfdebdca	-1.7401669
218	0x400911d0	2.1417122
219	0x3fab0d19	1.3363372
220	0xbe7063e6	-0.23475608
221	0xbfca258f	-1.5792712
222	0x3d931c88	0.07183176
223	0x3efd433a	0.49465352
224	0x3eaa448c	0.33255422
225	0xbea239cf	-0.3168473
226	0x3e9e474f	0.3091378
227	0xbeff9be9	-0.49923638
228	0x3f6b9453	0.920232
229	0xbd8806f5	-0.06641952
230	0xbed499c0	-0.41523552
231	0x3f3d4ef5	0.73948604
232	0xbd4472bf	-0.047960993
233	0xbe00d4ae	-0.12581131
234	0xbfdd10a8	-1.7270708
235	0xbe816fef	-0.2528071
236	0xbd790353	-0.060794186
237	0x3eb54521	0.35404304
238	0xbca69c87	-0.02033831
239	0x3f58b71f	0.8465442
240	0x3f70f371	0.9412146
241	0xbdae43e1	-0.085090406
242	0xbeb3c7bc	-0.35113323
243	0xbf407509	-0.7517858
244	0xbf16db56	-0.5892843
245	0xbf6edf5d	-0.93309575
246	0x3ef599a3	0.47968778
247	0x3e218075	0.15771659
248	0x3fd1d571	1.6393262
249	0xbfa53424	-1.2906537
250	0x4004b556	2.0735679
251	0x3fac140e	1.344362
252	0xbdc0e1d4	-0.09418073
253	0xbfc7a6a1	-1.5597726
254	0x3c457df3	0.012053954
255	0x3e89c1b5	0.269056

net.bn2.weight f4 [16]
0	0x3fcd7f1f	1.6054419
1	0x3fd58967	1.6682557
2	0x400e1d78	2.2205486
3	0x40059185	2.0870068
4	0x4011e8ea	2.279841
5	0x4012b1b0	2.2920952
6	0x3fcff12b	1.6245474
7	0x3fda2c5c	1.7044787
8	0x3f8b7508	1.089509
9	0x3fddf796	1.7341182
10	0x400f8ab5	2.242841
11	0x401583f0	2.3361778
12	0x3fd7f795	1.6872431
13	0x3fd5d69d	1.670612
14	0x3fcb733f	1.5894545
15	0x3fd8062c	1.6876884

net.bn2.bias f4 [16]
0	0xbee947e4	-0.4556266
1	0xbefa81cb	-0.4892715
2	0xbf1ed6b9	-0.6204639
3	0xbf2a28ca	-0.6646849
4	0xbf231b4f	-0.63713545
5	0xbf224f3a	-0.6340214
6	0xbf019b81	-0.50627905
7	0xbeff40dd	-0.49854174
8	0xbe61e6b3	-0.22060661
9	0xbf0cdb6e	-0.55022323
10	0xbf17e8f3	-0.5933983
11	0xbf2de36c	-0.67925143
12	0xbeddfc9d	-0.4335679
13	0xbed6b64a	-0.4193595
14	0xbee84c50	-0.45370722
15	0xbedb60e5	-0.42847362

net.bn2.running_mean f4 [16]
0	0xbcd75370	-0.026284903
1	0xbd9001b8	-0.07031578
2	0xbd974931	-0.07387007
3	0x3d91ecb9	0.071252294
4	0xbe5b3d42	-0.21410087
5	0xbdf67434	-0.12033883
6	0xbd3d0350	-0.046145737
7	0xbdae0c17	-0.084984
8	0xbe34e0ed	-0.17663927
9	0x3d932e01	0.07186509
10	0xbed0bea2	-0.4077044
11	0x3f11e3c5	0.56988174
12	0xbbe3ed30	-0.006955765
13	0x3caf3221	0.021386208
14	0xbd9156ab	-0.07096609
15	0x3d832fe9	0.064056225

net.bn2.running_var f4 [16]
0	0x4183952c	16.447838
1	0x410cdbb8	8.803642
2	0x416ceb51	14.80745
3	0x40eef70c	7.467657
4	0x415e1ba0	13.881744
5	0x41e028a5	28.019846
6	0x41de1f1f	27.765196
7	0x41c7a6a1	24.956362
8	0x412f5061	10.957124
9	0x41857beb	16.685507
10	0x41f57ee3	30.686956
11	0x4150a78c	13.040905
12	0x429f3190	79.5968
13	0x42da1c0c	109.05478
14	0x41214d5c	10.081387
15	0x419cc898	19.597946

net.point_conv.weight f4 [16, 16, 1, 16]
0	0x3e801192	0.25013405
1	0x3e9d2ead	0.30699673
2	0x3ef6d344	0.48208058
3	0x3e9b77e9	0.30364922
4	0x3e92fdf1	0.28709367
5	0x3e1ee67d	0.15517612
6	0x3d6bf911	0.057610575
7	0x3d64c078	0.055847615
8	0xbd43ad04	-0.047772422
9	0x3db99e24	0.09063366
10	0xbcc298eb	-0.023754558
11	0x3d6abebf	0.057310816
12	0x3ddc90d6	0.10769813
13	0x3e3d01b7	0.18457685
14	0x3e976c0c	0.2957462
15	0x3eca9ba4	0.3957187
16	0x3e4636bc	0.19356817
17	0x3e685d19	0.22691764
18	0x3ed0b084	0.4075967
19	0x3ef99f96	0.48754567
20	0x3f1b7245	0.60721236
21	0x3f4d2314	0.8013165
22	0x3f64684f	0.8922166
23	0x3f854a0a	1.041322
24	0x3f72e74a	0.9488417
25	0x3f68985c	0.9085748
26	0x3f254df2	0.6457206
27	0x3ee18ece	0.44054264
28	0x3e9db1c3	0.30799684
29	0x3e741d57	0.23839317
30	0x3e71cfef	0.23614477
31	0x3ec3c2fa	0.38234693
32	0x3e4f93cd	0.20271225
33	0x3e980813	0.2969366
34	0x3e99d856	0.30047864
35	0x3ea8488c	0.3286785
36	0x3e86704f	0.2625756
37	0x3eaf4905	0.34235397
38	0x3ea9c539	0.3315828
39	0x3ecec282	0.40382773
40	0x3f089484	0.53351617
41	0x3f0b57a5	0.5443061
42	0x3f28be09	0.6591497
43	0x3f3408e5	0.7032607
44	0x3f23a0fc	0.6391752
45	0x3f203b3b	0.6259038
46	0x3f04d46b	0.51886624
47	0x3f0aef0b	0.54271
48	0xbe67642f	-0.22596811
49	0xbe522b44	-0.20524317
50	0xbd96e2cf	-0.07367479
51	0x3cd042d7	0.025422497
52	0x3b8da0a7	0.00432213
53	0x3cfbaa30	0.0307208
54	0x3bfba016	0.007678996
55	0x3cfb13e1	0.030649127
56	0xbd8734fc	-0.06601903
57	0x3d959041	0.07302905
58	0xbcb95ca5	-0.022627184
59	0x3cd21807	0.025646223
60	0x3c01280b	0.007883082
61	0x3d94e779	0.072707124
62	0x3e1e749e	0.15474173
63	0x3e14dca2	0.1453729
64	0x3e37d891	0.17953707
65	0x3e8d2ba2	0.27572352
66	0x3e91104c	0.28332746
67	0x3eb722cf	0.35768744
68	0x3ee986e8	0.45610738
69	0x3ead6287	0.33864233
70	0x3ed031a7	0.40662882
71	0x3ed2fb6e	0.4120745
72	0x3e9ede84	0.3102914
73	0x3e59c544	0.21266657
74	0x3e29f431	0.16597058
75	0x3e815d16	0.2526633
76	0x3e137f89	0.1440412
77	0x3e87af95	0.26501146
78	0x3eae3a65	0.34028926
79	0x3ea2c58b	0.31791338
80	0xbe6fb65a	-0.23409405
81	0xbe0fa267	-0.14026795
82	0xbdc7f02b	-0.09762605
83	0x3c337cbb	0.010955031
84	0x3e60e9fe	0.21964261
85	0x3e14a701	0.14516832
86	0x3e73a41a	0.23793069
87	0x3e2d97c9	0.16952433
88	0xbd02c652	-0.031927414
89	0xbd1b946f	-0.037983354
90	0xbe565bf3	-0.20933513
91	0xbe9f5532	-0.31119686
92	0xbee2ea84	-0.44319546
93	0xbf07baea	-0.53019583
94	0xbed8dd51	-0.4235635
95	0xbe720126	-0.2363325
96	0x3f82198c	1.0164046
97	0x3f621522	0.88313496
98	0x3f44ab92	0.76824296
99	0x3f333038	0.6999545
100	0x3f39dbf1	0.7260123
101	0x3f411246	0.7541851
102	0x3f37e7f9	0.7183834
103	0x3f29a05a	0.662603
104	0x3f333276	0.6999887
105	0x3f4a840a	0.79107726
106	0x3f529391	0.8225642
107	0x3f446568	0.76717234
108	0x3f0fa439	0.5610996
109	0x3eb7f315	0.35927644
110	0x3ead529e	0.33852094
111	0x3e8cb26a	0.2747987
112	0x3f6f74ae	0.93537414
113	0x3f5ba9aa	0.8580576
114	0x3f47c869	0.78040177
115	0x3f5eb51e	0.8699511
116	0x3f8856f1	1.0651532
117	0x3f897df2	1.074156
118	0x3f8605b6	1.0470493
119	0x3f54c03c	0.83105826
120	0x3f35cb0a	0.7101294
121	0x3f50d4c1	0.81574637
122	0x3f5e3b7b	0.8680951
123	0x3f42de8d	0.76120836
124	0x3f326cb4	0.6969712
125	0x3f13d860	0.5775204
126	0x3f1f9b9a	0.62346804
127	0x3f0dabaa	0.55340064
128	0x3e44814d	0.1918995
129	0x3e9cca51	0.30623105
130	0x3ed78aa0	0.4209795
131	0x3ef1f8b7	0.47260067
132	0x3f0552bf	0.52079386
133	0x3f00f293	0.5037014
134	0x3f162d15	0.5866254
135	0x3f00baf5	0.50285274
136	0x3efb7de2	0.49119478
137	0x3ee7749b	0.4520615
138	0x3e5c3b83	0.21507077
139	0x3de8d714	0.11369148
140	0xbdf9563d	-0.12174652
141	0xbe3a453c	-0.18190473
142	0xbe91eb53	-0.2849985
143	0xbe96b17e	-0.2943229
144	0x3f0dec20	0.55438423
145	0x3f16f1ac	0.5896251
146	0x3f06c0c1	0.5263787
147	0x3ef37de9	0.47557
148	0x3ee8511b	0.4537438
149	0x3ec79a47	0.38984892
150	0x3e825f80	0.25463486
151	0x3e20d765	0.15707166
152	0x3e1777cc	0.14791793
153	0x3e198d15	0.14995225
154	0x3e5c53e2	0.21516374
155	0x3e912e8f	0.28355834
156	0x3ee62cdc	0.449561
157	0x3eece110	0.4626546
158	0x3f0c4c83	0.5480425
159	0x3f162301	0.5864716
160	0xbe9a064e	-0.30082935
161	0xbde7be50	-0.11315596
162	0xbd0b293e	-0.03397488
163	0x3d21c92c	0.039498493
164	0x3d96d5a7	0.0736497
165	0xbc755e04	-0.014976028
166	0x3d18f76d	0.03734534
167	0xbc0ccd53	-0.008593875
168	0xbde4fe5f	-0.1118133
169	0xbe98dc96	-0.29855794
170	0xbeb052b2	-0.34438092
171	0xbea61d76	-0.32444352
172	0xbe7487bb	-0.23879902
173	0xbe85f4a2	-0.26163203
174	0xbe85866b	-0.26079115
175	0xbe8c0dcd	-0.2735428
176	0x3e2bbcdb	0.16771261
177	0x3dec76f3	0.11546125
178	0x3e610560	0.21974707
179	0x3e4ab307	0.19794856
180	0x3e58cb26	0.21171245
181	0x3e07f223	0.13275962
182	0x3e04bb39	0.12962045
183	0x3df0aeb9	0.11752076
184	0x3d0de49a	0.03464184
185	0x3d529ae5	0.05141725
186	0xbd83cf41	-0.06436015
187	0xbb9ef939	-0.004851487
188	0xbc89d2b7	-0.01682411
189	0x3ba6104d	0.005067861
190	0xbd98180b	-0.07426461
191	0xbd0e1a0d	-0.034692813
192	0x3f720593	0.94539756
193	0x3f77b48a	0.96759856
194	0x3f6fabea	0.93621695
195	0x3f808a06	1.0042121
196	0x3f899dab	1.0751241
197	0x3f657cd3	0.8964359
198	0x3f569bb3	0.8383133
199	0x3f5806a4	0.8438513
200	0x3f3fcbca	0.7492033
201	0x3f22e931	0.6363707
202	0x3f2e66d6	0.68125665
203	0x3f136381	0.57573706
204	0x3ef63c1a	0.4809273
205	0x3f18f334	0.597461
206	0x3f2e9ec7	0.68211025
207	0x3f403687	0.750832
208	0x3f33a39e	0.70171535
209	0x3f16a06d	0.5883854
210	0x3f0adfba	0.5424763
211	0x3ebb763b	0.3661364
212	0x3ec86826	0.3914196
213	0x3ed38fbc	0.41320598
214	0x3e758447	0.23976241
215	0x3ea98820	0.33111668
216	0x3e8905d3	0.26762256
217	0x3e70ac9c	0.23503345
218	0x3e6be463	0.23036341
219	0x3eb71311	0.35756734
220	0x3ea39f2b	0.31957373
221	0x3ea5d0d9	0.323859
222	0x3e828947	0.2549536
223	0x3eece8ab	0.46271262
224	0x3ee7fae5	0.45308605
225	0x3f1d1fcb	0.6137664
226	0x3f3e900a	0.74438536
227	0x3f6516fd	0.894882
228	0x3f4c1a17	0.7972731
229	0x3f4d91d7	0.8030066
230	0x3f44a376	0.7681192
231	0x3f55173e	0.8323859
232	0x3f5577b3	0.8338577
233	0x3f49f3c0	0.7888756
234	0x3f390431	0.7227202
235	0x3f342124	0.7036307
236	0x3f0e6dc8	0.5563626
237	0x3f096caf	0.53681463
238	0x3f05a769	0.5220857
239	0x3f0de432	0.55426323
240	0x3ea4721f	0.32118317
241	0x3ecee7d8	0.40411258
242	0x3ea4409b	0.3208054
243	0x3ee1a494	0.44070876
244	0x3f016342	0.5054208
245	0x3f15f568	0.58577585
246	0x3f1c1a5f	0.6097774
247	0x3f21ba6a	0.6317507
248	0x3f2606c3	0.6485407
249	0x3f010d79	0.5041118
250	0x3f0a743e	0.5408362
251	0x3ee39cd8	0.444556
252	0x3ecc624a	0.3991874
253	0x3ec5ec54	0.38656867
254	0x3ea78dcd	0.32725373
255	0x3e8d464b	0.27592692

net.bn3.weight f4 [16]
0	0x3f52c5a6	0.8233284
1	0x3ff51e92	1.9149954
2	0x4009c12a	2.1524148
3	0x3fb28fdb	1.3950151
4	0x3f878462	1.0587275
5	0x3fd53817	1.6657742
6	0x3f0e7078	0.55640364
7	0x3f61fb69	0.88274246
8	0x3fe12794	1.7590203
9	0x3f838fe1	1.0278283
10	0x40076b50	2.1159248
11	0x3fbffc68	1.4998903
12	0x3f55779f	0.8338565
13	0x3fefac32	1.8724425
14	0x3f9700f6	1.1797168
15	0x40037a3a	2.054335

net.bn3.bias f4 [16]
0	0xbe55f61c	-0.20894665
1	0xbeb0d609	-0.34538296
2	0xbf25dce9	-0.6479021
3	0x3da8cbb0	0.08241975
4	0x3cd9c0c4	0.026581176
5	0xbecc9b23	-0.3996211
6	0x39242ba7	0.0001565652
7	0xbdf980f7	-0.12182801
8	0xbed51ab5	-0.41621938
9	0x3daec130	0.08532941
10	0xbf233376	-0.637504
11	0xbd92408a	-0.07141216
12	0xbeadd9e2	-0.33955294
13	0xbef7375e	-0.4828443
14	0x3d0800dd	0.03320395
15	0xbf1d8bc2	-0.6154138

net.bn3.running_mean f4 [16]
0	0x406dc549	3.7151663
1	0x400732ac	2.1124678
2	0xc0f20ea3	-7.5642867
3	0x40b48be5	5.642077
4	0x409033ad	4.506308
5	0xc0b9bc55	-5.8042397
6	0xbef1664b	-0.47148356
7	0xbfc139f4	-1.5095811
8	0x3e86819f	0.26270768
9	0x40ab3fcf	5.351539
10	0xc0ee6efb	-7.4510474
11	0x40652b44	3.5807657
12	0x40822105	4.0665307
13	0xc0f0efc7	-7.5292697
14	0x408c1888	4.3779945
15	0xc0ed0eeb	-7.408071

net.bn3.running_var f4 [16]
0	0x4430c4b9	707.0738
1	0x446b9359	942.3023
2	0x449fd729	1278.7238
3	0x44910acd	1160.3375
4	0x44414ee3	773.2326
5	0x448be69b	1119.2064
6	0x4403d68d	527.35236
7	0x443798ad	734.38556
8	0x444a379c	808.8689
9	0x4473859a	974.0875
10	0x44a5934d	1324.6031
11	0x44492c53	804.69257
12	0x441646de	601.1073
13	0x449d44cb	1258.1498
14	0x444e418b	825.0241
15	0x4493751b	1179.6595

net.fc.weight f4 [32, 256]
0	0xbe5a8c3f	-0.21342562
1	0xbea705f8	-0.3262174
2	0xbf23a32c	-0.63920856
3	0xbdafb72c	-0.08579859
4	0xbe85778f	-0.26067778
5	0xbe811eaa	-0.25218707
6	0xbcd8182f	-0.02637872
7	0xbe0a84a0	-0.13527155
8	0xbee5f4c6	-0.4491331
9	0xbee9394a	-0.4555152
10	0x3d55a046	0.0521548
11	0xbe0ceb26	-0.13761577
12	0xbe6a091e	-0.2285504
13	0xbe73fd57	-0.2382711
14	0xbf481518	-0.78157187
15	0xbf1248d8	-0.571424
16	0xbe632438	-0.22181785
17	0xbe51aae2	-0.20475343
18	0xbd3c1428	-0.04591766
19	0xbedad1a9	-0.42738083
20	0xbf08cf78	-0.5344157
21	0xbf3014c5	-0.6878169
22	0xbf0ec1c7	-0.5576443
23	0xbecd7b58	-0.40133166
24	0xbe82178b	-0.25408587
25	0x3dad8140	0.08471918
26	0x3e4c38f9	0.19943608
27	0xbf180a16	-0.5939039
28	0xbf785bc4	-0.97015023
29	0xbf3cea5a	-0.7379509
30	0xbe8d8cb9	-0.27646425
31	0x3e24e58c	0.1610319
32	0x3e0c7a7b	0.13718598
33	0x3ec3a7cd	0.3821396
34	0xbd450049	-0.048095975
35	0x3ef1e4b3	0.47244796
36	0x3f8c4ce1	1.0960962
37	0x3f809fa4	1.0048718
38	0x3f0dcd93	0.55391806
39	0x3ec36165	0.38160244
40	0x3f4f3ff9	0.8095699
41	0x3ebcf969	0.36909035
42	0x3eb5f7e1	0.3554068
43	0x3f014a7f	0.50504297
44	0x3f8ba95d	1.091106
45	0x3f8acc34	1.0843568
46	0x3f010e19	0.50412136
47	0x3e85fa68	0.26167607
48	0x3e85a489	0.26102093
49	0xbe060a51	-0.13089873
50	0xbf3a066d	-0.72666055
51	0xbe83b571	-0.25724366
52	0xbe63e1b7	-0.22254072
53	0xbf5b2707	-0.85606426
54	0xbf4c7c3a	-0.79877055
55	0xbecd40b0	-0.40088415
56	0xbeae645f	-0.34060952
57	0xbdb86cea	-0.09005149
58	0xbeaf47ed	-0.34234563
59	0xbe8d2313	-0.27565822
60	0xbe97ad9e	-0.29624647
61	0xbf472160	-0.777853
62	0xbebce3c5	-0.36892524
63	0xbf2b7f70	-0.6699133
64	0xbe6939d9	-0.22775973
65	0xbec9716a	-0.3934434
66	0x3d3e2730	0.04642409
67	0xbe6721ce	-0.22571489
68	0xbf200be7	-0.6251816
69	0xbeb81410	-0.35952806
70	0xbe0f18c0	-0.13974285
71	0xbed1f964	-0.41010582
72	0xbeb4b2d8	-0.35292697
73	0xbd616b20	-0.055033803
74	0x3e998e7d	0.29991522
75	0xbf26ab58	-0.651052
76	0xbf015913	-0.5052654
77	0xbecc76cf	-0.39934394
78	0xbdca87cb	-0.09889182
79	0xbe48991f	-0.19589661
80	0xbe6946b5	-0.22780879
81	0xbc113736	-0.008863261
82	0x3e606a38	0.21915519
83	0x3f1659ab	0.5873057
84	0x3f010bdc	0.5040872
85	0x3f1862ad	0.5952557
86	0x3ec634f5	0.38712278
87	0x3efaf392	0.49013954
88	0x3eac04e6	0.33597487
89	0x3cc41452	0.02393547
90	0x3e4a43fa	0.19752494
91	0x3eaa3acd	0.33247986
92	0x3f698922	0.91224873
93	0x3f450834	0.7696564
94	0x3e36097b	0.17777054
95	0x3e63ad43	0.22234063
96	0xbe2c8b30	-0.16849971
97	0xbe070c32	-0.13188246
98	0xbeaba910	-0.33527422
99	0xba46d30c	-0.0007584549
100	0x3d4f44bf	0.05060267
101	0xbd40518e	-0.046952777
102	0x3aea2450	0.0017863605
103	0xbe4d75f8	-0.20064533
104	0x3c9b871a	0.01898532
105	0xbe0b045f	-0.13575886
106	0xbf21f01d	-0.6325701
107	0xbeda0a64	-0.42586052
108	0x3e41b985	0.18918426
109	0xbc99c773	-0.018771863
110	0xbe87b9be	-0.26508898
111	0xbe973360	-0.29531384
112	0xbe425cf7	-0.18980776
113	0xbe57de46	-0.21080884
114	0xbce044fb	-0.027376642
115	0xbd9a2a3e	-0.07527588
116	0xbd33b73e	-0.043875925
117	0x3e297faa	0.16552606
118	0x3ec18219	0.3779457
119	0xbe3d096e	-0.18460628
120	0xbe2e7aa0	-0.17038965
121	0x3e23b7b7	0.1598805
122	0xbe3fb3c0	-0.18720913
123	0x3c969f25	0.018386433
124	0x3d5d211f	0.053986665
125	0xbe4e51c5	-0.2014838
126	0xbe32e0f9	-0.17468633
127	0xbe90154f	-0.28141257
128	0x3e54f99c	0.20798343
129	0x3e1e1774	0.15438634
130	0xbdb57176	-0.088595316
131	0xbe3001b0	-0.17188144
132	0xbec48a80	-0.38386917
133	0xbefac69f	-0.4897966
134	0x3d1aa1bf	0.03775191
135	0xbe21402f	-0.1574714
136	0xbf05326b	-0.52030057
137	0x3c16e60e	0.009210123
138	0x3ed82ae8	0.42220235
139	0xbe1187e1	-0.1421199
140	0xbf12f02c	-0.57397723
141	0xbf187be6	-0.59564054
142	0xbe885810	-0.26629686
143	0x3e98b7f5	0.29827848
144	0xbea9f1a1	-0.3319216
145	0xbd74f2b8	-0.059801787
146	0xbed82ba0	-0.42220783
147	0xbd785b67	-0.060634043
148	0xbe63fda2	-0.22264722
149	0xbe8202ca	-0.25392753
150	0xbe3dd22a	-0.18537202
151	0xbe68068e	-0.2265875
152	0xbe1e14ad	-0.15437575
153	0xbcd22d06	-0.025656234
154	0x3d096f27	0.03355327
155	0xbe9265d9	-0.2859333
156	0xbf3b0eaf	-0.7306928
157	0xbe3fdfe6	-0.18737754
158	0xbf182f78	-0.5944743
159	0xbf2e3420	-0.68048286
160	0xbe0deb9c	-0.13859409
161	0x3e9c1757	0.30486557
162	0x3ebd5142	0.36976057
163	0x3efaa242	0.48951918
164	0x3f25ea60	0.6481075
165	0x3f76844b	0.96295613
166	0x3f4a3158	0.7898154
167	0x3f0ead96	0.5573362
168	0x3f52165b	0.8206536
169	0x3f03a230	0.51419353
170	0x3e18663e	0.14882752
171	0x3ef78a49	0.4834769
172	0x3f2545ac	0.64559436
173	0x3f85c319	1.0450164
174	0x3f524b2d	0.8214596
175	0x3ec7766c	0.38957536
176	0x3e181fe1	0.14855911
177	0xbe59610e	-0.2122843
178	0xbed4daa6	-0.41573066
179	0xbe9f3c18	-0.31100535
180	0xbe93866d	-0.28813496
181	0xbf141cab	-0.57856244
182	0xbe88e408	-0.26736474
183	0xbe011b07	-0.12607966
184	0x3e662ec4	0.22478777
185	0xbcc95075	-0.024574498
186	0xbd992a92	-0.07478823
187	0xbe4c5bb0	-0.19956851
188	0xbf63fa2c	-0.89053607
189	0xbf7d672b	-0.98985547
190	0xbec973e6	-0.39346236
191	0x3c8df19b	0.01732712
192	0xbe8e901f	-0.2784433
193	0xbf0eca03	-0.55776995
194	0xbe9fec01	-0.31234744
195	0x3e2826ce	0.16421053
196	0xbd1f7236	-0.03892728
197	0xbe933145	-0.28748527
198	0xbdfab09b	-0.12240716
199	0x3db4082d	0.08790622
200	0xbe8b0025	-0.27148548
201	0x3eb27037	0.34851238
202	0xbdda15b5	-0.106486715
203	0xbe4cffc1	-0.20019437
204	0xbe7c35b1	-0.24629857
205	0xbe425bd5	-0.18980344
206	0xbde7ee2f	-0.11324727
207	0xbeecb288	-0.4622996
208	0x3cb0498c	0.021519445
209	0x3dde6c5c	0.10860512
210	0x3e28a91b	0.16470759
211	0x3ecc44e9	0.39896324
212	0x3ecc4350	0.39895105
213	0x3f17b5f9	0.59262043
214	0x3f39d89a	0.7259613
215	0x3f08d967	0.5345673
216	0x3f0e221f	0.55520815
217	0x3e1b5821	0.15170337
218	0xbeaa6e10	-0.33287096
219	0x3e85ed33	0.2615753
220	0x3f429022	0.7600118
221	0x3f815583	1.0104221
222	0x3f35b879	0.7098461
223	0x3e97ca05	0.29646316
224	0xbe19ac45	-0.15007122
225	0xbe0b4a0d	-0.13602467
226	0x3ddae922	0.10688998
227	0xbe996318	-0.29958415
228	0xbef8c320	-0.4858637
229	0xbe41be14	-0.18920165
230	0xbecc3ec6	-0.39891642
231	0xbe8b99bb	-0.27265725
232	0xbe61f1e6	-0.22064933
233	0xbeac6bc7	-0.33675978
234	0x3cf66ce2	0.030081216
235	0x3b8870f1	0.0041638543
236	0xbf2ed75e	-0.68297374
237	0xbecbebf8	-0.39828467
238	0xbec95c72	-0.39328343
239	0xbe2e3e26	-0.17015895
240	0xbf122ec1	-0.5710259
241	0x3f0ac030	0.54199505
242	0xbea121a0	-0.31470966
243	0x3f2a23ac	0.6646068
244	0x3f9d23f6	1.22766
245	0x3f810966	1.0080993
246	0x3f03f3c9	0.5154386
247	0x3ea64fdd	0.32482806
248	0x3f122982	0.57094586
249	0x3efdcbd8	0.49569583
250	0x3d5175cc	0.05113773
251	0x3e838c9c	0.25693214
252	0x3f10e478	0.56598616
253	0x3f20e7db	0.62853783
254	0x3f1f4f03	0.6222994
255	0x3e830664	0.25590813

net.fc.bias f4 [32]
0	0xbf47e5c8	-0.78084993
1	0x3e5fff24	0.21874672
2	0xbf09aad6	-0.537763
3	0x3f95e2ab	1.1709799
4	0xbf55eb0e	-0.8356179
5	0x3ac81d18	0.001526746
6	0xbf90ce69	-1.1312991
7	0x3f406375	0.7515176
8	0x3ee4e505	0.44705978
9	0xbf84d368	-1.0377016
10	0xc0209682	-2.5091863
11	0x3f2ecfb4	0.6828568
12	0xbfc39eda	-1.5282853
13	0x3eb23910	0.3480916
14	0x3f2f3292	0.6843654
15	0xbf1a9e2a	-0.6039759
16	0xbf3b6bcd	-0.73211366
17	0xbfc4bedb	-1.5370744
18	0x3f5929cb	0.84829396
19	0x3f3f6b72	0.74773324
20	0x3f8c371a	1.0954316
21	0xbe5bc702	-0.21462634
22	0x3ef29628	0.47380185
23	0xbf55c002	-0.83496106
24	0xbfe87a98	-1.8162413
25	0x3ec7a171	0.38990358
26	0x3f427d1a	0.7597214
27	0xbf4d96da	-0.80308306
28	0x3f286b07	0.6578831
29	0x3f638d00	0.88887024
30	0x3f8bdb62	1.0926325
31	0x3f93d3bc	1.1548991

exp_avg f4 [8, 1, 1, 256]
0	0xb7d471af	-2.5325307e-05
1	0xb7d347c9	-2.5186588e-05
2	0xb7b93bf1	-2.2081631e-05
3	0xb7872237	-1.6109187e-05
4	0xb705cf06	-7.975619e-06
5	0x35a902f7	1.2592344e-06
6	0x372d7b42	1.0340302e-05
7	0x3798f30e	1.8232993e-05
8	0x37cae0af	2.4184903e-05
9	0x37f012e9	2.8619035e-05
10	0x3806f806	3.217908e-05
11	0x38167e0b	3.5880174e-05
12	0x382888f1	4.0181858e-05
13	0x383b15c3	4.460454e-05
14	0x384928a2	4.7959977e-05
15	0x384d3464	4.89246e-05
16	0x3843f598	4.672035e-05
17	0x382d136b	4.12645e-05
18	0x380b0f91	3.315468e-05
19	0x37c89cfd	2.3914961e-05
20	0x37829336	1.5565758e-05
21	0x3724cdef	9.823109e-06
22	0x37005d95	7.651183e-06
23	0x37147e91	8.850956e-06
24	0x374e4eda	1.2296916e-05
25	0x3785e704	1.596241e-05
26	0x379e79df	1.8891818e-05
27	0x37aeff35	2.0861256e-05
28	0x37ba3012	2.2195312e-05
29	0x37c65b17	2.3645856e-05
30	0x37df0520	2.6586058e-05
31	0x3805d09d	3.1903957e-05
32	0x3825b1dd	3.9504714e-05
33	0x384b7887	4.851122e-05
34	0x386f0be6	5.699312e-05
35	0x38837b69	6.269554e-05
36	0x38859009	6.368763e-05
37	0x38783b08	5.9182785e-05
38	0x3851cabc	5.0018294e-05
39	0x381e923f	3.7806338e-05
40	0x37ccadfc	2.4399713e-05
41	0x3741368f	1.1516399e-05
42	0x34c500df	3.6694743e-07
43	0xb715511e	-8.899979e-06
44	0xb78cdf77	-1.679336e-05
45	0xb7ccb4bf	-2.4402862e-05
46	0xb8075024	-3.2261145e-05
47	0xb828ae9b	-4.0216935e-05
48	0xb848be8f	-4.7861187e-05
49	0xb8612a0e	-5.3683347e-05
50	0xb86c56d3	-5.6347646e-05
51	0xb865d721	-5.479821e-05
52	0xb84c51c5	-4.8713544e-05
53	0xb821ea02	-3.8603328e-05
54	0xb7d8e5f3	-2.5856285e-05
55	0xb75130d3	-1.24687385e-05
56	0xb56dc82e	-8.858068e-07
57	0x36e5de5a	6.850617e-06
58	0x372262e3	9.678976e-06
59	0x370748b8	8.063558e-06
60	0x3676a6ee	3.6754022e-06
61	0xb580df50	-9.601736e-07
62	0xb6859023	-3.9804886e-06
63	0xb6920f97	-4.352954e-06
64	0xb60798ee	-2.0205584e-06
65	0x3611dabd	2.1734006e-06
66	0x36e79467	6.901613e-06
67	0x37369fd6	1.088526e-05
68	0x3760b657	1.3393895e-05
69	0x376f4a8d	1.4262868e-05
70	0x3776b2bb	1.47043565e-05
71	0x37834c55	1.5651962e-05
72	0x37942886	1.7661845e-05
73	0x37a8dfc1	2.0131354e-05
74	0x37b95d04	2.2097032e-05
75	0x37bc5c0f	2.2454215e-05
76	0x37a9e724	2.0254003e-05
77	0x378045ff	1.5291384e-05
78	0x370d7338	8.431081e-06
79	0x3583f90b	9.832742e-07
80	0xb6be8160	-5.6775025e-06
81	0xb7330dfe	-1.0672489e-05
82	0xb76355b0	-1.3550205e-05
83	0xb76fff1f	-1.430491e-05
84	0xb76b4eeb	-1.4025466e-05
85	0xb76b18a0	-1.4012825e-05
86	0xb7845654	-1.5775826e-05
87	0xb7a50c7f	-1.9675352e-05
88	0xb7d1bad8	-2.5001747e-05
89	0xb7fbade5	-3.0002508e-05
90	0xb809c410	-3.2845943e-05
91	0xb804187d	-3.149406e-05
92	0xb7d02c4a	-2.4816156e-05
93	0xb75c0985	-1.3115238e-05
94	0x35f3a4b2	1.8152843e-06
95	0x3791b9c0	1.7371844e-05
96	0x38017091	3.0860832e-05
97	0x3828a12f	4.0204435e-05
98	0x383b24f8	4.4618704e-05
99	0x383a9870	4.4487824e-05
100	0x382b8795	4.0895848e-05
101	0x3813f60f	3.527669e-05
102	0x37f6f979	2.9441655e-05
103	0x37ccd26d	2.4416682e-05
104	0x37aa2373	2.0282087e-05
105	0x3786e865	1.6082262e-05
106	0x37355f92	1.0810692e-05
107	0x365fef1e	3.3368774e-06
108	0xb6dfa32e	-6.6649145e-06
109	0xb79d0677	-1.8718869e-05
110	0xb800f5aa	-3.074637e-05
111	0xb82a26c2	-4.0567254e-05
112	0xb841353b	-4.606436e-05
113	0xb843c37a	-4.6673675e-05
114	0xb831dd42	-4.240615e-05
115	0xb811d864	-3.4772223e-05
116	0xb7d8c5f7	-2.5841391e-05
117	0xb799ea59	-1.8348148e-05
118	0xb7675800	-1.3789162e-05
119	0xb75c9f1b	-1.31500665e-05
120	0xb788f125	-1.6324755e-05
121	0xb7bee885	-2.275804e-05
122	0xb801ec2e	-3.0975956e-05
123	0xb827321b	-3.9862567e-05
124	0xb84c8c9a	-4.8768336e-05
125	0xb872b7b4	-5.7868383e-05
126	0xb88d501c	-6.7383255e-05
127	0xb8a37522	-7.7942634e-05
128	0xb8bcb10a	-8.997515e-05
129	0xb8da60c8	-0.00010413077
130	0xb8f71c1b	-0.00011783113
131	0xb907df4c	-0.00012957788
132	0xb910b10d	-0.00013798867
133	0xb9158596	-0.00014259512
134	0xb9160cfb	-0.0001430995
135	0xb91314b3	-0.00014026724
136	0xb90e090e	-0.00013545548
137	0xb908fc74	-0.00013064017
138	0xb904a452	-0.00012649715
139	0xb9012cc8	-0.00012319081
140	0xb8fb547b	-0.000119843484
141	0xb8f19df3	-0.00011521196
142	0xb8e14fe8	-0.0001074372
143	0xb8c8103f	-9.539769e-05
144	0xb8a61f6c	-7.9213496e-05
145	0xb87cb792	-6.0252445e-05
146	0xb82ba07b	-4.0919036e-05
147	0xb7c96474	-2.4007844e-05
148	0xb7441cc0	-1.1689204e-05
149	0xb69acfb5	-4.613738e-06
150	0xb6168beb	-2.2433185e-06
151	0xb6428956	-2.8988193e-06
152	0xb696df96	-4.496377e-06
153	0xb6b4832c	-5.3796884e-06
154	0xb6aa238c	-5.070533e-06
155	0xb6859870	-3.981455e-06
156	0xb66149c3	-3.3570548e-06
157	0xb695f8bf	-4.469504e-06
158	0xb70e0e67	-8.467213e-06
159	0xb7822deb	-1.551859e-05
160	0xb7cf3aa2	-2.4703626e-05
161	0xb80f7a3d	-3.42077e-05
162	0xb8307a78	-4.2075728e-05
163	0xb843ef4e	-4.6714493e-05
164	0xb84775da	-4.7555055e-05
165	0xb83d86e5	-4.518674e-05
166	0xb82b389e	-4.0822306e-05
167	0xb817b457	-3.616916e-05
168	0xb80a032f	-3.290473e-05
169	0xb8092d41	-3.270549e-05
170	0xb8163990	-3.5816396e-05
171	0xb82d170c	-4.126788e-05
172	0xb844e86e	-4.694651e-05
173	0xb854ee01	-5.0766397e-05
174	0xb85677f2	-5.1133284e-05
175	0xb847d3b4	-4.764246e-05
176	0xb82c0456	-4.1012034e-05
177	0xb80af66e	-3.313127e-05
178	0xb7d97af8	-2.5925678e-05
179	0xb7ae9269	-2.0810594e-05
180	0xb7998687	-1.8301665e-05
181	0xb7971034	-1.8008148e-05
182	0xb799ef4b	-1.835045e-05
183	0xb79737bf	-1.8026562e-05
184	0xb786e727	-1.6081683e-05
185	0xb74f6627	-1.2361946e-05
186	0xb7001643	-7.634578e-06
187	0xb6614706	-3.3568954e-06
188	0xb59bd858	-1.1611364e-06
189	0xb619c642	-2.2914178e-06
190	0xb6ea3605	-6.980032e-06
191	0xb76b6449	-1.4030441e-05
192	0xb7b26a99	-2.1268892e-05
193	0xb7daa6a7	-2.6065229e-05
194	0xb7e37976	-2.7117068e-05
195	0xb7c97ccd	-2.4019182e-05
196	0xb7947628	-1.7697996e-05
197	0xb7239ccd	-9.752065e-06
198	0xb63a9aae	-2.7806195e-06
199	0x35cad10d	1.5111015e-06
200	0x36302fd9	2.6253895e-06
201	0x3601c7f8	1.9338895e-06
202	0x35a896e4	1.256089e-06
203	0x36490529	2.9954338e-06
204	0x3718ac8b	9.100079e-06
205	0x37a83e6b	2.0056226e-05
206	0x3810388a	3.438493e-05
207	0x384fdf8c	4.956084e-05
208	0x3883a591	6.277406e-05
209	0x3896e464	7.1950984e-05
210	0x389efa29	7.580623e-05
211	0x389c1049	7.441693e-05
212	0x38906562	6.885339e-05
213	0x387f7214	6.090298e-05
214	0x385b751f	5.2322746e-05
215	0x383b8e46	4.4716777e-05
216	0x3823f5f1	3.909128e-05
217	0x3815f3ff	3.5751607e-05
218	0x380f3dc1	3.415137e-05
219	0x380aecde	3.3122364e-05
220	0x3804abf1	3.1631385e-05
221	0x37f57684	2.9261464e-05
222	0x37e06d5a	2.6753802e-05
223	0x37d36d17	2.5203959e-05
224	0x37d8e36b	2.5855106e-05
225	0x37f6f731	2.9440593e-05
226	0x38178f02	3.6134392e-05
227	0x383e6dd8	4.540183e-05
228	0x38699b3e	5.569611e-05
229	0x3888f271	6.5301436e-05
230	0x3899740f	7.317226e-05
231	0x38a4b90e	7.8545985e-05
232	0x38ab035c	8.154541e-05
233	0x38aca5d5	8.232488e-05
234	0x38aa9ad2	8.135069e-05
235	0x38a69b19	7.944386e-05
236	0x38a1ad59	7.709367e-05
237	0x389c816b	7.462766e-05
238	0x3896a2d3	7.182886e-05
239	0x388edb57	6.811943e-05
240	0x388456c3	6.310411e-05
241	0x386e35fb	5.6793895e-05
242	0x384fad7d	4.951422e-05
243	0x3831f859	4.243138e-05
244	0x381caa03	3.7351634e-05
245	0x3815cd91	3.5715817e-05
246	0x381ca81a	3.7349855e-05
247	0x382e1d71	4.1512252e-05
248	0x384560ef	4.7058737e-05
249	0x385e2836	5.2966374e-05
250	0x3873a902	5.8093116e-05
251	0x38821063	6.201935e-05
252	0x3888c2c1	6.521261e-05
253	0x38903045	6.875446e-05
254	0x389978c2	7.3181014e-05
255	0x38a5c07e	7.9036676e-05

exp_avg_sq f4 [8, 1, 1, 256]
0	0x3384ce5c	6.1842655e-08
1	0x337fe0b5	5.9576184e-08
2	0x3375dba8	5.7243284e-08
3	0x336d1a9c	5.5205064e-08
4	0x33667589	5.3657946e-08
5	0x3361e009	5.2590654e-08
6	0x335f03a3	5.192454e-08
7	0x335da33b	5.160403e-08
8	0x335d8eae	5.158534e-08
9	0x335e80f7	5.1805696e-08
10	0x336055f9	5.2232256e-08
11	0x33639ea8	5.2996853e-08
12	0x336966e4	5.434312e-08
13	0x3371ee10	5.63287e-08
14	0x337bb074	5.8600975e-08
15	0x33821100	6.056689e-08
16	0x3384d39b	6.18522e-08
17	0x338677f0	6.261678e-08
18	0x33880628	6.334113e-08
19	0x338a211b	6.4321476e-08
20	0x338c5dd1	6.536323e-08
21	0x338dc208	6.601118e-08
22	0x338db142	6.598067e-08
23	0x338c5c7d	6.5360815e-08
24	0x338a5d94	6.4431475e-08
25	0x33881c8e	6.3381876e-08
26	0x3385bc0a	6.227499e-08
27	0x338355cf	6.1157714e-08
28	0x3380fc09	6.0063094e-08
29	0x337ccbbb	5.8858614e-08
30	0x33762c40	5.7316583e-08
31	0x336ddc26	5.5381086e-08
32	0x33655550	5.339581e-08
33	0x335f3be0	5.197569e-08
34	0x335d3321	5.1502074e-08
35	0x335e2017	5.171759e-08
36	0x335f130e	5.1938564e-08
37	0x335e0be4	5.1699217e-08
38	0x335b9154	5.1122086e-08
39	0x3359cc6a	5.0710163e-08
40	0x335a6398	5.084766e-08
41	0x335d6c90	5.155431e-08
42	0x336208a0	5.262757e-08
43	0x336769a8	5.3879972e-08
44	0x336cefa9	5.5166e-08
45	0x33719950	5.6251622e-08
46	0x337431b4	5.6855882e-08
47	0x33742cb5	5.6851338e-08
48	0x3372565c	5.642356e-08
49	0x337050b5	5.5952757e-08
50	0x336f8c1e	5.577396e-08
51	0x3370eedc	5.6096596e-08
52	0x33753dcf	5.7099722e-08
53	0x337cdf39	5.8876342e-08
54	0x33837783	6.121902e-08
55	0x33883462	6.342522e-08
56	0x338a9f2f	6.455081e-08
57	0x33898d43	6.405255e-08
58	0x33859f2a	6.222247e-08
59	0x3380c5d2	5.996448e-08
60	0x3379d669	5.8169835e-08
61	0x3375f2a5	5.726419e-08
62	0x3375b825	5.7210986e-08
63	0x33786a62	5.7838754e-08
64	0x337d5abe	5.8988682e-08
65	0x3381c69d	6.043158e-08
66	0x33849dd3	6.175437e-08
67	0x3386684f	6.258835e-08
68	0x3386fdcf	6.286029e-08
69	0x3386d165	6.27795e-08
70	0x338653f5	6.255133e-08
71	0x33858e32	6.21916e-08
72	0x3384507e	6.1613704e-08
73	0x3382b973	6.08733e-08
74	0x3381162b	6.011063e-08
75	0x337f0039	5.9372017e-08
76	0x337b5604	5.8518722e-08
77	0x33769a98	5.741694e-08
78	0x33714aa0	5.6180056e-08
79	0x336cc4cb	5.5127014e-08
80	0x3369dfaa	5.445296e-08
81	0x3367ebc7	5.3998317e-08
82	0x33657e4e	5.343309e-08
83	0x33623e5c	5.267644e-08
84	0x335f9c8f	5.2063623e-08
85	0x335f7947	5.2031535e-08
86	0x33624765	5.268466e-08
87	0x3366e561	5.3759667e-08
88	0x336bd830	5.4911823e-08
89	0x33702914	5.5916715e-08
90	0x3373321c	5.662342e-08
91	0x337456e8	5.6889718e-08
92	0x3373a11a	5.6724367e-08
93	0x3372b5c8	5.6510345e-08
94	0x3374a41d	5.6959937e-08
95	0x337bca1d	5.8624313e-08
96	0x3383c983	6.1368176e-08
97	0x338a4440	6.4385404e-08
98	0x338f7e1a	6.681894e-08
99	0x3392cdfa	6.836122e-08
100	0x3394a2d7	6.9214074e-08
101	0x33958f51	6.964422e-08
102	0x3395dea5	6.978852e-08
103	0x3395ab85	6.9695524e-08
104	0x339535ee	6.948163e-08
105	0x33949ff1	6.92088e-08
106	0x3393a86d	6.8758574e-08
107	0x3391c3b5	6.7876876e-08
108	0x338eeeb4	6.65581e-08
109	0x338c1551	6.5231355e-08
110	0x338a45f8	6.438853e-08
111	0x33896acc	6.398986e-08
112	0x33881962	6.3376106e-08
113	0x3384f6d4	6.191627e-08
114	0x338041fa	5.9724655e-08
115	0x3377c044	5.7684034e-08
116	0x33735aab	5.666031e-08
117	0x3373b385	5.674112e-08
118	0x3375cc85	5.7229517e-08
119	0x33765bd7	5.7359866e-08
120	0x33740da4	5.6823083e-08
121	0x336f5336	5.5722204e-08
122	0x3368c322	5.419418e-08
123	0x3360bb86	5.2324616e-08
124	0x335800e8	5.0292243e-08
125	0x3350511e	4.850255e-08
126	0x334ba8e8	4.741824e-08
127	0x334bbe65	4.7437783e-08
128	0x3352113f	4.891012e-08
129	0x33610fee	5.2401383e-08
130	0x3377d56b	5.770327e-08
131	0x3389b007	6.411579e-08
132	0x33968fc7	7.011072e-08
133	0x339ee382	7.398832e-08
134	0x33a093f1	7.477491e-08
135	0x339c6a9b	7.2837075e-08
136	0x33952178	6.944441e-08
137	0x338d8966	6.590817e-08
138	0x33872669	6.293414e-08
139	0x338262de	6.0715806e-08
140	0x337e48d0	5.9205206e-08
141	0x337a2e03	5.824951e-08
142	0x3376d8b0	5.7473414e-08
143	0x33729629	5.6481586e-08
144	0x336cf62f	5.5171935e-08
145	0x3367666b	5.3877027e-08
146	0x3363af6b	5.3012098e-08
147	0x33622646	5.2654535e-08
148	0x33616c4a	5.2485383e-08
149	0x33602bb1	5.21938e-08
150	0x335e933b	5.1822308e-08
151	0x335dc84c	5.163774e-08
152	0x335e2422	5.1721265e-08
153	0x335e920a	5.1821225e-08
154	0x335dea7c	5.1668835e-08
155	0x335c835f	5.1342223e-08
156	0x335bbf9f	5.116419e-08
157	0x335c3188	5.126779e-08
158	0x335cbf04	5.139647e-08
159	0x335bf5c9	5.121345e-08
160	0x3359f9d1	5.0751456e-08
161	0x335879e7	5.040229e-08
162	0x335912e6	5.0541438e-08
163	0x335bd6db	5.118532e-08
164	0x335fee39	5.2137896e-08
165	0x3364f204	5.33055e-08
166	0x336b13d2	5.4733228e-08
167	0x3371db6f	5.631176e-08
168	0x337780fc	5.762648e-08
169	0x337a503c	5.8280634e-08
170	0x337a7357	5.8312562e-08
171	0x337a1090	5.8222724e-08
172	0x337b5bd7	5.852402e-08
173	0x337e9d02	5.928178e-08
174	0x33812bcf	6.014999e-08
175	0x3382791e	6.075628e-08
176	0x338311dd	6.103412e-08
177	0x33833929	6.11056e-08
178	0x3383039b	6.100819e-08
179	0x33824bc4	6.0673784e-08
180	0x3381294c	6.0145425e-08
181	0x33800175	5.9607295e-08
182	0x337e1370	5.9156662e-08
183	0x337b9ec3	5.8584884e-08
184	0x33775b8a	5.7592423e-08
185	0x33717f01	5.6227695e-08
186	0x336c60bb	5.5036008e-08
187	0x336a867e	5.460469e-08
188	0x336c4366	5.500933e-08
189	0x336f6838	5.574131e-08
190	0x3371b585	5.6277276e-08
191	0x3372c6df	5.6525888e-08
192	0x3373db1b	5.677712e-08
193	0x3375d8a5	5.7240545e-08
194	0x33785035	5.7814947e-08
195	0x337a4731	5.827241e-08
196	0x337b81ec	5.8558655e-08
197	0x337caf1c	5.8832583e-08
198	0x337e03b6	5.914236e-08
199	0x337eb0d2	5.92998e-08
200	0x337d716b	5.9009306e-08
201	0x3379b72b	5.814142e-08
202	0x3373b642	5.674361e-08
203	0x336c265c	5.498292e-08
204	0x3364387c	5.313676e-08
205	0x335e45cc	5.1751883e-08
206	0x335d9065	5.15869e-08
207	0x336428d6	5.3122527e-08
208	0x337020f7	5.5909336e-08
209	0x337b92df	5.857407e-08
210	0x337ffce2	5.960181e-08
211	0x337abccf	5.837938e-08
212	0x336e8bb1	5.5540742e-08
213	0x3360de5c	5.23563e-08
214	0x3355fa1e	4.9820407e-08
215	0x334f70d2	4.8298553e-08
216	0x334cfe89	4.772895e-08
217	0x334e0482	4.7967212e-08
218	0x3351e54a	4.887014e-08
219	0x33579ba8	5.0200157e-08
220	0x335df208	5.16757e-08
221	0x3364312d	5.3130112e-08
222	0x336a733a	5.458717e-08
223	0x33709409	5.601399e-08
224	0x33758677	5.7165803e-08
225	0x3377f68c	5.7733402e-08
226	0x3377da6a	5.7707815e-08
227	0x33768fd5	5.7407153e-08
228	0x3375725f	5.7147528e-08
229	0x33744e9a	5.6882165e-08
230	0x3371baa7	5.6281944e-08
231	0x336d0c2b	5.519193e-08
232	0x33677451	5.3889668e-08
233	0x33630fdf	5.286699e-08
234	0x3360e0e9	5.235862e-08
235	0x33600ee4	5.2167607e-08
236	0x335f50de	5.1994782e-08
237	0x335e9057	5.181968e-08
238	0x335eb0e5	5.1849288e-08
239	0x336030d3	5.219847e-08
240	0x336278f0	5.2729717e-08
241	0x3364b9b0	5.325427e-08
242	0x3367072d	5.3790405e-08
243	0x336a773a	5.4590807e-08
244	0x336fce5a	5.58342e-08
245	0x33769a7d	5.7416845e-08
246	0x337dc132	5.9081863e-08
247	0x33823e8c	6.064974e-08
248	0x33855f42	6.2106224e-08
249	0x33883d5a	6.344153e-08
250	0x338a960a	6.453418e-08
251	0x338be386	6.514078e-08
252	0x338bb557	6.5056774e-08
253	0x3389c719	6.415775e-08
254	0x33861a7e	6.24468e-08
255	0x33811520	6.010873e-08

exp_avg f4 [8]
0	0xb1c1f5f2	-5.645e-09
1	0x32531a9a	1.2287865e-08
2	0x31ecf8b2	6.8967774e-09
3	0xb0d51c8e	-1.5505905e-09
4	0xb146956f	-2.8897735e-09
5	0x31fdf555	7.39116e-09
6	0xafb676aa	-3.3189923e-10
7	0xb1be68d0	-5.5416436e-09

exp_avg_sq f4 [8]
0	0x25c21afa	3.3671915e-16
1	0x2652b72e	7.310664e-16
2	0x25979557	2.629552e-16
3	0x2458e344	4.7030035e-17
4	0x257ae044	2.1760028e-16
5	0x25c47c65	3.4084873e-16
6	0x23421b24	1.0522508e-17
7	0x25dfa51d	3.8796219e-16

exp_avg f4 [8]
0	0xafcb83ee	-3.7019227e-10
1	0xb01ece5b	-5.7773314e-10
2	0xb0381ca7	-6.697953e-10
3	0xaf42ac05	-1.7705311e-10
4	0xb057ca09	-7.8503654e-10
5	0x2fc322b6	3.5494957e-10
6	0x2f84bb40	2.414371e-10
7	0xafa5e2ab	-3.0174382e-10

exp_avg_sq f4 [8]
0	0x23114388	7.874766e-18
1	0x23665533	1.2486367e-17
2	0x231268f1	7.936898e-18
3	0x2218fafb	2.073271e-18
4	0x22513fe5	2.8358607e-18
5	0x23db6e02	2.3790618e-17
6	0x2122f93c	5.5217594e-19
7	0x222da587	2.3533501e-18
