model/sub6_20240206_130642/checkpoints/epoch2_0.5019.pt (torch, 195725 bytes, 39 tensors)

net.conv.weight f4 [8, 1, 1, 256]
-0.37749618 -0.5182138 -0.7385517 -0.8570954 -0.76584363 -0.8122468 -0.93605155 -0.990713
-1.2037491 -1.0952317 -0.96087897 -0.79566 -0.5367843 -0.20870249 0.0723275 0.31190744
0.25576255 0.059709795 -0.14159891 -0.45485875 -0.5623435 -0.62330496 -0.51911396 -0.27765986
0.104798384 0.32648358 0.3639438 0.3793513 0.3482693 0.08318684 0.07722805 0.0753117
0.24279934 0.62017554 1.0594573 1.1978297 1.3386362 1.2796577 1.1576867 0.7592108
0.37976143 0.05210058 -0.14538479 -0.20120303 -0.19776216 -0.053425066 -0.161041 -0.15728746
-0.3072649 -0.49828535 -0.54168797 -0.56982905 -0.6328957 -0.42427865 -0.28262872 -0.069186635
-0.04776085 -0.13273352 -0.26769316 -0.4139809 -0.68835413 -0.93820393 -1.0410662 -0.97967094
-0.83355373 -0.5994868 -0.48696682 -0.33373532 -0.24516831 -0.12606585 0.10215677 0.20050094
0.34296855 0.43366414 0.6110064 0.7813675 0.786828 0.7163372 0.6214516 0.61130625
0.47012314 0.40995267 0.3192881 0.5194355 0.62587196 0.7161832 0.7812865 0.77856266
0.659553 0.44889614 0.28613192 0.063457996 -0.028147614 0.10537001 0.30650353 0.61034966
0.7406456 0.81647 0.6282801 0.36137334 0.00069452834 -0.3039288 -0.5338082 -0.5706109
-0.55598074 -0.4302508 -0.22155501 -0.2357447 -0.3237968 -0.6345313 -0.94007987 -1.3853248
-1.5640221 -1.6521376 -1.4110844 -0.9199475 -0.38539732 0.11455131 0.35145897 0.5143072
0.46500167 0.45872873 0.259657 0.28798953 0.32852945 0.5264104 0.64404345 0.6610794
0.64043146 0.42421448 0.254079 0.074520215 -0.11822336 -0.07465619 -0.103699 0.06721273
0.28601906 0.49711066 0.6410549 0.74339926 0.6156431 0.5226546 0.2999947 0.17510863
0.21977866 0.38961825 0.45947853 0.50279516 0.4628506 0.40896395 0.10590633 -0.39743012
-0.74347514 -0.9563143 -0.9893018 -0.9333517 -0.74235487 -0.47542298 -0.3696875 -0.37148508
-0.6281883 -0.8170792 -1.1490875 -1.2306175 -1.0897048 -0.83581424 -0.54643595 -0.28918818
-0.09309443 0.085871466 -0.060475357 -0.09604758 -0.2625739 -0.3733748 -0.3213387 -0.27605516
-0.03676658 0.24571443 0.41170874 0.5266101 0.45954007 0.4123538 0.34059167 0.24652976
0.17691576 0.32050183 0.580348 1.0002288 1.2022448 1.2233381 1.2489532 1.0594991
0.6828073 0.37726396 0.039725702 0.0077879424 -0.05565218 0.05293043 -0.042420328 -0.01923118
-0.21483247 -0.48533815 -0.8647561 -1.0398093 -1.1212504 -0.986693 -0.65280634 -0.31110737
0.128627 0.46346387 0.47958064 0.28663838 -0.06305799 -0.47726434 -0.81944966 -1.0944244
-1.1587412 -1.0443192 -0.70727336 -0.32812685 -0.28217864 -0.22944164 -0.5279494 -0.8572973
-0.9347801 -0.7134635 -0.45108142 -0.08809573 0.43199587 0.9347439 1.1896622 1.138484
1.0283132 0.6771145 0.19596688 -0.0012344947 0.012414996 0.29289764 0.7712396 1.0754384
1.2737805 1.1950511 0.9353479 0.60538894 0.15522583 -0.040931605 -0.22622892 -0.21352096
-0.26973355 -0.19105394 -0.23774362 -0.3648299 -0.71683663 -1.2258992 -1.6951342 -1.972067
00000000: 2e47 c1be a9a9 04bf b911 3dbf 9b6a 5bbf
00000010: 540e 44bf 68ef 4fbf 13a1 6fbf 5e9f 7dbf
00000020: 7314 9abf 8d30 8cbf 2afc 75bf 60b0 4bbf
00000030: b26a 09bf 1bb6 55be 7120 943d 55b2 9f3e
00000040: 4ff3 823e 4292 743d 4eff 10be 3fe3 e8be
00000050: bef5 0fbf ea90 1fbf a7e4 04bf 6f29 8ebe
00000060: 89a0 d63d db28 a73e d756 ba3e 553a c23e
00000070: 5b50 b23e dd5d aa3d bd29 9e3d 053d 9a3d
00000080: 64a0 783e d3c3 1e3f 4c9c 873f 7c52 993f
00000090: 6e58 ab3f d3cb a33f 142f 943f a45b 423f
000000a0: 1770 c23e 6b67 553d c0df 14be 2b08 4ebe
000000b0: 2a82 4abe 3ed4 5abd efe7 24be f70f 21be
000000c0: d351 9dbe 421f ffbe 10ac 0abf 51e0 11bf
000000d0: 7405 22bf 0d3b d9be b6b4 90be b9b1 8dbd
000000e0: e2a0 43bd 4ceb 07be 140f 89be 4ef5 d3be
000000f0: fa37 30bf 222e 70bf a841 85bf b7cb 7abf
00000100: c763 55bf f877 19bf b753 f9be 5bdf aabe
00000110: 670d 7bbe 6817 01be 9237 d13d 1e50 4d3e
00000120: 9399 af3e 3a09 de3e ea6a 1c3f b307 483f
00000130: 8f6d 493f e061 373f 7417 1f3f 917e 1c3f
00000140: fbb3 f03e 51e5 d13e bb79 a33e baf9 043f
00000150: 2539 203f c857 373f 6402 483f e24f 473f
00000160: 77d8 283f b7d5 e53e e27f 923e 44f6 813d
00000170: d395 e6bc 3bcc d73d 08ee 9c3e e03f 1c3f
00000180: f39a 3d3f 2e04 513f f7d6 203f ed05 b93e
00000190: 0211 363a 8e9c 9bbe a7a7 08bf 8e13 12bf
000001a0: c154 0ebf d549 dcbe 51df 62be 0f67 71be
000001b0: b2c8 a5be a570 22bf 13a9 70bf 5352 b1bf
000001c0: e031 c8bf 3f79 d3bf 6a9e b4bf ae81 6bbf
000001d0: cc52 c5be e199 ea3d 6ef2 b33e a3a9 033f
000001e0: b314 ee3e 7ede ea3e c3f1 843e 5d73 933e
000001f0: 0335 a83e d5c2 063f 08e0 243f 803c 293f
00000200: 51f3 233f a432 d93e a516 823e 0e9e 983d
00000210: 171f f2bd 58e5 98bd 2460 d4bd d4a6 893d
00000220: 1771 923e 4a85 fe3e 2d1c 243f 6a4f 3e3f
00000230: c99a 1d3f b1cc 053f e898 993e ad4f 333e
00000240: a80d 613e 0b7c c73e c540 eb3e 2fb7 003f
00000250: c1fa ec3e b963 d13e 6be5 d83d f67b cbbe
00000260: 6354 3ebf 04d1 74bf e242 7dbf 23f0 6ebf
00000270: f80a 3ebf a46a f3be ae47 bdbe 4b33 bebe
00000280: f3d0 20bf 1a2c 51bf 4d15 93bf e084 9dbf
00000290: 727b 8bbf ecf7 55bf 3ae3 0bbf 7910 94be
000002a0: 4ba8 bebd 61dd af3d 02b5 77bd 98b4 c4bd
000002b0: 1670 86be fb2a bfbe 8286 a4be 1a57 8dbe
000002c0: 8e98 16bd 909c 7b3e 7dcb d23e ebcf 063f
000002d0: d648 eb3e 0a20 d33e 0862 ae3e 4c72 7c3e
000002e0: 6829 353e d118 a43e b091 143f 7f07 803f
000002f0: 28e3 993f 5896 9c3f b3dd 9f3f ab9d 873f
00000300: 76cc 2e3f be28 c13e 6bb7 223d ff31 ff3b
00000310: 8af3 63bd 94cd 583d f0c0 2dbd b58a 9dbc
00000320: 0bfd 5bbe 3e7e f8be a860 5dbf 7918 85bf
00000330: 2285 8fbf ea97 7cbf 511e 27bf 7749 9fbe
00000340: ccb6 033e 234b ed3e 988b f53e 44c2 923e
00000350: 8c24 81bd fe5b f4be 74c7 51bf 1916 8cbf
00000360: a251 94bf 40ac 85bf de0f 35bf 3e00 a8be
00000370: b879 90be c0f2 6abe b127 07bf d677 5bbf
00000380: c04d 6fbf 8ba5 36bf 25f4 e6be 896b b4bd
00000390: 902e dd3e 604b 6f3f da46 983f d8b9 913f
000003a0: c49f 833f 6057 2d3f 8bab 483e c5ce a1ba
000003b0: 4468 4b3c aef6 953e f56f 453f f7a7 893f
000003c0: 3d0b a33f 6ff7 983f f672 6f3f c5fa 1a3f
000003d0: 85f3 1e3e e6a7 27bd 8ea8 67be 3da5 5abe
000003e0: 841a 8abe a5a3 43be 1073 73be fcca babe
000003f0: 9b82 37bf 44ea 9cbf 28fa d8bf b16c fcbf

net.bn1.weight f4 [8]
1.5391264 1.777476 2.0380754 1.431227 1.1154084 1.999638 1.1376251 0.9721718
00000000: 1802 c53f 5584 e33f d46f 0240 7232 b73f
00000010: b4c5 8e3f 23f4 ff3f b39d 913f 40e0 783f

net.bn1.bias f4 [8]
-0.057178497 -0.08251555 -0.2227874 -0.069317326 -0.12732264 0.27821553 -0.06498673 0.12311639
00000000: 0034 6abd eafd a8bd 6122 64be 3ef6 8dbd
00000010: de60 02be 4472 8e3e c317 85bd 7224 fc3d

net.bn1.running_mean f4 [8]
-0.0016590507 -0.00067155936 -0.001675108 -0.00071024423 -0.0012574677 -0.001313082 -0.00029889197 -0.00055139395
00000000: 8174 d9ba 960b 30ba 4c8f dbba af2f 3aba
00000010: 9dd1 a4ba b81b acba 9ab4 9cb9 6c8b 10ba

net.bn1.running_var f4 [8]
1069.4028 1352.2942 1501.8055 357.78522 516.8093 1485.8342 169.41356 483.2047
00000000: e4ac 8544 6a09 a944 c7b9 bb44 82e4 b243
00000010: cc33 0144 b2ba b944 df69 2943 349a f143

net.depth_conv.weight f4 [16, 1, 32, 1]
-0.29494748 0.30113748 0.80994886 0.03122929 0.8770909 -0.63050133 0.66485196 0.58263546
-0.96081275 0.5409396 -1.3900155 -0.2496948 -0.66080564 -0.21401171 0.46358362 0.8934953
-0.052918296 0.4562282 1.6246446 0.7481335 -0.18621449 0.20691213 0.22423504 -1.4713035
-1.2361785 1.2350341 -0.38419488 -1.5167187 -0.39259577 -0.38240695 0.7726846 0.060705382
-0.15333638 0.8017838 0.8666559 0.12835598 1.5073595 0.32913807 -0.54280543 -0.26496753
-1.9344426 0.8653006 -0.46403387 -0.10907463 -1.6176138 -0.7287481 0.027050277 0.5660841
0.15309528 0.27931786 0.862366 1.0839065 0.653416 1.6971166 0.46975282 -1.1647874
-1.456638 0.5582603 0.09408039 -0.5189298 -1.0821843 -0.6383646 0.8290426 0.12926638
0.17290443 0.9240391 0.41651917 -0.48603427 0.6933842 -0.121194676 0.42295817 -0.19488457
-0.32908455 -2.5542898 0.03100021 0.44724563 0.3596287 1.3858957 -0.20111491 0.1701484
0.27187222 0.20766205 0.38947898 0.81755435 0.9093442 -0.37506402 0.0042709764 -0.0029947332
-1.173671 -0.378167 -1.0855163 -0.30394557 -0.015442906 -0.2953712 0.33048835 0.29176676
-0.309055 -0.750921 -0.93045473 -0.8564478 -0.9182432 0.5838872 0.47205922 1.5038066
-0.57212454 2.243286 -0.5021064 0.2624475 0.015910558 -0.3224799 -0.032854814 -0.2437499
-0.047352333 -0.55691516 -0.0368569 -0.05218676 -0.76374006 -0.30453855 -0.5919816 0.71128887
0.25176415 -0.49508786 1.7049823 0.39468053 -0.84143245 0.705644 -0.6634905 0.103541516
-0.10606498 -1.1370835 -0.53119886 -0.45813808 -0.26810244 0.43371177 -0.30450997 1.3468881
0.22967595 3.025888 0.013263086 0.05810101 -0.6507894 -1.5059401 0.24052306 0.049643714
-0.31782 -0.27155808 -0.72976416 -0.30973893 -0.80912685 0.68343556 0.11645807 0.44560173
0.4881812 0.40515876 0.9671826 0.9457129 -0.5021507 -0.20792656 -0.65892947 0.28061453
0.071489826 0.32666126 -0.5516059 -1.005319 -1.026017 0.46029848 0.62950337 1.4773009
-1.0529057 0.1407323 -0.58342177 0.62677455 0.7079645 1.0891623 -0.32476005 -0.23553206
0.074116364 -0.30426148 0.6087854 0.37011126 0.008263007 -0.8660771 -0.62286854 0.69593114
-0.69760907 -1.1444563 1.299246 0.07375422 -1.1965351 1.4387115 -0.18481416 0.13865004
0.60539305 -0.11673084 0.28055596 0.059056956 0.64825493 -0.2768815 -1.3271507 0.20069376
-0.024231857 -0.119483225 -0.717852 -0.34887332 0.680917 0.16133447 -0.4513342 0.21091221
-0.011236562 0.07038123 -0.7341021 -0.9637115 -0.18268096 -0.06315627 0.039138928 0.55265963
1.9192495 -1.7254888 2.119199 1.3918444 -0.35181051 -1.5053216 0.15336792 0.40402707
0.3306819 -0.28197488 0.35095584 -0.5264497 0.9859183 -0.05647426 -0.4085914 0.7167698
0.0018573417 -0.14999835 -1.7751266 -0.20816092 -0.06731077 0.33592802 -0.03993388 0.83975935
0.87459475 -0.0869795 -0.32047492 -0.74185246 -0.59809035 -0.9431284 0.44524866 0.13779078
1.6701168 -1.2929159 2.0689466 1.3763492 -0.17510031 -1.5089144 0.030828912 0.18435404
00000000: 5b03 97be b12e 9a3e cf58 4f3f 91d4 ff3c
00000010: 0789 603f 8968 21bf bd33 2a3f 9927 153f
00000020: d3f7 75bf 057b 0a3f 07ec b1bf feaf 7fbe
00000030: 8f2a 29bf e325 5bbe d55a ed3e 1cbc 643f
00000040: dbc0 58bd be96 e93e 5bf4 cf3f ad85 3f3f
00000050: 03af 3ebe c6e0 533e df9d 653e ac53 bcbf
00000060: 193b 9ebf 9915 9e3f 31b5 c4be d723 c2bf
00000070: 5002 c9be d8ca c3be a8ce 453f 35a6 783d
00000080: 3604 1dbe b441 4d3f 29dd 5d3f c06f 033e
00000090: 28f1 c03f c984 a83e 4cf5 0abf d3a9 87be
000000a0: d19b f7bf 5784 5d3f d995 edbe 8562 dfbd
000000b0: f80d cfbf 3c8f 3abf 8b98 dd3c e3ea 103f
000000c0: 02c5 1c3e c002 8f3e 05c4 5c3f 73bd 8a3f
000000d0: 4546 273f 1e3b d93f 7183 f03e c117 95bf
000000e0: 1d73 babf 26ea 0e3f 38ad c03d 95d8 04bf
000000f0: 0485 8abf dd6b 23bf 233c 543f 685e 043e
00000100: dc0d 313e d48d 6c3f 0042 d53e 7cd9 f8be
00000110: a081 313f ea34 f8bd f98d d83e d28f 47be
00000120: c57d a8be 7c79 23c0 27f4 fd3c 61fd e43e
00000130: 4121 b83e 0865 b13f 11f1 4dbe 623b 2e3e
00000140: d632 8b3e 5ca5 543e ca69 c73e 3e4b 513f
00000150: c8ca 683f 6408 c0be 8cf3 8b3b 4943 44bb
00000160: da3a 96bf 1b9f c1be 33f2 8abf c19e 9bbe
00000170: 3e04 7dbc e53a 97be c535 a93e 7462 953e
00000180: 753c 9ebe 5c3c 40bf 4832 6ebf 2a40 5bbf
00000190: fd11 6bbf a279 153f bfb1 f13e bc7c c03f
000001a0: c176 12bf ff91 0f40 0c8a 00bf 855f 863e
000001b0: dc56 823c 161c a5be c592 06bd 9399 79be
000001c0: 85f4 41bd fe91 0ebf 43f7 16bd c9c1 55bd
000001d0: 7884 43bf 7aec 9bbe 1b8c 17bf 0717 363f
000001e0: 3be7 803e 287c fdbe dc3c da3f 9113 ca3e
000001f0: 1e68 57bf 16a5 343f 83da 29bf 930d d43d
00000200: 9938 d9bd f48b 91bf a6fc 07bf 1391 eabe
00000210: b944 89be 780f de3e bbe8 9bbe d466 ac3f
00000220: 2c30 6b3e 26a8 4140 6a4d 593c 53fb 6d3d
00000230: 229a 26bf a5c2 c0bf ad4b 763e 3557 4b3d
00000240: 4eb9 a2be a909 8bbe d3d1 3abf 1a96 9ebe
00000250: f022 4fbf a2f5 2e3f 9281 ee3d e925 e43e
00000260: e3f2 f93e f870 cf3e 4799 773f 3e1a 723f
00000270: f38c 00bf b3ea 54be 9aaf 28bf b5ac 8f3e
00000280: 4269 923d 2540 a73e 0b36 0dbf 4bae 80bf
00000290: 8654 83bf 3eac eb3e 2227 213f 3218 bd3f
000002a0: 9dc5 86bf 211c 103e 215b 15bf 4c74 203f
000002b0: 293d 353f ac69 8b3f f346 a6be 512f 71be
000002c0: 52ca 973d 29c8 9bbe 5cd9 1b3f 397f bd3e
000002d0: 9061 073c 3bb7 5dbf 5074 1fbf 8b28 323f
000002e0: 8296 32bf 8b7d 92bf b14d a63f 740c 973d
000002f0: 1028 99bf b327 b83f ec3f 3dbe 47fa 0d3e
00000300: 0afb 1a3f 9410 efbd 08a5 8f3e b5e5 713d
00000310: 09f4 253f 69c3 8dbe 13e0 a9bf aa82 4d3e
00000320: e381 c6bc 9fb3 f4bd 26c5 37bf 869f b2be
00000330: 9450 2e3f dd34 253e 4715 e7be 5ff9 573e
00000340: 8f19 38bc 0924 903d 1dee 3bbf ccb5 76bf
00000350: b810 3bbe 1358 81bd 2450 203d 1a7b 0d3f
00000360: f8a9 f53f d1dc dcbf f5a0 0740 f527 b23f
00000370: 8220 b4be 61ae c0bf 7b0c 1d3e a3dc ce3e
00000380: 234f a93e 035f 90be 7cb0 b33e 68c5 06bf
00000390: 2465 7c3f 8e51 67bd e432 d1be 3a7e 373f
000003a0: 0c72 f33a 2b99 19be 5937 e3bf 2328 55be
000003b0: 3bda 89bd c2fe ab3e b591 23bd 78fa 563f
000003c0: 71e5 5f3f 4f22 b2bd 4a15 a4be 0bea 3dbf
000003d0: 731c 19bf dd70 71bf a2f7 e33e 0719 0d3e
000003e0: 63c6 d53f 457e a5bf 9f69 0440 362c b03f
000003f0: 7f4d 33be 1b24 c1bf ea8c fc3c 4ec7 3c3e

net.bn2.weight f4 [16]
1.62884 1.642401 2.2283056 2.0737479 2.3057847 2.279488 1.6392062 1.7065889
1.0666413 1.7103131 2.2175486 2.3242188 1.7076659 1.6961275 1.5813168 1.700998
00000000: d47d d03f 323a d23f 8f9c 0e40 49b8 0440
00000010: fa91 1340 22e3 1140 82d1 d13f 8171 da3f
00000020: b487 883f 8aeb da3f 51ec 0d40 00c0 1440
00000030: cc94 da3f b51a d93f 9768 ca3f 4dba d93f

net.bn2.bias f4 [16]
-0.44750878 -0.49494565 -0.6139701 -0.6675822 -0.64025885 -0.6570146 -0.4612264 -0.47129962
-0.20249465 -0.5523345 -0.6244236 -0.68741894 -0.43175238 -0.41753316 -0.43907294 -0.40860236
00000000: df1f e5be 8469 fdbe 252d 1dbf abe6 2abf
00000010: 01e8 23bf 1c32 28bf de25 ecbe 2f4e f1be
00000020: c25a 4fbe cb65 0dbf 3ada 1fbf b0fa 2fbf
00000030: a60e ddbe e8c6 d5be 2bce e0be 5434 d1be

net.bn2.running_mean f4 [16]
-0.027174419 -0.071419306 -0.058142703 0.06756652 -0.21310216 -0.09776676 -0.03627529 -0.07907748
-0.15056367 0.072170965 -0.37788573 0.5520979 -0.009981268 0.024468195 -0.08382465 0.07976128
00000000: e39c debc 4944 92bd 0b27 6ebd 5160 8a3d
00000010: 7437 5abe f039 c8bd 6695 14bd 60f3 a1bd
00000020: 5d2d 1abe 5fce 933d 3d7a c1be 4a56 0d3f
00000030: 7988 23bc 8671 c83c 42ac abbd e259 a33d

net.bn2.running_var f4 [16]
16.155201 8.877068 14.457582 7.3371525 12.8281355 24.865705 32.84529 26.922977
12.726371 16.264484 28.29914 12.772586 88.43125 117.93982 10.397424 19.82975
00000000: da3d 8141 7808 0e41 4252 6741 f4c9 ea40
00000010: 0b40 4d41 f7ec c641 9461 0342 4262 d741
00000020: 379f 4b41 aa1d 8241 a464 e241 835c 4c41
00000030: cddc b042 30e1 eb42 d95b 2641 54a3 9e41

net.point_conv.weight f4 [16, 16, 1, 16]
0.25788367 0.32407215 0.509706 0.3413222 0.32970792 0.19836965 0.09737976 0.085964866
-0.026644304 0.10759627 -0.0038431333 0.082931176 0.13815282 0.2220109 0.3410394 0.4488689
0.16392238 0.20848958 0.40548566 0.4942187 0.61496466 0.8080914 0.8944859 1.0350434
0.9338542 0.88603026 0.61797845 0.40815583 0.2784837 0.21731922 0.22531612 0.38387573
0.19285202 0.28252274 0.2879453 0.3236899 0.26656747 0.35308543 0.34395918 0.41310614
0.5379138 0.54234064 0.64812165 0.68212247 0.6099427 0.5933646 0.4900465 0.52385557
-0.18887515 -0.16888162 -0.040036023 0.057474237 0.03827902 0.06977587 0.05337303 0.08223366
-0.012055258 0.12443268 0.021886267 0.061065733 0.035359353 0.09523007 0.17516376 0.16598144
0.112777926 0.20166457 0.20747407 0.28301752 0.38235712 0.26570278 0.33575404 0.3435494
0.24311058 0.14594908 0.0988832 0.1847202 0.073526844 0.19183084 0.26545852 0.24260703
-0.25714642 -0.17594239 -0.14504254 -0.04147293 0.17015043 0.10183513 0.20176801 0.14079599
-0.053452518 -0.052408345 -0.21872355 -0.31898537 -0.4518809 -0.54168665 -0.43989062 -0.25791925
1.0221622 0.8823346 0.7655956 0.69690007 0.7225314 0.75039965 0.7136698 0.6574648
0.69237846 0.78393203 0.81959784 0.7678445 0.56246537 0.36061478 0.33946988 0.2783249
0.95942825 0.87525725 0.7916329 0.88067925 1.0790356 1.0927656 1.0706208 0.8525172
0.72845286 0.8301592 0.8823544 0.77700245 0.71471334 0.5867741 0.6221183 0.5479228
0.17834628 0.29521376 0.41065648 0.46277964 0.51245546 0.4979334 0.585107 0.50673497
0.5001862 0.46459556 0.2284574 0.1264316 -0.110118546 -0.17243215 -0.2789532 -0.29300347
0.5201769 0.5530459 0.48864064 0.43697196 0.4151044 0.352616 0.22057839 0.12846173
0.12713361 0.13662829 0.20723365 0.27915335 0.4486977 0.4635887 0.548613 0.5867347
-0.3081504 -0.11467454 -0.03612436 0.030079465 0.053050492 -0.046995975 -0.0025185053 -0.05154917
-0.15354012 -0.33338934 -0.36806613 -0.33618408 -0.24096073 -0.2579763 -0.25580862 -0.272321
0.16389611 0.10495034 0.20536178 0.18517394 0.20704496 0.13976298 0.14889057 0.14719833
0.06942429 0.08513678 -0.037206914 0.010818556 -0.013530421 -0.00027455224 -0.08395469 -0.045203216
0.9490798 0.97169054 0.93753386 1.003948 1.078237 0.9019188 0.8490254 0.85639167
0.7667998 0.66020423 0.7023779 0.5967926 0.5003057 0.61457705 0.69710404 0.75879514
0.7501263 0.63791925 0.59387 0.420224 0.44108966 0.45959666 0.28634074 0.3751734
0.3105188 0.27642372 0.27059656 0.39458597 0.3541029 0.3574735 0.28671914 0.49333167
0.4479379 0.6029598 0.72765833 0.88028115 0.7862154 0.7918957 0.7541778 0.8162861
0.81577367 0.7713464 0.7099973 0.69459486 0.5468885 0.52785915 0.51652825 0.5529053
0.3429194 0.42618138 0.34594586 0.46779397 0.5308758 0.606723 0.6268605 0.6444653
0.6561852 0.5099915 0.54198384 0.43662217 0.38314053 0.36828187 0.30623847 0.24833375
00000000: 5409 843e c9ec a53e 187c 023f c9c1 ae3e
00000010: 7acf a83e 6a21 4b3e 0a6f c73d 590e b03d
00000020: 2845 dabc 6f5b dc3d 14dd 7bbb d2d7 a93d
00000030: ef77 0d3e d356 633e b79c ae3e 25d2 e53e
00000040: 45db 273e 4b7e 553e d19b cf3e 3c0a fd3e
00000050: 536e 1d3f 14df 4e3f 07fd 643f 4d7c 843f
00000060: 1211 6f3f e1d2 623f d633 1e3f cdf9 d03e
00000070: 6a95 8e3e ee88 5e3e 45b9 663e 5c8b c43e
00000080: 007b 453e d2a6 903e 916d 933e afba a53e
00000090: 887b 883e 9dc7 b43e 6b1b b03e a682 d33e
000000a0: b8b4 093f d6d6 0a3f 4deb 253f 949f 2e3f
000000b0: 3425 1c3f bee6 173f 60e7 fa3e 661b 063f
000000c0: 7d68 41be 4eef 2cbe d0fc 23bd 1b6a 6b3d
000000d0: 76ca 1c3d a7e6 8e3d ae9d 5a3d 1f6a a83d
000000e0: 6b83 45bc 90d6 fe3d d44a b33c 1020 7a3d
000000f0: f8d4 103d fc07 c33d 215e 333e 0af7 293e
00000100: 1df8 e63d 2881 4e3e 1574 543e ace7 903e
00000110: 50c4 c33e 320a 883e f4e7 ab3e b5e5 af3e
00000120: fbf1 783e ad73 153e 4683 ca3d 4b27 3d3e
00000130: 3e95 963d 4e6f 443e 2eea 873e fa6d 783e
00000140: b2a8 83be 3e2a 34be 0886 14be 85df 29bd
00000150: ea3b 2e3e f08e d03d 469c 4e3e d32c 103e
00000160: 07f1 5abd 22aa 56bd 11f9 5fbe 0d52 a3be
00000170: ef5c e7be faab 0abf 5839 e1be fe0d 84be
00000180: 36d6 823f aee0 613f 13fe 433f 0b68 323f
00000190: d1f7 383f 311a 403f 10b3 363f 9d4f 283f
000001a0: b73f 313f c5af 483f 2ad1 513f 7591 443f
000001b0: bbfd 0f3f 80a2 b83e ffce ad3e 9a80 8e3e
000001c0: 179d 753f dc10 603f 74a8 4a3f 3274 613f
000001d0: d71d 8a3f bedf 8b3f 1a0a 893f 913e 5a3f
000001e0: e37b 3a3f 5085 543f fae1 613f a2e9 463f
000001f0: 74f7 363f d436 163f 2543 1f3f ab44 0c3f
00000200: 68a0 363e 4226 973e 9141 d23e 74f1 ec3e
00000210: 4830 033f 20f1 fe3e 93c9 153f 62b9 013f
00000220: 340c 003f 78df ed3e bdf0 693e 4977 013e
00000230: d585 e1bd 0e92 30be f4d2 8ebe 8d04 96be
00000240: 502a 053f 6b94 0d3f 1b2f fa3e caba df3e
00000250: 9088 d43e 168a b43e 4ddf 613e 798b 033e
00000260: 502f 023e 49e8 0b3e 0f35 543e 30ed 8e3e
00000270: b4bb e53e 805b ed3e e771 0c3f 3f34 163f
00000280: e4c5 9dbe 7cda eabd 23f7 13bd 3669 f63c
00000290: 794b 593d da7e 40bd 820d 25bb 3925 53bd
000002a0: 9f39 1dbe 02b2 aabe 2a73 bcbe 5220 acbe
000002b0: 69be 76be 7815 84be 59f9 82be a86d 8bbe
000002c0: 62d4 273e 34f0 d63d 5c4a 523e 3d9e 3d3e
000002d0: 9803 543e 071e 0f3e c576 183e 29bb 163e
000002e0: 522e 8e3d 315c ae3d 4766 18bd 5040 313c
000002f0: b3ae 5dbc c7f1 8fb9 70f0 abbd 0227 39bd
00000300: e5f6 723f b6c0 783f 3802 703f 5e81 803f
00000310: ac03 8a3f 27e4 663f bb59 593f 7c3c 5b3f
00000320: fe4c 443f 2503 293f 0acf 333f 66c7 183f
00000330: 0914 003f ec54 1d3f 6975 323f 6640 423f
00000340: 4708 403f ad4e 233f dd07 183f 9a27 d73e
00000350: 81d6 e13e 4150 eb3e 419b 923e ba16 c03e
00000360: 52fc 9e3e 6987 8d3e a28b 8a3e 2c07 ca3e
00000370: fa4c b53e c406 b73e dacc 923e f895 fc3e
00000380: 1e58 e53e 935b 1a3f d147 3a3f 1b5a 613f
00000390: 6a45 493f adb9 4a3f cc11 413f 20f8 503f
000003a0: 8bd6 503f f576 453f 62c2 353f f8d0 313f
000003b0: e200 0c3f c721 073f 323b 043f 348b 0d3f
000003c0: 2293 af3e 7234 da3e d11f b13e b182 ef3e
000003d0: 7ae7 073f 3352 1b3f ee79 203f aefb 243f
000003e0: c1fb 273f ce8e 023f 74bf 0a3f f18c df3e
000003f0: ff2a c43e 718f bc3e 4acb 9c3e 344b 7e3e

net.bn3.weight f4 [16]
0.8656339 1.9142699 2.1477516 1.4604694 1.0848427 1.6567836 0.6511055 0.9001087
1.7306842 1.041666 2.1227033 1.4863076 0.8934658 1.8398882 1.1564658 2.0493245
00000000: 2f9a 5d3f cc06 f53f c374 0940 a9f0 ba3f
00000010: 20dc 8a3f 7c11 d43f daae 263f 866d 663f
00000020: 0f87 dd3f 5055 853f 5fda 0740 543f be3f
00000030: 2dba 643f 7581 eb3f 1207 943f 2228 0340

net.bn3.bias f4 [16]
-0.16743284 -0.35902926 -0.64481807 0.1081726 0.018221667 -0.3808231 0.033867564 -0.10250272
-0.43316564 0.09849011 -0.6230601 -0.08664263 -0.33756748 -0.5032003 0.041711085 -0.6013518
00000000: 8473 2bbe afd2 b7be cc12 25bf 9989 dd3d
00000010: 9b45 953c 3ffb c2be b7b8 0a3d f2ec d1bd
00000020: e3c7 ddbe 2fb5 c93d de80 1fbf b171 b1bd
00000030: a5d5 acbe bcd1 00bf 3ed9 2a3d 31f2 19bf

net.bn3.running_mean f4 [16]
4.1789184 2.2249317 -7.363373 5.7346826 4.531213 -5.5219235 0.053860806 -0.96490663
0.22702917 5.289831 -7.0709333 3.8274539 4.937077 -7.2523427 4.2676225 -7.1502795
00000000: b3b9 8540 4865 0e40 c0a0 ebc0 8582 b740
00000010: b2ff 9040 99b3 b0c0 269d 5c3d 1f04 77bf
00000020: 567a 683e 4c46 a940 1645 e2c0 01f5 7440
00000030: 89fc 9d40 3113 e8c0 5d90 8840 17cf e4c0

net.bn3.running_var f4 [16]
736.8261 947.705 1292.7217 1153.6873 807.12616 1121.4203 566.91394 731.75464
854.7734 964.77344 1299.9125 777.11017 631.1235 1249.0305 803.6309 1170.6881
00000000: df34 3844 1fed 6c44 1897 a144 fe35 9044
00000010: 13c8 4944 732d 8c44 7eba 0d44 4cf0 3644
00000020: 7fb1 5544 8031 7144 337d a244 0d47 4244
00000030: e7c7 1d44 fa20 9c44 61e8 4844 0556 9244

net.fc.weight f4 [32, 256]
-0.1952848 -0.3299363 -0.6308726 -0.07233252 -0.28280094 -0.261662 -0.042176127 -0.14066823
-0.47067794 -0.4667471 0.06300278 -0.11686107 -0.20239697 -0.24570857 -0.7678488 -0.5345632
-0.21475857 -0.1903944 -0.0012457415 -0.41896755 -0.52083856 -0.6961233 -0.53623 -0.4191883
-0.23100145 0.11265946 0.15090002 -0.6062655 -0.9726917 -0.75128824 -0.2916207 0.13449396
0.20129813 0.39274147 -0.05905587 0.4631849 1.0897626 1.013153 0.53312117 0.3619102
0.8226647 0.36496583 0.33542117 0.48317122 1.0349802 1.0625412 0.48986456 0.22389077
0.27204248 -0.11165387 -0.73314476 -0.27067375 -0.23104416 -0.9004841 -0.85918134 -0.43178764
-0.4016057 -0.12257931 -0.38908494 -0.30111727 -0.31416062 -0.8005254 -0.3628145 -0.6882718
-0.21268319 -0.40006393 0.022295088 -0.21513279 -0.6456623 -0.36753857 -0.13961005 -0.42009234
-0.3439535 -0.07945309 0.2634666 -0.65020776 -0.4669093 -0.38643372 -0.10530834 -0.16233233
-0.22430713 -0.021669392 0.21380432 0.58456266 0.47270522 0.6173592 0.35433325 0.4569819
0.31356722 -0.03683776 0.19877088 0.28518638 0.8436344 0.77495706 0.18162918 0.17476544
-0.1532444 -0.12347487 -0.37737417 -0.04115822 0.041757885 -0.06934544 -0.04845813 -0.2174285
0.0279827 -0.15449634 -0.67209345 -0.43359807 0.20613983 -0.01726759 -0.29903567 -0.34096286
-0.22435082 -0.2649372 -0.0578754 -0.11761371 -0.11025619 0.14298919 0.3593831 -0.22347462
-0.19492905 0.121240765 -0.21923298 0.0030025116 0.0016468251 -0.24685274 -0.19400825 -0.27804756
0.26021147 0.15080427 -0.07266232 -0.17775917 -0.3700295 -0.45007658 0.0803047 -0.12699604
-0.5272608 0.004576356 0.4167819 -0.11169043 -0.5507527 -0.5974868 -0.23938979 0.2987596
-0.28785378 -0.040376417 -0.4335211 -0.07043121 -0.24986278 -0.27703935 -0.21304281 -0.2580352
-0.20093541 -0.03563839 0.05127298 -0.298005 -0.7364701 -0.17969957 -0.60232186 -0.65427864
-0.139925 0.26990983 0.39976946 0.43970802 0.62094504 0.9858179 0.73297113 0.5437436
0.80476975 0.47838145 0.112902135 0.47441402 0.6143368 1.0384724 0.8328115 0.38416195
0.16326813 -0.20672116 -0.369883 -0.27654904 -0.3009855 -0.55764407 -0.24706909 -0.11360662
0.24489667 -0.043398306 -0.079075426 -0.15793966 -0.91037315 -1.0039551 -0.38090107 0.019791756
-0.28042918 -0.56505567 -0.2878192 0.17939723 -0.052992124 -0.28117365 -0.11555752 0.08213625
-0.29949927 0.34175447 -0.109224856 -0.18463625 -0.24568762 -0.18420897 -0.07768892 -0.4351475
0.0055133975 0.10440459 0.16759817 0.34940788 0.370936 0.58899367 0.71169186 0.49900612
0.54197097 0.119314075 -0.34426993 0.25077465 0.7301373 1.0023935 0.698178 0.30442163
-0.12961783 -0.12479125 0.13078287 -0.2655436 -0.48664457 -0.17101237 -0.33890703 -0.25909457
-0.20775935 -0.33126113 0.016843168 0.04572468 -0.6499335 -0.39957002 -0.40000564 -0.105745226
-0.60740507 0.5122469 -0.35482952 0.62928754 1.1973754 1.0258199 0.4926158 0.285591
0.58379245 0.4613842 0.050529297 0.23867767 0.50832087 0.5878091 0.63668126 0.23420294
00000000: bdf8 47be 69ed a8be de80 21bf 1223 94bd
00000010: 49cb 90be 90f8 85be e0c0 2cbd 550b 10be
00000020: b3fc f0be 7af9 eebe 9a07 813d db54 efbd
00000030: 2741 4fbe 079b 7bbe bd91 44bf 22d9 08bf
00000040: ace9 5bbe c0f6 42be 2648 a3ba ea82 d6be
00000050: ad55 05bf 2335 32bf 5f46 09bf d99f d6be
00000060: a58b 6cbe 01ba e63d 8985 1a3e 3734 1bbf
00000070: 5302 79bf 6d54 40bf 4f4f 95be c9b8 093e
00000080: 1921 4e3e 6915 c93e 91e4 71bd 9226 ed3e
00000090: 577d 8b3f ffae 813f a17a 083f 4b4c b93e
000000a0: 279a 523f cddc ba3e 53bc ab3e 3862 f73e
000000b0: 3b7a 843f 5a01 883f 87cf fa3e 9f43 653e
000000c0: 2749 8b3e c9aa e4bd 60af 3bbf c095 8abe
000000d0: d796 6cbe 2086 66bf 4ff3 5bbf 4513 ddbe
000000e0: 439f cdbe dc0a fbbd 2436 c7be 0b2c 9abe
000000f0: a9d9 a0be 3cef 4cbf d2c2 b9be 9532 30bf
00000100: 9fc9 59be 2ed5 ccbe 30a4 b63c c54b 5cbe
00000110: 204a 25bf 042e bcbe f0f5 0ebe 5816 d7be
00000120: ac1a b0be 4db8 a2bd 18e5 863e 0474 26bf
00000130: bc0e efbe a4da c5be e6ab d7bd 723a 26be
00000140: c5b0 65be 0284 b1bc 85ef 5a3e e6a5 153f
00000150: 6b06 f23e 410b 1e3f 2b6b b53e 88f9 e93e
00000160: e28b a03e 31e3 16bd 988a 4b3e f303 923e
00000170: 6df8 573f 9663 463f 00fd 393e b6f5 323e
00000180: 1aec 1cbe 65e0 fcbd 3037 c1be 8695 28bd
00000190: 510a 2b3d fb04 8ebd 087c 46bd 94a5 5ebe
000001a0: fa3b e53c 4a34 1ebe 510e 2cbf 9100 debe
000001b0: 5216 533e c374 8dbc 341b 99be af92 aebe
000001c0: 39bc 65be d9a5 87be c10e 6dbd 75df f0bd
000001d0: ffcd e1bd c26b 123e 1001 b83e 88d6 64be
000001e0: 7b9b 47be 144d f83d 9c7e 60be c9c5 443b
000001f0: 48da d73a f7c6 7cbe 19aa 46be 405c 8ebe
00000200: 703a 853e 6f6c 1a3e fccf 94bd 8006 36be
00000210: 8274 bdbe 7070 e6be ca76 a43d 400b 02be
00000220: 90fa 06bf 42f5 953b 7064 d53e f4bd e4bd
00000230: 21fe 0cbf e5f4 18bf 9922 75be 05f7 983e
00000240: 9261 93be be61 25bd 7af6 ddbe 3d3e 90bd
00000250: 07dc 7fbe 1ad8 8dbe e527 5abe 311d 84be
00000260: 03c2 4dbe 8ff9 11bd 9e03 523d 1d94 98be
00000270: 4e89 3cbf 2a03 38be c431 1abf ce7e 27bf
00000280: 8048 0fbe 9f31 8a3e 95ae cc3e 6921 e13e
00000290: 41f6 1e3f 905e 7c3f ffa3 3b3f c832 0b3f
000002a0: 6405 4e3f 6aee f43e 3c39 e73d 65e6 f23e
000002b0: 2d45 1d3f aaec 843f 2233 553f e0b0 c43e
000002c0: c32f 273e b6ae 53be 4e61 bdbe d697 8dbe
000002d0: c51a 9abe c3c1 0ebf aeff 7cbe 96aa e8bd
000002e0: 31c6 7a3e 6cc2 31bd 4cf2 a1bd efba 21be
000002f0: 370e 69bf 9a81 80bf 7705 c3be 5222 a23c
00000300: 6a94 8fbe 7da7 10bf 0a5d 93be e8b3 373e
00000310: 450e 59bd fef5 8fbe 6ca9 ecbd 0d37 a83d
00000320: f857 99be 71fa ae3e 48b1 dfbd 4911 3dbe
00000330: 8995 7bbe 47a1 3cbe 5e1b 9fbd a7cb debe
00000340: bba9 b43b 13d2 d53d db9e 2b3e 97e5 b23e
00000350: 53eb bd3e 4ac8 163f 7031 363f bb7d ff3e
00000360: 9cbe 0a3f f05a f43d 2644 b0be 8965 803e
00000370: 47ea 3a3f 6e4e 803f cbbb 323f 27dd 9b3e
00000380: 89ba 04be 8e92 ffbd f2eb 053e 55f5 87be
00000390: 7a29 f9be de1d 2fbe 3985 adbe 0ba8 84be
000003a0: debe 54be 0f9b a9be affa 893c cd49 3b3d
000003b0: 0b62 26bf 7194 ccbe 8acd ccbe f490 d8bd
000003c0: e67e 1bbf 9d22 033f 37ac b5be fd18 213f
000003d0: 9943 993f 114e 833f 2338 fc3e fc38 923e
000003e0: 6c73 153f 8d3a ec3e cff7 4e3d eb67 743e
000003f0: 5121 023f a87a 163f 8bfd 223f e5d2 6f3e

net.fc.bias f4 [32]
-0.8167046 0.18304619 -0.5339723 1.1527672 -0.86306936 -0.080770336 -1.1865487 0.7779064
0.45226473 -1.045775 -2.5152915 0.67800313 -1.5061308 0.36069322 0.7370007 -0.6184451
-0.7858153 -1.5861053 0.85546374 0.7744105 1.1028562 -0.21847524 0.5128115 -0.84507406
-1.8777349 0.38417256 0.79348624 -0.83033925 0.6137006 0.89852697 1.0929526 1.1513256
00000000: 8d13 51bf 7670 3b3e 69b2 08bf e08d 933f
00000010: 1df2 5cbf eb6a a5bd d4e0 97bf e024 473f
00000020: 3e8f e73e f5db 85bf 89fa 20c0 9d91 2d3f
00000030: e5c8 c0bf c8ac b83e 14ac 3c3f 6b52 1ebf
00000040: 312b 49bf 8005 cbbf acff 5a3f c43f 463f
00000050: 642a 8d3f f9b7 5fbe 9d47 033f c656 58bf
00000060: 9e59 f0bf 44b2 c43e ea21 4b3f 1d91 54bf
00000070: 7c1b 1d3f dd05 663f dfe5 8b3f a35e 933f

exp_avg f4 [8, 1, 1, 256]
1.075434e-05 4.5278093e-06 -1.322295e-06 -6.650028e-06 -1.1301279e-05 -1.5224764e-05 -1.8155715e-05 -1.912768e-05
-1.6998114e-05 -1.0830331e-05 -3.9900135e-07 1.3628143e-05 2.9775952e-05 4.608716e-05 6.0509676e-05 7.1372655e-05
7.747662e-05 7.843328e-05 7.4648335e-05 6.706015e-05 5.7089987e-05 4.6345518e-05 3.647383e-05 2.8139106e-05
2.1508728e-05 1.6374275e-05 1.2780901e-05 1.0494006e-05 9.1910415e-06 9.010585e-06 1.0439758e-05 1.3943587e-05
1.9710207e-05 2.6917542e-05 3.4340446e-05 4.0118677e-05 4.283209e-05 4.140682e-05 3.512816e-05 2.4155934e-05
9.575268e-06 -7.443233e-06 -2.5421718e-05 -4.3032236e-05 -5.914618e-05 -7.298949e-05 -8.418137e-05 -9.278946e-05
-9.887229e-05 -0.00010242327 -0.00010371901 -0.00010275831 -9.9678764e-05 -9.449349e-05 -8.780009e-05 -8.0088605e-05
-7.205027e-05 -6.4714666e-05 -5.92007e-05 -5.5912464e-05 -5.4749344e-05 -5.5260647e-05 -5.6578134e-05 -5.7783844e-05
-5.8374597e-05 -5.8236554e-05 -5.721106e-05 -5.5532328e-05 -5.3271742e-05 -5.082088e-05 -4.827077e-05 -4.572799e-05
-4.3298052e-05 -4.121968e-05 -3.957529e-05 -3.8401075e-05 -3.7628153e-05 -3.7098736e-05 -3.6720507e-05 -3.6747257e-05
-3.7518526e-05 -3.956329e-05 -4.324449e-05 -4.8712624e-05 -5.566462e-05 -6.331323e-05 -7.076527e-05 -7.710041e-05
-8.1762555e-05 -8.429015e-05 -8.494097e-05 -8.433629e-05 -8.2998995e-05 -8.141774e-05 -8.011986e-05 -7.920388e-05
-7.8768746e-05 -7.91422e-05 -8.104919e-05 -8.455544e-05 -8.926052e-05 -9.443419e-05 -9.995335e-05 -0.00010566485
-0.00011141324 -0.00011694087 -0.00012241698 -0.00012762655 -0.00013203951 -0.00013487325 -0.00013562858 -0.00013411751
-0.00013067608 -0.00012618344 -0.000121808305 -0.00011844145 -0.000116286465 -0.00011539998 -0.00011540918 -0.0001158665
-0.00011644191 -0.000117149764 -0.00011787265 -0.00011851526 -0.00011892429 -0.000118942844 -0.00011888119 -0.00011902034
-0.00011940412 -0.00011965044 -0.00011950235 -0.00011878032 -0.000117748925 -0.00011695174 -0.00011696811 -0.0001177849
-0.00011906765 -0.000120546785 -0.00012210653 -0.0001234835 -0.00012427208 -0.00012403532 -0.00012247752 -0.00011929415
-0.00011465111 -0.00010900803 -0.00010339297 -9.878797e-05 -9.572119e-05 -9.439714e-05 -9.4654315e-05 -9.629571e-05
-9.8777775e-05 -0.00010155619 -0.00010442143 -0.0001072908 -0.00011007121 -0.000112769594 -0.00011536354 -0.00011762806
-0.00011951599 -0.00012109016 -0.0001229784 -0.0001256344 -0.00012963383 -0.00013534454 -0.00014268934 -0.00015116348
-0.00015990276 -0.00016763323 -0.00017307617 -0.00017539671 -0.00017454685 -0.00017139134 -0.00016734554 -0.00016360625
-0.00016078293 -0.00015878427 -0.00015732719 -0.0001555909 -0.00015289501 -0.00014877881 -0.00014358635 -0.00013768606
-0.00013169087 -0.00012560021 -0.00011917546 -0.000112287475 -0.000105132414 -9.794275e-05 -9.065975e-05 -8.282265e-05
-7.415875e-05 -6.442435e-05 -5.3347307e-05 -4.087378e-05 -2.709791e-05 -1.2631257e-05 2.1530275e-06 1.6450243e-05
2.9855417e-05 4.2013333e-05 5.2815452e-05 6.239724e-05 7.074869e-05 7.732422e-05 8.153782e-05 8.2514525e-05
7.969242e-05 7.275563e-05 6.253708e-05 4.9992337e-05 3.6512283e-05 2.327106e-05 1.1805368e-05 3.2132912e-06
-2.0921968e-06 -4.586042e-06 -4.5804377e-06 -3.1247944e-06 -1.3469452e-06 -4.0025506e-07 -6.587819e-07 -2.4084025e-06
-5.5209257e-06 -9.866296e-06 -1.532553e-05 -2.1494961e-05 -2.8066292e-05 -3.473198e-05 -4.1562027e-05 -4.8470913e-05
-5.518381e-05 -6.113449e-05 -6.552643e-05 -6.7617824e-05 -6.691285e-05 -6.3442036e-05 -5.7629724e-05 -4.9982977e-05
-4.155097e-05 -3.3180848e-05 -2.5698899e-05 -1.9502171e-05 -1.4337773e-05 -9.674027e-06 -5.230351e-06 -1.0490895e-06
2.6353193e-06 5.631769e-06 7.820149e-06 9.222365e-06 1.0452451e-05 1.1884683e-05 1.3922368e-05 1.6960097e-05
00000000: 8a6d 3437 96ed 9736 b679 b1b5 4e23 dfb6
00000010: a09a 3db7 dd6d 7fb7 1a4d 98b7 6174 a0b7
00000020: 2c97 8eb7 ebb3 35b7 5436 d6b4 6ea4 6437
00000030: 5fc7 f937 b64d 4138 c5cb 7d38 e7ad 9538
00000040: f27a a238 8c7c a438 858c 9c38 a5a2 8c38
00000050: e873 6f38 1f63 4238 7afb 1838 450c ec37
00000060: a46d b437 7d5b 8937 8d6d 5637 6a0f 3037
00000070: 3933 1a37 2b2c 1737 6b26 2f37 40ef 6937
00000080: 5957 a537 fbcc e137 c608 1038 1a45 2838
00000090: 9ba6 3338 3cac 2d38 9356 1338 79a2 ca37
000000a0: 77a5 2037 e2c0 f9b6 b940 d5b7 837d 34b8
000000b0: ba13 78b8 ef11 99b8 878a b0b8 f697 c2b8
000000c0: a859 cfb8 13cc d6b8 b883 d9b8 f37f d7b8
000000d0: a10a d1b8 ce2a c6b8 5021 b8b8 3ef5 a7b8
000000e0: b219 97b8 6cb7 87b8 454e 78b8 8d83 6ab8
000000f0: a9a2 65b8 abc7 67b8 4f4e 6db8 ee5c 72b8
00000100: 3fd7 74b8 0643 74b8 e8f5 6fb8 62eb 68b8
00000110: 1970 5fb8 8128 55b8 5876 4ab8 0ecc 3fb8
00000120: ee9a 35b8 4be3 2cb8 a5fd 25b8 d710 21b8
00000130: ecd2 1db8 779a 1bb8 5804 1ab8 1121 1ab8
00000140: 365d 1db8 c2f0 25b8 6b61 35b8 c850 4cb8
00000150: 6e79 69b8 08c7 84b8 d167 94b8 f8b0 a1b8
00000160: f077 abb8 eec4 b0b8 5622 b2b8 b3dd b0b8
00000170: bf0f aeb8 d1be aab8 0606 a8b8 421a a6b8
00000180: a630 a5b8 25f9 a5b8 f4f8 a9b8 5b53 b1b8
00000190: 6031 bbb8 f80a c6b8 0c9e d1b8 6298 ddb8
000001a0: 87a6 e9b8 273e f5b8 0f5d 00b9 7ed3 05b9
000001b0: 1674 0ab9 c36c 0db9 8537 0eb9 e5a1 0cb9
000001c0: 1806 09b9 1c50 04b9 5673 ffb8 c563 f8b8
000001d0: d2de f3b8 e402 f2b8 d507 f2b8 5bfd f2b8
000001e0: 4632 f4b8 4dae f5b8 6632 f7b8 658b f8b8
000001f0: fe66 f9b8 f470 f9b8 da4f f9b8 8f9a f9b8
00000200: 9968 fab8 d7ec fab8 569d fab8 b319 f9b8
00000210: f9ef f6b8 fd43 f5b8 c74c f5b8 4903 f7b8
00000220: f5b3 f9b8 10ce fcb8 b909 00b9 5a7b 01b9
00000230: 084f 02b9 7a0f 02b9 4f6d 00b9 8f2d fab8
00000240: d970 f0b8 3e9b e4b8 aed4 d8b8 632c cfb8
00000250: ecbd c8b8 14f7 c5b8 2681 c6b8 5ef2 c9b8
00000260: ea26 cfb8 90fa d4b8 d4fc dab8 4f01 e1b8
00000270: 08d6 e6b8 b77e ecb8 54ef f1b8 15af f6b8
00000280: a9a4 fab8 c9f1 fdb8 c3f3 00b9 babc 03b9
00000290: 51ee 07b9 46eb 0db9 e19e 15b9 a381 1eb9
000002a0: 92ab 27b9 b4c6 2fb9 c87b 35b9 b2ea 37b9
000002b0: 9006 37b9 83b7 33b9 7a79 2fb9 b88d 2bb9
000002c0: d797 28b9 547f 26b9 32f8 24b9 1d26 23b9
000002d0: 7152 20b9 8201 1cb9 ab8f 16b9 d25f 10b9
000002e0: 8016 0ab9 8db3 03b9 d7ed f9b8 e17b ebb8
000002f0: 897a dcb8 9d66 cdb8 9520 beb8 12b1 adb8
00000300: ad85 9bb8 8f1b 87b8 3cc1 5fb8 e36f 2bb8
00000310: 5250 e3b7 d6ea 53b7 bb7c 1036 a1fe 8937
00000320: 0572 fa37 7937 3038 2986 5d38 43db 8238
00000330: ea5e 9438 2029 a238 49ff aa38 a60b ad38
00000340: 8b20 a738 6294 9838 5726 8338 ddae 5138
00000350: c424 1938 3936 c337 ab0f 4637 eca3 5736
00000360: ab67 0cb6 cde1 99b6 a9b1 99b6 8fb3 51b6
00000370: afc8 b4b5 a3e2 d6b4 26d7 30b5 0aa0 21b6
00000380: 6440 b9b6 6b87 25b7 538f 80b7 1450 b4b7
00000390: e76f ebb7 2ead 11b8 e352 2eb8 3f4d 4bb8
000003a0: 2a75 67b8 5435 80b8 3c6b 89b8 0bce 8db8
000003b0: 9053 8cb8 2f0c 85b8 72b7 71b8 d0a4 51b8
000003c0: 0447 2eb8 aa2b 0bb8 f793 d7b7 9898 a3b7
000003d0: 448c 70b7 a14d 22b7 5f80 afb6 71ce 8cb5
000003e0: 71da 3036 87f8 bc36 4933 0337 c2b9 1a37
000003f0: ef5c 2f37 5364 4737 1e94 6937 8845 8e37

exp_avg_sq f4 [8, 1, 1, 256]
4.7921606e-08 4.6517844e-08 4.525477e-08 4.434243e-08 4.384051e-08 4.3671843e-08 4.373298e-08 4.3984674e-08
4.4404246e-08 4.4968054e-08 4.5656627e-08 4.6583864e-08 4.7937938e-08 4.9749254e-08 5.1705527e-08 5.3308963e-08
5.4276125e-08 5.4796416e-08 5.531212e-08 5.6055562e-08 5.68386e-08 5.7255797e-08 5.7047604e-08 5.627592e-08
5.5177413e-08 5.390309e-08 5.2502998e-08 5.1011426e-08 4.9457693e-08 4.774846e-08 4.575899e-08 4.3531156e-08
4.143575e-08 4.0018048e-08 3.9556355e-08 3.977181e-08 4.003409e-08 3.993723e-08 3.9607364e-08 3.9496562e-08
3.993861e-08 4.093882e-08 4.2289493e-08 4.3791587e-08 4.529587e-08 4.6604764e-08 4.7497e-08 4.7895057e-08
4.7942404e-08 4.7919542e-08 4.8073364e-08 4.8565052e-08 4.956105e-08 5.1180873e-08 5.3251487e-08 5.5167636e-08
5.611672e-08 5.5623243e-08 5.3934926e-08 5.1834434e-08 5.011411e-08 4.9176993e-08 4.9032e-08 4.9561752e-08
5.0631442e-08 5.202309e-08 5.335735e-08 5.4275343e-08 5.4657637e-08 5.463361e-08 5.4366485e-08 5.389231e-08
5.31848e-08 5.230133e-08 5.1366257e-08 5.042111e-08 4.9369135e-08 4.812704e-08 4.6819068e-08 4.5762196e-08
4.5150625e-08 4.4859913e-08 4.459887e-08 4.425919e-08 4.4060066e-08 4.4289216e-08 4.4961e-08 4.580814e-08
4.653782e-08 4.6991477e-08 4.7079208e-08 4.6730957e-08 4.60036e-08 4.529608e-08 4.529854e-08 4.6534787e-08
4.888183e-08 5.1598143e-08 5.386528e-08 5.5336375e-08 5.6141563e-08 5.6548235e-08 5.6725252e-08 5.6720694e-08
5.6564183e-08 5.619786e-08 5.543622e-08 5.4068373e-08 5.216703e-08 5.0231286e-08 4.8810538e-08 4.7980233e-08
4.7259462e-08 4.6170708e-08 4.48172e-08 4.3893603e-08 4.4003325e-08 4.5058275e-08 4.628394e-08 4.6882406e-08
4.6535416e-08 4.5397968e-08 4.3732058e-08 4.1770882e-08 3.9777458e-08 3.815519e-08 3.7328125e-08 3.7689627e-08
3.960132e-08 4.3514856e-08 4.9216414e-08 5.5913656e-08 6.204757e-08 6.594733e-08 6.6719274e-08 6.473979e-08
6.126966e-08 5.7611476e-08 5.450519e-08 5.2146756e-08 5.046374e-08 4.9282118e-08 4.829112e-08 4.720099e-08
4.5954618e-08 4.480656e-08 4.405769e-08 4.3710667e-08 4.3451305e-08 4.29923e-08 4.238725e-08 4.189143e-08
4.1613465e-08 4.1381853e-08 4.101603e-08 4.061769e-08 4.0478415e-08 4.069069e-08 4.0988045e-08 4.104439e-08
4.0864492e-08 4.080727e-08 4.1223238e-08 4.215082e-08 4.3424826e-08 4.493588e-08 4.6673318e-08 4.8485862e-08
4.99796e-08 5.0759798e-08 5.0836473e-08 5.065275e-08 5.0701036e-08 5.1096222e-08 5.158621e-08 5.1848026e-08
5.1796754e-08 5.152092e-08 5.1072256e-08 5.0431705e-08 4.9659494e-08 4.8904226e-08 4.821441e-08 4.7405365e-08
4.626769e-08 4.4919545e-08 4.3887873e-08 4.368882e-08 4.433578e-08 4.5315282e-08 4.605805e-08 4.6392415e-08
4.6554348e-08 4.680902e-08 4.7209344e-08 4.7630557e-08 4.800844e-08 4.8425104e-08 4.886748e-08 4.9139526e-08
4.8984653e-08 4.829949e-08 4.714462e-08 4.5693195e-08 4.4211603e-08 4.319674e-08 4.3317474e-08 4.4965013e-08
4.7689685e-08 5.022352e-08 5.1197862e-08 5.007515e-08 4.744654e-08 4.4493003e-08 4.217425e-08 4.084556e-08
4.0445254e-08 4.078647e-08 4.17011e-08 4.2923393e-08 4.417789e-08 4.5302745e-08 4.63486e-08 4.7342674e-08
4.8147584e-08 4.8553733e-08 4.8573323e-08 4.8449934e-08 4.8403383e-08 4.8310618e-08 4.784284e-08 4.686104e-08
4.563882e-08 4.4647635e-08 4.413831e-08 4.3967717e-08 4.3901473e-08 4.3912063e-08 4.413383e-08 4.4603514e-08
4.5159577e-08 4.5630692e-08 4.6065647e-08 4.674007e-08 4.785088e-08 4.9291657e-08 5.0793922e-08 5.215824e-08
5.334844e-08 5.435431e-08 5.5098926e-08 5.539706e-08 5.5073e-08 5.402826e-08 5.2274782e-08 4.9989083e-08
00000000: 5dd2 4d33 e9ca 4733 255e 4233 0473 3e33
00000010: 274b 3c33 b391 3b33 ecd4 3b33 a9e9 3c33
00000020: fcb6 3e33 e622 4133 fe17 4433 8013 4833
00000030: 52e4 4d33 e2ab 5533 d412 5e33 d3f5 6433
00000040: 3b1d 6933 4c59 6b33 5290 6d33 bec1 7033
00000050: b41e 7433 6ae9 7533 8104 7533 07b4 7133
00000060: 35fc 6c33 1383 6733 a87f 6133 a817 5b33
00000070: 4f6b 5433 fd13 4d33 8b88 4433 03f7 3a33
00000080: 17f7 3133 4fe0 2b33 ace4 2933 91d1 2a33
00000090: f3f1 2b33 7387 2b33 c21c 2a33 eea2 2933
000000a0: f788 2b33 b5d4 2f33 caa1 3533 5c15 3c33
000000b0: 568b 4233 7b2a 4833 81ff 4b33 2cb5 4d33
000000c0: 3be9 4d33 18d0 4d33 3979 4e33 d795 5033
000000d0: f3dc 5433 f7d1 5b33 a1b6 6433 75f1 6c33
000000e0: fc04 7133 67e6 6e33 14a6 6733 90a0 5e33
000000f0: 0c3d 5733 ad36 5333 4197 5233 b9dd 5433
00000100: dc75 5933 fe6f 5f33 072b 6533 5f1c 6933
00000110: b5c0 6a33 4aa6 6a33 9580 6933 3977 6733
00000120: 4e6d 6433 eca1 6033 cc9d 5c33 998e 5833
00000130: f009 5433 3db4 4e33 1c16 4933 118c 4433
00000140: a3eb 4133 ffab 4033 fa8c 3f33 7e17 3e33
00000150: 8e3c 3d33 8238 3e33 241b 4133 95be 4433
00000160: e0e0 4733 add3 4933 2334 4a33 3bb5 4833
00000170: 7e95 4533 918b 4233 458e 4233 8add 4733
00000180: 24f2 5133 c29c 5d33 8059 6733 fdaa 6d33
00000190: 4d20 7133 71df 7233 13a2 7333 109d 7333
000001a0: faf0 7233 335e 7133 c518 6e33 ce38 6833
000001b0: 420e 6033 e2bd 5733 c1a3 5133 d312 4e33
000001c0: 54fa 4a33 3b4d 4633 087d 4033 8785 3c33
000001d0: 2bfe 3c33 1986 4133 bbc9 4633 c05b 4933
000001e0: 3bde 4733 98fb 4233 e8d3 3b33 9267 3333
000001f0: c7d7 2a33 13e0 2333 b552 2033 2fe0 2133
00000200: 1d16 2a33 17e5 3a33 0562 5333 b725 7033
00000210: 033f 8533 ee9e 8d33 4f47 8f33 1307 8b33
00000220: 5a93 8333 7d70 7733 1719 6a33 f7f7 5f33
00000230: 78bd 5833 43aa 5333 a668 4f33 0aba 4a33
00000240: a35f 4533 5571 4033 f139 3d33 63bc 3b33
00000250: 379f 3a33 89a6 3833 460d 3633 1dec 3333
00000260: 7dba 3233 d4bb 3133 9a29 3033 9f73 2e33
00000270: 7dda 2d33 e3c3 2e33 d50a 3033 c948 3033
00000280: fc82 2f33 1144 2f33 6e0d 3133 5109 3533
00000290: 1a82 3a33 86ff 4033 db75 4833 c53e 5033
000002a0: 27a9 5633 fd02 5a33 4b57 5a33 4a8d 5933
000002b0: 61c2 5933 e474 5b33 a38f 5d33 82af 5e33
000002c0: 2277 5e33 da47 5d33 8a5a 5b33 3f9a 5833
000002d0: 3149 5533 c40a 5233 4e14 4f33 c09a 4b33
000002e0: ddb7 4633 90ed 4033 3a7f 3c33 5ea4 3b33
000002f0: b56b 3e33 aea0 4233 5dd1 4533 0041 4733
00000300: 0cf3 4733 100b 4933 39c3 4a33 5a92 4c33
00000310: d731 4e33 f7fb 4f33 5de2 5133 7b0d 5333
00000320: 3263 5233 da71 4f33 0f7c 4a33 3340 4433
00000330: 2ce3 3d33 5187 3933 110c 3a33 8e1f 4133
00000340: 5dd3 4c33 58b5 5733 a5e4 5b33 3612 5733
00000350: 06c8 4b33 9318 3f33 1423 3533 2b6e 2f33
00000360: 07b6 2d33 332d 2f33 d81a 3333 c55a 3833
00000370: 1bbe 3d33 e592 4233 d310 4733 d255 4b33
00000380: d4ca 4e33 6589 5033 ef9e 5033 4417 5033
00000390: 15e4 4f33 167e 4f33 c27b 4d33 4244 4933
000003a0: 6a04 4433 98c2 3f33 9692 3d33 04d7 3c33
000003b0: 2e8e 3c33 d399 3c33 a98d 3d33 1592 3f33
000003c0: 7bf5 4133 7afb 4333 b7d9 4533 40bf 4833
000003d0: 9984 4d33 c0b4 5333 8228 5a33 9704 6033
000003e0: 3b21 6533 3273 6933 e9a5 6c33 b6ed 6d33
000003f0: 6789 6c33 b30c 6833 bb84 6033 94b3 5633

exp_avg f4 [8]
3.3013392e-09 -3.431062e-09 1.8183076e-10 4.6119175e-10 2.8465368e-09 -9.354241e-10 1.7975308e-09 2.7839386e-10
00000000: c6dd 6231 e2c7 6bb1 cfec 472f f88a fd2f
00000010: ce9c 4331 4f90 80b0 fe0c f730 740c 992f

exp_avg_sq f4 [8]
2.6151605e-16 6.0748367e-16 2.3381217e-16 2.8870245e-17 1.4639114e-16 2.913843e-16 1.01012434e-17 3.095067e-16
00000000: f5c0 9625 6218 2f26 96c8 8625 f823 0524
00000010: 0ac7 2825 bcf8 a725 c655 3a23 216b b225

exp_avg f4 [8]
-1.6644336e-09 6.807166e-10 -2.1027956e-10 -1.1828867e-11 -1.9928155e-10 -1.4144526e-09 5.054941e-10 5.610218e-10
00000000: 0dc2 e4b0 2c1d 3b30 6f34 67af 7b18 50ad
00000010: c51c 5baf a066 c2b0 fcf2 0a30 6636 1a30

exp_avg_sq f4 [8]
5.7516623e-18 1.0082336e-17 6.759312e-18 1.4734973e-18 1.9710535e-18 1.8276594e-17 5.0583284e-19 2.0172983e-18
00000000: ea32 d422 7cfc 3923 e65f f922 2773 d921
00000010: 2670 1122 6392 a823 a64b 1521 b0d9 1422

exp_avg f4 [16, 1, 32, 1]
0.0007226416 0.00041744122 0.0002714228 0.00036914242 -0.00036515546 -0.0004554336 0.00010424156 -0.0004925044
-0.0005733466 -0.0004294287 8.852243e-06 -0.00031955386 -0.0001827157 0.00011114097 8.685894e-05 0.0004903774
0.0013586187 -0.0004307642 -0.00039188328 -0.00017762209 -0.00081751565 9.034484e-05 0.00024124712 -9.36405e-05
-5.4806926e-05 0.00014479594 0.00046019806 2.9728692e-05 0.00031300515 5.046096e-05 -0.00022971942 0.001191272
-0.00069557276 0.0015843399 0.00038223324 -0.0015643357 -0.0010328408 0.00027003587 0.0014746138 -0.0019158265
0.000482175 -0.00093130587 -0.0019617341 -0.0009715864 -0.00031175598 -9.4071824e-05 0.00051406544 0.0013027295
0.0016324064 0.0010730564 0.0015657058 -0.0011808437 -0.000388523 0.0012063808 -0.0023216442 -0.00057448755
0.0010940656 0.00088106573 0.00029871697 0.0014299046 0.0010743642 0.00065957505 0.0009482629 0.0012399203
0.00089248584 0.0007897627 0.00023100452 0.00095471134 -0.002898633 0.0006881232 0.003141133 -0.0020949957
0.00022734117 0.001338303 -0.0007859618 -0.0019965824 0.002784833 0.0011404325 -0.004483932 -0.002096469
0.0034481862 -0.0017060767 -0.0018503766 -0.003029468 -0.0010446864 0.0010358307 0.0005031437 -0.0014630188
-0.0011039574 0.0021441304 -0.002560952 0.0028363003 -0.0008382864 -0.00054112705 0.0033155023 0.004182556
-0.0018047475 0.00052502466 0.000143787 -0.0021800692 -0.0048378203 0.0030641523 0.0017413483 -0.0052047824
3.1275424e-06 0.0030312508 -0.00032212058 -0.0011315575 0.0027761678 0.0057917 -0.0021911096 -0.005423386
0.0032843298 0.0006407191 0.001979274 -0.0036926293 0.0013926871 0.00252685 -0.002016134 -0.0027450663
0.002521554 0.004011185 -0.0013354032 0.003275007 0.00048216133 -0.0039776075 -0.0009183136 0.0027046409
0.0012770809 -0.0007097127 -0.0007738989 -0.0004930349 0.0014117071 -0.000553472 -0.0020407748 -0.00034968863
-0.003605848 -0.00427861 0.0024753925 0.0033408199 -0.0059619397 -0.0053816102 0.005836692 0.0052988664
-0.002360827 -0.0021859007 -0.0010882629 0.0002562339 0.0008460958 -1.1004133e-05 0.0004270415 0.002538994
0.0003829335 -0.0028065224 0.004965548 -0.0029005834 0.005873039 0.005321606 -0.0010797245 -0.0052785096
0.00018209935 -0.00082039146 -1.3530484e-05 0.00048509048 -0.0008085887 0.00051386154 -0.0010526943 -0.0008531973
0.00097222056 0.00027454377 -0.0016234196 -0.0011089941 0.0012483209 0.00065586285 -0.003023117 -0.0016498393
0.0010367917 -0.0009511881 -0.00012375091 -0.0005113029 0.00077023887 0.00040827217 8.8087014e-05 0.0002063879
0.0008970286 0.00026406796 -0.0004341117 0.002380712 -0.0011502781 -0.00045919482 0.001861873 0.0028326777
-0.00013721299 0.0001690351 0.00040116688 0.0002934873 0.0006315692 8.559552e-05 -0.0004179798 0.00058032165
0.00015512585 0.00061320944 0.00045669038 0.00065463956 0.0005763876 0.00045408212 0.00036142004 -0.0002871811
-0.00037158118 0.00022080269 0.0002672314 -0.00017337645 -7.562572e-05 -0.0005533149 -3.9095783e-05 -0.00012752041
-0.00019975266 -0.00058799586 -0.00053179247 -0.00047588296 -0.0003804337 -0.0005364954 -0.00073889474 -0.0009211764
-0.0002178303 9.9227436e-05 0.000419216 0.00019562127 0.00039016167 -0.0003067943 0.00011818445 0.0005049607
-0.00036583538 0.0003582722 0.00018478058 0.0004316153 -6.62278e-05 0.00016228824 0.0011587506 0.00027517666
-0.0002884872 0.0004568943 0.00029203022 -5.7537327e-05 -0.00037219393 -0.00023111692 0.00042663535 -0.0003583856
-0.00042477183 -0.00043587192 5.644348e-05 -0.000573901 5.596822e-05 -0.00022065906 -0.0007551624 -0.0011279254
00000000: a86f 3d3a 03dc da39 c04d 8e39 7589 c139
00000010: 5672 bfb9 43c7 eeb9 439c da38 691b 01ba
00000020: a44c 16ba f224 e1b9 1884 1437 cb89 a7b9
00000030: 5f97 3fb9 5b14 e938 0a28 b638 ac8c 003a
00000040: ae13 b23a 31d8 e1b9 af75 cdb9 1140 3ab9
00000050: 8c4e 56ba 8477 bd38 48f7 7c39 dc60 c4b8
00000060: 7de0 65b8 5dd4 1739 bd46 f139 e161 f937
00000070: d71a a439 0ba6 5338 d6e0 70b9 7524 9c3a
00000080: 1957 36ba a0a9 cf3a 7a66 c839 650a cdba
00000090: 6360 87ba 9a93 8d39 d447 c13a 781c fbba
000000a0: 6fcc fc39 e122 74ba 7090 00bb 0fb2 7eba
000000b0: 2e73 a3b9 6d48 c5b8 59c2 063a 59c0 aa3a
000000c0: 78f6 d53a cca5 8c3a 5e38 cd3a 8ac6 9aba
000000d0: adb2 cbb9 6c1f 9e3a ba26 18bb 3599 16ba
000000e0: c066 8f3a 52f7 663a 1d9d 9c39 a36b bb3a
000000f0: aed1 8c3a 55e7 2c3a d994 783a d284 a23a
00000100: b6f5 693a 1408 4f3a ce39 7239 9845 7a3a
00000110: fef6 3dbb 2b63 343a 78db 4d3b 324c 09bb
00000120: 6e62 6e39 ff69 af3a 0109 4eba 18d9 02bb
00000130: bf81 363b 917a 953a f3ed 92bb ea64 09bb
00000140: f7fa 613b 6f9e dfba 5688 f2ba 0a8a 46bb
00000150: dced 88ba b6c4 873a 67e5 033a c4c2 bfba
00000160: aab2 90ba 8a84 0c3b a5d5 27bb 39e1 393b
00000170: 73c0 5bba 6cda 0dba e648 593b d30d 893b
00000180: 478d ecba cfa1 093a 87c5 1639 7edf 0ebb
00000190: 9486 9ebb f2cf 483b f43d e43a e18c aabb
000001a0: c5e2 5136 f3a7 463b 4be2 a8b9 c550 94ba
000001b0: 5ef0 353b 4dc8 bd3b b898 0fbb a9b6 b1bb
000001c0: e93d 573b eef5 273a b5b6 013b 0a00 72bb
000001d0: d38a b63a 8299 253b 1e21 04bb 92e6 33bb
000001e0: a840 253b 4270 833b b208 afba 80a1 563b
000001f0: 99ca fc39 9756 82bb fcba 70ba 5840 313b
00000200: b963 a73a 030c 3aba 7adf 4aba 033f 01ba
00000210: 0809 b93a e116 11ba 85be 05bb 6a56 b7b9
00000220: 1750 6cbb 9533 8cbb 323a 223b a8f1 5a3b
00000230: 605c c3bb 3858 b0bb b941 bf3b 1da2 ad3b
00000240: 1bb8 1abb 5441 0fbb 0ba4 8eba 2257 8639
00000250: 87cc 5d3a 649e 38b7 8ae4 df39 4065 263b
00000260: 77c4 c839 a2ed 37bb 09b6 a23b b717 3ebb
00000270: 9f72 c03b de60 ae3b 8b85 8dba 59f7 acbb
00000280: ecf1 3e39 8a0f 57ba fc00 63b7 be53 fe39
00000290: 78f7 53ba aab4 063a 8ffa 89ba 1aa9 5fba
000002a0: 9edc 7e3a a4f0 8f39 ecc8 d4ba ab5b 91ba
000002b0: b39e a33a 36ee 2b3a 7d1f 46bb 6c3f d8ba
000002c0: f5e4 873a 2759 79ba 22c3 01b9 f508 06ba
000002d0: dbe9 493a 5d0d d639 5bbb b838 d469 5839
000002e0: 9226 6b3a 9a72 8a39 7c99 e3b9 b805 1c3b
000002f0: eec4 96ba 16c0 f0b9 170a f43a 72a4 393b
00000300: d5e0 0fb9 043f 3139 b553 d239 33df 9939
00000310: e48f 253a bf81 b338 4d24 dbb9 ba20 183a
00000320: 47a9 2239 cabf 203a f26f ef39 1e9c 2b3a
00000330: b818 173a df11 ee39 fa7c bd39 cb90 96b9
00000340: c8d0 c2b9 4587 6739 311b 8c39 63cc 35b9
00000350: 4099 9eb8 560c 11ba c7fa 23b8 00b7 05b9
00000360: b274 51b9 bc23 1aba fd67 0bba ee7f f9b9
00000370: f274 c7b9 99a3 0cba 63b2 41ba 1a7b 71ba
00000380: 6069 64b9 5318 d038 38ca db39 af1f 4d39
00000390: 9d8e cc39 3cd9 a0b9 cbd9 f738 575f 043a
000003a0: 98cd bfb9 7bd6 bb39 a9c1 4139 6d4a e239
000003b0: c8e3 8ab8 eb2b 2a39 38e1 973a 9645 9039
000003c0: 1940 97b9 518b ef39 a21b 9939 3c54 71b8
000003d0: 0623 c3b9 fa57 72b9 07ae df39 b3e5 bbb9
000003e0: e9b3 deb9 bd85 e4b9 babd 6c38 d871 16ba
000003f0: 6bbf 6a38 b760 67b9 17f6 45ba e5d6 93ba
