model/sub6_20240206_130642/checkpoints/epoch1_0.4904.pt (torch, 195725 bytes, 39 tensors)

net.conv.weight f4 [8, 1, 1, 256]
000000 4c ce d2 be 6e 9c 0c bf 95 e2 43 bf e4 ca 60 bf
       -0.41173017 -0.5492619 -0.7651761 -0.87809587
000010 79 af 47 bf b1 8d 51 bf 7f 10 6f bf cb e2 7a bf
       -0.78002125 -0.8185683 -0.93384546 -0.9800231
000020 59 c1 97 bf 1a 29 89 bf 0d 30 6f bf a3 ce 44 bf
       -1.185588 -1.0715668 -0.93432695 -0.768778
000030 15 fb 02 bf 83 ee 3e be 5f 62 bb 3d 39 3f a8 3e
       -0.5116437 -0.18645673 0.09149622 0.32860735
000040 15 b5 8a 3e 93 a7 97 3d 42 e6 02 be a8 41 e2 be
       0.2709128 0.07405009 -0.12783149 -0.44190717
000050 99 06 0d bf a8 32 1d bf 92 36 03 bf bd 2f 8c be
       -0.5508819 -0.6140542 -0.5125514 -0.2738017
000060 2b 28 da 3d d5 98 a7 3e 28 40 bb 3e f1 a4 c4 3e
       0.10652193 0.3273379 0.36572385 0.3840709
000070 6f 25 b7 3e 6e 17 ca 3d af 08 cc 3d d4 4f d7 3d
       0.35770747 0.0986775 0.09962594 0.10513273
000080 de 6c 8f 3e e3 17 2a 3f a4 f6 8d 3f 15 1c a0 3f
       0.28012747 0.664427 1.1090894 1.250857
000090 69 4c b2 3f c6 a3 aa 3f 03 97 9a 3f f2 75 4d 3f
       1.3929569 1.333123 1.2077335 0.80258095
0000a0 b4 8c d3 3e 80 28 95 3d 1b 1c 0e be f2 ad 55 be
       0.41318285 0.072831154 -0.13877909 -0.20867136
0000b0 99 eb 5e be 1e 1c aa bd e0 06 4a be b5 1a 4a be
       -0.21769561 -0.08306144 -0.19729185 -0.1973675
0000c0 88 b2 b2 be b5 53 0a bf 13 59 15 bf a7 60 1c bf
       -0.34901834 -0.54033977 -0.5833904 -0.6108498
0000d0 6a 3a 2c bf 0b 7e ec be e0 0b a2 be 4e c2 c7 bd
       -0.6727663 -0.46189913 -0.31649685 -0.097538576
0000e0 f0 2e 8d bd 36 28 15 be d1 63 8b be 96 98 d2 be
       -0.06893718 -0.1456612 -0.2722459 -0.4113204
0000f0 7d 57 2e bf 3f fc 6d bf f4 69 84 bf 33 39 7a bf
       -0.68102247 -0.9296302 -1.0344834 -0.9774353
000100 f5 38 56 bf bb c1 1b bf b9 4d 00 bf 14 71 b4 be
       -0.8368066 -0.60842484 -0.50118595 -0.35242522
000110 b4 cb 88 be 58 b1 19 be 46 cd 9e 3d de 18 35 3e
       -0.26717913 -0.15009058 0.077539966 0.17685267
000120 2a ae a4 3e bf cd d4 3e bb bb 18 3f b0 36 45 3f
       0.32164127 0.41563222 0.59661454 0.7703657
000130 f2 4b 47 3f 28 b5 35 3f 11 a0 1d 3f 36 fa 1a 3f
       0.7785026 0.7097955 0.61572367 0.6053804
000140 27 f3 ec 3e d5 a5 cc 3e b4 b1 9b 3e fe 65 fe 3e
       0.4627926 0.3997027 0.30409014 0.4968719
000150 76 00 18 3f 35 51 2c 3f 10 1d 3a 3f d2 d2 36 3f
       0.59375703 0.6731141 0.72700596 0.71415436
000160 54 51 16 3f 80 35 be 3e 81 06 54 3e 0a fc 68 bc
       0.58717847 0.37150192 0.20705606 -0.014220247
000170 32 0a d1 bd 19 8b 17 3d 04 f8 7a 3e 9a 89 0e 3f
       -0.10207023 0.03699789 0.24508673 0.55678713
000180 de e5 31 3f 93 09 47 3f 3a 38 18 3f 72 be a9 3e
       0.69491374 0.77748984 0.59460795 0.3315311
000190 29 94 da bc 7f 1c a9 be 3a 76 0f bf 39 37 19 bf
       -0.026681976 -0.33029553 -0.56039774 -0.5984989
0001a0 1a 06 16 bf d0 36 ed be da 10 84 be c9 fd 8c be
       -0.5860306 -0.4633088 -0.25794107 -0.27537373
0001b0 48 76 bb be 66 c8 2d bf 21 2c 7c bf 75 01 b7 bf
       -0.3661368 -0.6788391 -0.98504835 -1.429732
0001c0 c4 af cd bf 33 b7 d8 bf 62 87 b9 bf db 6b 74 bf
       -1.6069264 -1.6930908 -1.449444 -0.95477074
0001d0 47 bf d4 be ca eb b7 3d eb 0d aa 3e 99 cf ff 3e
       -0.41552183 0.0898052 0.33213744 0.49963072
0001e0 54 2e e8 3e d5 70 e5 3e 8a 43 7d 3e 17 b8 8a 3e
       0.45347846 0.44812647 0.24732795 0.27093574
0001f0 89 8c 9b 3e 4e ca fb 3e 06 53 19 3f 47 56 1b 3f
       0.30380657 0.49177784 0.5989231 0.60678524
000200 bd 78 14 3f de 6b b8 3e bd ad 42 3e dd b7 52 3c
       0.5799673 0.36019796 0.19011588 0.012861219
000210 15 36 35 be 71 57 06 be 22 f2 22 be ba 9f 42 3c
       -0.17696412 -0.13119294 -0.15912679 0.011878902
000220 22 a7 6b 3e 4b 74 e1 3e 64 68 15 3f c1 9e 2f 3f
       0.23012975 0.44034037 0.5836241 0.68601614
000230 f9 42 0f 3f 45 77 f0 3e 9d fd 80 3e a2 fb 08 3e
       0.5596157 0.46965995 0.25193492 0.1337724
000240 4e fe 3e 3e 6c d1 ba 3e 5b 93 e2 3e 40 cf fb 3e
       0.18651697 0.364879 0.44253048 0.49181557
000250 08 41 e9 3e 93 69 ce 3e 05 3c cc 3d 8f 8e cf be
       0.45557427 0.40314922 0.09972385 -0.4053845
000260 34 13 41 bf da 72 78 bf 06 e8 80 bf 8f 4a 74 bf
       -0.75419927 -0.9705025 -1.0070808 -0.9542627
000270 fe e8 43 bf 03 63 ff be 47 ad c8 be 6c 5e c8 be
       -0.7652739 -0.49880227 -0.391947 -0.39134538
000280 a3 21 25 bf a4 c7 54 bf c6 9e 94 bf 9c ee 9e bf
       -0.6450445 -0.8311713 -1.1610954 -1.2416568
000290 c3 e8 8c bf 75 1b 59 bf 25 7c 0f bf c8 64 9c be
       -1.1008533 -0.8480752 -0.56048805 -0.3054564
0002a0 4a 33 e5 bd 0c 2d 83 3d f8 ea af bd 27 6d 00 be
       -0.11191423 0.064050764 -0.085897386 -0.12541638
0002b0 ba 72 97 be ba d9 d1 be 46 5a b8 be 7d 85 a1 be
       -0.29579717 -0.40986425 -0.36006373 -0.31547156
0002c0 49 63 99 bd e9 43 58 3e b1 2f c4 3e 8b 8b 01 3f
       -0.0748964 0.21119656 0.38317636 0.5060355
0002d0 97 85 e5 3e c9 5f d2 3e eb 45 b2 3e 75 f8 85 3e
       0.44828483 0.41088703 0.34818968 0.2616612
0002e0 ef 74 4a 3e 45 bb b0 3e 41 74 1b 3f 50 97 83 3f
       0.19771169 0.34517875 0.60724264 1.0280552
0002f0 ca 6d 9d 3f f8 04 a0 3f 42 29 a3 3f 49 cc 8a 3f
       1.229913 1.2501516 1.2746966 1.0843593
000300 18 08 35 3f 3d bc cd 3e 81 de 85 3d a4 e2 10 3d
       0.70715475 0.40182677 0.0653658 0.03537239
000310 ba 43 d0 bc 32 bb b0 3d 26 c6 c0 bb b7 60 a5 3c
       -0.02542292 0.08629455 -0.005882996 0.020187719
000320 27 0c 31 be d7 e6 e1 be 0c a8 51 bf 5a 38 7e bf
       -0.17289792 -0.4412143 -0.81897044 -0.99304736
000330 a7 8e 89 bf 7b 38 71 bf 06 f1 1c bf c2 64 8e be
       -1.0746659 -0.9422681 -0.6130527 -0.27811247
000340 0b 5e 1d 3e 34 06 f6 3e a3 75 fa 3e 3c 1b 94 3e
       0.15367906 0.48051608 0.48917875 0.28927028
000350 61 c6 89 bd 3c 18 fa be 16 63 56 bf 89 26 8f bf
       -0.06727291 -0.48846614 -0.83744943 -1.1183635
000360 71 fb 97 bf 72 c7 89 bf 04 da 3d bf 24 4c ba be
       -1.1873609 -1.0763991 -0.7416079 -0.36386216
000370 ef 4c a3 be 76 d3 88 be 61 2c 11 bf 52 f5 65 bf
       -0.31894633 -0.26723832 -0.5670834 -0.89827454
000380 58 58 7a bf e5 39 42 bf 8e d0 fe be 94 e0 09 be
       -0.9779105 -0.7586959 -0.4976849 -0.13464576
000390 98 3a c6 3e 86 ac 64 3f af 89 93 3f 57 a1 8d 3f
       0.38716578 0.8932575 1.1526393 1.1064862
0003a0 c9 2a 80 3f 69 7c 27 3f ec ef 33 3e d7 df a6 bc
       1.0013057 0.6542421 0.17571992 -0.020370407
0003b0 4b 1f d5 bb 4e 62 8c 3e 4b eb 40 3f c1 ad 87 3f
       -0.0065039746 0.2741875 0.7535903 1.05999
0003c0 15 7b a1 3f 4d eb 97 3f 62 8d 6e 3f 56 70 1b 3f
       1.2615687 1.1868683 0.93184483 0.60718286
0003d0 67 d2 26 3e b2 90 db bc fe 07 52 be 4c 71 3d be
       0.162912 -0.026802395 -0.20510861 -0.1850025
0003e0 4c 83 6f be cc e9 17 be ee 57 41 be 00 f7 9e be
       -0.2338993 -0.1483528 -0.18881199 -0.3104782
0003f0 17 70 28 bf 3b ec 94 bf 0e a8 d0 bf a1 e3 f3 bf
       -0.65796036 -1.1634592 -1.6301286 -1.9053842

net.bn1.weight f4 [8]
000000 5d 1a c6 3f 1c 39 e6 3f f5 cf 02 40 cc 05 b8 3f
       1.5476795 1.7986178 2.0439427 1.4376769
000010 60 8b 8f 3f ea 4f 00 40 e3 73 92 3f de 9f 74 3f
       1.1214409 2.0048776 1.1441616 0.9555644

net.bn1.bias f4 [8]
000000 55 49 62 bd c9 21 a6 bd 61 06 64 be 76 4f 8e bd
       -0.055245716 -0.08111913 -0.22268058 -0.0694875
000010 17 4d 00 be f9 77 90 3e cd fb 7b bd 16 ab 01 3e
       -0.12529407 0.28216532 -0.061519433 0.1266292

net.bn1.running_mean f4 [8]
000000 87 9b 5b ba 53 ba 8b ba e8 4f 31 3a 66 67 1b ba
       -0.00083773624 -0.0010660387 0.0006763921 -0.00059281883
000010 29 1b 74 3a 51 6c 9b ba f7 21 dd b9 ef fb 5f ba
       0.00093119085 -0.0011857842 -0.0004217771 -0.0008544316

net.bn1.running_var f4 [8]
000000 59 c1 89 44 48 d8 a5 44 f6 28 bd 44 13 ae a8 43
       1102.0421 1326.7588 1513.28 337.35995
000010 28 3e fd 43 c9 f0 b9 44 a0 3d 14 43 00 38 ef 43
       506.4856 1487.5245 148.24072 478.4375

net.depth_conv.weight f4 [16, 1, 32, 1]
000000 36 17 89 be 49 14 95 3e b0 d6 48 3f fe bc 9f 3d
       -0.2677552 0.2911704 0.7845259 0.07799719
000010 fb dd 62 3f be a7 22 bf 43 5d 2f 3f 64 e6 1d 3f
       0.88619965 -0.63537204 0.6850168 0.61679673
000020 b9 7f 77 bf b3 8f ff 3e c8 63 af bf aa ca 99 be
       -0.96679264 0.4991432 -1.3702326 -0.30037433
000030 e1 47 31 bf d0 8e 2a be a3 3e f2 3e 6d 8f 60 3f
       -0.69250304 -0.16656041 0.47313413 0.8771885
000040 c5 bd 00 bd 91 21 de 3e 5e 32 cc 3f 38 09 46 3f
       -0.03143098 0.43384984 1.5952871 0.77357817
000050 a1 c4 5f be 0d af 2e 3e 58 56 71 3e 67 87 bc bf
       -0.21852352 0.17058964 0.23568094 -1.4728822
000060 2b 53 a7 bf 50 75 9d 3f 42 30 b9 be ea d1 c2 bf
       -1.3072256 1.2301426 -0.3616963 -1.5220311
000070 0a cf b3 be 28 a5 cb be 48 e1 37 3f 88 f1 08 3e
       -0.35118896 -0.39774442 0.71828127 0.13373387
000080 52 87 25 be 60 5d 50 3f ec a2 5f 3f b0 cd 05 3e
       -0.16164902 0.8139248 0.87357974 0.13066745
000090 18 94 bd 3f 50 ea b2 3e 5b 04 f9 be d5 03 88 be
       1.481082 0.3494439 -0.48636135 -0.26565424
0000a0 47 a4 ee bf ee 78 62 3f a9 1c 00 bf c3 b1 38 be
       -1.8643883 0.88465774 -0.5004373 -0.1803656
0000b0 e5 7f cb bf d4 2c 38 bf 16 a0 81 3d 37 75 1a 3f
       -1.5898405 -0.719434 0.06329362 0.60335106
0000c0 e8 0b a1 3d f3 73 b6 3e f8 94 61 3f 71 3c 8a 3f
       0.07863599 0.35635337 0.88117933 1.0799695
0000d0 2c b6 1b 3f 35 3b dd 3f 02 f0 de 3e b7 56 9c bf
       0.6082485 1.7283694 0.43542486 -1.2213963
0000e0 e4 8e bb bf d8 28 14 3f 0c ca 65 3d f1 88 00 bf
       -1.4652982 0.5787482 0.05610089 -0.50208956
0000f0 ef 65 8e bf a6 4e 2c bf a2 cb 4c 3f f9 33 22 3e
       -1.1124858 -0.6730751 0.7999822 0.15840138
000100 a3 86 74 3e 0c d6 7a 3f cb 0c da 3e 36 7a ed be
       0.23879485 0.9798286 0.42587885 -0.46382302
000110 74 80 1e 3f 82 d7 15 be b1 15 ca 3e 95 41 4c be
       0.61914754 -0.14632991 0.39469674 -0.19946893
000120 91 64 b0 be ba bc 25 c0 a3 5d 90 3d d6 d1 e4 3e
       -0.34451726 -2.589644 0.0704911 0.44691342
000130 da 38 b8 3e ea e4 ac 3f 48 08 81 be aa 1e 2f 3e
       0.35980874 1.3507359 -0.2520163 0.17101541
000140 cb af 91 3e 7f 0a 3f 3e 63 34 b8 3e b6 e3 2b 3f
       0.28454432 0.18656348 0.35977468 0.67144334
000150 b0 47 6e 3f f7 02 b7 be ba 61 78 3d e6 e9 9b bb
       0.93078136 -0.3574445 0.060640074 -0.0047581075
000160 cb 6d 98 bf 3c 07 c4 be 85 51 8a bf aa b3 a3 be
       -1.1908506 -0.3828677 -1.0806128 -0.3197301
000170 6e 72 43 bb 8d 61 6d be f3 8e c4 3e da fa ae 3e
       -0.0029822844 -0.23181744 0.38390312 0.3417576
000180 22 96 b5 be 0e 5c 40 bf 7e 38 78 bf e6 a6 68 bf
       -0.35466105 -0.75140464 -0.969612 -0.90879667
000190 4f 0b 80 bf 8b 06 13 3f 42 ce eb 3e d8 c2 ba 3f
       -1.0003451 0.5743186 0.460558 1.4590712
0001a0 4f 97 13 bf dc 78 0b 40 2b 2b 02 bf e9 d8 a0 3e
       -0.57652754 2.1792517 -0.5084712 0.3141549
0001b0 95 d1 0a 3d 18 5c b3 be b5 16 93 bb f1 0d 5d be
       0.03389128 -0.350312 -0.004488791 -0.2158735
0001c0 40 0d 74 bd d9 5e 1c bf 6b b9 1d 3b 26 01 2e be
       -0.05958295 -0.61082226 0.0024066817 -0.16992626
0001d0 30 77 23 bf 35 ae 83 be 52 0d 17 bf 47 f8 42 3f
       -0.6385374 -0.25718847 -0.590047 0.7616009
0001e0 5d 90 97 3e 12 63 f8 be b8 d2 df 3f 15 39 c5 3e
       0.29602328 -0.48513085 1.7486181 0.38520113
0001f0 5f e2 4e bf 3e b2 3e 3f fc f3 22 bf 76 64 9a 3d
       -0.80814165 0.74490726 -0.6365354 0.07538693
000200 0c 93 09 be 0f 71 93 bf a0 ec 0d bf a3 5b f2 be
       -0.13435 -1.1518878 -0.55439186 -0.47335538
000210 63 55 92 be 6e 90 db 3e 9d be 78 be 5b 4c aa 3f
       -0.2858077 0.4288363 -0.24291463 1.3304552
000220 25 5c 62 3e 00 5c 41 40 89 28 11 3c 65 f3 c8 3c
       0.22105463 3.0212402 0.008859762 0.024530122
000230 e8 0d 26 bf 72 d0 bc bf 24 f5 8d 3e 41 f8 08 3d
       -0.6486497 -1.4751112 0.2772609 0.03343988
000240 60 7c ad be b1 9a 8e be c3 97 39 bf 0f a0 9c be
       -0.33883953 -0.27852395 -0.72497195 -0.30590865
000250 cf 6c 51 bf ee ee 25 3f 09 e9 ee 3d f7 36 e2 3e
       -0.81806654 0.648177 0.11665542 0.4418256
000260 98 85 f7 3e d5 10 e9 3e eb a8 7c 3f c6 c2 78 3f
       0.4834411 0.45520654 0.9869525 0.971722
000270 65 69 f8 be b3 9e 68 be be 20 2d bf 09 c6 87 3e
       -0.4851791 -0.22716789 -0.67628086 0.26518276
000280 cc 03 e2 3d 8b 5d a0 3e c8 bd 0b bf 8e c6 81 bf
       0.110358804 0.31321368 -0.5458646 -1.0138719
000290 e9 b3 8d bf a8 8b ec 3e 33 1e 19 3f c9 8d b9 3f
       -1.1070529 0.462003 0.59811705 1.4496394
0002a0 f2 3a 89 bf d2 ea df 3d 80 50 0e bf 64 c0 26 3f
       -1.0721114 0.1093346 -0.55591583 0.65137315
0002b0 bb ae 2c 3f c1 b4 86 3f db 34 a4 be 75 b0 67 be
       0.6745412 1.0523912 -0.32071576 -0.22625907
0002c0 c3 b6 93 3c a5 da d1 be 87 88 18 3f 45 6b 57 3e
       0.018031484 -0.40987125 0.59583324 0.21037014
0002d0 e9 f4 73 3d 33 3e 55 bf 55 1b 10 bf bd d5 34 3f
       0.059559736 -0.83298033 -0.56291705 0.7063864
0002e0 03 98 23 bf 87 62 90 bf 83 95 ad 3f 20 62 7a 3d
       -0.63903826 -1.1280068 1.3561252 0.061128736
0002f0 41 89 93 bf f1 13 c1 3f be 87 47 be b8 e5 06 3e
       -1.1526262 1.5084211 -0.19485375 0.13173568
000300 a7 59 19 3f 06 6a c9 bd a8 84 9a 3e 27 49 b1 3c
       0.59902424 -0.098346755 0.30179334 0.021641327
000310 cb 9a 33 3f de f9 47 be d3 f6 a5 bf 47 6d 20 3e
       0.7015807 -0.1952891 -1.296595 0.15666686
000320 61 12 02 3d 27 7b 14 be b3 98 44 bf bb ae ab be
       0.03175581 -0.14500104 -0.767955 -0.33531746
000330 6f aa 2f 3f d1 65 b2 3d cf 2c 01 bf 61 2e 5b 3e
       0.68619436 0.08710826 -0.50459 0.21404411
000340 85 1e d5 bd 51 5a 11 3d 6c b8 38 bf 82 3f 7d bf
       -0.10406212 0.035486523 -0.72156405 -0.9892503
000350 5f 5f 15 be 27 3b 85 bd 27 9c 91 bc 0c 73 0c 3f
       -0.14587162 -0.06505423 -0.017774655 0.5486305
000360 19 b2 ff 3f 00 7a dc bf 39 fe 04 40 6c cb b9 3f
       1.9976226 -1.7224731 2.0780165 1.4515204
000370 5c a4 e2 be a6 3f b6 bf 2f ad 61 3e 25 56 a7 3e
       -0.4426602 -1.4238174 0.2203872 0.3268291
000380 ba 69 90 3e 63 24 89 be 84 97 b5 3e 24 a5 1b bf
       0.28205663 -0.26785573 0.3546716 -0.6079886
000390 8c 9f 83 3f 66 e8 b3 ba bd 54 d1 be 1c 66 2c 3f
       1.0283065 -0.0013725876 -0.40884963 0.67343307
0003a0 e9 3f be 3d 82 e8 1a be c2 20 ec bf 40 e9 16 be
       0.09289534 -0.15127757 -1.8447497 -0.14737415
0003b0 d8 60 fa bc e2 dc a4 3e 97 b1 63 bd 0c 76 56 3f
       -0.030563757 0.3219977 -0.055589285 0.83773875
0003c0 4b b7 52 3f 55 8a 57 bd 83 32 80 be c3 fa 3b bf
       0.8231093 -0.052622158 -0.25038537 -0.73429507
0003d0 04 13 0b bf 92 ca 6a bf 72 39 c2 3e 28 5c 0b 3e
       -0.5432589 -0.9171535 0.37934452 0.13609374
0003e0 2d f4 de 3f 58 90 a6 bf 91 96 01 40 0e 84 b5 3f
       1.7418267 -1.30128 2.0248148 1.4180925
0003f0 c8 28 96 be f9 80 bd bf 73 15 54 3d 75 8f b6 3d
       -0.2932799 -1.4804984 0.051778268 0.08914081

net.bn2.weight f4 [16]
000000 b0 10 d7 3f cc 12 d2 3f 14 c1 0e 40 68 1c 06 40
       1.6801968 1.6411986 2.2305346 2.0954838
000010 84 0d 14 40 9e ee 12 40 c4 48 d5 3f dc 83 db 3f
       2.313325 2.295814 1.6662831 1.7149615
000020 7a f9 84 3f 91 f4 dc 3f 89 a3 0d 40 3a 84 14 40
       1.0388634 1.7262136 2.2131064 2.3205705
000030 50 bb de 3f d1 d1 dd 3f 28 a9 ca 3f 6c ca d3 3f
       1.7400913 1.7329656 1.5832872 1.6546149

net.bn2.bias f4 [16]
000000 ca 1b cf be 8e 24 fb be c7 4a 1a bf 2f 7e 25 bf
       -0.4045089 -0.49051327 -0.6027035 -0.64645666
000010 b4 f8 2b bf e8 00 28 bf 9c a3 d6 be 84 8b e5 be
       -0.67176366 -0.6562638 -0.419217 -0.44833004
000020 2b 92 52 be 5f d5 fe be 77 7a 1c bf 99 80 31 bf
       -0.20563571 -0.49772164 -0.61124367 -0.6933685
000030 72 8f d2 be 7e 82 d1 be 47 a3 cb be 5c 9f e8 be
       -0.41125065 -0.4091987 -0.39773008 -0.45434082

net.bn2.running_mean f4 [16]
000000 c0 e1 9a bc b7 1c 86 bd a3 43 67 bd 3b 3a 94 3d
       -0.018906474 -0.06548446 -0.056460988 0.07237669
000010 d0 a9 49 be d0 a1 89 bd 09 4f 1d bd 35 52 ad bd
       -0.19693685 -0.067203164 -0.038405452 -0.08462945
000020 e7 f1 05 be b9 97 a9 3d b3 f3 9e be c3 c7 09 3f
       -0.1308056 0.08280892 -0.31045303 0.5382044
000030 f9 4c df ba ba 13 56 3c 1f dc bc bd 46 d0 de 3d
       -0.001703649 0.013066227 -0.09221672 0.10879569

net.bn2.running_var f4 [16]
000000 bd 35 8a 41 60 c4 0b 41 ac d9 5d 41 72 fd f7 40
       17.27624 8.735443 13.865643 7.749688
000010 35 63 54 41 92 26 c5 41 8a 63 14 42 e0 3e eb 41
       13.27422 24.643833 37.097206 29.4057
000020 14 70 8a 41 16 14 88 41 41 3a e1 41 d9 76 3c 41
       17.304726 17.009808 28.153444 11.779016
000030 b3 18 c3 42 b2 ac f7 42 d1 79 21 41 57 b0 92 41
       97.54824 123.837296 10.09224 18.336103

net.point_conv.weight f4 [16, 16, 1, 16]
000000 df f1 85 3e 4f a8 aa 3e 12 34 06 3f 70 05 b9 3e
       0.26161095 0.33331534 0.52423203 0.3613696
000010 fa 5b b3 3e 0d be 5b 3e ea 22 d9 3d aa e7 a8 3d
       0.3503111 0.21459217 0.106023625 0.082473114
000020 e2 1d 2d bd e0 32 ae 3d ad 53 da bc 8b 16 87 3d
       -0.042264827 0.085057974 -0.026651228 0.065960966
000030 42 d3 00 3e 27 94 5a 3e eb 17 ac 3e ee 0d e6 3e
       0.12580588 0.21345578 0.33611998 0.44932503
000040 7b c4 27 3e ce 15 63 3e 1b 0c de 3e 94 ce 08 3f
       0.16383545 0.22176287 0.4336861 0.53440213
000050 a8 4d 28 3f 8f 6c 58 3f 8b b7 6b 3f 21 f2 85 3f
       0.65743494 0.8454065 0.9207694 1.0464517
000060 a6 53 6d 3f d3 cd 5d 3f 24 8f 17 3f 29 d7 c3 3e
       0.9270576 0.8664219 0.5920279 0.38250092
000070 f4 88 82 3e a9 a4 4c 3e fd ad 5d 3e a2 d0 c5 3e
       0.25495112 0.19984688 0.21648403 0.38635737
000080 87 82 2d 3e 66 f0 83 3e 44 8f 87 3e f7 2b 9c 3e
       0.16944323 0.25769347 0.2647649 0.30502293
000090 4f 76 82 3e d5 e6 b2 3e e4 e8 b1 3e 89 1f d7 3e
       0.25480887 0.34941736 0.34747994 0.42016247
0000a0 3b 41 0b 3f 34 34 0b 3f b5 e7 24 3f 16 79 2c 3f
       0.5439641 0.5437653 0.64416057 0.6737226
0000b0 bc 2a 19 3f 99 68 14 3f c3 ed f3 3e f7 2c 03 3f
       0.5983083 0.57972103 0.47642335 0.51240486
0000c0 77 43 07 be 67 bb ef bd c2 cd 20 3b 46 99 b9 3d
       -0.1320933 -0.11705666 0.0024536704 0.09062438
0000d0 13 e2 82 3d 7c 44 b7 3d 0f ce 8e 3d 3d 17 c9 3d
       0.063907765 0.08948609 0.06972896 0.098188855
0000e0 6e f4 eb 3b 2d 33 19 3e 07 9c 55 3d 3a d8 bf 3d
       0.007200769 0.14960928 0.052150752 0.09367414
0000f0 e2 71 88 3d 1a cd f9 3d 0c 83 49 3e 4b 23 3b 3e
       0.066623464 0.12197323 0.19678897 0.18275182
000100 4f ec a9 3d df b2 2f 3e 8b 3a 38 3e 54 88 84 3e
       0.082970254 0.17158078 0.17991082 0.2588526
000110 17 fb b8 3e fb 2c 7c 3e b0 1d a2 3e 48 c4 a5 3e
       0.36129066 0.24626534 0.31663275 0.32376313
000120 0d 2d 64 3e 97 8b 01 3e 62 c2 a0 3d 9b 27 24 3e
       0.2228281 0.12650906 0.078495756 0.16030733
000130 33 28 2e 3d 90 3a 1d 3e b3 35 62 3e aa 97 47 3e
       0.042518806 0.15354371 0.22090797 0.19491449
000140 63 b9 8f be 50 82 4d be 45 dd 37 be b0 f8 b5 bd
       -0.28071126 -0.20069242 -0.17955501 -0.08885324
000150 cc 2b ec 3d 96 73 3d 3d 3f 4d 19 3e 96 35 c1 3d
       0.11531791 0.04625281 0.14970873 0.09434049
000160 52 47 be bd b7 60 ab bd 64 b2 75 be 53 56 a9 be
       -0.09290947 -0.08368056 -0.23993832 -0.33073673
000170 06 dc eb be 74 c0 0e bf 13 ab f1 be fc 71 9d be
       -0.46066302 -0.5576241 -0.47200832 -0.30751026
000180 fb 92 84 3f df a5 62 3f fd 5b 42 3f ba d7 30 3f
       1.0357355 0.8853435 0.7592161 0.6907917
000190 56 0c 37 3f d3 36 3d 3f d1 e0 32 3f 10 59 24 3f
       0.715032 0.7391178 0.6987429 0.641984
0001a0 7b f0 2e 3f da 66 48 3f 76 c3 53 3f e2 f2 47 3f
       0.68335694 0.7828194 0.82720125 0.78104985
0001b0 6b f2 12 3f 09 bf bc 3e 39 fc ae 3e f5 85 8f 3e
       0.5740115 0.36864498 0.34176806 0.2803189
0001c0 42 92 83 3f de 6e 6f 3f 29 d7 57 3f 27 fe 6b 3f
       1.0279009 0.93528545 0.84312683 0.9218468
0001d0 1e 15 8e 3f c2 e8 8e 3f 70 13 8b 3f cf 2b 5d 3f
       1.1100194 1.1164782 1.0865307 0.8639497
0001e0 c6 d2 3d 3f 88 8a 59 3f 14 86 69 3f b1 f9 4f 3f
       0.7414974 0.84977007 0.9122021 0.81240374
0001f0 e3 f1 40 3f f5 4b 20 3f 60 5a 29 3f 43 2c 16 3f
       0.7536909 0.626159 0.66153526 0.5866129
000200 71 d1 19 3e 72 60 88 3e f1 b1 c4 3e e8 07 e2 3e
       0.15021302 0.26636082 0.3841701 0.44146657
000210 aa 0d ff 3e 3c d0 fa 3e e3 b9 14 3f f7 6b 01 3f
       0.49815112 0.48986995 0.5809614 0.50555366
000220 64 e6 00 3f e4 4a f3 3e 8d 3b 7d 3e 3a bf 1b 3e
       0.5035155 0.47518075 0.24729748 0.15209666
000230 21 2e a6 bd 10 f8 10 be f3 5c 7b be b1 7a 84 be
       -0.08114267 -0.14157128 -0.24547176 -0.25874856
000240 b3 0b fc 3e 53 7f 07 3f 4e bf f0 3e 96 1c d8 3e
       0.49227676 0.52928656 0.47020954 0.4220931
000250 6e 57 cd 3e 67 c3 ac 3e 5b 7e 52 3e 2a 72 e9 3d
       0.40105766 0.3374283 0.20556013 0.11398728
000260 31 55 e8 3d fc 87 01 3e 04 15 4d 3e b7 ff 8b 3e
       0.11344374 0.1264953 0.20027548 0.27343532
000270 07 39 e3 3e 8d 81 eb 3e ef 46 0b 3f e7 5e 14 3f
       0.44379446 0.45997277 0.5440511 0.5795731
000280 e9 48 a6 be 9a a8 f7 bd 69 4d 0f bd 03 56 05 3d
       -0.324775 -0.12092705 -0.034985933 0.03255273
000290 6e 7b 4c 3d 84 3c 6f bd b1 1c a4 bc 93 ba 93 bd
       0.0499224 -0.05840732 -0.020033212 -0.072133206
0002a0 e0 ef 33 be a2 3d b6 be d0 89 c7 be c2 17 b5 be
       -0.17571974 -0.35593897 -0.3897233 -0.35369688
0002b0 37 69 80 be 29 72 84 be e5 08 7f be e5 29 87 be
       -0.25080273 -0.25868347 -0.24905737 -0.2639915
0002c0 0d 0d 27 3e 54 af e1 3d 33 5a 5c 3e 85 b2 49 3e
       0.16313572 0.11019769 0.21518783 0.19697006
0002d0 41 b5 5f 3e b5 37 18 3e 61 1d 1e 3e b2 a0 17 3e
       0.21846487 0.14865 0.15440895 0.14807394
0002e0 14 5c 83 3d 88 02 97 3d 50 80 58 bd 4a bb ba bb
       0.06414047 0.0737353 -0.052856743 -0.005698596
0002f0 ae d4 d5 bc 04 9f b2 bb 3d 23 a6 bd fb 25 13 bd
       -0.02610239 -0.005451085 -0.0811219 -0.035924893
000300 ac ab 77 3f dc 9f 7a 3f 8b e1 70 3f 65 0f 7f 3f
       0.96746325 0.97900176 0.9409415 0.99632865
000310 86 1d 88 3f 9e 8e 63 3f 82 04 56 3f d2 50 5a 3f
       1.063401 0.8888949 0.8360063 0.8527957
000320 cc 5c 45 3f 40 a9 2c 3f 94 27 3a 3f a6 c1 1f 3f
       0.7709472 0.67445755 0.7271664 0.6240486
000330 02 5d 07 3f 94 16 24 3f e8 41 37 3f 84 45 46 3f
       0.52876294 0.6409695 0.7158494 0.7744982
000340 6d dd 3f 3f 4f c1 25 3f dd cc 1c 3f 79 29 e7 3e
       0.74947244 0.6474809 0.61250097 0.4514883
000350 4a e8 f7 3e 0b cf 01 3f 60 66 a9 3e 6c e1 d5 3e
       0.4841941 0.5070655 0.33085918 0.41773546
000360 c9 c4 b1 3e 90 2d 9b 3e 2a 43 96 3e 07 98 d6 3e
       0.34720448 0.303082 0.29348117 0.41912863
000370 df a4 c1 3e ff 58 c5 3e 8e 83 a3 3e dc 5d 07 3f
       0.378211 0.3854446 0.31936306 0.52877593
000380 f3 21 d8 3e 91 c8 13 3f f6 16 34 3f 9b 7d 5c 3f
       0.422134 0.57727915 0.70347536 0.8612916
000390 9e 57 45 3f a4 f5 46 3f aa 50 3d 3f 81 51 4d 3f
       0.7708682 0.7771857 0.7395121 0.8020249
0003a0 16 1f 4d 3f 49 3f 42 3f 2c fe 32 3f fa c4 2e 3f
       0.8012556 0.75877815 0.69919086 0.6826931
0003b0 9a 13 09 3f 46 35 04 3f 36 d4 00 3f e2 db 09 3f
       0.53545535 0.5164379 0.5032381 0.5385114
0003c0 f4 ea 9d 3e 82 71 c4 3e a9 c5 98 3e 8c a7 d4 3e
       0.30843318 0.3836785 0.29838303 0.41534078
0003d0 73 04 f1 3e a4 64 0a 3f 5f cc 0f 3f 13 0d 16 3f
       0.47073707 0.54059815 0.5617122 0.586137
0003e0 34 6a 1a 3f 67 7d ec 3e 06 64 00 3f bd 7a cd 3e
       0.60318303 0.46189424 0.50152624 0.40132704
0003f0 b8 89 b3 3e 7d f3 af 3e 33 f5 95 3e 64 4b 77 3e
       0.3506601 0.34365454 0.29288635 0.24149853

net.bn3.weight f4 [16]
000000 9e b6 70 3f 50 a3 f2 3f 65 b6 06 40 f1 6f c6 3f
       0.9402865 1.8956089 2.1048825 1.5502912
000010 02 6c 8e 3f 57 0f d3 3f f2 c3 3e 3f db 5b 72 3f
       1.1126711 1.6489056 0.7451774 0.9467141
000020 88 f1 db 3f f8 3c 83 3f 81 f5 06 40 b5 be be 3f
       1.7183084 1.0252981 2.1087344 1.4901949
000030 00 e2 73 3f 44 4f ee 3f b5 cc 90 3f 98 de ff 3f
       0.95266724 1.861794 1.1312472 1.9989805

net.bn3.bias f4 [16]
000000 84 f1 9e bd 72 a2 c6 be f0 63 2c bf 97 df 1f 3e
       -0.07760909 -0.3879581 -0.6733999 0.15612637
000010 25 33 e9 3c e4 1c b7 be a0 d6 8e 3d b3 b0 30 bd
       0.02846677 -0.3576423 0.0697453 -0.043137264
000020 bc 7b e0 be 76 07 bc 3d 9c 1f 1f bf 29 ba de bd
       -0.43844402 0.091811106 -0.6215761 -0.10875351
000030 c8 c5 83 be 72 d1 eb be cb 19 1c 3d d4 99 23 bf
       -0.25736833 -0.46058232 0.038110536 -0.639066

net.bn3.running_mean f4 [16]
000000 1c 43 a8 40 c5 eb a1 3f 52 b0 c6 c0 5c 16 a4 40
       5.258192 1.2650076 -6.2090235 5.1277294
000010 71 ab 5d 40 90 06 9e c0 98 d3 e2 3f 68 6f de 3e
       3.463589 -4.938301 1.7720823 0.4344437
000020 23 fd 9a bf 11 00 9d 40 c9 b9 ca c0 17 89 52 40
       -1.2108501 4.906258 -6.335179 3.2896173
000030 9d f0 b7 40 f1 52 c3 c0 94 7c 61 40 83 8c c0 c0
       5.7481217 -6.1038747 3.5232286 -6.0171523

net.bn3.running_var f4 [16]
000000 81 1f 35 44 0e 1b 6a 44 4c 99 99 44 37 6c 89 44
       724.49225 936.4227 1228.7905 1099.3817
000010 bd fb 46 44 78 01 86 44 44 0e 0c 44 d7 3f 30 44
       795.9334 1072.0459 560.2229 704.9975
000020 ae 1b 54 44 cb b5 66 44 ea fc 99 44 fa 8d 3f 44
       848.4325 922.8405 1231.9036 766.2184
000030 3d 31 16 44 07 a1 94 44 92 77 47 44 b3 09 8a 44
       600.76935 1189.0321 797.8683 1104.3031

net.fc.weight f4 [32, 256]
000000 09 6c 5a be dc 4e b2 be a8 76 27 bf eb 3e 92 bd
       -0.21330275 -0.3482579 -0.6541543 -0.07140907
000010 a6 86 94 be 65 29 a0 be cf 16 93 bd f6 89 19 be
       -0.2900898 -0.31281582 -0.07182085 -0.14994034
000020 40 43 ec be f9 37 f5 be 22 44 63 3d ca 24 d9 bd
       -0.46145058 -0.47894266 0.0554849 -0.1060272
000030 a7 e6 5d be 17 1d 8b be 30 5e 3e bf b4 5b 00 bf
       -0.21670018 -0.2717063 -0.7436247 -0.5013993
000040 97 8d 57 be 1c 7e 66 be 00 20 30 bc aa da e4 be
       -0.21050106 -0.22509044 -0.010749817 -0.44698077
000050 5a 7b 06 bf 05 a6 2b bf 6f 9f 11 bf 8a 47 d8 be
       -0.5253197 -0.670502 -0.568839 -0.4224208
000060 42 32 6c be 33 03 d5 3d a3 c3 11 3e 5f fd 29 bf
       -0.23066047 0.10401001 0.14234786 -0.6640224
000070 52 45 71 bf f4 d6 40 bf 44 91 9d be 2a 80 14 3e
       -0.942464 -0.7532799 -0.3077489 0.14502016
000080 f1 ad 53 3e 67 39 cb 3e 88 10 6c bd 23 db dc 3e
       0.20671822 0.39692232 -0.057632953 0.43135938
000090 31 88 88 3f 07 9b 80 3f ba 6a 09 3f 5e 0e b6 3e
       1.0666562 1.004731 0.53678477 0.35557836
0000a0 6b 85 4e 3f cf 53 b4 3e 8f 04 a3 3e 78 20 f9 3e
       0.8067233 0.3522019 0.31839415 0.48657584
0000b0 5d 9f 7e 3f 7b 2c 88 3f 10 ac f7 3e 64 17 43 3e
       0.9946192 1.0638574 0.4837346 0.19051892
0000c0 e6 98 94 3e 7d 52 23 be c1 bc 4d bf fe 87 af be
       0.29022902 -0.15949436 -0.8036614 -0.3428344
0000d0 c7 33 88 be 36 c5 6f bf 32 08 6f bf 4d 0e f8 be
       -0.26602003 -0.93660295 -0.9337188 -0.4844841
0000e0 2f 0e ef be 5d 47 32 be a9 cb e1 be f5 b0 b1 be
       -0.4669051 -0.17410035 -0.44100693 -0.3470532
0000f0 3d 6e a6 be 90 eb 4e bf 2e 64 d8 be 77 6c 2b bf
       -0.3250598 -0.8082819 -0.4226393 -0.6696238
000100 69 60 4e be c7 3e e0 be 4e ae 88 3c 11 d8 6b be
       -0.20153965 -0.43797895 0.016684677 -0.23031642
000110 39 ed 2a bf dd a4 c2 be f5 88 11 be 48 38 d6 be
       -0.66768223 -0.38016406 -0.14212401 -0.41839814
000120 0c 21 b9 be 40 79 d1 bd 10 ff 70 3e 4e bc 2d bf
       -0.36158025 -0.10228205 0.23534799 -0.67865455
000130 75 61 f5 be 1d 87 b5 be 92 7e d1 bd 1d 8c 25 be
       -0.47925916 -0.35454646 -0.102292195 -0.1616673
000140 65 76 88 be fe 1d 61 bd 00 c4 44 3e 9f 8e 0a 3f
       -0.26652828 -0.054960243 0.19215393 0.5412387
000150 aa 1d e1 3e a1 ec 11 3f 96 f9 ba 3e c7 a1 e4 3e
       0.43967944 0.5700169 0.36518544 0.44654676
000160 ff 0e 83 3e 1e e9 9c bd eb c5 53 3e ca 40 87 3e
       0.2559738 -0.07661651 0.20680968 0.26416618
000170 80 37 4b 3f 26 14 40 3f 8b 04 33 3e ee eb 0b 3e
       0.7938156 0.75030744 0.17482202 0.13664219
000180 17 18 52 be 5d f6 1a be 42 8c c7 be 3a 7b 09 bd
       -0.20517002 -0.15133043 -0.38974196 -0.033564784
000190 85 74 53 3d 47 0a 91 bd 11 8a 73 bd 2a 74 75 be
       0.051624794 -0.070820384 -0.059457842 -0.23970094
0001a0 c1 2e 08 3d 3b 06 30 be 14 df 32 bf 59 bd da be
       0.033247713 -0.17189877 -0.6987164 -0.42722586
0001b0 9c 91 4c 3e e8 ed 5a bd 0b 55 a2 be 4c e5 b2 be
       0.1997742 -0.05344954 -0.31705508 -0.34940565
0001c0 7c ec 82 be 42 2b 84 be e0 f8 55 bd 50 be 19 be
       -0.25571048 -0.25814253 -0.0522393 -0.15014005
0001d0 4f 86 10 be ed d0 d8 3d 04 a6 ad 3e e2 16 5d be
       -0.14113735 0.105867244 0.33915722 -0.2159076
0001e0 5b 8a 63 be e3 ff ce 3d c3 ad 84 be d1 8f ab bc
       -0.22220747 0.101074 -0.2591382 -0.0209426
0001f0 77 76 9e bc 18 c9 a0 be b6 12 5c be c3 e1 9c be
       -0.019343598 -0.31403422 -0.21491513 -0.30640993
000200 43 05 86 3e be 1e f0 3d 85 7f ff bc 6c d9 32 be
       0.2617589 0.117246136 -0.031188736 -0.17465752
000210 d2 f1 bb be 4d 42 d6 be 31 bf 9c 3d 84 26 cc bd
       -0.36707932 -0.41847458 0.07653654 -0.09968284
000220 1b ce f4 be 9f c2 dc bc 75 6b d6 3e 07 56 d3 bd
       -0.47813496 -0.026948271 0.41878858 -0.10319143
000230 9c bf 0b bf 41 89 17 bf 7f 10 7c be f8 54 8f 3e
       -0.5458925 -0.5919381 -0.24615668 0.27994514
000240 49 cc 82 be 7f fe 9c bd d3 87 e9 be 8f d6 25 bd
       -0.25546482 -0.07665729 -0.45611438 -0.040487822
000250 30 61 6b be c0 ad 8d be 3e 56 6f be 6c a7 7b be
       -0.22986293 -0.27671623 -0.23372743 -0.24575585
000260 92 ae 53 be 5c 7a 40 bd a0 fb 3e 3d 07 e3 9a be
       -0.20672062 -0.04699169 0.046626687 -0.30251333
000270 0a f1 35 bf 57 a7 2d be 0a 51 1d bf 4d 21 1e bf
       -0.7107092 -0.16958366 -0.6145178 -0.6176956
000280 57 59 0d be 00 53 8d 3e 50 10 c5 3e e6 f4 cf 3e
       -0.13803612 0.27602386 0.38489008 0.4061653
000290 16 b1 0f 3f ed bd 6d 3f 73 a3 3d 3f a1 78 0c 3f
       0.56129587 0.9286793 0.7407753 0.54871565
0002a0 85 59 43 3f 4c 09 eb 3e 53 47 00 3e c9 c9 f6 3e
       0.7630847 0.4590553 0.12527208 0.48200825
0002b0 cd 6b 21 3f c9 f6 81 3f db 2f 55 3f c1 60 be 3e
       0.63055116 1.0153438 0.83276147 0.37183192
0002c0 6d 4e 19 3e dd 6e 7c be 03 29 bd be ac ac a3 be
       0.14971323 -0.24651666 -0.36945352 -0.31967676
0002d0 6c 3c 98 be 2f fa 0b bf 67 f2 9c be 5e ee 0e be
       -0.29733598 -0.54678625 -0.30653688 -0.13958117
0002e0 7b c9 6b 3e 60 db 8c bd 07 72 c0 bd d6 18 2f be
       0.23026077 -0.0687778 -0.09396749 -0.17099318
0002f0 0a 44 6c bf 44 db 82 bf 0e 17 cc be f2 9a 91 3d
       -0.9229132 -1.0223165 -0.3986134 0.071096316
000300 d4 95 81 be ba 4d 0c bf 5c 88 95 be 90 2a 3b 3e
       -0.25309622 -0.548061 -0.29205596 0.18277955
000310 fb 75 0f bd 5c 86 8a be 2f 10 d5 bd 81 a1 98 3d
       -0.035024624 -0.27055633 -0.104034774 0.074526794
000320 69 dc a2 be c6 23 bb 3e eb aa db bd bf de 3e be
       -0.31808785 0.3655073 -0.107259594 -0.18639658
000330 03 e8 76 be 4f 96 2c be c5 2f 2e bd 19 69 d0 be
       -0.24111943 -0.16854213 -0.042526025 -0.40705183
000340 cb 3a 86 bc c1 c3 a6 3d c7 c0 26 3e 46 14 b1 3e
       -0.016385457 0.08142806 0.16284476 0.3458578
000350 70 1d b0 3e a3 25 12 3f 3e 7b 37 3f 97 dd 00 3f
       0.3439746 0.5708868 0.7167243 0.5033812
000360 8a 30 0a 3f e1 bd e8 3d 7d 2a b4 be df 00 55 3e
       0.53980315 0.113643415 -0.35188666 0.20801114
000370 62 20 31 3f 95 d5 74 3f b1 f6 2b 3f 06 55 94 3e
       0.6919004 0.956384 0.67173296 0.28971118
000380 87 27 9a bd 87 01 cb bd 25 eb 19 3e 34 1a 6d be
       -0.075270705 -0.09912401 0.15031107 -0.23154527
000390 ff 49 ed be 4c 6e 12 be 14 3b b7 be 35 ae 83 be
       -0.46345517 -0.14299887 -0.3578726 -0.25718847
0003a0 7a d0 24 be 8a d0 97 be 0e 3a 3c 3c bc e3 12 3d
       -0.16095152 -0.2965129 0.011488451 0.035861716
0003b0 bd 69 29 bf c5 5a ca be ad e1 cd be 5b a5 dc bd
       -0.6617697 -0.39522377 -0.4021124 -0.107737266
0003c0 23 ee 20 bf 05 6a fc 3e c4 67 c9 be f4 4e 1c 3f
       -0.6286337 0.49299636 -0.3933698 0.6105797
0003d0 5c 38 96 3f d2 fd 81 3f 19 4d 05 3f 4b 64 91 3e
       1.173595 1.0155585 0.52070767 0.2839683
0003e0 27 99 0f 3f 4f 4b e8 3e 8a 4d a7 3d 66 b1 64 3e
       0.56093067 0.45369956 0.08169086 0.22333297
0003f0 9a cf e2 3e 88 e6 07 3f 2d 83 1e 3f 5d c3 82 3e
       0.44299012 0.5308614 0.6191891 0.25539675

net.fc.bias f4 [32]
000000 5d e7 56 bf 80 77 43 3e 66 67 10 bf 26 c0 96 3f
       -0.8394678 0.19088554 -0.56407773 1.1777389
000010 20 97 61 bf 74 2e f3 bd ba c0 94 bf e3 0c 47 3f
       -0.88121223 -0.118740946 -1.1621315 0.7775404
000020 8e 06 f2 3e e0 10 85 bf 72 07 23 c0 11 b2 31 3f
       0.47270626 -1.0395775 -2.5473294 0.6941233
000030 b1 cd c1 bf 3b 19 d8 3e 5d 8e 34 3f 2a 80 2c bf
       -1.5140897 0.4220675 0.7052973 -0.6738306
000040 f1 fd 59 bf 34 8f c8 bf 32 c1 64 3f a7 7e 4a 3f
       -0.8515311 -1.5668702 0.8935729 0.79099506
000050 6e 75 8f 3f 3b fb 7c be e9 b5 fd 3e b5 6e 59 bf
       1.1207712 -0.24705212 0.4955285 -0.8493455
000060 0e 2c f0 bf 21 fb af 3e 63 13 50 3f f7 92 4c bf
       -1.8763444 0.34371284 0.8127958 -0.7991175
000070 96 bd 1c 3f bf 32 70 3f a8 4e 8d 3f 15 2f 93 3f
       0.61226785 0.9382743 1.1039629 1.1498743

exp_avg f4 [8, 1, 1, 256]
000000 9e 15 27 b6 d6 06 4d b7 21 f3 9c b7 fb 69 bc b7
       -2.4897522e-06 -1.2220544e-05 -1.8709865e-05 -2.2460697e-05
000010 fb 69 cb b7 ab 87 cf b7 72 01 cc b7 38 d9 c2 b7
       -2.4248837e-05 -2.4739498e-05 -2.4319368e-05 -2.3227753e-05
000020 95 0d b2 b7 5d a5 98 b7 11 7d 6d b7 9b 32 1d b7
       -2.1225578e-05 -1.8196815e-05 -1.415542e-05 -9.369712e-06
000030 05 20 93 b6 fa b4 07 35 d7 b4 a7 36 9f f3 14 37
       -4.384669e-06 5.0554775e-07 4.9980404e-06 8.87821e-06
000040 bd b9 52 37 d1 d5 86 37 b1 4d a1 37 40 3a b7 37
       1.2560221e-05 1.607361e-05 1.9228873e-05 2.1842425e-05
000050 79 16 ca 37 ff 06 d7 37 a2 5a df 37 ad c1 e4 37
       2.4090741e-05 2.5633255e-05 2.6625876e-05 2.7269905e-05
000060 bd 37 e9 37 aa 85 ec 37 ed 30 ef 37 45 07 f1 37
       2.780172e-05 2.8195635e-05 2.8513803e-05 2.8732824e-05
000070 57 ce ef 37 87 3d ec 37 09 9b ea 37 7d a3 ec 37
       2.8587105e-05 2.8162043e-05 2.7967168e-05 2.8209522e-05
000080 39 42 f5 37 0a 7b 01 38 55 34 0a 38 c0 87 11 38
       2.9237113e-05 3.0870586e-05 3.2950502e-05 3.469712e-05
000090 48 a2 13 38 71 78 0c 38 7f ca f1 37 a9 de ac 37
       3.5198667e-05 3.349077e-05 2.8823733e-05 2.0607682e-05
0000a0 19 9a 15 37 0a c2 c1 b6 29 a4 bb b7 4f ea 25 b8
       8.916971e-06 -5.7744373e-06 -2.236858e-05 -3.9557282e-05
0000b0 3b bb 6b b8 9b b7 95 b8 97 45 b1 b8 4e 17 c8 b8
       -5.6202738e-05 -7.139073e-05 -8.45298e-05 -9.541084e-05
0000c0 e9 d7 d9 b8 df 42 e6 b8 8c 43 ed b8 91 e9 ee b8
       -0.00010387583 -0.0001097971 -0.00011313622 -0.000113922295
0000d0 6b 76 eb b8 b0 a6 e3 b8 b3 00 d9 b8 6e 1e cd b8
       -0.0001122773 -0.000108552515 -0.000103474966 -9.78083e-05
0000e0 1a 08 c2 b8 80 ab ba b8 3d 7f b8 b8 eb 6a bc b8
       -9.25215e-05 -8.9011155e-05 -8.797504e-05 -8.9844536e-05
0000f0 09 7b c6 b8 09 70 d5 b8 10 c1 e6 b8 3b 7a f7 b8
       -9.464293e-05 -0.000101775 -0.00011003215 -0.00011800645
000100 20 3d 02 b9 fe b5 05 b9 f7 3c 05 b9 ea 8f 00 b9
       -0.00012420537 -0.00012751666 -0.0001270658 -0.00012260643
000110 c7 14 f0 b8 7a 54 d9 b8 62 f7 be b8 1f f4 a2 b8
       -0.00011447962 -0.00010363101 -9.105985e-05 -7.770233e-05
000120 b5 e8 86 b8 d5 e5 58 b8 d1 6c 29 b8 84 eb 01 b8
       -6.432963e-05 -5.171246e-05 -4.0394083e-05 -3.0975338e-05
000130 be 88 c9 b7 ce 19 a8 b7 b6 35 a7 b7 b0 e3 c9 b7
       -2.4024743e-05 -2.0039177e-05 -1.9932962e-05 -2.4067092e-05
000140 8a cb 05 b8 8d d0 32 b8 64 c8 68 b8 4c c2 91 b8
       -3.189923e-05 -4.2632735e-05 -5.549974e-05 -6.9503294e-05
000150 02 f2 ae b8 90 a0 c9 b8 f9 44 e0 b8 8b 54 f1 b8
       -8.342044e-05 -9.614334e-05 -0.000106939995 -0.00011507523
000160 9d fd fb b8 90 b9 ff b8 f1 88 fd b8 eb 57 f7 b8
       -0.00012015852 -0.00012193911 -0.000120894874 -0.00011794254
000170 ff ad ef b8 1e 95 e8 b8 1b 9a e3 b8 0e f7 e0 b8
       -0.000114288174 -0.00011090397 -0.00010852908 -0.0001072717
000180 7b d3 df b8 9b b1 de b8 f1 fd dc b8 9d 65 da b8
       -0.0001067286 -0.000106188665 -0.00010537718 -0.00010413977
000190 31 7a d6 b8 f6 f3 d0 b8 a3 23 ca b8 df b4 c1 b8
       -0.00010227075 -9.963654e-05 -9.6387485e-05 -9.236647e-05
0001a0 ba b3 b6 b8 e3 df a8 b8 31 17 9a b8 39 fe 8b b8
       -8.711913e-05 -8.0525664e-05 -7.347612e-05 -6.675389e-05
0001b0 6a 4c 7f b8 20 38 69 b8 cb e7 53 b8 e1 bb 3b b8
       -6.0867904e-05 -5.56038e-05 -5.0522194e-05 -4.475925e-05
0001c0 d8 e0 1d b8 a3 34 f2 b7 16 81 9e b7 1d ae 0b b7
       -3.764112e-05 -2.8873159e-05 -1.8895178e-05 -8.3255845e-06
0001d0 67 22 0f 36 16 a6 48 37 16 36 ab 37 0d 1b e1 37
       2.1328685e-06 1.1959599e-05 2.0409974e-05 2.6834687e-05
0001e0 9c f0 00 38 9f 88 05 38 64 47 fd 37 ae 02 dd 37
       3.0741663e-05 3.183691e-05 3.0193194e-05 2.63465e-05
0001f0 3c a0 b0 37 2a bc 7f 37 de c6 21 37 03 07 a1 36
       2.105545e-05 1.5242995e-05 9.64265e-06 4.79899e-06
000200 56 f5 83 35 dd e5 9b b4 55 80 3a b5 86 b6 5f b4
       9.831663e-07 -2.9038247e-07 -6.947715e-07 -2.0834895e-07
000210 f6 7b c5 35 de df a2 36 23 78 2c 37 32 74 95 37
       1.4713721e-06 4.854038e-06 1.027997e-05 1.7816292e-05
000220 ca 1c e3 37 65 36 1c 38 f2 e8 45 38 61 b1 6a 38
       2.7073915e-05 3.7243957e-05 4.7185407e-05 5.5955144e-05
000230 9e 3e 84 38 11 d4 8f 38 60 46 98 38 dc ac 9e 38
       6.305914e-05 6.858272e-05 7.261033e-05 7.566225e-05
000240 14 65 a4 38 7c 91 ab 38 88 e1 b3 38 86 f4 bd 38
       7.838957e-05 8.181014e-05 8.5773936e-05 9.057768e-05
000250 f4 a4 c9 38 01 bc d6 38 d1 48 e3 38 9a dd ed 38
       9.615152e-05 0.00010239334 0.000108377666 0.00011342317
000260 4c fa f4 38 89 c8 f8 38 c5 b1 f9 38 b9 81 f9 38
       0.00011681448 0.00011862914 0.000119063574 0.00011897408
000270 59 86 fa 38 b1 8d fe 38 e6 45 02 39 6f 68 05 39
       0.00011945953 0.00012138056 0.00012423805 0.00012722773
000280 80 e8 07 39 c1 69 09 39 79 fb 08 39 e3 75 06 39
       0.00012961216 0.00013104735 0.00013063652 0.00012823152
000290 ab 1b 02 39 05 4a f8 38 f3 d8 e9 38 a2 5e d8 38
       0.00012408073 0.00011839349 0.00011150716 0.00010317309
0002a0 a1 e1 c3 38 99 a6 ac 38 c2 de 92 38 14 00 6f 38
       9.340351e-05 8.23263e-05 7.0033144e-05 5.6982113e-05
0002b0 01 69 38 38 36 e4 04 38 36 a4 af 37 45 b8 4e 37
       4.396681e-05 3.168379e-05 2.0938092e-05 1.232146e-05
0002c0 fa 4e d5 36 4a 26 52 36 33 62 16 36 80 d4 3a 36
       6.3570888e-06 3.1314726e-06 2.2408901e-06 2.783985e-06
0002d0 f1 c8 64 36 6b a5 64 36 0f 83 36 36 df a0 09 36
       3.409161e-06 3.4070933e-06 2.71964e-06 2.050823e-06
0002e0 04 6c 03 36 ea 11 45 36 1b 79 a3 36 9d e1 f4 36
       1.9583395e-06 2.9365715e-06 4.871877e-06 7.2980315e-06
0002f0 20 23 1c 37 3f a4 2b 37 81 f0 23 37 46 b8 0a 37
       9.306503e-06 1.0230636e-05 9.771554e-06 8.2683455e-06
000300 e5 c2 d3 36 9a dc 9d 36 27 cb 6c 36 25 59 3a 36
       6.3109787e-06 4.704646e-06 3.528499e-06 2.7768049e-06
000310 de b3 2b 36 e9 85 3a 36 85 de 63 36 a9 20 98 36
       2.5585682e-06 2.7794106e-06 3.395516e-06 4.533755e-06
000320 da ae cf 36 28 c8 0c 37 12 b1 32 37 4b 53 53 37
       6.189436e-06 8.391253e-06 1.0650854e-05 1.2595973e-05
000330 82 45 6a 37 ae 42 6f 37 e7 33 5e 37 bd 5d 38 37
       1.396367e-05 1.4261035e-05 1.3244316e-05 1.098908e-05
000340 b2 98 00 37 e4 a6 7f 36 46 d2 32 32 77 d9 52 b6
       7.664947e-06 3.8095104e-06 1.0408774e-08 -3.141902e-06
000350 c9 85 ae b6 6e e5 ce b6 1e 2c c2 b6 fa 0e 91 b6
       -5.2011787e-06 -6.1659875e-06 -5.7867865e-06 -4.3230802e-06
000360 ab 94 18 b6 97 7b 8d b4 0d 62 cc 35 bb 02 43 36
       -2.2736301e-06 -2.635322e-07 1.5227721e-06 2.9058854e-06
000370 0e 5a 76 36 60 31 58 36 67 7a 6e 35 d1 e6 3e b6
       3.6709275e-06 3.2215248e-06 8.884003e-07 -2.844656e-06
000380 f4 a3 fe b6 b6 f1 55 b7 e7 6b 94 b7 b9 c1 b7 b7
       -7.5888765e-06 -1.2752067e-05 -1.769322e-05 -2.190551e-05
000390 71 ed d1 b7 70 a8 e0 b7 95 04 e5 b7 1f af e0 b7
       -2.5025309e-05 -2.6781316e-05 -2.7301061e-05 -2.6784428e-05
0003a0 12 02 d6 b7 14 29 c7 b7 02 d8 b6 b7 09 71 a4 b7
       -2.5511752e-05 -2.3741777e-05 -2.1796677e-05 -1.960296e-05
0003b0 63 ec 8f b7 45 32 6c b7 c0 6e 25 b7 f5 6a a0 b6
       -1.7157005e-05 -1.40784e-05 -9.860552e-06 -4.780823e-06
0003c0 45 cd d7 34 60 49 ab 36 5f 97 19 37 bb 8e 50 37
       4.0196224e-07 5.104739e-06 9.1547545e-06 1.2430998e-05
0003d0 e6 c5 7a 37 18 79 8c 37 43 b6 9a 37 7c f2 a8 37
       1.4947238e-05 1.674569e-05 1.8443103e-05 2.0140076e-05
0003e0 09 e0 b5 37 af 1a be 37 e8 af bf 37 dd a2 ba 37
       2.1681206e-05 2.266219e-05 2.2850887e-05 2.2248767e-05
0003f0 97 b7 b2 37 dc 60 ac 37 a9 88 a6 37 39 d6 a1 37
       2.1304744e-05 2.0549101e-05 1.985238e-05 1.929245e-05

exp_avg_sq f4 [8, 1, 1, 256]
000000 6d 6e 08 33 e4 d6 04 33 c3 29 02 33 29 a6 00 33
       3.17654e-08 3.0929087e-08 3.0305966e-08 2.9953444e-08
000010 89 08 00 33 ae 6c ff 32 3a 74 fe 32 d1 fa fc 32
       2.9810085e-08 2.9735329e-08 2.9622345e-08 2.945072e-08
000020 da 5a fb 32 7d 3e fa 32 b4 52 fa 32 18 aa fc 32
       2.926156e-08 2.9132247e-08 2.914144e-08 2.941401e-08
000030 e8 2e 01 33 55 a5 05 33 c7 a2 0a 33 e4 b3 0e 33
       3.0077814e-08 3.1116844e-08 3.2278674e-08 3.322556e-08
000040 e9 1b 11 33 65 7f 12 33 68 1a 14 33 b1 75 16 33
       3.3785827e-08 3.410914e-08 3.448295e-08 3.5031636e-08
000050 b9 eb 18 33 ae 4a 1a 33 63 bf 19 33 0c 63 17 33
       3.5604646e-08 3.592384e-08 3.5797154e-08 3.524751e-08
000060 ff c5 13 33 18 46 0f 33 38 fc 09 33 57 f6 03 33
       3.440618e-08 3.3358532e-08 3.212719e-08 3.072486e-08
000070 a2 e4 fa 32 af 47 ed 32 76 8e df 32 a2 cb d2 32
       2.92078e-08 2.762303e-08 2.60254e-08 2.4539819e-08
000080 e8 41 c9 32 9b 69 c5 32 ca d4 c7 32 a4 ef cd 32
       2.342945e-08 2.2981842e-08 2.3263414e-08 2.3974117e-08
000090 6d b2 d3 32 69 9d d6 32 a3 5d d7 32 70 b6 d8 32
       2.4644772e-08 2.498446e-08 2.5071875e-08 2.5228672e-08
0000a0 65 ff dc 32 37 ab e4 32 aa c5 ee 32 78 43 fa 32
       2.572751e-08 2.6620553e-08 2.7796734e-08 2.9134512e-08
0000b0 94 09 03 33 99 5f 08 33 82 57 0c 33 d7 98 0e 33
       3.0509526e-08 3.1751913e-08 3.2675878e-08 3.320096e-08
0000c0 e5 89 0f 33 06 17 10 33 c0 15 11 33 77 10 13 33
       3.3420196e-08 3.3548552e-08 3.3780225e-08 3.424108e-08
0000d0 45 66 16 33 fc 37 1b 33 70 d2 20 33 88 7e 25 33
       3.501761e-08 3.6139667e-08 3.7444295e-08 3.8532136e-08
0000e0 76 30 27 33 97 c7 24 33 02 01 1f 33 65 f8 17 33
       3.8926792e-08 3.836575e-08 3.702099e-08 3.538334e-08
0000f0 d9 cf 11 33 74 8a 0d 33 5f 25 0b 33 43 59 0a 33
       3.394948e-08 3.2955043e-08 3.239745e-08 3.2211812e-08
000100 81 e6 0a 33 9e 6f 0c 33 9e 35 0e 33 2d 82 0f 33
       3.234027e-08 3.2697805e-08 3.3110716e-08 3.3413176e-08
000110 8c 24 10 33 9b 74 10 33 3a d4 10 33 ea 35 11 33
       3.3560852e-08 3.3633665e-08 3.372063e-08 3.3809478e-08
000120 d9 5e 11 33 3b 33 11 33 fc b2 10 33 26 bf 0f 33
       3.3846707e-08 3.3807037e-08 3.3690398e-08 3.346863e-08
000130 14 e4 0d 33 bd c4 0a 33 49 c6 06 33 71 fe 02 33
       3.3036557e-08 3.230956e-08 3.1379646e-08 3.0499397e-08
000140 b3 4c 00 33 a2 83 fd 32 ad ae fb 32 48 80 fa 32
       2.987208e-08 2.9512936e-08 2.929968e-08 2.9162166e-08
000150 65 c4 fa 32 de 74 fd 32 d3 1d 01 33 10 b2 03 33
       2.919314e-08 2.9506221e-08 3.0062278e-08 3.066276e-08
000160 0b 9a 05 33 cb 6f 06 33 ab 34 06 33 17 0b 05 33
       3.1106577e-08 3.130098e-08 3.1247207e-08 3.097656e-08
000170 42 5b 03 33 20 42 02 33 3d 49 03 33 0a 68 07 33
       3.0583813e-08 3.0328124e-08 3.0567424e-08 3.152676e-08
000180 ad fb 0d 33 5a f1 14 33 12 37 1a 33 32 f8 1c 33
       3.305802e-08 3.4678443e-08 3.5906005e-08 3.6547313e-08
000190 f8 a4 1d 33 4b 04 1d 33 d9 c2 1b 33 31 45 1a 33
       3.670445e-08 3.6558315e-08 3.6265963e-08 3.591885e-08
0001a0 7f d3 18 33 af 6e 17 33 80 ae 15 33 31 e2 12 33
       3.5582612e-08 3.5258093e-08 3.4850473e-08 3.4198994e-08
0001b0 79 f0 0e 33 a7 ce 0a 33 f5 bb 07 33 30 f6 05 33
       3.328066e-08 3.2318578e-08 3.1603083e-08 3.1190382e-08
0001c0 29 8b 04 33 3e 8e 02 33 58 90 00 33 9c 58 00 33
       3.086021e-08 3.0397352e-08 2.9933602e-08 2.9882912e-08
0001d0 5e 2e 03 33 ca 61 08 33 49 82 0d 33 9c 2a 10 33
       3.0542985e-08 3.1753906e-08 3.2947614e-08 3.3566366e-08
0001e0 8f 62 0f 33 68 8a 0b 33 bf 64 05 33 d7 88 fb 32
       3.338442e-08 3.248934e-08 3.1058104e-08 2.9282473e-08
0001f0 a6 49 eb 32 eb da dc 32 5f 0e d3 32 51 2d d0 32
       2.7391092e-08 2.5710923e-08 2.4570168e-08 2.4234994e-08
000200 53 fc d5 32 7d 22 e6 32 c1 9d ff 32 8e 9c 0f 33
       2.4911207e-08 2.6791207e-08 2.9757645e-08 3.3437168e-08
000210 6d 20 1f 33 09 7e 2a 33 05 3d 2f 33 8b 9b 2d 33
       3.7049563e-08 3.9695838e-08 4.080086e-08 4.0421167e-08
000220 7e ea 27 33 9e d7 20 33 cc 15 1a 33 e4 5c 14 33
       3.9095987e-08 3.7449006e-08 3.5875743e-08 3.454342e-08
000230 bd dd 0f 33 63 7f 0c 33 93 aa 09 33 09 b9 06 33
       3.3496452e-08 3.2712148e-08 3.2052935e-08 3.1367595e-08
000240 ac 8b 03 33 1b c1 00 33 41 09 fe 32 f4 8e fc 32
       3.0627845e-08 2.997795e-08 2.95737e-08 2.9401669e-08
000250 78 34 fb 32 b6 4b f8 32 30 f4 f3 32 0f c9 ef 32
       2.9244106e-08 2.890543e-08 2.8399967e-08 2.7914693e-08
000260 c1 e3 ec 32 43 cb ea 32 84 71 e8 32 53 e6 e5 32
       2.7577586e-08 2.7333618e-08 2.7059976e-08 2.6763848e-08
000270 2f 42 e4 32 cf d8 e3 32 8d 90 e3 32 56 3f e2 32
       2.657279e-08 2.6524871e-08 2.6492012e-08 2.6338665e-08
000280 cb 53 e0 32 3d c4 df 32 5e 44 e2 32 46 d9 e7 32
       2.6115137e-08 2.6049856e-08 2.6340953e-08 2.6990744e-08
000290 f4 79 ef 32 65 38 f8 32 f8 cb 00 33 d7 51 05 33
       2.787872e-08 2.8896645e-08 2.998783e-08 3.104091e-08
0002a0 44 c9 08 33 8e 71 0a 33 7c 8b 0a 33 9a 39 0a 33
       3.1848018e-08 3.2233906e-08 3.225749e-08 3.2183017e-08
0002b0 07 94 0a 33 07 ad 0b 33 95 b8 0c 33 bd dd 0c 33
       3.226526e-08 3.2520827e-08 3.2764166e-08 3.279796e-08
0002c0 f0 08 0c 33 59 a8 0a 33 be 11 09 33 f4 66 07 33
       3.260442e-08 3.228374e-08 3.1913935e-08 3.1525772e-08
0002d0 24 cf 05 33 7c 89 04 33 2d 7f 03 33 a4 01 02 33
       3.115487e-08 3.0858686e-08 3.061648e-08 3.0269476e-08
0002e0 0a e1 fe 32 2d 46 f8 32 c4 19 f3 32 37 58 f2 32
       2.9671828e-08 2.8902912e-08 2.830064e-08 2.8212623e-08
0002f0 f7 87 f6 32 1a 41 fd 32 03 d2 01 33 00 2f 04 33
       2.8699999e-08 2.9482681e-08 3.0226158e-08 3.077639e-08
000300 49 01 06 33 da ac 07 33 6f 3e 09 33 a4 76 0a 33
       3.1200475e-08 3.1589344e-08 3.195458e-08 3.2238532e-08
000310 9c 53 0b 33 4e 11 0c 33 bf a6 0c 33 58 95 0c 33
       3.24395e-08 3.261203e-08 3.2747945e-08 3.2732117e-08
000320 48 43 0b 33 fe 90 08 33 2d cb 04 33 e2 8c 00 33
       3.242465e-08 3.1796837e-08 3.0918432e-08 2.9930455e-08
000330 ce 38 f9 32 26 85 f4 32 de 5c f6 32 f2 72 00 33
       2.9013247e-08 2.8465887e-08 2.86804e-08 2.9906865e-08
000340 fe 01 09 33 8c 8a 11 33 b9 29 16 33 19 ec 14 33
       3.189961e-08 3.388645e-08 3.4962543e-08 3.4673665e-08
000350 89 cd 0e 33 bd a6 06 33 52 6f fe 32 6f f8 f3 32
       3.3248885e-08 3.1350954e-08 2.9620114e-08 2.8401898e-08
000360 96 a8 ee 32 b7 09 ee 32 fc 38 f1 32 f5 81 f6 32
       2.778351e-08 2.7711264e-08 2.8082006e-08 2.8697267e-08
000370 27 eb fb 32 ca 18 00 33 3b ad 01 33 d7 ba 02 33
       2.932718e-08 2.9824868e-08 3.0192705e-08 3.0437914e-08
000380 bb 0a 03 33 a1 60 02 33 18 2e 01 33 02 4b 00 33
       3.0510574e-08 3.0355867e-08 3.0077075e-08 2.987054e-08
000390 fe 4b 00 33 24 c9 00 33 bf bb 00 33 38 31 ff 32
       2.9871437e-08 2.998526e-08 2.9973076e-08 2.970829e-08
0003a0 ce e3 fb 32 8b bf f9 32 59 0f fa 32 35 54 fc 32
       2.932384e-08 2.9074519e-08 2.911081e-08 2.9374954e-08
0003b0 89 72 ff 32 80 7d 01 33 8b 9e 03 33 62 1b 06 33
       2.9737992e-08 3.0149295e-08 3.064501e-08 3.122421e-08
0003c0 6d 93 08 33 63 ba 0a 33 f4 da 0c 33 56 d2 0f 33
       3.179905e-08 3.2300147e-08 3.2795427e-08 3.348608e-08
0003d0 96 54 14 33 b5 3f 1a 33 71 e0 20 33 d2 83 27 33
       3.4535866e-08 3.591386e-08 3.745703e-08 3.9002607e-08
0003e0 71 a8 2d 33 59 cf 32 33 60 53 36 33 d2 76 37 33
       4.0432898e-08 4.1632436e-08 4.2451006e-08 4.2716074e-08
0003f0 8a a2 35 33 1e a8 30 33 5e d6 28 33 50 1c 1f 33
       4.2290175e-08 4.1131095e-08 3.9310514e-08 3.7045822e-08

exp_avg f4 [8]
000000 1b f0 81 31 6f 60 26 32 76 8e 99 30 23 02 2d 30
       3.781691e-09 9.684398e-09 1.1172705e-09 6.294007e-10
000010 cc 89 bd 30 b0 55 16 31 72 bb 13 31 10 4e 80 b2
       1.3790724e-09 2.187658e-09 2.1497866e-09 -1.493666e-08

exp_avg_sq f4 [8]
000000 67 d6 30 25 a7 36 d5 25 e3 52 35 25 d4 90 88 23
       1.5338209e-16 3.6986644e-16 1.572733e-16 1.4806487e-17
000010 98 c7 9e 24 5e 1a 4c 25 e5 9e 0d 23 f9 34 48 25
       6.88597e-17 1.7703113e-16 7.6772725e-18 1.7365183e-16

exp_avg f4 [8]
000000 2e f1 84 2f b0 61 20 b0 a3 d9 e0 af 98 73 4a af
       2.4182029e-10 -5.8346483e-10 -4.0900003e-10 -1.841286e-10
000010 b9 a5 42 b0 c1 1b eb 30 c2 a8 76 ae e0 4c 09 b0
       -7.0812295e-10 1.7106389e-09 -5.608381e-11 -4.9949556e-10

exp_avg_sq f4 [8]
000000 21 08 87 22 a1 c3 ed 22 72 b6 8e 22 6e 77 72 21
       3.660043e-18 6.444611e-18 3.868235e-18 8.2150853e-19
000010 18 1b 9d 21 ac 5d 3f 23 a7 ac bf 20 42 ca bb 21
       1.0645905e-18 1.03739665e-17 3.247091e-19 1.272515e-18
