model/sub7_20240206_130642/model.pt (torch, 65706 bytes, 17 tensors)

net.conv.weight f4 [8, 1, 1, 256]
000000 5e 8d c9 be 23 01 08 bf 95 7f 40 bf 2d 40 5e bf
       -0.39365667 -0.53126734 -0.75194675 -0.86816674
000010 05 97 43 bf e8 18 49 bf c9 ea 5f bf e5 74 63 bf
       -0.7640231 -0.7855363 -0.8746763 -0.8885024
000020 95 47 88 bf 2c 3f 70 bf 57 e0 4f bf 87 36 2d bf
       -1.0646845 -0.9384639 -0.8120169 -0.6766133
000030 3c 74 ef be 4c da 41 be 36 07 76 3d 44 f1 92 3e
       -0.46768367 -0.1893093 0.06006547 0.28699696
000040 44 24 6f 3e 5a 90 5e 3d a7 75 ec bd 83 71 c7 be
       0.23353678 0.054336883 -0.11545878 -0.3895379
000050 2f b6 ee be da 82 03 bf 46 57 d3 be 65 78 3e be
       -0.4662337 -0.5137154 -0.41277522 -0.18600614
000060 83 df 38 3e f9 4d ca 3e d9 70 e1 3e 8c 89 f6 3e
       0.18054013 0.39512613 0.44031408 0.48151815
000070 c8 1e fa 3e 78 5a 82 3e f8 49 86 3e 3b d0 84 3e
       0.4885161 0.25459647 0.2622831 0.25940117
000080 6b 89 d3 3e cf 58 43 3f 1a bb 95 3f 8e 19 a5 3f
       0.4131578 0.76307386 1.1697724 1.2898424
000090 49 cf b7 3f 52 09 b4 3f a5 e3 a9 3f a4 ed 74 3f
       1.4360133 1.4065344 1.3272597 0.9567511
0000a0 82 80 14 3f c2 00 73 3e f0 4b 64 3c 5a 3f a5 bd
       0.5800859 0.23730758 0.013934121 -0.08068724
0000b0 21 c7 02 be 5d e5 07 bd 79 a9 2e be c0 37 31 be
       -0.12771274 -0.033177722 -0.17056836 -0.17306423
0000c0 6a e3 9f be ca 6b fb be 93 23 09 bf 7b bc 14 bf
       -0.3122819 -0.49105674 -0.53569907 -0.581001
0000d0 03 44 2d bf 5a 67 04 bf 32 f4 d8 be 8e 78 70 be
       -0.676819 -0.517202 -0.42373806 -0.23483488
0000e0 af b1 5b be a2 ae 91 be 26 01 ca be 87 48 01 bf
       -0.214545 -0.28453547 -0.39454 -0.5050129
0000f0 06 da 3e bf 56 1c 7b bf 1f 6d 8c bf 0b 59 89 bf
       -0.7455143 -0.9809011 -1.0970801 -1.0730299
000100 b9 89 78 bf ee 4e 45 bf 97 cc 2e bf ed 4f 0c bf
       -0.9708515 -0.7707356 -0.6828093 -0.5480946
000110 d0 bd f3 be 89 4c b9 be a5 77 fb bd ab 8d 6b bc
       -0.47605753 -0.36191204 -0.1227868 -0.014377038
000120 73 76 f7 3d 43 87 3e 3e 01 a9 ab 3e ae 95 fe 3e
       0.12083139 0.18606286 0.33527377 0.49723572
000130 9a 57 03 3f db 29 ec 3e 1b 32 c9 3e 09 f2 dd 3e
       0.51305544 0.46125683 0.3929604 0.4334872
000140 56 57 b7 3e de 6d b1 3e a1 a9 8c 3e 20 d6 ee 3e
       0.3580882 0.34654135 0.27473167 0.4664774
000150 c1 bb 0a 3f ef 18 17 3f 4c 0b 1f 3f fc 2e 1a 3f
       0.5419274 0.5902242 0.6212661 0.6022794
000160 ae 5c f9 3e b6 05 99 3e b2 d4 28 3e ec 61 1a bd
       0.4870352 0.2988717 0.16487387 -0.03769104
000170 22 5b f9 bd bc 85 ea 3b 14 1f 43 3e e7 61 ef 3e
       -0.12175585 0.0071570557 0.19054824 0.4675438
000180 a2 9c 14 3f f8 b1 28 3f 49 ca fb 3e 59 17 86 3e
       0.580515 0.6589656 0.4917777 0.26189688
000190 94 b7 60 bd 33 35 a7 be 39 fc 0a bf 05 b4 15 bf
       -0.054862574 -0.32657775 -0.5429111 -0.58477813
0001a0 e8 55 18 bf 78 f4 01 bf 17 1a a8 be 6f a3 b4 be
       -0.5950608 -0.50763655 -0.32832405 -0.3528094
0001b0 85 fa da be 75 17 34 bf ce 2b 74 bf 26 c4 ac bf
       -0.42769256 -0.7034829 -0.9537934 -1.349736
0001c0 d8 e4 c0 bf 07 b5 cc bf dd 1a b2 bf 87 c0 75 bf
       -1.5069838 -1.5992745 -1.3914448 -0.959969
0001d0 53 12 f6 be ec 8a 18 bc 8e 0e 60 3e f4 36 c9 3e
       -0.48060855 -0.009310465 0.21880552 0.39299738
0001e0 6b ac c1 3e b0 46 d7 3e f2 87 83 3e 38 91 98 3e
       0.37826857 0.42046118 0.25689656 0.29798293
0001f0 00 47 a9 3e f0 44 00 3f ec 38 14 3f e0 a3 10 3f
       0.3306198 0.5010519 0.57899356 0.56500053
000200 8e 45 09 3f 29 cf ab 3e 52 04 4d 3e 95 6d 50 3d
       0.5362176 0.33556488 0.2002118 0.050885756
000210 c8 ab fc bd f7 f5 9a bd ba 3f eb bd a1 69 ec 3c
       -0.12337452 -0.07566445 -0.11486764 0.028858962
000220 e1 da 51 3e 37 fe bc 3e aa c9 f7 3e 55 0b 14 3f
       0.20493652 0.369127 0.48396045 0.5782979
000230 65 7d ee 3e 45 41 cf 3e 9c 6f 57 3e b7 ee ca 3d
       0.46580043 0.40479484 0.2103867 0.099088125
000240 2c 07 10 3e 8d 36 94 3e 15 78 a7 3e 23 94 b1 3e
       0.14065236 0.2894787 0.32708803 0.34683332
000250 5d a9 99 3e 78 ec 81 3e e6 20 d0 bc 2c 11 f9 be
       0.30012026 0.25375724 -0.025406312 -0.48645914
000260 33 f3 49 bf f2 f5 79 bf 98 98 80 bf a2 e7 76 bf
       -0.7888672 -0.9764091 -1.0046568 -0.96447194
000270 f4 da 4e bf d7 f2 12 bf 6e 80 f7 be e7 27 f6 be
       -0.80802846 -0.57401794 -0.48340172 -0.48077318
000280 f5 77 36 bf a2 5f 5b bf 4b ee 91 bf 33 bc 98 bf
       -0.7127679 -0.856928 -1.1400846 -1.1932434
000290 f0 e4 85 bf 26 d7 4d bf b2 17 0b bf 4b 5c a3 be
       -1.0460491 -0.80406415 -0.5433303 -0.3190635
0002a0 3a 85 12 be 7b 84 16 3d fb bf ab bd dc 6c 93 bd
       -0.14308634 0.036747437 -0.08386227 -0.07198498
0002b0 f5 e0 46 be 9a ca 8f be 04 8c 5c be 25 31 24 be
       -0.19421752 -0.2808426 -0.21537787 -0.16034372
0002c0 8c 66 ab 3d 5d 0b b9 3e d1 b1 05 3f fc 12 26 3f
       0.08369169 0.36141482 0.5222445 0.6487272
0002d0 87 76 1d 3f d1 70 1c 3f 4e 39 12 3f 7e 9b fb 3e
       0.61508983 0.61109644 0.5711869 0.4914207
0002e0 47 7b d9 3e 31 02 10 3f c7 84 4d 3f 43 2a 97 3f
       0.42476866 0.56253344 0.8028073 1.1809772
0002f0 c3 1f aa 3f 5a bf a7 3f cc fb a8 3f c7 74 91 3f
       1.3290943 1.3105271 1.3201842 1.1363763
000300 62 9c 47 3f 49 a8 fd 3e 6e eb 2e 3e 33 d8 0e 3e
       0.77972996 0.49542454 0.17081997 0.13949661
000310 7a 65 73 3d b5 9b 08 3e 26 ab 19 3b ef 2b 29 3b
       0.059422947 0.13340648 0.002344796 0.002581354
000320 f2 4c 52 be 98 2d f6 be 66 9d 5b bf 62 7c 83 bf
       -0.20537165 -0.4808166 -0.85787046 -1.0272334
000330 cd 14 8e bf 9a 17 80 bf ee a6 36 bf 86 d1 da be
       -1.1100098 -1.0007203 -0.71348464 -0.4273798
000340 68 09 06 bd d9 44 8b 3e a6 10 8a 3e 95 9a 96 3d
       -0.032723814 0.27200964 0.26965827 0.07353703
000350 a7 1e 86 be a6 76 23 bf 6f af 6f bf 77 3b 97 bf
       -0.2619526 -0.6385292 -0.93627065 -1.1815022
000360 4f 43 9e bf 73 d8 90 bf 6c 42 50 bf ab 63 e5 be
       -1.2364291 -1.1316055 -0.8135135 -0.44802603
000370 ee 74 ce be 39 53 ac be 50 28 1b bf c6 b6 66 bf
       -0.40323585 -0.33657244 -0.60608387 -0.9012264
000380 d6 34 74 bf e6 97 38 bf 2c ec e9 be a6 f5 cc bd
       -0.9539312 -0.7210678 -0.45687997 -0.10007791
000390 63 0e d0 3e 8d 8d 65 3f 9e c9 93 3f d2 73 90 3f
       0.40635976 0.89669114 1.1545904 1.1285346
0003a0 0d ca 87 3f 35 1a 40 3f 9c 62 96 3e 94 11 db 3d
       1.0608536 0.7503999 0.29372108 0.10696712
0003b0 38 f3 f4 3d ad cc c4 3e 9b 6c 53 3f 66 03 8a 3f
       0.11960453 0.38437405 0.82587594 1.0782287
0003c0 10 c1 9d 3f 6c 77 90 3f 5b 4b 5d 3f 12 73 0d 3f
       1.2324543 1.1286445 0.8644311 0.5525371
0003d0 ac 68 0b 3e 50 81 db bc 6c f5 41 be 79 86 2b be
       0.13614148 -0.02679506 -0.18941277 -0.16750516
0003e0 39 aa 64 be 35 bb 11 be d5 17 3a be c2 e4 98 be
       -0.2233056 -0.1423157 -0.18173154 -0.29862028
0003f0 12 14 23 bf 81 0f 90 bf 18 d3 c8 bf 89 f3 e9 bf
       -0.637025 -1.1254731 -1.5689421 -1.8277446

net.bn1.weight f4 [8]
000000 f3 fb cd 3f cc 55 e2 3f e9 b8 03 40 c1 27 bc 3f
       1.6092514 1.7682433 2.058161 1.4699632
000010 bc b3 93 3f c5 37 fa 3f c6 21 93 3f fb 8c 6d 3f
       1.1539226 1.954827 1.1494682 0.92793244

net.bn1.bias f4 [8]
000000 fa 85 3d bd b3 ef 99 bd 94 9a 60 be 14 8a 84 bd
       -0.046270348 -0.07516422 -0.21933967 -0.06471649
000010 4d 7a f9 bd 05 5a 93 3e 8c 4e 74 bd 6c 37 06 3e
       -0.1218153 0.28779617 -0.05964522 0.1310708

net.bn1.running_mean f4 [8]
000000 e4 7d 10 3a 52 48 8e 3a 36 1c 03 b9 bb 46 8e 38
       0.0005511923 0.0010855293 -0.00012503643 6.784262e-05
000010 c5 12 8b 39 e8 38 48 3a 6f ce 11 b9 9e fb cf b9
       0.0002652613 0.0007637874 -0.0001390518 -0.00039669586

net.bn1.running_var f4 [8]
000000 02 68 40 44 44 59 99 44 f8 bc a8 44 94 7a b7 43
       769.6251 1226.7896 1349.9053 366.95764
000010 46 da 03 44 1f a0 8f 44 fa 18 5a 43 7d b7 cc 43
       527.4105 1149.0038 218.09756 409.4335

net.depth_conv.weight f4 [16, 1, 32, 1]
000000 8b cc 85 be 12 0d b7 3e d0 10 41 3f 99 2a b7 3d
       -0.26132616 0.3575216 0.7541628 0.08943672
000010 2f e6 5f 3f 30 78 34 bf 55 7d 15 3f 63 86 22 3f
       0.8746061 -0.7049589 0.58394367 0.6348631
000020 df 89 83 bf d8 6e f9 3e 38 4a a4 bf 6f d8 9c be
       -1.027645 0.4871738 -1.283515 -0.30633876
000030 b9 75 3f bf a1 3e 99 bc 3b 03 fe 3e 7e 66 44 3f
       -0.74789006 -0.018706622 0.4961184 0.7671889
000040 6f a6 5c 3e 13 cc d0 3e 22 f1 d0 3f 82 10 54 3f
       0.21547864 0.40780696 1.6323588 0.8283769
000050 30 03 15 be 55 1c 64 3e e0 95 79 3e ab 0d b3 bf
       -0.14551997 0.22276433 0.24373579 -1.3988546
000060 93 f7 b4 bf f2 b7 9b 3f f6 57 99 be 53 31 ca bf
       -1.4138054 1.2165511 -0.2994992 -1.5796303
000070 02 a3 aa be 19 4a f8 be 10 70 16 3f 0c 09 30 3e
       -0.3332749 -0.48494032 0.58764744 0.17190951
000080 65 ee 01 be 00 a4 4b 3f b6 ac 46 3f 9d e6 90 3e
       -0.12688597 0.7954712 0.77607286 0.28300944
000090 28 2f c5 3f 45 82 83 3e 95 4b 12 bf cf 3b ff bd
       1.5405016 0.25685325 -0.5714658 -0.124625795
0000a0 d9 48 e8 bf 6d 3d 63 3f 2f 61 db be 16 2a 51 be
       -1.8147231 0.88765603 -0.42847583 -0.20426211
0000b0 0d 9d c4 bf 29 33 25 bf 55 81 28 3e 8b 39 20 3f
       -1.5360428 -0.6453119 0.16455586 0.62587804
0000c0 c1 27 62 3e 7b ee da 3e 81 85 4f 3f 1a 90 94 3f
       0.22085477 0.4276007 0.81063086 1.1606476
0000d0 09 7d 13 3f 13 0a d2 3f 40 42 06 3f 29 a0 8b bf
       0.57612664 1.6409324 0.5244484 -1.0908252
0000e0 f8 d6 cb bf 3a e3 04 3f 37 33 9c 3d af bf 18 bf
       -1.5924978 0.5190922 0.07626956 -0.59667486
0000f0 19 34 a3 bf 90 62 48 bf 1e 9a 1e 3f c3 04 1d 3e
       -1.2750274 -0.78275394 0.61953914 0.15333848
000100 dc c3 d1 3e af b3 8e 3f 84 41 c2 3e c1 66 f3 be
       0.4096974 1.1148585 0.3794061 -0.47539333
000110 e4 22 0e 3f a4 88 e5 bd f5 85 ef 3e 4e ee 44 be
       0.5552199 -0.11207703 0.4678189 -0.19231531
000120 a4 8c a4 be c3 a3 24 c0 18 c0 ce 3d 7e f4 fa 3e
       -0.3213855 -2.5724952 0.10095233 0.49014658
000130 29 b5 af 3e 31 14 aa 3f 6f 46 da be d4 fa 00 3e
       0.34317902 1.3287412 -0.42631862 0.12595683
000140 ec 55 01 3e 7d ac 1b 3d ce 60 a3 3e a9 80 05 3f
       0.12630433 0.038006295 0.31909794 0.52149445
000150 5d 85 66 3f 57 83 af be ab d2 5c 3d c3 c9 4c bd
       0.90047246 -0.34279892 0.053911846 -0.049997102
000160 6f df 97 bf 59 06 d2 be 5c 8c 8e bf 5c bc 9d be
       -1.1865062 -0.41020468 -1.1136584 -0.3080777
000170 ae 25 61 bc 7a 29 3c be 46 35 df 3e 91 17 d2 3e
       -0.013741894 -0.18375197 0.43595332 0.41033605
000180 31 80 b7 be e7 4f 3c bf 59 b8 5b bf c2 bb 63 bf
       -0.3583999 -0.7355942 -0.8582817 -0.8895837
000190 43 63 91 bf 8c e7 1b 3f 3f b5 05 3f cb 7b b3 3f
       -1.1358417 0.6090019 0.52229685 1.4022154
0001a0 bd 89 32 bf 8c d0 fd 3f df 19 0f bf 74 02 9f 3e
       -0.6974142 1.9829268 -0.5589885 0.3105656
0001b0 73 d8 d2 bd 88 5b b2 be b9 53 bb 3c 1a da 6b be
       -0.10295191 -0.34835458 0.02286707 -0.23032418
0001c0 82 84 53 3c be 09 44 bf 12 0f 4f 3c 1f be d2 be
       0.01291001 -0.76577365 0.01263787 -0.41160676
0001d0 45 4a 1a bf 58 c4 4e be b0 2b 07 bf 4a 3c 44 3f
       -0.60269576 -0.20192087 -0.52801037 0.76654494
0001e0 8b ad 94 3e c6 06 d0 be 15 71 f7 3f bf ca c5 3e
       0.29038653 -0.40630168 1.9331385 0.38631245
0001f0 9a 7b 26 bf 82 3c 5a 3f 00 c7 1b bf 1c ca ca 3d
       -0.6503235 0.8524858 -0.60850525 0.099018306
000200 79 7f 65 be f8 62 ab bf 29 5b 2a bf 8f a6 f0 be
       -0.22411908 -1.3389578 -0.6654535 -0.47002074
000210 17 14 ca be d8 37 ac 3e 7f 41 4c be b1 e2 91 3f
       -0.39468452 0.33636355 -0.1994686 1.1397306
000220 c2 58 6f 3e 0b 98 3f 40 d3 11 03 be e6 a0 57 be
       0.23373702 2.993655 -0.12799768 -0.21057472
000230 ad 57 0c bf d3 0b a8 bf 6a 34 2e 3e bb b2 b5 bd
       -0.5482128 -1.3128608 0.17012182 -0.08871981
000240 25 84 64 be c0 e9 42 be cc 20 44 bf 25 85 12 be
       -0.22316034 -0.19034481 -0.76612544 -0.14308603
000250 49 38 39 bf fa 0e 24 3f 29 f0 40 3e 19 53 ff 3e
       -0.7235151 0.6408535 0.18841614 0.49868086
000260 27 5e 02 3f c4 60 33 3f 47 90 80 3f 6e 0d 96 3f
       0.50924915 0.7006953 1.004403 1.1722848
000270 f6 23 04 bf a7 d4 a2 be 8f 0e 1b bf 80 46 d8 3e
       -0.5161737 -0.31802866 -0.6056909 0.42241287
000280 bc d2 1e 3e 6f 7f d6 3e 9c 78 d9 be a1 d4 81 bf
       0.15510076 0.418941 -0.4247483 -1.0143014
000290 6b a2 9d bf 10 59 2f 3f ca cd 3f 3f 8e 57 a6 3f
       -1.2315191 0.68495274 0.74923384 1.299547
0002a0 27 80 96 bf 76 eb 25 3e 21 63 0a bf 6d 5b 1b 3f
       -1.1757859 0.16203102 -0.5405751 0.6068638
0002b0 53 c1 1f 3f 34 f7 92 3f 3d 3e e4 be 4d cf c6 be
       0.62404364 1.148169 -0.44578734 -0.38830033
0002c0 06 f3 3d 3d bc 68 12 bf 30 1d 22 3f bb 24 3c be
       0.046374343 -0.5719106 0.63325787 -0.18373387
0002d0 cf 64 23 3d 5b 88 37 bf 5c 4e 00 bf 52 89 ec 3e
       0.03989106 -0.71692437 -0.50119567 0.46198517
0002e0 61 60 21 bf d1 b7 84 bf 38 e9 ab 3f 14 a1 fd 3d
       -0.6303769 -1.0368596 1.3430548 0.12384239
0002f0 77 42 84 bf b1 2e bb 3f a9 3a 3f be 29 b3 78 3e
       -1.0332783 1.4623624 -0.18674721 0.24287094
000300 bf 96 05 3f 5b 14 8c be 2f 70 0e 3e 08 6d 97 bd
       0.52183145 -0.2735928 0.13909982 -0.07393843
000310 e4 26 3d 3f c8 be c3 bd 71 dd 9e bf 37 ab 19 3e
       0.7388747 -0.09557873 -1.2411329 0.1500672
000320 e6 c6 e2 3c f0 55 86 be d3 d4 59 bf 2d b8 7c be
       0.027682733 -0.2623744 -0.8509037 -0.24679632
000330 b2 ec 33 3f a1 92 89 bd 26 3a 10 bf 9d a1 a7 3e
       0.70283043 -0.0671742 -0.5633873 0.3274049
000340 e4 38 60 be a2 61 63 3d 1e c6 46 bf 72 19 58 bf
       -0.21896702 0.05551303 -0.7764605 -0.84413826
000350 e3 96 3a 3d 29 8d 2a be f5 28 be bc 61 12 27 3f
       0.045554053 -0.16655411 -0.02321289 0.6526242
000360 c5 7e 0d 40 f8 d8 da bf db 1c 04 40 88 a0 ba 3f
       2.2108624 -1.7097464 2.0642612 1.458024
000370 6c 56 e3 be 71 2c 9e bf 3c 7f a6 3e c2 db 8f 3e
       -0.44401872 -1.2357312 0.32518947 0.2809735
000380 d2 a0 2d 3e 7c 69 fc be 6f 91 03 3e e2 8c 40 bf
       0.1695588 -0.49299228 0.12848447 -0.7521497
000390 01 e2 81 3f 69 bf 1c 3e ad 8b e0 be ba d3 14 3f
       1.0147096 0.15307392 -0.43856564 0.5813557
0003a0 54 46 21 3e 36 ae 5c be 06 a2 f4 bf 5b 8c bc 3c
       0.15749484 -0.21550831 -1.9111946 0.023016145
0003b0 7b 14 94 3d cf f5 9b 3e 46 f5 17 be 61 06 4e 3f
       0.07230469 0.30460975 -0.14839658 0.80478483
0003c0 a6 ad 3a 3f a6 30 7e 3b ab 71 78 be a3 48 04 bf
       0.72921216 0.003878632 -0.24262111 -0.51673335
0003d0 f6 06 96 be 5c f4 6f bf 82 b0 c1 3e a1 82 8c 3e
       -0.29302186 -0.9373224 0.37829977 0.27443412
0003e0 0d df 00 40 dc d1 9f bf 7d 5a fd 3f fd dc af 3f
       2.013614 -1.2485919 1.979324 1.3739315
0003f0 3d 3c d6 be 89 f5 b7 bf ce cc 63 3d 95 54 fe 3c
       -0.41842833 -1.4371806 0.05561524 0.031046191

net.bn2.weight f4 [16]
000000 84 73 e2 3f be 53 de 3f ca ff 08 40 44 f5 04 40
       1.7691503 1.7369306 2.1406121 2.0774698
000010 aa c0 11 40 65 70 15 40 89 d3 dd 3f 49 62 e6 3f
       2.2773843 2.334985 1.733018 1.7998744
000020 9e cb 9f 3f fa 27 e1 3f 58 8f 09 40 13 fe 11 40
       1.2484014 1.7590325 2.149374 2.2811325
000030 ae f5 df 3f 07 c8 e0 3f df 4b c1 3f 4c 7d d6 3f
       1.749685 1.7561044 1.5101279 1.6756988

net.bn2.bias f4 [16]
000000 41 58 f1 be 25 85 0a bf 54 69 11 bf f1 df 1e bf
       -0.47137645 -0.5410941 -0.5680134 -0.6206046
000010 90 a6 23 bf 6e d5 1e bf ab 65 d8 be a9 46 d1 be
       -0.6392603 -0.6204442 -0.42265067 -0.40874222
000020 e2 cc 84 be be 3a 02 bf 35 a7 10 bf 40 4d 1e bf
       -0.25937563 -0.50870883 -0.5650514 -0.61836624
000030 a8 bb e4 be d8 eb f4 be 63 8d d6 be 01 39 e7 be
       -0.4467442 -0.47836185 -0.41904745 -0.45160678

net.bn2.running_mean f4 [16]
000000 ca 11 d1 bc a4 a5 6b bd d4 3b 02 bd 0a 54 89 3d
       -0.025521178 -0.057531014 -0.031795338 0.06705482
000010 f9 90 55 be 18 f8 d0 bc 98 8e 1f bd 4d 21 9f bd
       -0.20856084 -0.025508925 -0.038954347 -0.077700235
000020 74 8b e8 bd 1b 0c 9c 3d b8 1d 64 be b2 05 ff 3e
       -0.113547236 0.076194964 -0.22276962 0.49809033
000030 47 e5 8f 39 1d 8d 66 3c 7e 03 0a be cf 62 0e 3e
       0.0002744591 0.01407173 -0.13477895 0.1390488

net.bn2.running_var f4 [16]
000000 42 f0 b9 41 50 88 6f 41 6d 61 42 41 69 cf 76 41
       23.242313 14.970779 12.148786 15.425637
000010 38 08 10 42 e3 a0 6a 41 25 79 61 42 84 5b 36 42
       36.008026 14.664279 56.368305 45.58937
000020 f2 78 b5 41 5b a3 1d 42 6a 98 96 41 1e 56 b0 41
       22.684055 39.409527 18.82442 22.04205
000030 b0 8b b6 42 d1 a6 ac 42 b9 06 5d 41 8f e0 ad 41
       91.27283 86.32581 13.814141 21.734648

net.point_conv.weight f4 [16, 16, 1, 16]
000000 13 f1 ba 3e fd 66 d5 3e 39 ac 17 3f f1 bc db 3e
       0.3651205 0.41680136 0.59247166 0.42917588
000010 ba 6e d8 3e 5a e4 9a 3e a4 7b 5a 3e 31 7e 4d 3e
       0.42271978 0.30252343 0.21336228 0.2006767
000020 69 c4 ba 3d 62 eb 69 3e f5 6d f7 3d a7 d6 54 3e
       0.091194935 0.22843698 0.120815195 0.20785008
000030 b2 93 72 3e 7c ce 9a 3e a3 a1 d1 3e ae 72 03 3f
       0.23689154 0.3023566 0.40943632 0.5134686
000040 13 de e3 3e ad 67 03 3f f0 91 35 3f 52 34 4a 3f
       0.44505367 0.5133007 0.7092581 0.78986084
000050 e2 a2 60 3f 76 15 85 3f b1 8a 8b 3f 2e 0e 99 3f
       0.8774854 1.0397174 1.09017 1.1957452
000060 e3 2a 8a 3f 24 ee 83 3f a5 0b 49 3f af c5 1c 3f
       1.0794338 1.030705 0.78533393 0.6123914
000070 ae af 02 3f 68 91 f3 3e 56 97 f9 3e 0f a2 23 3f
       0.51049316 0.47571874 0.48748273 0.63919157
000080 f3 3d 41 3e 06 ad 85 3e a3 2d 86 3e 11 29 9e 3e
       0.18871288 0.2610857 0.26206693 0.30890706
000090 74 4c 8f 3e 24 7f cb 3e 3e 86 d5 3e bd c9 00 3f
       0.27988017 0.39745438 0.4170398 0.5030783
0000a0 4c 08 21 3f aa c5 1e 3f 9b 24 33 3f ca be 33 3f
       0.62903285 0.6202036 0.6997773 0.70212996
0000b0 18 a3 19 3f 43 7c 11 3f a7 2f ef 3e b7 84 04 3f
       0.60014486 0.56830233 0.46716043 0.51765007
0000c0 73 d2 52 bb c3 11 80 3b ab fd f9 3d 31 51 63 3e
       -0.0032168895 0.0039083674 0.122065865 0.22198941
0000d0 5c d4 5f 3e 13 7f 89 3e 2e ab 86 3e 50 a9 93 3e
       0.21858352 0.26854762 0.26302475 0.28840113
0000e0 c9 d4 3b 3e 13 02 9c 3e b4 6e 39 3e 48 e5 53 3e
       0.1834289 0.30470333 0.18108636 0.20692933
0000f0 14 42 2d 3e ee 98 63 3e d9 30 9d 3e fe 5e a2 3e
       0.16919738 0.22226307 0.3070133 0.31713098
000100 44 86 96 3d 0f 34 1a 3e 7d 30 22 3e ef 66 80 3e
       0.07349828 0.15058921 0.1583881 0.25078532
000110 b1 56 c0 3e 07 92 8f 3e 56 0f ba 3e 34 75 be 3e
       0.3756614 0.28041098 0.36339825 0.37198794
000120 d6 f1 85 3e 8a 7f 18 3e c3 c6 ac 3d b1 88 1b 3e
       0.2616107 0.14892402 0.08436348 0.15188862
000130 8c 39 ba 3c a4 90 02 3e 34 c3 49 3e e4 b6 3c 3e
       0.022732519 0.12750489 0.1970337 0.18429142
000140 fc 43 7a be 26 5a 17 be c1 3c 0e be f4 14 ae bd
       -0.24439996 -0.14780483 -0.13890363 -0.0850009
000150 a9 9e 9d 3d 3f 14 ba bc b7 7e 88 3d 69 0e 65 3c
       0.07696278 -0.022714732 0.06664794 0.013980486
000160 3d 9f 1e be 1d 02 e4 bd 24 07 64 be 1c b9 8b be
       -0.15490432 -0.111332156 -0.22268349 -0.27289665
000170 f3 a3 c3 be 0b c0 f8 be 21 b9 e2 be 50 f5 aa be
       -0.3821102 -0.48584017 -0.44281867 -0.33390284
000180 e4 a2 85 3f 8b d5 60 3f 55 3c 40 3f 36 e1 30 3f
       1.0440335 0.8782584 0.7509206 0.69093645
000190 5f 0b 39 3f 45 a8 3c 3f d7 0c 31 3f b9 2e 20 3f
       0.72282976 0.7369426 0.6916022 0.62571293
0001a0 bd 0b 29 3f d0 d0 40 3f d9 8a 4a 3f 59 26 40 3f
       0.66033536 0.7531862 0.79118115 0.75058514
0001b0 7d 24 0c 3f 10 20 b0 3e 77 2c a3 3e a0 81 84 3e
       0.54743177 0.34399462 0.3186986 0.25880146
0001c0 51 b4 80 3f 1b a7 62 3f c6 d3 49 3f d6 88 60 3f
       1.0055028 0.8853623 0.78838766 0.87708795
0001d0 c7 54 88 3f 33 78 87 3f cb 4e 83 3f 42 0a 50 3f
       1.0650872 1.0583557 1.0258421 0.8126565
0001e0 73 09 35 3f b5 4a 53 3f fc 51 61 3f 26 b2 45 3f
       0.70717543 0.8253587 0.88015723 0.7722496
0001f0 d7 24 33 3f 70 a8 11 3f 94 84 1c 3f 94 68 0e 3f
       0.6997809 0.5689764 0.611398 0.55628324
000200 aa 66 88 3e 89 21 bc 3e d6 dd ef 3e 92 da 02 3f
       0.26640826 0.36744335 0.46848935 0.5111476
000210 6d 99 0f 3f 2d e4 0e 3f 42 a4 2a 3f 31 c1 1d 3f
       0.56093484 0.5581692 0.6665689 0.6162291
000220 9f 72 24 3f b2 5f 24 3f 86 0b e1 3e 67 8b ba 3e
       0.642374 0.6420852 0.43954104 0.3643448
000230 23 86 11 3e 5c 61 a3 3d 81 e5 e0 bc 9a 95 2d bd
       0.14211325 0.07977554 -0.027453186 -0.042379
000240 87 f4 13 3f 9f 71 1f 3f 0d cb 11 3f d0 f5 05 3f
       0.57794994 0.6228275 0.56950456 0.52328205
000250 37 67 00 3f fc 28 e0 3e af fc 9d 3e 1d 16 5d 3e
       0.50157493 0.4378127 0.30856845 0.21590467
000260 25 58 55 3e 1c c9 57 3e ec 6c 89 3e 01 c2 a4 3e
       0.20834406 0.21072811 0.26840913 0.32179263
000270 3a 27 f1 3e ee 7c f1 3e c1 9a 0c 3f 45 ac 15 3f
       0.4710024 0.47165626 0.54923636 0.5846599
000280 61 22 3f be ab 5a 26 3d 84 9e 0d 3e 72 e8 52 3e
       -0.18665458 0.04061381 0.1383 0.20596483
000290 d4 d0 58 3e 21 dd aa 3d d8 7e cc 3d 0f 2c 0d 3d
       0.21173412 0.08342958 0.09985131 0.034465846
0002a0 c6 aa 96 bd 6b 13 7f be 0b 8a 8b be e0 4a 61 be
       -0.07356791 -0.24909751 -0.27253756 -0.22001219
0002b0 33 77 cf bd dd 3d c7 bd fc 36 ab bd 0d 36 cb bd
       -0.10130157 -0.09728596 -0.08360097 -0.09922419
0002c0 9f a6 6d 3e 9a 2f 3a 3e f2 49 95 3e 15 a6 8f 3e
       0.23208092 0.18182221 0.29157978 0.28056398
0002d0 a2 b7 9c 3e ec 2d 73 3e 9a 3f 7a 3e f4 d7 6f 3e
       0.3060885 0.23747987 0.24438325 0.23422223
0002e0 ef 93 0e 3e 9d d2 0a 3e 78 08 af 3b 7f 34 6c 3d
       0.1392362 0.13556905 0.0053415857 0.05766725
0002f0 e2 a8 41 3d c0 1d a2 3d 4d d9 3a 3c 35 a0 71 3d
       0.0472802 0.079158306 0.011404348 0.058990676
000300 d6 48 6c 3f a8 ac 6e 3f 25 6e 67 3f 91 bb 6d 3f
       0.9229864 0.932322 0.9040244 0.9286433
000310 39 f8 7a 3f 5f 4d 52 3f 02 57 45 3f ec 67 44 3f
       0.9803501 0.8214931 0.7708589 0.7672107
000320 d1 8a 2e 3f ab 96 19 3f fb 2e 22 3f d3 b8 01 3f
       0.6818057 0.59995526 0.63352937 0.50672644
000330 79 a1 d8 3e 49 81 07 3f 49 22 15 3f 7d 8a 22 3f
       0.42310694 0.5293165 0.5825544 0.63492566
000340 b4 82 3c 3f 49 2e 23 3f 7b 2a 1b 3f 8d d1 ee 3e
       0.7363694 0.637425 0.60611695 0.4664425
000350 64 8b 01 3f 60 99 07 3f ca 00 c4 3e 34 c0 f5 3e
       0.5060332 0.52968407 0.38281852 0.47998202
000360 32 f5 d2 3e e2 4c c2 3e c2 2e bf 3e 81 fb 01 3f
       0.41202694 0.37949282 0.3734036 0.5077439
000370 7b 48 ee 3e 02 70 f5 3e 5e ee da 3e 1a 07 20 3f
       0.46539673 0.47937018 0.42759985 0.62510836
000380 29 e1 9c 3e a7 ba df 3e 0e 3c 0b 3f ad e0 2e 3f
       0.30640534 0.43697092 0.5438851 0.6831158
000390 f4 66 13 3f 7f 42 13 3f a4 86 08 3f ab e3 18 3f
       0.5757897 0.5752334 0.53330445 0.59722394
0003a0 e3 b6 1b 3f b8 e0 14 3f 8e 21 09 3f 2c fb 08 3f
       0.6082594 0.58155394 0.53566825 0.5350826
0003b0 d1 74 d2 3e f9 10 d5 3e 12 fa dd 3e 18 04 01 3f
       0.4110475 0.41614512 0.4335485 0.5039687
0003c0 d1 85 71 3e 9a 12 97 3e a6 b8 52 3e 9e 7b 9e 3e
       0.23586203 0.2950638 0.2057825 0.30953687
0003d0 7b 2a b3 3e dd 3f d2 3e 42 ea d7 3e b8 6a e0 3e
       0.34993348 0.4106435 0.42170912 0.4383142
0003e0 6f 8a ed 3e ab ed b1 3e ae 2c cf 3e 5a 09 a2 3e
       0.4639468 0.3475164 0.40463775 0.3164776
0003f0 b9 9c 91 3e 2a f0 97 3e 23 1e 8b 3e db cd 7d 3e
       0.28439882 0.29675418 0.2717143 0.24785559

net.bn3.weight f4 [16]
000000 78 c3 98 3f 77 a8 f3 3f b6 62 00 40 29 7c c9 3f
       1.1934652 1.9035786 2.0060248 1.5741016
000010 cc 8f 86 3f 76 f0 ca 3f e3 f9 83 3f da c3 97 3f
       1.0512633 1.5854633 1.0310634 1.1856644
000020 a3 68 df 3f c5 a4 66 3f 64 b8 ff 3f c1 1f b8 3f
       1.7453808 0.9009517 1.9978147 1.438469
000030 07 2a 98 3f 34 c9 e5 3f 33 a1 8d 3f c1 a4 f1 3f
       1.1887826 1.7952027 1.1064819 1.8878404

net.bn3.bias f4 [16]
000000 04 e3 61 3d 7a 75 c4 be fc 8a 36 bf ed d3 6d 3e
       0.05514814 -0.38370878 -0.71305823 0.23225375
000010 39 24 aa 3a c3 24 c1 be be c9 3b 3e 19 0f 54 3d
       0.0012980766 -0.3772336 0.18338677 0.05177221
000020 50 f6 e2 be 30 8d 19 3e 76 8e 2b bf a5 ea f0 bd
       -0.44328547 0.14995265 -0.67014253 -0.11763505
000030 99 23 cb bd a9 2d f1 be 2e 28 7d 3d 01 9b 34 bf
       -0.09918899 -0.47105148 0.061805896 -0.7054902

net.bn3.running_mean f4 [16]
000000 f6 ed c0 40 48 16 54 3e 17 b4 c7 c0 6d 16 ad 40
       6.029048 0.20711625 -6.2407336 5.4089875
000010 0b b0 5f 40 a5 4e 82 c0 6a 27 42 40 f7 f7 c4 3f
       3.4951198 -4.0721 3.0336556 1.5388173
000020 69 a5 0e c0 5b d6 ae 40 ea 1d d1 c0 60 91 3a 40
       -2.2288458 5.4636664 -6.5349016 2.915123
000030 44 a9 c8 40 fe 62 ca c0 d1 e9 27 40 1f f9 c2 c0
       6.2706623 -6.324584 2.623646 -6.0929103

net.bn3.running_var f4 [16]
000000 cf 9e 18 44 de 98 59 44 62 a5 7c 44 a8 e2 59 44
       610.4814 870.38855 1010.5841 871.5415
000010 b4 07 2a 44 d5 ba 5c 44 01 c9 f3 43 37 8b 19 44
       680.12036 882.91925 487.57034 614.17523
000020 b3 33 3a 44 72 cb 30 44 c3 01 86 44 0d 4f 2b 44
       744.8078 707.17883 1072.055 685.23517
000030 8f f7 f8 43 5a f9 7e 44 94 21 21 44 d1 fb 5e 44
       497.93405 1019.8961 644.52466 891.93463

net.fc.weight f4 [32, 256]
000000 a6 7f 0f be e2 2e a3 be 08 dc 31 bf c0 41 5b bd
       -0.14013538 -0.31871706 -0.69476366 -0.0535295
000010 4c 82 80 be 60 fd b8 be 62 fd f1 bd 41 10 3c be
       -0.2509941 -0.3613081 -0.11815907 -0.18365575
000020 e0 1f de be 3a 54 f2 be 59 3b b7 3c a0 c2 ec bd
       -0.43383694 -0.47329885 0.022367166 -0.11560559
000030 a1 5d 61 be 7a ec 86 be b5 13 3e bf 56 25 ea be
       -0.22008373 -0.26352292 -0.7424882 -0.4573161
000040 31 f7 d7 bd 7d dd 18 be 97 4c 36 3d d0 17 d2 be
       -0.10545195 -0.14928241 0.044506636 -0.41033792
000050 d9 e3 f7 be 53 52 14 bf 9e 7f f7 be 7c 7a bc be
       -0.4841602 -0.57938117 -0.48339552 -0.36812198
000060 db 7a 34 be 84 dc 29 3e 6b 7c 4e 3e 12 99 21 bf
       -0.1762499 0.16588026 0.20164649 -0.6312419
000070 be bd 5a bf 7b 17 3a bf ce 1c 73 be 40 bd 87 3e
       -0.85445774 -0.7269208 -0.23741457 0.26511574
000080 61 e3 d1 3d 91 0e 8b 3e 35 bf 32 be 2e 65 98 3e
       0.10248447 0.2715955 -0.17455752 0.29764694
000090 10 da 6b 3f 63 6a 5c 3f 98 e3 c4 3e 30 b4 40 3e
       0.9212961 0.86099833 0.3845489 0.18818736
0000a0 66 0d 36 3f 95 ce 6e 3e 9c 69 1b 3e 5f 64 ab 3e
       0.71114194 0.23320992 0.15177006 0.33475015
0000b0 2e 81 51 3f df 09 81 3f 18 bc d9 3e 52 a7 2e 3d
       0.8183774 1.0081137 0.42526317 0.042640038
0000c0 6d bd c4 3e 42 a4 be bd e9 5d 50 bf 5e 27 a5 be
       0.3842577 -0.093086734 -0.81393296 -0.32256597
0000d0 de 07 89 be 06 40 73 bf ce ca 70 bf ce 51 f4 be
       -0.26763815 -0.95019567 -0.94059455 -0.47718662
0000e0 2f 04 f2 be df df 15 be 4e ce eb be 90 1d a7 be
       -0.47268817 -0.14636181 -0.46055835 -0.32639742
0000f0 17 58 aa be f7 d5 62 bf 1c 17 c0 be 6e 91 20 bf
       -0.33270332 -0.88607734 -0.3751763 -0.6272191
000100 f3 c9 06 be a9 86 c6 be fb 1e 10 3d f7 e6 70 be
       -0.13162975 -0.38774613 0.035185795 -0.23525606
000110 e8 0c 2c bf 00 59 a5 be 41 9f a8 bd f0 ca d8 be
       -0.67207193 -0.32294464 -0.082335 -0.4234233
000120 ba ad a7 be 03 e2 00 bd 98 8e 93 3e 49 07 23 bf
       -0.3274973 -0.03146554 0.28819728 -0.6368299
000130 86 d5 d9 be 26 38 ae be f7 ba 57 bd 4b a5 83 bd
       -0.42545718 -0.34027213 -0.052668538 -0.064280115
000140 b3 f2 cb be 5c dc 2a be 1f e6 93 3d f5 f5 d1 3e
       -0.39833602 -0.16685623 0.072216265 0.41007963
000150 a3 0d a0 3e af ad d2 3e ae f7 78 3e 5a 78 a0 3e
       0.31260404 0.41148135 0.24313232 0.3134182
000160 3a 99 0f 3e 2c 22 4c be e8 35 dd 3d 3b dc 1b 3e
       0.14023295 -0.1993491 0.108012974 0.1522073
000170 bc dc 2c 3f e0 19 2d 3f 80 f5 55 3d ef 2c 96 bb
       0.67524314 0.6761761 0.05223608 -0.004582993
000180 98 02 46 be 8c c6 4e be 98 8e eb be 93 7b 5c bd
       -0.19336927 -0.20192927 -0.46007228 -0.053828787
000190 e7 e5 e1 3b bb 86 13 be 07 68 08 be 54 7f 8c be
       0.0068938616 -0.14406864 -0.13320933 -0.27440894
0001a0 86 49 1d bd 53 9b 82 be 90 ae 41 bf 9e 42 f4 be
       -0.038400196 -0.25509128 -0.75656986 -0.47707075
0001b0 d3 62 08 3e ec b9 c1 bd 0d 5c ae be 78 30 b6 be
       0.13318948 -0.0945929 -0.34054604 -0.35583854
0001c0 93 f5 8c be 55 4a b0 be 5d cb 1f be c4 94 3b be
       -0.27531108 -0.3443171 -0.1560492 -0.18318468
0001d0 a4 63 5a be 6c 47 ed 3c 9f 0a 89 3e 82 70 98 be
       -0.21327072 0.02896472 0.26765916 -0.29773337
0001e0 9f b5 a0 be 5b a2 bf 3c a1 17 98 be 49 d9 63 bd
       -0.31388566 0.023392847 -0.29705527 -0.05562714
0001f0 d9 81 03 be f8 71 bb be 8d 18 6d be 70 59 b7 be
       -0.12842502 -0.3661039 -0.23153897 -0.35810423
000200 99 70 a4 3e ed 65 3a 3e 73 a7 fb 3c 37 36 28 be
       0.32117155 0.18202944 0.030719494 -0.16426931
000210 17 54 a5 be d3 0f ad be 77 d6 02 3e fa e3 a1 bd
       -0.32290718 -0.33801135 0.12777124 -0.07904811
000220 2c b2 ed be 7e d0 38 3c 33 da e2 3e 4a c6 a8 bc
       -0.46424997 0.011280177 0.44307098 -0.020602364
000230 45 d5 01 bf 76 dc 16 bf 91 41 7e be 8c 2c 92 3e
       -0.5071605 -0.58930147 -0.24829699 0.28549612
000240 41 62 ef bd 4e 91 e3 3c 82 eb c5 be 01 ab e6 bb
       -0.11688662 0.027779248 -0.3865624 -0.007039428
000250 4b 2a 4b be bf 2c 6f be f8 e3 35 be 1d 27 51 be
       -0.19840352 -0.23356913 -0.17762744 -0.20425077
000260 bf 0e 34 be 8c e3 60 bc 9f 36 d9 3d c1 fc 6b be
       -0.1758375 -0.013726126 0.10606121 -0.23045637
000270 bf aa 31 bf 0a 0b 36 be 07 35 11 bf e9 61 0e bf
       -0.6940116 -0.17777649 -0.5672154 -0.5561815
000280 be c7 97 be dc 6f 14 3e 61 5a 80 3e 60 66 85 3e
       -0.2964458 0.14495796 0.25068954 0.26054668
000290 25 15 e4 3e 7f 38 45 3f 2f 94 1a 3f f7 f5 b3 3e
       0.44547382 0.7703933 0.6038236 0.35148594
0002a0 57 d8 1d 3f 56 58 a1 3e 29 24 83 bd ee 26 a5 3e
       0.61658233 0.31512707 -0.064033814 0.32256263
0002b0 0c 26 00 3f c6 83 6d 3f 0f e3 35 3f 16 2d 66 3e
       0.50058055 0.92779195 0.7104959 0.22478136
0002c0 0e 26 62 3e c8 7a 10 be e5 76 a6 be 5e e4 9a be
       0.22084829 -0.14109337 -0.32512584 -0.30252355
0002d0 32 9b 9d be d0 84 f5 be c2 7e 9d be 8c 71 07 be
       -0.30782467 -0.4795289 -0.3076077 -0.13226908
0002e0 9f e1 86 3e 0a 20 0b bd b0 d4 14 bd 49 3c 4c bd
       0.2634401 -0.0339661 -0.036335647 -0.04986218
0002f0 da fb 69 bf 9d 2f 86 bf f0 66 b7 be 38 4d 06 3e
       -0.9139992 -1.048328 -0.35820723 0.13115394
000300 72 53 49 be 42 90 fd be 8c 1a 93 be ac 86 4e 3e
       -0.19660738 -0.49524122 -0.2873119 0.2016856
000310 6c e0 79 bc 7b 28 8c be d3 e5 ba bd 59 53 e7 3d
       -0.01525126 -0.27374634 -0.09125867 0.11295194
000320 ba 63 99 be 3e 2b c8 3e 2c ca b9 bd ef 7d 51 be
       -0.29958898 0.3909549 -0.09071764 -0.20458196
000330 e2 62 73 be 0f 7a f4 bd dc 9a 38 3c dd 21 b4 be
       -0.2376819 -0.11937343 0.01126739 -0.35182086
000340 4d ff e8 bd b5 78 13 bd bf 79 27 3c 4b de 58 3e
       -0.1137682 -0.036003787 0.010221898 0.21178548
000350 13 8e 52 3e cd a4 ea 3e ab da 18 3f 2f 8c ad 3e
       0.2056201 0.45828858 0.5970866 0.33896014
000360 8d 1c d2 3e 1e 0c ff bc c8 c0 02 bf dd 64 ce 3d
       0.41037408 -0.031133708 -0.5107541 0.10077832
000370 42 b3 04 3f 53 bf 57 3f 3a 47 18 3f b4 84 03 3e
       0.51836026 0.8427631 0.59483683 0.12843591
000380 49 26 79 3c 38 34 21 bd d2 96 53 3e 2a e0 3b be
       0.015206882 -0.03935644 0.20663002 -0.1834723
000390 8f f6 c3 be 80 19 66 bd 66 1c 98 be ea 96 5e be
       -0.38274047 -0.056176662 -0.29709166 -0.21737257
0003a0 5f d0 d0 bd 81 8d 48 be 13 32 ac 3d 92 34 d6 3d
       -0.10195994 -0.1958523 0.084079884 0.10459246
0003b0 3e 42 1a bf 64 98 c8 be c4 5f a9 be 20 ed 0e bd
       -0.6025733 -0.39178765 -0.33080876 -0.03489411
0003c0 8c a7 38 bf d2 ac e3 3e fa 3e f2 be d1 01 08 3f
       -0.72130656 0.4446779 -0.47313672 0.5312777
0003d0 4a 42 8b 3f 90 e3 6e 3f 7c f7 e2 3e a3 dc 36 3e
       1.0879605 0.9331598 0.4432944 0.17857604
0003e0 c0 4d ee 3e c5 70 b3 3e 24 09 56 bd 9a b6 fe 3d
       0.46543694 0.35046974 -0.05225481 0.12437172
0003f0 4d 89 9c 3e cf 76 ca 3e f1 30 06 3f 22 bc 0f 3e
       0.30573502 0.3954377 0.5241843 0.1403661

net.fc.bias f4 [32]
000000 32 82 68 bf f1 03 45 3e 62 45 1a bf 38 d4 a3 3f
       -0.9082366 0.19239785 -0.6026212 1.2799139
000010 ed 46 73 bf df 59 46 be 5a b4 9b bf 72 7c 5a 3f
       -0.950301 -0.1937022 -1.2164414 0.8534614
000020 c3 45 04 3f 9b d2 8b bf c1 94 29 c0 53 e4 32 3f
       0.5166895 -1.0923647 -2.6497042 0.69879645
000030 ba 28 c6 bf 8f 85 11 3f 79 53 2c 3f a7 3a 4a bf
       -1.5481179 0.5684442 0.6731487 -0.78995746
000040 36 fa 81 bf d2 24 d5 bf 03 40 70 3f bd 2e 59 3f
       -1.0154483 -1.6651862 0.93847674 0.8483694
000050 28 ed 97 3f aa e0 7a be 61 bb 03 3f 88 e0 65 bf
       1.1869249 -0.24499765 0.5145779 -0.8979573
000060 b8 27 f8 bf 43 ea 9c 3e 39 7c 5e 3f d0 66 52 bf
       -1.9387121 0.30647478 0.869083 -0.8218813
000070 cc d0 21 3f 70 94 7b 3f fa 13 96 3f 14 73 99 3f
       0.63209224 0.9827337 1.1724846 1.1988244
