model/sub1_20240206_130642/model.pt (torch, 65706 bytes, 17 tensors)

net.conv.weight f4 [8, 1, 1, 256]
-0.25712407 -0.36336955 -0.534062 -0.6050055 -0.47390822 -0.49670523 -0.6171373 -0.69597185
-0.96290237 -0.92188025 -0.84726304 -0.72367936 -0.48684183 -0.1653352 0.11555794 0.3527622
0.2877944 0.07774512 -0.13620012 -0.45321634 -0.5528976 -0.5949776 -0.46172535 -0.1847172
0.23002426 0.4703538 0.5077496 0.5045408 0.4416362 0.1424228 0.11070552 0.097186565
0.27077088 0.6733272 1.1475477 1.3148268 1.470387 1.411283 1.2747278 0.8532657
0.4578492 0.12820323 -0.055537652 -0.08969604 -0.06834096 0.07808493 -0.040544502 -0.059582524
-0.24567266 -0.48503765 -0.57793874 -0.6419866 -0.71957004 -0.501755 -0.33961648 -0.1071238
-0.0755299 -0.16401042 -0.3210003 -0.5006201 -0.8071105 -1.0750254 -1.179608 -1.1059233
-0.939477 -0.688801 -0.5752759 -0.44053012 -0.39233717 -0.32284024 -0.134234 -0.058790248
0.07987672 0.18436135 0.3913748 0.59903634 0.63366663 0.5716075 0.45988646 0.42178243
0.25618443 0.18293722 0.0894967 0.29819328 0.42984405 0.56155664 0.6660449 0.6813096
0.55424815 0.31553787 0.11882623 -0.12892729 -0.22934267 -0.08527972 0.14593518 0.4900563
0.6538588 0.74665403 0.5581737 0.27526456 -0.11061788 -0.43667632 -0.67028296 -0.68653613
-0.6285009 -0.4499123 -0.1984753 -0.18292369 -0.25396195 -0.563329 -0.886457 -1.3626069
-1.568126 -1.6668789 -1.4193575 -0.9133057 -0.3691221 0.12773857 0.3426872 0.46495178
0.3600527 0.29534543 0.058132272 0.075949214 0.13138926 0.3656568 0.52792007 0.5797933
0.5748385 0.35192996 0.16164348 -0.040086623 -0.24263604 -0.19736975 -0.21407814 -0.021272529
0.2264202 0.4579973 0.6048783 0.6881975 0.5234125 0.3874244 0.1300136 -0.014235179
0.028454974 0.21550335 0.31987357 0.40184355 0.38771236 0.33960858 0.024215572 -0.4996761
-0.85989213 -1.0711172 -1.0834237 -0.98691547 -0.7464622 -0.43371892 -0.30126134 -0.29393864
-0.5574767 -0.7699792 -1.1347461 -1.2410408 -1.104301 -0.8320627 -0.5102344 -0.2229146
-0.009318276 0.17419146 0.019848708 -0.0376291 -0.2333362 -0.36878273 -0.32071063 -0.25498873
0.02380581 0.34953344 0.5521043 0.68854105 0.6247698 0.5594773 0.45448622 0.33037025
0.24698135 0.39581302 0.6775305 1.1273602 1.3511789 1.3745158 1.3809149 1.1541424
0.73329014 0.39437726 0.043595362 0.018501883 -0.020568358 0.1238842 0.06201164 0.10150976
-0.1026629 -0.40690643 -0.8375793 -1.0685666 -1.1933213 -1.0970527 -0.7910368 -0.4607558
-0.019368265 0.31426913 0.31559718 0.09417322 -0.2894418 -0.7255953 -1.0613239 -1.2984806
-1.2980827 -1.1030939 -0.69115597 -0.25994033 -0.1863933 -0.12668887 -0.43678334 -0.79091114
-0.89319885 -0.6846783 -0.4184793 -0.03788571 0.50395215 1.0229232 1.2848669 1.230814
1.1060693 0.7297619 0.22341633 0.013526332 0.031511247 0.33149555 0.834513 1.158461
1.36022 1.2670782 0.978519 0.61588985 0.14512095 -0.05159065 -0.21838266 -0.17221081
-0.18640397 -0.06734259 -0.08759909 -0.20961249 -0.57806504 -1.1188889 -1.623821 -1.9278033
00000000: c4a5 83be 930b babe 4ab8 08bf a4e1 1abf
00000010: 19a4 f2be 2650 febe b6fc 1dbf 362b 32bf
00000020: c580 76bf 5800 6cbf 3be6 58bf 0d43 39bf
00000030: 5543 f9be a14d 29be a4a9 ec3d 3f9d b43e
00000040: ca59 933e d538 9f3d 0b78 0bbe f90b e8be
00000050: b28a 0dbf 7450 18bf 4467 ecbe 8126 3dbe
00000060: 7b8b 6b3e 37d2 f03e e1fb 013f 9629 013f
00000070: 241e e23e 48d7 113e 93b9 e23d c009 c73d
00000080: 7ba2 8a3e 2c5f 2c3f d8e2 923f 3f4c a83f
00000090: a435 bc3f eca4 b43f 482a a33f 9f6f 5a3f
000000a0: 366b ea3e b547 033e 737b 63bd 8fb2 b7bd
000000b0: 58f6 8bbd feea 9f3d fe11 26bd ce0c 74bd
000000c0: 9d91 7bbe db56 f8be cbf3 13bf 3c59 24bf
000000d0: be35 38bf 0473 00bf 36e2 adbe b963 dbbd
000000e0: 6caf 9abd 59f2 27be 275a a4be a428 00bf
000000f0: cb9e 4ebf 6f9a 89bf 65fd 96bf e58e 8dbf
00000100: 9181 70bf 4355 30bf 4845 13bf 2a8d e1be
00000110: 6be0 c8be 514b a5be a374 09be 0bce 70bd
00000120: 6896 a33d 39c9 3c3e 4762 c83e 725a 193f
00000130: fa37 223f de54 123f 3d76 eb3e def3 d73e
00000140: 9b2a 833e e553 3b3e 0c4a b73d caac 983e
00000150: 8514 dc3e 2dc2 0f3f eb81 2a3f 4e6a 2e3f
00000160: 35e3 0d3f 2e8e a13e 2b5b f33d 8405 04be
00000170: ced8 6abe 22a7 aebd 0870 153e a9e8 fa3e
00000180: 4a63 273f b824 3f3f 79e4 0e3f 7aef 8c3e
00000190: a18b e2bd 0a94 dfbe aa97 2bbf d5c0 2fbf
000001a0: 6fe5 20bf e85a e6be 1c3d 4bbe 5950 3bbe
000001b0: 4d07 82be 5436 10bf d9ee 62bf e769 aebf
000001c0: 5ab8 c8bf 4a5c d5bf 82ad b5bf 67ce 69bf
000001d0: 92fd bcbe e6cd 023e b274 af3e 290e ee3e
000001e0: d458 b83e 8437 973e 1b1c 6e3d 438b 9b3d
000001f0: e88a 063e 5e37 bb3e c525 073f 556d 143f
00000200: 9e28 133f 2a30 b43e de85 253e df31 24bd
00000210: 9575 78be 4c1b 4abe 4d37 5bbe ba43 aebc
00000220: b2da 673e 9f7e ea3e 4ed9 1a3f b62d 303f
00000230: 5dfe 053f 7e5c c63e 4922 053e ab3a 69bc
00000240: 681a e93c e9ac 5c3e 78c6 a33e 70be cd3e
00000250: 3c82 c63e 2de1 ad3e bc5f c63c 8cd5 ffbe
00000260: e421 5cbf 5e1a 89bf a1ad 8abf 7ea6 7cbf
00000270: 2618 3fbf 6810 debe ed3e 9abe 207f 96be
00000280: cbb6 0ebf 5b1d 45bf 5c3f 91bf 6dda 9ebf
00000290: bc59 8dbf 1002 55bf b99e 02bf ba43 64be
000002a0: afab 18bc 3f5f 323e c299 a23c f920 1abd
000002b0: afef 6ebe 17d1 bcbe 2f34 a4be e28d 82be
000002c0: 6704 c33c 0cf6 b23e b556 0d3f 3a44 303f
000002d0: eaf0 1f3f e839 0f3f 6bb2 e83e 4a26 a93e
000002e0: aee8 7c3e 01a8 ca3e a472 2d3f 574d 903f
000002f0: 6ef3 ac3f 22f0 af3f d2c1 b03f f0ba 933f
00000300: e7b8 3b3f d1eb c93e 0d91 323d 4391 973c
00000310: f97e a8bc 00b7 fd3d ebff 7d3d 59e4 cf3d
00000320: ed40 d2bd 0a56 d0be 996b 56bf cac6 88bf
00000330: c1be 98bf 396c 8cbf 6381 4abf 2fe8 ebbe
00000340: 32aa 9ebc e2e7 a03e f495 a13e e4dd c03d
00000350: b731 94be 9dc0 39bf 76d9 87bf 9d34 a6bf
00000360: 9327 a6bf 2e32 8dbf 99ef 30bf e616 85be
00000370: e3dd 3ebe baba 01be 11a2 dfbe 2779 4abf
00000380: aea8 64bf 1447 2fbf eb42 d6be 0c2e 1bbd
00000390: 0203 013f 26ef 823f 8576 a43f 508b 9d3f
000003a0: ae93 8d3f add1 3a3f 40c7 643e 8c9d 5d3c
000003b0: f011 013d c9b9 a93e a5a2 553f 7348 943f
000003c0: b01b ae3f 9e2f a23f 3980 7a3f f5aa 1d3f
000003d0: 969a 143e b850 53bd b49f 5fbe 0858 30be
000003e0: afe0 3ebe e9ea 89bd 2767 b3bd a8a4 56be
000003f0: 12fc 13bf c037 8fbf 5ed9 cfbf 42c2 f6bf

net.bn1.weight f4 [8]
1.4752706 1.875799 2.047064 1.3871509 1.0564512 1.9076369 1.0733815 0.8108795
00000000: abd5 bc3f 2e1a f03f 1903 0340 298e b13f
00000010: cb39 873f 722d f43f 9164 893f cd95 4f3f

net.bn1.bias f4 [8]
-0.054079458 -0.066988625 -0.21119472 -0.057281334 -0.12362553 0.27751663 -0.056300547 0.120326266
00000000: 6c82 5dbd 5531 89bd 6e43 58be d59f 6abd
00000010: 622f fdbd a916 8e3e 679b 66bd 9e6d f63d

net.bn1.running_mean f4 [8]
0.001593925 -0.0018089153 -0.0022949004 0.00082168303 0.0002565831 0.0010097767 0.0009879834 9.9982666e-05
00000000: 3feb d03a 2019 edba 0a66 16bb 3766 573a
00000010: 0086 8639 7c5a 843a 397f 813a c9ad d138

net.bn1.running_var f4 [8]
1173.0763 1010.31 1213.54 932.3351 518.568 1147.7324 782.8926 490.05386
00000000: 71a2 9244 d793 7c44 48b1 9744 7215 6944
00000010: 5aa4 0144 7077 8f44 20b9 4344 e506 f543

net.depth_conv.weight f4 [16, 1, 32, 1]
-0.29238546 0.32506058 0.6086253 0.19977672 0.7632526 -0.6435723 0.8328017 0.61443824
-0.9986104 0.53149945 -1.3459325 -0.4235269 -0.6953799 0.19389644 0.3621213 0.49889636
0.05292133 0.46044877 1.4848149 0.9181681 -0.3486799 0.14119644 0.246136 -1.5815887
-1.4795356 1.3901353 -0.4214078 -1.3934003 -0.31600666 -0.56407315 0.5856654 0.30883417
-0.19218396 0.80539215 0.91640586 0.21842812 1.5478618 0.3742007 -0.5009164 -0.14037874
-1.7879506 0.8224647 -0.40491202 -0.2828806 -1.5701545 -0.5287894 0.060542163 0.4919984
-0.17494036 0.42914274 0.9164181 1.1021639 0.58742523 1.6306313 0.51235694 -1.3026577
-1.5893427 0.63387746 -0.0073036393 -0.55774856 -1.2212194 -0.8348255 0.47388238 0.24551843
0.22266048 1.017893 0.29114276 -0.46946427 0.2344245 -0.14960292 0.4670604 -0.28923827
-0.33888352 -2.6737428 0.101220205 0.4694962 0.4753598 1.239135 -0.37836072 0.37958625
0.13788724 0.23569283 0.3497757 0.490427 0.91545403 -0.3947584 0.11754019 -0.0061061396
-1.1700258 -0.19543217 -1.0988877 -0.23761238 0.0336957 -0.3016062 0.5709842 0.37110755
-0.22148599 -0.77739674 -0.92993456 -0.785189 -1.0462885 0.57489675 0.39576235 1.2191119
-0.6401529 2.3708923 -0.5623983 0.24565506 0.003698209 -0.40310195 -0.07133521 -0.26860467
-0.16511594 -0.84372777 -0.3204459 -0.22957489 -0.6302373 -0.09512167 -0.50580114 0.6388355
0.46473473 -0.46762866 1.616482 0.4783838 -0.6430051 0.74739474 -0.64858085 0.20145842
-0.15057519 -1.1178908 -0.599521 -0.46525082 -0.16065681 0.3741094 -0.20159757 1.1937711
0.15238467 3.0212636 -0.07127118 -0.13079345 -0.80715394 -1.4489155 0.25757635 -0.10406022
-0.17729299 -0.32927686 -0.80750346 -0.28177202 -0.81730765 0.72263324 0.087292515 0.44525257
0.4966034 0.4808272 1.0569584 1.0037136 -0.35850623 -0.036616415 -0.63906443 0.3805125
0.26322395 0.44803196 -0.5299234 -1.0402753 -1.2482219 0.45047158 0.5761807 1.3657863
-1.1321621 0.012619403 -0.60554594 0.5871738 0.71840185 1.1509582 -0.42485324 -0.3292383
-0.037013512 -0.62622964 0.580446 -0.017500345 0.21354146 -0.8897966 -0.5262282 0.743736
-0.55703497 -0.99460375 1.3293991 0.16188265 -1.0138775 1.4035612 -0.11553488 0.21292756
0.5242079 -0.34909925 0.32294774 -0.05327462 0.7459432 -0.3240129 -1.3047312 0.095406964
-0.14728855 -0.25194713 -0.7056447 -0.30723894 0.5047543 -0.30986843 -0.5151361 0.5706093
-0.19608021 0.03710355 -0.64712805 -0.81641734 0.054358367 -0.0392101 0.120395504 0.63793105
2.0904388 -1.7512447 2.2421765 1.4062291 -0.27600718 -1.1374067 0.33153677 0.23011409
0.14581466 -0.50239754 0.30888128 -0.6566127 0.99923223 -0.1161279 -0.48415884 0.5088283
0.030546397 -0.25118962 -1.8398178 -0.12589699 -0.1350831 0.11039166 -0.16620621 0.9889208
0.88961375 -0.007093095 -0.20530511 -0.5299569 -0.34659973 -0.8599999 0.41753602 0.25900537
1.8661195 -1.2480433 2.17373 1.4688725 -0.22514653 -1.3045146 0.1667882 0.04093653
00000000: 8cb3 95be 576e a63e dece 1b3f 4592 4c3e
00000010: 8664 433f 27c1 24bf 7e32 553f d34b 1d3f
00000020: eea4 7fbf 5910 083f 8447 acbf 85d8 d8be
00000030: 6b04 32bf ca8c 463e f767 b93e 586f ff3e
00000040: 09c4 583d f1bf eb3e 6a0e be3f 110d 6b3f
00000050: 2c86 b2be cd95 103e 130b 7c3e 8071 cabf
00000060: 6c61 bdbf f4ef b13f c3c2 d7be f15a b2bf
00000070: a0cb a1be 1967 10bf 2bee 153f 831f 9e3e
00000080: dfcb 44be 2e2e 4e3f 9399 6a3f 9fab 5f3e
00000090: 5620 c63f 3c97 bf3e 0f3c 00bf 72bf 0fbe
000000a0: 91db e4bf 0c8d 523f a150 cfbe bad5 90be
000000b0: d3fa c8bf be5e 07bf 0ffb 773d 37e7 fb3e
000000c0: 9123 33be 99b8 db3e 609a 6a3f b513 8d3f
000000d0: 8061 163f 87b8 d03f d329 033f 7dbd a6bf
000000e0: 956f cbbf cb45 223f 5e53 efbb 9cc8 0ebf
000000f0: eb50 9cbf 20b7 55bf b6a0 f23e 2f69 7b3e
00000100: 1c01 643e 514a 823f aa10 953e 9f5d f0be
00000110: fa0c 703e 8231 19be 8a22 ef3e 0a17 94be
00000120: 2482 adbe 9a1e 2bc0 8a4c cf3d ce61 f03e
00000130: 5c62 f33e fa9b 9e3f 7fb8 c1be 2159 c23e
00000140: 5032 0d3e 7659 713e cd15 b33e 3f19 fb3e
00000150: 325b 6a3f c61d cabe e9b8 f03d 0316 c8bb
00000160: 68c3 95bf 5f1f 48be 5aa8 8cbf a950 73be
00000170: 8104 0a3d 216c 9abe 052c 123f cf01 be3e
00000180: 39cd 62be 7903 47bf 3110 6ebf 2502 49bf
00000190: c8ec 85bf 6f2c 133f 5da1 ca3e dc0b 9c3f
000001a0: 0fe1 23bf b3bc 1740 56f9 0fbf 008d 7b3e
000001b0: a75d 723b 6163 cebe 3218 92bd 8d86 89be
000001c0: 2714 29be 8bfe 57bf 7c11 a4be ae15 6bbe
000001d0: 3b57 21bf 26cf c2bd 2f7c 01bf b98a 233f
000001e0: b6f1 ed3e 066d efbe e2e8 ce3f b9ee f43e
000001f0: fb9b 24bf 4355 3f3f 6509 26bf 1e4b 4e3e
00000200: 6230 1abe 0c17 8fbf 357a 19bf 5b35 eebe
00000210: 3883 24be 448b bf3e 986f 4ebe 7ecd 983f
00000220: ba0a 1c3e 625c 4140 a0f6 91bd b8ee 05be
00000230: a4a1 4ebf 1076 b9bf 0ce1 833e 861d d5bd
00000240: 4b8c 35be fa96 a8be 8cb8 4ebf 6c44 90be
00000250: 133b 51bf 7efe 383f 6bc6 b23d 25f8 e33e
00000260: cd42 fe3e fc2e f63e 6a4a 873f b079 803f
00000270: 218e b7be 18fb 15bd ba99 23bf 89d2 c23e
00000280: 4ac5 863e 7264 e53e 0fa9 07bf be27 85bf
00000290: bcc5 9fbf 36a4 e63e 9480 133f 16d2 ae3f
000002a0: b0ea 90bf 9dc1 4e3c 0f05 1bbf 0651 163f
000002b0: 2fe9 373f 9952 933f 5d86 d9be ec91 a8be
000002c0: 7b9b 17bd 9650 20bf 1c98 143f e25c 8fbc
000002d0: 9daa 5a3e b6c9 63bf e4b6 06bf 7c65 3e3f
000002e0: d899 0ebf 5a9e 7ebf c029 aa3f 91c4 253e
000002f0: bdc6 81bf e5a7 b33f 8d9d ecbd af09 5a3e
00000300: 7d32 063f 23bd b2be 6859 a53e 7d36 5abd
00000310: 22f6 3e3f 05e5 a5be 6f01 a7bf ba64 c33d
00000320: cfd2 16be 37ff 80be 22a5 34bf 6c4e 9dbe
00000330: 9437 013f 13a7 9ebe f6df 03bf 7313 123f
00000340: 40c9 48be e4f9 173d 2faa 25bf ba00 51bf
00000350: e1a6 5e3d c59a 20bd eb91 f63d 734f 233f
00000360: c0c9 0540 c928 e0bf d27f 0f40 51ff b33f
00000370: d050 8dbe 8b96 91bf 30bf a93e 07a3 6b3e
00000380: 7050 153e 209d 00bf b025 9e3e c517 28bf
00000390: afcd 7f3f 77d4 edbd abe3 f7be 9242 023f
000003a0: 703c fa3c ed9b 80be 267f ebbf 24eb 00be
000003b0: 3953 0abe 0615 e23d f631 2abe ea29 7d3f
000003c0: babd 633f 326d e8bb 813b 52be 41ab 07bf
000003d0: 8575 b1be f428 5cbf 48c7 d53e 5a9c 843e
000003e0: 01dd ee3f e2bf 9fbf 641e 0b40 0404 bc3f
000003f0: d08c 66be 56fa a6bf 87ca 2a3e 10ad 273d

net.bn2.weight f4 [16]
1.6082132 1.5463845 2.320668 2.17039 2.3909743 2.2038424 1.6544306 1.662522
1.0663613 1.5804037 2.0917027 2.3074427 1.6850793 1.6572019 1.3961663 1.5333381
00000000: eed9 cd3f edef c53f d385 1440 abe7 0a40
00000010: b905 1940 c10b 0d40 62c4 d33f 85cd d43f
00000020: 877e 883f ab4a ca3f 75de 0540 24ad 1340
00000030: aeb0 d73f 311f d43f 94b5 b23f 6c44 c43f

net.bn2.bias f4 [16]
-0.4731799 -0.47187722 -0.6999437 -0.6734566 -0.72263414 -0.75565654 -0.40026215 -0.46020305
-0.19491123 -0.44107094 -0.6555116 -0.7223488 -0.43640742 -0.47217914 -0.39110973 -0.40709558
00000000: a344 f2be e499 f1be 832f 33bf a767 2cbf
00000010: 8dfe 38bf b572 41bf 29ef ccbe bc9f ebbe
00000020: cf96 47be 0dd4 e1be 9ccf 27bf daeb 38bf
00000030: cb70 dfbe 77c1 f1be 893f c8be d56e d0be

net.bn2.running_mean f4 [16]
-0.0028609652 -0.037461255 -0.026799612 0.08914532 -0.20069909 -0.028845659 -0.03724244 -0.07196045
-0.18005002 0.047608405 -0.25773054 0.55343515 0.02664988 0.005031772 -0.076509535 0.08119158
00000000: 087f 3bbb f970 19bd dc8a dbbc d291 b63d
00000010: 1084 4dbe bb4d ecbc 878b 18bd 0060 93bd
00000020: 085f 38be 0801 433d 42f5 83be edad 0d3f
00000030: d950 da3c 90e1 a43b 08b1 9cbd c547 a63d

net.bn2.running_var f4 [16]
21.333363 6.970661 19.13994 14.704643 26.774527 20.757864 26.690128 18.911001
36.744442 25.558802 12.176233 15.084659 39.429592 33.376915 10.066746 9.20556
00000000: baaa aa41 a80f df40 991e 9941 3846 6b41
00000010: 3b32 d641 1b10 a641 6285 d541 bb49 9741
00000020: 4ffa 1242 6d78 cc41 dad1 4241 c35a 7141
00000030: e7b7 1d42 f681 0542 6411 2141 f949 1341

net.point_conv.weight f4 [16, 16, 1, 16]
0.34469897 0.45536765 0.6641879 0.5039931 0.49086735 0.34179983 0.21158886 0.15539762
-0.014484399 0.08468379 -0.03954341 0.06413175 0.1543954 0.27494228 0.42692405 0.5570717
0.19620131 0.2966956 0.5603069 0.6796616 0.81068355 0.991167 1.0371323 1.1298317
0.950184 0.84443027 0.5493901 0.3356862 0.23996207 0.22114144 0.27605188 0.48654127
0.10324413 0.1927364 0.20689502 0.26362407 0.22855474 0.32971215 0.3276715 0.4015097
0.53185683 0.53562665 0.6298002 0.6441205 0.5542679 0.52829415 0.41697508 0.44470403
-0.14316098 -0.08042679 0.0843668 0.1968808 0.16892727 0.17349173 0.115083314 0.100183256
-0.01873555 0.11320849 0.023498442 0.09967847 0.114731975 0.19557917 0.2678654 0.22580461
0.075669475 0.17268719 0.20509534 0.3157207 0.44762847 0.34853208 0.4200342 0.41044906
0.27819327 0.14756095 0.07185514 0.14189774 0.024660928 0.14425212 0.22494115 0.21227384
-0.28251544 -0.23830858 -0.24010609 -0.13955033 0.1105075 0.07957451 0.20149937 0.15077132
-0.047548212 -0.061716642 -0.24749261 -0.35981637 -0.5020401 -0.5980667 -0.489215 -0.28219894
1.0799086 0.918912 0.76856315 0.6774452 0.6874357 0.71310717 0.68399817 0.64415944
0.71316385 0.831482 0.8973295 0.8612262 0.64493483 0.41669428 0.34459788 0.231994
1.1327617 1.0397401 0.9151122 0.95015067 1.0959271 1.0807716 1.0426463 0.82164973
0.7170922 0.8535939 0.94666684 0.87791175 0.8298638 0.6978767 0.70507634 0.58995247
0.23090562 0.35502926 0.47162497 0.51826686 0.5616471 0.5408272 0.62233317 0.53821796
0.52715784 0.48669374 0.23913541 0.12004067 -0.1367451 -0.21671657 -0.3288298 -0.3406487
0.4542586 0.4940692 0.44037747 0.39812776 0.38119787 0.31747648 0.18534233 0.092430845
0.086469695 0.09602258 0.16694553 0.23459822 0.40008587 0.41688138 0.5055856 0.5403385
-0.35347244 -0.15458761 -0.042574514 0.07594948 0.14068604 0.054647982 0.096806295 0.028447447
-0.11117061 -0.3428305 -0.42473552 -0.4109193 -0.30185392 -0.27700925 -0.21789403 -0.18924823
0.3082904 0.2894306 0.4257762 0.41881114 0.4186054 0.3043645 0.26646128 0.2278211
0.12604827 0.1334083 0.02491059 0.11032287 0.13274276 0.17798238 0.09896629 0.117612466
0.9480804 0.96397793 0.9346422 0.99790823 1.0468441 0.8758626 0.82879436 0.83866954
0.7574909 0.65766525 0.7080859 0.5899997 0.49061802 0.59997696 0.6514241 0.7008099
0.67923635 0.582811 0.5544535 0.402717 0.4454853 0.46777454 0.29215264 0.3825698
0.28930685 0.23585458 0.22353025 0.34709433 0.3202485 0.34170243 0.29722327 0.5213369
0.36932907 0.5193876 0.6431305 0.79641265 0.6929457 0.68058604 0.6231423 0.671149
0.66334957 0.61591274 0.5551037 0.53092563 0.37308246 0.35667694 0.3592487 0.40773782
0.37335974 0.44597116 0.35017383 0.45463958 0.49496126 0.5537234 0.55656147 0.56637496
0.57823616 0.42511466 0.45430022 0.34493396 0.27786282 0.2587874 0.20550387 0.15657736
00000000: 627c b03e f325 e93e 3808 2a3f b105 013f
00000010: f752 fb3e 6300 af3e c0aa 583e 8e20 1f3e
00000020: f94f 6dbc b26e ad3d 45f8 21bd 8257 833d
00000030: d419 1e3e 3cc5 8c3e ca95 da3e 409c 0e3f
00000040: ffe8 483e 7ce8 973e 4670 0f3f 4dfe 2d3f
00000050: f588 4f3f 1fbd 7d3f c0c0 843f 539e 903f
00000060: 423f 733f 952c 583f d4a4 0c3f 10df ab3e
00000070: 9eb8 753e e772 623e ac56 8d3e f01b f93e
00000080: a971 d33d b15c 453e 4adc 533e bcf9 863e
00000090: 410a 6a3e 08d0 a83e 8fc4 a73e ae92 cd3e
000000a0: c527 083f d41e 093f 963a 213f 15e5 243f
000000b0: 80e4 0d3f 493e 073f c27d d53e 3fb0 e33e
000000c0: cb98 12be cdb6 a4bd 80c8 ac3d 1f9b 493e
000000d0: 45fb 2c3e d1a7 313e cdb0 eb3d e12c cd3d
000000e0: 4c7b 99bc dad9 e73d ce7f c03c 3a24 cc3d
000000f0: 99f8 ea3d e845 483e a725 893e 5339 673e
00000100: 99f8 9a3d e9d4 303e 8304 523e 25a6 a13e
00000110: 8f2f e53e cc72 b23e b90e d73e 6126 d23e
00000120: 596f 8e3e 381a 173e ca28 933d a44d 113e
00000130: b705 ca3c d4b6 133e f956 663e 505e 593e
00000140: dda5 90be 2a07 74be 5fde 75be 48e6 0ebe
00000150: c251 e23d f6f7 a23d da55 4e3e cc63 1a3e
00000160: eac1 42bd 97ca 7cbd b46e 7dbe da39 b8be
00000170: b385 00bf e61a 19bf 637a fabe 617c 90be
00000180: 723a 8a3f d13d 6b3f 8ec0 443f 0c6d 2d3f
00000190: c9fb 2f3f 318e 363f 811a 2f3f a2e7 243f
000001a0: e891 363f 01dc 543f 63b7 653f 5279 5c3f
000001b0: 731a 253f f458 d53e 226f b03e d68f 6d3e
000001c0: 56fe 903f 3416 853f cb44 6a3f 133d 733f
000001d0: 5747 8c3f b956 8a3f 6f75 853f a357 523f
000001e0: 5b93 373f 2185 5a3f c258 723f d3be 603f
000001f0: f471 543f 0ca8 323f e27f 343f 2007 173f
00000200: 8672 6c3e 65c6 b53e d478 f13e 23ad 043f
00000210: 1bc8 0f3f a773 0a3f 3a51 1f3f a7c8 093f
00000220: d1f3 063f ec2f f93e eadf 743e e2d7 f53d
00000230: e806 0cbe f3ea 5dbe 615c a8be 8269 aebe
00000240: 9594 e83e a3f6 fc3e 2879 e13e 67d7 cb3e
00000250: 5e2c c33e 478c a23e 61ca 3d3e 624c bd3d
00000260: 0617 b13d 7da7 c43d c5f3 2a3e 843a 703e
00000270: 0ed8 cc3e 7a71 d53e 0f6e 013f a053 0a3f
00000280: 57fa b4be 374c 1ebe 9d62 2ebd 678b 9b3d
00000290: 0010 103e 90d6 5f3d 6142 c63d 9f0a e93c
000002a0: 6bad e3bd 7b87 afbe ef76 d9be 0464 d2be
000002b0: 998c 9abe 28d4 8dbe 9d1f 5fbe 4aca 41be
000002c0: 3dd8 9d3e 3f30 943e 57ff d93e 6a6e d63e
000002d0: 7253 d63e aad5 9b3e 9d6d 883e ef49 693e
000002e0: cc12 013e 2f9c 083e 4b11 cc3c f5f0 e13d
000002f0: b8ed 073e 0341 363e d7ae ca3d cede f03d
00000300: 66b5 723f 42c7 763f b644 6f3f ea76 7f3f
00000310: fdfe 853f 8838 603f de2b 543f 0cb3 563f
00000320: ecea 413f c05c 283f 1e45 353f 380a 173f
00000330: 4932 fb3e 1798 193f bbc3 263f 4768 333f
00000340: 6fe2 2d3f 1a33 153f aaf0 0d3f ec30 ce3e
00000350: a616 e43e 2580 ef3e 0895 953e 30e0 c33e
00000360: 0720 943e dd83 713e 1de5 643e 59b6 b13e
00000370: 9df7 a33e 9ff3 ae3e a62d 983e 5676 053f
00000380: b318 bd3e 96f6 043f 33a4 243f b3e1 4b3f
00000390: e464 313f e33a 2e3f 4186 1f3f 6cd0 2b3f
000003a0: 47d1 293f 75ac 1d3f 471b 0e3f beea 073f
000003b0: aa04 bf3e 5c9e b63e 72ef b73e 03c3 d03e
000003c0: 0229 bf3e 5556 e43e fc49 b33e 85c6 e83e
000003d0: 906b fd3e d1c0 0d3f d07a 0e3f f3fd 103f
000003e0: 4907 143f a1a8 d93e 0a9a e83e 2f9b b03e
000003f0: 0944 8e3e c87f 843e 9b6f 523e d155 203e

net.bn3.weight f4 [16]
0.8044986 1.9910041 2.0817852 1.791022 1.4804877 1.5366523 0.54484135 0.73948944
1.7197567 1.286228 2.0490348 1.7186699 0.91642886 1.7734412 1.2962831 1.9813358
00000000: 9ff3 4d3f 39d9 fe3f f83b 0540 3540 e53f
00000010: 9f80 bd3f 06b1 c43f b97a 0b3f 2e4f 3d3f
00000020: fd20 dc3f 1ea3 a43f 6323 0340 60fd db3f
00000030: 159b 6a3f 1f00 e33f 9bec a53f 699c fd3f

net.bn3.bias f4 [16]
-0.15828282 -0.3318931 -0.63235986 0.19464043 0.06877908 -0.40277967 -0.06462231 -0.18237154
-0.39152482 0.14949724 -0.618518 -0.010964124 -0.17784214 -0.47947872 0.10669385 -0.5854404
00000000: e414 22be e4ed a9be 56e2 21bf d24f 473e
00000010: 0cdc 8c3d 2339 cebe b458 84bd 9bbf 3abe
00000020: f175 c8be ce15 193e 3257 1ebf dfa2 33bc
00000030: 401c 36be 3c7e f5be 4e82 da3d 6cdf 15bf

net.bn3.running_mean f4 [16]
5.0844116 2.5435555 -6.684236 5.5019464 4.449795 -5.445146 1.5848652 -0.52106
0.47419766 5.369931 -6.673439 3.9758518 5.020306 -6.956903 4.236469 -6.630332
00000000: 80b3 a240 9dc9 2240 43e5 d5c0 f20f b040
00000010: b864 8e40 a33e aec0 dddc ca3f 3064 05bf
00000020: 09ca f23e 7ad6 ab40 d08c d5c0 5b74 7e40
00000030: 59a6 a040 f39e dec0 2791 8740 ae2b d4c0

net.bn3.running_var f4 [16]
497.35928 988.93964 1395.7974 1099.1097 902.5142 1169.596 426.53345 644.23206
679.7873 921.95306 1378.0079 889.4589 507.0567 1435.2438 880.5729 1297.1959
00000000: fdad f843 233c 7744 8479 ae44 8363 8944
00000010: e9a0 6144 1233 9244 4844 d543 da0e 2144
00000020: 63f2 2944 ff7c 6644 4140 ac44 5f5d 5e44
00000030: 4287 fd43 cd67 b344 aa24 5c44 4526 a244

net.fc.weight f4 [32, 256]
-0.29174796 -0.48743576 -0.85207146 -0.2295499 -0.41026896 -0.46534774 -0.22856988 -0.29579532
-0.5188289 -0.5230318 -0.028252993 -0.24191892 -0.36625233 -0.3887964 -0.8726955 -0.58194655
-0.40010124 -0.4229397 -0.16471562 -0.5720172 -0.57571083 -0.7170101 -0.5327751 -0.49685058
-0.35335508 0.041848686 0.06494833 -0.72609353 -0.98257804 -0.80568105 -0.3776815 0.077400565
0.39799282 0.5600795 0.05371817 0.5092032 1.1468204 1.082776 0.60206425 0.405136
0.9062931 0.3920407 0.37711012 0.5782446 0.977347 1.1037447 0.5735814 0.302576
-0.004621401 -0.45718932 -1.0270983 -0.5392266 -0.40311342 -1.0639974 -0.99579275 -0.51658744
-0.55449647 -0.19732378 -0.50567573 -0.38951832 -0.3798653 -0.909857 -0.53122455 -0.84647
-0.5068356 -0.7355481 -0.25725058 -0.43140703 -0.8265211 -0.4762 -0.20494449 -0.550627
-0.48648292 -0.22143118 0.066212855 -0.8866887 -0.6341741 -0.5367439 -0.32751352 -0.3576368
-0.08421347 0.10905932 0.34845093 0.6533018 0.5172983 0.58743966 0.38193417 0.47946644
0.33490822 0.016336717 0.2727863 0.34726366 0.87056583 0.8321139 0.27893117 0.24690896
-0.24071102 -0.17599586 -0.39138865 0.0063964976 0.07929936 -0.087394446 -0.12972239 -0.23689407
0.019393418 -0.15497227 -0.65521425 -0.44470048 0.15292609 -0.09767765 -0.30319694 -0.34946057
-0.14265013 -0.20385022 -0.0045468505 -0.102851406 -0.14845759 0.11933883 0.3241745 -0.17818536
-0.1779572 0.100339286 -0.24628364 0.032199703 -0.025093976 -0.314539 -0.18814553 -0.33638346
0.19730295 -0.003157306 -0.14155914 -0.2541022 -0.41766226 -0.44798067 0.09991051 -0.13776632
-0.53752893 -0.10765364 0.30712327 -0.12816967 -0.56147546 -0.6082 -0.33814725 0.14229387
-0.49628246 -0.31773567 -0.68869907 -0.23091638 -0.39952242 -0.39016297 -0.34600192 -0.36506608
-0.28039896 -0.11027782 0.0053292806 -0.35383 -0.7906154 -0.24777175 -0.7842516 -0.83416086
0.087981686 0.4393954 0.56899935 0.52178425 0.63337314 1.0027367 0.77711254 0.54857695
0.85772973 0.5508296 0.1848094 0.5625956 0.660666 1.0846916 0.93224466 0.44775474
-0.118448384 -0.49782348 -0.5827245 -0.49464136 -0.45079672 -0.6567618 -0.3934377 -0.29349184
0.044891868 -0.23641625 -0.21621141 -0.25116086 -1.0324872 -1.142008 -0.5313029 -0.07049671
-0.34886986 -0.6762026 -0.39532372 0.066719845 -0.13778387 -0.33688614 -0.17601523 0.04107922
-0.32466966 0.344732 -0.12864587 -0.26685336 -0.3387319 -0.26040286 -0.1394574 -0.44949648
0.2665261 0.28237802 0.30924973 0.45656955 0.454327 0.7147101 0.8310716 0.5731092
0.61691684 0.20536356 -0.2624226 0.37331375 0.74686116 1.0573769 0.8473909 0.41220918
-0.28795624 -0.3455355 -0.007327815 -0.41278434 -0.5724172 -0.23269954 -0.45442027 -0.374837
-0.2430594 -0.33288497 -0.058578577 -0.0468234 -0.72963464 -0.4547299 -0.49310982 -0.2615492
-0.37999725 0.71525246 -0.25924027 0.7419062 1.2369733 1.0904859 0.616922 0.33681676
0.6388583 0.50800985 0.19134016 0.32515827 0.5263153 0.6068882 0.75427073 0.37885457
00000000: fd5f 95be 2e91 f9be 5b21 5abf 210f 6bbe
00000010: c60e d2be 0f42 eebe 390e 6abe 7c72 97be
00000020: f9d1 04bf 69e5 05bf d272 e7bc 98b9 77be
00000030: 6d85 bbbe 5210 c7be f968 5fbf 73fa 14bf
00000040: 12da ccbe 8d8b d8be 36ab 28be b86f 12bf
00000050: c961 13bf f98d 37bf f363 08bf 3363 febe
00000060: f5ea b4be 8769 2b3d a103 853d 44e1 39bf
00000070: 3c8a 7bbf 1d41 4ebf 785f c1be 3084 9e3d
00000080: b7c5 cb3e 5f61 0f3f 9507 5c3d 245b 023f
00000090: 03cb 923f 6798 8a3f e220 1a3f fc6d cf3e
000000a0: d302 683f 8fb9 c83e 9414 c13e d707 143f
000000b0: 6a33 7a3f 8247 8d3f 3bd6 123f 3eeb 9a3e
000000c0: 1f6f 97bb b814 eabe f577 83bf c10a 0abf
000000d0: e264 cebe 1131 88bf 46ec 7ebf 133f 04bf
000000e0: 7bf3 0dbf 3f0f 4abe f773 01bf f26e c7be
000000f0: b47d c2be 63ec 68bf 55fe 07bf 42b2 58bf
00000100: fabf 01bf e14c 3cbf 59b6 83be 62e1 dcbe
00000110: e396 53bf 7dd0 f3be f8dc 51be e4f5 0cbf
00000120: 4a14 f9be dbbe 62be 9b9a 873d 08fe 62bf
00000130: 3c59 22bf 0c68 09bf daaf a7be 2c1c b7be
00000140: 1d78 acbd 7e5a df3d 2968 b23e c93e 273f
00000150: a96d 043f 7262 163f e08c c33e a07c f53e
00000160: 1779 ab3e 94d4 853c a5aa 8b3e 8bcc b13e
00000170: 67dd 5e3f 6b05 553f 11d0 8e3e b4d5 7c3e
00000180: f37c 76be 4238 34be 1864 c8be b699 d13b
00000190: b467 a23d dcfb b2bd f2d5 04be 5c94 72be
000001a0: f2de 9e3c 0db1 1ebe 1fbc 27bf c8af e3be
000001b0: a898 1c3e 380b c8bd a13c 9bbe 7fec b2be
000001c0: e012 12be 1dbe 50be bffd 94bb c2a3 d2bd
000001d0: 4405 18be eb67 f43d 33fa a53e 3976 36be
000001e0: 6a3a 36be af7e cd3d c731 7cbe d6e3 033d
000001f0: e291 cdbc 410b a1be 39a9 40be 743a acbe
00000200: c909 4a3e ceea 4ebb e1f4 10be af19 82be
00000210: d4d7 d5be b95d e5be e29d cc3d 9d12 0dbe
00000220: 7f9b 09bf 8379 dcbd 433f 9d3e e93e 03be
00000230: dbbc 0fbf ffb2 1bbf a321 adbe 7cb5 113e
00000240: bc18 febe 40ae a2be 954e 30bf 5875 6cbe
00000250: 348e ccbe 71c3 c7be 2a27 b1be f1e9 babe
00000260: 7490 8fbe 56d9 e1bd 3fa1 ae3b 3529 b5be
00000270: c565 4abf e1b7 7dbe b6c4 48bf 918b 55bf
00000280: be2f b43d 6ff8 e03e f1a9 113f a793 053f
00000290: be24 223f ad59 803f d9f0 463f 8a6f 0c3f
000002a0: 2d94 5b3f 2b03 0d3f ad3e 3d3e 4406 103f
000002b0: 6821 293f 2dd7 8a3f 96a7 6e3f 1c40 e53e
000002c0: 1195 f2bd b8e2 febe 6f2d 15bf a241 fdbe
000002d0: d4ce e6be 8b21 28bf ab70 c9be 9044 96be
000002e0: 89e0 373d 1a17 72be 8666 5dbe 2898 80be
000002f0: 8a28 84bf 512d 92bf 7803 08bf 9460 90bd
00000300: 129f b2be 9d1b 2dbf df67 cabe 6aa4 883d
00000310: 3717 0dbe 577c acbe 563d 34be af42 283d
00000320: 1a3b a6be b680 b03e bebb 03be 01a1 88be
00000330: 456e adbe 8653 85be eccd 0ebe 6724 e6be
00000340: 1c76 883e da93 903e fb55 9e3e 7cc3 e93e
00000350: 8c9d e83e 3ef7 363f 1cc1 543f 49b7 123f
00000360: 43ee 1d3f d34a 523e 415c 86be fb22 bf3e
00000370: 4b32 3f3f 2058 873f 9cee 583f 150d d33e
00000380: 006f 93be 07ea b0be 2b1e f0bb 7858 d3be
00000390: ef89 12bf ca48 6ebe c6a9 e8be a3ea bfbe
000003a0: 90e4 78be e66f aabe 17f0 6fbd e5c9 3fbd
000003b0: 56c9 3abf 5cd2 e8be e478 fcbe c7e9 85be
000003c0: 008f c2be c91a 373f 24bb 84be 91ed 3d3f
000003d0: 2455 9e3f 0b95 8b3f 9aee 1d3f 3f73 ac3e
000003e0: 388c 233f ef0c 023f adee 433e 257b a63e
000003f0: 99bc 063f 065d 1b3f e317 413f 3af9 c13e

net.fc.bias f4 [32]
-0.81276214 0.17512642 -0.48827758 1.1841295 -0.8760925 -0.02964599 -1.0674859 0.7427335
0.3903955 -0.99987996 -2.6359534 0.6396682 -1.6344925 0.43315727 0.6195935 -0.54610807
-0.8520634 -1.3969599 0.79097366 0.78873605 1.1225622 -0.25704533 0.49128437 -0.8802648
-1.7454034 0.34596917 0.7910882 -0.69350195 0.7300484 0.8236382 1.0982337 1.1731288
00000000: 2e11 50bf 5754 333e 85ff f9be 8e91 973f
00000010: 9947 60bf 26dc f2bc 61a3 88bf c823 3e3f
00000020: ebe1 c73e 22f8 7fbf 76b3 28c0 4cc1 233f
00000030: 0d37 d1bf cac6 dd3e ae9d 1e3f bdcd 0bbf
00000040: d420 5abf 95cf b2bf 407d 4a3f 9bea 493f
00000050: 1eb0 8f3f 729b 83be a089 fb3e 0959 61bf
00000060: 6169 dfbf df22 b13e c284 4a3f 5889 31bf
00000070: 74e4 3a3f f4d9 523f ec92 8c3f 1629 963f
