model/sub2_20240206_130642/model.pt (torch, 65706 bytes, 17 tensors)

net.conv.weight f4 [8, 1, 1, 256]
000000 65 2d b4 be ba b3 02 bf 89 3d 40 bf 09 22 61 bf
       -0.35190883 -0.5105549 -0.75093895 -0.8794256
000010 09 15 49 bf 61 45 50 bf 03 92 67 bf 08 bb 6a bf
       -0.7854772 -0.81355864 -0.9045717 -0.9169164
000020 8d 01 8b bf af a8 70 bf 19 bf 47 bf e0 68 1a bf
       -1.0859848 -0.9400739 -0.78025967 -0.60316277
000030 c9 4a b0 be 86 a8 bc bc fc b0 81 3e c1 09 fb 3e
       -0.34432057 -0.023029577 0.2533034 0.4903088
000040 f6 98 df 3e 69 ba 7a 3e 62 c6 2d 3d 80 cd 90 be
       0.43671387 0.24485172 0.04242552 -0.28281784
000050 e2 20 d4 be f1 de 01 bf 72 7c df be e1 46 64 be
       -0.41431338 -0.50730807 -0.43649632 -0.22292663
000060 4b a9 12 3e f1 54 ba 3e db 09 d5 3e b8 a9 ea 3e
       0.14322393 0.3639293 0.41609082 0.4583261
000070 47 39 eb 3e 96 4c 65 3e e5 9a 74 3e 57 91 7b 3e
       0.45942137 0.22392496 0.23887213 0.24567162
000080 a8 c9 d1 3e 59 99 46 3f eb f1 99 3f b2 ce aa 3f
       0.40974164 0.7757774 1.2026953 1.3344328
000090 dd 28 bd 3f bb 1a b7 3f f6 79 a9 3f 40 ca 6f 3f
       1.4778095 1.4305032 1.3240345 0.93667984
0000a0 4a 56 0f 3f 12 10 61 3e e0 e3 8a bb 2d 87 c4 bd
       0.5599104 0.21978787 -0.0042385906 -0.09596095
0000b0 07 2f 04 be 0d d4 9f bc b1 ed 1d be 65 70 2d be
       -0.12908565 -0.019510293 -0.15422703 -0.16937406
0000c0 2d 68 aa be d8 78 09 bf b9 32 19 bf b9 d6 26 bf
       -0.33282605 -0.5370002 -0.5984302 -0.6517139
0000d0 5a a3 3e bf 18 65 10 bf c4 79 e1 be 4b 79 6b be
       -0.74468005 -0.56404257 -0.44038212 -0.22995488
0000e0 61 be 4a be 36 47 84 be 49 62 ba be 26 cc f5 be
       -0.19799186 -0.2583558 -0.3640311 -0.48007315
0000f0 8a dc 3b bf 27 bb 7a bf 44 44 8c bf 50 ef 87 bf
       -0.7338339 -0.9794182 -1.0958333 -1.0619907
000100 99 3a 73 bf 6a b5 3f bf 6a 4e 29 bf 18 56 05 bf
       -0.9501129 -0.7488619 -0.66135275 -0.52084494
000110 1d b9 df be b0 61 a1 be d7 be a5 bd 4a 56 c3 3c
       -0.43695918 -0.31519842 -0.080930404 0.023844857
000120 92 6e 30 3e db 76 8a 3e cd 65 ec 3e 7d df 26 3f
       0.17229679 0.27043805 0.46171418 0.65184766
000130 5a 98 2f 3f 09 07 27 3f 22 01 19 3f 0e f1 20 3f
       0.68591845 0.6524511 0.59767354 0.6286782
000140 57 fb 04 3f f7 40 f3 3e d3 d4 c2 3e 02 be 0e 3f
       0.51946014 0.47510502 0.38052997 0.5575868
000150 fa 71 20 3f 75 a0 2c 3f b5 8a 33 3f ab 5a 2c 3f
       0.62673914 0.6743234 0.70133525 0.6732585
000160 16 63 0b 3f 11 d4 ac 3e 45 1c 3e 3e 31 d3 dc bc
       0.5444807 0.33755544 0.18565471 -0.026956173
000170 6e 8b ee bd d1 17 02 3c b9 27 43 3e cc 1d f2 3e
       -0.11647688 0.007940249 0.19058122 0.47288358
000180 f7 fc 15 3f 1d 13 27 3f 0b b1 ed 3e b1 ef 50 3e
       0.5858912 0.6526354 0.46424136 0.20403935
000190 cd 96 15 be e2 b8 e1 be aa 45 2a bf 9a e0 33 bf
       -0.14608307 -0.44086367 -0.6651255 -0.7026459
0001a0 bd bd 31 bf 15 ce 13 bf 1f 87 bf be 2e 33 c5 be
       -0.6943014 -0.5773633 -0.37407777 -0.3851561
0001b0 ad ca ea be 5f 4d 3e bf 2f cf 81 bf 1c 08 b6 bf
       -0.45857754 -0.7433681 -1.0141352 -1.4221225
0001c0 03 a3 c8 bf 2d c2 d0 bf 97 ff af bf 20 ac 60 bf
       -1.5674747 -1.6309258 -1.3749875 -0.8776264
0001d0 54 a9 ae be c3 e8 25 3e e3 3a ce 3e f9 85 12 3f
       -0.34113562 0.16202073 0.40279302 0.57235676
0001e0 ba 8c 07 3f 0f d7 05 3f 37 c2 a2 3e e5 b5 ab 3e
       0.52949107 0.5228128 0.317888 0.33537212
0001f0 75 54 b9 3e 28 65 0c 3f 80 ff 29 3f c8 89 31 3f
       0.36197248 0.5484185 0.6640549 0.6935086
000200 1d 3c 33 3f 9e e9 04 3f a5 4f c5 3e b4 f4 6e 3e
       0.700136 0.5191897 0.38537326 0.23335534
000210 6f 39 75 3d 8f 03 e6 3d 3b 02 ae 3d 2e c1 7d 3e
       0.059869226 0.112311475 0.08496519 0.24780723
000220 af 98 e8 3e 3e c3 25 3f f2 17 46 3f 51 bd 5c 3f
       0.45428988 0.6475104 0.7738029 0.86226374
000230 2e da 39 3f a9 f1 1f 3f 96 44 cb 3e 15 4c 88 3e
       0.7259854 0.6247812 0.39700764 0.26620546
000240 02 b9 9a 3e e4 9d eb 3e 0f f5 03 3f f5 26 0b 3f
       0.30219275 0.46018898 0.51545805 0.5435632
000250 b7 2c fb 3e 62 24 db 3e 8b 62 f6 3d 95 cb c5 be
       0.49057552 0.42801195 0.12030514 -0.38631883
000260 97 09 3d bf 9f a3 76 bf a9 fc 81 bf bb 86 7b bf
       -0.7384276 -0.96343416 -1.0155231 -0.9825246
000270 23 d0 4f bf 10 71 0d bf 58 83 e1 be 1f 32 d6 be
       -0.81176966 -0.55250645 -0.4404552 -0.41835114
000280 73 0c 23 bf 52 f4 47 bf cc 42 89 bf 3f 2b 90 bf
       -0.6369087 -0.7810718 -1.072351 -1.1263198
000290 1c 99 79 bf 06 1a 3a bf 1e 94 e8 be 7b 60 5e be
       -0.9749925 -0.7269596 -0.45425504 -0.21716492
0002a0 21 99 1a bd 95 09 07 3e f0 04 85 bc f0 ca 47 bd
       -0.03774369 0.13187249 -0.016237706 -0.04877752
0002b0 9e 7e 58 be 50 3f a4 be 6e a8 8a be 34 48 6b be
       -0.2114205 -0.32079554 -0.27081627 -0.22976762
0002c0 37 50 c9 3b c6 7b 94 3e 67 86 ee 3e 1d cb 19 3f
       0.0061435956 0.29000682 0.46586916 0.6007555
0002d0 b7 08 10 3f 10 81 0c 3f 02 de 01 3f c5 ef dd 3e
       0.562633 0.54884434 0.5072938 0.43346992
0002e0 f8 45 bc 3e 8a 5c 00 3f 5d 74 3c 3f 29 58 8f 3f
       0.36772132 0.50141203 0.73615056 1.1198779
0002f0 a9 1f a4 3f e1 58 a2 3f 44 7b a2 3f d7 ae 88 3f
       1.2822162 1.2683374 1.2693868 1.0678357
000300 7a b8 30 3f cd 7d c8 3e 1e 7e 83 3d 02 3f 2d 3d
       0.6903149 0.39158478 0.06420539 0.042296417
000310 ab d6 54 bc 8e ae d0 3d bf d0 45 3c 23 3c 27 3d
       -0.012990634 0.10189544 0.012073695 0.040828835
000320 ad 1a 18 be d7 66 d3 be 6c ef 49 bf c2 de 77 bf
       -0.14853926 -0.41289398 -0.78880954 -0.96824276
000330 b1 c4 87 bf ea 8a 72 bf 1c e6 24 bf c4 3d ac be
       -1.06069 -0.94743216 -0.6441362 -0.33640873
000340 d1 7a 97 3d 27 9e c7 3e 7c 50 cc 3e 50 7a 57 3e
       0.07396472 0.38987848 0.39905155 0.21042752
000350 cd db 00 be 45 7d 05 bf 6b 4c 58 bf d5 85 8d bf
       -0.12583847 -0.5214427 -0.84491605 -1.1056467
000360 0b 8c 94 bf c1 b2 85 bf e4 3b 35 bf 50 91 a7 be
       -1.1605238 -1.0445176 -0.7079451 -0.32728052
000370 28 61 8d be 18 3e 5c be 08 49 01 bf 16 38 54 bf
       -0.27613187 -0.21508062 -0.5050206 -0.8289808
000380 27 30 68 bf c1 9d 31 bf d4 19 e5 be 31 80 da bd
       -0.90698475 -0.6938134 -0.44746268 -0.10668982
000390 aa a4 c6 3e c7 db 5d 3f 81 2b 8d 3f 0b 48 85 3f
       0.38797504 0.8666348 1.1028901 1.0412611
0003a0 69 d4 6d 3f fa 7e 13 3f 75 de ca 3d 9e d8 c5 bd
       0.9290224 0.57615626 0.099057116 -0.09660457
0003b0 32 97 b2 bd 1e 14 3c 3e 54 e4 26 3f 8e 9a 73 3f
       -0.087202445 0.18367049 0.6519215 0.95157707
0003c0 41 fd 93 3f 7b 80 8c 3f be 9d 5f 3f f1 97 17 3f
       1.1561662 1.0976709 0.8735007 0.5921622
0003d0 e6 06 4a 3e 6d c1 60 3d e4 ac ab bd a5 c6 0c bd
       0.19729194 0.054871965 -0.08382586 -0.03436913
0003e0 c8 ba 82 bd 9e 5c 0a 3d f0 84 98 3a 7e 53 eb bd
       -0.06383282 0.033779733 0.0011636298 -0.11490534
0003f0 7a dd ea be d0 cc 76 bf 25 f8 b7 bf 15 45 dd bf
       -0.45872098 -0.9640627 -1.4372603 -1.7286707

net.bn1.weight f4 [8]
000000 b1 37 b9 3f f4 bb e4 3f 98 f4 00 40 c9 e2 b3 3f
       1.4470121 1.7869859 2.0149288 1.4053584
000010 e5 2e 89 3f 0d 45 f6 3f 08 30 93 3f 2d 7c 5a 3f
       1.0717436 1.9239823 1.1499033 0.8534573

net.bn1.bias f4 [8]
000000 4b 00 69 bd d9 50 97 bd 93 b9 61 be f8 fb 82 bd
       -0.056885045 -0.07388467 -0.22043447 -0.063957155
000010 c7 7b fa bd 3a a4 8d 3e c4 9c 82 bd 5b b2 fd 3d
       -0.1223064 0.27664357 -0.06377557 0.12387534

net.bn1.running_mean f4 [8]
000000 54 69 22 3a e8 ee b7 37 d7 94 00 39 1d f0 4a 36
       0.00061955047 2.192655e-05 0.00012262478 3.024011e-06
000010 10 29 8a 39 b7 08 94 b7 64 2a 9a 39 aa 6e 0d 3a
       0.00026352005 -1.7647033e-05 0.00029404752 0.00053952134

net.bn1.running_var f4 [8]
000000 5c 7b 44 44 cd d8 74 44 86 55 80 44 eb 08 94 43
       785.9275 979.3875 1026.6726 296.06967
000010 a0 e8 4c 44 ff 78 6b 44 57 88 20 43 94 75 e9 43
       819.63477 941.89056 160.53258 466.91858

net.depth_conv.weight f4 [16, 1, 32, 1]
000000 75 17 55 be 91 bf a4 3e 1e 77 16 3f f1 61 49 3e
       -0.2080973 0.32177404 0.5877551 0.19666268
000010 e8 c6 54 3f 4c 97 2c bf 0e 67 40 3f 24 a0 33 3f
       0.83116007 -0.6741836 0.7515725 0.7016623
000020 78 e6 64 bf f6 e6 24 3e 80 fd c0 bf 12 2c e2 be
       -0.8941417 0.1610373 -1.5077362 -0.44174248
000030 b3 24 28 bf 1a c3 cf bc 40 22 c4 3e 8a 59 44 3f
       -0.65681 -0.025361586 0.3830738 0.76699126
000040 1c a3 3d be 4a ad cc 3e 37 b2 b4 3f 84 ee 7a 3f
       -0.18519253 0.3997596 1.4116887 0.98020196
000050 cb d6 51 be e9 21 d8 3d f1 e2 56 3e c6 85 98 bf
       -0.20492093 0.10553343 0.20985009 -1.1915824
000060 f9 40 b4 bf 23 d7 b4 3f 90 fd 7e be 6a 1c c6 bf
       -1.4082328 1.4128155 -0.24901414 -1.5477421
000070 de 21 17 bf 2e 2c d8 be b5 35 32 3f 00 1a 7c 3e
       -0.5903605 -0.42221206 0.696132 0.24619293
000080 5c f5 78 be f8 a3 11 3f 00 a9 1e 3f 9d bf c4 3e
       -0.24312347 0.5689082 0.61976624 0.3842744
000090 48 47 bf 3f 63 de 6e 3e 16 09 f6 be 56 45 ed bd
       1.4943628 0.23327021 -0.48053807 -0.115854904
0000a0 a7 0f e4 bf eb 3a 31 3f ba d1 15 bf aa 37 76 be
       -1.7817277 0.69230527 -0.5852314 -0.24044672
0000b0 a8 da cb bf e0 92 01 bf 62 d6 63 be aa e2 8f 3e
       -1.5926104 -0.5061474 -0.2224975 0.28102618
0000c0 eb 9c bb be a4 4f 44 3e ed 2f 11 3f 76 76 bc 3f
       -0.36643156 0.19171005 0.56713754 1.4723651
0000d0 3c 6d 5a 3f 87 25 d8 3f 25 0f 1f 3f 58 8b 80 bf
       0.8532293 1.6886452 0.62132484 -1.0042524
0000e0 cc 11 c3 bf 6a ea 27 3f 25 bd 19 3e 3d 05 02 bf
       -1.5239806 0.6559206 0.15013559 -0.50789243
0000f0 9c 6f b3 bf 91 0c 37 bf ad f6 54 3f e8 f5 34 3e
       -1.4018435 -0.7150355 0.831889 0.17671931
000100 97 cd ad 3e ed cd 8f 3f 8f 8a 9c 3e e7 00 16 bf
       0.33945915 1.1234719 0.30574462 -0.58595127
000110 3f 9a 86 3e 99 f4 03 3d 24 ae dd 3e 05 6b c2 be
       0.26289555 0.03221569 0.4329692 -0.37972274
000120 74 f0 aa be 30 f0 27 c0 f9 09 0e 3e cc b2 5c 3f
       -0.33386576 -2.624035 0.13870992 0.8621032
000130 f0 de bf 3e 9d 46 81 3f dc 53 76 be 7e 0d 07 3f
       0.37474775 1.0099674 -0.24055427 0.5275496
000140 21 ca fd bd c3 d1 b8 bd ed 98 a6 3e 05 0f 26 3f
       -0.12392069 -0.09024384 0.32538548 0.6486667
000150 62 5a 8e 3f c5 c0 ce bc 94 e1 35 3d c7 1e e2 3b
       1.1121333 -0.025238404 0.04440458 0.0069006416
000160 7d be 73 bf f8 c9 8d be d4 cf 90 bf 1f 9d 19 bf
       -0.9521254 -0.27693152 -1.1313424 -0.6000537
000170 76 ca 76 be 15 68 ef bd a2 bc ad 3e c7 07 b8 3d
       -0.2410067 -0.11689774 0.33932978 0.089858584
000180 af 51 ed be 87 5a 3f bf fe e4 10 bf 0c 24 25 bf
       -0.46351382 -0.7474751 -0.56599414 -0.6450813
000190 a8 46 a7 bf 98 d9 0e 3f d1 67 89 3e 93 b3 cb 3f
       -1.3068438 0.5580077 0.26837018 1.5914177
0001a0 e5 f7 4f bf 9a 60 01 40 d4 3f 21 bf 8f 15 22 3e
       -0.8123763 2.021521 -0.6298802 0.15828536
0001b0 83 75 1f 3e 43 31 a0 be f0 1a ac 3d 8c e4 23 be
       0.15572171 -0.31287584 0.084035754 -0.16005152
0001c0 f5 ac 2e 3e 0f 97 2d bf 66 63 07 be 1e 49 1a bf
       0.17058165 -0.6780862 -0.13221511 -0.6026782
0001d0 65 c3 22 bf a9 8d 06 bf 66 4f d8 be b8 d3 2c 3f
       -0.635794 -0.52559906 -0.42248076 0.6751056
0001e0 42 fc f3 3d 87 83 c9 be 50 40 e8 3f 9c 57 0e 3f
       0.11913349 -0.3935816 1.8144627 0.5560243
0001f0 29 fa 16 bf 10 3c 58 3f b4 f8 01 bf e1 0a 6f 3e
       -0.58975464 0.8446665 -0.50770116 0.23343994
000200 f7 3d 25 be 55 ae a1 bf 7f 9c c8 be 5c 79 db be
       -0.16136919 -1.2631327 -0.39181897 -0.42866027
000210 25 79 8b be 7e b9 9d 3e 48 ea 5a be 2d c9 a9 3f
       -0.27240863 0.30805582 -0.21378434 1.3264519
000220 a2 da 1a 3e e7 d5 3d 40 0d 0c 50 be 63 88 e2 be
       0.15122464 2.9661806 -0.20317097 -0.4424468
000230 45 26 2f bf fe 7b a2 bf f9 f9 ab 3e 57 d3 78 be
       -0.6841777 -1.269409 0.33589152 -0.2429937
000240 4a 2c b7 3d 1a 26 13 be f8 0b 28 bf eb 83 ff be
       0.08943994 -0.14370003 -0.6564326 -0.49905333
000250 f2 82 89 bf c9 e0 ab 3e 57 65 03 3e b6 54 bc 3e
       -1.0743086 0.33569935 0.12831627 0.3678338
000260 5d c9 e1 3e fd 95 1d 3f ca cf 89 3f 9b 0f 9e 3f
       0.4409894 0.6155699 1.0766537 1.2348512
000270 4d d1 21 be 92 be 1a be 42 3a d4 be ab b1 13 3f
       -0.15802498 -0.1511176 -0.41450697 0.57692975
000280 d6 ed c5 3d d4 81 58 3e 0a d8 9f be a3 6b 70 bf
       0.09664504 0.21143275 -0.31219512 -0.9391424
000290 19 1b d3 bf c4 50 25 3f d3 f6 0a 3f 98 fd ad 3f
       -1.6492645 0.64576364 0.54282874 1.3593016
0002a0 f3 1d b6 bf 30 16 e2 3d 67 0a 0b bf 6c 5a 03 3f
       -1.422789 0.11039388 -0.5431275 0.5130985
0002b0 f1 11 44 3f 49 d4 76 3f 87 1a 6e be aa f5 7c bd
       0.76589876 0.9641767 -0.23252307 -0.06175772
0002c0 4a e7 59 3e 1e 3d 0c bf 90 cd b7 3e 5d 31 3d be
       0.21279636 -0.5478076 0.3589902 -0.18475862
0002d0 fb 75 9a 3d 38 d0 4a bf 28 6b a3 be 8d 1f e3 3e
       0.07542034 -0.79223967 -0.3191769 0.4436001
0002e0 04 0d 16 bf 40 63 5d bf 85 85 b2 3f 9e 8b e5 3d
       -0.5861361 -0.8647957 1.3946997 0.112082705
0002f0 52 ac 65 bf c5 ca be 3f 19 14 12 be 37 4a ac 3e
       -0.89716065 1.490563 -0.14265479 0.3365037
000300 1f ff a9 3e de 4e c0 be bc ed 97 3b 71 24 bc 3d
       0.33202454 -0.3756017 0.0046364944 0.09186638
000310 5d 93 4b 3f ce bd 10 be de 60 af bf 47 ba 88 3d
       0.79521734 -0.14134905 -1.3701437 0.066761546
000320 70 d2 5a bc f5 3b 3f be 5c e6 28 bf 87 07 e3 be
       -0.013355836 -0.18675216 -0.659765 -0.4434168
000330 71 4c 2b 3f 27 de 7d 3d ef 3d 0e bf e6 87 85 3e
       0.66913515 0.06197944 -0.55563253 0.26080245
000340 37 78 18 3e d9 dd 5c 3e 28 cd 2f bf f5 62 3f bf
       0.14889608 0.21569003 -0.6867242 -0.7476037
000350 f3 c6 7f 3e 6e b3 b6 bd 9f a5 24 3e d7 d3 19 3f
       0.24978237 -0.08920942 0.16078804 0.60088867
000360 82 09 08 40 c3 28 d3 bf 4a 89 07 40 c1 7c bd 3f
       2.1255803 -1.6496814 2.1177545 1.4803697
000370 35 08 e8 be 84 bc b5 bf 76 b8 29 3e 36 c2 96 3e
       -0.4531876 -1.4198155 0.16574273 0.29445046
000380 52 33 09 3d 7b e5 c6 be 51 16 58 3e 1a 35 28 bf
       0.03349621 -0.38846955 0.21102263 -0.65706027
000390 fa fc 8f 3f df 0a e4 3d ea 94 36 be 05 31 0e 3f
       1.1249077 0.11134886 -0.17830244 0.5554355
0003a0 10 6d 98 3d f8 fe df bd 12 d6 df bf 86 e4 ae be
       0.07442677 -0.10937303 -1.7487204 -0.34158725
0003b0 09 c8 bb bd 71 18 a3 3e f5 f7 a4 3c 4a 22 67 3f
       -0.09169013 0.31854585 0.020137766 0.90286696
0003c0 6b 3a 8d 3f c3 21 bd 3c 79 59 07 bd 9b de 22 bf
       1.1033453 0.023087388 -0.033044312 -0.6362092
0003d0 31 36 c0 be 6a 36 62 bf b2 ac eb 3e ef de bf bc
       -0.37541345 -0.8836428 0.46030194 -0.023421733
0003e0 ea ab e3 3f 0d 38 99 bf 4e c4 fa 3f 37 01 c5 3f
       1.7786839 -1.197023 1.9591157 1.5390996
0003f0 7b 6c 6b be 12 6c b7 bf f3 04 e4 bd a8 ef 67 3d
       -0.22990601 -1.4329855 -0.111337565 0.05662504

net.bn2.weight f4 [16]
000000 8a 4a ca 3f f3 cd c5 3f 80 ff 08 40 d6 fb 0a 40
       1.5803998 1.5453476 2.1405945 2.1716208
000010 8d bf 0f 40 ce 3f 12 40 5b 42 ca 3f 0e 9a cc 3f
       2.2460663 2.2851443 1.58015 1.5984514
000020 33 ec 8f 3f 0c 7a ca 3f c0 0d 0c 40 4a 18 0c 40
       1.1243957 1.5818496 2.1883392 2.1889825
000030 6c eb d8 3f db 1a d5 3f 71 1d bc 3f c7 53 c7 3f
       1.6946845 1.6648821 1.4696485 1.5572442

net.bn2.bias f4 [16]
000000 2f 43 e8 be 8a 64 00 bf 04 01 33 bf d6 2c 41 bf
       -0.45363757 -0.5015341 -0.69923425 -0.7545904
000010 d0 a5 3d bf a7 6e 49 bf eb 49 cc be 1d a6 00 bf
       -0.74081135 -0.7868447 -0.39900145 -0.5025347
000020 29 ec 82 be f1 31 f5 be 5b 9b 2f bf d1 bd 3c bf
       -0.255708 -0.47889665 -0.6859643 -0.73727137
000030 4c 5b 00 bf 5b 9a 03 bf 27 3c d2 be c6 98 f0 be
       -0.5013931 -0.514074 -0.41061518 -0.46991557

net.bn2.running_mean f4 [16]
000000 1c 35 49 3b 28 cd 43 bc 7d 82 93 bc 3a 78 8b 3d
       0.0030701822 -0.0119507685 -0.018006558 0.06810041
000010 67 0c 90 be 73 79 06 bd c8 05 8e bd 4f 35 f6 bd
       -0.28134462 -0.032830667 -0.069346964 -0.120218866
000020 6a e6 4e be 8c 0e d4 3d 8d 85 29 be 3c 47 c3 3e
       -0.20205083 0.10354337 -0.16554852 0.38140285
000030 b8 6c 85 bb e5 a2 6d 3c 4a da d9 bd fd 74 07 3e
       -0.004071798 0.014504169 -0.106373385 0.13228221

net.bn2.running_var f4 [16]
000000 2b ce 76 41 fd 34 da 40 b7 12 a2 41 0f fd 3f 41
       15.425334 6.8189683 20.259138 11.999282
000010 3f 74 07 42 93 61 aa 41 7e 34 1f 42 b1 06 f3 41
       33.86352 21.297644 39.80126 30.378267
000020 a0 8b 10 41 24 0f 9f 41 7b 9c 08 42 a7 de 2d 41
       9.034088 19.882393 34.152813 10.8668585
000030 c0 91 64 42 e9 e6 57 42 d7 92 1e 41 42 50 4c 41
       57.142334 53.9755 9.91085 12.769594

net.point_conv.weight f4 [16, 16, 1, 16]
000000 0c 6b 96 3e 62 e7 d8 3e 89 a4 24 3f 98 f7 f4 3e
       0.29378545 0.4236403 0.6431356 0.4784515
000010 ab 4e e3 3e cd 05 8c 3e 52 38 07 3e b8 6a 93 3d
       0.44395956 0.27348176 0.13205078 0.07198089
000020 35 b7 a6 bd db 85 ae 3c f7 08 c9 bd 0f 5a 04 bb
       -0.08140413 0.021304062 -0.09816163 -0.002019528
000030 99 22 a7 3d 73 02 60 3e bf f5 c2 3e c1 fd 03 3f
       0.08160896 0.21875934 0.38078114 0.5155907
000040 60 72 f6 3d b9 49 7d 3e f7 6d 04 3f 50 41 29 3f
       0.12033534 0.24735154 0.51730293 0.66115284
000050 74 ec 4c 3f b8 c4 79 3f da 36 83 3f 2a 5f 8d 3f
       0.800483 0.97565794 1.0251114 1.1044667
000060 76 ff 71 3f 36 ce 58 3f d8 24 0d 3f 81 60 af 3e
       0.9453043 0.8468965 0.55134344 0.34253314
000070 19 85 64 3e 94 ce 4d 3e 3d 8b 85 3e 55 8a ec 3e
       0.22316398 0.20098335 0.26082793 0.4619929
000080 88 59 cc bc 00 41 98 3d 01 a1 b4 3d ce 74 07 3e
       -0.024945036 0.07434273 0.088197716 0.13228151
000090 19 d0 98 3d 93 57 17 3e a5 70 f6 3d fb 19 3a 3e
       0.074615665 0.147795 0.12033204 0.18173973
0000a0 80 b4 a5 3e 53 3d b8 3e 10 f7 fe 3e ed a4 0d 3f
       0.32364273 0.35984287 0.4979787 0.5532978
0000b0 ab 50 fe 3e 4b 45 fe 3e 24 5d ca 3e fc b9 cd 3e
       0.4967092 0.4966224 0.39524186 0.40180957
0000c0 6c ed 57 be 96 68 20 be 54 b4 83 bc be 6b 8d 3d
       -0.21086663 -0.15664896 -0.016077198 0.06905316
0000d0 85 b7 75 3c 4c 1e d5 bb 53 5b 9d bd 52 61 a9 bd
       0.014997368 -0.006503856 -0.07683434 -0.082705155
0000e0 61 36 39 be 9b f3 c7 bc 40 f8 ba bd 90 13 12 3b
       -0.1808715 -0.024408152 -0.09129381 0.0022289492
0000f0 99 9b a8 3c bb fc c9 3d 0f 77 2a 3e 84 5a ed 3d
       0.020582007 0.09862658 0.1664698 0.1158953
000100 c4 bc 27 bd 0a 67 49 3d 0e a6 8a 3d 3a 5e 22 3e
       -0.040951505 0.04917053 0.06769954 0.15856257
000110 28 11 8c 3e 8f c9 2c 3e ba 67 80 3e 59 3f 86 3e
       0.2735684 0.16873764 0.25079137 0.26220205
000120 49 02 1d 3e 25 a9 20 3d 3a ae d3 bc 6e 85 4c 3d
       0.15332903 0.03922381 -0.025839914 0.049931936
000130 8a 9e 87 bd 39 26 3b 3d 2b f9 dd 3d 58 63 9a 3d
       -0.06622036 0.04569075 0.10838541 0.075384796
000140 1d df f8 be da 53 d7 be 0a 69 c4 be 12 2e 66 be
       -0.48607722 -0.4205616 -0.38361388 -0.22478512
000150 f5 73 b3 3d ec 9b cb 3d 17 de 6c 3e 60 74 27 3e
       0.087623514 0.09941849 0.23131596 0.16352987
000160 36 31 9c bd e2 df 1f be ab eb cb be 81 28 06 bf
       -0.07626574 -0.15612748 -0.39828238 -0.52405554
000170 ed 51 27 bf c0 79 3b bf dc 2a 1a bf 9e ed b3 be
       -0.65359384 -0.7323265 -0.6022165 -0.35142225
000180 11 e2 7c 3f a2 16 56 3f f4 e4 34 3f a6 68 27 3f
       0.9878245 0.83628285 0.70661855 0.65394056
000190 da a9 34 3f 89 21 46 3f ab f8 3e 3f 4f 49 2c 3f
       0.7057167 0.7739492 0.7459819 0.6729936
0001a0 67 29 38 3f c4 b4 53 3f 0d ec 61 3f 40 56 53 3f
       0.71938175 0.826977 0.8825081 0.8255348
0001b0 36 73 13 3f a8 a9 a2 3e 78 e3 77 3e 8f 55 16 3e
       0.5759767 0.31770062 0.24207866 0.14681076
0001c0 83 8a 80 3f 38 05 6d 3f b7 9e 55 3f 07 e9 6b 3f
       1.004227 0.9258609 0.83445305 0.92152447
0001d0 9e e6 8e 3f 42 b3 94 3f 42 f7 92 3f c6 d6 6d 3f
       1.1164129 1.1617205 1.1481707 0.92905843
0001e0 9b 61 51 3f c9 84 6f 3f 02 e5 80 3f f9 ef 62 3f
       0.8178956 0.9356199 1.0069888 0.8864742
0001f0 11 3c 4a 3f 76 dd 1f 3f 36 ad 1b 3f 54 e4 fd 3e
       0.78997904 0.624473 0.60811174 0.49588263
000200 0e 6b 84 3e ed cd c7 3e d9 d3 03 3f b0 9b 13 3f
       0.25862926 0.39024296 0.5149513 0.57659435
000210 a2 9b 23 3f 11 a5 21 3f 50 94 37 3f 92 f5 21 3f
       0.6390935 0.63142496 0.7171068 0.63265336
000220 47 bf 1e 3f 0d 5c 13 3f 7b c3 a6 3e 2d 4e 52 3e
       0.62010616 0.57562333 0.32571015 0.20537634
000230 ab a0 6b bd 99 31 19 be 4e 73 8c be 85 3c 97 be
       -0.05752627 -0.14960326 -0.2743172 -0.2953836
000240 62 07 f5 3e 13 58 06 3f 10 75 f0 3e 9e a3 d6 3e
       0.47857195 0.5247814 0.46964312 0.41921705
000250 0b 80 c7 3e 71 03 a1 3e 08 69 32 3e d8 61 9d 3d
       0.38964877 0.31447938 0.17422879 0.07684678
000260 07 58 8a 3d fc 37 91 3d a8 87 0d 3e 1e 54 52 3e
       0.06755071 0.07090756 0.1382128 0.205399
000270 94 f0 be 3e 87 e6 c7 3e 0e 3a f5 3e 6d d7 04 3f
       0.37292922 0.39043066 0.47895855 0.51891214
000280 9c e8 fb be d4 fc 93 be 2a 26 25 be 82 e5 90 bc
       -0.49200904 -0.2890383 -0.1612784 -0.017687563
000290 98 6e a9 3d 94 e6 0f 3d 2e 58 d5 3d b1 b6 59 3d
       0.08273047 0.035132006 0.104172096 0.053152744
0002a0 4f fb ab bd a2 5b ad be ce be ee be 36 10 01 bf
       -0.08397543 -0.33858973 -0.46629947 -0.5041536
0002b0 21 5c df be ef 9b dd be 6a 1f bb be d4 92 98 be
       -0.43624976 -0.4328303 -0.36547405 -0.2979952
0002c0 0d a4 26 3e d9 c1 d8 3d c5 2e 4c 3e 17 86 2a 3e
       0.16273518 0.105838485 0.19939716 0.16652714
0002d0 6b 40 30 3e 1c 31 c1 3d 71 e3 d5 3d 0a a0 e4 3d
       0.17212074 0.09433195 0.10443772 0.111633375
0002e0 65 b8 2d 3d 26 d7 7e 3d 9b 89 5c bd 56 5e 97 3b
       0.04241218 0.0622169 -0.05384217 0.0046194
0002f0 64 cb f6 bb 8c c6 6c 3c d1 32 95 bd c2 83 35 bd
       -0.0075315703 0.014451634 -0.07285083 -0.044315107
000300 a3 79 70 3f ad 45 71 3f 18 6e 6a 3f 47 21 7b 3f
       0.939356 0.9424694 0.9157424 0.9809765
000310 0f 22 85 3f 40 87 61 3f a9 80 56 3f 22 bc 5c 3f
       1.0401019 0.88097 0.8379007 0.8622457
000320 ae aa 47 3f e1 cb 2f 3f ec 6f 40 3f bd 99 22 3f
       0.7799481 0.6867047 0.7517078 0.63515836
000330 c4 9e 04 3f 84 48 22 3f bf 64 36 3f 4d f1 40 3f
       0.5180476 0.633919 0.71247476 0.75368196
000340 74 cc 49 3f aa 60 2e 3f 1f 51 21 3f 9f 07 f1 3e
       0.78827596 0.6811625 0.63014406 0.47076127
000350 8c a7 05 3f e6 3f 08 3f 94 85 a7 3e af 13 d7 3e
       0.5220878 0.532225 0.327191 0.42007205
000360 7d 15 b4 3e d2 f0 93 3e 0e 33 8b 3e ad ec d4 3e
       0.35172644 0.2889467 0.2718739 0.4158682
000370 83 ce c2 3e 46 66 bd 3e 9b d2 a6 3e dc 9f 10 3f
       0.3804818 0.3699209 0.32582554 0.56493926
000380 e1 31 bf 3e 36 da 08 3f d2 f1 28 3f 52 1f 50 3f
       0.37342742 0.53457963 0.6599399 0.8129779
000390 58 d6 38 3f 7a 84 3b 3f c1 e4 32 3f 3f a4 42 3f
       0.7220206 0.7324902 0.698803 0.7603187
0003a0 95 1f 3f 3f 6a 52 2f 3f 2e 3d 1e 3f a9 50 19 3f
       0.74657565 0.6848513 0.618121 0.598887
0003b0 f2 1b e6 3e 96 12 db 3e 20 07 d6 3e c1 40 e5 3e
       0.44943196 0.42787617 0.4180231 0.44775966
0003c0 2a 8b 7d 3e 75 47 a6 3e b9 67 6d 3e ed 5d af 3e
       0.24760118 0.32476392 0.23184098 0.34251347
0003d0 c0 3c ca 3e 92 09 ef 3e 74 f3 fe 3e 05 58 09 3f
       0.39499474 0.4668699 0.49795115 0.5364993
0003e0 e4 51 0c 3f f8 12 c5 3e 7d f9 d4 3e 0d 5e a1 3e
       0.54812455 0.38491035 0.41596594 0.31517068
0003f0 38 80 85 3e 5a 1b 82 3e 8c 77 54 3e ec 00 1a 3e
       0.26074386 0.25411493 0.20748729 0.15039414

net.bn3.weight f4 [16]
000000 fd d1 35 3f 30 02 fb 3f e8 f7 0a 40 e3 7c c4 3f
       0.7102354 1.9610043 2.171381 1.5350612
000010 d1 66 a8 3f e6 d1 d3 3f b6 a2 0a 3f 3c 87 51 3f
       1.3156377 1.6548431 0.5415453 0.81846976
000020 ae 6b d9 3f 42 42 9e 3f 47 a6 07 40 18 31 cc 3f
       1.6985986 1.236397 2.1195238 1.5952482
000030 5d 63 3a 3f a5 2f ee 3f f9 96 9d 3f c5 4d 05 40
       0.72807866 1.860829 1.2311698 2.0828717

net.bn3.bias f4 [16]
000000 cd dc 80 be d1 6a d8 be f3 80 fd be e8 0f 09 bd
       -0.25168458 -0.42268994 -0.49512443 -0.033462435
000010 6f c7 92 bd 49 76 95 be 87 32 58 bd f3 1e d2 bd
       -0.07166945 -0.29191807 -0.05278256 -0.10259809
000020 0f 0a f8 be 1b f3 64 3c 8f 74 04 bf cd 1d 3e be
       -0.48445174 0.0139739765 -0.51740354 -0.18566056
000030 d4 db ae be 14 54 c6 be 27 7b 60 bd e9 32 f8 be
       -0.3415209 -0.38736022 -0.054804947 -0.4847634

net.bn3.running_mean f4 [16]
000000 ec 57 e7 3f df 00 00 40 1e 89 7a c0 eb 6a 6d 40
       1.8073707 2.0000532 -3.914619 3.7096508
000010 57 93 3e 40 e3 03 59 c0 95 54 55 3d 44 fc 86 bf
       2.977743 -3.3908622 0.052082617 -1.0545735
000020 1f c7 24 3f 65 2c 5d 40 3f 54 6f c0 6b e8 35 40
       0.64366335 3.4558346 -3.739517 2.8423107
000030 c9 71 4e 40 9c b6 7b c0 f7 8e 3d 40 e8 05 74 c0
       3.225695 -3.9330206 2.961851 -3.8128605

net.bn3.running_var f4 [16]
000000 97 de cd 43 b2 21 3d 44 2e fc 90 44 17 a4 6d 44
       411.73898 756.5265 1159.8806 950.5639
000010 92 44 3a 44 70 91 76 44 4c 2a b1 43 d0 3f 12 44
       745.0714 986.27246 354.33044 584.9971
000020 3f 2e 19 44 6b 7f 3d 44 5e 80 93 44 80 32 35 44
       612.7226 757.9909 1180.0115 724.78906
000030 d5 c9 d7 43 68 a9 95 44 92 c5 30 44 50 ab 8b 44
       431.5768 1197.294 707.08704 1117.3535

net.fc.weight f4 [32, 256]
000000 48 d6 ba be fc cd e9 be 4c e8 2f bf f2 37 a5 bd
       -0.3649161 -0.45664966 -0.6871383 -0.08067311
000010 12 5b a3 be 83 c7 a6 be 41 b2 01 be 30 19 39 be
       -0.3190542 -0.3257409 -0.12665655 -0.18076015
000020 41 49 d5 be 63 31 da be a3 97 bc 3d 84 ea 93 bd
       -0.4165745 -0.42615804 0.0920861 -0.07222465
000030 c6 20 2e be 02 c7 55 be 8a 34 41 bf ac d4 1e bf
       -0.1700469 -0.20876697 -0.75470793 -0.6204326
000040 a1 eb b8 be 81 f1 ad be 56 53 3c be 24 08 1d bf
       -0.3611727 -0.33973315 -0.18391165 -0.61340547
000050 39 a8 20 bf e1 6a 42 bf 9c 35 23 bf c7 8f 0c bf
       -0.6275669 -0.75944334 -0.63753676 -0.54906887
000060 35 33 d9 be e7 d0 17 bd 49 94 db 3b 93 29 45 bf
       -0.4242188 -0.03706446 0.0067010266 -0.7701656
000070 7f 5f 85 bf c9 df 60 bf 6a 62 ec be ab 90 b1 3d
       -1.0419768 -0.8784147 -0.46168834 0.08670171
000080 ea 03 a3 3e 50 4a 0a 3f 54 7b c4 3d d2 5a f9 3e
       0.31838924 0.5401964 0.095938355 0.48702103
000090 14 ec 89 3f d7 15 7e 3f 76 06 1e 3f e5 27 02 3f
       1.077517 0.99252075 0.6172861 0.50842124
0000a0 77 df 71 3f 6a d0 fa 3e 01 52 cd 3e 95 25 fc 3e
       0.94481605 0.48987132 0.40101627 0.49247423
0000b0 5a 13 6d 3f 6f 5b 87 3f 2a 26 e9 3e 3a 9a 4c 3e
       0.92607653 1.0574778 0.4553693 0.19980708
0000c0 a7 f4 2f bb 02 f8 aa be 55 ae 65 bf 9d b5 cc be
       -0.0026848705 -0.3339234 -0.89719135 -0.3998231
0000d0 e3 81 8f be f3 09 70 bf c1 e5 69 bf 29 94 eb be
       -0.28028783 -0.9376518 -0.913662 -0.46011475
0000e0 00 49 01 bf cb 98 3d be 5f f2 e6 be b6 e2 9b be
       -0.50502014 -0.18515317 -0.4510679 -0.30446404
0000f0 5a f7 9d be a6 d0 46 bf c4 94 b2 be c3 29 4a bf
       -0.30852777 -0.7766212 -0.34879124 -0.78969973
000100 ab b7 d2 be 2f 23 21 bf bc 33 26 be be 89 c0 be
       -0.41155753 -0.6294431 -0.16230673 -0.3760509
000110 07 b4 47 bf a8 83 04 bf 4f a0 96 be c5 90 17 bf
       -0.78009075 -0.5176339 -0.2941918 -0.59205276
000120 ef bf ec be 85 fc 67 be 3d 9f ce 3d ef 86 48 bf
       -0.46240184 -0.22654922 0.10088966 -0.7833089
000130 34 6b 0f bf 24 19 fe be aa 32 92 be 0c 86 aa be
       -0.56022954 -0.49628556 -0.2855428 -0.33305395
000140 9e 75 b1 bd c5 3c 5e 3e bb dd c2 3e 34 e5 23 3f
       -0.08665012 0.21702869 0.38059792 0.6402161
000150 0f 29 0a 3f c9 e1 2c 3f 47 e0 f8 3e 94 ae 09 3f
       0.539689 0.6753202 0.4860861 0.5378201
000160 d1 fa cc 3e c7 3b 9a 3d 52 9f 9a 3e c3 e8 bd 3e
       0.40035108 0.07530933 0.30199677 0.37091646
000170 aa ee 68 3f ae 49 5e 3f eb cb 39 3e 0f 64 82 3e
       0.9098917 0.86831176 0.18144195 0.25466964
000180 ff f6 8a be 14 d2 30 be 3d 2b 98 be 2f cc a1 3d
       -0.27141568 -0.17267638 -0.29720488 0.07900273
000190 2f b7 f2 3d c6 a9 3e bc 4a 36 22 bb be 1d d0 bd
       0.11851346 -0.011637157 -0.0024751597 -0.10161923
0001a0 2b 73 15 3e 7a 5b 65 bd b7 b2 05 bf 40 55 a7 be
       0.14594714 -0.055995442 -0.5222582 -0.32682228
0001b0 8c d6 9a 3e 79 69 c4 3d b1 d6 da bd bf 06 88 be
       0.3024181 0.0959043 -0.106854804 -0.26567647
0001c0 f7 db 3a be c9 5b 53 be 2e 54 80 3c fd 92 df bc
       -0.18247972 -0.20640482 0.01566514 -0.02729177
0001d0 da b7 85 bc 49 ac 42 3e f6 4f ef 3e 27 fe b0 bd
       -0.016323019 0.19011034 0.46740693 -0.08642226
0001e0 9e 95 c0 bd 4c 28 7a 3e c1 83 40 bd ff 5f ff 3d
       -0.09403537 0.24429435 -0.04700065 0.12469482
0001f0 1c 1e 8d 3c eb 86 de bd e1 37 a8 bd b0 b0 a0 be
       0.017226271 -0.10865577 -0.08213783 -0.31384802
000200 ae 32 1e 3e cc 8d 3d 3d 67 f5 03 be ee 61 c1 be
       0.1544902 0.046277806 -0.12886582 -0.37770027
000210 d7 e3 df be 6d c5 00 bf 7a 4f 4e bd aa 50 7b be
       -0.43728516 -0.5030125 -0.050368764 -0.2454249
000220 03 4f 18 bf 31 c5 1d be 3a 9e 82 3e 09 f5 44 be
       -0.5949556 -0.15407254 0.25511342 -0.19234098
000230 28 06 2b bf 4e 1c 33 bf 49 c0 bc be a5 56 04 3e
       -0.6680627 -0.69965065 -0.36865452 0.12923677
000240 bb a8 07 bf 58 98 a7 be 22 0c 1d bf 8e 81 43 be
       -0.5299184 -0.32733417 -0.6134664 -0.1909239
000250 1a 14 a8 be 24 88 ab be 87 03 89 be ff 7b 93 be
       -0.32827836 -0.33502305 -0.26760504 -0.2880554
000260 43 8e 76 be d8 96 01 be 29 76 b2 bc 57 b4 8f be
       -0.24077706 -0.12655199 -0.021784859 -0.28067276
000270 41 0a 38 bf 6f 88 73 be cf e1 23 bf d7 e6 43 bf
       -0.71890646 -0.23782514 -0.6401643 -0.7652411
000280 0c 52 1a 3d f3 eb dd 3e f6 fe 02 3f 31 e0 06 3f
       0.037675902 0.43344077 0.5117029 0.5268584
000290 13 7f 27 3f 17 46 70 3f 89 34 4f 3f b2 b4 10 3f
       0.65428275 0.9385695 0.8093954 0.5652572
0002a0 76 a3 57 3f da 70 0c 3f c3 92 39 3e a4 24 ff 3e
       0.84233797 0.548597 0.18122391 0.49832642
0002b0 3f ee 25 3f 71 ba 8d 3f df 50 58 3f 16 30 c8 3e
       0.6481666 1.1072522 0.844984 0.39099187
0002c0 a2 98 a7 bd 9c 5d d8 be 57 63 1b bf cd ec 0d bf
       -0.08183409 -0.42258918 -0.60698456 -0.55439454
0002d0 37 1a 02 bf 84 ae 3e bf dd dc fc be 58 c0 90 be
       -0.5082125 -0.7448504 -0.49387255 -0.28271747
0002e0 0d 28 d0 3c 82 3e 85 be bd df 74 be 88 d4 83 be
       0.025409723 -0.26024252 -0.23913474 -0.25748086
0002f0 c7 44 82 bf a4 ac 92 bf 86 60 06 bf 35 03 8c bd
       -1.0177239 -1.1458936 -0.52491033 -0.06836549
000300 59 35 bd be 5d 64 20 bf 1c 2a bb be 32 86 bd 3d
       -0.36954764 -0.6265314 -0.36555564 0.09254111
000310 d4 00 a3 bd af b9 77 be cb 47 cc bd 19 c0 f5 3d
       -0.07959142 -0.24191926 -0.09974631 0.1199953
000320 b2 a6 96 be 89 65 ae 3e b1 0f a8 bd 6e f3 2b be
       -0.29424053 0.3406184 -0.08206118 -0.1679208
000330 0c 6b 80 be b3 50 36 be 02 f5 9d bd 0b bb 05 bf
       -0.2508167 -0.17804222 -0.07712747 -0.5223853
000340 b3 73 3c 3e 5e 1e 73 3e ed be 8c 3e 5f 19 e9 3e
       0.18403511 0.23742053 0.27489415 0.4552717
000350 42 73 f4 3e 14 38 27 3f e4 56 58 3f 14 fc 1c 3f
       0.47744185 0.65319943 0.84507585 0.6132214
000360 5a 00 35 3f 22 31 a3 3e e7 28 1f be 20 de bb 3e
       0.7070366 0.31873423 -0.15542947 0.36692905
000370 9d d4 46 3f 1f 2e 8e 3f 8b 65 43 3f bb 68 c6 3e
       0.7766817 1.1107825 0.7632682 0.38751778
000380 11 73 a2 be df 12 9a be a5 a0 95 bd bb 8e ed be
       -0.31728414 -0.30092523 -0.07306031 -0.46397957
000390 a1 32 1c bf d6 5f a0 be 5e 2a 02 bf 88 b0 bc be
       -0.61014754 -0.31323117 -0.508459 -0.36853433
0003a0 2d 9f 95 be 6e 44 d9 be b2 ad e3 bd da e4 77 3b
       -0.29223004 -0.4243502 -0.11117114 0.0037825615
0003b0 84 52 41 bf a8 ad 05 bf ad 17 f3 be b9 59 7b be
       -0.75516534 -0.52218103 -0.47479 -0.24545945
0003c0 9f 21 d3 be 49 71 28 3f 7d 65 8f be af ec 3d 3f
       -0.41236588 0.6579786 -0.28007117 0.74189276
0003d0 c7 c1 9d 3f 78 cb 90 3f c0 5c 2b 3f ba 61 d6 3e
       1.2324761 1.1312094 0.669384 0.41871434
0003e0 1b 0f 26 3f 98 7e 1e 3f 3a ef 7c 3e 34 f1 a5 3e
       0.648668 0.61911917 0.24700633 0.32410586
0003f0 61 62 0b 3f 8e 80 20 3f 43 a1 40 3f 25 0a bd 3e
       0.5444699 0.6269616 0.75246066 0.36921802

net.fc.bias f4 [32]
000000 7a e8 2e bf b7 dd 95 3e 7d 0f 20 bf a4 4c 9c 3f
       -0.6832348 0.29270718 -0.62523633 1.2210889
000010 f5 11 54 bf db 7c 43 bd 13 2b 91 bf 21 ef 23 3f
       -0.828399 -0.047726493 -1.134127 0.64036757
000020 8b 2d 01 3f cd d1 85 bf 32 4d 28 c0 83 e3 44 3f
       0.5046012 -1.0454651 -2.6297116 0.76909655
000030 3b 0f ca bf 46 74 c7 3e 5e 24 33 3f 51 44 31 bf
       -1.5785898 0.38955897 0.69977367 -0.6924487
000040 58 b0 43 bf 13 72 b4 bf ba b3 6a 3f ff 09 27 3f
       -0.76440954 -1.4097313 0.9168049 0.6524963
000050 01 bb 8b 3f 58 26 4b be 6e d2 f6 3e 62 98 3d bf
       1.0916444 -0.19838846 0.4820742 -0.7406064
000060 d9 52 e2 bf 88 24 8f 3e ae ca 28 3f 24 4e 56 bf
       -1.7681533 0.2795756 0.65934265 -0.83712983
000070 f9 ed 2a 3f 3a bf 6e 3f 2c b6 86 3f 21 f7 9f 3f
       0.6676937 0.9326054 1.0524344 1.2497293
