model/sbj4_tr_rigorous_20240214_153058/model.pt (torch, 65277 bytes, 17 tensors)

net.conv.weight f4 [8, 1, 1, 256]
00000000: cee9 4d3d aab8 bc3d 45e5 0f3e f2f6 523e
00000010: a45d 503e 3d3e 673e 36be 893e 3e34 673e
00000020: e4b5 a23e b0f5 893e a4e6 253e decd 683e
00000030: 2aa8 3b3e 73a1 083e f6b0 043e 4451 e53c
00000040: dae4 a83c e092 8ebd c071 eebd 8e9a febd
00000050: 83b3 d9bd bc1a 44be c886 87be 9200 80be
00000060: ad7b 83be 338e 84be 352f 9ebe 9a17 abbe
00000070: 3855 94be 4a32 82be d56c c7be 038b b7be
00000080: 730e 9ebe 0670 d9be cd84 cbbe c21f adbe
00000090: 45bd bcbe de88 92be bda5 97be 2a4e 86be
000000a0: 0d00 3abe 95e3 04be 37ab abbd c87f b3bd
000000b0: c100 123d 990a 773d 9106 d83d e861 123e
000000c0: 59e4 5d3e 4f84 9b3e 1c9d ad3e e15a b63e
000000d0: 6487 c43e 236d b03e 44b8 ec3e 1694 e63e
000000e0: ac67 f43e fb48 053f 92b8 f63e ff43 033f
000000f0: 657c ed3e 0090 f83e 431b 073f 0915 e03e
00000100: f49b a93e 4998 a03e d2f8 4b3e 4bf9 7c3d
00000110: 03d5 1c3d ad86 6fbd 085b 56be ac09 8ebe
00000120: cfdf cebe f794 cfbe 970b f8be 28ce 0bbf
00000130: ebce 0ebf 1e58 14bf ceba 20bf 18bb 0ebf
00000140: 0556 f7be 86ea 0ebf 6847 1ebf 2b6e 01bf
00000150: d873 f6be 888b edbe 2f7e ecbe f121 debe
00000160: 0067 acbe 3392 abbe dc72 74be c884 1cbe
00000170: 1b87 85bd d520 ca3d 9477 3f3e e432 ae3e
00000180: d4dd e63e 1c99 0d3f 1951 233f 98de 383f
00000190: 25ad 4b3f 8ef1 413f 8010 513f f3f0 443f
000001a0: 99c4 363f a7eb 1f3f 4546 1e3f f20d 213f
000001b0: 2258 173f c11b f43e 4462 003f fc84 e03e
000001c0: a643 e83e d1ea d83e 6e3f aa3e 80ed 993e
000001d0: 0d48 fe3d f3db 723d 7fdf 92bd 7259 2dbe
000001e0: 7067 8dbe ea05 e1be 11f0 02bf 5d2d 1dbf
000001f0: b69d 41bf c97b 4cbf 0bf0 43bf 3f30 46bf
00000200: 4c34 49bf 5bbd 25bf 186d 1cbf 598b 0cbf
00000210: a49d 00bf 51eb d4be 3f02 78be ec33 87be
00000220: ee39 30be 96be 6abe 88c7 17be 54c6 23be
00000230: 5210 babd a20c 9dbc f922 ab3c 4235 313d
00000240: 13fc 5c3e a54c 8d3e 9423 d13e 37fe 123f
00000250: 456b 203f 60c1 4b3f 6311 543f fb56 5e3f
00000260: 9506 4c3f 7676 2f3f ec74 193f 237e f73e
00000270: 9107 e83e 6aaf ad3e 04ee 963e 1b51 373e
00000280: 3dd7 eb3d 6b16 2f3e 7859 033e 983a 253e
00000290: 8307 0f3e eb07 533e 50ab 193e 10d8 013d
000002a0: b380 2bbd 3336 8cbd e5d6 76be 6fcf cabe
000002b0: fd98 cebe ce55 14bf 0227 2abf 1184 38bf
000002c0: 363e 27bf 9e73 23bf 91a1 1bbf e198 f8be
000002d0: 98df ddbe 13be a2be d130 2ebe d748 2bbe
000002e0: 8368 c1bd 99ad d2bc da37 953d b053 923c
000002f0: b996 b23c f1ee b43d 6cdd 9b3d 2b93 1d3e
00000300: 8629 d73d 3e30 873e f9d3 a93e 2bec a43e
00000310: 9a1e c93e 594b d53e af2d f13e 2f83 d83e
00000320: 574d e43e bad2 d33e 77a0 ce3e ed8c ab3e
00000330: 4108 873e 744a 4c3e 0e35 043e 9b53 143d
00000340: 1569 1d3d bd25 02bd 09ab e3bd 5c6d a9bc
00000350: f71d 98bd 46b3 1b3c 69f1 8d3b 5129 e9bc
00000360: 084a 0a3b 2310 98bd 3cdf 0ebe 1553 e2bd
00000370: 528b 34be d755 a4be 61ff 84be 796f 87be
00000380: b6e6 b8be b349 b5be 5809 7dbe 4e7d 84be
00000390: fb67 6abe 77f2 98bd 923e b5bd 0cec 7e3d
000003a0: 6746 143d e77a 773d 5d9c 0f3e a5a4 133e
000003b0: d490 b93d 8eb9 ff3d cc72 bc3d 6f98 d43d
000003c0: a8a2 ae3d f030 083e e0d0 443e 0029 253e
000003d0: 1e11 733e f81d 383e 8fce 543e 95f0 493e
000003e0: 2292 393e 6c45 7c3d 156c 883d 6c99 783d
000003f0: 8250 88bd ccb4 e8bd e5fe 28be cba1 3abe
0.0502718 0.092149094 0.14052303 0.20602015 0.20348221 0.22582336 0.26902932 0.22578523
0.31779397 0.26945257 0.16201264 0.22734782 0.18325868 0.13342838 0.1295813 0.027992852
0.020616937 -0.06961608 -0.1164279 -0.12431823 -0.10629942 -0.19150823 -0.26470017 -0.25000435
-0.25680295 -0.2588974 -0.3089539 -0.33416444 -0.28971267 -0.25428993 -0.3895022 -0.35848245
-0.308704 -0.4246828 -0.39749756 -0.33813292 -0.3686315 -0.28620046 -0.29618636 -0.2623151
-0.18164082 -0.1297744 -0.08382266 -0.08764607 0.03564525 0.06031284 0.105481274 0.14295161
0.21669139 0.3037438 0.33908927 0.3561621 0.38384545 0.34458265 0.46234334 0.45034856
0.47735345 0.52064484 0.4818769 0.5127563 0.46383968 0.48547363 0.52775973 0.4376605
0.33126795 0.31366184 0.19919136 0.06176118 0.03828908 -0.058478046 -0.20933163 -0.27741754
-0.40405127 -0.4054334 -0.48446342 -0.54611444 -0.5578448 -0.57946956 -0.6278504 -0.5575423
-0.48307815 -0.55826604 -0.6182771 -0.5055873 -0.48135257 -0.46395516 -0.4619002 -0.4338527
-0.33672333 -0.3350998 -0.2387194 -0.15285027 -0.0651991 0.098695435 0.18697959 0.340232
0.45091116 0.5531175 0.6379562 0.7221465 0.7956107 0.7575921 0.816658 0.7693016
0.71393734 0.6246895 0.6182597 0.62911904 0.59118855 0.47677425 0.5014994 0.4385146
0.45364112 0.4236665 0.33251518 0.3006401 0.12416086 0.05929179 -0.07171535 -0.16928652
-0.2761798 -0.43949825 -0.5114756 -0.61397344 -0.7563127 -0.7987638 -0.7653815 -0.7741737
-0.78595424 -0.6474206 -0.61103964 -0.5490013 -0.5024054 -0.41585782 -0.24219607 -0.264068
-0.17209598 -0.22924265 -0.14822209 -0.15993625 -0.09085144 -0.019171063 0.0208907 0.04326368
0.21580534 0.27597538 0.40847456 0.5741915 0.6266368 0.7959194 0.8283903 0.8685147
0.79697543 0.6854013 0.59944034 0.48338422 0.45318273 0.33922893 0.29478467 0.17902033
0.11515663 0.17098396 0.12827098 0.16135633 0.13967709 0.20608489 0.15006757 0.031700194
-0.041870784 -0.06846275 -0.24105413 -0.39611384 -0.40351096 -0.5794343 -0.6646577 -0.7207652
-0.653293 -0.6384829 -0.60793406 -0.48554137 -0.4333465 -0.3178564 -0.1701081 -0.16727005
-0.09443762 -0.025717543 0.072860435 0.017862171 0.021800386 0.08834637 0.07610592 0.15388171
0.10505967 0.26403993 0.33169535 0.32211432 0.3928116 0.41659048 0.47105166 0.42287585
0.44590256 0.4137171 0.403568 0.33505955 0.26373485 0.19950277 0.12910864 0.036212545
0.038430292 -0.03177427 -0.11116607 -0.02068203 -0.0742759 0.009503191 0.004331757 -0.028462084
0.0021101255 -0.07424953 -0.13952345 -0.11051003 -0.17631271 -0.3209674 -0.2597609 -0.26452234
-0.36113518 -0.3540779 -0.24710596 -0.2587685 -0.22891228 -0.074681215 -0.08849825 0.06223683
0.036199953 0.060419943 0.14024492 0.14418276 0.09060827 0.124865636 0.09201583 0.10380637
0.08527118 0.13299918 0.19220304 0.16128922 0.23736998 0.17980182 0.20781921 0.19720681
0.18122151 0.061589643 0.0666124 0.06069319 -0.06655981 -0.11362609 -0.16503485 -0.18225782

net.bn1.weight f4 [8]
00000000: 6b60 ff3f b886 9a3f c160 c23f f85b 1d3f
00000010: 478b c33f 7e12 e33f b975 c73f 51e3 623f
1.99513 1.2072363 1.5185777 0.6146846 1.5276879 1.7740018 1.5582801 0.8862811

net.bn1.bias f4 [8]
00000000: 9570 9bbc 29f7 31bd 06ee c1bd 8905 17bb
00000010: f95d 913d cab2 08be be63 5c3e 56e7 ab3d
-0.018974582 -0.0434486 -0.094692275 -0.002304407 0.07098002 -0.13349453 0.21522424 0.08393733

net.bn1.running_mean f4 [8]
00000000: 9956 4938 10ee c839 be43 bcba 3a9a 9139
00000010: ed22 363b 8895 e8b9 8b7b 28b9 73e3 bd3b
4.8002785e-05 0.00038324343 -0.001436345 0.00027771463 0.0027791813 -0.00044361898 -0.00016067752 0.0057949363

net.bn1.running_var f4 [8]
00000000: 4e8f 7e43 9c8b 8643 f76d 8e43 6917 1243
00000010: 256c b543 2a9b 7f43 b426 8243 8984 5b43
254.55978 269.0907 284.8591 146.09145 362.84488 255.60611 260.30237 219.51772

net.depth_conv.weight f4 [16, 1, 32, 1]
00000000: 8c0e 27be eb44 88be f20b 763e cf3f 8a3f
00000010: f243 ef3e 505b b73e c33b 0f3e b0fb c9bf
00000020: aa0f d63e ac4e 223e f922 8fbe 0fa5 093b
00000030: c137 dfbc 90f5 a5bd e49f b1be 1e48 a6be
00000040: a1f1 4f3e bc91 593e aeb6 1e3f ac37 803e
00000050: 473a ac3e 297b 233f 3f6b 41be 950b d3be
00000060: 8f51 d03e a02c a43e 60f2 20bf f1a6 11bd
00000070: 0c69 88bd 29f3 20bc b1b5 a0be 74ec bbbc
00000080: b264 733e 50a9 0a3e e25e 8abe 6090 40bf
00000090: 2c2a 7bbe 43a2 f5be d114 72bd ea8e e13f
000000a0: d96c 6abe 21f6 c5bd 405e d73e 1ee8 003e
000000b0: f295 a73c 86ab ce3d 483a b53e ee1d f23e
000000c0: 1b6d 1ebd 2df8 c8be 9bda e7be 8f9c babe
000000d0: 231e c8be 4d48 3fbe b66a e23e 1c81 943e
000000e0: 919e 3ebe f59e a93b 3356 323f add4 dcbd
000000f0: 4908 4cbd efb9 223d d2b4 ab3e 6bab 39bd
00000100: ef7a cabd 8a33 fabd 48e1 48bf 8614 0e3e
00000110: cfe8 f33a f62f 36be 85e6 1b3e da22 4a3b
00000120: 18b7 5cbf 9933 923f d51f 2b3f 27c7 97bc
00000130: 78cf 08be 8a03 83be bd95 e53e f9d5 c2bc
00000140: 168c e6be 2075 85bc d320 1abf 0015 f5bd
00000150: 50dd 9bbe 2b11 043f 3bb7 aa3e 9ff9 0dbe
00000160: d28d 9b3f aa38 fabe 2cc2 39be 0234 b93e
00000170: 44dd a93e 2c7a 333b 1988 803c d55f 52be
00000180: 11a4 b1be d588 7cbe 8278 10bf 624a 1b3c
00000190: 39e6 073f 5b2a dbbd 4a4f e0b9 78df 1fbf
000001a0: 3815 8b3f ac99 82bf 1726 2a3f 4700 a0be
000001b0: e377 993d 71bd d43e 3782 c7bd 6c9a cd3e
000001c0: d2a4 ad3e 16bc 863e d81b eebe 83cb 88be
000001d0: 1fab bbbe aa24 a5be b3de fa3e eebb 2c3f
000001e0: b2d8 593f 8817 ce3d 5bd2 43be 0e93 5fbe
000001f0: e3d1 183c 73d5 7dbe c99b 3dbf 10e7 b3bd
00000200: 978d a0bd bf12 de3d f4b3 ba3c 8806 c6be
00000210: 517c 123c c262 823b e55d 7d3e b156 8ebe
00000220: 1919 b0bf 1583 ad3e 4572 2cbe b064 a53d
00000230: 957a 4a3e 9c49 833d 6db6 0b3e 113d 8abe
00000240: 0b3d 8a3f 494c babe c075 553f 2e7a 9bbd
00000250: 6690 48be 95f7 95bd 4438 29be 123e 53bf
00000260: 7472 b0be ba2e 03be 83bf e83e 4fd4 143e
00000270: 3b38 d53e 96c3 f13e 3e19 813f db05 dabb
00000280: d6dc cfbd d99a bdbd 5748 a73e bad6 f1bd
00000290: a494 10bf 282e 8b3e 4ba9 2f3e a27a 833d
000002a0: 7835 8cbf 4db5 ca3d 021e 0d3f 7327 24bf
000002b0: ddc8 453f 43fe 353f a625 bebc cb78 e83d
000002c0: 7def 2a3d 7898 f13c 0e6b 5d3e 6ce5 9abd
000002d0: 2749 80bf 0fda 423f 548c 89be 11eb 1dbf
000002e0: 7ca1 f9be aee4 a43e 4300 623e 314b 39be
000002f0: a813 b33f 934d 58be c16f 033e 4f5f 4b3e
00000300: 4a4f 2d3e 1938 03bd e8bf a1bc 6a9c 7f3e
00000310: 8fd8 e8be 7e58 a8be 8b27 983e 6d72 093f
00000320: 7ba1 e4be 3f71 7b3e 440d 34be fa93 a6be
00000330: 7976 89be 1a1d 383e a12e 32be 14ff 71bc
00000340: f757 863b 08e6 8f3d f81f a13e 9224 6b3d
00000350: f617 9f3e 9be0 d03d 317e 963e e820 193f
00000360: 4f55 973e 74a2 1b3e e63e 5e3e 6fc3 c7be
00000370: fa53 1dbe acaf 57be 5b8d edbd 3cdb a2bd
00000380: 7655 7f3e 355d f33d 1b42 29be 3b99 95bf
00000390: 4feb 9cbd 6e9e ea3d 35d3 f53e 6271 7b3c
000003a0: 488b fb3e c5f1 83be b992 85be d865 3abe
000003b0: b25a 333f d5dd 07be 0f30 0dbe e665 8ebe
000003c0: 6a1b bd3e 0ce8 183e d6f2 7dbf a5f1 0c3e
000003d0: 1e25 e1be 4184 1fbe d5b9 403f c0ce 66be
000003e0: bdbc 1d3e 6b9f 47bf b48f 433f ef7b f03e
000003f0: 4d90 9d3d 0802 fb3d 09ef 7cbe 4196 aebd
-0.16314143 -0.2661508 0.24027994 1.0800723 0.46731526 0.35811853 0.13987641 -1.5779934
0.41808826 0.15850323 -0.2795637 0.0021002924 -0.027248265 -0.08103478 -0.346923 -0.32476896
0.20307018 0.21247 0.619975 0.25042474 0.33638212 0.638598 -0.18888567 -0.41219774
0.40687224 0.32065296 -0.62869835 -0.0355596 -0.06660661 -0.009823599 -0.3138862 -0.022939898
0.23768881 0.1354115 -0.27025515 -0.752203 -0.24527806 -0.47975358 -0.059101883 1.7621739
-0.22893085 -0.09666086 0.42064095 0.12588546 0.020457242 0.10091309 0.35396028 0.4728846
-0.03867827 -0.39251843 -0.4528397 -0.3644757 -0.39085492 -0.18679924 0.4422204 0.29004753
-0.18615176 0.00517642 0.6966278 -0.10782752 -0.04981259 0.0397281 0.33536392 -0.045329493
-0.09886729 -0.122168615 -0.7846875 0.13875017 0.0018608811 -0.17791733 0.15224655 0.0030843527
-0.8621688 1.1421996 0.66845447 -0.01852758 -0.13360393 -0.25588638 0.44840804 -0.02378367
-0.45028752 -0.016291201 -0.60206336 -0.11966896 -0.30442286 0.51588696 0.3334292 -0.13864754
1.2152655 -0.48871356 -0.18140477 0.3617249 0.33176625 0.0027386053 0.015689896 -0.2054437
-0.34695485 -0.24661572 -0.5643388 0.009478183 0.53085667 -0.10701438 -0.00042783684 -0.6245036
1.086585 -1.0203147 0.6646437 -0.31250212 0.0749357 0.41550782 -0.097416334 0.40156877
0.3391481 0.26315373 -0.46505618 -0.26717767 -0.36653993 -0.32254535 0.4899803 0.6747426
0.85096276 0.10063082 -0.19123213 -0.2183344 0.009327385 -0.24788456 -0.74065834 -0.08784306
-0.07839506 0.10843419 0.022790886 -0.38676858 0.008940772 0.003979058 0.24742849 -0.27800515
-1.3757659 0.3388907 -0.16840465 0.08075845 0.19773324 0.06410524 0.13643809 -0.26999715
1.0799879 -0.36386326 0.833828 -0.07591663 -0.19586334 -0.07322613 -0.1652537 -0.82516587
-0.3446232 -0.12810794 0.45458612 0.14534114 0.41644463 0.47219533 1.0085828 -0.00665353
-0.10149543 -0.092580505 0.32672378 -0.11808534 -0.5647681 0.27183652 0.17154424 0.06419875
-1.0953817 0.09897862 0.55123913 -0.64122695 0.7725962 0.710911 -0.023211312 0.113511644
0.0417323 0.029491648 0.2162287 -0.0756329 -1.0022324 0.7611398 -0.26864874 -0.6168681
-0.48756015 0.3220572 0.22070412 -0.1809509 1.3990374 -0.21123342 0.128356 0.19860576
0.16924778 -0.03203592 -0.019744828 0.24962011 -0.4547772 -0.32880014 0.2971767 0.53690225
-0.4465445 0.24554919 -0.17583185 -0.32534772 -0.268482 0.17979851 -0.174006 -0.014770288
0.0040998417 0.07026297 0.31469703 0.057407923 0.31072968 0.1019909 0.2939315 0.59815836
0.29557273 0.1519869 0.21703681 -0.39016291 -0.15364066 -0.21063107 -0.11599227 -0.07951972
0.24934945 0.11883012 -0.16529123 -1.1687387 -0.07662069 0.11455999 0.480127 0.015346857
0.491297 -0.25770393 -0.26088503 -0.18202913 0.70060265 -0.13268216 -0.13787864 -0.27812117
0.36934978 0.14932269 -0.99198663 0.13764055 -0.4397363 -0.15577795 0.7528356 -0.22539806
0.15404029 -0.7797763 0.7639115 0.46969554 0.07693539 0.12256247 -0.2470056 -0.085247524

net.bn2.weight f4 [16]
00000000: f626 dd3f e299 d73f 3787 a63f 6418 b03f
00000010: db92 b93f 0676 c33f 975d 873d 3cff 563f
00000020: 440a e73f 08f1 de3f 362a d73f 8e9b c33f
00000030: c791 bb3f 5595 e13f c8ad 6b3f 56ee 6a3f
1.7277515 1.6843836 1.3010014 1.3757443 1.4497942 1.5270393 0.06609648 0.83983207
1.8050008 1.7417307 1.6809757 1.5281847 1.4653863 1.7623698 0.92062044 0.9176992

net.bn2.bias f4 [16]
00000000: bcd8 debe 70e7 e9be 6efc bfbe 48b9 a3be
00000010: db42 a8be 3d1b 94be ffdf e33b 8859 a6bd
00000020: ae2f cabe 0464 e2be 7667 e0be 4bbf a2be
00000030: 8e64 bcbe 4bbb c1be 81f7 8cbe f232 9abe
-0.4352473 -0.45684385 -0.37497276 -0.31977296 -0.32863507 -0.2892703 0.0069541926 -0.081225455
-0.39489502 -0.4421693 -0.43828934 -0.3178657 -0.36795467 -0.37838206 -0.2753258 -0.30116993

net.bn2.running_mean f4 [16]
00000000: 0cbc b2bc 8991 a6bc 0521 90bc e197 4a3c
00000010: 1087 a4bd 1089 c1bd 597a 9a39 cdc3 29ba
00000020: 9952 e43c 2ea8 0d3d dd29 aebd 1abb a73d
00000030: 8840 153f ffa2 5abe 9b74 143d 884c 04be
-0.021818183 -0.020333068 -0.01759387 0.012365312 -0.08033574 -0.09449971 0.00029464325 -0.0006476015
0.027871417 0.034584217 -0.085040785 0.08189984 0.5830159 -0.2135124 0.036244016 -0.1291982

net.bn2.running_var f4 [16]
00000000: 0668 6641 6bb5 6641 7a5a 0b41 02d6 8041
00000010: 6082 3e41 d4ec 6e41 5d54 d33f dfd9 0840
00000020: 283a 9141 de6e 8141 8ba9 9341 5eca e741
00000030: 4a4e e241 491e 8741 c9c2 c940 82dd d040
14.400396 14.4192915 8.709589 16.104496 11.90683 14.932819 1.6510121 2.1382978
18.153397 16.179134 18.457785 28.973812 28.288227 16.889788 6.3050275 6.5270395

net.point_conv.weight f4 [16, 16, 1, 16]
00000000: 27c6 b9be 4744 e7be ec86 a4be f392 e0be
00000010: 912b e4be d351 fcbe 12c9 e8be 71e6 00bf
00000020: 2a3f f4be 0360 fcbe edea cfbe da1d ccbe
00000030: 53d6 9abe b0c7 3dbe 6a7c 5dbe 7524 46be
00000040: b31b 00bf 7b6d dfbe 2c19 acbe 3385 afbe
00000050: 22dd edbe a120 00bf 4a50 f8be 2167 eabe
00000060: 09eb 01bf e9cd 01bf 50a6 edbe 1a40 d3be
00000070: 221b 9dbe 3ad7 2bbe 3854 c1bd 8610 35bd
00000080: 8c48 80be 0b38 72be c43b 98be 67cb 0bbe
00000090: cf48 10be f1a4 10be 947a 0dbe 782f 03be
000000a0: 81b9 16be 7b61 09be bb29 23be addb cfbd
000000b0: 8a61 78be a5c8 5cbe 02bf 26be 6ad9 46be
000000c0: 4b9a 0e3f 3ed4 fb3e bb83 ee3e 4801 d73e
000000d0: cde8 ad3e 42b5 a03e cf74 5d3e ecb8 2f3e
000000e0: 5a60 c43d b6b2 843d a3c0 e73d 1019 293e
000000f0: 7099 483e f7ee 393e e372 383e 9bff 0b3e
00000100: 9448 9a3b 94eb f13c f412 6e3d 6040 35bb
00000110: ca7a b63b 7ae0 b73b 19a4 3b3d 68fb ce3d
00000120: 4cb1 e03d 51aa 153e 6a11 e23c e86e 7b3d
00000130: aaf0 44ba 1c0c b83a 9ed4 a7bd 8f7f 5d3d
00000140: 10d3 403e 9987 b13e 27e8 b43e 967a bd3e
00000150: 72d2 f43e 97dd da3e 4afb 9a3e 6875 813e
00000160: 88b1 643e cbeb 8f3e 5fe3 b53e 72f8 ee3e
00000170: 9bd7 f63e 8a5b fb3e a537 0a3f 5a0f 0a3f
00000180: 6dfc 403e e8d5 033e 39fc 413e 3985 713e
00000190: 8ba9 6a3e d966 f93d 9713 743e 84cb 363e
000001a0: a865 053e 5dbd 9f3d f7bb 0d3e b51f 813d
000001b0: e5eb 5d3d d12e 553d 4c54 cc3d 4800 fc3d
000001c0: 5561 883d a702 8b3d 7d2b 90bd 5749 9fbd
000001d0: ba56 03be 359f eabd 55c6 0ebe 9070 71bd
000001e0: 0b16 82bc ee09 56bd b9fd 69bd 838f 38bb
000001f0: 3386 25bd 71fe 60bd 9819 bcbd ee8a 1cbe
00000200: da77 9dbe 031d 98be ffb9 c7be e263 b9be
00000210: d4b1 cfbe dbbe dabe 6960 07bf 9962 1abf
00000220: 9f3e e0be af80 bbbe 8c16 c7be ad9a bfbe
00000230: 9f67 c4be 6b72 88be c7d7 96be f0c8 bcbe
00000240: 08a3 0abf da9f efbe 2a3f 0dbf 6c80 1ebf
00000250: 23a4 06bf 8873 16bf f455 13bf 77a6 1cbf
00000260: 25da fabe 58e6 f0be 79f9 e0be 98c9 f1be
00000270: 6184 cbbe dcf4 cfbe c9da b6be 7461 d7be
00000280: fddd d4be 466f fabe 60fe b6be 9e05 c4be
00000290: f331 04bf 6b41 05bf 5586 27bf cb29 28bf
000002a0: f870 2abf cff3 2cbf 66cb 27bf 6a01 edbe
000002b0: 814b c9be 3908 98be 4da7 9abe 9cf7 77be
000002c0: 9c35 7f3e 2829 5e3e dd2f ad3d ff0b 543e
000002d0: f05d 373e 44a4 703e ea9e b13e c3e9 e23e
000002e0: eb80 f43e a833 f63e 7fd8 093f 89bf fe3e
000002f0: 9e58 a93e 7152 913e da18 383e 80b5 333e
00000300: 2891 d03d b090 ae3d ae0a 1f3e 4d1c aa3e
00000310: 7ad6 cc3e f614 bb3e a85a 923e ae70 493e
00000320: 65b5 783d 0e42 803b 1d1c 893d bf58 a8bd
00000330: fb96 b6bc 9821 d1bb 7666 9f3d 8bdc 2f3d
00000340: 840d 1cbf e87c 08bf 985c 02bf e5c1 0ebf
00000350: 7847 04bf 2863 1cbf 5f65 2cbf 5f27 2abf
00000360: b95a 2ebf 255f 35bf adce 1fbf 0977 0ebf
00000370: 9cf0 a3be 65e0 5abe d622 46be 93f9 21be
00000380: 662f b9bc 912f 99bd 27fe c1bd 498f 91bd
00000390: c2fe bbbd 8b8b 73bd 661d 61bd 7af2 d8bd
000003a0: 4dc4 01be 0df2 11be 9d37 bdbd fdb2 0ebe
000003b0: 8559 49bd 1975 18be 5414 07be ae59 f1bc
000003c0: 2d89 d83c ea37 9e3d b4e2 373d c2c0 1a3d
000003d0: 74c0 6abd 3956 51bd e48b efbd ea2e 9dbd
000003e0: 6c6d 42be 023f 06be 62b7 50be 66e4 68be
000003f0: 2220 2abe 853f 49be fa96 8fbe 8d87 4abe
-0.3628399 -0.4516928 -0.32134187 -0.43862113 -0.4456449 -0.49281177 -0.45465904 -0.50351626
-0.4770444 -0.49292 -0.40608922 -0.39866525 -0.3024164 -0.18533206 -0.21629491 -0.19349845
-0.50042266 -0.43638214 -0.33612955 -0.3428131 -0.46457773 -0.5004979 -0.48498756 -0.45781806
-0.5074926 -0.5070482 -0.4641595 -0.41259843 -0.30684763 -0.16781321 -0.094398916 -0.04420521
-0.2505535 -0.23654191 -0.29733098 -0.1365181 -0.14090274 -0.1412542 -0.13816291 -0.12811077
-0.14719202 -0.13416092 -0.15933888 -0.10149322 -0.24255958 -0.21560915 -0.16283801 -0.19418874
0.5570418 0.49185365 0.46584877 0.41993165 0.33966675 0.3138829 0.2162659 0.17160386
0.0958869 0.06479399 0.113160394 0.16513467 0.19589782 0.18157564 0.18012576 0.13671724
0.004708359 0.029531278 0.058123544 -0.0027656779 0.005568837 0.0056114765 0.045810793 0.10106546
0.10971317 0.14615752 0.027596194 0.061385065 -0.00075126684 0.0014041695 -0.081948504 0.054076727
0.18830514 0.34673765 0.35333368 0.37007588 0.47816807 0.42747185 0.30269843 0.25284886
0.22333348 0.28109583 0.35525033 0.46673924 0.4821137 0.49093276 0.53991157 0.53929675
0.18846293 0.12874568 0.18943872 0.23585977 0.22916238 0.1217782 0.23835598 0.17851073
0.1302706 0.0779979 0.13841234 0.06304876 0.054180045 0.0520466 0.09977016 0.12304741
0.066591896 0.06787615 -0.07039545 -0.0777766 -0.12826052 -0.114561476 -0.13942845 -0.05894524
-0.015879652 -0.052255563 -0.057126734 -0.0028161712 -0.040411185 -0.054930154 -0.09184569 -0.15287372
-0.30755502 -0.29709634 -0.3900909 -0.36209017 -0.4056536 -0.42723736 -0.52881485 -0.603067
-0.43797776 -0.36621615 -0.3888439 -0.37422696 -0.38360307 -0.26649794 -0.294615 -0.36872053
-0.54155016 -0.46801645 -0.55174506 -0.61914706 -0.525942 -0.58770037 -0.5755303 -0.61191505
-0.48994556 -0.47050738 -0.43940333 -0.47224116 -0.39749435 -0.406165 -0.35713795 -0.42066538
-0.41575614 -0.4891302 -0.35740948 -0.38285536 -0.51638716 -0.52052945 -0.6543935 -0.6568877
-0.66578627 -0.6755952 -0.65544736 -0.4629014 -0.39315417 -0.29693773 -0.30205765 -0.24215549
0.24922794 0.21695387 0.08456395 0.20707701 0.17906928 0.23500162 0.34691554 0.4431897
0.47754607 0.48086286 0.5384597 0.49755505 0.33075422 0.2838321 0.1797823 0.17549706
0.10183936 0.08523691 0.15531418 0.33224717 0.40007383 0.3653943 0.2858479 0.1967189
0.060719866 0.0039141243 0.06694815 -0.08220052 -0.02228879 -0.0063821785 0.07783215 0.042934936
-0.60958123 -0.5331559 -0.50922537 -0.5576461 -0.5167155 -0.610888 -0.6734218 -0.66466326
-0.6810718 -0.70848304 -0.6242474 -0.55650383 -0.32019508 -0.21374662 -0.19349226 -0.15817861
-0.02260561 -0.07479776 -0.09472304 -0.071074076 -0.091794506 -0.05945925 -0.054959677 -0.10593124
-0.12672539 -0.14252491 -0.09239123 -0.13935466 -0.049157638 -0.14888419 -0.13191348 -0.029461708
0.026432598 0.077255085 0.044893935 0.037781484 -0.057312444 -0.05110762 -0.11696604 -0.07674964
-0.18987054 -0.13109973 -0.20382455 -0.22743377 -0.1661382 -0.19653137 -0.28044873 -0.19778271

net.bn3.weight f4 [16]
00000000: 5e40 cd3f 1698 b63f f723 683f f131 a23f
00000010: 22a3 7b3e 1eef cd3f ff71 e93f 1786 b63f
00000020: 53e2 c33f b6e2 e53f bd2d 9d3f 7ab2 f73f
00000030: 3dde 573f 0ab3 ee3f 2651 e53f 1c02 f23f
1.6035268 1.4265163 0.9067988 1.2671491 0.24573949 1.6088598 1.8237914 1.4259671
1.5303444 1.7959812 1.2279583 1.9351342 0.84323484 1.8648388 1.791539 1.8906894

net.bn3.bias f4 [16]
00000000: 87d5 48be 8bf3 70be 1718 523d 8edf 26be
00000010: 5ba2 70be 4486 b33d b800 3f3d c545 a4bd
00000020: 586e fabb 7994 893d c35b 40be 1e45 a93b
00000030: 50a4 99bd 4bef 063d a3a5 e13d edc3 0dbd
-0.19612704 -0.23530404 0.051292505 -0.16296217 -0.23499434 0.087658435 0.046631545 -0.0802112
-0.0076425485 0.06717772 -0.18785004 0.00516571 -0.07502043 0.03294305 0.11017921 -0.034610678

net.bn3.running_mean f4 [16]
00000000: ac40 e3bf 35aa acbf 6f9d 80be 475f a1bf
00000010: 0407 ab3e 0422 ec3f 41a4 133f 85fe bf3f
00000020: bcfd 0740 b421 563f 80de cebf 3866 023f
00000030: 8d5f 933e fcd8 c23f 180d f33f 9fd0 c53f
-1.7754111 -1.3489443 -0.25120112 -1.2607201 0.3340379 1.8447881 0.57672507 1.4999548
2.1248617 0.83645177 -1.6161652 0.50937223 0.28783837 1.5222468 1.8988371 1.5454291

net.bn3.running_var f4 [16]
00000000: 9df2 9a43 8db4 a143 35a9 3043 c8bf 9a43
00000010: 73a2 c542 b97f da43 ae2b 9943 1a16 a743
00000020: 44f0 9f43 8016 a543 e1a0 a143 8af3 dc43
00000030: c9e9 2743 f205 cd43 1abf c643 603a c443
309.89542 323.41055 176.66096 309.4983 98.81728 436.99783 306.34125 334.17267
319.87708 330.17578 323.25687 441.90265 167.91322 410.04645 397.49298 392.45605

net.fc.weight f4 [32, 256]
00000000: db9c 6a3c ba5d d43e ef4a fc3e 79b2 e93e
00000010: 60bd c83e 4bbd 4f3e 5f4b fa3e dc93 933e
00000020: 02f5 9d3e 5a98 453e 2fd3 683e 819a 183e
00000030: 44c5 ac3e 743c 0a3f 81fa e73e ad19 c13e
00000040: 686a 0abe cb2b 9a3e c129 6e3e bf25 193e
00000050: 1f28 263e 6597 113f d643 9c3e e5f3 bf3e
00000060: af4c 983e 4919 153e 0ff0 413e d127 c53e
00000070: 1595 ab3e 18ec e93e 7214 e53e 71e7 2d3e
00000080: 66db 813d 7267 c1bd 8679 3dbd 21a8 2bbe
00000090: 6cee 6abe 7bda a0be 94d0 87be ff83 95be
000000a0: 0f7f 2cbe b3db 78bd 161a 95be 7291 93bd
000000b0: 1321 e3bd 5469 19bb 4443 f3bd 2bb5 31be
000000c0: 9926 b53d 924e 5b3e 7337 8e3e 9a07 d73e
000000d0: 5469 1d3e be3b 913e d013 c23e 1c94 51bc
000000e0: c2f3 dd3d 4e1c 173e 2a52 c33e 4ee4 9f3e
000000f0: 99b9 9f3e 1e4e 683d e663 f03e f8a7 0f3f
00000100: 52d8 773d 26e8 313e 05bd 7c3d d258 8abd
00000110: a447 3abd e127 ce3d ce52 a73d b20a cd3c
00000120: e051 9bbd 9f13 683d 9925 cc3d 34c1 48bd
00000130: 24bb 2d3e 9010 833c 091e c9b9 6a00 c1bd
00000140: ba79 a6be aeb7 c2be d460 2fbe e900 74be
00000150: 5652 eabe 64a6 d6be 142f 9fbe a127 e9be
00000160: f63a 99be 5a6d 7dbe 745f 75be 6592 afbd
00000170: 5d7b 9cbe 0f39 29be 8d9f 69be 9e8a a0bc
00000180: 8420 9fbe 526a ddbe 5bf3 0ebf b5c1 0abf
00000190: d06b 4abe 8eed 5cbe 9695 c2be 46d4 8fbe
000001a0: 9a1f 79be 5911 a8be e962 dabe 1380 38be
000001b0: c8b7 93be fa04 69be c185 d7be e914 34bf
000001c0: f61f 5b3e 5b0e 99be 0b99 a0be 12da bebe
000001d0: 2eb5 a5be 7f60 88be 8756 63be 4dfe 9bbe
000001e0: 0d5e 46bd 3284 afbd d0f7 9bbe 5298 0bbe
000001f0: 8c61 77be fa7a bdbe b2eb bbbe 9383 11be
00000200: 69e9 dcbd 1404 a9be 2eee 99be 9e3e 39be
00000210: 9896 11bf 1637 ccbe 2870 47be 4eb8 e1bd
00000220: 5850 25be a7d8 91be 3d84 e4bd 8fd6 dfbd
00000230: 647a 1fbe a498 4fbe e3d9 cfbe 402f 83be
00000240: d1af 3b3e 4444 b1bd b953 98be eba7 2dbf
00000250: 4aeb 08bf 3e44 373d 0d7f 21be bc64 d6be
00000260: 0420 9bbe 1713 f8bd b064 f9be d6ce 70be
00000270: e2e1 d7be 58fd 92be 39e6 5ebe 596c 3bbe
00000280: e46c 85be bbdb c13e 1d46 173e 0db2 e93e
00000290: 41e7 9c3e 9479 4a3e c452 323d 4b0b 8e3e
000002a0: 5e83 5f3e 1094 ad3e f2b8 983d 5c38 4f3e
000002b0: 7d62 fa3e d89a 953d 25f8 713e 6a4d 453d
000002c0: 5bff 9bbe ddfd f3be a467 e5be 79cc 12be
000002d0: 085b ccbd 2639 dfbe 4138 05be f9a0 b2be
000002e0: 0768 babe d02b 0fbf 8d44 f4be 36fb 2dbf
000002f0: 1c26 0ebf 881c 503d 55d5 d6be 7059 0bbf
00000300: b188 cd3e ab09 de3e daa0 ec3d a03d 733e
00000310: cc4b 843e bd2a 003d ec31 413e 06e5 803d
00000320: 1525 30be 3fcf 013e 9143 f9bd 0772 e03d
00000330: 9a28 313d 758f 9a3d 7198 b63e d63a eebd
00000340: f6ea ddbc 4eaa e6be 241b 26bf fea6 d2be
00000350: bafb bfbe dd96 51be 40f7 b9be 7e80 01bf
00000360: dc17 b2be 73d8 a0be a526 06bf 1d83 27bf
00000370: 0e34 acbe 98f4 b1be e2f7 12bf 651a 76be
00000380: a3ad b0bd 57d1 64be 7de8 87be 21b3 e0be
00000390: e1fb 48bf 619f 15be a4a6 84be 5ece f2bd
000003a0: ad9c bebe 7ac8 d3be 424e 59be f36e 81be
000003b0: 2547 903e 9a3a 98bd 732f 1fbf 3534 a3be
000003c0: cf77 763d 805b 24bf 22c4 e5be 801d 94be
000003d0: 9ff6 62be 23ef c2be 771e a0be 9c9b 4ebe
000003e0: d37a 9dbe e8de d5be 3ff2 19bf d21c ebbe
000003f0: 8558 1dbf b171 bbbe df11 17bf 0ae5 74bd
0.014319624 0.41477758 0.4927592 0.45643976 0.39206982 0.20287053 0.4888563 0.28823745
0.3085099 0.19296399 0.2273681 0.14902689 0.33744252 0.53998494 0.45308307 0.37714902
-0.13517153 0.30111536 0.23258115 0.14955805 0.16226242 0.56871635 0.30520505 0.37490764
0.29746005 0.14560427 0.18939231 0.3850694 0.33512178 0.45687938 0.4474216 0.16982819
0.06340675 -0.09443559 -0.046258472 -0.16763355 -0.22942513 -0.31416687 -0.2652632 -0.29202268
-0.16845344 -0.060756397 -0.29121464 -0.07205476 -0.11090293 -0.0023408728 -0.11878064 -0.17354266
0.088452525 0.21416691 0.2777668 0.41997987 0.1537221 0.28365892 0.3790574 -0.01279166
0.10837509 0.14756891 0.38148624 0.3122887 0.31196287 0.056715123 0.46951216 0.56115675
0.060509034 0.17373714 0.0617037 -0.067552224 -0.045478478 0.100662 0.081700906 0.025029514
-0.07583976 0.056659337 0.09968109 -0.049012378 0.1696592 0.015999109 -0.00038360085 -0.09423907
-0.32514745 -0.3803076 -0.17126781 -0.23828472 -0.45765942 -0.4192382 -0.31090605 -0.45538047
-0.29927796 -0.24748746 -0.23962194 -0.085728444 -0.3056287 -0.16525672 -0.2281477 -0.019597348
-0.31079495 -0.43245178 -0.5584008 -0.54201823 -0.1976769 -0.21574995 -0.3800475 -0.2809164
-0.24328461 -0.32825735 -0.42653587 -0.18017606 -0.2885115 -0.22755805 -0.42094234 -0.70344406
0.21398911 -0.29893765 -0.31366763 -0.3727575 -0.32364792 -0.2663612 -0.22200976 -0.30467454
-0.048429538 -0.08570136 -0.30462503 -0.13632324 -0.24158305 -0.37007886 -0.3670326 -0.14210348
-0.10786707 -0.33010924 -0.3006453 -0.18090293 -0.5687041 -0.39885777 -0.19476378 -0.110214815
-0.1614393 -0.28485605 -0.11158035 -0.10929596 -0.15574032 -0.20273072 -0.40595922 -0.25621986
0.18328787 -0.08655599 -0.29751375 -0.6783435 -0.5348402 0.044742815 -0.15771122 -0.4187373
-0.30297863 -0.12113016 -0.4870963 -0.23516402 -0.42164522 -0.2870891 -0.2176751 -0.1830305
-0.2605964 0.37862954 0.1477284 0.45643654 0.30645183 0.19772941 0.043535963 0.2774299
0.21827456 0.33902025 0.074571505 0.20236343 0.48903266 0.07304925 0.23629816 0.04816953
-0.30468258 -0.4765462 -0.44805634 -0.14335813 -0.099783 -0.43598288 -0.1300974 -0.34888437
-0.36407492 -0.5592623 -0.4770855 -0.6796144 -0.555269 0.05080846 -0.41959634 -0.54433346
0.4014335 0.4336675 0.115541175 0.23753977 0.25839078 0.03129076 0.188667 0.06293683
-0.17201646 0.12676714 -0.121710904 0.10959249 0.04325161 0.075468935 0.3566318 -0.11632316
-0.027089577 -0.45051807 -0.64885163 -0.4114303 -0.3749674 -0.20467706 -0.3632145 -0.5058669
-0.34783828 -0.31415138 -0.52402717 -0.6543444 -0.33633465 -0.34756923 -0.5740949 -0.24033506
-0.086268686 -0.22345482 -0.26544562 -0.43886665 -0.78509337 -0.1461158 -0.25908387 -0.11855768
-0.3722891 -0.4136389 -0.21221259 -0.2527996 0.2817928 -0.07433052 -0.62181777 -0.31875768
0.060172852 -0.6420212 -0.448762 -0.28928757 -0.22164391 -0.38073072 -0.31273243 -0.20176548
-0.3075777 -0.41771626 -0.60135263 -0.45920426 -0.61463195 -0.36610177 -0.59011644 -0.05978874

net.fc.bias f4 [32]
00000000: 48bf 23be cfa9 82bc 3f9e 9e3d e724 723d
00000010: 67d0 283e 684b cabd 7f7c 323d b980 3b3e
00000020: c398 c43e 945b 91be a3bc fa3f 73a0 9fbd
00000030: 3356 5ebd b813 2abe 0154 603e 416f 9fbe
00000040: 125e 293d 2829 e83d 089b 093e d979 ce3e
00000050: 9595 b3be e2a9 a93e 32e4 fabd 7281 c63e
00000060: 7c5b 80be bb2c b83d 5ae2 153f 74ab 8d3e
00000070: 567a af3e c963 e6bd 37a5 85be c5d4 d6be
-0.15990937 -0.015950112 0.07745027 0.059117224 0.16485749 -0.09877664 0.04357576 0.18310823
0.38397798 -0.2839018 1.9588817 -0.07794275 -0.054281425 -0.16609085 0.21907045 -0.31139567
0.041349478 0.11335975 0.13438046 0.40327337 -0.3507506 0.33137423 -0.12250556 0.38770634
-0.25069797 0.08992907 0.5854851 0.2766987 0.34273022 -0.11249501 -0.2610261 -0.41959205
