model/sub4_20240206_130642/model.pt (torch, 65706 bytes, 17 tensors)

net.conv.weight f4 [8, 1, 1, 256]
0	0xbe8fb77b	-0.28069672
1	0xbed98bdf	-0.42489526
2	0xbf25326d	-0.6453007
3	0xbf42ad9a	-0.76046145
4	0xbf297f90	-0.6621027
5	0xbf329c87	-0.6977009
6	0xbf4ee0d9	-0.8081184
7	0xbf594c62	-0.84882176
8	0xbf869fbf	-1.0517501
9	0xbf6f57b3	-0.93493193
10	0xbf4c563c	-0.79819083
11	0xbf22f2d0	-0.6365175
12	0xbec55805	-0.38543716
13	0xbd87ee11	-0.066372044
14	0x3e543c61	0.20726158
15	0x3ee2d28f	0.44301268
16	0x3ec6072b	0.38677344
17	0x3e454459	0.19264354
18	0xbc01675a	-0.007898176
19	0xbea62c80	-0.32455826
20	0xbee22419	-0.44168165
21	0xbf04c36c	-0.5186069
22	0xbedeb996	-0.43500966
23	0xbe5cfef1	-0.21581627
24	0x3e16ae61	0.14714958
25	0x3eb6d733	0.3571106
26	0x3eca44b0	0.3950553
27	0x3ed99a41	0.425005
28	0x3ed7423b	0.42042717
29	0x3e408344	0.18800074
30	0x3e5a79de	0.21335551
31	0x3e6f0118	0.23340261
32	0x3ed0d41f	0.40786836
33	0x3f46bd71	0.77632815
34	0x3f98e9c3	1.1946338
35	0x3fa7187c	1.3054347
36	0x3fb54641	1.4162065
37	0x3fa9d502	1.326813
38	0x3f962fde	1.1733358
39	0x3f3dacff	0.74092096
40	0x3ea8352b	0.32853064
41	0xbd08d465	-0.03340568
42	0xbe87757f	-0.2645683
43	0xbeb39bf8	-0.35079932
44	0xbebd180e	-0.36932415
45	0xbe75c340	-0.24000263
46	0xbeb4a640	-0.3528309
47	0xbeb11585	-0.3458673
48	0xbef94527	-0.48685572
49	0xbf2ab606	-0.66683996
50	0xbf337e4d	-0.70114595
51	0xbf39961e	-0.72494686
52	0xbf49ff6c	-0.7890537
53	0xbf15a1fe	-0.58450305
54	0xbee48773	-0.4463459
55	0xbe6dccaa	-0.23222604
56	0xbe509780	-0.20370293
57	0xbe8c7267	-0.27431032
58	0xbec7fbbb	-0.39059243
59	0xbf03464c	-0.5127914
60	0xbf43b832	-0.76452935
61	0xbf7f88c3	-0.99818057
62	0xbf8c1bf4	-1.0946031
63	0xbf84b921	-1.0368997
64	0xbf670906	-0.90248144
65	0xbf2f53cd	-0.68487245
66	0xbf1725fc	-0.59042335
67	0xbee7a0a0	-0.45239735
68	0xbec1cc13	-0.3785101
69	0xbe8a9d31	-0.27073053
70	0xbd4d5d18	-0.05013761
71	0x3d358e03	0.044324886
72	0x3e3ebbf1	0.18626381
73	0x3e8f204d	0.2795433
74	0x3eedfee1	0.4648352
75	0x3f2529be	0.6451682
76	0x3f2a404d	0.66504365
77	0x3f1d0671	0.61337954
78	0x3f09e9b0	0.53872204
79	0x3f0d40ec	0.5517719
80	0x3edcdce9	0.4313729
81	0x3ec58df5	0.38584867
82	0x3e99cfda	0.3004139
83	0x3efd5d08	0.4948504
84	0x3f15f775	0.58580714
85	0x3f2767a2	0.65392506
86	0x3f318f9e	0.6935977
87	0x3f2a2f34	0.66478276
88	0x3f052145	0.5200389
89	0x3e914093	0.2836958
90	0x3dc0d81d	0.0941622
91	0xbe217adb	-0.15769522
92	0xbe8fc08e	-0.28076595
93	0xbe366122	-0.1781049
94	0xbb75fa46	-0.0037533208
95	0x3e92c452	0.28665406
96	0x3ed586ec	0.417045
97	0x3f0150cc	0.5051391
98	0x3ead18d3	0.33808002
99	0x3dc72363	0.09723546
100	0xbe7252df	-0.23664425
101	0xbf04d1e8	-0.5188279
102	0xbf3c02d3	-0.7344181
103	0xbf44501d	-0.76684743
104	0xbf419676	-0.7562021
105	0xbf237394	-0.63848233
106	0xbedf1fe9	-0.43579033
107	0xbee5c7e1	-0.44879058
108	0xbf06778c	-0.52526164
109	0xbf508444	-0.8145182
110	0xbf8bcf3a	-1.0922616
111	0xbfc15284	-1.5103307
112	0xbfd5ae97	-1.6693906
113	0xbfe00d88	-1.750413
114	0xbfc1fc2a	-1.5155079
115	0xbf853b58	-1.0408735
116	0xbf06df9a	-0.5268494
117	0xbd345701	-0.044028286
118	0x3e383809	0.17990126
119	0x3eace066	0.33764952
120	0x3e9487ba	0.290098
121	0x3e946e2e	0.2899031
122	0x3dcafe5a	0.09911795
123	0x3e0d9f49	0.13830294
124	0x3e40524e	0.18781397
125	0x3ecada1e	0.39619535
126	0x3f07a2cf	0.529828
127	0x3f1239a3	0.57119197
128	0x3f154995	0.583154
129	0x3ece4868	0.40289617
130	0x3e8af408	0.27139306
131	0x3e0239d5	0.12717374
132	0xbd05d99d	-0.032678235
133	0x3d177ddd	0.036985267
134	0x3cdebfbf	0.027191041
135	0x3e57db9c	0.21079868
136	0x3ee066fc	0.4382857
137	0x3f26671b	0.65001076
138	0x3f4a1cfb	0.7895047
139	0x3f620370	0.88286495
140	0x3f3df2a9	0.74198395
141	0x3f2190d3	0.6311161
142	0x3ec599e8	0.38593984
143	0x3e6fe25e	0.23426196
144	0x3e7f9cb4	0.24962121
145	0x3ec81a7f	0.39082715
146	0x3edfc7b5	0.43707052
147	0x3eee7384	0.46572506
148	0x3ed83797	0.42229912
149	0x3ec04db0	0.3755927
150	0x3db1e633	0.08686485
151	0xbecd2a05	-0.4007112
152	0xbf3c7a97	-0.7362456
153	0xbf72ebbc	-0.9489095
154	0xbf7e693f	-0.9937934
155	0xbf7589f3	-0.9591362
156	0xbf4af185	-0.7927478
157	0xbf0bccca	-0.5460936
158	0xbee673b6	-0.45010155
159	0xbee5464e	-0.447802
160	0xbf30013c	-0.68751884
161	0xbf5a04bb	-0.8516347
162	0xbf944f76	-1.158675
163	0xbf9c76dc	-1.2223773
164	0xbf899111	-1.0747396
165	0xbf534721	-0.8253041
166	0xbf0c4b5c	-0.5480249
167	0xbe9c4530	-0.30521536
168	0xbdf7adc4	-0.1209369
169	0x3d52d75d	0.051474918
170	0xbdc4ed78	-0.09615606
171	0xbe048270	-0.12940383
172	0xbe95f955	-0.29291788
173	0xbece3baf	-0.4027991
174	0xbeb4b4bf	-0.35294148
175	0xbe9fa68b	-0.3118175
176	0xbd9ba7c1	-0.07600356
177	0x3e53edc9	0.20696177
178	0x3ec2a38c	0.380154
179	0x3f027d04	0.5097201
180	0x3eed3c63	0.46335134
181	0x3ee11064	0.43957818
182	0x3ec7837b	0.389675
183	0x3e9ffa8a	0.31245834
184	0x3e819a58	0.25313067
185	0x3ecd37c2	0.40081602
186	0x3f28fa2b	0.66006726
187	0x3f89e0e4	1.0771756
188	0x3fa37d86	1.2772682
189	0x3fa6660b	1.2999891
190	0x3faa8ef5	1.3324877
191	0x3f93d29c	1.1548648
192	0x3f4af6a1	0.79282576
193	0x3f006932	0.50160515
194	0x3e33710c	0.17523593
195	0x3e19146d	0.14949198
196	0x3db2e006	0.08734135
197	0x3e46eb91	0.19425799
198	0x3dc61f2f	0.096739165
199	0x3df544ec	0.119760364
200	0xbd9b8e00	-0.07595444
201	0xbeaf592d	-0.34247723
202	0xbf384929	-0.71986634
203	0xbf66ebaa	-0.90203345
204	0xbf800ae6	-1.0003326
205	0xbf65b741	-0.8973275
206	0xbf1bd9a7	-0.60878986
207	0xbea37c01	-0.31930545
208	0x3d92808e	0.07153426
209	0x3ebd5b7d	0.36983863
210	0x3ebb380b	0.36566195
211	0x3e2d0f28	0.16900313
212	0xbe2d5338	-0.16926277
213	0xbf0f7b07	-0.560471
214	0xbf5fce43	-0.87424105
215	0xbf8f5fc2	-1.1201098
216	0xbf94f2df	-1.1636618
217	0xbf84a9eb	-1.0364355
218	0xbf310559	-0.69148785
219	0xbe9bfb12	-0.3046499
220	0xbe7df810	-0.2480166
221	0xbe391313	-0.18073682
222	0xbeecd0e5	-0.46253124
223	0xbf46cb59	-0.77654034
224	0xbf580a1e	-0.8439044
225	0xbf1ee9d3	-0.6207554
226	0xbebc3c58	-0.3676479
227	0xbc9c996c	-0.019116126
228	0x3ef7b156	0.48377484
229	0x3f78b147	0.97145504
230	0x3f9bae24	1.2162519
231	0x3f949998	1.1609373
232	0x3f86a321	1.0518533
233	0x3f341f61	0.7036038
234	0x3e6407d7	0.22268616
235	0x3c9fda01	0.019513132
236	0x3ca5744d	0.020197058
237	0x3e90f61d	0.2831277
238	0x3f3e8afe	0.74430835
239	0x3f84b8c5	1.0368887
240	0x3f9dde43	1.2333454
241	0x3f950a53	1.1643776
242	0x3f6cf385	0.9255908
243	0x3f1ff935	0.62489635
244	0x3e553a21	0.20822956
245	0x3d3b671e	0.045752637
246	0xbdddb8aa	-0.108262375
247	0xbd871bd5	-0.065971054
248	0xbdca708c	-0.09884748
249	0xba72b6ec	-0.0009258825
250	0xbd046f01	-0.032332424
251	0xbe18abd6	-0.149093
252	0xbefed47c	-0.49771488
253	0xbf81b420	-1.0133095
254	0xbfc04184	-1.5019994
255	0xbfe808e3	-1.8127712

net.bn1.weight f4 [8]
0	0x3fd1f813	1.6403831
1	0x3ff352f4	1.900969
2	0x4006df97	2.1073968
3	0x3fb7d66a	1.4362309
4	0x3f8643f5	1.0489489
5	0x4000d407	2.0129411
6	0x3f913c9d	1.1346623
7	0x3f53061d	0.82431203

net.bn1.bias f4 [8]
0	0xbd82102a	-0.06350739
1	0xbd976d9b	-0.073939525
2	0xbe6d2d8f	-0.2316191
3	0xbd8973f8	-0.067115724
4	0xbdfc9c26	-0.123344705
5	0x3e93db7b	0.28878388
6	0xbd7f568b	-0.062338393
7	0x3e03e6e0	0.1288104

net.bn1.running_mean f4 [8]
0	0x3a0c5923	0.00053538586
1	0xb9a085db	-0.00030617308
2	0xb957538d	-0.00020535123
3	0x3984a6ce	0.0002530128
4	0xba829d60	-0.0009965114
5	0x39637302	0.00021691251
6	0x39153ae9	0.00014231693
7	0x3a948ef5	0.0011334108

net.bn1.running_var f4 [8]
0	0x4490e1e7	1159.0594
1	0x44ab6374	1371.1079
2	0x44b11c52	1416.885
3	0x43c9c88e	403.56683
4	0x440b9a30	558.4092
5	0x449f8bdf	1276.371
6	0x4327cc84	167.79889
7	0x43dea127	445.259

net.depth_conv.weight f4 [16, 1, 32, 1]
0	0xbe5da73f	-0.2164583
1	0x3e4e41ea	0.20142332
2	0x3f298061	0.66211516
3	0x3e057b63	0.1303535
4	0x3f583a59	0.8446403
5	0xbf29f118	-0.66383505
6	0x3f0de6c5	0.5543025
7	0x3f17d69e	0.59311855
8	0xbfa76550	-1.3077793
9	0x3efd03d2	0.49416977
10	0xbfb18c06	-1.3870857
11	0xbee3bed2	-0.44481522
12	0xbf264a71	-0.6495734
13	0x3dea630e	0.114446744
14	0x3e7334c2	0.23750594
15	0x3f0d5c4f	0.55218977
16	0x3e6859fa	0.22690573
17	0x3e7b6961	0.24551918
18	0x3fbec85b	1.4904894
19	0x3f7ca052	0.9868213
20	0xbd0e35f6	-0.03471943
21	0x3e837915	0.25678316
22	0x3eb8479b	0.3599213
23	0xbfb566c9	-1.4171993
24	0xbfb7c61f	-1.4357337
25	0x3fa1ef9f	1.2651252
26	0xbe81aaec	-0.25325716
27	0xbfb74f17	-1.4321011
28	0xbe561f51	-0.20910384
29	0xbf154164	-0.58302903
30	0x3f3e4098	0.7431731
31	0x3ec46276	0.3835637
32	0xbe2be659	-0.1678709
33	0x3f0fc6e4	0.5616286
34	0x3f33f006	0.7028812
35	0x3ea3d795	0.32000414
36	0x3fbe3985	1.4861304
37	0x3e46d860	0.19418478
38	0xbf09d6be	-0.53843296
39	0xbe114804	-0.14187628
40	0xc0030cbe	-2.0476527
41	0x3f560487	0.8360066
42	0xbf18cb03	-0.5968477
43	0xbe3920e8	-0.18078959
44	0xbfc0c3a3	-1.5059704
45	0xbf27396d	-0.65322
46	0xbd6e2902	-0.058144577
47	0x3f060441	0.5235024
48	0x3e1a404a	0.15063587
49	0x3e9fc004	0.31201184
50	0x3f2d4779	0.67687184
51	0x3fa920dc	1.3213153
52	0x3f16a9e6	0.58852994
53	0x3fd27440	1.6441727
54	0x3f282bbc	0.65691733
55	0xbf8c51c8	-1.0962458
56	0xbfc7a67e	-1.5597684
57	0x3ef83264	0.48475945
58	0x3e339f4d	0.17541237
59	0xbeda94ea	-0.42691737
60	0xbf908375	-1.1290118
61	0xbf3c3c92	-0.7352992
62	0x3f697745	0.91197616
63	0x3e4e574a	0.20150486
64	0x3ea9cea0	0.33165455
65	0x3f84c94c	1.0373931
66	0x3ef14490	0.47122622
67	0xbf0ac607	-0.54208416
68	0x3ec240bb	0.3794001
69	0xbe73b64d	-0.23800011
70	0x3e8ceeb4	0.27525866
71	0xbea49459	-0.3214443
72	0xbe9abeda	-0.30223733
73	0xc0298475	-2.6487095
74	0x3d86f066	0.06588821
75	0x3eec5824	0.46160996
76	0x3ecd1f0f	0.40062758
77	0x3fa5f2b3	1.2964691
78	0xbe8336fd	-0.2562789
79	0x3e8c4579	0.27396753
80	0x3e13ad0b	0.1442148
81	0x3d2b9ff4	0.04190059
82	0x3ec7535a	0.3893078
83	0x3f1e12f6	0.6174768
84	0x3f83fb40	1.031105
85	0xbeb09722	-0.34490305
86	0x3e09154e	0.13387033
87	0x3d0af29b	0.033922773
88	0xbf86f631	-1.0543882
89	0xbe5013c4	-0.2032004
90	0xbf8deffe	-1.1088865
91	0xbebd89fc	-0.37019336
92	0xbd4bd7db	-0.049766403
93	0xbe4de370	-0.20106292
94	0x3eefd449	0.46841648
95	0x3ea8b71b	0.32952198
96	0xbeb099a9	-0.34492233
97	0xbf36308c	-0.71167827
98	0xbf19adf8	-0.6003108
99	0xbf545118	-0.8293624
100	0xbf7a85a8	-0.97860193
101	0x3f0806dc	0.53135467
102	0x3efb3408	0.49063134
103	0x3fc99a40	1.5750198
104	0xbf28789c	-0.65809035
105	0x40058baf	2.0866506
106	0xbf093adb	-0.5360543
107	0x3e24872e	0.16067192
108	0xbd8ac354	-0.06775537
109	0xbebe774f	-0.372004
110	0xbb58eec1	-0.0033101293
111	0xbe53a39f	-0.20667885
112	0x3dd18414	0.1023027
113	0xbf14bf2e	-0.5810422
114	0xbca9a74e	-0.02070966
115	0xbec4a571	-0.38407472
116	0xbf483ae2	-0.7821485
117	0xbea30f8c	-0.318478
118	0xbef6e5a9	-0.48222092
119	0x3f2af8e3	0.6678602
120	0x3e92561d	0.28581324
121	0xbeece90a	-0.46271545
122	0x3ff70d58	1.9300947
123	0x3ec15df8	0.37767005
124	0xbf483f43	-0.7822153
125	0x3f3fc77a	0.7491375
126	0xbf24939d	-0.6428774
127	0x3e0f0b06	0.13969049
128	0xbe20b8d5	-0.15695508
129	0xbf93dd77	-1.1551961
130	0xbf0b39aa	-0.54384863
131	0xbf07d9a6	-0.5306648
132	0xbe6b5a4c	-0.22983664
133	0x3f0208e4	0.50794816
134	0xbd59e36b	-0.0531954
135	0x3fa9d93d	1.3269421
136	0x3e3317a2	0.17489484
137	0x403add34	2.9197512
138	0xbd804c61	-0.06264568
139	0xbdc70b1a	-0.09718914
140	0xbf2fc479	-0.6865917
141	0xbfc2046e	-1.5157602
142	0x3e99cfc8	0.30041337
143	0x3d1109de	0.0354098
144	0xbe471c13	-0.19444303
145	0xbe841dca	-0.25803977
146	0xbf3a0953	-0.7267048
147	0xbec7e4db	-0.3904179
148	0xbf6c2fd7	-0.922605
149	0x3f35b21f	0.70974916
150	0x3d20b66a	0.039236464
151	0x3ecc1fe5	0.39868084
152	0x3eeaf2bb	0.45888314
153	0x3ee3195e	0.4435529
154	0x3f868206	1.050843
155	0x3f8a9e14	1.0829492
156	0xbec9af35	-0.39391485
157	0xbda965d2	-0.08271374
158	0xbf226c7b	-0.6344678
159	0x3ea33f0c	0.31884038
160	0x3d8e2edb	0.06942531
161	0x3e900aa1	0.2813311
162	0xbedcce6d	-0.4312624
163	0xbf71c80f	-0.9444589
164	0xbfa80bf1	-1.3128644
165	0x3eacbdff	0.33738706
166	0x3f19f50f	0.60139555
167	0x3fc4dbbf	1.5379561
168	0xbf99cf98	-1.2016478
169	0x3e37223c	0.17884153
170	0xbf147e7f	-0.5800552
171	0x3ef43f92	0.4770475
172	0x3f1d47e0	0.614378
173	0x3f8de13c	1.1084361
174	0xbe611f45	-0.21984585
175	0xbe934736	-0.28765267
176	0x3df7007f	0.120606415
177	0xbeff6977	-0.4988515
178	0x3f10f391	0.5662165
179	0x3d9a891a	0.07545681
180	0xbb9a0a63	-0.004700945
181	0xbf60a212	-0.877473
182	0xbe9c8b52	-0.30575043
183	0x3f1b04b5	0.6055406
184	0xbf0f2515	-0.5591596
185	0xbf62fea8	-0.88669825
186	0x3fc2ae68	1.5209475
187	0x3d109553	0.035298657
188	0xbf8fa26d	-1.1221443
189	0x3fb7cbca	1.4359066
190	0xbe86f1f3	-0.26356468
191	0x3dd40395	0.10352246
192	0x3ec934c3	0.39298066
193	0xbe5131f8	-0.20429218
194	0x3da06386	0.078314826
195	0xbde672e4	-0.112523824
196	0x3f43680e	0.7633065
197	0xbe6e0bdb	-0.2324671
198	0xbf9ad90c	-1.2097487
199	0x3d9c5ff0	0.07635486
200	0x3eb3162b	0.3497785
201	0xbec492bf	-0.38393208
202	0xbf3e7020	-0.7438984
203	0xbe017d8e	-0.12645552
204	0x3f282c59	0.6569267
205	0xbecded51	-0.4022012
206	0xbecc640e	-0.39920086
207	0x3f298db6	0.6623186
208	0xbeb79319	-0.35854414
209	0x3e01570e	0.12630865
210	0xbf2fbaed	-0.686446
211	0xbf67814c	-0.90431666
212	0x3d9f60fb	0.077821694
213	0xbe108859	-0.14114513
214	0xbe104b76	-0.14091286
215	0x3f4cb2cf	0.7996034
216	0x400df46f	2.218044
217	0xbfdf571b	-1.7448457
218	0x4003081d	2.0473702
219	0x3fb4f978	1.4138632
220	0xbf19d56f	-0.600913
221	0xbf80520f	-1.0025042
222	0x3ee18e25	0.4405376
223	0x3d99fa92	0.075184956
224	0x3d3d1060	0.046158195
225	0xbec907de	-0.39263815
226	0x3defe73c	0.11714026
227	0xbf2cf558	-0.67561865
228	0x3f8b827c	1.0899196
229	0xbd2dead3	-0.042460274
230	0xbf050a07	-0.51968426
231	0x3f066f60	0.52513695
232	0x3eeafb91	0.45895055
233	0xbe971085	-0.2950479
234	0xbfed20af	-1.8525599
235	0x3e084dce	0.1331093
236	0x3d8822be	0.066472515
237	0xbdc9bc51	-0.09850372
238	0xbcc66907	-0.024220003
239	0x3f98f51a	1.1949799
240	0x3ef34ea1	0.47520927
241	0x3d312d8d	0.04325633
242	0xbe7dfff3	-0.24804668
243	0xbf1ccc60	-0.6124935
244	0xbe8ff47b	-0.2811621
245	0xbf6feb55	-0.93718463
246	0x3e87c516	0.26517552
247	0x3ec2711e	0.37976927
248	0x4001084f	2.016132
249	0xbfacdc68	-1.3504763
250	0x3ffae53f	1.960121
251	0x3fb331ff	1.3999633
252	0xbf12d8bd	-0.57361966
253	0xbf97668f	-1.1828173
254	0x3e8e9c29	0.27853516
255	0xbe37a6ea	-0.17934766

net.bn2.weight f4 [16]
0	0x3fe78b00	1.8089294
1	0x3fe87e42	1.8163531
2	0x4010f312	2.2648358
3	0x400fdeb5	2.247968
4	0x401777de	2.366691
5	0x40179774	2.368619
6	0x3fd26f7f	1.6440276
7	0x3fd7a3db	1.684688
8	0x3f849c06	1.0360115
9	0x3fc0e0eb	1.506864
10	0x401099cd	2.2593873
11	0x4015e4e0	2.3420944
12	0x3fceb420	1.614872
13	0x3fced393	1.6158317
14	0x3fb60413	1.4219993
15	0x3fc235d2	1.5172675

net.bn2.bias f4 [16]
0	0xbec4a907	-0.38410208
1	0xbec83689	-0.39104107
2	0xbf1a9970	-0.6039038
3	0xbf1b7de1	-0.6073895
4	0xbf2c49c7	-0.67300075
5	0xbf223938	-0.6336856
6	0xbee2ef10	-0.44323015
7	0xbeef1a5c	-0.46699798
8	0xbe5fcacc	-0.21854705
9	0xbee4f056	-0.44714612
10	0xbf0a761e	-0.5408648
11	0xbf2acfe3	-0.6672346
12	0xbee799a8	-0.45234418
13	0xbee37c10	-0.4443059
14	0xbec34a67	-0.38142702
15	0xbee7844d	-0.45218125

net.bn2.running_mean f4 [16]
0	0xbc9a9d7c	-0.018873923
1	0xbd671977	-0.05642077
2	0xbd27c844	-0.040962473
3	0x3d4d34ea	0.05009929
4	0xbe873ab7	-0.26411983
5	0xbd1f1692	-0.038839884
6	0xbd549a36	-0.05190488
7	0xbda0e8bc	-0.078568906
8	0xbda9f4cd	-0.08298645
9	0x3dab6727	0.08369284
10	0xbead7fe6	-0.3388664
11	0x3f19ed70	0.60127926
12	0x3bd9fb87	0.006652299
13	0x3c178ef2	0.009250389
14	0xbdbbe6dc	-0.09174892
15	0x3e0c0b32	0.13676146

net.bn2.running_var f4 [16]
0	0x42273c2d	41.808765
1	0x41ab432a	21.407795
2	0x41bc9692	23.57352
3	0x4171e595	15.11855
4	0x41ffb42e	31.962978
5	0x4221adcb	40.41972
6	0x427621f5	61.53316
7	0x42482d60	50.04431
8	0x41aee689	21.862566
9	0x41f9e083	31.234625
10	0x420fe9a2	35.978157
11	0x419aadb8	19.334824
12	0x42a3d772	81.92079
13	0x42b36401	89.69532
14	0x40f7b620	7.740982
15	0x4167993b	14.47491

net.point_conv.weight f4 [16, 16, 1, 16]
0	0x3e9dd2a2	0.30824763
1	0x3ef0a656	0.47001904
2	0x3f372154	0.7153523
3	0x3f13af79	0.57689625
4	0x3f11deba	0.5698048
5	0x3ed30d39	0.41221026
6	0x3e7c0248	0.24610245
7	0x3deacd5f	0.11464953
8	0xbe00bc6e	-0.1257188
9	0xbd85a6db	-0.06525966
10	0xbe4870fe	-0.19574353
11	0xbd999698	-0.074994266
12	0x3d6608ca	0.056160726
13	0x3e802f6c	0.2503618
14	0x3eedb65a	0.46428186
15	0x3f21ddb3	0.6322891
16	0xbc069f80	-0.008216739
17	0x3e17d197	0.14826046
18	0x3eeb84e3	0.45999822
19	0x3f22aa5f	0.63541216
20	0x3f4c38f8	0.7977443
21	0x3f7c3f19	0.9853378
22	0x3f825642	1.0182574
23	0x3f879172	1.0591261
24	0x3f51fe1a	0.82028353
25	0x3f27ae39	0.6550022
26	0x3ea65154	0.32483923
27	0x3df3e146	0.11908202
28	0x3caa1675	0.020762661
29	0x3cceafe9	0.025230365
30	0x3e0a198e	0.13486311
31	0x3ecd99c7	0.40156385
32	0x3db79085	0.08963112
33	0x3e0a54b7	0.13508879
34	0x3db29a92	0.08720888
35	0x3db57f20	0.08862138
36	0x3cac8106	0.021057617
37	0x3dea91c7	0.11453586
38	0x3dfaba05	0.12242512
39	0x3e5d2df1	0.21599557
40	0x3ec0a211	0.37623647
41	0x3edafef4	0.4277264
42	0x3f14b57f	0.5808944
43	0x3f262a4e	0.649083
44	0x3f15027c	0.58206916
45	0x3f0954b1	0.53644854
46	0x3ebf6bdc	0.37386978
47	0x3eb14575	0.34623304
48	0xbe53d048	-0.20684922
49	0xbe39ac3e	-0.18132111
50	0xbd87bb48	-0.06627518
51	0xba45c9b2	-0.00075450086
52	0xbd7b579b	-0.061362844
53	0xbd880f49	-0.066435404
54	0xbddc207a	-0.10748382
55	0xbdb06e53	-0.08614793
56	0xbe2ca677	-0.16860376
57	0xbc0f5db4	-0.008750368
58	0xbdacef35	-0.084440626
59	0xbb9e64b2	-0.004833781
60	0x3bb1a861	0.0054216837
61	0x3daff66f	0.08591925
62	0x3e2655fb	0.16243736
63	0x3df2bf88	0.11852938
64	0xbc74da32	-0.0149446
65	0x3d5f4225	0.05450644
66	0x3d363737	0.04448625
67	0x3de56c28	0.1120227
68	0x3e5b4d60	0.21416235
69	0x3ddcbbfc	0.10778043
70	0x3e489e0f	0.19591545
71	0x3e65b37c	0.22431749
72	0x3e100feb	0.14068572
73	0x3d632811	0.055458132
74	0x3c0d67e2	0.008630725
75	0x3dac00ab	0.08398565
76	0xbd43afbf	-0.047775026
77	0x3d2eeee0	0.042708278
78	0x3dab24c8	0.08356625
79	0x3d0f24f9	0.03494737
80	0xbf0c3cbe	-0.54780185
81	0xbede10ca	-0.43372184
82	0xbea92c25	-0.33041492
83	0xbdb5cacd	-0.08876572
84	0x3e840eec	0.25792634
85	0x3e7a71b3	0.24457435
86	0x3eb37cc6	0.35056132
87	0x3e859dc5	0.2609693
88	0xbc4d1963	-0.01251826
89	0xbe11fff4	-0.14257795
90	0xbed8d899	-0.4235275
91	0xbf12a24f	-0.57278913
92	0xbf3889a7	-0.7208504
93	0xbf50afd3	-0.81518286
94	0xbf33744f	-0.7009935
95	0xbed840b8	-0.42236876
96	0x3f8df6e7	1.1090974
97	0x3f75b369	0.95976883
98	0x3f4b08e4	0.7931044
99	0x3f2f799c	0.68544936
100	0x3f2ef5a6	0.6834358
101	0x3f31baa6	0.6942543
102	0x3f24aa30	0.64322186
103	0x3f13b356	0.5769552
104	0x3f230cc6	0.63691366
105	0x3f43bcca	0.76459944
106	0x3f5aa805	0.8541263
107	0x3f56887d	0.83802015
108	0x3f238753	0.63878363
109	0x3ed8293c	0.4221896
110	0x3eb5dfc4	0.35522282
111	0x3e77aee3	0.24187808
112	0x3f88136a	1.0630925
113	0x3f7b478a	0.98156035
114	0x3f5b9156	0.8576864
115	0x3f64dc32	0.8939849
116	0x3f869ffb	1.0517572
117	0x3f85f770	1.0466137
118	0x3f805838	1.0026922
119	0x3f458307	0.77153057
120	0x3f2c2a03	0.67251605
121	0x3f535cf4	0.8256371
122	0x3f6ff830	0.9373808
123	0x3f5f395e	0.8719691
124	0x3f53d275	0.82743007
125	0x3f32f3e9	0.6990343
126	0x3f355c92	0.70844376
127	0x3f189bb2	0.5961257
128	0x3e427eb4	0.18993646
129	0x3ea171e2	0.31532198
130	0x3edf4b97	0.43612358
131	0x3efaaf94	0.4896208
132	0x3f0967fb	0.53674287
133	0x3f047e04	0.51754785
134	0x3f19f9cb	0.6014678
135	0x3f06e526	0.526934
136	0x3f0825c9	0.53182656
137	0x3f02588f	0.5091638
138	0x3e8b4834	0.27203524
139	0x3e1166b3	0.14199333
140	0xbe035721	-0.12826206
141	0xbe627089	-0.22113241
142	0xbeaedaad	-0.3415121
143	0xbeb5e6e2	-0.35527712
144	0x3ebc370c	0.36760747
145	0x3ed4b699	0.4154556
146	0x3ebdfd16	0.37107152
147	0x3eac312a	0.3363126
148	0x3ea3ca17	0.3199012
149	0x3e80e202	0.2517243
150	0x3de2fed6	0.11083762
151	0x3c142257	0.00904139
152	0xbaeeee5a	-0.0018228993
153	0x3c08b81b	0.008344675
154	0x3dae3f66	0.08508186
155	0x3e268043	0.16259865
156	0x3eabf9dd	0.33589068
157	0x3eb2e24f	0.34938285
158	0x3ed83ba6	0.42233008
159	0x3edfbb55	0.4369761
160	0xbf1470bc	-0.5798452
161	0xbeb8d920	-0.36103153
162	0xbe6a2f6a	-0.2286965
163	0xbda22c61	-0.07918621
164	0x3d546148	0.051850587
165	0x3d34832d	0.04407041
166	0x3e0c5ada	0.13706532
167	0x3db21771	0.08695877
168	0xbd73d145	-0.059525747
169	0xbeaa8da0	-0.33311176
170	0xbef902a8	-0.4863484
171	0xbf0b6056	-0.5444387
172	0xbefa2571	-0.4885669
173	0xbf01cd15	-0.50703555
174	0xbef5879e	-0.4795503
175	0xbee400e6	-0.44531935
176	0x3e038390	0.12843156
177	0x3dbd82b9	0.09253449
178	0x3e63c6ad	0.22243758
179	0x3e6c84e6	0.23097572
180	0x3e89ee4e	0.26939625
181	0x3e546e3f	0.2074518
182	0x3e58ff78	0.21191204
183	0x3e44b6b2	0.19210318
184	0x3dad0cc7	0.08449703
185	0x3d859600	0.06522751
186	0xbdb535f9	-0.08848185
187	0xbd77a6cc	-0.060461804
188	0xbdb8a599	-0.0901596
189	0xbd8d1f52	-0.068907395
190	0xbe0cc156	-0.13745627
191	0xbda2e132	-0.07953109
192	0x3f594a4f	0.8487901
193	0x3f601256	0.8752798
194	0x3f5b9f4a	0.8578993
195	0x3f75d14c	0.96022487
196	0x3f87ebdb	1.0618852
197	0x3f67707b	0.90406007
198	0x3f5f2a37	0.8717379
199	0x3f6a39ba	0.91494334
200	0x3f53e3e8	0.8276963
201	0x3f36d89c	0.7142427
202	0x3f455db8	0.7709613
203	0x3f264d21	0.6496144
204	0x3f054892	0.5206386
205	0x3f1c7919	0.6112228
206	0x3f2d905e	0.6779841
207	0x3f3609ca	0.71108687
208	0x3f38b12f	0.7214536
209	0x3f1c36a7	0.6102089
210	0x3f0a988f	0.54139036
211	0x3eb9f4bb	0.36319527
212	0x3ecaf48f	0.39639708
213	0x3ec98c3f	0.39364812
214	0x3e46b5cc	0.19405288
215	0x3e951ba4	0.2912265
216	0x3e662767	0.22475968
217	0x3e3087e9	0.17239346
218	0x3e2c126b	0.16803901
219	0x3ea03862	0.31293017
220	0x3e8f9ba4	0.28048432
221	0x3e90a2ee	0.28249305
222	0x3e6c1e11	0.23058344
223	0x3eeac3a5	0.4585239
224	0x3eb2efbc	0.34948528
225	0x3f0bd125	0.54616004
226	0x3f31f630	0.6951628
227	0x3f5e019e	0.8672122
228	0x3f4912f8	0.7854457
229	0x3f4d3804	0.801636
230	0x3f4352cb	0.7629821
231	0x3f528e70	0.8224859
232	0x3f51edbd	0.82003385
233	0x3f42e2b3	0.76127166
234	0x3f2e9d6b	0.6820895
235	0x3f25947f	0.6467971
236	0x3ef42d0a	0.47690612
237	0x3ee0ca7f	0.43904492
238	0x3ed7966b	0.42106947
239	0x3ee13f31	0.43993524
240	0x3e9ff33b	0.31240258
241	0x3ecc71b9	0.39930514
242	0x3ea0e284	0.31422818
243	0x3edab75f	0.42718026
244	0x3ef4ef1c	0.47838676
245	0x3f0b1dfc	0.5434263
246	0x3f0dd09c	0.5539644
247	0x3f112290	0.56693363
248	0x3f11eacd	0.569989
249	0x3ed207fd	0.4102172
250	0x3ee13cdc	0.43991745
251	0x3ead7afb	0.3388289
252	0x3e8e419b	0.27784428
253	0x3e834412	0.2563787
254	0x3e4e8b53	0.20170335
255	0x3e146bad	0.144942

net.bn3.weight f4 [16]
0	0x3f379948	0.71718264
1	0x400397cf	2.0561407
2	0x40088bd6	2.133535
3	0x3fe50a31	1.7893735
4	0x3fb2e6e6	1.3976715
5	0x3fce3f0d	1.6112992
6	0x3f02569f	0.50913423
7	0x3f4484cf	0.7676515
8	0x3fe15e48	1.7606897
9	0x3f9dcfe7	1.2329072
10	0x40062715	2.0961354
11	0x3fdd8343	1.7305683
12	0x3f4cffbf	0.8007774
13	0x3fefa52f	1.8722285
14	0x3faf9a29	1.3718921
15	0x40055604	2.083375

net.bn3.bias f4 [16]
0	0xbde74340	-0.11292124
1	0xbe8c4fc4	-0.27404606
2	0xbf1fb96a	-0.62392294
3	0x3e2c6f37	0.168393
4	0x3dbca429	0.092109986
5	0xbec7631f	-0.3894281
6	0xbd90a9ad	-0.07063613
7	0xbe1d3d74	-0.15355474
8	0xbec39016	-0.38195866
9	0x3e2e5922	0.17026189
10	0xbf1facc0	-0.6237297
11	0xbc743128	-0.014904298
12	0xbe53f0ef	-0.20697378
13	0xbee4af08	-0.44664788
14	0x3dc8ff04	0.09814265
15	0xbf119b86	-0.56877935

net.bn3.running_mean f4 [16]
0	0x403b16ef	2.9232748
1	0x4026eada	2.6080842
2	0xc116c354	-9.422688
3	0x40d2735b	6.5765815
4	0x40b268fc	5.5753155
5	0xc0f660b1	-7.699303
6	0xbea15575	-0.3151051
7	0xc01517b3	-2.3295715
8	0x3f20d9fa	0.62832606
9	0x40b8ec8c	5.7788754
10	0xc11318dc	-9.193569
11	0x4091d3c7	4.5571017
12	0x4058e75c	3.389121
13	0xc10a09ea	-8.62742
14	0x40a03008	5.005863
15	0xc10e56aa	-8.896158

net.bn3.running_var f4 [16]
0	0x4419ee18	615.7202
1	0x448d13ea	1128.6223
2	0x44f12943	1929.2894
3	0x44ac0e87	1376.454
4	0x448be0ac	1119.021
5	0x44cb34a1	1625.6447
6	0x4413655b	589.5837
7	0x4487e984	1087.2974
8	0x444de551	823.58307
9	0x448a194d	1104.7906
10	0x44f45ddb	1954.933
11	0x448265b0	1043.1777
12	0x441fe226	639.53357
13	0x44f4788a	1955.7668
14	0x448f57f4	1146.7485
15	0x44e2262a	1809.1926

net.fc.weight f4 [32, 256]
0	0xbe68e77e	-0.22744557
1	0xbec73a12	-0.38911492
2	0xbf343fcc	-0.70409846
3	0xbd8c9833	-0.06864967
4	0xbe7537ac	-0.23947018
5	0xbe9cfa50	-0.30659723
6	0xbd5ec655	-0.054388363
7	0xbe16b089	-0.1471578
8	0xbebf8fc5	-0.37414375
9	0xbecc1f0f	-0.39867446
10	0x3d12176f	0.03566688
11	0xbdc8e2aa	-0.09808858
12	0xbe4636d6	-0.19356856
13	0xbe8f7112	-0.28015953
14	0xbf4992e9	-0.7873979
15	0xbf0a0465	-0.53912956
16	0xbea3617c	-0.31910312
17	0xbec9fb35	-0.39449468
18	0xbe364974	-0.17801458
19	0xbf1833d2	-0.5945407
20	0xbf28c7ce	-0.6592988
21	0xbf49bdd3	-0.78805274
22	0xbf225382	-0.6340867
23	0xbf03ea73	-0.51529616
24	0xbeb45349	-0.35219792
25	0xbd41fd1b	-0.04736052
26	0x3d428b13	0.047495913
27	0xbf43ea80	-0.76529694
28	0xbf82d3f0	-1.0220928
29	0xbf511ee4	-0.8168776
30	0xbedd77f9	-0.43255594
31	0x3da783f3	0.08179464
32	0x3ea4b14e	0.32166523
33	0x3f0bb434	0.54571843
34	0x3de7edd6	0.113246605
35	0x3f135d5d	0.57564336
36	0x3f9acb60	1.2093315
37	0x3f9116d9	1.1335098
38	0x3f2e94cd	0.681958
39	0x3efd4a10	0.49470568
40	0x3f803935	1.0017458
41	0x3f04e0ce	0.51905525
42	0x3eeb5177	0.4596059
43	0x3f207e05	0.6269229
44	0x3f87d972	1.0613234
45	0x3fa28d38	1.2699347
46	0x3f1e14eb	0.6175067
47	0x3e8d0ddc	0.27549636
48	0x3dc3d152	0.09561409
49	0xbed24ce1	-0.4107428
50	0xbf762275	-0.9614633
51	0xbef1f9b2	-0.47260815
52	0xbec1c390	-0.37844515
53	0xbf7b9c86	-0.9828571
54	0xbf82b807	-1.0212411
55	0xbf11a746	-0.56895864
56	0xbf072f56	-0.52806604
57	0xbe9a6f22	-0.30162913
58	0xbf0c37ee	-0.5477284
59	0xbedc85a5	-0.43070713
60	0xbef6a39c	-0.481717
61	0xbf78f090	-0.9724207
62	0xbf072f11	-0.5280619
63	0xbf55b98c	-0.8348625
64	0xbeda84bd	-0.42679396
65	0xbf2d3712	-0.67662156
66	0xbe6434a2	-0.22285703
67	0xbeebab93	-0.46029338
68	0xbf561c3b	-0.83636826
69	0xbf0478a8	-0.51746607
70	0xbe99f854	-0.30072272
71	0xbf18a3e6	-0.5962509
72	0xbf081b53	-0.53166693
73	0xbe8402d1	-0.257834
74	0x3db90266	0.090336606
75	0xbf5fbeea	-0.87400687
76	0xbf2ec243	-0.6826517
77	0xbf0fcb8a	-0.5616995
78	0xbeaef965	-0.34174648
79	0xbeb11dc6	-0.34593028
80	0xbdae2a03	-0.08504107
81	0x3e29f52f	0.16597436
82	0x3ec25367	0.37954256
83	0x3f3d3f0e	0.7392434
84	0x3f1e824a	0.61917555
85	0x3f371259	0.7151237
86	0x3f0e09ed	0.55483896
87	0x3f117911	0.5682536
88	0x3ee57d02	0.44821936
89	0x3e1cfe32	0.15331343
90	0x3ec0a734	0.37627566
91	0x3eeb9491	0.46011785
92	0x3f755375	0.9583047
93	0x3f7b6065	0.9819396
94	0x3eb5da0d	0.35517922
95	0x3e90bf73	0.28271064
96	0xbe4fffd4	-0.20312434
97	0xbe279f76	-0.16369423
98	0xbec0bc7e	-0.37643808
99	0x3d142c5a	0.03617511
100	0x3d8860b8	0.06659073
101	0xbd97edbc	-0.07418391
102	0xbd743493	-0.05962045
103	0xbe473632	-0.19454268
104	0x3dab0067	0.08349686
105	0xbe0fd17e	-0.14044759
106	0xbf2575d9	-0.64632946
107	0xbebd86a3	-0.37016782
108	0x3e56bc49	0.20970263
109	0xbd12306f	-0.03569072
110	0xbe883f99	-0.2661102
111	0xbea6bf58	-0.3256786
112	0xbdf6aa0d	-0.12044153
113	0xbe39c70b	-0.18142335
114	0x3d06f57b	0.032948952
115	0x3d116702	0.035498627
116	0xbd809027	-0.06277495
117	0x3e38cc4f	0.18046688
118	0x3edbdfea	0.4294427
119	0xbde6d595	-0.11271206
120	0xbd9c057b	-0.07618233
121	0x3e59b6fc	0.21261209
122	0xbde7dc35	-0.11321298
123	0x3e0122e4	0.12610966
124	0x3c71fccb	0.014769743
125	0xbe47a187	-0.19495212
126	0xbdf75113	-0.120760106
127	0xbe70914e	-0.2349293
128	0x3e48b376	0.19599709
129	0xbc8cd0c3	-0.01718939
130	0xbe368db9	-0.178275
131	0xbec27492	-0.3797956
132	0xbefc9045	-0.4932882
133	0xbf03b490	-0.5144739
134	0xbd16f344	-0.03685309
135	0xbe51db03	-0.20493703
136	0xbf1cebce	-0.6129731
137	0xbe4971c9	-0.19672312
138	0x3e7aa08f	0.2447531
139	0xbe3d3ac2	-0.18479446
140	0xbf23841e	-0.6387347
141	0xbf3aa6ee	-0.72910964
142	0xbeca8f11	-0.39562276
143	0x3e299733	0.16561584
144	0xbedfa8f0	-0.43683577
145	0xbe9b3a69	-0.30318
146	0xbf2ae72e	-0.66759
147	0xbe7f63e2	-0.24940446
148	0xbeca8f4e	-0.39562458
149	0xbecb7168	-0.3973496
150	0xbec3b340	-0.38222694
151	0xbed0aa38	-0.40754867
152	0xbea01cbb	-0.3127192
153	0xbe57233e	-0.21009538
154	0xbda3693b	-0.079790555
155	0xbecf383a	-0.40472585
156	0xbf5d0480	-0.8633499
157	0xbeae69db	-0.34065136
158	0xbf448898	-0.76770926
159	0xbf49376e	-0.78600204
160	0x3d065a4c	0.032800958
161	0x3ee486d9	0.4463413
162	0x3f144912	0.57923996
163	0x3f15fdd5	0.5859044
164	0x3f30af35	0.69017345
165	0x3f85bde9	1.0448581
166	0x3f5dbea6	0.8661903
167	0x3f1993b2	0.5999099
168	0x3f5efe51	0.87106806
169	0x3f2109dc	0.6290567
170	0x3e82ab67	0.25521395
171	0x3f1de493	0.616769
172	0x3f4d0099	0.80079037
173	0x3f972cf5	1.1810595
174	0x3f7ca33b	0.9868657
175	0x3f01246f	0.5044622
176	0x3c442136	0.011970809
177	0xbedd6587	-0.43241522
178	0xbf08e9c1	-0.5348168
179	0xbf0067a0	-0.5015812
180	0xbf019a11	-0.5062571
181	0xbf307c3b	-0.6893956
182	0xbefa94d5	-0.48941675
183	0xbe9ff4a0	-0.31241322
184	0x3d107f4a	0.035277642
185	0xbe88e3a3	-0.26736173
186	0xbe671e1a	-0.22570077
187	0xbe89b081	-0.26892474
188	0xbf884ecf	-1.064905
189	0xbf9b6f5b	-1.2143358
190	0xbf1527b2	-0.58263695
191	0xbdad548a	-0.0846339
192	0xbe80eed0	-0.251822
193	0xbf0ccf52	-0.55003846
194	0xbe924c6b	-0.28573927
195	0x3e3cfacb	0.18455045
196	0xbcc6d8fa	-0.024273384
197	0xbe2f4c79	-0.17119016
198	0xbd9c496a	-0.0763119
199	0x3dc99845	0.09843496
200	0xbe914bab	-0.28378043
201	0x3ecfaab9	0.4055994
202	0xbd4ae4a1	-0.049534444
203	0xbe1f44a4	-0.15553528
204	0xbe45018f	-0.19238876
205	0xbe1ed287	-0.15509997
206	0xbd27c79d	-0.04096185
207	0xbecd645c	-0.4011563
208	0x3e696fdf	0.22796582
209	0x3e9662c3	0.29372224
210	0x3eb3dd5a	0.35129815
211	0x3f102692	0.56308854
212	0x3f0782c2	0.52933896
213	0x3f490b79	0.7853313
214	0x3f6c378c	0.9227226
215	0x3f32675e	0.69688976
216	0x3f3adf76	0.72997224
217	0x3eb63bd3	0.35592517
218	0xbe16af5d	-0.14715333
219	0x3edc11a6	0.42982215
220	0x3f5fd0fa	0.8742825
221	0x3f91fa48	1.1404505
222	0x3f6d078c	0.9258964
223	0x3ee98ba4	0.4561435
224	0xbe8d9c17	-0.2765815
225	0xbe9c4f92	-0.30529457
226	0xbd9eaca0	-0.07747769
227	0xbef1bf35	-0.47216192
228	0xbf201a3d	-0.62540036
229	0xbe9d4ec3	-0.30724153
230	0xbf0cb364	-0.5496123
231	0xbee06b3d	-0.43831816
232	0xbe9fb4c9	-0.31192616
233	0xbedef94c	-0.43549573
234	0xbe4b14a1	-0.19832088
235	0xbdf6f8a9	-0.12059147
236	0xbf5a512a	-0.85280097
237	0xbf1d0df3	-0.6134941
238	0xbf0d75aa	-0.55257666
239	0xbe8f4c19	-0.27987745
240	0xbeccadba	-0.39976293
241	0x3f467f16	0.7753767
242	0xbdf21aa7	-0.1182149
243	0x3f5afb47	0.8553967
244	0x3fabd85c	1.3425403
245	0x3f94ff6b	1.1640447
246	0x3f2ddc11	0.6791392
247	0x3ee6831b	0.450219
248	0x3f386e1a	0.72043
249	0x3f225b78	0.6342082
250	0x3e848e55	0.2588984
251	0x3eec2ff1	0.46130326
252	0x3f1fda6f	0.6244268
253	0x3f3046ae	0.6885785
254	0x3f52fd35	0.82417613
255	0x3ed6df6e	0.41967338

net.fc.bias f4 [32]
0	0xbf515164	-0.8176482
1	0x3e0e5aac	0.13901776
2	0xbf031bd7	-0.51214355
3	0x3f949a31	1.1609555
4	0xbf4ab13d	-0.79176694
5	0x3c532296	0.012886664
6	0xbf778a55	-0.9669545
7	0x3f3e9442	0.74444973
8	0x3eb55e0c	0.35423315
9	0xbf617197	-0.8806395
10	0xc023b744	-2.5580606
11	0x3f1ec17a	0.6201397
12	0xbfc1032e	-1.5079095
13	0x3ec2f7c5	0.38079658
14	0x3f0c49cf	0.5480012
15	0xbf15c407	-0.5850224
16	0xbf47998d	-0.77968675
17	0xbfb2fb6a	-1.3982975
18	0x3f50849c	0.81452346
19	0x3f4ea683	0.80722827
20	0x3f84d7d8	1.037837
21	0xbe8eb789	-0.278744
22	0x3ef6b2e9	0.48183373
23	0xbf5f5222	-0.872347
24	0xbfd3024c	-1.6485076
25	0x3ea930d4	0.33045065
26	0x3f50db02	0.8158418
27	0xbf1ee6c9	-0.620709
28	0x3f3aa7df	0.729124
29	0x3f59d82f	0.85095495
30	0x3f7c0373	0.98442763
31	0x3f8734b0	1.0562954
