model/all_subjects_20240208_162941/checkpoints/epoch3_0.6562.pt (torch, 195725 bytes, 39 tensors)

net.conv.weight f4 [8, 1, 1, 256]
000000 62 fa 4f 3e 84 b9 90 3e 44 5f 6b 3e ca 59 a1 3e
       0.20310357 0.28266537 0.2298556 0.31513816
000010 ec 0a aa 3e fc fa c4 3e 59 c2 d6 3e 4d c0 d5 3e
       0.33211458 0.38472736 0.4194515 0.41748276
000020 3d 01 d9 3e 40 70 ab 3e b6 64 b4 3e 77 d5 a1 3e
       0.42383757 0.33484077 0.35233086 0.31608173
000030 62 4d 3f 3e c1 af 23 3e 99 9d 9e 3d 24 66 08 3c
       0.18681863 0.15985014 0.07744903 0.0083251335
000040 43 97 56 3c fd 0c d2 bd 2d 53 1f be 51 c4 7b be
       0.013097587 -0.102563836 -0.15559073 -0.24586608
000050 5e ad a2 be b0 5f 91 be e3 50 b5 be 02 26 fa be
       -0.31772894 -0.28393316 -0.35413274 -0.48857123
000060 b4 4f 01 bf 93 c9 09 bf 9e 54 0b bf 83 c1 1f bf
       -0.5051224 -0.538232 -0.5442599 -0.6240465
000070 53 f6 18 bf c7 15 23 bf 98 7c 22 bf 95 0c 09 bf
       -0.5975086 -0.63705105 -0.63471365 -0.53534824
000080 41 c2 0b bf 5a 2b 0a bf 3e 35 ad be ef 6b a8 be
       -0.5459328 -0.539724 -0.33829683 -0.32894847
000090 7a 80 8d be d2 f7 27 be 7e da bd 3c 9d 2b 00 bb
       -0.27637082 -0.1640313 0.023175474 -0.0019557246
0000a0 f4 17 0d 3e 50 f9 41 3e e0 14 b5 3e 26 d7 d9 3e
       0.13778669 0.18942761 0.3536749 0.42546958
0000b0 19 ae e4 3e 85 4c 08 3f 21 e2 1c 3f cc 5c 2b 3f
       0.44664076 0.5324176 0.61282545 0.6693847
0000c0 52 6d 3b 3f a2 af 41 3f 86 6c 2d 3f 2f f3 48 3f
       0.73213685 0.7565862 0.6774372 0.7849607
0000d0 c5 be 2c 3f 51 1c 2e 3f e0 82 2d 3f 06 b4 15 3f
       0.6747859 0.6801196 0.67777824 0.5847782
0000e0 46 86 e4 3e 3e 20 c1 3e 20 03 9b 3e 41 0c 61 3e
       0.44633693 0.3771991 0.30275822 0.2197733
0000f0 62 dc e6 3b 00 43 2e bd 04 9f 37 be 66 95 92 be
       0.0070453146 -0.042544365 -0.17931753 -0.28629607
000100 4b 8a bc be aa 94 e0 be 08 b4 12 bf 09 4a 21 bf
       -0.3682426 -0.43863422 -0.57305956 -0.63003594
000110 97 1f 1c bf bd 9d 25 bf 5d f6 42 bf fa f7 38 bf
       -0.609857 -0.64693815 -0.7615717 -0.7225338
000120 1d 21 2f bf bd 63 35 bf a1 8b 21 bf d2 ad 1e bf
       -0.684099 -0.70855314 -0.6310368 -0.6198398
000130 e4 a6 0a bf 80 fa e2 be 02 44 b4 be f7 cf 90 be
       -0.54160905 -0.4433174 -0.35208136 -0.28283665
000140 50 19 57 be 72 cb df bd f7 a6 54 bd cf 08 ed 3c
       -0.2100575 -0.10927476 -0.051917043 0.028934864
000150 13 f1 09 3e 34 43 30 3e e1 53 8e 3e f1 e2 a6 3e
       0.13470869 0.17213136 0.2779837 0.32595018
000160 6a bd 9e 3e 03 bd c6 3e d7 65 dc 3e 79 79 e9 3e
       0.31003886 0.3881608 0.43046448 0.4560049
000170 52 11 d2 3e 20 f8 ef 3e cc 6b de 3e 8b 99 cd 3e
       0.4102884 0.46868992 0.43441617 0.40156206
000180 70 c7 e2 3e 88 bc da 3e 13 61 a2 3e 6c 14 9c 3e
       0.44292784 0.42721963 0.31714687 0.3048433
000190 0b 5f ab 3e 1a d5 4b 3e f8 e7 77 3e 99 e7 1a 3e
       0.3347095 0.1990551 0.24209583 0.1512741
0001a0 46 5b c9 3d ef cd 5e 3d 18 61 59 bc d4 39 05 3b
       0.09831862 0.054395612 -0.013267778 0.0020328658
0001b0 03 2d b9 bd 5f 41 df bd 2e db 9f bd e3 91 44 be
       -0.090417884 -0.109011404 -0.07805477 -0.19196276
0001c0 86 56 fe bd 7c 7e 16 be 44 ab 37 be 4b 80 e8 bd
       -0.12418847 -0.14696687 -0.17936426 -0.11352595
0001d0 45 16 a3 bd f2 b7 d5 bd 8a ab 06 bd 10 0d 5d 3c
       -0.07963232 -0.104354754 -0.032878436 0.013491884
0001e0 d7 50 df bc bc d5 06 bb e2 25 f9 3c ab ef 86 3c
       -0.027260227 -0.0020574173 0.030413572 0.016471704
0001f0 72 6a 41 bb 04 32 a7 3c 14 74 a6 bb 40 24 9b bd
       -0.002951291 0.020409591 -0.0050797556 -0.075752735
000200 09 b9 52 bd c1 27 d2 bb f1 f1 79 bd 41 42 0c be
       -0.051445995 -0.0064134304 -0.06102175 -0.13697149
000210 f9 e8 b4 bd 13 61 85 bd 61 60 10 be 37 94 e2 bd
       -0.088334985 -0.06512656 -0.14099266 -0.11063426
000220 6e 1b 41 be a7 a8 cf bd 75 bb e4 bd fb 59 1b be
       -0.1885812 -0.1013959 -0.11168567 -0.15171044
000230 03 c0 0f be d5 1d b1 bd 43 d0 ca bd 8d bf 07 be
       -0.1403809 -0.08648268 -0.09903004 -0.13256665
000240 04 2e 61 bd 0e 0c de 3c 18 97 45 bc a3 93 8a 3c
       -0.054975525 0.027105357 -0.012059949 0.016916102
000250 19 ad 25 3d 54 e3 a1 3d 50 1a 3d 3e 93 b3 65 3e
       0.040448282 0.079046875 0.18467069 0.22431783
000260 34 7f 91 3e ec f7 82 3e 97 e5 a9 3e 06 6b ca 3e
       0.2841736 0.25579774 0.33182976 0.39534777
000270 c6 7a ea 3e 2f 59 f1 3e 81 97 02 3f bb b8 f5 3e
       0.45796794 0.47138354 0.51012427 0.479925
000280 70 95 0d 3f eb d0 0a 3f de ae 07 3f 9e 10 f6 3e
       0.5530615 0.54225034 0.530012 0.48059553
000290 65 5d ec 3e db 16 dd 3e 37 6c a3 3e a5 2b 97 3e
       0.46165004 0.431815 0.319185 0.29525486
0002a0 7d e6 46 3e ca 2d fd 3d dd 67 7b 3d fc 28 da bc
       0.19423862 0.12362249 0.06137835 -0.026630871
0002b0 39 7c 13 be e3 13 5d be c3 58 8e be 56 e3 b5 be
       -0.14402856 -0.21589617 -0.27802095 -0.35525006
0002c0 2f c8 c1 be 55 f0 f1 be c7 44 03 bf d3 21 03 bf
       -0.3784804 -0.4725367 -0.5127682 -0.51223487
0002d0 68 92 08 bf 2c 8f 08 bf 8d 23 1b bf 1d d7 01 bf
       -0.533484 -0.5334346 -0.6060112 -0.5071886
0002e0 a4 4c f9 be a4 55 03 bf 66 e8 ec be 4f 7e 9f be
       -0.48691285 -0.5130255 -0.46271056 -0.31151053
0002f0 58 03 76 be 99 a4 7c be 52 4e 90 bd 86 22 8e bd
       -0.24024713 -0.24672164 -0.070461884 -0.069401786
000300 d2 7f 68 3d c0 3b 11 3e 69 07 52 3e f6 32 a8 3e
       0.056762524 0.14182949 0.20510639 0.3285138
000310 ed 35 e3 3e 7d 0e fb 3e 27 40 15 3f 52 2b 19 3f
       0.4437708 0.4903449 0.58301014 0.59831727
000320 aa 2f 2d 3f f5 96 34 3f c4 74 3e 3f 64 b3 30 3f
       0.67650855 0.7054284 0.7439692 0.6902373
000330 8c ed 24 3f 73 00 33 3f a8 31 21 3f 51 53 18 3f
       0.6442497 0.6992256 0.62966394 0.5950213
000340 9c 03 13 3f 9f bc f7 3e 92 2a d6 3e 17 da ad 3e
       0.5742738 0.48386094 0.41829354 0.33955452
000350 c5 a3 9b 3e 6c 25 35 3e a8 00 04 3e 9e 51 0c 3d
       0.30398384 0.17690057 0.12890875 0.034257524
000360 83 bc f3 bd 43 13 52 be af fc 4b be ee 08 ad be
       -0.1190119 -0.2051516 -0.1992061 -0.33795875
000370 4c 49 ad be 31 61 ce be 57 9f ef be 63 95 e3 be
       -0.33844984 -0.40308526 -0.46801254 -0.4444991
000380 5d c7 db be 7d 9e d2 be b8 71 c8 be 69 aa ba be
       -0.4292554 -0.41136542 -0.3914926 -0.36458138
000390 4b a2 d8 be 3c 2e a5 be 37 cf a4 be cc e9 87 be
       -0.4231132 -0.32261837 -0.32189342 -0.2654556
0003a0 fb 18 44 be 4d 81 35 be e1 b9 2a be 52 33 90 bd
       -0.19150154 -0.17725106 -0.1667247 -0.070410386
0003b0 27 c2 91 bc 85 14 b3 3c 38 8b 94 3d 63 7d bd 3d
       -0.017792774 0.02186037 0.07253116 0.09252431
0003c0 a3 83 38 3e db ab 10 3e 82 68 80 3e 18 10 89 3e
       0.18018965 0.14128058 0.25079733 0.2677009
0003d0 2d e3 6f 3e f1 30 8a 3e 5d a4 9d 3e f6 53 88 3e
       0.23426504 0.26990464 0.30789462 0.26626557
0003e0 ac de 93 3e 99 64 94 3e 17 9f 93 3e 17 c3 8c 3e
       0.28880823 0.28983 0.28832313 0.27492592
0003f0 1f 3b 37 3e ed b7 48 3e b6 79 80 3e 3a 47 24 3e
       0.17893647 0.19601412 0.25092858 0.16042796

net.bn1.weight f4 [8]
000000 b0 b8 93 3f f3 ae 81 3f 46 34 90 3f a7 ff 91 3f
       1.1540737 1.0131515 1.1265953 1.1406144
000010 d8 86 d2 3f 98 be a4 3f e1 09 d2 3f 3b 3a 87 3f
       1.6447401 1.2870665 1.6409265 1.0564646

net.bn1.bias f4 [8]
000000 76 e9 11 bd 97 3d ea bc aa fe f2 bb 89 4e 3e 3d
       -0.035623036 -0.028593821 -0.007415612 0.046461616
000010 d0 c5 99 bd 9b 7f 9d bd 55 78 1f be 55 f4 48 3d
       -0.07508433 -0.076903544 -0.15573247 0.04906114

net.bn1.running_mean f4 [8]
000000 50 c0 9c ba e6 f1 83 b9 f8 f3 58 39 b7 c6 7f 39
       -0.0011959169 -0.00025166495 0.0002069025 0.00024392722
000010 9c a6 2e ba 65 64 ca b9 4b ad a6 b9 6a 37 d3 ba
       -0.00066624 -0.00038603242 -0.000317911 -0.0016114537

net.bn1.running_var f4 [8]
000000 23 c1 99 43 90 23 b3 43 a8 e8 6f 43 d7 2e a6 43
       307.50888 358.27783 239.90881 332.36594
000010 95 d4 a0 43 18 65 6a 43 26 89 a4 43 b6 3f 6e 43
       321.6608 234.3949 329.07147 238.24887

net.depth_conv.weight f4 [16, 1, 32, 1]
000000 65 b3 03 3e cc c7 d9 3e 6c 77 11 3f e3 43 81 be
       0.12861402 0.42535245 0.5682285 -0.25247106
000010 87 14 bf 3e db 49 5e be cd a6 b5 3e f3 b9 de 3e
       0.3732035 -0.21707861 0.3547882 0.43501243
000020 45 c3 16 be cd 3b a9 bf 90 2e 4a be 1b 0d 3f 3e
       -0.14722927 -1.3221375 -0.19744325 0.18657343
000030 47 e0 41 3e d0 0c 1c 3f 24 0b 92 be d8 2f b8 be
       0.18933211 0.6095705 -0.28524125 -0.35974002
000040 81 70 64 3e 64 1d 2c bf b0 58 0d 3f b7 43 9c 3e
       0.22308542 -0.67232347 0.5521345 0.30520412
000050 47 da 0a 3f 58 1d 4b 3c 01 0e f7 be 12 24 05 3f
       0.54239315 0.012397133 -0.48252872 0.52008164
000060 e0 4d 4c bf 4b 76 d5 be 35 fb 97 bc e2 10 79 bd
       -0.7980633 -0.41691813 -0.018552402 -0.060807116
000070 00 e9 2b be 86 7a 37 bd 9e 4c cb 3e 78 fb 02 bd
       -0.16788101 -0.04479458 0.39706892 -0.0319781
000080 f2 08 42 3e b6 a9 ee 3e 48 ac 56 3f 68 38 1f bf
       0.18948725 0.46613854 0.8385663 -0.62195444
000090 79 8e 34 3f f4 ac b1 be 58 85 80 3e 82 12 2e 3f
       0.70529896 -0.34702265 0.25101733 0.6799699
0000a0 13 1a 74 3e a6 49 89 bf eb d9 db bd 65 65 aa 3e
       0.23838072 -1.0725601 -0.10734924 0.33280483
0000b0 d7 5e 71 3d a9 86 37 3f 42 99 e9 be b7 83 71 be
       0.058928337 0.7168985 -0.4562474 -0.23585401
0000c0 2e fb 4b bd 63 25 e0 be 27 a7 82 3e d5 78 3c 3f
       -0.04980009 -0.43778524 0.25518152 0.73621875
0000d0 b9 a4 96 3e 64 82 9d 3c 3c cd d1 bd d9 0c ab 3e
       0.29422548 0.019227214 -0.102442235 0.3340824
0000e0 5a b0 7e bf 1b ba c6 be d5 66 34 be 2d 6d b2 3e
       -0.9948784 -0.38813862 -0.17617352 0.3484892
0000f0 28 2d 9f be 64 d5 8a be f3 fc 00 3e 68 16 99 bd
       -0.3108914 -0.2711593 0.12596492 -0.07474977
000100 81 7e e2 3c 64 8d 44 3e 39 ab a7 3e a8 9c ae be
       0.027648212 0.19194561 0.3274782 -0.34103894
000110 0b 36 b8 3e 38 b6 6e be 57 93 87 bf f5 07 a8 bd
       0.35978732 -0.23311698 -1.059184 -0.08204643
000120 50 57 88 3e 99 d4 cf be 2d db 24 be 32 18 33 be
       0.26629114 -0.40591887 -0.16099234 -0.17489699
000130 46 dc 07 be b7 f6 37 be 9a 95 88 be 6f d4 81 bd
       -0.13267621 -0.17965208 -0.26676637 -0.063393466
000140 5b ae 27 bf c9 7d 43 be 9c 8f 06 3e d3 66 20 bf
       -0.6550042 -0.19090952 0.1314072 -0.626569
000150 8f d4 80 bc 2f da 1b 3e f5 12 dc bd 1a d2 99 3e
       -0.015726356 0.15219949 -0.10745803 0.30043107
000160 dc 97 91 3f 65 46 0e bf 26 98 15 3f f6 13 84 3e
       1.1374469 -0.55576164 0.58435285 0.2579648
000170 92 c6 19 bd 82 b7 17 3d eb ac 18 3e 67 2c cc 3e
       -0.037542887 0.03704024 0.14909713 0.39877626
000180 ae 57 7f bc c7 b2 52 3e 75 fa ab 3d 91 1d 53 be
       -0.015584869 0.2057601 0.0839738 -0.20616747
000190 43 38 f4 3e d3 7c 1e be ee 37 6b bf 4d 0e 3f be
       0.47699174 -0.15477304 -0.91882217 -0.18657799
0001a0 0e 64 9c 3e f2 ca 95 be 2a 6e cb be 22 de ed bd
       0.30545086 -0.29256397 -0.39732486 -0.11614634
0001b0 a0 77 fc bd 79 f9 08 bf 59 de ee bc 74 c5 3c 3f
       -0.12327504 -0.53505665 -0.029158758 0.7373879
0001c0 53 ca ab be a9 18 c4 3b e5 08 d7 3d 93 3e 62 bd
       -0.335528 0.005984385 0.10499743 -0.055235457
0001d0 a1 29 04 be ad 7c ba 3d 8c b1 5f bc ff d4 ab 3e
       -0.12906505 0.09105811 -0.01365317 0.3356094
0001e0 c9 b1 87 3f f3 2a 73 bf be 3c 24 3e e2 b1 2b 3f
       1.0601131 -0.9498741 0.16038796 0.670683
0001f0 99 a4 09 be a9 d9 0b bc 4b 52 2f 3e fd 89 40 bc
       -0.13441695 -0.008535781 0.17121236 -0.011751649
000200 f1 ff 9a be 01 81 a7 be a7 b8 5c be f2 18 c5 3e
       -0.30273393 -0.3271561 -0.21554814 0.38495594
000210 c9 e5 39 bf cb c7 6a be 82 2d 78 3e 87 cb ce bd
       -0.7261625 -0.22927777 0.2423611 -0.100974135
000220 6f 18 db bd 9b de ee 3e 2e e3 31 3f 72 10 0c be
       -0.1069802 0.4665421 0.69487274 -0.13678148
000230 82 fb 21 3f 67 93 29 3f a2 e5 73 3e ef de 3a bf
       0.63274395 0.66240543 0.23818067 -0.7299642
000240 d3 37 c7 3e 08 4d 53 3c 43 64 98 bd 1f 4c 7c 3b
       0.38909778 0.012896784 -0.074409984 0.003849752
000250 da 5a 98 3e 54 72 c7 be e2 33 08 3f 00 22 b2 be
       0.29756814 -0.38954413 0.53204167 -0.34791565
000260 bc 7e e1 be 91 42 bd 3f 8c ef 88 be 3e 77 9a 3e
       -0.44042003 1.478594 -0.2674526 0.301691
000270 f2 bd 3b 3c a3 4d cd be 8b 09 27 bf c4 1a 3a be
       0.011458861 -0.40098295 -0.65248936 -0.18174273
000280 5a 7b 80 b9 cc 80 02 3f f7 5e 20 3e a5 29 1e be
       -0.00024505967 0.5097778 0.15661226 -0.15445574
000290 45 ca 86 3f 76 8c 75 be 6b 92 2c 3c 68 95 36 3e
       1.0530478 -0.23979363 0.010532956 0.17830431
0002a0 09 12 ac 3e 4d bc 8c bf 64 e1 05 bf 08 3f 21 be
       0.3360751 -1.0994965 -0.52297044 -0.15746701
0002b0 ed a0 4e bf d2 81 a7 bd 5e 62 f1 bc 22 d9 08 3f
       -0.80714303 -0.08179058 -0.02946585 0.5345632
0002c0 0a 7c 00 bf e0 dd c1 bd a3 04 60 3e d8 d2 08 3e
       -0.5018927 -0.094661474 0.21876769 0.1336168
0002d0 2d b0 0f bf 45 09 01 bf 85 2c 26 bf 20 46 b7 bd
       -0.561282 -0.5040477 -0.6491168 -0.08948922
0002e0 dd 16 80 be 77 72 b3 bd 96 09 69 3f 75 8b b0 be
       -0.25017443 -0.08762067 0.9103025 -0.34481397
0002f0 d6 7d 9b be d4 6a 0f 3f 63 dc 46 3e c3 35 d0 3d
       -0.30369443 0.5602238 0.19420008 0.10166504
000300 10 7b 78 bd dc dc b7 bc 5e 9f 17 bb 95 62 1f 3b
       -0.060664237 -0.022444181 -0.0023135762 0.0024320234
000310 53 bf f7 3e ab df 94 3e 96 df 2d 3f c6 f8 09 3e
       0.48388156 0.29076895 0.6791929 0.13473806
000320 c3 7f 9e bf c7 c7 a4 3e c5 f3 8e be 08 25 7b 3d
       -1.238274 0.32183668 -0.27920356 0.061314613
000330 03 c2 61 bd 36 65 b9 be 3d 4b 96 3e 97 21 f9 3d
       -0.055116665 -0.3621003 0.29354277 0.1216461
000340 15 36 58 be ef e3 19 3d 29 33 3b 3f d3 66 5f 3f
       -0.2111438 0.03757089 0.7312494 0.8726627
000350 af f7 50 3e 15 b0 de 3d 3b 79 88 bd 66 ea 6b bf
       0.20406984 0.10873429 -0.06663748 -0.9215454
000360 23 41 8a bf e5 a1 30 3f 6c 29 5b bf a1 5d 41 bf
       -1.0801128 0.6899703 -0.8561008 -0.7553349
000370 df a4 b8 3a 92 79 28 3e 6a cb bc 3e 74 13 d4 be
       0.0014087221 0.16452625 0.36873943 -0.41421092
000380 e9 09 16 3e 00 4c 9e 3e f2 df 05 bf d2 ef 88 3d
       0.14652218 0.30917358 -0.5229484 0.06686367
000390 a0 af 7c be 78 e9 d4 bc 8f 7f 61 bf f8 99 09 bf
       -0.2467637 -0.025990233 -0.88085264 -0.5375056
0003a0 a8 71 0a 3e a9 0a da be 8a 73 2f 3e 18 f8 f9 3e
       0.13519919 -0.42586258 0.17133918 0.48822093
0003b0 d6 2c e0 3e 94 0d 0b 3e 12 fe 41 bd da b3 63 be
       0.43784207 0.13579398 -0.04736144 -0.22236577
0003c0 49 9d 2e 3f 9a c9 28 3e 7a b9 02 bf 12 c6 91 be
       0.6820875 0.16483155 -0.51064265 -0.28471428
0003d0 63 a0 d4 3e ab 4d 21 3e b8 b6 72 be 90 f9 4e 3f
       0.41528615 0.15752284 -0.23702514 0.8084955
0003e0 b2 92 14 3f 71 6a 55 bf eb c2 1f 3d c7 72 3a 3f
       0.5803634 -0.8336554 0.039004248 0.72831386
0003f0 08 99 72 be 27 94 ae 3d f6 ce 1a be 23 52 97 be
       -0.2369119 0.085243516 -0.15118012 -0.29554853

net.bn2.weight f4 [16]
000000 b0 3d e1 3f 48 a2 c4 3f bc 50 a5 3f dd 35 af 3f
       1.759695 1.5362024 1.2915263 1.3688313
000010 21 6b b9 3f 64 47 b4 3f 67 ce d1 3f d5 92 c0 3f
       1.4485818 1.4084287 1.6391114 1.504481
000020 ef 99 f8 3f eb ca f1 3f fd 88 ab 3f c4 e6 b1 3f
       1.9421977 1.8890051 1.340118 1.3898549
000030 d8 9b de 3f 8b 3e e4 3f 1b 8e a8 3f 92 5a af 3f
       1.739131 1.7831587 1.3168367 1.3699515

net.bn2.bias f4 [16]
000000 4e 70 95 be 46 f9 b8 be 39 a3 63 be 14 a4 1e be
       -0.29187244 -0.3612768 -0.22230233 -0.15492278
000010 47 fa 94 be 26 66 6d be ee 1c ae be 83 b3 f0 bd
       -0.29097196 -0.23183498 -0.34006447 -0.11752989
000020 31 be ac be 30 32 cb be b8 6d 35 be 15 b3 b7 be
       -0.33738855 -0.39686728 -0.17717636 -0.35878816
000030 3f c4 a5 be 6f 20 bf be 6f 01 de bd f9 19 04 be
       -0.32376286 -0.37329432 -0.10840117 -0.12900533

net.bn2.running_mean f4 [16]
000000 90 a0 4f bc 6d 05 15 bd b2 47 ed 3c 2e a4 f3 3b
       -0.012672558 -0.036382128 0.028964851 0.007435343
000010 16 53 ff bb 46 40 18 3c 67 00 0c bd 4c 9d 1e 3b
       -0.007791887 0.009292668 -0.03418007 0.0024202643
000020 32 c0 28 bd 22 f6 aa bd be 77 75 3c 58 06 08 3d
       -0.041198917 -0.08347727 0.014982162 0.033209175
000030 d8 a0 4c 3e 57 25 e8 3d 03 cc df 3d cd 27 81 3d
       0.19983232 0.11335247 0.10927584 0.063064195

net.bn2.running_var f4 [16]
000000 2c 58 d3 40 ed d4 dd 40 c7 ec 46 41 2d 43 50 41
       6.604513 6.932242 12.432807 13.0164
000010 34 37 b1 41 ca 7f 84 41 25 e6 98 40 e2 ff 05 41
       22.151955 16.562397 4.778094 8.374971
000020 1a 61 79 40 38 3c bb 40 4a 13 22 41 4f 69 1c 41
       3.8965516 5.851101 10.129709 9.77571
000030 aa b9 01 41 66 db ce 40 64 cb 23 41 03 0a 4a 41
       8.107828 6.464282 10.237156 12.627444

net.point_conv.weight f4 [16, 16, 1, 16]
000000 57 b0 8b 3e 7f fe 95 3e 95 64 a9 3e be 61 d1 3e
       0.27282974 0.29295728 0.3308455 0.40894884
000010 62 0c 0f 3f bb ec 2a 3f 23 a8 1d 3f 70 26 00 3f
       0.5587827 0.6676747 0.6158468 0.5005865
000020 22 3b dc 3e 22 de 8f 3e eb 77 8a 3e ea cd 79 3e
       0.43013865 0.2809916 0.27044615 0.24394956
000030 44 fd 33 3e d7 11 58 3e d1 e3 81 3e 65 13 4e 3e
       0.17577082 0.21100555 0.25369123 0.20124586
000040 6f 06 a2 3e bc ef 22 3e 36 7a 04 3c 4f dd 16 be
       0.31645533 0.15911764 0.008085778 -0.1473286
000050 7e 17 03 be de ff aa bd bc 7d 08 3e 6c 1e 40 3e
       -0.1280193 -0.08349584 0.13329214 0.18761605
000060 4a 43 8e 3e e1 2f af 3e 6b ea b3 3e 01 dd 5e 3e
       0.27785712 0.34216216 0.35139784 0.21763994
000070 43 42 4a 3e b6 eb 9c 3d a1 2d eb 3b 43 67 1b bd
       0.1975184 0.07662146 0.0071770702 -0.037940275
000080 f9 12 95 be 83 8a 59 be 90 16 b7 bd d9 21 69 3b
       -0.29116037 -0.21244244 -0.0893985 0.0035573153
000090 98 f5 25 3d 79 e8 bd 3c cb e1 56 3c 6a 27 ac bd
       0.04051742 0.02318214 0.013115357 -0.08405955
0000a0 95 30 4d be 72 7c 59 be 32 af ab be ad 62 a3 be
       -0.20038064 -0.21238878 -0.335321 -0.3191122
0000b0 a5 77 be be 78 c2 bf be 1d dd 8c be a2 19 84 be
       -0.37200657 -0.37453055 -0.27512446 -0.25800806
0000c0 2b 99 ee be 55 ca c4 be 02 34 9a be 42 27 dc bd
       -0.46601233 -0.38435617 -0.30117804 -0.10749675
0000d0 b0 44 95 bd b3 48 28 be 34 73 9d bd d0 0a 45 be
       -0.07288492 -0.16433983 -0.07687989 -0.19242406
0000e0 b5 1d 58 be 2d 20 a7 be 24 0e cc be 86 af b9 be
       -0.21105082 -0.32641736 -0.39854538 -0.36266726
0000f0 37 d9 d0 be 4c bd b6 be a6 23 79 be f4 45 93 be
       -0.40790722 -0.35691297 -0.24330005 -0.28764307
000100 61 9e a8 be bb 39 88 be fd 89 29 be 80 18 6f be
       -0.32933334 -0.26606545 -0.16556545 -0.2334919
000110 d0 65 c8 bd 17 05 9a bd ed 83 8c bc ad 95 11 bd
       -0.09785044 -0.07520502 -0.01715275 -0.035543133
000120 8a 93 c3 bd c8 d1 b7 bd fe 5b ce bd d3 e1 49 be
       -0.09549625 -0.089755595 -0.1007614 -0.19715051
000130 0f f9 2c be b8 ad 8c be 40 59 ac be f8 97 e7 be
       -0.16891883 -0.27476287 -0.33661842 -0.4523313
000140 05 74 a0 be 65 74 89 be e9 2f 86 be b3 f7 76 be
       -0.31338516 -0.26846614 -0.26208428 -0.24117927
000150 1e 49 8e be 43 1e 70 be 8c b0 7e be fd 81 28 be
       -0.2779016 -0.23449044 -0.24872035 -0.16455837
000160 a0 55 25 be 64 ee 10 be 1f fd 19 be dc 64 05 be
       -0.16145945 -0.14153439 -0.15037964 -0.13026756
000170 50 ca 17 be d1 dd 34 be a5 65 6a be 80 75 9b be
       -0.1482327 -0.17662741 -0.22890337 -0.30363083
000180 02 74 d2 be 93 a4 80 be 1d 29 3b be 57 57 3c be
       -0.41104132 -0.2512556 -0.18277402 -0.18392693
000190 46 11 f2 bd 05 41 a7 bd e3 10 2d be 27 60 89 be
       -0.11819701 -0.08166698 -0.16900973 -0.2683117
0001a0 7a 40 b3 be e4 fe d2 be a7 a1 9f be e6 c8 a9 be
       -0.3501013 -0.4121009 -0.31178018 -0.33161086
0001b0 da 5a 21 be 10 1e a8 bd b3 15 11 bc 55 f0 ae 3d
       -0.15757313 -0.08208859 -0.008855271 0.085419334
0001c0 fd c3 f3 bd 5c 7b 48 be bf ea d3 bd 00 00 40 be
       -0.11902616 -0.19578308 -0.10347509 -0.1875
0001d0 a3 92 0e be d5 27 30 be 37 fc 54 be dd e4 5a be
       -0.13923125 -0.17202695 -0.20799337 -0.21376367
0001e0 a3 13 07 be 3a b7 81 bd 5f 2f ba bd f1 f9 b3 bd
       -0.13191085 -0.06333776 -0.090910666 -0.08787907
0001f0 c0 e6 56 be 15 2f ad be 2e dd c8 be 87 92 94 be
       -0.20986462 -0.33824983 -0.39231247 -0.29018041
000200 50 c9 4b 3e 6a d8 34 3d cf 1b 38 be 58 96 d4 bd
       0.19901013 0.0441517 -0.17979358 -0.10380238
000210 f3 7a 17 3d 14 ae a4 3e 31 fd bc 3e 46 cc da 3e
       0.036982488 0.3216406 0.3691192 0.42733973
000220 9e 2d f7 3e 16 1e 0c 3f e5 7a fa 3e 1c fd e0 3e
       0.4827699 0.5473341 0.48921886 0.43943107
000230 28 69 77 3e bb 15 c9 3d 39 de 96 3d 3a 1c 23 3e
       0.24161208 0.09818598 0.07366604 0.15928736
000240 9c 88 62 3e 4f 50 5c 3e ab 4e 9b 3e a4 d4 9f 3e
       0.22122425 0.2151501 0.30333456 0.3121692
000250 36 15 e2 3e 42 0d e7 3e fa 19 d3 3e b3 aa 84 3e
       0.44156808 0.45127302 0.41230756 0.25911483
000260 49 9a 2a 3e 09 66 f8 3d 11 46 16 3c 87 c8 f3 3d
       0.16660418 0.12128837 0.009171979 0.11903482
000270 88 7d 08 3e dc fe 25 3e 5d 91 87 3e 3b c3 8c 3e
       0.13329136 0.16210502 0.2647809 0.274927
000280 ce 7c 04 3f 6e 33 eb 3e 66 dd ed 3e 0a 77 8f 3e
       0.51752937 0.45937675 0.46457976 0.28020507
000290 9e 1f 23 3e 2c 99 26 bc 3f fb 86 be 77 56 81 be
       0.1593003 -0.010168355 -0.2636356 -0.2526128
0002a0 7b 5b 42 be 73 f3 8d bd 00 a3 3f 3e 45 42 ae 3e
       -0.1898021 -0.069312 0.18714523 0.34034935
0002b0 e0 04 eb 3e 90 c0 e8 3e 0b 6a b3 3e 63 57 65 3e
       0.45902157 0.45459414 0.35041842 0.22396617
0002c0 2f d8 da bd b6 3c 3b be 76 9a 4c bd 34 a1 25 3e
       -0.10685765 -0.18284878 -0.049951993 0.16174775
0002d0 72 d7 02 3f 36 5a 33 3f 6d 06 55 3f 48 8a 55 3f
       0.51109993 0.70059526 0.8321293 0.83414125
0002e0 20 89 4f 3f 04 d6 15 3f 7f 7b 9d 3e 84 d5 f5 3d
       0.8106861 0.58529687 0.30758283 0.120036155
0002f0 89 14 2c bd 58 6b 22 be 20 95 c2 bd f5 19 1a 3e
       -0.04201177 -0.15861261 -0.095010996 0.15048964
000300 7a a7 3d 3f ed c7 23 3f 09 30 10 3f f7 80 7b 3e
       0.74083674 0.6397694 0.56323296 0.24560915
000310 ff 08 80 bd 6b dc 7f be 6c ff 9b be 42 30 78 be
       -0.06251716 -0.24986427 -0.3046831 -0.24237159
000320 80 23 4a bd 5d 70 5d 3e f7 64 d0 3e c2 56 07 3f
       -0.04935026 0.21624894 0.4070203 0.52866757
000330 fd 90 e4 3e fc 71 f9 3e c7 f3 96 3e 01 69 fe 3c
       0.44641867 0.48719776 0.29482862 0.03105593
000340 36 24 95 3e a5 c1 9f 3e 73 39 a4 3e 1e 6b 94 3e
       0.2912919 0.31202427 0.3207508 0.28987974
000350 53 d5 93 3e 8e 16 84 3e 9b 90 a3 3e 06 46 75 3e
       0.2887369 0.25798458 0.31946263 0.23952493
000360 c2 6f fe 3d 63 2b 24 3e 97 32 08 3e 3c 42 9c 3e
       0.1242366 0.16032176 0.13300548 0.30519283
000370 88 0d d8 3e e6 d0 16 3f 23 9c 11 3f 51 ed 06 3f
       0.42197824 0.58912504 0.5687887 0.52705866
000380 c6 1a 18 be 9a 78 ce bd 05 be 4e bd f0 25 09 be
       -0.14853963 -0.10081597 -0.050474185 -0.13393378
000390 4b aa 1c be 02 c4 39 be c3 78 8c be f0 39 1f be
       -0.15299337 -0.18141177 -0.27435884 -0.15549445
0003a0 ff 1f 60 be 2e 7b 71 be 06 ff 7d be a9 40 50 be
       -0.21887206 -0.23582146 -0.24804315 -0.20337166
0003b0 6b e2 24 be 91 fa 24 be dd 89 43 be 87 a9 f4 bd
       -0.16101997 -0.16111208 -0.1909556 -0.11946397
0003c0 3a 22 4a be d1 4e 3f be 06 07 bf bd d4 91 d5 bd
       -0.19739619 -0.1868241 -0.093275115 -0.10428205
0003d0 10 eb db bd 88 46 e5 bd 6a 34 dd bd 1a 74 da bd
       -0.10738194 -0.111950934 -0.10801013 -0.10666676
0003e0 70 c6 81 bd 75 d0 82 bd c6 16 4e be 3e e7 48 be
       -0.06336677 -0.06387416 -0.20125875 -0.19619462
0003f0 a5 88 42 be 0f 71 8a be 8a 5f 9d be 3e 23 a4 be
       -0.18997438 -0.27039382 -0.30736953 -0.32058138

net.bn3.weight f4 [16]
000000 6e ed a0 3f 4c dd 8a 3f de 72 da 3f 30 27 8f 3f
       1.2572458 1.0848784 1.7066305 1.1183834
000010 f1 62 61 3f 73 66 8f 3f da 72 10 3f cb 9a 85 3f
       0.880416 1.120314 0.5642525 1.0437864
000020 fb 92 5b 3f 27 ed af 3f d0 83 c3 3f d0 03 89 3f
       0.8577115 1.3744248 1.5274601 1.0704288
000030 17 3e 90 3f 6c 78 8c 3f 70 ee c0 3f 3f 51 a2 3f
       1.1268948 1.097425 1.5072765 1.2681044

net.bn3.bias f4 [16]
000000 75 a8 a8 3c 49 05 21 3e 62 79 9f be 24 10 37 be
       0.02058814 0.15724672 -0.31147295 -0.17877251
000010 2e 6e 73 be 67 f1 9f be 53 55 a6 3e 37 cd 8a be
       -0.23772499 -0.31238863 0.32486972 -0.27109692
000020 cc 97 e4 bd dc 58 1e be da 0d ae be 34 2a 75 be
       -0.111617655 -0.15463585 -0.33994943 -0.2394188
000030 96 54 8b be b2 46 d9 bc 67 62 e3 be be bf 14 3d
       -0.2721297 -0.026522968 -0.44411013 0.036315672

net.bn3.running_mean f4 [16]
000000 7c fe 49 3f 60 9f da 3f f0 8f 22 c0 37 2d 56 3e
       0.7890394 1.7079887 -2.5400352 0.20915686
000010 2e 63 31 40 08 fb ed bf cf 2e a8 3f 84 ec af bf
       2.7716784 -1.8592234 1.3139285 -1.3744054
000020 a6 2e 8f bf d2 b4 4d bf fc 2b eb bf 87 7f 82 bf
       -1.1186111 -0.80354035 -1.8372798 -1.0195168
000030 78 b1 61 40 71 18 5f 40 3e 8b 4d c0 55 5b 75 3f
       3.5264568 3.4858668 -3.2116237 0.95842487

net.bn3.running_var f4 [16]
000000 f9 87 42 43 50 29 30 43 06 43 72 43 fa 8b 05 43
       194.53114 176.16138 242.26181 133.54678
000010 99 9c ca 42 12 e2 6b 43 ae 0f c8 42 40 45 27 43
       101.305855 235.88309 100.030624 167.27051
000020 6d fa 10 43 20 b1 5a 43 88 be 63 43 67 ff 10 43
       144.97823 218.6919 227.74426 144.99767
000030 f5 fc 2a 43 67 6d 71 43 ef 92 7a 43 68 e1 5f 43
       170.98811 241.42735 250.57396 223.8805

net.fc.weight f4 [32, 256]
000000 29 d0 0f be f9 4d 06 be aa 35 41 be 3c 39 81 be
       -0.1404425 -0.13115682 -0.18868127 -0.2523898
000010 5c 5d 66 3d 88 bd e7 3d 71 4b bd 3d ee b2 22 be
       0.05624138 0.11315447 0.09242905 -0.15888569
000020 a5 26 10 3e 38 73 96 bb 6b cf f5 bd d1 91 08 3e
       0.14077242 -0.004591372 -0.120024525 0.13336875
000030 cc 0d d6 3e b0 ce d4 3e db fb a5 3e 18 79 e7 3e
       0.418074 0.4156394 0.32418713 0.45209575
000040 88 bc e4 bd 8a 3a c4 bd 5a a9 7c be df 56 96 be
       -0.11168772 -0.09581478 -0.24673977 -0.29363152
000050 66 b1 2c be 2d 37 9e bd 00 e6 b3 3d 55 77 3c 3e
       -0.16864547 -0.07725368 0.087841034 0.18404897
000060 49 f8 ab 3d 32 a5 a3 3d f1 80 3b 3e f8 aa 8d 3d
       0.08396966 0.07990493 0.18310906 0.06917375
000070 f6 ea ef 3d 02 2e 0c 3e da c1 75 3e 9c b3 c9 bc
       0.11714737 0.13689426 0.2399973 -0.024621777
000080 5b fc ac 3e 25 70 d9 3e 0a 58 8e 3e 28 53 9a 3e
       0.33786282 0.42468372 0.27801543 0.30141568
000090 26 87 91 3e 0c ec c7 3e b3 96 1f bd a4 4b 73 3e
       0.28423423 0.39047277 -0.038962077 0.23759323
0000a0 86 05 ee 3d 58 9f 85 bd 69 12 61 be eb 1c fa 3c
       0.11622147 -0.06524533 -0.21979679 0.030531367
0000b0 fd f8 8a be e0 45 10 bf 7e d5 f7 be f5 10 17 bf
       -0.27143088 -0.5635662 -0.4840507 -0.5901025
0000c0 bc 65 12 3e 7b c3 a7 3e 09 2f ef 3d b9 e9 35 3e
       0.14296621 0.32766327 0.11678893 0.1776494
0000d0 86 78 7c 3d 27 92 34 3e 08 c6 40 3e 48 39 39 3e
       0.061638378 0.17633878 0.18825543 0.18088257
0000e0 3b b5 dc 3c 2d 23 a1 3d 23 94 1b 3d c8 d7 26 bd
       0.026941886 0.078680374 0.03798307 -0.04073313
0000f0 91 bc 3f bc 3a 92 32 bc 9d 47 02 3d 3c d2 89 be
       -0.011702673 -0.010899121 0.031806577 -0.2691821
000100 86 c0 76 be f5 82 31 be a9 b2 c0 bd 72 ea 66 bc
       -0.2409688 -0.17335112 -0.09409077 -0.014093982
000110 88 b5 ed bd af 51 d9 3d 97 d0 fb bd a4 f4 32 3c
       -0.1160689 0.10611283 -0.12295645 0.010922585
000120 23 6c 1d 3e cb f6 ce 3c 57 41 cf 3d 74 ad aa 3c
       0.15373282 0.025264164 0.101198845 0.020834662
000130 12 8b fa 3c 91 71 02 be 08 0a 42 be a1 36 9f bb
       0.030583892 -0.12738635 -0.18949139 -0.004858807
000140 90 c2 26 be 1a 08 6b bd 90 e9 bc 3d 3f 27 eb 3d
       -0.16285157 -0.057380773 0.09224236 0.11482095
000150 fe 34 a8 bc 23 ab 16 3e a7 09 b5 bd 70 ee 84 bd
       -0.020533081 0.14713721 -0.08839732 -0.06490791
000160 7e 51 49 bb bd 3a 2f 3e 38 ff cc bd 63 2c d3 bd
       -0.003071874 0.1711225 -0.100096166 -0.103112005
000170 b3 9e e2 bd 75 29 b8 be 57 8c ad bd f9 1b 04 bf
       -0.11065426 -0.3596913 -0.08474033 -0.5160518
000180 03 b9 8c 3e 3c 42 c6 3d f0 c7 94 3e 2d 98 87 3d
       0.27484903 0.09680602 0.2905879 0.06620822
000190 a2 80 4d 3e 66 fd 99 3e fb 3b 79 3e df 25 0e 3e
       0.20068601 0.3007614 0.24339287 0.13881634
0001a0 94 ab 09 3e 6d 82 88 3e 7e f7 d2 3c 32 7e f1 3d
       0.13444358 0.26662007 0.02575278 0.11791648
0001b0 1c 55 68 3e af 62 05 3e df 6b 9b 3d 9c 44 7a 3e
       0.22688717 0.13025926 0.07588934 0.24440235
0001c0 67 42 2f 3e cc fa 5b 3e e8 e1 11 3f 05 c1 5c 3e
       0.17115174 0.2148239 0.5698533 0.21558006
0001d0 d1 db b4 3e 4e 5a 63 bd bd 41 49 bd ea be 0b bd
       0.35323957 -0.055506043 -0.04913496 -0.034117617
0001e0 39 bf fa bd 16 b7 d3 bd d0 1c 8f 3d b8 fa 9f 3c
       -0.12243504 -0.10337655 0.069879174 0.019528732
0001f0 40 db 45 3e 15 de ea 3d f6 91 70 bd f9 13 df bd
       0.19321918 0.1146814 -0.05873295 -0.10892481
000200 38 2a 45 bd ef 9e 2d be 63 94 73 3b ea f6 fb 3d
       -0.048135966 -0.1695516 0.0037167303 0.123029545
000210 8f 29 26 3e 2a dc e4 3e fc ef 85 3d fa 82 34 be
       0.16226791 0.44699222 0.06539914 -0.17628089
000220 19 11 0b 3e a7 20 c7 bd dd 5e 0a 3e 6d 28 21 3e
       0.13580741 -0.09723025 0.1351275 0.15738077
000230 3e 6d 96 3d 83 a6 57 3e 0b 4f 12 3e f7 13 28 3e
       0.07345055 0.21059613 0.14287965 0.16413866
000240 5f 5b 0c bf d0 5b 80 bd 48 4b 8e be 26 21 9b be
       -0.5482692 -0.06267512 -0.2779181 -0.30298728
000250 ad f7 35 be 8f 47 8e be 70 e3 29 3d 97 46 61 bd
       -0.17770262 -0.2778897 0.041476667 -0.05499896
000260 45 c0 42 bd eb 46 92 bd ad 23 d9 bd 13 9d 7f be
       -0.047546644 -0.07142433 -0.10602508 -0.24962263
000270 c4 65 dc bd 16 f1 1c be 68 76 6e be d4 ee 54 3d
       -0.10761598 -0.15326342 -0.23287356 0.051985577
000280 b6 84 c3 3e ed f9 33 3f 86 84 f1 3e 4b 18 b2 3e
       0.38187188 0.7030323 0.4717142 0.3478416
000290 aa 9e a8 3e fa c5 90 3e 2f fd 0c 3e be 88 b6 bb
       0.3293355 0.28276044 0.13768457 -0.0055705
0002a0 0c 8c 66 bd b2 d2 c5 bc 33 24 99 bd 7e 53 19 be
       -0.056285903 -0.024148319 -0.074776076 -0.14973256
0002b0 6a 4c be be a0 5b 94 be f0 1e e3 bd 83 65 0d bd
       -0.37167674 -0.28976154 -0.11089885 -0.034520637
0002c0 79 a0 74 be 34 60 d3 be df 51 8b be c9 a1 e0 be
       -0.2388934 -0.41284335 -0.272109 -0.43873432
0002d0 14 a8 98 be a4 3b 9d be b7 5a 4b bd 1f 16 e2 bd
       -0.29815733 -0.30709565 -0.04964706 -0.110393755
0002e0 2d 03 ec bd 45 80 49 be d0 02 90 be ff ec 3a be
       -0.11524043 -0.19677837 -0.28127146 -0.1825447
0002f0 23 83 0f be 8e b3 87 be eb a3 9e bd 5c 5f 34 3e
       -0.14014868 -0.26504177 -0.077461086 0.17614502
000300 e6 7e 68 be 3d df c5 3c fe 87 d5 bd 56 c0 93 3e
       -0.22704658 0.0241543 -0.10426329 0.28857678
000310 7e 2b b0 3e af ef c6 3d 4e 02 3e 3e e2 39 82 3e
       0.34408182 0.09713685 0.18555567 0.25434786
000320 d6 c0 be 3e 22 60 02 3f 5f a7 28 3f 70 64 13 3f
       0.37256497 0.5092794 0.6588039 0.5757513
000330 6e 43 3b 3e f0 ec cf 3e 9e 65 d1 3d 98 89 6f 3e
       0.18287441 0.40610456 0.1022446 0.23392332
000340 ce f2 35 be 44 e4 05 be fb 06 01 bf a5 3e 88 bd
       -0.17768404 -0.13075358 -0.50401276 -0.066525735
000350 09 62 a3 bc 5f f3 bd bd 85 4a 96 3e c5 08 7e 3e
       -0.019944208 -0.09274935 0.2935373 0.24808033
000360 30 a0 cd 3d 43 94 ea 3d 81 7d 88 3e 8a 7c a3 3e
       0.10040319 0.1145406 0.26658252 0.31930953
000370 5d 3d a7 3d 6c 7b 99 3d 89 64 7e bb 45 5a 2b 3e
       0.08166001 0.07494244 -0.0038817248 0.16733654
000380 fd e8 4b be 5b 79 99 bd 4c 36 86 3d b4 db 79 3e
       -0.19913097 -0.0749385 0.06553325 0.24400216
000390 1f 24 b0 3d 9c c8 9e 3e 2c 20 20 3b af ba 9c be
       0.086006396 0.31012428 0.0024433238 -0.30611178
0003a0 d2 29 b6 bd 8f 1d 6d be 52 50 c9 bd 21 dc 96 be
       -0.08894695 -0.23155807 -0.09829773 -0.2946482
0003b0 60 38 88 be 77 1b c9 bd f1 36 5b be a6 84 b0 be
       -0.2660551 -0.09819692 -0.21407677 -0.34476203
0003c0 14 42 5d be ad c9 15 be b9 29 ce 3c b1 a3 9d be
       -0.21607238 -0.14627714 0.02516638 -0.3078895
0003d0 78 06 ca bc 2a 25 2f be f9 0f a7 3c 3b 14 8e 3b
       -0.024661288 -0.1710402 0.020393359 0.0043359078
0003e0 6c 89 61 bc 2b f2 52 3e 7f ae 82 3e ae cc 8a bd
       -0.013765674 0.20600192 0.25523755 -0.06777321
0003f0 2c af 16 3e 80 c9 77 3d 4b cb 0e be 91 3c 45 3e
       0.1471526 0.0604949 -0.13944738 0.19261386

net.fc.bias f4 [32]
000000 5c c9 18 3f a4 82 5b 3f 19 de 9e 3f 7e ce 40 bf
       0.5968225 0.85746217 1.2411529 -0.7531508
000010 ab 6e 3a 3f 2c bc 3b 3f ec 9e 57 bf 70 70 8b be
       0.72825116 0.73334 -0.8422687 -0.2723422
000020 85 54 29 3e dc 3b 1d bf 19 1c 32 bf 93 5e 3f bf
       0.16536148 -0.61419463 -0.69574124 -0.74753684
000030 b8 88 8a 3f 70 ad 19 3f 3d 30 cf be e6 ca 4e bf
       1.0822973 0.6003027 -0.4046649 -0.8077835
000040 f6 b2 e7 be 1e 29 c1 be 86 bc 5a 3f 8e 17 52 3e
       -0.45253724 -0.37726682 0.85443914 0.20516798
000050 9d ba 75 bf bc ba 65 bf 24 d3 87 3f 6d 99 28 bf
       -0.95987874 -0.8973806 1.061131 -0.6585911
000060 e0 e2 b8 3b fb ff d8 be a0 ae 6e bf a2 c0 7a bf
       0.00564228 -0.42382798 -0.93235207 -0.97950184
000070 30 ed cd 3d 73 c8 22 be 9e 9a 07 be ba e9 f9 3e
       0.100550056 -0.15896778 -0.13242576 0.48811132

exp_avg f4 [8, 1, 1, 256]
000000 45 b2 9d b6 e3 97 4e 36 82 44 09 37 41 b2 37 37
       -4.699718e-06 3.0784802e-06 8.181787e-06 1.0949153e-05
000010 cd c5 44 37 f9 9a 38 37 55 62 07 37 69 9f 2a 36
       1.17285645e-05 1.1003337e-05 8.069522e-06 2.5424763e-06
000020 55 ba bd b6 50 93 81 b7 e5 47 dc b7 41 35 1f b8
       -5.654331e-06 -1.5446596e-05 -2.6259522e-05 -3.795815e-05
000030 61 5d 53 b8 14 13 84 b8 18 dc 9d b8 61 18 b6 b8
       -5.0393286e-05 -6.297804e-05 -7.527339e-05 -8.682977e-05
000040 60 6b cb b8 dc 76 dc b8 92 a0 ea b8 14 e0 f7 b8
       -9.6997945e-05 -0.00010512557 -0.00011187898 -0.000118196156
000050 a1 bd 02 b9 0e a1 09 b9 97 d6 11 b9 fb 68 1a b9
       -0.00012468408 -0.00013125336 -0.00013908219 -0.00014725693
000060 dc 4f 20 b9 26 40 21 b9 9d f4 1c b9 a8 09 13 b9
       -0.00015288539 -0.00015378054 -0.00014968445 -0.0001402261
000070 66 2a 04 b9 3e a7 e4 b8 c5 a1 c0 b8 8d 9b 9e b8
       -0.00012604296 -0.000109030385 -9.185405e-05 -7.563001e-05
000080 41 54 7f b8 bf 96 49 b8 7c 6b 21 b8 75 2d 0a b8
       -6.0875205e-05 -4.8062528e-05 -3.8485494e-05 -3.29441e-05
000090 31 37 02 b8 f9 0b 07 b8 c6 2a 13 b8 69 52 21 b8
       -3.1045816e-05 -3.219766e-05 -3.5087367e-05 -3.846214e-05
0000a0 7e 73 31 b8 6f 89 46 b8 cc 39 5e b8 91 34 72 b8
       -4.230765e-05 -4.7334874e-05 -5.2982752e-05 -5.7746252e-05
0000b0 b4 d9 7a b8 86 1d 76 b8 c1 3a 6a b8 d3 56 5c b8
       -5.9807397e-05 -5.8678466e-05 -5.5844666e-05 -5.253295e-05
0000c0 11 6e 4c b8 fc 44 3a b8 29 10 29 b8 5b f0 1a b8
       -4.8739897e-05 -4.4410102e-05 -4.030779e-05 -3.694031e-05
0000d0 af b2 10 b8 6c b1 06 b8 12 44 f0 b7 a4 57 c7 b7
       -3.4498687e-05 -3.2113327e-05 -2.8641927e-05 -2.376346e-05
0000e0 eb 04 93 b7 07 bb 2b b7 5d 77 27 b6 8a 9e 97 36
       -1.7526056e-05 -1.023594e-05 -2.4954418e-06 4.518607e-06
0000f0 52 1e 27 37 ab e1 53 37 2b 54 4c 37 86 2e 26 37
       9.961035e-06 1.26291225e-05 1.2178944e-05 9.905203e-06
000100 52 e8 0d 37 c4 38 26 37 48 2f 82 37 9a 83 d2 37
       8.458346e-06 9.907588e-06 1.5519225e-05 2.5095233e-05
000110 2f dc 1d 38 2c 1a 59 38 04 b4 8c 38 46 f3 ac 38
       3.763678e-05 5.1761206e-05 6.709251e-05 8.246912e-05
000120 c5 9a cb 38 76 e1 e5 38 e0 21 f8 38 e3 24 00 39
       9.7086224e-05 0.00010961566 0.00011831871 0.00012220773
000130 bb 70 fe 38 35 43 f4 38 57 b1 e3 38 8f 64 cf 38
       0.000121326615 0.00011647345 0.000108572356 9.88926e-05
000140 e3 e9 ba 38 f5 b5 a9 38 f7 27 9d 38 da 17 93 38
       8.912736e-05 8.09244e-05 7.4937874e-05 7.013949e-05
000150 12 51 89 38 75 42 7c 38 67 42 64 38 e4 46 4e 38
       6.5477696e-05 6.0143375e-05 5.4421278e-05 4.918025e-05
000160 4e f0 3d 38 a4 59 34 38 9b f0 35 38 fe df 44 38
       4.5284913e-05 4.299883e-05 4.3377844e-05 4.693865e-05
000170 bd 8f 5e 38 2e a6 7d 38 73 a0 90 38 ae 9c a3 38
       5.306279e-05 6.0474667e-05 6.896341e-05 7.8016295e-05
000180 3d 5b b3 38 5a f5 ba 38 5f 25 bb 38 ec 51 b8 38
       8.5523796e-05 8.9148714e-05 8.923816e-05 8.789063e-05
000190 20 41 b6 38 f1 da b7 38 93 ec c0 38 3e 75 d2 38
       8.690567e-05 8.766901e-05 9.199339e-05 0.000100354184
0001a0 fd cc eb 38 ff a9 04 39 97 6b 13 39 43 56 20 39
       0.00011243855 0.0001265183 0.00014059093 0.00015290924
0001b0 69 c5 2a 39 ba 83 31 39 50 34 34 39 15 2b 33 39
       0.00016286004 0.00016929107 0.00017185626 0.0001708682
0001c0 a6 a0 2f 39 d3 c2 2a 39 22 06 26 39 e9 22 22 39
       0.00016749147 0.00016285041 0.00015833278 0.00015462529
0001d0 c5 96 1f 39 f8 be 1e 39 36 cc 1f 39 32 85 22 39
       0.00015219588 0.00015139196 0.00015239496 0.00015499143
0001e0 e1 84 26 39 8f 4b 2b 39 84 5d 31 39 1d 29 39 39
       0.00015880495 0.00016335979 0.00016914873 0.00017658291
0001f0 44 f9 41 39 a1 22 4b 39 48 ae 54 39 5b 8b 5e 39
       0.00018498773 0.00019372489 0.0002028282 0.00021223484
000200 a4 b0 67 39 18 f5 68 39 cc ae 67 39 94 ad 64 39
       0.0002209568 0.00022216549 0.00022094994 0.00021808437
000210 14 95 62 39 51 56 62 39 43 90 63 39 31 96 64 39
       0.00021608575 0.00021585195 0.00021702149 0.00021799725
000220 31 32 63 39 3b ad 5d 39 d7 27 54 39 1d 22 47 39
       0.00021667105 0.00021140736 0.00020232737 0.00018990827
000230 e8 da 36 39 70 8a 23 39 eb 66 0e 39 2f cb f0 38
       0.00017438421 0.00015596463 0.00013580515 0.00011481938
000240 dd 6c c4 38 79 79 99 38 6a 87 68 38 2b 20 30 38
       9.366286e-05 7.3182346e-05 5.5439225e-05 4.199163e-05
000250 3e a1 0d 38 39 24 00 38 98 40 03 38 34 cf 0e 38
       3.3767188e-05 3.0551313e-05 3.129299e-05 3.404841e-05
000260 7f ab 18 38 4f 41 19 38 9b 67 0c 38 b8 80 e5 37
       3.6399342e-05 3.6538866e-05 3.347509e-05 2.7358867e-05
000270 a1 55 a5 37 57 fa 42 37 2e 9e a3 36 0d 12 fc 35
       1.9709407e-05 1.1621588e-05 4.876193e-06 1.8780717e-06
000280 43 54 a8 36 3c d3 81 37 98 ab 0b 38 19 fb 70 38
       5.0165995e-06 1.5476362e-05 3.329999e-05 5.7454312e-05
000290 77 2a b5 38 78 17 f7 38 2f 70 1c 39 f4 77 3b 39
       8.638662e-05 0.00011782249 0.00014919111 0.00017878396
0002a0 ed ee 56 39 96 d4 6d 39 80 b8 7e 39 41 6e 84 39
       0.00020497637 0.00022681276 0.00024292059 0.00025259148
0002b0 ce 1a 86 39 89 3f 85 39 62 ee 82 39 ab c7 80 39
       0.00025578443 0.00025415074 0.0002497314 0.00024562827
0002c0 15 d6 7f 39 5e f1 80 39 c0 a0 83 39 3a 59 87 39
       0.00024398447 0.00024593895 0.00025106035 0.00025815686
0002d0 82 1b 8b 39 2d 48 8e 39 d3 87 90 39 41 a2 91 39
       0.0002653264 0.00027138126 0.00027567017 0.00027777444
0002e0 43 1d 91 39 01 be 8e 39 3e 3f 8a 39 23 65 83 39
       0.00027678357 0.00027225915 0.0002636853 0.0002506162
0002f0 0d 27 74 39 46 33 5e 39 e8 11 48 39 10 cf 34 39
       0.00023284201 0.0002119067 0.00019080157 0.00017243274
000300 99 ed 25 39 07 8a 1b 39 a7 d5 14 39 df 3f 10 39
       0.00015824138 0.00014833371 0.00014193972 0.00013756704
000310 c4 7c 0b 39 cb 61 04 39 29 0d f4 38 2f 38 db 38
       0.00013302552 0.00012624932 0.00011637278 0.00010453199
000320 87 39 c3 38 b4 7a af 38 2b 4e a1 38 46 fb 97 38
       9.30904e-05 8.3675055e-05 7.691638e-05 7.2470444e-05
000330 f5 f2 92 38 4b dd 90 38 5d 4c 8e 38 d3 4c 88 38
       7.007077e-05 6.907674e-05 6.7853114e-05 6.499295e-05
000340 06 07 7e 38 b5 a8 6a 38 d7 60 5d 38 57 f3 59 38
       6.056486e-05 5.5947068e-05 5.2780695e-05 5.196346e-05
000350 d1 63 5f 38 eb fa 6a 38 8e 83 79 38 3b 41 84 38
       5.3260304e-05 5.6023633e-05 5.9488746e-05 6.3064006e-05
000360 05 dc 8b 38 a5 47 95 38 83 4c a2 38 14 33 b4 38
       6.669018e-05 7.1182185e-05 7.7390134e-05 8.592583e-05
000370 51 24 ca 38 49 b7 e3 38 ea 26 00 39 6a d2 0f 39
       9.638875e-05 0.00010858343 0.00012221528 0.00013715928
000380 74 1b 20 39 c1 22 30 39 5a 61 3e 39 58 97 4a 39
       0.00015269016 0.00016797615 0.00018156078 0.00019320601
000390 d8 d3 55 39 e4 e0 61 39 17 5f 6f 39 ed f6 7c 39
       0.00020392181 0.0002154145 0.0002282824 0.0002412458
0003a0 3b 6c 84 39 52 bc 89 39 06 28 8f 39 4f a3 94 39
       0.0002525764 0.00026270986 0.00027304905 0.00028350434
0003b0 cc 86 99 39 97 6f 9d 39 93 7a a0 39 7d 7d a2 39
       0.00029282866 0.00030028514 0.00030608903 0.00030992544
0003c0 f9 3d a3 39 fe c3 a2 39 26 ed a1 39 33 4a a1 39
       0.00031135956 0.00031045073 0.00030885002 0.00030763596
0003d0 cd 05 a1 39 7d f6 a0 39 10 d1 a0 39 5e ef 9f 39
       0.00030712635 0.00030701226 0.00030673342 0.00030505186
0003e0 57 37 9e 39 01 bd 9b 39 08 82 98 39 c1 3a 94 39
       0.0003017734 0.00029704723 0.0002908858 0.00028272535
0003f0 ec ce 8e 39 d5 22 88 39 93 03 80 39 1f 8f 6b 39
       0.0002723852 0.00025965893 0.00024416726 0.00022464663

exp_avg_sq f4 [8, 1, 1, 256]
000000 ed 5f 0f 35 63 a5 09 35 ec 4e 05 35 04 59 03 35
       5.341124e-07 5.1277146e-07 4.966121e-07 4.893084e-07
000010 92 b5 03 35 99 81 05 35 18 fa 07 35 11 fe 0a 35
       4.906552e-07 4.973495e-07 5.0655353e-07 5.177872e-07
000020 f5 95 0e 35 6c 54 12 35 93 3e 15 35 25 db 16 35
       5.311734e-07 5.451209e-07 5.5597883e-07 5.619825e-07
000030 1f be 17 35 d7 da 18 35 7d 04 1a 35 31 4b 1a 35
       5.6528546e-07 5.6942866e-07 5.7376e-07 5.747889e-07
000040 ee 15 19 35 ef e4 16 35 59 e4 14 35 c1 94 13 35
       5.7028853e-07 5.6212497e-07 5.5466586e-07 5.497823e-07
000050 5a 6e 12 35 5f ac 10 35 ed 50 0e 35 da 2f 0c 35
       5.454982e-07 5.3895013e-07 5.3016885e-07 5.22237e-07
000060 57 f1 0a 35 70 62 0a 35 81 17 0a 35 4e 5b 0a 35
       5.17602e-07 5.155225e-07 5.144321e-07 5.154187e-07
000070 d9 ea 0b 35 33 f5 0e 35 37 ab 12 35 fc ef 15 35
       5.2123283e-07 5.3255934e-07 5.463839e-07 5.585605e-07
000080 22 76 18 35 a9 c3 1a 35 bc df 1c 35 b0 07 1e 35
       5.679632e-07 5.7654194e-07 5.8440105e-07 5.8870774e-07
000090 c8 86 1d 35 60 86 1b 35 cb 13 19 35 f9 d7 16 35
       5.868319e-07 5.793754e-07 5.7025744e-07 5.6193636e-07
0000a0 7f 7b 14 35 24 30 11 35 da d3 0c 35 5b 3f 08 35
       5.5314007e-07 5.4086763e-07 5.246235e-07 5.075614e-07
0000b0 e0 73 04 35 99 88 01 35 47 e0 fd 34 f1 d4 f8 34
       4.934245e-07 4.825502e-07 4.7288106e-07 4.6348535e-07
0000c0 ea 5a f5 34 e9 04 f5 34 dd 9e f7 34 d4 24 fb 34
       4.5700955e-07 4.563838e-07 4.6122923e-07 4.677919e-07
0000d0 a5 67 fe 34 d2 2f 01 35 fe 52 04 35 10 82 08 35
       4.7386598e-07 4.812583e-07 4.92946e-07 5.0853214e-07
0000e0 2e a7 0c 35 ed d5 0f 35 f3 2f 12 35 15 94 14 35
       5.239734e-07 5.3582954e-07 5.4459014e-07 5.5349784e-07
0000f0 1b 5d 17 35 aa c1 19 35 63 d4 1a 35 15 d5 1a 35
       5.638737e-07 5.727876e-07 5.7678534e-07 5.7679546e-07
000100 64 bd 1a 35 26 e3 1a 35 c5 a7 1a 35 44 75 19 35
       5.764507e-07 5.7700015e-07 5.761361e-07 5.7167586e-07
000110 e7 de 17 35 e2 e6 16 35 c5 e1 16 35 fe db 16 35
       5.657625e-07 5.6215333e-07 5.620789e-07 5.6199485e-07
000120 93 0c 16 35 0a e3 14 35 fa aa 14 35 fd 62 16 35
       5.589765e-07 5.546468e-07 5.53831e-07 5.60234e-07
000130 ee de 19 35 fd f8 1d 35 a1 24 22 35 ec 80 26 35
       5.7321347e-07 5.8849383e-07 6.0403005e-07 6.2027425e-07
000140 73 1b 2b 35 3a ff 2e 35 d5 f9 30 35 74 ac 30 35
       6.374241e-07 6.5191455e-07 6.592866e-07 6.581606e-07
000150 8d b3 2e 35 d6 c5 2b 35 c5 e5 27 35 37 64 22 35
       6.508133e-07 6.3990353e-07 6.2546707e-07 6.0495535e-07
000160 c4 44 1b 35 7c c9 13 35 b2 70 0d 35 8b d5 08 35
       5.7842067e-07 5.5054966e-07 5.2690586e-07 5.0974694e-07
000170 57 ee 05 35 da 0a 05 35 37 24 07 35 f0 1d 0d 35
       4.989319e-07 4.956215e-07 5.034412e-07 5.257016e-07
000180 73 d8 16 35 ec 30 23 35 f4 eb 30 35 80 aa 3f 35
       5.619433e-07 6.079342e-07 6.5908466e-07 7.1401155e-07
000190 28 2b 4f 35 73 ed 5d 35 c2 7d 69 35 e9 23 70 35
       7.717631e-07 8.267445e-07 8.6982266e-07 8.9459223e-07
0001a0 a9 f1 71 35 55 dc 6f 35 bb bf 6a 35 45 9e 62 35
       9.013116e-07 8.9355063e-07 8.74508e-07 8.4421873e-07
0001b0 2b 78 57 35 9a 2d 4a 35 b6 49 3c 35 71 e6 2e 35
       8.026861e-07 7.5317223e-07 7.014272e-07 6.515539e-07
0001c0 71 40 22 35 9f 95 16 35 a0 43 0d 35 e5 8e 08 35
       6.044348e-07 5.609708e-07 5.2625e-07 5.0871887e-07
0001d0 13 fc 09 35 ce 29 11 35 a6 64 1c 35 12 74 2a 35
       5.1403293e-07 5.4077543e-07 5.826099e-07 6.349884e-07
0001e0 88 00 3b 35 6f 3b 4d 35 3c 27 5f 35 74 9e 6e 35
       6.96637e-07 7.645494e-07 8.313107e-07 8.889249e-07
0001f0 84 b5 7a 35 a6 cc 81 35 9a 7b 84 35 57 e6 84 35
       9.33964e-07 9.67081e-07 9.870739e-07 9.901804e-07
000200 0f 8e 82 35 28 43 7a 35 32 f7 6b 35 b3 95 5c 35
       9.727099e-07 9.322998e-07 8.790404e-07 8.217423e-07
000210 8b 53 4d 35 89 78 3e 35 fd 82 30 35 21 21 25 35
       7.649002e-07 7.095592e-07 6.575572e-07 6.15155e-07
000220 c5 15 1e 35 19 c2 1b 35 07 87 1d 35 9a 8b 22 35
       5.8891266e-07 5.802445e-07 5.868355e-07 6.055285e-07
000230 90 5f 2a 35 03 a5 34 35 8a 35 40 35 b6 16 4b 35
       6.3468997e-07 6.729535e-07 7.1603483e-07 7.565644e-07
000240 c1 ca 53 35 38 43 5a 35 49 ff 5e 35 4a d2 61 35
       7.889867e-07 8.1309145e-07 8.3072933e-07 8.412504e-07
000250 64 ab 61 35 8d cf 5d 35 8e b1 56 35 71 9d 4d 35
       8.406844e-07 8.263094e-07 7.997959e-07 7.659756e-07
000260 fe 61 43 35 42 0e 38 35 31 b3 2b 35 19 61 1f 35
       7.278576e-07 6.856609e-07 6.396322e-07 5.937341e-07
000270 f4 f5 14 35 5a d4 0d 35 72 01 0a 35 cd d8 08 35
       5.5492205e-07 5.2835605e-07 5.141111e-07 5.0979435e-07
000280 7d 05 0a 35 15 9e 0d 35 9f 29 13 35 4a 7d 19 35
       5.141699e-07 5.275663e-07 5.4822334e-07 5.717926e-07
000290 04 4d 1f 35 55 21 24 35 06 5e 28 35 e3 63 2c 35
       5.934419e-07 6.1143265e-07 6.27217e-07 6.422035e-07
0002a0 71 98 2f 35 96 d2 30 35 8f c4 2f 35 9e 5d 2d 35
       6.541441e-07 6.587155e-07 6.547861e-07 6.4583753e-07
0002b0 bb ad 2a 35 74 d7 27 35 f9 2c 24 35 66 b1 1f 35
       6.3582746e-07 6.2525874e-07 6.1160205e-07 5.9490264e-07
0002c0 ee 7d 1b 35 a4 c6 18 35 ee 92 17 35 70 0d 17 35
       5.792525e-07 5.691347e-07 5.6465694e-07 5.627144e-07
0002d0 72 b1 16 35 74 dc 16 35 c6 08 18 35 6e e3 19 35
       5.613757e-07 5.6200156e-07 5.663718e-07 5.7327895e-07
0002e0 8b 54 1b 35 69 9b 1b 35 79 18 1b 35 16 a5 1a 35
       5.7865026e-07 5.796815e-07 5.777761e-07 5.76097e-07
0002f0 95 65 1a 35 b1 a1 19 35 92 b6 17 35 d8 03 15 35
       5.751729e-07 5.7232234e-07 5.651756e-07 5.551242e-07
000300 41 80 12 35 06 8c 10 35 36 94 0e 35 a5 0a 0c 35
       5.457587e-07 5.384794e-07 5.31148e-07 5.2169554e-07
000310 ca 49 09 35 08 32 07 35 8c 09 06 35 ef 00 05 35
       5.1143854e-07 5.0364224e-07 4.993278e-07 4.954772e-07
000320 2f 0d 03 35 34 7a 00 35 98 1e fd 34 9c 35 fc 34
       4.882049e-07 4.7861545e-07 4.7147182e-07 4.6977664e-07
000330 12 55 fd 34 ef b6 fe 34 06 da ff 34 a7 f8 00 35
       4.718682e-07 4.7444288e-07 4.7656084e-07 4.804555e-07
000340 4d f4 02 35 de 6c 05 35 76 96 07 35 16 51 09 35
       4.878428e-07 4.9704784e-07 5.051037e-07 5.115447e-07
000350 2d 42 0b 35 04 f7 0d 35 60 f9 10 35 ee 30 13 35
       5.1877834e-07 5.288605e-07 5.400707e-07 5.483297e-07
000360 0a 01 14 35 af e0 13 35 77 ac 13 35 89 b1 13 35
       5.513581e-07 5.5088725e-07 5.5012737e-07 5.5020115e-07
000370 dd 77 13 35 73 a7 12 35 72 b8 11 35 8b 6d 11 35
       5.493619e-07 5.463291e-07 5.428511e-07 5.4176115e-07
000380 91 d4 11 35 78 2c 12 35 c0 de 11 35 72 5b 11 35
       5.4326034e-07 5.445395e-07 5.4340853e-07 5.414978e-07
000390 8c 96 11 35 dd ea 12 35 b1 c9 14 35 4c b3 16 35
       5.4235784e-07 5.473101e-07 5.5427796e-07 5.6140266e-07
0003a0 0b cb 18 35 6a 74 1b 35 07 90 1e 35 e3 4e 21 35
       5.691988e-07 5.7911404e-07 5.9069174e-07 6.009197e-07
0003b0 0c f4 22 35 e3 8e 23 35 70 b2 23 35 bf 7f 23 35
       6.070484e-07 6.093016e-07 6.098189e-07 6.0908127e-07
0003c0 7d 6c 22 35 bf e5 1f 35 0c 0b 1c 35 5f a2 17 35
       6.0507574e-07 5.956644e-07 5.8130604e-07 5.6488165e-07
0003d0 ed 61 13 35 ee 7a 0f 35 b4 d4 0b 35 c1 c9 08 35
       5.490427e-07 5.345054e-07 5.209106e-07 5.095754e-07
0003e0 40 08 07 35 19 d1 06 35 8f b2 07 35 d1 f4 08 35
       5.0303424e-07 5.0223167e-07 5.0551256e-07 5.10202e-07
0003f0 91 6a 0a 35 5b 8a 0c 35 98 d7 0f 35 8c 0f 14 35
       5.156408e-07 5.23554e-07 5.358538e-07 5.515692e-07

exp_avg f4 [8]
000000 39 f6 b5 b0 2d ee 08 b1 59 a2 ee b0 01 1b f6 b1
       -1.3239464e-09 -1.9925992e-09 -1.7362921e-09 -7.1626123e-09
000010 83 a4 b5 32 98 a1 b0 b0 7e 39 a2 b2 fc 5d a3 b1
       2.1145985e-08 -1.2851613e-09 -1.8885427e-08 -4.754609e-09

exp_avg_sq f4 [8]
000000 46 78 00 28 e0 fc 20 27 d3 60 38 27 47 91 57 28
       7.1315075e-15 2.2341544e-15 2.5587618e-15 1.19663995e-14
000010 4a 2c 7e 28 35 0b 5e 26 dc 87 96 27 76 05 9f 26
       1.4109436e-14 7.703691e-16 4.1780662e-15 1.1034321e-15

exp_avg f4 [8]
000000 f3 35 70 b1 a5 97 74 af 8b 5a 32 30 22 44 99 2f
       -3.4955263e-09 -2.2245546e-10 6.488469e-10 2.787895e-10
000010 79 49 8c 30 1f c2 15 30 54 62 16 30 a1 20 48 af
       1.0207223e-09 5.4481747e-10 5.4709415e-10 -1.8201486e-10

exp_avg_sq f4 [8]
000000 28 0d 51 23 0b b3 38 22 9f 59 ba 22 15 63 9b 23
       1.1332699e-17 2.5031435e-18 5.051029e-18 1.6847097e-17
000010 79 62 3a 24 a5 49 f9 21 ba 9b 09 24 6d 9f 3c 23
       4.041573e-17 1.689239e-18 2.9839045e-17 1.022526e-17
