model/all_subjects_20240208_162941/checkpoints/epoch6_0.6875.pt (torch, 195725 bytes, 39 tensors)

net.conv.weight f4 [8, 1, 1, 256]
0.057973333 0.19144551 0.18712577 0.31600076 0.37350616 0.4643866 0.5379679 0.5773531
0.6234508 0.56445944 0.59774655 0.56214213 0.4187776 0.36354083 0.24154252 0.13082355
0.10340729 -0.028560262 -0.0832531 -0.16939391 -0.24261817 -0.22154647 -0.31454283 -0.47867087
-0.53017956 -0.59862614 -0.63602906 -0.742292 -0.7393251 -0.803708 -0.82986224 -0.7576826
-0.7858854 -0.78393316 -0.57581496 -0.55234724 -0.4805493 -0.34205896 -0.11891302 -0.10072151
0.08401525 0.17932625 0.38632745 0.4994756 0.5589814 0.6766786 0.7816286 0.8575358
0.9380732 0.9818194 0.924984 1.0538884 0.96151376 0.9786495 0.98005146 0.8817672
0.7285794 0.6353487 0.52541447 0.39230648 0.11515551 -0.009086417 -0.22416787 -0.40697804
-0.5574553 -0.6880322 -0.8748917 -0.9773157 -0.99180794 -1.0471405 -1.1613035 -1.108433
-1.0489984 -1.0466284 -0.9369293 -0.8896495 -0.77347255 -0.6367592 -0.5038581 -0.3859629
-0.25485697 -0.08725773 0.040346023 0.18777652 0.35048294 0.43134838 0.5641884 0.6239378
0.6101823 0.68750995 0.7301496 0.7555508 0.7044988 0.7508777 0.6976235 0.6413708
0.65925753 0.6237593 0.4932949 0.45406672 0.44836107 0.26960403 0.26129338 0.111707985
-0.0035716097 -0.10873 -0.23304918 -0.26815045 -0.40323067 -0.45469794 -0.4440012 -0.5638446
-0.4893338 -0.49746776 -0.51003724 -0.4204439 -0.36005497 -0.35857058 -0.26037407 -0.18373859
-0.18799092 -0.1218231 -0.046520434 -0.018269653 0.0026724641 0.06360788 0.071342036 0.026992396
0.07199833 0.14299993 0.11044721 0.05071807 0.10873911 0.13631137 0.060629323 0.08616237
-0.0039490378 0.060820315 0.01896707 -0.05551144 -0.075157516 -0.04577982 -0.07579541 -0.12298684
-0.058640234 0.008702058 -0.048108906 -0.042914238 -0.051947918 -0.053622227 0.012019455 0.022439629
0.06804435 0.038009774 0.12189062 0.20362166 0.2982279 0.3561346 0.44274884 0.4531462
0.5559738 0.56989634 0.58181465 0.5554765 0.5537141 0.52883345 0.40870547 0.3692278
0.24988589 0.16075087 0.082285695 -0.018025044 -0.14536737 -0.2305916 -0.31410238 -0.41913897
-0.4709767 -0.5892896 -0.6476315 -0.660653 -0.6906595 -0.6937083 -0.7650758 -0.6632671
-0.6414264 -0.6680096 -0.61960983 -0.46843627 -0.39128602 -0.38318273 -0.18455145 -0.1521764
0.013229883 0.14141294 0.2445404 0.4003333 0.5441643 0.6188349 0.7372235 0.7718928
0.86621195 0.91232055 0.9701253 0.93314457 0.8962872 0.95059603 0.87375206 0.8257251
0.7839732 0.6653828 0.56790423 0.4544461 0.38232866 0.21802978 0.13229458 -0.0008343299
-0.19188426 -0.31219968 -0.33008704 -0.4769923 -0.47026962 -0.5188649 -0.5683075 -0.533177
-0.50681454 -0.47544172 -0.43958738 -0.3950325 -0.43559787 -0.3196189 -0.30531883 -0.23461404
-0.14182441 -0.10338647 -0.06504316 0.058625367 0.1358317 0.1944615 0.2572983 0.28068694
0.36130384 0.30508915 0.39142877 0.38504532 0.3319076 0.35029927 0.3736434 0.3226096
0.34137648 0.34011775 0.33180207 0.3035341 0.1838744 0.16902155 0.18671632 0.056179754
00000000: 7275 6d3d 4b0a 443e e69d 3f3e daca a13e
00000010: 333c bf3e 15c4 ed3e 44b8 093f 6acd 133f
00000020: 799a 1f3f 6a80 103f eb05 193f 8ce8 0f3f
00000030: 056a d63e 0622 ba3e ec56 773e 9cf6 053e
00000040: 34c7 d33d 36f7 e9bc 9a80 aabd 9975 2dbe
00000050: e670 78be 14dd 62be c20b a1be 5914 f5be
00000060: d9b9 07bf 903f 19bf cdd2 22bf d906 3ebf
00000070: 6944 3dbf cfbf 4dbf da71 54bf 7df7 41bf
00000080: c92f 49bf d8af 48bf 9c68 13bf a166 0dbf
00000090: 8f0a f6be 5a22 afbe ab88 f3bd 1447 cebd
000000a0: 3010 ac3d 4da1 373e b6cc c53e 44bb ff3e
000000b0: 6819 0f3f cf3a 2d3f d018 483f 7787 5b3f
000000c0: 9125 703f 8458 7b3f c0cb 6c3f d1e5 863f
000000d0: c425 763f c688 7a3f a7e4 7a3f 7fbb 613f
000000e0: 2e84 3a3f 36a6 223f 9081 063f 65dc c83e
000000f0: a7d6 eb3d 32df 14bc 438c 65be 6d5f d0be
00000100: 64b5 0ebf e122 30bf e7f8 5fbf 5d31 7abf
00000110: 20e7 7dbf b308 86bf 98a5 94bf 22e1 8dbf
00000120: 9445 86bf ebf7 85bf 99da 6fbf 12c0 63bf
00000130: 4c02 46bf a702 23bf d8fc 00bf ee9c c5be
00000140: 9d7c 82be 2eb4 b2bd df41 253d 7d48 403e
00000150: 8072 b33e b2d9 dc3e a76e 103f 63ba 1f3f
00000160: e834 1c3f a700 303f 16eb 3a3f c76b 413f
00000170: 095a 343f 8539 403f 7497 323f e030 243f
00000180: 1ac5 283f b1ae 1f3f 2691 fc3e 6f7b e83e
00000190: 958f e53e 8a09 8a3e 3fc8 853e 28c7 e43d
000001a0: ab11 6abb d6ad debd 72a4 6ebe 044b 89be
000001b0: 4074 cebe 2bce e8be 2054 e3be 1f58 10bf
000001c0: f689 fabe 18b4 febe cd91 02bf 6c44 d7be
000001d0: 2059 b8be 9096 b7be c04f 85be f825 3cbe
000001e0: b180 40be 647e f9bd 368c 3ebd 3daa 95bc
000001f0: 8224 2f3b d944 823d c61b 923d 281f dd3c
00000200: dc73 933d 936e 123e 2632 e23d c0bd 4f3d
00000210: 9cb2 de3d 3595 0b3e 7456 783d e675 b03d
00000220: ee66 81bb b91e 793d d460 9b3c f75f 63bd
00000230: 2fec 99bd 9f83 3bbd a03a 9bbd 86e0 fbbd
00000240: be30 70bd 1493 0e3c d80d 45bd d7c6 2fbd
00000250: 57c7 54bd fba2 5bbd 40ed 443c 50d3 b73c
00000260: d65a 8b3d 23b0 1b3d caa1 f93d 3282 503e
00000270: 54b1 983e 4657 b63e faaf e23e c702 e83e
00000280: 4d54 0e3f bae4 113f cef1 143f b533 0e3f
00000290: 35c0 0d3f a161 073f d841 d13e 6d0b bd3e
000002a0: 16e2 7f3e e09b 243e 6785 a83d 42a9 93bc
000002b0: 2fdb 14be 3420 6cbe 07d2 a0be 6299 d6be
000002c0: dc23 f1be afdb 16bf 2ecb 25bf 8e20 29bf
000002d0: 10cf 30bf de96 31bf 02dc 43bf dfcb 29bf
000002e0: 8534 24bf ad02 2bbf c09e 1ebf e1d6 efbe
000002f0: a456 c8be 8730 c4be 0efb 3cbe 21d4 1bbe
00000300: 27c2 583c 8ece 103e cc68 7a3e 7cf8 cc3e
00000310: 5a4e 0b3f f76b 1e3f aeba 3c3f c49a 453f
00000320: 11c0 5d3f d78d 693f 225a 783f 90e2 6e3f
00000330: 1473 653f 435a 733f 37ae 5f3f b862 533f
00000340: 78b2 483f 8756 2a3f 2c62 113f 29ad e83e
00000350: 95c0 c33e 3343 5f3e 3b78 073e efb6 5aba
00000360: 4f7d 44be a3d8 9fbe 2b01 a9be 5638 f4be
00000370: 2ec7 f0be 55d4 04bf 9a7c 11bf 4a7e 08bf
00000380: 99be 01bf 196d f3be 9911 e1be b341 cabe
00000390: af06 dfbe 17a5 a3be c052 9cbe aa3e 70be
000003a0: 6b3a 11be 49bc d3bd 5935 85bd 2721 703d
000003b0: 7717 0b3e ea20 473e 9abc 833e 33b6 8f3e
000003c0: d1fc b83e a534 9c3e 5a69 c83e a924 c53e
000003d0: cbef a93e 6d5a b33e 304e bf3e 162d a53e
000003e0: e6c8 ae3e ea23 ae3e f6e1 a93e d268 9b3e
000003f0: 9249 3c3e fc13 2d3e 9032 3f3e be1c 663d

net.bn1.weight f4 [8]
1.2940674 1.1914877 1.2782573 1.3929764 1.7623181 1.4573734 1.6150551 1.1450493
00000000: 00a4 a53f ab82 983f ef9d a33f 0d4d b23f
00000010: a493 e13f 368b ba3f 20ba ce3f fa90 923f

net.bn1.bias f4 [8]
-0.0075868433 0.12054109 -0.13164622 -0.20616989 -0.06964756 0.06910754 -0.0033631208 0.046221014
00000000: 0e9b f8bb 3fde f63d 44ce 06be 331e 53be
00000010: 61a3 8ebd 4188 8d3d ce67 5cbb 3f52 3d3d

net.bn1.running_mean f4 [8]
-0.0006803788 -0.00045311518 -0.00034072096 -0.00013995206 -0.0010105028 0.0008230077 -0.0009628043 0.00034243354
00000000: 735b 32ba 1790 edb9 cba2 b2b9 18c0 12b9
00000010: d972 84ba 1dbf 573a b464 7cba a788 b339

net.bn1.running_var f4 [8]
483.1589 491.21838 408.47174 491.33987 547.74664 598.31226 590.55 344.4097
00000000: 5794 f143 f49b f543 623c cc43 81ab f543
00000010: c9ef 0844 fc93 1544 33a3 1344 7134 ac43

net.depth_conv.weight f4 [16, 1, 32, 1]
0.33144733 0.780898 0.6643431 -0.28886485 0.8264044 -0.153407 0.4283183 -0.006133429
-0.33519366 -1.9477192 -0.14578077 0.35641798 0.4413181 0.6959015 -0.33700132 -0.052257724
0.14091687 -0.46362457 0.55714625 0.49550405 0.48784456 -0.054292962 -0.41781467 0.66488415
-1.1074419 -0.57361585 -0.4725502 -0.014915051 -0.15233678 -0.14950684 0.5577965 -0.10630875
0.39970905 0.68178445 0.80751395 -0.8175562 0.7461643 -0.23296173 0.5141392 0.6726438
0.023435544 -1.4019732 0.0888659 0.6958915 0.43195814 0.93276495 -0.7329052 -0.051803414
-0.052365366 -0.60896534 0.32979208 0.69664216 0.2983729 0.02481874 0.0074174674 0.5663175
-1.2864718 -0.6061283 -0.42487213 0.40750155 -0.28195655 -0.4223931 0.13581757 -0.1370823
0.002020675 0.005286863 0.25888488 -0.30366346 0.3029955 -0.28290465 -1.4826539 -0.48757574
0.4367966 -0.4105903 -0.12657292 -0.0034459622 0.23986742 0.032605045 -0.17829415 -0.349381
-0.7162814 -0.17689645 -0.32477635 -0.6909278 0.20996292 0.062551826 0.12966941 0.44602647
1.8105268 -0.60867697 0.98710537 1.1619089 -0.089440785 -0.27095369 -0.09759963 0.2572702
0.04802523 0.20900618 0.058301527 -0.39318082 0.5369904 -0.2758983 -1.4522877 -0.35505134
0.36241883 -0.4542289 -0.4334415 -0.10709825 -0.17465292 -0.14901444 -0.13229153 0.33247495
-0.4995484 0.031468384 -0.23221517 -0.20588012 -0.14477658 0.11979651 0.011517281 0.5454025
1.8246028 -1.3045046 0.90614843 1.0503083 0.1407891 -0.57803667 0.03121131 0.045141917
-0.17584793 -0.45859796 -0.1313083 0.2600472 -1.5417411 -0.054439586 0.32519853 0.035162725
0.3447181 0.7011759 0.31096068 -0.096979134 0.914491 0.68935907 0.26733255 -0.89912224
0.2703957 -0.16133322 -0.08530333 0.016853051 0.5514491 -0.10675199 0.6576958 -0.45801583
-0.18144841 2.3321552 -0.8550232 0.61651576 -0.23599774 -0.5297531 -0.45838726 -0.25628716
-0.059037328 0.6965738 0.22658955 -0.32844454 1.9909129 -0.040857878 -0.3688626 -0.37078723
0.18719886 -1.110694 -0.7159211 -0.043423392 -0.45179507 -0.4042809 0.07113977 1.2254621
-0.28112257 -0.07095612 0.479631 -0.25425544 -0.41638234 -0.41833255 -0.9129187 0.08031793
-0.0860806 -0.86853087 1.1103781 -0.15624696 -0.62519544 0.30975866 0.34438837 0.0146921445
-0.030109184 0.03842469 0.026391445 0.32036048 0.6514919 0.51921237 -0.19236282 0.046207383
-1.7600179 0.41867214 -0.28971562 -0.20514208 -0.5494471 -0.53748286 0.095460996 0.11350652
-0.39107296 0.061484665 0.66756594 0.9853052 0.3925552 0.4065336 0.12905332 -0.779402
-1.2665043 1.1476476 -0.85280126 -0.9462134 -0.327606 0.118698254 0.6674725 -0.26291147
0.28084317 -0.039092652 -0.7124703 0.2179308 -0.9667845 -0.06755806 -0.6352258 -0.42029065
1.138642 -0.36179575 0.8794871 0.33115575 0.46255916 0.16135974 -0.5016694 -0.57449615
0.1567367 0.0487936 -1.3234673 -0.8498641 0.31818724 0.16702867 -0.2321263 1.160239
0.5758594 -1.4595819 0.10755572 1.2126412 0.38913554 0.25768232 -0.34142697 0.087931104
00000000: 77b3 a93e eee8 473f 6412 2a3f 18e6 93be
00000010: 3d8f 533f b916 1dbe 894c db3e eefa c8bb
00000020: 819e abbe dd4e f9bf 8e47 15be 6b7c b63e
00000030: 72f4 e13e 9a26 323f 708b acbe 320c 56bd
00000040: 834c 103e 3360 edbe 23a1 0e3f b5b2 fd3e
00000050: c3c6 f93e 4c62 5ebd ceeb d5be d935 2a3f
00000060: a8c0 8dbf 7dd8 12bf 1af2 f1be 425e 74bc
00000070: 2cfe 1bbe 5218 19be c0cb 0e3f 67b8 d9bd
00000080: aaa6 cc3e 6d89 2e3f 3cb9 4e3f 5d4b 51bf
00000090: a004 3f3f 858d 6ebe a09e 033f 6232 2c3f
000000a0: e6fb bf3c dc73 b3bf 53ff b53d f225 323f
000000b0: 9e29 dd3e afc9 6e3f ad9f 3bbf d12f 54bd
000000c0: 117d 56bd 27e5 1bbf 82da a83e 2457 323f
000000d0: 55c4 983e ac50 cb3c 3a0e f33b 2ffa 103f
000000e0: 1cab a4bf 392b 1bbf d788 d9be 0ba4 d03e
000000f0: 9c5c 90be e943 d8be c313 0b3e 4d5f 0cbe
00000100: 4d6d 043b 6c3d ad3b 8f8c 843e c779 9bbe
00000110: 3a22 9b3e e1d8 90be 9ac7 bdbf 87a3 f9be
00000120: cea3 df3e e438 d2be 559c 01be a7d5 61bb
00000130: ce9f 753e de8c 053d be92 36be 11e2 b2be
00000140: 385e 37bf 5824 35be 1649 a6be a5e0 30bf
00000150: 8500 573e 2c1b 803d 0fc8 043e 955d e43e
00000160: 58bf e73f 41d2 1bbf f0b2 7c3f 6eb9 943f
00000170: bb2c b7bd 71ba 8abe 51e2 c7bd ebb8 833e
00000180: 1bb6 443d b705 563e 95cd 6e3d ff4e c9be
00000190: 3478 093f 8b42 8dbe 90e4 b9bf 4ac9 b5be
000001a0: f68e b93e b190 e8be 0bec ddbe 5456 dbbd
000001b0: 37d8 32be 3e97 18be 6e77 07be 283a aa3e
000001c0: cfc4 ffbe fee4 003d d0c9 6dbe 3dd2 52be
000001d0: 5040 14be df57 f53d fab2 3c3c 809f 0b3f
000001e0: 968c e93f 02fa a6bf 58f9 673f 8170 863f
000001f0: 052b 103e 36fa 13bf dcae ff3c bbe6 383d
00000200: 7b11 34be 5acd eabe af75 06be e824 853e
00000210: c657 c5bf 0bfc 5ebd 6c80 a63e ca06 103d
00000220: e47e b03e 4480 333f 3d36 9f3e ff9c c6bd
00000230: 151c 6a3f d679 303f d0df 883e e02c 66bf
00000240: 4e71 8a3e 8934 25be 83b3 aebd 690f 8a3c
00000250: c52b 0d3f caa0 dabd c05e 283f 0d81 eabe
00000260: 9dcd 39be 0842 1540 cde2 5abf fad3 1d3f
00000270: 64a9 71be e69d 07bf bcb1 eabe 1238 83be
00000280: 20d1 71bd a952 323f 1707 683e e229 a8be
00000290: 3cd6 fe3f 975a 27bd 8fdb bcbe d3d7 bdbe
000002a0: 0fb1 3f3e 392b 8ebf 9b46 37bf badc 31bd
000002b0: af51 e7be e8fd cebe bab1 913d f1db 9c3f
000002c0: 4cef 8fbe 7151 91bd 3292 f53e c52d 82be
000002d0: 1130 d5be af2f d6be 0ab5 69bf ba7d a43d
000002e0: 074b b0bd 0a58 5ebf df20 8e3f 34ff 1fbe
000002f0: cf0c 20bf b098 9e3e ac53 b03e 52b7 703c
00000300: 89a7 f6bc 3563 1d3d df32 d83c 4a06 a43e
00000310: 2cc8 263f 1aeb 043f c2fa 44be f443 3d3d
00000320: 4448 e1bf 325c d63e 9b55 94be c410 52be
00000330: 91a8 0cbf 7a98 09bf 0e81 c33d 1b76 e83d
00000340: b73a c8be 58d7 7b3d 9ae5 2a3f f63c 7c3f
00000350: fffc c83e 2c25 d03e 8e26 043e e486 47bf
00000360: d01c a2bf 1ee6 923f 2f51 5abf 0b3b 72bf
00000370: f9bb a7be 1218 f33d 7adf 2a3f 559c 86be
00000380: adca 8f3e 9e1f 20bd 7464 36bf 4029 5f3e
00000390: 307f 77bf e15b 8abd 289e 22bf 5630 d7be
000003a0: 05bf 913f 4b3d b9be 1126 613f 3f8d a93e
000003b0: 8ed4 ec3e 7d3b 253e 686d 00bf 2e12 13bf
000003c0: 967f 203e ccdb 473d 6067 a9bf b290 59bf
000003d0: 70e9 a23e 9009 2b3e 84b2 6dbe b682 943f
000003e0: 866b 133f 94d3 babf 2c46 dc3d d437 9b3f
000003f0: c63c c73e f0ee 833e 84cf aebe 3915 b43d

net.bn2.weight f4 [16]
1.8589413 1.7958663 1.5491284 1.5884198 1.6923765 1.7138807 1.7230905 1.7171793
2.132767 2.0897677 1.7578586 1.9749277 1.9787987 1.9723241 1.675913 1.5666572
00000000: caf1 ed3f f2de e53f d749 c63f 5751 cb3f
00000010: cb9f d83f 7160 db3f 3b8e dc3f 88cc db3f
00000020: 417f 0840 c1be 0540 8301 e13f 6eca fc3f
00000030: 4749 fd3f 1e75 fc3f 5184 d63f 3988 c83f

net.bn2.bias f4 [16]
-0.39724863 -0.34730688 -0.24835224 -0.25552374 -0.29789874 -0.29250345 -0.4022878 -0.32016572
-0.47759274 -0.4554393 -0.45750535 -0.3883842 -0.38546476 -0.4489278 -0.33146465 -0.36068228
00000000: 2c64 cbbe 35d2 b1be 0d50 7ebe 02d4 82be
00000010: 2f86 98be 03c3 95be abf8 cdbe c3ec a3be
00000020: 0987 f4be 572f e9be 243e eabe 4bda c6be
00000030: a35b c5be ddd9 e5be bcb5 a9be 59ab b8be

net.bn2.running_mean f4 [16]
-0.00373597 -0.010230262 -0.033993285 -0.08022915 -0.21070074 0.1687426 0.32022336 0.10661138
-0.04654118 -0.09295522 -0.1028023 -0.0050947075 -0.0010133807 0.000153191 0.099069946 0.104364276
00000000: 2dd7 74bb d49c 27bc 8b3c 0bbd 2e4f a4bd
00000010: efc1 57be dcca 2c3e 51f4 a33e 1157 da3d
00000020: f7a1 3ebd 4e5f bebd 038a d2bd 81f1 a6bb
00000030: 6ad3 84ba e5a1 2039 2fe5 ca3d f0bc d53d

net.bn2.running_var f4 [16]
13.063285 10.215338 23.140106 28.204268 53.56493 62.990337 7.1347575 10.275097
7.067636 10.6935835 5.672774 10.122057 13.001259 7.351976 17.044619 23.047869
00000000: 3703 5141 0672 2341 f01e b941 57a2 e141
00000010: 7d42 5642 1bf6 7b42 ef4f e440 cc66 2441
00000020: 132a e240 eb18 2b41 5d87 b540 f2f3 2141
00000030: 2805 5041 6343 eb40 615b 8841 0962 b841

net.point_conv.weight f4 [16, 16, 1, 16]
0.040239483 0.11735889 0.28465188 0.529103 0.8276955 1.021607 0.97435904 0.7798584
0.5721243 0.2580857 0.10554092 0.010342474 -0.022437047 0.14072628 0.36526284 0.49312443
0.44160885 0.22286375 0.024154337 -0.1599486 -0.16903988 -0.15798196 0.04765626 0.14364424
0.31959727 0.45252824 0.49686542 0.35917842 0.3196165 0.1910077 0.13633512 0.11115628
-0.44282612 -0.30490637 -0.22072504 -0.029078607 0.030390132 0.0033574768 0.024160873 -0.10316349
-0.20064637 -0.22565211 -0.37888664 -0.29559198 -0.38160244 -0.35804892 -0.2507832 -0.25143304
-0.8452231 -0.61848277 -0.426341 -0.07605188 0.022716098 -0.017394768 0.075308636 -0.1291193
-0.26131645 -0.48464894 -0.66031337 -0.63190377 -0.64971167 -0.5296408 -0.33474886 -0.30225122
-0.6499667 -0.49034822 -0.37045678 -0.44292155 -0.23285902 -0.2480776 -0.2137147 -0.18469916
-0.28360727 -0.28927624 -0.34727147 -0.47231802 -0.44468352 -0.63712823 -0.6873483 -0.85855395
-0.524071 -0.5175095 -0.48570278 -0.52627206 -0.58433396 -0.5483366 -0.6651937 -0.592148
-0.59688324 -0.57806826 -0.57227844 -0.5653082 -0.5424918 -0.5586664 -0.59073174 -0.5751508
-0.5153671 -0.39449283 -0.2846648 -0.3314979 -0.27453172 -0.2406964 -0.43035695 -0.5352811
-0.61649233 -0.65398765 -0.48974845 -0.5234828 -0.32662168 -0.3057669 -0.24459316 -0.055204216
-0.09235701 -0.21170844 -0.14619535 -0.19122683 -0.22296584 -0.29758915 -0.39770973 -0.39699835
-0.26028728 -0.17993459 -0.13188909 -0.13413855 -0.26040894 -0.31821862 -0.40633115 -0.27609384
0.13616887 -0.042118214 -0.27560708 -0.18383032 -0.004196381 0.3066315 0.3555348 0.4165882
0.49585783 0.6067267 0.59075457 0.5427469 0.30353722 0.10330678 0.033601888 0.08023071
0.12181221 0.24310875 0.4927173 0.66814667 0.9156187 0.9344342 0.788562 0.47033274
0.2106218 0.028503478 -0.1362512 -0.01203004 0.06996984 0.21564516 0.46163884 0.58359045
0.506556 0.324476 0.3051387 0.17702158 0.18778491 0.21114445 0.12936758 0.24484318
0.34459034 0.381352 0.43132588 0.36934492 0.33744827 0.26319608 0.14965712 0.072777994
-0.00695235 -0.04110871 0.13786772 0.41073948 0.7922918 0.9497955 1.0090231 0.9262996
0.8446396 0.6177271 0.3813085 0.23844388 0.091645844 -0.034097947 0.030741295 0.29283634
0.8636459 0.8229333 0.7507381 0.3545575 -0.10388834 -0.42763457 -0.5605689 -0.5378226
-0.35696825 -0.05723263 0.26830593 0.5539405 0.6150954 0.7562799 0.6131199 0.349211
0.34284064 0.45631948 0.5452704 0.54017085 0.47836936 0.31891957 0.24329253 0.07194608
-0.060442187 0.00787654 0.053880267 0.29582226 0.4640015 0.6569032 0.6375432 0.56952035
-0.24748786 -0.16951339 -0.04057278 -0.1118412 -0.117261395 -0.1223656 -0.22386797 -0.0682917
-0.15164658 -0.18043028 -0.1818415 -0.17013858 -0.09495831 -0.09261511 -0.14583981 -0.081786
-0.21460149 -0.18831483 -0.047584135 -0.07630824 -0.05979343 -0.07122601 -0.12002319 -0.088196374
-0.07992221 -0.07129098 -0.17766556 -0.22149907 -0.21164374 -0.32990918 -0.39687443 -0.39667818
00000000: 28d2 243d dc59 f03d e4bd 913e 4b73 073f
00000010: dae3 533f 05c4 823f 986f 793f cda4 473f
00000020: bd76 123f cf23 843e d625 d83d 7b73 293c
00000030: e6cd b7bc 8d1a 103e bb03 bb3e ce7a fc3e
00000040: 8e1a e23e 6536 643e 51df c53c 91c9 23be
00000050: ca18 2dbe 06c6 21be 3633 433d 7a17 133e
00000060: 41a2 a33e c8b1 e73e 2565 fe3e 3ce6 b73e
00000070: c6a4 a33e 8697 433e 6f9b 0b3e e7a5 e33d
00000080: 1bba e2be b01c 9cbe bf05 62be 4236 eebc
00000090: baf4 f83c 1d09 5c3b 06ed c53c 6147 d3bd
000000a0: 3e76 4dbe 5911 67be 6efd c1be d557 97be
000000b0: 6561 c3be 3052 b7be a866 80be d5bb 80be
000000c0: 8b60 58bf e354 1ebf 5e49 dabe 17c1 9bbd
000000d0: 1c17 ba3c 797f 8ebc 6a3b 9a3d da37 04be
000000e0: 45cb 85be e823 f8be 4c0a 29bf 72c4 21bf
000000f0: 8153 26bf 8a96 07bf 3464 abbe acc0 9abe
00000100: 3864 26bf ec0e fbbe 83ac bdbe 9dc6 e2be
00000110: 9872 6ebe 0e08 7ebe 07d8 5abe c721 3dbe
00000120: f934 91be 041c 94be 91cd b1be abd3 f1be
00000130: 8fad e3be d61a 23bf 0ff6 2fbf 31ca 5bbf
00000140: 8429 06bf 817b 04bf 09ae f8be c4b9 06bf
00000150: e996 15bf ca5f 0cbf 224a 2abf 0397 17bf
00000160: 57cd 18bf 48fc 13bf d780 12bf 0ab8 10bf
00000170: bee0 0abf c304 0fbf 323a 17bf 153d 13bf
00000180: 19ef 03bf f7fa c9be 96bf 91be 18ba a9be
00000190: 6c8f 8cbe 1e79 76be bf57 dcbe 2f08 09bf
000001a0: 71d2 1dbf bc6b 27bf 4fc0 fabe f802 06bf
000001b0: f53a a7be 7b8d 9cbe a176 7abe d11d 62bd
000001c0: ac25 bdbd 19ca 58be 3cb4 15be f7d0 43be
000001d0: 2851 64be 9b5d 98be 9ca0 cbbe 5e43 cbbe
000001e0: 6044 85be c640 38be ef0d 07be 9e5b 09be
000001f0: 5254 85be 8ded a2be a30a d0be 2c5c 8dbe
00000200: da6f 0b3e 2684 2cbd 5f1c 8dbe 043e 3cbe
00000210: cc81 89bb cefe 9c3e a808 b63e 0c4b d53e
00000220: 14e1 fd3e 7152 1b3f b13b 173f 76f1 0a3f
00000230: 3b69 9b3e 8192 d33d 22a2 093d 0050 a43d
00000240: ae78 f93d 80f1 783e 7145 fc3e a90b 2b3f
00000250: fd65 6a3f 1437 6f3f 33df 493f 74cf f03e
00000260: 3ead 573e 2080 e93c 6f85 0bbe a519 45bc
00000270: 594c 8f3d 16d2 5c3e ed5b ec3e 2f66 153f
00000280: a7ad 013f b821 a63e 243b 9c3e 2545 353e
00000290: b04a 403e 4036 583e ef78 043e 2cb8 7a3e
000002a0: 256e b03e 9240 c33e bfd6 dc3e c71a bd3e
000002b0: 05c6 ac3e a3c1 863e b73f 193e a10c 953d
000002c0: 8ad0 e3bb 9b61 28bd 322d 0d3e 724c d23e
000002d0: a3d3 4a3f cc25 733f ab27 813f f821 6d3f
000002e0: 4d3a 583f 5d23 1e3f de3a c33e a22a 743e
000002f0: d1b0 bb3d 4aaa 0bbd 2bd5 fb3c a5ee 953e
00000300: e617 5d3f c2ab 523f 5f30 403f 9088 b53e
00000310: 69c3 d4bd ebf2 dabe 7281 0fbf beae 09bf
00000320: 8bc4 b6be c36c 6abd 655f 893e 0bcf 0d3f
00000330: e476 1d3f 8f9b 413f 6df5 1c3f c9cb b23e
00000340: cf88 af3e b5a2 e93e d796 0b3f a348 0a3f
00000350: d4ec f43e 6d49 a33e ad21 793e 7758 933d
00000360: 3a92 77bd 9a0c 013c 8eb1 5c3d 0476 973e
00000370: 9b91 ed3e cf2a 283f 0836 233f 16cc 113f
00000380: 756d 7dbe eb94 2dbe a52f 26bd 000d e5bd
00000390: be26 f0bd d19a fabd a53d 65be 85dc 8bbd
000003a0: 3e49 1bbe b7c2 38be a834 3abe cf38 2ebe
000003b0: 8179 c2bd feac bdbd 0857 15be 6b7f a7bd
000003c0: 7ec0 5bbe 9ad5 40be 95e7 42bd 7f47 9cbd
000003d0: f5e9 74bd f1de 91bd b8ce f5bd 4da0 b4bd
000003e0: 41ae a3bd 0101 92bd f6ed 35be a7d0 62be
000003f0: 23b9 58be dbe9 a8be 2033 cbbe 6719 cbbe

net.bn3.weight f4 [16]
1.2740436 1.2638845 1.9405998 1.3888603 1.0531265 1.3386137 0.69434017 1.5187315
1.1492287 1.4807363 1.9248226 1.4674913 1.1776242 1.1807069 1.8672665 1.1004556
00000000: dc13 a33f f8c6 a13f 9365 f83f 2dc6 b13f
00000010: d9cc 863f b257 ab3f 47c0 313f cb65 c23f
00000020: ed19 933f c488 bd3f 9660 f63f c1d6 bb3f
00000030: 64bc 963f 6721 973f 9702 ef3f bbdb 8c3f

net.bn3.bias f4 [16]
-0.006397245 -0.06705583 -0.48760647 -0.23770545 -0.06144391 -0.41748935 0.23941684 -0.38207063
-0.20392397 -0.24186571 -0.3143691 -0.23621486 0.028559258 0.031907182 -0.48294586 -0.054345254
00000000: fb9f d1bb 9154 89bd 8ea7 f9be 0f69 73be
00000010: 9cac 7bbd 2ac1 d5be b029 753e c39e c3be
00000020: 72d1 50be a5ab 77be fdf4 a0be 4fe2 71be
00000030: 1bf5 e93c 1bb1 023d ae44 f7be 2199 5ebd

net.bn3.running_mean f4 [16]
-0.16862452 0.42111948 -4.584743 -1.3141634 7.16804 -5.224641 2.6887915 -4.0733767
-1.8277465 -1.9588324 -4.5700054 -4.123607 7.764498 7.977564 -4.7221 0.6844039
00000000: e8ab 2cbe f99c d73e 37b6 92c0 8236 a8bf
00000010: 9560 e540 4230 a7c0 2915 2c40 1a59 82c0
00000020: 99f3 e9bf 05bb fabf 7c3d 92c0 97f4 83c0
00000030: c576 f840 3448 ff40 711b 97c0 1835 2f3f

net.bn3.running_var f4 [16]
408.50424 378.1545 626.70325 518.0332 399.334 773.4133 209.40672 534.6675
537.8375 381.37198 656.04047 387.9953 465.68094 560.98346 741.0016 332.05585
00000000: 8b40 cc43 c713 bd43 02ad 1c44 2082 0144
00000010: c1aa c743 745a 4144 1f68 5143 b8aa 0544
00000020: 9a75 0644 9daf be43 9702 2444 66ff c143
00000030: 29d7 e843 f13e 0c44 1a40 3944 2607 a643

net.fc.weight f4 [32, 256]
-0.19996703 -0.13570888 -0.2915712 -0.5901581 -0.085633 -0.10629812 0.04213188 -0.07265586
0.13272977 -0.20458242 -0.36249122 -0.23956911 0.26224887 0.6487286 0.5033244 0.6118812
-0.078552715 -0.06323739 -0.32958853 -0.44449702 -0.22523503 -0.5418951 0.15813355 0.53765064
0.34862027 0.29131663 0.34835705 0.36439186 0.09400994 0.17237915 0.2550373 -0.3017379
0.1387122 0.301059 0.24455331 0.5285891 0.4673159 0.7875925 0.27559447 0.108392656
0.088241436 -0.31605583 -0.49807563 -0.30095547 -0.30789924 -0.6666424 -0.80715257 -0.96344364
-0.10366799 -0.009105173 -0.014771842 -0.13297386 0.25071585 0.5335951 0.07094642 0.05441948
0.15198955 0.19618188 0.04605904 -0.44566634 -0.13752966 -0.09392963 -0.17957059 -0.28597808
-0.75490475 -0.6354748 -0.46631345 -0.65540844 -0.48458195 -0.5292236 -0.80785155 -0.61395293
-0.5725388 -0.3890178 -0.48787418 -0.82131016 -0.65595657 -0.6607957 -0.50658995 -0.18042438
-0.16694932 -0.09742162 0.007818429 0.21119298 0.039686184 0.31721854 0.16590598 -0.025796575
-0.120048515 0.26376936 -0.21565303 -0.026294913 0.0859236 -0.5195422 -0.048284743 -0.39915282
0.2790468 -0.21724027 -0.031211624 -0.22823803 -0.16686761 0.12388424 0.06582947 0.09018332
0.029677805 0.05146246 -0.18811792 0.038633127 0.23767984 0.02162786 -0.05624617 0.05066851
0.0688328 0.054050338 0.50180244 0.17614748 0.60687625 0.19983292 0.12786572 -0.30215108
-0.39979556 -0.2818847 -0.15621786 -0.23054181 0.1843323 0.09808899 -0.17549518 -0.28901216
-0.20899327 -0.17336202 -0.009182017 0.23461269 0.381545 0.69208103 0.45138967 -0.29931962
0.43055794 -0.008110893 -0.089473546 0.10631725 0.06488979 0.21624628 0.16321895 -0.030835334
-0.40608862 -0.23003574 -0.3891107 -0.32466143 -0.29563114 -0.3842854 -0.15678054 -0.0032867775
-0.115955606 -0.032057077 -0.1665063 -0.34883738 -0.06991976 -0.15710925 -0.1311217 0.11427287
0.42433953 0.8601708 0.5364915 0.6158622 0.52058613 0.47219154 0.2458461 -0.19335973
-0.3024872 -0.4492062 -0.66839385 -0.5659062 -0.4945781 -0.22506987 -0.13900155 0.0854493
-0.10929797 -0.17311318 -0.11244284 -0.3124336 -0.22773774 -0.64079094 0.14264782 0.4214216
0.0059758234 -0.3320431 -0.19377632 -0.09199047 0.18972078 -0.15047856 -0.08050583 0.25579455
0.08789286 0.43238732 0.45898372 0.7878496 0.86091334 0.77778155 0.7400071 0.94949895
0.83908975 0.7009014 0.9976663 1.0115325 0.46434292 0.6410579 0.99154514 0.27187586
-0.2873555 -0.37477598 -0.8170252 -0.27061585 -0.091727935 -0.2656047 0.25232756 0.42885053
-0.16520947 0.2069073 0.23308583 -0.076126456 -0.1008276 -0.015810214 -0.033118337 -0.015992168
-0.26199627 -0.25820908 -0.06592082 0.15889925 0.08742241 0.65602404 0.2676267 -0.38776878
-0.054831564 -0.38837117 -0.31837073 -0.59313506 -0.29750818 0.045084994 0.038700353 -0.11446362
0.015545915 -0.22245346 0.041573334 -0.18175296 -0.062119935 -0.40024662 -0.10131249 -0.052592374
0.16215748 0.16934708 0.091011256 0.09744431 -0.044349305 0.012789306 -0.09225715 -0.117112435
00000000: 28c4 4cbe 45f7 0abe d248 95be 9a14 17bf
00000010: 5b60 afbd d4b2 d9bd 7a92 2c3d 98cc 94bd
00000020: 50ea 073e 0e7e 51be 7398 b9be 9b51 75be
00000030: 7c45 863e 1413 263f ded9 003f 3fa4 1c3f
00000040: 3fe0 a0bd 9b82 81bd d4bf a8be 1d95 e3be
00000050: 03a4 66be a3b9 0abf c3ed 213e 79a3 093f
00000060: 5b7e b23e 7427 953e db5b b23e 9291 ba3e
00000070: 4988 c03d 2984 303e 4094 823e 647d 9abe
00000080: 920a 0e3e 6824 9a3e 2f6c 7a3e 9e51 073f
00000090: 0844 ef3e a99f 493f b81a 8d3e f8fc dd3d
000000a0: edb7 b43d 12d2 a1be c503 ffbe d616 9abe
000000b0: f8a4 9dbe 14a9 2abf 8da1 4ebf 3ea4 76bf
000000c0: e24f d4bd dd2d 15bc 9905 72bc 4d2a 08be
000000d0: d45d 803e b099 083f 5b4c 913d f6e6 5e3d
000000e0: 26a3 1b3e e7e3 483e 67a8 3c3d 612e e4be
000000f0: 93d4 0cbe 2e5e c0bd 5ae1 37be b86b 92be
00000100: 7041 41bf 7aae 22bf a3c0 eebe d9c8 27bf
00000110: 201b f8be 337b 07bf 5ccf 4ebf 052c 1dbf
00000120: e791 12bf 572d c7be a5ca f9be 6241 52bf
00000130: c5ec 27bf e829 29bf e1af 01bf 2bc1 38be
00000140: c3f4 2abe fc84 c7bd de18 003c f942 583e
00000150: fb8d 223d 786a a23e 42e3 293e 5753 d3bc
00000160: ffdb f5bd c70c 873e 26d4 5cbe 6e68 d7bc
00000170: b6f8 af3d b800 05bf 39c6 45bd c25d ccbe
00000180: 39df 8e3e 3c74 5ebe 85af ffbc 3bb7 69be
00000190: 58df 2abe 05b7 fd3d 9ad1 863d 08b2 b83d
000001a0: de1e f33c 4dca 523d fca1 40be c53d 1e3d
000001b0: 5862 733e e92c b13c 6262 66bd c989 4f3d
000001c0: 36f8 8c3d e363 5d3d 2076 003f 0160 343e
000001d0: 3e5c 1b3f 00a1 4c3e 3bef 023e 8cb3 9abe
000001e0: 01b2 ccbe 3153 90be 93f7 1fbe 2713 6cbe
000001f0: 9bc1 3c3e e1e2 c83d 02b5 33be 67f9 93be
00000200: 5502 56be d085 31be 2c70 16bc 4f3e 703e
00000210: de59 c33e 392c 313f 8c1c e73e 6c40 99be
00000220: 1772 dc3e 8de3 04bc e83d b7bd dcbc d93d
00000230: f0e4 843d aa6f 5d3e de22 273e 629a fcbc
00000240: d9ea cfbe 7d8e 6bbe 8539 c7be 063a a6be
00000250: f75c 97be 0ec1 c4be 148b 20be fa66 57bb
00000260: 227a edbd 484e 03bd a180 2abe d09a b2be
00000270: 1732 8fbd 3fe1 20be c444 06be e507 ea3d
00000280: 0843 d93e 2734 5c3f 8257 093f 25a9 1d3f
00000290: 2245 053f 17c3 f13e 14bf 7b3e 1800 46be
000002a0: 9adf 9abe 5bfe e5be dc1b 2bbf 3bdf 10bf
000002b0: 5739 fdbe b778 66be 6c56 0ebe 0b00 af3d
000002c0: 9dd7 dfbd 9544 31be 6f48 e6bd 4cf7 9fbe
000002d0: 1534 69be e00a 24bf 4512 123e 92c4 d73e
000002e0: d7d0 c33b 8e01 aabe 4d6d 46be 8065 bcbd
000002f0: 2a46 423e 0d17 1abe 3ee0 a4bd 81f7 823e
00000300: 2c01 b43d df61 dd3e eaff ea3e 83b0 493f
00000310: d164 5c3f b11c 473f 1b71 3d3f 5d12 733f
00000320: 96ce 563f 466e 333f 0f67 7f3f e679 813f
00000330: 5bbe ed3e 5f1c 243f e7d5 7d3f 5033 8b3e
00000340: 4320 93be a3e2 bfbe 9028 51bf 298e 8abe
00000350: dbdb bbbd 57fd 87be 1431 813e 4c92 db3e
00000360: ac2c 29be 82df 533e 0dae 6e3e 30e8 9bbd
00000370: b37e cebd 6c84 81bc 18a7 07bd 0202 83bc
00000380: 6024 86be fb33 84be 7f01 87bd 7cb6 223e
00000390: 850a b33d 31f1 273f 5e06 893e a189 c6be
000003a0: 1097 60bd 96d8 c6be 7d01 a3be b3d7 17bf
000003b0: fe52 98be 0bab 383d 4384 1e3d e76b eabd
000003c0: 4bb4 7e3c d7ca 63be cd48 2a3d 731d 3abe
000003d0: 7971 7ebd 20ed ccbe ec7c cfbd 1a6b 57bd
000003e0: 9c0c 263e 5269 2d3e 1c64 ba3d e290 c73d
000003f0: 9ea7 35bd 3d8a 513c 51f1 bcbd a5d8 efbd

net.fc.bias f4 [32]
0.78502357 1.506652 1.5854511 -1.143533 0.545647 1.1413379 -1.0273885 -0.30829254
0.18802656 -0.61933666 -1.3028622 -0.9831987 1.1286938 0.6963626 -0.5479611 -0.8993901
-1.0181376 -0.7955716 1.2129173 0.36118817 -1.1535394 -0.81646556 1.2425693 -0.83873004
0.0052499752 -0.61040753 -1.0676769 -1.5694383 0.21925987 -0.67707807 0.1698866 0.63653874
00000000: 4ef7 483f f9d9 c03f 10f0 ca3f 4a5f 92bf
00000010: 86af 0b3f 5c17 923f 7781 83bf 85d8 9dbe
00000020: 098a 403e d98c 1ebf 30c4 a6bf e9b2 7bbf
00000030: 0a79 903f d244 323f 2e47 0cbf 6e3e 66bf
00000040: 5552 82bf 95aa 4bbf e040 9b3f a8ed b83e
00000050: 2ea7 93bf e303 51bf 830c 9f3f 03b7 56bf
00000060: fc07 ac3b ab43 1cbf a3a9 88bf 5be3 c8bf
00000070: a985 603e fd54 2dbf c1f6 2d3e 34f4 223f

exp_avg f4 [8, 1, 1, 256]
1.5472635e-05 -5.572869e-06 -2.2726821e-05 -3.748176e-05 -5.17781e-05 -6.6586144e-05 -8.171682e-05 -9.628624e-05
-0.000109307206 -0.00012001198 -0.00012759503 -0.00013203092 -0.0001342505 -0.00013627173 -0.00013909867 -0.00014384885
-0.00015127228 -0.00016130495 -0.00017197062 -0.00018126471 -0.00018790657 -0.00019115156 -0.00019023036 -0.00018568456
-0.0001801746 -0.00017617276 -0.00017525477 -0.00017766174 -0.0001833512 -0.00019020391 -0.00019477359 -0.00019472666
-0.00019079384 -0.00018584625 -0.00018270985 -0.0001834999 -0.00018920632 -0.00019954632 -0.00021288767 -0.0002273211
-0.00024104863 -0.0002523575 -0.00025937095 -0.00026138398 -0.00025973827 -0.00025762772 -0.00025741567 -0.0002595259
-0.0002625471 -0.00026472696 -0.00026471866 -0.00026155295 -0.00025484254 -0.0002455684 -0.00023527778 -0.00022449269
-0.00021297034 -0.00020036109 -0.00018739159 -0.00017510886 -0.00016412597 -0.00015459374 -0.0001461642 -0.0001385745
-0.00013249544 -0.00012920123 -0.00012980554 -0.00013473621 -0.00014400837 -0.00015727051 -0.00017370682 -0.00019157116
-0.00020895505 -0.0002246798 -0.00023943353 -0.00025545227 -0.00027478678 -0.00029775288 -0.00032274643 -0.0003473735
-0.00036898418 -0.00038537293 -0.00039569865 -0.0004003136 -0.00040111688 -0.0004000101 -0.0003985737 -0.00039839424
-0.00039960103 -0.00040088262 -0.0003993331 -0.0003928344 -0.0003807565 -0.0003642226 -0.00034460184 -0.00032382883
-0.00030346107 -0.0002841037 -0.00026487376 -0.00024436513 -0.0002212781 -0.00019570836 -0.00016880612 -0.00014234766
-0.00011854508 -0.00010090409 -9.283786e-05 -9.579641e-05 -0.00010791097 -0.00012567373 -0.00014526349 -0.00016366363
-0.00017814866 -0.00018778804 -0.00019396347 -0.00019930406 -0.0002065167 -0.00021676425 -0.00022936492 -0.00024248025
-0.00025508492 -0.0002661838 -0.00027474953 -0.00027964934 -0.00028062405 -0.00027820573 -0.0002741117 -0.00027050648
-0.00026848243 -0.0002712403 -0.00027268883 -0.00027128358 -0.0002666614 -0.00025864408 -0.00024586226 -0.00022795904
-0.00020657458 -0.00018436491 -0.00016344928 -0.00014391227 -0.0001240453 -0.0001019071 -7.634716e-05 -4.689788e-05
-1.3735909e-05 2.1817325e-05 5.7075235e-05 8.9213514e-05 0.00011633454 0.00013733396 0.00015192987 0.00016097803
0.00016574711 0.00016697192 0.00016532785 0.00016117192 0.00015414254 0.00014274199 0.00012698572 0.000107093525
8.3683924e-05 5.7762107e-05 3.182514e-05 7.855956e-06 -1.1642885e-05 -2.5353394e-05 -3.4726367e-05 -4.2043812e-05
-4.9224134e-05 -5.7446232e-05 -6.676251e-05 -7.567261e-05 -8.1554914e-05 -8.1789454e-05 -7.506494e-05 -6.088526e-05
-3.9669227e-05 -1.3320976e-05 1.4471593e-05 4.051513e-05 6.327987e-05 8.3167004e-05 0.00010132089 0.00011960699
0.00013973033 0.00016188664 0.0001840324 0.00020169224 0.0002110284 0.00021111424 0.00020418565 0.00019455916
0.00018607613 0.00018074515 0.00017977464 0.00018295148 0.0001886076 0.00019380834 0.00019615439 0.00019480634
0.00019081724 0.0001853221 0.00017991076 0.00017481111 0.00017000797 0.00016588395 0.00016296322 0.0001602888
0.00015653967 0.00015130515 0.00014537484 0.00013945151 0.00013493298 0.00013328326 0.00013569422 0.00014218647
0.00015158141 0.00016202658 0.00017166541 0.00017917978 0.00018451609 0.00018885151 0.00019478465 0.00020286858
0.00021239521 0.00022293389 0.00023473284 0.00024741818 0.00025888922 0.00026587828 0.0002663828 0.00026059872
0.0002502689 0.00023736003 0.00022397224 0.00021218344 0.0002027233 0.00019467271 0.00018593128 0.00017477325
0.00016093579 0.00014545242 0.00013023162 0.0001172873 0.00010816105 0.00010269428 0.00010036392 0.00010043956
0.000101693564 0.00010229895 0.0001008474 9.7126875e-05 9.2492e-05 8.795308e-05 8.5120395e-05 8.5322856e-05
00000000: 3bcb 8137 95fe bab6 7aa5 beb7 bc35 1db8
00000010: 502c 59b8 2aa4 8bb8 625f abb8 48ed c9b8
00000020: dc3b e5b8 f1ae fbb8 08cb 05b9 c871 0ab9
00000030: 98c5 0cb9 2ae4 0eb9 04db 11b9 22d6 16b9
00000040: d89e 1eb9 f823 29b9 0353 34b9 e011 3eb9
00000050: c908 45b9 db6f 48b9 9378 47b9 52b4 42b9
00000060: 40ed 3cb9 04bb 38b9 98c4 37b9 b64a 3ab9
00000070: f741 40b9 7971 47b9 233c 4cb9 8a2f 4cb9
00000080: d50f 48b9 b9df 42b9 cd95 3fb9 e169 40b9
00000090: af65 46b9 4f3d 51b9 993a 5fb9 0b5d 6eb9
000000a0: 00c2 7cb9 da4e 84b9 2efc 87b9 5d0a 89b9
000000b0: 7b2d 88b9 3512 87b9 bff5 86b9 fa10 88b9
000000c0: 7aa6 89b9 0dcb 8ab9 f0c9 8ab9 0b21 89b9
000000d0: 639c 85b9 a2bf 80b9 e6b4 76b9 cc65 6bb9
000000e0: ca50 5fb9 0518 52b9 8c7e 44b9 6d9d 37b9
000000f0: 3b19 2cb9 711a 22b9 a743 19b9 4f4e 11b9
00000100: 79ee 0ab9 317a 07b9 691c 08b9 fa47 0db9
00000110: f400 17b9 fbe8 24b9 1225 36b9 7ee0 48b9
00000120: f21a 5bb9 0698 6bb9 7310 7bb9 39ee 85b9
00000130: 4211 90b9 b71b 9cb9 4b36 a9b9 af1f b6b9
00000140: 3874 c1b9 e10b cab9 c675 cfb9 2fe1 d1b9
00000150: ff4c d2b9 72b8 d1b9 a8f7 d0b9 92df d0b9
00000160: 8b81 d1b9 8e2d d2b9 955d d1b9 57f5 cdb9
00000170: 46a0 c7b9 21f5 beb9 adab b4b9 92c7 a9b9
00000180: db19 9fb9 c1f3 94b9 c1de 8ab9 221e 80b9
00000190: e306 68b9 1037 4db9 8c01 31b9 2943 15b9
000001a0: 689b f8b8 799c d3b8 f2b1 c2b8 4ee6 c8b8
000001b0: 434e e2b8 49c7 03b9 df51 18b9 1f9d 2bb9
000001c0: 6bcd 3ab9 f8e8 44b9 ac62 4bb9 47fc 50b9
000001d0: 688c 58b9 364b 63b9 ad81 70b9 4c42 7eb9
000001e0: ebbc 85b9 968e 8bb9 420c 90b9 e69d 92b9
000001f0: b920 93b9 24dc 91b9 a6b6 8fb9 c4d2 8db9
00000200: 1ac3 8cb9 4235 8eb9 adf7 8eb9 113b 8eb9
00000210: b0ce 8bb9 9f9a 87b9 13e7 80b9 4a08 6fb9
00000220: f19b 58b9 1452 41b9 9563 2bb9 28e7 16b9
00000230: 2812 02b9 f5b6 d5b8 921c a0b8 37b4 44b8
00000240: 4873 66b7 5904 b737 1164 6f38 2418 bb38
00000250: a1f8 f338 4e01 1039 5d4f 1f39 36cc 2839
00000260: 67cc 2d39 2f15 2f39 db5b 2d39 4200 2939
00000270: 53a1 2139 03ad 1539 7827 0539 6697 e038
00000280: 777f af38 9745 7238 fc7b 0538 13cd 0337
00000290: cf55 43b7 00ae d4b7 27a7 11b8 3358 30b8
000002a0: 0376 4eb8 6cf2 70b8 da02 8cb8 6cb2 9eb8
000002b0: 7608 abb8 6186 abb8 2f6c 9db8 0d5f 7fb8
000002c0: 8262 26b8 287d 5fb7 05cb 7237 caee 2938
000002d0: 1fb5 8438 f269 ae38 3d7c d438 84d5 fa38
000002e0: 9384 1239 1dc0 2939 d2f8 4039 597d 5339
000002f0: 8147 5d39 8c5e 5d39 ab1a 5639 9402 4c39
00000300: 6e1d 4339 6886 3d39 e381 3c39 aad6 3f39
00000310: f8c4 4539 0839 4b39 cbae 4d39 ee44 4c39
00000320: 1d16 4839 0653 4239 6da6 3c39 804d 3739
00000330: 2b44 3239 22f1 2d39 1be1 2a39 3213 2839
00000340: cc24 2439 aba7 1e39 c36f 1839 bb39 1239
00000350: cc7c 0d39 f4c1 0b39 2449 0e39 e417 1539
00000360: d3f1 1e39 aee5 2939 1501 3439 35e2 3b39
00000370: a97a 4139 7106 4639 1b3f 4c39 1fb9 5439
00000380: 68b6 5e39 5cc3 6939 9e22 7639 e8b7 8139
00000390: 86bb 8739 9465 8b39 4ba9 8b39 f8a0 8839
000003a0: 8636 8339 d9e3 7839 17da 6a39 8f7d 5e39
000003b0: 1f92 5439 0f21 4c39 8cf6 4239 5643 3739
000003c0: dfc0 2839 9684 1839 c98e 0839 24f8 f538
000003d0: 86d4 e238 925d d738 787a d238 14a3 d238
000003e0: 5144 d538 5589 d638 097e d338 98b0 cb38
000003f0: 44f8 c138 7373 b838 aa82 b238 5cef b238

exp_avg_sq f4 [8, 1, 1, 256]
4.265527e-07 4.1260836e-07 4.0126355e-07 3.9459343e-07 3.934801e-07 3.976336e-07 4.0610882e-07 4.1779435e-07
4.3145846e-07 4.4572508e-07 4.591675e-07 4.7092334e-07 4.810984e-07 4.901241e-07 4.973419e-07 5.014484e-07
5.014063e-07 4.973355e-07 4.902516e-07 4.809973e-07 4.6970706e-07 4.5634127e-07 4.4157264e-07 4.2709684e-07
4.1466737e-07 4.0516437e-07 3.9884878e-07 3.961297e-07 3.973339e-07 4.020352e-07 4.0884166e-07 4.1618762e-07
4.2342114e-07 4.307321e-07 4.378681e-07 4.4382756e-07 4.4765267e-07 4.490869e-07 4.486466e-07 4.4655218e-07
4.4233875e-07 4.3549835e-07 4.265126e-07 4.168337e-07 4.0817693e-07 4.0149965e-07 3.9688496e-07 3.9411296e-07
3.9333918e-07 3.946603e-07 3.9764393e-07 4.0134103e-07 4.052326e-07 4.097483e-07 4.1558778e-07 4.2261036e-07
4.2950046e-07 4.350564e-07 4.3935657e-07 4.4357455e-07 4.4827945e-07 4.527146e-07 4.5578616e-07 4.5735823e-07
4.578109e-07 4.5722737e-07 4.551528e-07 4.5136326e-07 4.4662485e-07 4.4185094e-07 4.376861e-07 4.338867e-07
4.3022493e-07 4.273694e-07 4.2725637e-07 4.3164772e-07 4.410208e-07 4.5436133e-07 4.7055724e-07 4.883345e-07
5.059677e-07 5.2101666e-07 5.3138075e-07 5.3608665e-07 5.353225e-07 5.2966084e-07 5.193711e-07 5.044092e-07
4.8568114e-07 4.6555382e-07 4.4693428e-07 4.3222104e-07 4.2312138e-07 4.2116602e-07 4.2774874e-07 4.4376443e-07
4.688322e-07 5.014259e-07 5.3935383e-07 5.8086e-07 6.2411834e-07 6.662721e-07 7.0340155e-07 7.3165194e-07
7.4870997e-07 7.538394e-07 7.4705196e-07 7.2817556e-07 6.9768635e-07 6.5764556e-07 6.114955e-07 5.628746e-07
5.1517793e-07 4.7221198e-07 4.3856983e-07 4.1900458e-07 4.1676998e-07 4.3237878e-07 4.639355e-07 5.085858e-07
5.63076e-07 6.2321135e-07 6.837824e-07 7.392803e-07 7.8517394e-07 8.183198e-07 8.364117e-07 8.3782703e-07
8.21727e-07 7.882241e-07 7.4171334e-07 6.86679e-07 6.2722904e-07 5.674187e-07 5.119233e-07 4.660043e-07
4.337882e-07 4.169201e-07 4.1518578e-07 4.273165e-07 4.5149272e-07 4.853212e-07 5.253756e-07 5.674378e-07
6.076165e-07 6.431889e-07 6.72245e-07 6.928735e-07 7.0281425e-07 7.0028887e-07 6.8519284e-07 6.59016e-07
6.237832e-07 5.8192813e-07 5.3680503e-07 4.9279856e-07 4.5446214e-07 4.250612e-07 4.057382e-07 3.9633426e-07
3.9641498e-07 4.053607e-07 4.2177575e-07 4.431165e-07 4.6641978e-07 4.896201e-07 5.1153467e-07 5.3130645e-07
5.473573e-07 5.578356e-07 5.6178214e-07 5.59749e-07 5.528492e-07 5.4189024e-07 5.2734606e-07 5.105022e-07
4.9357317e-07 4.787665e-07 4.670008e-07 4.579945e-07 4.512685e-07 4.46918e-07 4.4506785e-07 4.452198e-07
4.461048e-07 4.4669073e-07 4.4681715e-07 4.4668195e-07 4.4578786e-07 4.4300953e-07 4.3772005e-07 4.3050974e-07
4.2244338e-07 4.137635e-07 4.0402642e-07 3.9312556e-07 3.8184828e-07 3.7136445e-07 3.6231592e-07 3.543996e-07
3.4706653e-07 3.4068785e-07 3.364706e-07 3.353688e-07 3.3710447e-07 3.40817e-07 3.460197e-07 3.5308256e-07
3.624982e-07 3.7405147e-07 3.8710928e-07 4.0123268e-07 4.1612438e-07 4.3100044e-07 4.4446975e-07 4.551748e-07
4.6244085e-07 4.6656822e-07 4.684539e-07 4.6888934e-07 4.6819e-07 4.6677442e-07 4.6552717e-07 4.652126e-07
4.6584628e-07 4.670152e-07 4.6849183e-07 4.7068656e-07 4.7435978e-07 4.7974663e-07 4.8599406e-07 4.920747e-07
4.974097e-07 5.017537e-07 5.045488e-07 5.050369e-07 5.025631e-07 4.969659e-07 4.885728e-07 4.777996e-07
4.649182e-07 4.5037393e-07 4.3513288e-07 4.2074475e-07 4.0859865e-07 3.992785e-07 3.9268144e-07 3.8883198e-07
3.8806206e-07 3.904681e-07 3.956182e-07 4.0283243e-07 4.1182747e-07 4.225797e-07 4.3478363e-07 4.4720878e-07
00000000: f500 e534 7684 dd34 3e6d d734 82d8 d334
00000010: 7e3f d334 597a d534 2c07 da34 384d e034
00000020: 33a3 e734 fd4b ef34 8083 f634 36d3 fc34
00000030: d524 0135 1291 0335 1381 0535 469b 0635
00000040: 6198 0635 a380 0535 d599 0335 e21d 0135
00000050: 0c2c fc34 11ff f434 4811 ed34 be4b e534
00000060: 739f de34 5e85 d934 5c21 d634 a7ab d434
00000070: 2851 d534 4cd7 d734 c57e db34 6470 df34
00000080: 8f52 e334 5e3f e734 2214 eb34 3247 ee34
00000090: ea54 f034 091a f134 85dd f034 aabd ef34
000000a0: 937a ed34 70ce e934 72fb e434 30c9 df34
000000b0: 6923 db34 b18d d734 7413 d534 7996 d334
000000c0: 202c d334 b3e1 d334 c47b d534 e477 d734
000000d0: bf8e d934 61fb db34 f31d df34 20e3 e234
000000e0: 1896 e634 b291 e934 b5e0 eb34 6c24 ee34
000000f0: 0fab f034 9f0c f334 c6b2 f434 d68a f534
00000100: 0dc9 f534 da78 f534 b95b f434 e552 f234
00000110: a7c7 ef34 8837 ed34 1ffb ea34 eff0 e834
00000120: aaf9 e634 3471 e534 ab61 e534 36bd e734
00000130: 70c5 ec34 f2ee f334 e5a0 fc34 1716 0335
00000140: d6d1 0735 fedb 0b35 35a4 0e35 98e7 0f35
00000150: 15b3 0f35 042e 0e35 e96a 0b35 bc66 0735
00000160: c15f 0235 3bf1 f934 2ef2 ef34 020c e834
00000170: 5c29 e334 9e1c e234 57a5 e534 853e ee34
00000180: cfb3 fb34 ba99 0635 1dc8 1035 65ec 1b35
00000190: 1689 2735 dfd9 3235 63d1 3c35 bd66 4435
000001a0: f5fa 4835 735b 4a35 0589 4835 d877 4335
000001b0: a448 3b35 0f89 3035 a725 2435 7318 1735
000001c0: c24a 0a35 5284 fd34 9474 eb34 8df3 e034
000001d0: 6ec0 df34 b021 e834 cf12 f934 c085 0835
000001e0: 4a26 1735 c24a 2735 2b8d 3735 f572 4635
000001f0: bec4 5235 82aa 5b35 c685 6035 09e7 6035
00000200: a694 5c35 5996 5335 271a 4735 3954 3835
00000210: da5e 2835 b750 1835 1a6b 0935 252f fa34
00000220: 65e3 e834 10d5 df34 b3e6 de34 ef69 e534
00000230: b064 f234 0547 0235 8907 0d35 0752 1835
00000240: 171b 2335 9ba7 2c35 5374 3435 e8fd 3935
00000250: 07a9 3c35 7cfb 3b35 18ee 3735 3ce7 3035
00000260: 0e72 2735 cc35 1c35 f618 1035 dc48 0435
00000270: cdfc f334 f733 e434 3cd4 d934 c4c7 d434
00000280: dcd2 d434 5aa0 d934 6b70 e234 78e5 ed34
00000290: 3f68 fa34 706e 0335 6550 0935 1a9f 0e35
000002a0: 1bee 1235 2cbe 1535 60cd 1635 a941 1635
000002b0: 8267 1435 6a76 1135 f28e 0d35 7209 0935
000002c0: 177e 0435 9584 0035 1ab8 fa34 49e2 f534
000002d0: df45 f234 f1ef ef34 a9f1 ee34 8b06 ef34
000002e0: 2d80 ef34 b5d0 ef34 15e2 ef34 80cf ef34
000002f0: 9e54 ef34 c4d6 ed34 c9ff ea34 cf20 e734
00000300: 2dcc e234 3923 de34 f8e8 d834 c40e d334
00000310: d400 cd34 f15f c734 5284 c234 4f44 be34
00000320: 7654 ba34 c8e7 b634 2ba4 b434 bd0c b434
00000330: 49fb b434 88f9 b634 96c4 b934 4c8f bd34
00000340: 609d c234 3ed1 c834 e5d3 cf34 0069 d734
00000350: b367 df34 4064 e734 759f ee34 c05e f434
00000360: 6345 f834 a67c fa34 d07f fb34 a9bb fb34
00000370: 8b5b fb34 fd98 fa34 91ed f934 55c2 f934
00000380: 6d19 fa34 15ba fa34 0785 fb34 abb2 fc34
00000390: 83ab fe34 f0c7 0035 4275 0235 1e17 0435
000003a0: bc85 0535 40b0 0635 5470 0735 df91 0735
000003b0: e0e7 0635 3d67 0535 7826 0335 2342 0035
000003c0: df99 f934 ecca f134 359c e934 b8e2 e134
000003d0: 5f5d db34 6b5c d634 bad1 d234 a9c0 d034
000003e0: d856 d034 87a1 d134 5a65 d434 de44 d834
000003f0: 2319 dd34 e9de e234 356c e934 e817 f034

exp_avg f4 [8]
-8.25015e-09 2.575679e-09 1.5433915e-09 2.3348454e-08 -6.966962e-10 -2.4894815e-08 -9.635571e-09 1.1380519e-08
00000000: 8bbc 0db2 d3ff 3031 431f d430 cb8f c832
00000010: a381 3fb0 47d8 d5b2 b089 25b2 0d84 4332

exp_avg_sq f4 [8]
3.2882882e-15 8.705378e-16 8.37473e-16 5.9702838e-15 7.307371e-15 1.8551478e-15 2.362524e-15 7.376745e-16
00000000: 36f2 6c27 5aea 7a26 9a62 7126 261a d727
00000010: 4da3 0328 70ad 0527 e03c 2a27 c59e 5426

exp_avg f4 [8]
5.5733373e-10 2.2124573e-10 1.2409175e-09 -3.0635328e-11 2.2248117e-09 -4.6177245e-10 1.2515113e-09 -6.917893e-10
00000000: e032 1930 2343 732f e78c aa30 50bc 06ae
00000010: 4de3 1831 b2dc fdaf a401 ac30 5828 3eb0

exp_avg_sq f4 [8]
2.4177335e-17 4.155169e-18 8.717434e-18 2.3970472e-17 4.5621443e-17 1.6671253e-17 3.7127125e-17 1.937092e-17
00000000: 1eff de23 764c 9922 ebce 2023 ad16 dd23
00000010: 4b64 5224 e2c3 9923 f937 2b24 4baa b223
