model/all_subjects_20240208_162941/checkpoints/epoch1_0.6328.pt (torch, 195725 bytes, 39 tensors)

net.conv.weight f4 [8, 1, 1, 256]
0.15391497 0.23421963 0.17717391 0.25387076 0.25927988 0.30009964 0.32541505 0.3199066
0.33225393 0.2587057 0.29746786 0.28398806 0.17633171 0.16951177 0.10814007 0.062889904
0.0928606 0.001065789 -0.02908007 -0.09540814 -0.14132729 -0.08220383 -0.12993619 -0.24495265
-0.2424051 -0.25415045 -0.2368822 -0.29410636 -0.24954699 -0.2803317 -0.27937323 -0.19229929
-0.22617759 -0.25396577 -0.09389272 -0.132797 -0.13275824 -0.074769646 0.057949267 -0.020345638
0.07036271 0.077153705 0.19662172 0.2209157 0.19656867 0.24838074 0.3098882 0.35753515
0.4138108 0.4280164 0.33428726 0.4283812 0.31465098 0.3342392 0.36149648 0.30539626
0.2087907 0.18932624 0.1738558 0.15740864 0.015439509 0.038561344 -0.026748475 -0.06790477
-0.09535274 -0.12310335 -0.22229427 -0.24512853 -0.19429587 -0.21068686 -0.3185757 -0.2836199
-0.2590496 -0.3092083 -0.27014363 -0.30515987 -0.2736848 -0.2211013 -0.17945461 -0.16576135
-0.15308574 -0.1150076 -0.11980492 -0.09402242 -0.03206985 -0.029274097 0.046238106 0.06595382
0.024845751 0.08355718 0.11188335 0.12873502 0.08023654 0.14224254 0.11492984 0.09254854
0.1479914 0.14834249 0.05458357 0.06265355 0.11907511 0.014505065 0.089877665 0.032462094
0.014671762 0.007897353 -0.022481617 0.029893067 -0.027255002 -0.0153680835 0.037522983 -0.06050448
0.022132047 0.014731901 -0.008194906 0.055345356 0.072329395 0.019141395 0.05505774 0.06517615
-0.006100754 -0.0010977837 0.020053841 5.551466e-05 -0.02416406 -0.0065898183 -0.0387872 -0.11462962
-0.09192646 -0.05024758 -0.10708993 -0.1830172 -0.13200673 -0.10837281 -0.18672736 -0.15749665
-0.22992404 -0.13120304 -0.12952285 -0.16175458 -0.14639802 -0.09139239 -0.10660959 -0.14550364
-0.0735434 0.0016325292 -0.049000513 -0.032772046 -0.016048864 0.022636198 0.12763503 0.15732856
0.19676909 0.14369753 0.19843677 0.24454592 0.28929165 0.28153887 0.30034053 0.25758812
0.32693005 0.3154788 0.3009493 0.2484654 0.23006853 0.20598708 0.10277253 0.09294409
0.014239414 -0.024978872 -0.05188043 -0.106190175 -0.193218 -0.23594695 -0.26882648 -0.31745595
-0.31560242 -0.389546 -0.41331846 -0.3969892 -0.40181097 -0.38767776 -0.4525696 -0.35421818
-0.3418994 -0.38203937 -0.3509415 -0.22451302 -0.18159722 -0.21631029 -0.06656797 -0.09189694
0.009080185 0.07137905 0.112160906 0.21020007 0.29387695 0.30338365 0.35818145 0.3413285
0.39650604 0.41073868 0.4376767 0.37373665 0.3228486 0.38001525 0.31377953 0.27878267
0.25549662 0.16521823 0.107999064 0.04967288 0.045747846 -0.044683404 -0.057263315 -0.1176421
-0.23227708 -0.27386013 -0.22398111 -0.32860008 -0.3083743 -0.363027 -0.4232558 -0.39649123
-0.37781036 -0.35818353 -0.3426781 -0.32732606 -0.3991007 -0.30899724 -0.3156407 -0.2669259
-0.20333757 -0.20119064 -0.19947684 -0.10543355 -0.04921112 -0.0049070767 0.046688315 0.06186398
0.14118606 0.092657275 0.1913946 0.19444464 0.14497273 0.1662617 0.19222933 0.13990767
0.15394151 0.14967896 0.14329101 0.12199234 0.013662374 0.014583009 0.048019804 -0.06937587
00000000: e39b 1d3e 45d7 6f3e 146d 353e 59fb 813e
00000010: 55c0 843e a9a6 993e cd9c a63e ccca a33e
00000020: 301d aa3e 1375 843e b54d 983e e266 913e
00000030: 4d90 343e 7e94 2d3e 8b78 dd3d 6ccc 803d
00000040: b32d be3d f2b1 8b3a 5439 eebc 5865 c3bd
00000050: 1ab8 10be 7b5a a8bd fe0d 05be ded4 7abe
00000060: 0b39 78be 0220 82be 3f91 72be 1c95 96be
00000070: 3f89 7fbe a387 8fbe 020a 8fbe 1bea 44be
00000080: 199b 67be cd07 82be d44a c0bd f0fb 07be
00000090: c7f1 07be d420 99bd 365c 6d3d e5ab a6bc
000000a0: 531a 903d c302 9e3d 3457 493e ba37 623e
000000b0: 4c49 493e 8557 7e3e aba9 9e3e d90e b73e
000000c0: 02df d33e f724 db3e b327 ab3e c854 db3e
000000d0: ef19 a13e 6721 ab3e 1116 b93e e65c 9c3e
000000e0: 3bcd 553e bdde 413e 4107 323e bb2f 213e
000000f0: fff5 7c3c 80f2 1d3d 9e1f dbbc a811 8bbd
00000100: 4c48 c3bd 9c1d fcbd 1ca1 63be f902 7bbe
00000110: 7ff5 46be 4cbe 57be 5b1c a3be a136 91be
00000120: 26a2 84be 8d50 9ebe 4450 8abe ea3d 9cbe
00000130: 6a20 8cbe 6168 62be f3c2 37be 58bd 29be
00000140: 82c2 1cbe 1b89 ebbd 485c f5bd d48e c0bd
00000150: ad5b 03bd 3bd0 efbc 2b64 3d3d cc12 873d
00000160: 5189 cb3c 0720 ab3d 1923 e53d 1dd3 033e
00000170: 0e53 a43d 07a8 113e 5660 eb3d 178a bd3d
00000180: 0f8b 173e 18e7 173e 0693 5f3d 8150 803d
00000190: a7dd f33d a7a6 6d3c c811 b83d f9f6 043d
000001a0: d461 703c e663 013c 5e2b b8bc 4ee2 f43c
000001b0: e245 dfbc 6aca 7bbc b3b1 193d 8cd3 77bd
000001c0: 444e b53c 125e 713c ed43 06bc d0b1 623d
000001d0: 6f21 943d 6ace 9c3c 3a84 613d 137b 853d
000001e0: d5e8 c7bb 82e3 8fba f447 a43c 6ad8 6838
000001f0: b5f3 c5bc 67ef d7bb 54df 1ebd efc2 eabd
00000200: f143 bcbd 68d0 4dbd f751 dbbd dc68 3bbe
00000210: c62c 07be 90f2 ddbd 7535 3fbe cd46 21be
00000220: 3571 6bbe 175a 06be a3a1 04be fea2 25be
00000230: 5de9 15be ef2b bbbd 2156 dabd e8fe 14be
00000240: ec9d 96bd 97fa d53a c3b4 48bd fb3b 06bd
00000250: e878 83bc 8c6f b93c c2b2 023e bd1a 213e
00000260: d67d 493e 7225 133e 0233 4b3e 3f6a 7a3e
00000270: 091e 943e dd25 903e 3cc6 993e 97e2 833e
00000280: 6063 a73e 7086 a13e 0716 9a3e b76d 7e3e
00000290: 1697 6b3e 47ee 523e 677a d23d 7959 be3d
000002a0: 6e4c 693c 7ea0 ccbc 9380 54bd 3c7a d9bd
000002b0: f0da 45be 149c 71be a0a3 89be 9689 a2be
000002c0: a496 a1be 9372 c7be 7a9e d3be 2b42 cbbe
000002d0: 2bba cdbe b37d c6be 34b7 e7be 165c b5be
000002e0: 700d afbe aa9a c3be 9bae b3be bee6 65be
000002f0: 9ff4 39be 7280 5dbe ca54 88bd 7634 bcbd
00000300: 0ec5 143c 2e2f 923d 9eb4 e53d b03e 573e
00000310: 0a77 963e 1a55 9b3e 8f63 b73e 9cc2 ae3e
00000320: d702 cb3e 574c d23e 2917 e03e 695a bf3e
00000330: 694c a53e 5c91 c23e b6a7 a03e 9abc 8e3e
00000340: 74d0 823e f82e 293e 9d2e dd3d ca75 4b3d
00000350: 1862 3b3d f205 37bd f08c 6abd 57ee f0bd
00000360: 0bda 6dbe 6537 8cbe 4e5b 65be 453e a8be
00000370: 3ce3 9dbe adde b9be fcb4 d8be e600 cbbe
00000380: 5c70 c1be d563 b7be 8173 afbe 4897 a7be
00000390: ed56 ccbe e334 9ebe a89b a1be 83aa 88be
000003a0: b937 50be eb04 4ebe a843 4cbe 8ced d7bd
000003b0: 9991 49bd 8bcb a0bb 3f3c 3f3d 1665 7d3d
000003c0: 1493 103e 19c3 bd3d f2fc 433e 7f1c 473e
000003d0: bb73 143e 8240 2a3e c4d7 443e f543 0f3e
000003e0: d8a2 1d3e 7145 193e e1ba 123e 1fd7 f93d
000003f0: 26d8 5f3c 93ed 6e3c 6ab0 443d f014 8ebd

net.bn1.weight f4 [8]
1.0096248 0.85585696 1.0762618 0.88970584 1.3497026 0.9085495 1.2904112 0.8103201
00000000: 633b 813f 7119 5b3f f2c2 893f c3c3 633f
00000010: 0ec3 ac3f b396 683f 322c a53f 2371 4f3f

net.bn1.bias f4 [8]
-0.01557076 -0.029593863 0.00035372953 -0.050283372 -0.092547596 -0.029875625 -0.025696315 0.00043594488
00000000: 801c 7fbc d46e f2bc c674 b939 f0f5 4dbd
00000010: 9889 bdbd babd f4bc 1481 d2bc 888f e439

net.bn1.running_mean f4 [8]
0.0005764869 0.0019828826 0.0003002665 -0.00054570066 -0.0005085952 -0.0007426706 -0.0010402007 0.000390423
00000000: 621f 173a 40f3 013b 166d 9d39 5a0d 0fba
00000010: 3f53 05ba c8af 42ba 5857 88ba b0b1 cc39

net.bn1.running_var f4 [8]
98.40255 98.114944 76.134445 107.798874 126.18799 36.967003 84.56438 45.433083
00000000: 1bce c442 da3a c442 d644 9842 0699 d742
00000010: 4060 fc42 36de 1342 f620 a942 7abb 3542

net.depth_conv.weight f4 [16, 1, 32, 1]
-0.19751714 0.0665111 -0.060821813 -0.2926889 0.03516814 -0.26893502 0.20264708 0.5063793
-0.048034128 -0.6426853 0.043974586 0.22822057 -0.07420462 0.32889834 -0.110742904 -0.3840169
0.31365433 0.10766384 0.42926475 0.06873958 0.13686036 -0.15656424 -0.3239081 0.34280676
-0.26298338 -0.1923804 0.1698738 -0.04502025 0.029878631 0.098089576 0.11529653 -0.13017376
0.21069317 0.17556429 0.6543857 -0.46839043 0.49348554 -0.12970036 0.20251927 0.6577115
0.29029062 -0.5198409 0.026412064 0.20510173 0.043886732 0.52256525 -0.28918937 -0.3291647
-0.09230368 -0.35477078 0.06715054 0.5165544 -0.024670124 -0.029677626 -0.074792586 -0.035645917
-0.55303043 -0.39136007 -0.06755691 0.14185686 -0.38238 -0.2861912 -0.11373054 0.0239321
-0.15200956 -0.21301824 -0.18107691 -0.003445467 -0.010887239 0.14549671 -0.22345343 -0.15332444
0.28918037 -0.1296136 -0.11951415 -0.23183013 0.14112437 0.09075429 -0.2655015 -0.14848237
-0.37571844 0.16142298 0.013689601 -0.0051642833 0.16072446 0.2571231 0.037397426 0.07524134
0.38243818 -0.058412492 -0.1205109 0.14783621 -0.29652297 -0.02620707 -0.03832814 0.41005954
0.03386794 -0.12336983 -0.018883636 -0.051963124 0.1278836 0.18933794 -0.2842283 -0.115176514
-0.10309631 -0.34925595 -0.083239704 0.19603153 0.033036 -0.47899374 0.3351708 0.72322005
-0.14073487 -0.14229006 0.09327255 0.32421073 0.23421557 -0.0033492355 0.109695874 0.22095288
0.32191873 -0.35818702 -0.13162147 0.08992425 -0.054659065 0.3612327 0.31283402 -0.34179989
-0.1599468 -0.22463188 -0.09483609 0.32057598 -0.1987382 -0.39686665 0.06717308 -0.014813612
-0.0754289 0.37388206 0.06977312 -0.1578726 -0.07009333 0.3257861 0.19839995 -0.1672738
0.14706275 -0.040727396 -0.06469064 -0.03163039 -0.0602555 -0.1814066 0.42671475 -0.16665338
-0.08067656 0.42478672 -0.00191719 0.25607443 0.26011372 -0.1677819 -0.29566202 -0.111511156
-0.14863287 0.19495438 -0.31659502 -0.077846825 -0.06634804 0.1575399 -0.021788307 -0.016509084
0.051034983 -0.49420074 0.056623925 -0.3350797 -0.31340984 -0.110258244 -0.21061021 0.28851837
-0.19565886 0.0027235479 -0.03486828 0.24219869 0.07263386 0.11609471 -0.34281483 0.06705344
-0.30790928 0.25868767 0.38359603 -0.056685533 -0.055541154 0.48542932 -0.04573393 0.2769652
-0.06464753 -0.00058419106 -0.055280793 0.13405195 -0.051473465 0.21660346 0.84908545 0.08126299
-0.47405827 0.052889805 -0.19397336 -0.10140522 -0.014642519 -0.1524186 0.027286353 -0.2557882
-0.10593525 0.043205816 0.21698135 0.29476455 -0.039618943 0.11975637 -0.1490046 -0.5946125
-0.7963413 0.40447474 -0.5961694 -0.060606882 0.15813115 0.17222288 0.2218216 -0.18614712
-0.029632853 -0.056795422 -0.29045498 0.20845443 0.013538835 -0.08050027 -0.11515425 0.34617105
-0.050809048 -0.37127623 0.044806004 0.08586783 -0.012219878 0.15301111 -0.18336986 -0.18878356
0.12272093 0.22856006 0.06261555 0.2568483 -0.027420923 -0.39698407 -0.05423801 0.013086846
-0.037627425 -0.29174975 -0.087764814 0.18031825 -0.03126811 0.18436503 -0.105941884 -0.053731937
00000000: ef41 4abe f936 883d 4b20 79bd 52db 95be
00000010: 780c 103d dab1 89be b782 4f3e 13a2 013f
00000020: 6fbf 44bd 0687 24bf b21e 343d a7b2 693e
00000030: 98f8 97bd 5d65 a83e 2dcd e2bd dd9d c4be
00000040: 4d97 a03e dc7e dc3d 97c8 db3e 56c7 8c3d
00000050: 1f25 0c3e 6052 20be 48d7 a5be 5e84 af3e
00000060: c2a5 86be 5eff 44be 66f3 2d3e 2767 38bd
00000070: 08c4 f43c 30e3 c83d 9620 ec3d 454c 05be
00000080: f3bf 573e 20c7 333e d285 273f dfd0 efbe
00000090: 23aa fc3e 2cd0 04be 3661 4f3e c85f 283f
000000a0: f9a0 943e 4b14 05bf 1d5e d83c 3006 523e
000000b0: 93c2 333d d6c6 053f a110 94be 4788 a8be
000000c0: b609 bdbd 84a4 b5be 3986 893d e93c 043f
000000d0: 0019 cabc 7e1e f3bc db2c 99bd 7401 12bd
000000e0: 6793 0dbf 5960 c8be 475b 8abd ed42 113e
000000f0: 50c7 c3be a787 92be 8feb e8bd 400d c43c
00000100: 65a8 1bbe 7421 5abe 3a6c 39be 58cd 61bb
00000110: 6460 32bc 17fd 143e fad0 64be 1501 1dbe
00000120: 730f 943e 6db9 04be d6c3 f4bd e164 6dbe
00000130: e882 103e 63dd b93d d0ef 87be c30b 18be
00000140: 2b5e c0be 114c 253e 594a 603c 2639 a9bb
00000150: f494 243e a4a5 833e 0b2e 193d 2218 9a3d
00000160: f0ce c33e f041 6fbd 6bce f6bd 6062 173e
00000170: dcd1 97be 36b0 d6bc f8fd 1cbd 53f3 d13e
00000180: 1cb9 0a3d 52a9 fcbd dbb1 9abc 49d7 54bd
00000190: ebf3 023e cee1 413e 5f86 91be aae1 ebbd
000001a0: 2824 d3bd add1 b2be 9479 aabd 7dbc 483e
000001b0: c250 073d ab3e f5be 829b ab3e f324 393f
000001c0: cd1c 10be 7cb4 11be ae05 bf3d f3fe a53e
000001d0: 35d6 6f3e d97e 5bbb 3ba8 e03d 7941 623e
000001e0: 88d2 a43e 4a64 b7be c7c7 06be 352a b83d
000001f0: 2fe2 5fbd 7ef3 b83e c82b a03e 6500 afbe
00000200: 18c9 23be e605 66be 6d39 c2bd 8922 a43e
00000210: 0782 4bbe 1b32 cbbe 0a92 893d cbb4 72bc
00000220: 787a 9abd 786d bf3e 36e5 8e3d 5ba9 21be
00000230: 188d 8fbd 70cd a63e 5b29 4b3e d349 2bbe
00000240: 9e97 163e c5d1 26bd 877c 84bd de8e 01bd
00000250: 79ce 76bd a7c2 39be 5b7a da3e 2fa7 2abe
00000260: c139 a5bd a57d d93e 394a fbba 301c 833e
00000270: a02d 853e 05cf 2bbe 0361 97be f65f e4bd
00000280: 3733 18be 1fa2 473e be18 a2be 286e 9fbd
00000290: 7be1 87bd 2452 213e 647d b2bc 0f3e 87bc
000002a0: 0f0a 513d e107 fdbe 7dee 673d 918f abbe
000002b0: 4177 a0be 13cf e1bd 34aa 57be aeb8 933e
000002c0: cc5a 48be 8d7d 323b 0bd2 0ebd ef02 783e
000002d0: 10c1 943d 10c3 ed3d 6d85 afbe 5053 893d
000002e0: 49a6 9dbe b672 843e b366 c43e 172f 68bd
000002f0: 1f7f 63bd 318a f83e 8053 3bbd 62ce 8d3e
00000300: ed65 84bd 6624 19ba 1d6e 62bd ea44 093e
00000310: d7d5 52bd 4ccd 5d3e aa5d 593f 366d a63d
00000320: c4b7 f2be fba2 583d f4a0 46be 8aad cfbd
00000330: 2de7 6fbc 9f13 1cbe a187 df3c acf6 82be
00000340: 95f4 d8bd 95f8 303d 5c30 5e3e 61eb 963e
00000350: 7947 22bd d442 f53d a994 18be 8638 18bf
00000360: 06dd 4bbf 5017 cf3e 8f9e 18bf ec3e 78bd
00000370: 22ed 213e 325b 303e 3425 633e 5a9d 3ebe
00000380: 99c0 f2bc 51a2 68bd 84b6 94be 1475 553e
00000390: fdd1 5d3c 53dd a4bd fed5 ebbd 553d b13e
000003a0: 261d 50bd eb17 bebe 8086 373d 79db af3d
000003b0: e235 48bc f2ae 1c3e 4fc5 3bbe 7a50 41be
000003c0: 1c55 fb3d a60b 6a3e 953c 803d 9f81 833e
000003d0: d8a1 e0bc 7f41 cbbe ad28 5ebd 366a 563c
000003e0: 371f 1abd 3960 95be 0abe b3bd 59a5 383e
000003f0: fd12 00bd 30ca 3c3e 0ff8 d8bd 0516 5cbd

net.bn2.weight f4 [16]
1.3287269 1.3034455 1.0401908 1.1473081 1.0989912 1.1419582 1.2968643 0.48511574
1.6037605 1.5461421 0.76037294 0.5860852 1.324734 1.3924571 1.0174769 0.48478082
00000000: b913 aa3f 4dd7 a63f f924 853f feda 923f
00000010: beab 8c3f b02b 923f a6ff a53f 1761 f83e
00000020: 0648 cd3f fce7 c53f cda7 423f ae09 163f
00000030: e290 a93f 093c b23f af3c 823f 3135 f83e

net.bn2.bias f4 [16]
-0.2534909 -0.24055831 -0.13770112 -0.07824855 -0.0586743 -0.0967409 -0.32728335 -0.13070765
-0.34298813 -0.3749942 0.027611647 -0.09507005 -0.27677038 -0.29464236 -0.32321662 -0.15801145
00000000: 8fc9 81be eb54 76be 8601 0dbe c740 a0bd
00000010: 7654 70bd 1820 c6bd af91 a7be 3ad8 05be
00000020: 249c afbe 3dff bfbe d231 e23c 16b4 c2bd
00000030: d9b4 8dbe 5ddb 96be a67c a5be c1cd 21be

net.bn2.running_mean f4 [16]
-0.000439767 -0.0012013111 0.013890862 -0.021827633 0.0010767985 -0.0017624078 0.051288288 0.029702514
-0.0897061 -0.07055607 -0.0045572133 0.015369466 0.028016211 0.0042425958 0.001624415 0.0038986567
00000000: 8790 e6b9 5075 9dba 8096 633c ddcf b2bc
00000010: 5d23 8d3a 9800 e7ba ab13 523d b052 f33c
00000020: d5b7 b7bd b37f 90bd ad54 95bb 36d0 7b3c
00000030: 4182 e53c 7905 8b3b 53ea d43a 9b80 7f3b

net.bn2.running_var f4 [16]
2.7310863 2.9543962 2.6049328 5.2000737 6.6540494 3.7503793 3.5564141 2.5012207
2.343017 3.2045045 0.66982114 1.9230108 2.661796 4.0904217 3.0073478 2.1697354
00000000: 1eca 2e40 d414 3d40 38b7 2640 0167 a640
00000010: f9ed d440 3706 7040 4a9c 6340 0014 2040
00000020: fef3 1540 9a16 4d40 6679 2b3f 3825 f63f
00000030: de5a 2a40 bce4 8240 6378 4040 f2dc 0a40

net.point_conv.weight f4 [16, 16, 1, 16]
0.23215474 0.29384062 0.32793584 0.3568391 0.4150342 0.41091093 0.2664282 0.12208456
0.06883958 -0.024464164 0.053061217 0.1465172 0.19798762 0.31964755 0.38885403 0.29559517
0.090863384 0.05551038 0.01883479 -0.06431055 -0.06523991 -0.13132516 -0.04901085 -0.10403495
-0.07438916 0.0034866347 0.07500833 0.0269355 0.10756602 0.087488495 0.10530124 0.1098097
-0.29310238 -0.28415138 -0.20353402 -0.1690783 -0.16833134 -0.17229562 -0.17642894 -0.19621332
-0.24858777 -0.23273818 -0.27413416 -0.24968179 -0.2634988 -0.2672354 -0.22083534 -0.21440731
-0.23617968 -0.23662385 -0.22694203 -0.11390541 -0.122950174 -0.23166133 -0.15408953 -0.20979995
-0.1354871 -0.17002383 -0.13235533 -0.058076937 -0.057087347 -0.044985108 0.012053024 -0.05000924
-0.12118529 -0.13011976 -0.08600322 -0.20791243 -0.14375836 -0.16230272 -0.12609193 -0.11465784
-0.13086066 -0.12316254 -0.058448426 -0.09613457 -0.017932137 -0.031348668 -0.05311883 -0.093731284
-0.30700013 -0.27076128 -0.27752137 -0.28116116 -0.30764714 -0.2866721 -0.30285117 -0.2282296
-0.26291612 -0.18027827 -0.2069538 -0.1772661 -0.14679338 -0.20247324 -0.21356939 -0.25128096
-0.30641934 -0.25146008 -0.23608533 -0.27954265 -0.25938964 -0.15703517 -0.17862761 -0.2129193
-0.23437852 -0.28103063 -0.1944967 -0.27595034 -0.15980515 -0.14617036 -0.1500928 -0.049873736
-0.04669237 -0.061209697 0.05473804 0.010461439 0.13369107 0.1259836 0.12228207 0.046617206
0.031490177 0.058062512 -0.018199444 -1.4450614e-05 -0.088641725 -0.1921894 -0.13621233 -0.018141447
0.04751739 0.095177546 0.041534353 0.16228804 0.23993632 0.4050479 0.31485733 0.2184606
0.123002686 0.08119312 -0.020196766 -0.020419557 -0.091860265 -0.077086866 0.029442875 0.19169383
0.13425331 0.1381171 0.23890692 0.24155383 0.34704244 0.34710705 0.33998233 0.2298264
0.1412657 0.061168037 -0.10496573 -0.037991304 -0.039636225 0.0054145167 0.14081016 0.18994644
0.1081416 0.05049399 0.11376045 0.026765779 0.028735982 -0.007885721 -0.16036558 -0.12588082
-0.13661692 -0.17212984 -0.08802332 -0.051063385 0.045528132 0.09514524 0.09371658 0.09953224
0.029480232 0.021367684 0.077195525 0.085065715 0.15719901 0.09138284 0.035100535 -0.0048782993
0.033135768 -0.014047151 -0.03695507 0.051722564 0.09752438 0.056759447 0.05311518 0.11995561
0.41869915 0.31131706 0.27767128 0.087997355 -0.022219772 -0.03236186 0.010732475 0.05739011
0.113502994 0.1844022 0.21619539 0.2655615 0.17511372 0.24935287 0.13788448 0.016663227
-0.13912892 -0.12956661 -0.0966312 -0.061808888 0.01999264 0.06587776 0.19383173 0.1539428
0.01932104 -0.022138344 -0.17073655 -0.10337184 -0.052529365 0.08681478 0.087350145 0.12201134
-0.14481069 -0.098444134 -0.04287991 -0.1231263 -0.121409476 -0.09057958 -0.15768735 -0.028121142
-0.06623594 -0.12191143 -0.13940966 -0.10644465 -0.10585766 -0.13686028 -0.20433472 -0.1547538
-0.05283087 -0.11760897 -0.020598073 -0.052233674 -0.08167883 -0.054344818 -0.062417325 -0.034163717
0.047260966 0.039875563 -0.05229189 -0.03133857 0.053021934 0.06341989 0.045133658 0.09776454
00000000: f9b9 6d3e 4772 963e 35e7 a73e 9db3 b63e
00000010: 5d7f d43e eb62 d23e 4769 883e 7807 fa3d
00000020: c4fb 8c3d 1269 c8bc b856 593d 9b08 163e
00000030: 44bd 4a3e d8a8 a33e e017 c73e 4058 973e
00000040: 9516 ba3d da5e 633d 6b4b 9a3c 40b5 83bd
00000050: 809c 85bd 1a7a 06be 9abf 48bd 4710 d5bd
00000060: 5859 98bd 0680 643b f89d 993d d6a7 dc3c
00000070: 934b dc3d 2b2d b33d 2da8 d73d e8e3 e03d
00000080: 8411 96be 4a7c 91be 396b 50be dd22 2dbe
00000090: 0d5f 2cbe 436e 30be caa9 34be 25ec 48be
000000a0: cb8d 7ebe eb52 6ebe 505b 8cbe 95ac 7fbe
000000b0: 51e9 86be 14d3 88be a922 62be 978d 5bbe
000000c0: 16d9 71be 864d 72be 7e63 68be 3d47 e9bd
000000d0: 4dcd fbbd a138 6dbe a5c9 1dbe ccd5 56be
000000e0: 21bd 0abe ba1a 2ebe 2888 07be 15e2 6dbd
000000f0: 6cd4 69bd 4e42 38bd 0c7a 453c 7dd6 4cbd
00000100: fe2f f8bd 1d3e 05be 7522 b0bd ffe6 54be
00000110: 6435 13be af32 26be 3e1e 01be bbd1 eabd
00000120: 5600 06be a43c fcbd 9e67 6fbd 34e2 c4bd
00000130: 6be6 92bc 7667 00bd 2193 59bd 30f6 bfbd
00000140: 1f2f 9dbe 39a1 8abe 4817 8ebe 5bf4 8fbe
00000150: ed83 9dbe afc6 92be 4f0f 9bbe 05b5 69be
00000160: f19c 86be de9a 38be b2eb 53be 3f85 35be
00000170: 0151 16be 2555 4fbe efb1 5abe e6a7 80be
00000180: ffe2 9cbe 60bf 80be 5ac0 71be 3720 8fbe
00000190: b8ce 84be d4cd 20be 28ea 36be 8407 5abe
000001a0: ec00 70be 3fe3 8fbe 252a 47be 5d49 8dbe
000001b0: f6a3 23be afad 15be edb1 19be 6748 4cbd
000001c0: 8040 3fbd 05b7 7abd ff34 603d 7566 2b3c
000001d0: 50e6 083e d801 013e 066f fa3d aff1 3e3d
000001e0: d8fb 003d f5d2 6d3d 0017 95bc ea70 72b7
000001f0: cb89 b5bd 4ccd 44be 3f7b 0bbe 5f9d 94bc
00000200: 98a1 423d 72ec c23d ed1f 2a3d d62e 263e
00000210: deb1 753e 7062 cf3e fb34 a13e 23b4 5f3e
00000220: d5e8 fb3d 9448 a63d b073 a5bc ea46 a7bc
00000230: 3c21 bcbd b8df 9dbd 2f32 f13c 634b 443e
00000240: b379 093e 926e 0d3e 04a4 743e e359 773e
00000250: 8caf b13e 04b8 b13e 2a12 ae3e 9d57 6b3e
00000260: f5a7 103e 568b 7a3d 46f8 d6bd c59c 1bbd
00000270: 9859 22bd 426c b13b 8a30 103e 5281 423e
00000280: 5879 dd3d c9d2 4e3d 3dfb e83d e843 db3c
00000290: b967 eb3c 1c33 01bc e036 24be e7e6 00be
000002a0: 4ee5 0bbe ce42 30be 9245 b4bd d727 51bd
000002b0: b57b 3a3d 82db c23d 7aee bf3d 8fd7 cb3d
000002c0: 8780 f13c 480b af3c b018 9e3d ef36 ae3d
000002d0: c7f8 203e ed26 bb3d 94c5 0f3d 24da 9fbb
000002e0: 5fb9 073d 0626 66bc 335e 17bd 0adb 533d
000002f0: ddba c73d 987c 683d 4e8f 593d 49ab f53d
00000300: bc5f d63e f364 9f3e ee2a 8e3e f537 b43d
00000310: 3d06 b6bc df8d 04bd 43d7 2f3c e411 6b3d
00000320: 4274 e83d eed3 3c3e 5362 5d3e adf7 873e
00000330: 0351 333e 5c56 7f3e 9731 0d3e 5281 883c
00000340: d077 0ebe 1cad 04be 94e6 c5bd 512b 7dbd
00000350: 9bc7 a33c ebea 863d d37b 463e 2ea3 1d3e
00000360: 2847 9e3c 795b b5bc 90d5 2ebe 9eb4 d3bd
00000370: 0829 57bd f3cb b13d a2e4 b23d 15e1 f93d
00000380: 4149 14be 149d c9bd d8a2 2fbd a429 fcbd
00000390: 88a5 f8bd c981 b9bd cb78 21be 4f5e e6bc
000003a0: b5a6 87bd b3ac f9bd 68c1 0ebe a7ff d9bd
000003b0: e7cb d8bd 1a25 0cbe 1f3d 51be c877 1ebe
000003c0: 2f65 58bd f9dc f0bd 4abd a8bc faf2 55bd
000003d0: 3b47 a7bd ac98 5ebd 4fa9 7fbd 41ef 0bbd
000003e0: b794 413d 8f54 233d 0530 56bd df5c 00bd
000003f0: 872d 593d 4ae2 813d 12de 383d c638 c83d

net.bn3.weight f4 [16]
1.0636594 1.1017435 1.413814 1.0294509 0.4277449 0.93350536 0.75250655 1.1277286
0.7108292 1.2548354 1.2438139 1.0971483 0.8859846 1.1840384 1.2309685 1.3253425
00000000: fe25 883f ee05 8d3f dbf7 b43f 0cc5 833f
00000010: 6101 db3e 35fa 6e3f 45a4 403f 6959 903f
00000020: e7f8 353f 729e a03f 4b35 9f3f 5b6f 8c3f
00000030: e3cf 623f 928e 973f 6090 9d3f d3a4 a93f

net.bn3.bias f4 [16]
0.08902653 0.12673269 -0.15646407 0.17393179 -0.22959684 0.13483633 0.33230504 0.16059507
0.09122116 -0.05936396 -0.014613692 -0.11387808 -0.23871188 0.17468156 -0.17565365 0.17968105
00000000: 8b53 b63d 37c6 013e 1e38 20be 2d1b 323e
00000010: 6f1b 6bbe 8912 0a3e e323 aa3e 0973 243e
00000020: 29d2 ba3d a027 73bd 446e 6fbc e938 e9bd
00000030: e370 74be b9df 323e 8dde 33be 4ffe 373e

net.bn3.running_mean f4 [16]
-0.22574164 0.6256094 -0.5518502 0.24664487 -0.32230553 -0.49983457 0.9130189 0.09926123
-0.504954 0.1368984 -0.18916558 0.1406155 0.6768712 0.10653923 -1.4825602 -0.011389852
00000000: d128 67be f027 203f 0e46 0dbf 7990 7c3e
00000010: 3b05 a5be 51ea ffbe 9bbb 693f 7949 cb3d
00000020: aa44 01bf 182f 0c3e 9fb4 41be 82fd 0f3e
00000030: 6e47 2d3f 3d31 da3d 88c4 bdbf 809c 3abc

net.bn3.running_var f4 [16]
41.590927 41.654976 56.677002 25.325203 22.248804 25.840708 31.031208 27.061865
23.263597 47.685177 39.3099 30.674543 34.220478 52.122124 47.334408 52.950752
00000000: 1c5d 2642 b29e 2642 40b5 6242 049a ca41
00000010: 8dfd b141 c5b9 ce41 ea3f f841 b37e d841
00000020: d91b ba41 9fbd 3e42 563d 1d42 7765 f541
00000030: c5e1 0842 0e7d 5042 6f56 3d42 92cd 5342

net.fc.weight f4 [32, 256]
-0.0040467973 -0.04388529 -0.0060653538 -0.13746674 0.18365756 0.03925432 -0.009973627 -0.0903295
-0.016065396 -0.15536956 -0.058081206 -0.020094967 -0.005757125 0.12718885 0.06687609 0.12697428
-0.14035158 -0.07471383 -0.18404628 -0.2512318 0.017893396 -0.011998674 0.047360163 0.004244152
0.0977515 0.11071766 0.10811597 0.074988425 -0.024549885 0.0077176914 0.12648094 -0.10829033
0.08940589 0.079243906 0.058857054 0.093289584 0.044320386 0.25239068 0.015153907 0.1661473
0.1943374 0.056196455 -0.040452752 0.13273723 -0.08949375 -0.2662428 -0.17004938 -0.24398412
-0.1392638 0.026830712 -0.119030535 -0.032339074 -0.047077768 0.13758457 -0.011768907 0.115036085
0.06305633 0.08139622 -0.048056442 -0.07476028 -0.005859414 -0.04928605 -0.054824743 -0.20459147
0.010534971 -0.0030979181 -0.06412439 0.05534491 -0.06856984 0.06533662 -0.00661915 -0.0065446403
0.0014109195 -0.042040337 -0.049592964 -0.032820605 0.020319676 -0.06705866 -0.06100898 0.07111416
-0.114729606 -0.11279286 0.025888467 -0.011474122 -0.05917458 0.088728495 -0.066955395 0.093953416
0.0499082 0.13370195 -0.12348441 -0.036531903 -0.04384276 -0.15208195 0.11099334 -0.26893052
0.05788048 -0.12129381 0.05132069 -0.09045021 -0.13764805 0.09940416 0.08784338 0.019142551
0.09029921 0.10375427 -0.108754344 0.06820423 0.13564207 -0.059018638 0.0046475227 -0.032814644
-0.012011552 0.116810665 0.3467191 0.11734691 0.15578718 -0.06874894 -0.03602045 0.1430142
0.009289178 -0.031686656 0.14895315 0.036991898 0.12602277 0.11440681 0.017802699 0.1355833
-0.073006615 -0.20125398 -0.10211984 -0.038996547 0.046553217 0.17423369 0.03340952 -0.09232644
0.16568133 0.059753746 0.07132965 0.08416903 0.119862735 0.14954893 0.043943565 0.10456733
-0.26316547 0.024282062 -0.101662494 -0.1406439 -0.048556704 -0.09127218 0.0040090946 -0.14175005
-0.09414163 -0.050530635 -0.030237209 -0.060656864 -0.079111844 -0.12086258 -0.11778533 -0.18310161
0.10959457 0.333235 0.22874182 0.16489774 0.15288317 0.13171665 0.08761862 0.13204019
0.21454965 0.23685794 0.077021234 -0.036821287 0.09895212 0.056114677 0.101611346 0.12907042
-0.10040341 -0.093451284 0.004151609 -0.05528771 -0.052505907 -0.13819091 0.07229316 -0.043075144
0.024989378 -0.052511636 -0.123306185 0.03892998 -0.095848836 -0.121538155 -0.07587374 -0.0009747892
-0.16896021 -0.01676616 -0.15930788 0.18653117 0.09505963 0.010710343 0.11735963 0.1311895
0.089818865 0.14183263 0.050761618 0.03358813 -0.14500777 0.07882481 -0.014787989 0.1360559
-0.036076155 -0.063041605 -0.3217975 -0.08761714 -0.05532556 0.014912657 0.114351004 0.08850485
0.0063053896 -0.0014033106 0.06726995 0.0824705 -0.02968943 -0.13793504 -0.009487428 -0.06424667
-0.15826865 -0.1529517 -0.037717227 0.06207106 -0.034638852 0.10655496 0.017955316 -0.06890765
0.21671504 0.11544461 0.027274868 -0.037449896 -0.15557827 0.0111883795 -0.05851381 -0.09173054
-0.15891734 -0.12483901 -0.059605274 -0.18165033 0.02326445 -0.13928336 -0.039817873 -0.08524117
-0.10598164 0.054773755 0.043971196 -0.023394512 0.008944646 -0.14370309 -0.08024101 -0.12081479
00000000: ff9a 84bb 10c1 33bd e0bf c6bb 15c4 0cbe
00000010: ba10 3c3e 23c9 203d 6c68 23bc acfe b8bd
00000020: 949b 83bc 3319 1fbe 8fe6 6dbd 339e a4bc
00000030: 44a6 bcbb cb3d 023e 55f6 883d 8c05 023e
00000040: 53b8 0fbe 9103 99bd a176 3cbe 74a1 80be
00000050: 2c95 923c 1696 44bc bbfc 413d 8712 8b3b
00000060: f031 c83d f1bf e23d e86b dd3d 8893 993d
00000070: d71c c9bc b0e4 fc3b 3884 013e 52c7 ddbd
00000080: 6f1a b73d a14a a23d 1814 713d 9c0e bf3d
00000090: 4b89 353d 5a39 813e 1848 783c 8522 2a3e
000000a0: 6200 473e 412e 663d c9b1 25bd 45ec 073e
000000b0: 8048 b7bd fa50 88be 6d21 2ebe f9d6 79be
000000c0: 2b9b 0ebe 15cc db3c 48c6 f3bd fa75 04bd
000000d0: 9ed4 40bd f8e2 0c3e 60d2 40bc 0a98 eb3d
000000e0: ad23 813d 10b3 a63d d5d6 44bd eb1b 99bd
000000f0: 5400 c0bb 2be0 49bd e98f 60bd 6d80 51be
00000100: df9a 2c3c 7106 4bbb a653 83bd 58b1 623d
00000110: 586e 8cbd 35cf 853d 74e5 d8bb 6c74 d6bb
00000120: 9aee b83a 7d32 2cbd fe21 4bbd e66e 06bd
00000130: 7375 a63c 0d56 89bd 8de4 79bd 4da4 913d
00000140: 5bf7 eabd f1ff e6bd 0d14 d43c f5fd 3bbc
00000150: 0b61 72bd 49b7 b53d e91f 89bd a66a c03d
00000160: 8a6c 4c3d 2ae9 083e 65e5 fcbd 7aa2 15bd
00000170: 7794 33bd 5fbb 1bbe 7a50 e33d 43b1 89be
00000180: 1514 6d3d e468 f8bd a535 523d f63d b9bd
00000190: 9cf3 0cbe 6994 cb3d 3be7 b33d d7d0 9c3c
000001a0: cbee b83d 1e7d d43d 99ba debd a9ae 8b3d
000001b0: c1e5 0a3e 87bd 71bd 3f4a 983b a668 06bd
000001c0: 1acc 44bc 6e3a ef3d 2a85 b13e 9453 f03d
000001d0: ad86 1f3e 3fcc 8cbd 2e8a 13bd 5072 123e
000001e0: a331 183c dec9 01bd 2d87 183e d184 173d
000001f0: 1d0c 013e 1e4e ea3d f7d6 913c 59d6 0a3e
00000200: 7e84 95bd 8615 4ebe 3524 d1bd d8ba 1fbd
00000210: 96ae 3e3d 516a 323e 6cd8 083d a515 bdbd
00000220: 5ea8 293e 58c0 743d 4815 923d d060 ac3d
00000230: 987a f53d 5b23 193e 2bfe 333d 6527 d63d
00000240: a0bd 86be 2deb c63c 6d34 d0bd f404 10be
00000250: 65e3 46bd e9ec babd b95e 833b ed26 11be
00000260: 54cd c0bd 36f9 4ebd 06b4 f7bc 5573 78bd
00000270: 6405 a2bd cd86 f7bd 6f39 f1bd fd7e 3bbe
00000280: 1e73 e03d c79d aa3e 4c3b 6a3e f4da 283e
00000290: 688d 1c3e bbe0 063e 6471 b33d 8b35 073e
000002a0: e7b2 5b3e e38a 723e 4fbd 9d3d ebd1 16bd
000002b0: 69a7 ca3d 81d8 653d 9c19 d03d 092b 043e
000002c0: 4ea0 cdbd 6363 bfbd 380a 883b 5e75 62bd
000002d0: 6f10 57bd eb81 0dbe 700e 943d 906f 30bd
000002e0: 86b6 cc3c 7116 57bd f487 fcbd 0b75 1f3d
000002f0: 654c c4bd ffe8 f8bd b163 9bbd ff88 7fba
00000300: e803 2dbe 3059 89bc 9b21 23be 0702 3f3e
00000310: a0ae c23d 6f7a 2f3c 3f5a f03d 8a56 063e
00000320: f4f2 b73d 933c 113e 6aeb 4f3d b593 093d
00000330: eb7c 14be e76e a13d 5249 72bc 3d52 0b3e
00000340: 97c4 13bd f51b 81bd a4c2 a4be 9d70 b3bd
00000350: 0e9d 62bd 3854 743c dc30 ea3d 0842 b53d
00000360: 719d ce3b 4aef b7ba d4c4 893d 4be6 a83d
00000370: 3f37 f3bc d83e 0dbe 2871 1bbc c293 83bd
00000380: 2d11 22be 5f9f 1cbe 617d 1abd 393e 7e3d
00000390: 78e1 0dbd 7d39 da3d 0717 933c 741f 8dbd
000003a0: 8cea 5d3e 396e ec3d 8b6f df3c 1065 19bd
000003b0: e94f 1fbe 774f 373c 2dac 6fbd 39dd bbbd
000003c0: 3abb 22be 98ab ffbd a924 74bd 8b02 3abe
000003d0: 1695 be3c 4ca0 0ebe 1118 23bd ec92 aebd
000003e0: e70c d9bd 725a 603d 241b 343d d9a5 bfbc
000003f0: 918c 123c e726 13be 6655 a4bd bf6d f7bd

net.fc.bias f4 [32]
0.17427745 0.4727441 0.45359072 -0.513411 0.38155475 0.2193314 -0.41278946 -0.23233089
0.022362966 -0.285854 -0.25887623 -0.22493951 0.4525333 0.35380432 -0.057982326 -0.40099597
-0.078857966 -0.22147156 0.43471006 0.23723397 -0.50760835 -0.5579642 0.57953215 -0.4404392
-0.059134897 -0.23573665 -0.48245934 -0.50438005 0.05668639 -0.13834582 -0.06442134 0.3025981
00000000: ca75 323e 840b f23e 0b3d e83e e76e 03bf
00000010: 255b c33e 6998 603e 2459 d3be 26e8 6dbe
00000020: 8a32 b73c 755b 92be 6d8b 84be 8b56 66be
00000030: 72b2 e73e d725 b53e e07e 6dbd 584f cdbe
00000040: 4980 a1bd 71c9 62be 5192 de3e 76ed 723e
00000050: 9ff2 01bf bed6 0ebf 385c 143f 3f81 e1be
00000060: 6f37 72bd f364 71be e904 f7be 0d1f 01bf
00000070: fd2f 683d 87aa 0dbe 56ef 83bd 23ee 9a3e

exp_avg f4 [8, 1, 1, 256]
-7.832582e-06 2.885361e-05 6.1709325e-05 9.017037e-05 0.00011676224 0.00014464025 0.00017532682 0.00020932753
0.0002460883 0.00028320367 0.0003180762 0.00034973084 0.00037770017 0.00040028078 0.00041336854 0.00041420793
0.0004033409 0.00038328295 0.0003571637 0.0003269812 0.0002930858 0.00025559386 0.00021555266 0.00017503723
0.00013703959 0.00010374469 7.54796e-05 5.0733426e-05 2.7886972e-05 4.8117176e-06 -2.1450242e-05 -5.2942865e-05
-8.873445e-05 -0.0001273387 -0.00016748575 -0.00020776872 -0.00024435986 -0.00027326442 -0.00029293122 -0.00030317926
-0.00030269753 -0.0002904133 -0.00026830775 -0.00024252075 -0.00021909745 -0.00020049592 -0.00018698924 -0.00017760799
-0.00016977279 -0.00015978863 -0.0001454599 -0.00012612369 -0.00010279524 -7.6522185e-05 -4.916217e-05 -2.2121923e-05
5.5012274e-06 3.510016e-05 6.629414e-05 9.6409625e-05 0.00012266681 0.00014478693 0.00016309034 0.00017708083
0.00018416405 0.00018226472 0.0001711313 0.00015297283 0.00013144045 0.00011008631 9.102943e-05 7.420736e-05
5.9093563e-05 4.6623478e-05 3.7993355e-05 3.3359993e-05 3.2697895e-05 3.5639867e-05 4.1334308e-05 4.922465e-05
5.9598002e-05 7.2176976e-05 8.556075e-05 9.790118e-05 0.00010726909 0.00011239515 0.00011233048 0.0001055805
8.90651e-05 6.022737e-05 1.9400215e-05 -2.8638686e-05 -7.8801284e-05 -0.0001280819 -0.00017557255 -0.00021915704
-0.00025673586 -0.00028594938 -0.00030661369 -0.0003193178 -0.00032550664 -0.00032546555 -0.00031896413 -0.00030693272
-0.00029216465 -0.0002771839 -0.0002635225 -0.00025085508 -0.00023769432 -0.00022262505 -0.00020612382 -0.00018925215
-0.00017247036 -0.0001543232 -0.0001328458 -0.000107786174 -8.1390506e-05 -5.5474513e-05 -2.9831224e-05 -4.4859994e-06
1.9898378e-05 4.2584255e-05 6.4216496e-05 8.485214e-05 0.00010240965 0.00011214831 0.000110609304 9.808884e-05
7.8507794e-05 5.119188e-05 2.428587e-05 -8.5737037e-07 -2.621698e-05 -5.5282904e-05 -8.8629495e-05 -0.00012390132
-0.00015696733 -0.00018479342 -0.00020681828 -0.00022539655 -0.00024342895 -0.0002628822 -0.0002827722 -0.00030028974
-0.0003136091 -0.00032381696 -0.0003314943 -0.0003360863 -0.00033680492 -0.00033434824 -0.00033007137 -0.0003245825
-0.0003173993 -0.0003080465 -0.00029502288 -0.0002772698 -0.00025526845 -0.0002308305 -0.0002050342 -0.00017899368
-0.00015423614 -0.00013286316 -0.00011599659 -0.00010362956 -9.546065e-05 -9.135062e-05 -9.072892e-05 -9.1834285e-05
-9.301903e-05 -9.3604474e-05 -9.29997e-05 -8.9702735e-05 -8.227466e-05 -7.1345414e-05 -5.965763e-05 -4.939178e-05
-4.146492e-05 -3.741826e-05 -3.7547714e-05 -3.978258e-05 -4.1250576e-05 -3.977896e-05 -3.3354645e-05 -2.1336238e-05
-4.364122e-06 1.5803407e-05 3.560607e-05 5.0797506e-05 5.8832116e-05 6.0270548e-05 5.7747035e-05 5.3360593e-05
4.8806356e-05 4.4375833e-05 3.9313065e-05 3.3444172e-05 2.72815e-05 2.1564225e-05 1.7516386e-05 1.5695934e-05
1.48476975e-05 1.17420095e-05 2.9532546e-06 -1.2224651e-05 -3.2112224e-05 -5.534541e-05 -8.197109e-05 -0.00011213215
-0.00014375214 -0.00017286486 -0.00019565782 -0.00021023775 -0.0002181818 -0.00022189762 -0.0002223274 -0.0002182045
-0.00020887361 -0.0001957925 -0.00018182024 -0.00016894154 -0.00015710697 -0.00014309159 -0.00012150881 -8.8610344e-05
-4.621299e-05 -6.770118e-07 4.263844e-05 8.3350984e-05 0.00012448138 0.0001676618 0.00021075747 0.00025041244
0.00028525855 0.000315051 0.0003406341 0.0003617339 0.0003765433 0.00038362198 0.0003836786 0.0003758205
0.00035801218 0.0003294535 0.0002926933 0.0002515523 0.00020859053 0.00016388013 0.00011806165 7.2458366e-05
2.8971039e-05 -1.18327425e-05 -5.1423456e-05 -9.305742e-05 -0.00013694575 -0.00017965608 -0.00021677835 -0.00024619713
00000000: af68 03b7 a80a f237 f169 8138 d919 bd38
00000010: 40de f438 92aa 1739 efd7 3739 ee7e 5b39
00000020: 6a05 8139 f47a 9439 77c3 a639 145c b739
00000030: 0f06 c639 c7dc d139 63b9 d839 0c2a d939
00000040: 8077 d339 5ef3 c839 b341 bb39 ac6e ab39
00000050: 4fa9 9939 3a01 8639 fa05 6239 338a 3739
00000060: 49b2 0f39 8291 d938 cd4a 9e38 9aca 5438
00000070: d1ee e937 5774 a136 0bf0 b3b7 f80e 5eb8
00000080: f216 bab8 3986 05b9 1d9f 2fb9 7edc 59b9
00000090: 6d1d 80b9 ee44 8fb9 9094 99b9 08f4 9eb9
000000a0: 60b3 9eb9 9d42 98b9 a8ab 8cb9 2b4d 7eb9
000000b0: 86bd 65b9 373c 52b9 8b12 44b9 483c 3ab9
000000c0: 0905 32b9 ef8c 27b9 9886 18b9 1240 04b9
000000d0: c693 d7b8 897a a0b8 7a33 4eb8 7892 b9b7
000000e0: 2f97 b836 8338 1338 6507 8b38 862f ca38
000000f0: 1fa0 0039 f2d1 1739 3b03 2b39 c6ae 3939
00000100: 291c 4139 501e 3f39 b571 3339 5567 2039
00000110: 47d3 0939 23de e638 0ee7 be38 c69f 9b38
00000120: 3bdb 7738 948d 4338 0e5b 1f38 05ec 0b38
00000130: 1925 0938 047c 1538 605e 2d38 9176 4e38
00000140: def8 7938 b85d 9738 146f b338 4c50 cd38
00000150: a7f5 e038 b0b5 eb38 f892 eb38 196b dd38
00000160: 76c8 ba38 a59c 7c38 a5bd a237 1c3d f0b7
00000170: 1e42 a5b8 b94d 06b9 e619 38b9 85cd 65b9
00000180: 819a 86b9 7aeb 95b9 fec0 a0b9 1c6a a7b9
00000190: c3a8 aab9 3fa3 aab9 a43a a7b9 d0eb a0b9
000001a0: ad2d 99b9 fe52 91b9 6429 8ab9 3385 83b9
000001b0: 953d 79b9 7570 69b9 f122 58b9 fd71 46b9
000001c0: 29d9 34b9 d2d1 21b9 864c 0bb9 430b e2b8
000001d0: 32b0 aab8 4ead 68b8 113e fab7 7186 96b6
000001e0: 71eb a637 7f9c 3238 f8ab 8638 a5f2 b138
000001f0: c3c4 d638 2a31 eb38 ebf6 e738 0cb5 cd38
00000200: 8da4 a438 ddb6 5638 82b9 cb37 0b26 66b5
00000210: 89ec dbb7 91df 67b8 99de b9b8 82eb 01b9
00000220: 9997 24b9 1bc5 41b9 5cdd 58b9 6d58 6cb9
00000230: f640 7fb9 74d3 89b9 0b41 94b9 3570 9db9
00000240: e76b a4b9 fac5 a9b9 69cc adb9 bd34 b0b9
00000250: 3195 b0b9 764b afb9 6e0d adb9 ba2c aab9
00000260: 9d68 a6b9 4d81 a1b9 4dad 9ab9 865e 91b9
00000270: 8dd5 85b9 170b 72b9 73fe 56b9 40b0 3bb9
00000280: 73ba 21b9 2f51 0bb9 3243 f3b8 b253 d9b8
00000290: 0c32 c8b8 7e93 bfb8 b845 beb8 2897 c0b8
000002a0: 3613 c3b8 854d c4b8 d508 c3b8 ca1e bcb8
000002b0: df8a acb8 479f 95b8 e438 7ab8 052a 4fb8
000002c0: 9eea 2db8 8df1 1cb8 8d7c 1db8 38dc 26b8
000002d0: 7804 2db8 55d8 26b8 47e6 0bb8 39fb b2b7
000002e0: 866f 92b6 8f91 8437 ba57 1538 680f 5538
000002f0: 81c2 7638 02cb 7c38 6835 7238 80cf 5f38
00000300: 6db5 4c38 3020 3a38 15e4 2438 6846 0c38
00000310: 93da e437 d2e4 b437 27f0 9237 c3aa 8337
00000320: 601a 7937 8cff 4437 8730 4636 7a18 4db7
00000330: 3db0 06b8 ae22 68b8 e5e7 abb8 7d28 ebb8
00000340: 2cbc 16b9 0f43 35b9 7f29 4db9 4473 5cb9
00000350: bbc7 64b9 30ad 68b9 8f20 69b9 d3cd 64b9
00000360: 1505 5bb9 a64d 4db9 00a7 3eb9 e625 31b9
00000370: 15bd 24b9 db0a 16b9 8cd2 feb8 51d4 b9b8
00000380: d2d4 41b8 e6bb 35b5 add6 3238 b8cc ae38
00000390: 3787 0239 5fce 2f39 c7fe 5c39 ca49 8339
000003a0: c18e 9539 6e2d a539 2397 b239 1aa7 bd39
000003b0: c96a c539 df20 c939 7828 c939 c609 c539
000003c0: 95b3 bb39 80ba ac39 a174 9939 c7e2 8339
000003d0: 18b9 5a39 3dd7 2b39 de97 f738 caf4 9738
000003e0: d506 f337 3e85 46b7 84af 57b8 d227 c3b8
000003f0: 1899 0fb9 1062 3cb9 ff4e 63b9 0514 81b9

exp_avg_sq f4 [8, 1, 1, 256]
3.9866512e-07 3.875372e-07 3.7781197e-07 3.7214406e-07 3.7205155e-07 3.77256e-07 3.8565256e-07 3.9303154e-07
3.9571063e-07 3.925753e-07 3.8343816e-07 3.702569e-07 3.566162e-07 3.4642844e-07 3.396919e-07 3.35073e-07
3.3140307e-07 3.2843695e-07 3.278893e-07 3.3002433e-07 3.337524e-07 3.3685532e-07 3.3717745e-07 3.351514e-07
3.3354254e-07 3.3456527e-07 3.390322e-07 3.4709154e-07 3.5819158e-07 3.7101492e-07 3.845297e-07 3.9774304e-07
4.1078468e-07 4.2483828e-07 4.3739263e-07 4.443936e-07 4.4449217e-07 4.3887863e-07 4.3033455e-07 4.2000855e-07
4.0879212e-07 3.9771737e-07 3.872434e-07 3.7736558e-07 3.6815993e-07 3.5913013e-07 3.495883e-07 3.3864458e-07
3.274928e-07 3.1834333e-07 3.1325825e-07 3.1232634e-07 3.1530521e-07 3.2245998e-07 3.3355195e-07 3.466067e-07
3.579659e-07 3.6380743e-07 3.6203667e-07 3.5548345e-07 3.4934826e-07 3.4579114e-07 3.4337785e-07 3.4187784e-07
3.4202375e-07 3.4371334e-07 3.4610434e-07 3.493257e-07 3.5502464e-07 3.6308091e-07 3.7245752e-07 3.80451e-07
3.8661452e-07 3.9187339e-07 3.963717e-07 4.0224558e-07 4.1273663e-07 4.2697633e-07 4.432439e-07 4.5799877e-07
4.6887558e-07 4.7344056e-07 4.711497e-07 4.625603e-07 4.4913634e-07 4.3291783e-07 4.166418e-07 3.9937174e-07
3.7968974e-07 3.5868473e-07 3.398433e-07 3.271525e-07 3.2438803e-07 3.3357787e-07 3.538712e-07 3.8259248e-07
4.170621e-07 4.5471828e-07 4.923516e-07 5.2862816e-07 5.6260967e-07 5.9055543e-07 6.0838477e-07 6.1439374e-07
6.0914584e-07 5.9205934e-07 5.648817e-07 5.304943e-07 4.9253015e-07 4.54151e-07 4.179959e-07 3.8622372e-07
3.6095085e-07 3.437691e-07 3.3643445e-07 3.4178015e-07 3.621942e-07 3.9723983e-07 4.4296107e-07 4.953281e-07
5.515317e-07 6.072258e-07 6.572461e-07 6.986897e-07 7.319502e-07 7.573337e-07 7.7042097e-07 7.682072e-07
7.511349e-07 7.1723383e-07 6.7817774e-07 6.401372e-07 6.050209e-07 5.7290464e-07 5.418731e-07 5.135816e-07
4.9145933e-07 4.7775325e-07 4.758002e-07 4.847985e-07 4.998133e-07 5.162524e-07 5.3222783e-07 5.4610564e-07
5.569996e-07 5.6543223e-07 5.7052233e-07 5.7114596e-07 5.6722314e-07 5.605154e-07 5.518385e-07 5.416028e-07
5.2999536e-07 5.1824895e-07 5.0627835e-07 4.9306493e-07 4.7896145e-07 4.668182e-07 4.5982836e-07 4.6036706e-07
4.6798925e-07 4.8010025e-07 4.923151e-07 5.028936e-07 5.1118155e-07 5.1662505e-07 5.188058e-07 5.176912e-07
5.1247554e-07 5.0181495e-07 4.8656943e-07 4.6908255e-07 4.517931e-07 4.360568e-07 4.210747e-07 4.0713505e-07
3.95452e-07 3.8698255e-07 3.801969e-07 3.732011e-07 3.6549696e-07 3.5796984e-07 3.509423e-07 3.452979e-07
3.419598e-07 3.4117687e-07 3.428774e-07 3.4625745e-07 3.4961457e-07 3.5109989e-07 3.495194e-07 3.4532556e-07
3.3981942e-07 3.343139e-07 3.3013254e-07 3.2899902e-07 3.3190017e-07 3.3833007e-07 3.46491e-07 3.5304407e-07
3.5386668e-07 3.4967536e-07 3.4448829e-07 3.4191945e-07 3.426144e-07 3.4533727e-07 3.4803614e-07 3.4988744e-07
3.511943e-07 3.5218235e-07 3.5307335e-07 3.5397767e-07 3.5486786e-07 3.562423e-07 3.5810055e-07 3.5947386e-07
3.5886978e-07 3.5566748e-07 3.50951e-07 3.4657373e-07 3.4326712e-07 3.407651e-07 3.3867633e-07 3.3717146e-07
3.3642067e-07 3.35605e-07 3.3399235e-07 3.3199396e-07 3.303023e-07 3.291916e-07 3.2832818e-07 3.284059e-07
3.2999077e-07 3.3263174e-07 3.35812e-07 3.3963403e-07 3.4419006e-07 3.490977e-07 3.5365818e-07 3.5702433e-07
3.5852113e-07 3.576085e-07 3.5343203e-07 3.4582075e-07 3.3577896e-07 3.256637e-07 3.1746308e-07 3.1279802e-07
3.1198454e-07 3.1357362e-07 3.1650197e-07 3.202073e-07 3.2442134e-07 3.3019552e-07 3.398114e-07 3.5423164e-07
00000000: 1e08 d634 b50e d034 15d6 ca34 17cb c734
00000010: 60be c734 ab89 ca34 af0b cf34 d801 d334
00000020: 0e72 d434 23c3 d234 57db cd34 b9c7 c634
00000030: f574 bf34 c3fc b934 e65e b634 15e4 b334
00000040: b1eb b134 0854 b034 c308 b034 332e b134
00000050: 952e b334 0bd9 b434 5105 b534 dcee b334
00000060: bd11 b334 4d9e b334 3b04 b634 e657 ba34
00000070: 7a4d c034 e72f c734 5c71 ce34 6389 d534
00000080: d189 dc34 5415 e434 c9d2 ea34 fe94 ee34
00000090: 8aa2 ee34 059f eb34 bb08 e734 897d e134
000000a0: f677 db34 dc85 d534 54e6 cf34 bb98 ca34
000000b0: 84a7 c534 78ce c034 0daf bb34 f5ce b534
000000c0: 45d2 af34 c6e8 aa34 e32d a834 cead a734
000000d0: 3847 a934 901e ad34 0813 b334 4315 ba34
000000e0: 752e c034 5051 c334 f15d c234 46d9 be34
000000f0: 0f8e bb34 2ca5 b934 7e59 b834 558b b734
00000100: 639f b734 9a87 b834 38d0 b934 f58a bb34
00000110: 379a be34 76ed c234 2cf6 c734 ca40 cc34
00000120: e58f cf34 ab62 d234 e9cc d434 36f4 d734
00000130: 1796 dd34 2e3b e534 faf6 ed34 dfe2 f534
00000140: c5b9 fb34 2d2d fe34 52f2 fc34 ce55 f834
00000150: d420 f134 c66b e834 d0ae df34 3c69 d634
00000160: 29d8 cb34 4191 c034 b573 b634 7fa3 af34
00000170: 8d27 ae34 9816 b334 b0fb bd34 1c67 cd34
00000180: 94e8 df34 0120 f434 252a 0435 0de7 0d35
00000190: 3e06 1735 a986 1e35 e24f 2335 d1ec 2435
000001a0: 2f84 2335 02ee 1e35 60a2 1735 4a67 0e35
000001b0: 6a36 0435 0ad2 f334 eb68 e034 2f5a cf34
000001c0: b5c8 c134 448f b834 339f b434 e87d b734
000001d0: 9873 c234 3a44 d534 1bd0 ed34 b0f6 0435
000001e0: f80c 1435 3d00 2335 9c6d 3035 978d 3b35
000001f0: 3c7b 4435 934b 4b35 edce 4e35 cc36 4e35
00000200: 99a1 4935 ef87 4035 050c 3635 e5d5 2b35
00000210: b868 2235 b5c9 1935 3c75 1135 0fdd 0935
00000220: d4ec 0335 f43e 0035 7b71 ff34 1923 0235
00000230: e92a 0635 9894 0a35 6bde 0e35 1898 1235
00000240: b984 1535 35c8 1735 ff25 1935 da50 1935
00000250: 4743 1835 5376 1635 0e22 1435 a962 1135
00000260: 0145 0e35 cc1d 0b35 2fe7 0735 2a5b 0435
00000270: fb91 0035 019f fa34 54de f634 5e28 f734
00000280: f43f fb34 3de0 0035 a327 0435 96fe 0635
00000290: 2138 0935 34ae 0a35 1044 0b35 78f7 0a35
000002a0: 0d91 0935 76b4 0635 cc9c 0235 37d6 fb34
000002b0: f98d f234 311b ea34 1110 e234 3794 da34
000002c0: 824e d434 7ac2 cf34 dd1d cc34 5e5c c834
000002d0: 8539 c434 002f c034 2469 bc34 6261 b934
000002e0: 9996 b734 fe2a b734 b614 b834 43e5 b934
000002f0: a9b2 bb34 cd7e bc34 95a5 bb34 2f65 b934
00000300: 6d70 b634 c17b b334 123d b134 48a1 b034
00000310: 0330 b234 bba3 b534 5c05 ba34 028a bd34
00000320: 11fb bd34 04bb bb34 1cf2 b834 0d91 b734
00000330: 91f0 b734 cb66 b934 b9d9 ba34 2ad8 bb34
00000340: c78b bc34 9313 bd34 088e bd34 520a be34
00000350: ab84 be34 9241 bf34 f740 c034 b6fd c034
00000360: b0aa c034 91f2 be34 576a bc34 bb10 ba34
00000370: 464a b834 66f2 b634 52d3 b534 7e04 b534
00000380: 4e9d b434 332d b434 8f4f b334 e73c b234
00000390: 6754 b134 c0bb b034 1545 b034 c34f b034
000003a0: 9629 b134 8f94 b234 a649 b434 f256 b634
000003b0: 1fc9 b834 9f6b bb34 69de bd34 0dad bf34
000003c0: c57a c034 57fd bf34 54bf bd34 3ea9 b934
000003d0: 1c45 b434 e1d6 ae34 cb6f aa34 a2ee a734
000003e0: d47e a734 3b59 a834 b3eb a934 f5e8 ab34
000003f0: 212c ae34 ba45 b134 536f b634 3a2d be34

exp_avg f4 [8]
-5.344232e-09 2.3399458e-09 -4.9924265e-09 3.5610834e-10 -5.163308e-08 9.305599e-09 -6.288679e-08 7.288504e-09
00000000: 5da0 b7b1 c3cc 2031 d989 abb1 cbc5 c32f
00000010: 2cc3 5db3 75de 1f32 610c 87b3 5c6e fa31

exp_avg_sq f4 [8]
7.245427e-15 2.2222587e-15 3.1441922e-15 1.1220312e-14 9.830342e-15 9.168449e-16 4.112773e-15 1.2250177e-15
00000000: a285 0228 7021 2027 1c90 6227 8e20 4a28
00000010: 7316 3128 9b21 8426 a32d 9427 2d8b b026

exp_avg f4 [8]
-3.1993558e-10 1.2976866e-09 5.4097e-10 -9.7261255e-11 -8.2026297e-10 -1.02533676e-10 3.9623247e-09 2.1730556e-10
00000000: eee2 afaf 4a5a b230 61b3 1430 38e1 d5ae
00000010: e078 61b0 5479 e1ae fa24 8831 14ee 6e2f

exp_avg_sq f4 [8]
1.8107238e-18 1.9374075e-18 4.2372223e-19 7.055338e-18 1.2017499e-17 2.036518e-19 8.488953e-18 3.395176e-19
00000000: 9b9b 0522 98f4 0e22 181f fa20 e425 0223
00000010: 09af 5d23 fb6d 7020 f297 1c23 736a c820
