model/all_subjects_20240208_105943/model.pt (torch, 65706 bytes, 17 tensors)

net.conv.weight f4 [8, 1, 1, 256]
00000000: d385 1dbd d9a0 e3bc 00c2 4ebe 2c21 0dbf
00000010: 2354 43bf 321e 5cbf 28d5 39bf d319 00bf
00000020: 5578 c9bb 6a12 fd3e 9c2e 383f c8f8 5d3f
00000030: 1f0f 383f 5a31 a53e d8d9 ccbd 6987 1fbf
00000040: bf44 67bf fb06 5cbf 0634 1cbf cf55 16be
00000050: b5c7 893e 8d60 de3e 9fca e53e d877 b53e
00000060: c663 cfbc 125e 11bf a730 6bbf 7450 72bf
00000070: 84cb 6cbf 31d9 01bf 021f 13be ddb6 533e
00000080: 86f0 f33e a247 b73e 0f3f 093e 1cb4 9ebd
00000090: a3cf adbe 0488 d1be bd20 4cbe 8257 08bd
000000a0: 5949 b83e 1f57 113f d8e4 1d3f 83a9 e43e
000000b0: cc23 f33d d014 a6be 90ca 20bf 317a 32bf
000000c0: f565 05bf 1f01 5ebe a935 843e 3725 173f
000000d0: cc14 213f 7998 ea3e 344a e0ba ee25 fbbe
000000e0: e5da 63bf a213 87bf 4961 78bf d123 14bf
000000f0: 4dda 12be 77c1 e93e 98c2 443f 261d 743f
00000100: 51ec 4b3f 9209 b03e 8b07 d1bd d560 90be
00000110: c61f febe 9b86 a0be 238a 7cbc abfb af3e
00000120: 81d4 ff3e 9f78 083f 7ba1 913e 9b8e f8bc
00000130: 1a76 9dbe 9545 cdbe 7e39 bbbe 91e1 5fbe
00000140: c075 513e 267a 063f ab44 513f 2f6b 4d3f
00000150: a034 1b3f 5b69 a93e a371 653d c151 78be
00000160: cb68 b3be bcd1 6bbe eb96 a83b 9fa0 c63e
00000170: 4901 1e3f d767 393f 90ed 083f 4ff1 733e
00000180: 194c 47bd 3f59 a9be 4f98 abbe 5e09 8bbe
00000190: a776 373e 9e17 0b3f 8818 7a3f aa8e 7e3f
000001a0: 086e 503f aa26 a13e 0be5 4abe 834f 26bf
000001b0: c16a 45bf 8cc5 40bf e0c1 cfbe dd30 a73d
000001c0: 2093 143f ae73 693f 43db 643f 3298 083f
000001d0: 301a 043d 796f f6be fbeb 5fbf e6ba 71bf
000001e0: 9833 5bbf 3f7d dcbe e35d 05ba 3011 f43e
000001f0: 7083 2f3f 4a4e 083f d063 303e 481e 6bbe
00000200: d8f4 44bf 0529 99bf 5545 a2bf d0ca 82bf
00000210: e24a 1bbf b90f 82be fe65 83bc 731b 773d
00000220: 9027 96bd c619 aabe d68d 08bf 2d37 08bf
00000230: 2337 c2be 1d1a 1e3d cd4c 8f3e 5f92 fe3e
00000240: a849 ee3e 5851 683e f10f 25be 9fbb 4dbf
00000250: cfff a1bf 2315 b0bf 3695 88bf 56d7 e3be
00000260: 885a 823e 02f5 823f bc2e ad3f 8149 b03f
00000270: 0b13 8c3f 427b 153f 5b93 60be 6d71 41bf
00000280: d1be 79bf 0733 5fbf 5ede f7be 1d05 b2bb
00000290: ed49 c93e 6505 143f 0ff7 353f 28d7 073f
000002a0: 922d 003e 58e6 b3bd 6253 6ebe 4f97 8bbe
000002b0: a839 67bc d4b2 813e 019d 203f 6210 4f3f
000002c0: b645 343f 55b5 053f de5d 653e ee2c fabc
000002d0: 0e1e b6bd 8a71 29bc fb16 553e 77c4 1d3f
000002e0: 6605 623f eb4f 843f d064 603f 68fa db3e
000002f0: ecde 18be c4dd 06bf a5d2 33bf edb5 2fbf
00000300: c4e9 d0be cf7e 04bd bf23 8f3e 29ed af3e
00000310: 7b73 973e 488e e8bd a1ef 14bf 4234 86bf
00000320: 7c95 a4bf e24e 98bf 56a6 5cbf b8f3 c3be
00000330: 59c4 993e 1ae8 313f 03a9 693f c9cc 633f
00000340: 4e79 3e3f 5c33 c93e 9141 58bd e656 76be
00000350: cc30 96be 4ae6 47be f573 b83d 52e9 a03e
00000360: add0 d03e d43f 9a3e cbc9 8dbd 5844 d2be
00000370: c8fa 4cbf ded4 74bf 76e6 57bf 0785 13bf
00000380: 9dbd 0ebe e01d fe3d 6223 da3e 5cad df3e
00000390: 19ce 823e 194d e6bc 373d bcbe b76f f6be
000003a0: 1089 d3be 8b16 29be f60f 663e b8bf 2b3f
000003b0: c3e5 703f 5e48 853f 77ae 4c3f de26 ef3e
000003c0: a120 493d 1ac4 15be e768 88be 7bed b7bd
000003d0: d0b3 c83d 0f52 f73e 527d 483f 2130 553f
000003e0: 21ac 363f 6a8c 993e b987 0abe c11c 16bf
000003f0: 5dd2 48bf d25b 66bf 5307 34bf 24f1 c0be
-0.038457703 -0.02778666 -0.20191193 -0.5512874 -0.7630026 -0.85983574 -0.72590876 -0.50039405
-0.006148378 0.4942811 0.7194612 0.86707735 0.7189807 0.32264215 -0.10002488 -0.62315995
-0.90339273 -0.8594815 -0.6101688 -0.14681171 0.26910177 0.43433037 0.4488115 0.35442996
-0.02531613 -0.56784165 -0.9187111 -0.9465401 -0.9249804 -0.5072203 -0.14367297 0.20675226
0.47644442 0.3579684 0.13402961 -0.07749197 -0.33947477 -0.40924084 -0.19934364 -0.03328658
0.3599346 0.5677356 0.6167731 0.44660577 0.11872062 -0.32437754 -0.62809086 -0.697177
-0.521087 -0.21680115 0.2582219 0.5904116 0.6292236 0.45819452 -0.0017111958 -0.49052376
-0.8900588 -1.0552866 -0.97023445 -0.5786715 -0.14341088 0.45655414 0.76859426 0.95356977
0.79657465 0.34382302 -0.10206517 -0.28198877 -0.49633616 -0.31352696 -0.015413794 0.34371695
0.49966815 0.53309053 0.28443512 -0.030341437 -0.30754167 -0.4009215 -0.365673 -0.2186339
0.20455074 0.52530134 0.81745404 0.80241674 0.60627174 0.33088192 0.056016576 -0.24249937
-0.35040888 -0.23029226 0.005144944 0.3879442 0.6172071 0.7242407 0.5348749 0.2382252
-0.048656557 -0.33075902 -0.3351464 -0.27155584 0.17916356 0.5433291 0.9769368 0.9943644
0.81417894 0.3147481 -0.19813935 -0.64965075 -0.7711602 -0.7530143 -0.40577602 0.08163617
0.58036995 0.9119214 0.89397067 0.5335723 0.032251537 -0.48131922 -0.8746945 -0.9442581
-0.856256 -0.43064305 -0.00050875376 0.47669363 0.6855993 0.5324446 0.17225575 -0.2296077
-0.769361 -1.1965643 -1.2677408 -1.0218143 -0.6066114 -0.2540262 -0.016039845 0.060328912
-0.07331765 -0.3322279 -0.53341424 -0.5320919 -0.3793269 0.038599122 0.27988282 0.49721047
0.4654057 0.2268728 -0.16119362 -0.8036441 -1.2656192 -1.375645 -1.0670536 -0.44500226
0.25459695 1.023102 1.3529887 1.3772432 1.0943311 0.583912 -0.21931212 -0.755637
-0.9755679 -0.87187237 -0.4841184 -0.0054327385 0.39314213 0.5782073 0.71080106 0.5306268
0.12517384 -0.08784169 -0.23273996 -0.27263877 -0.014112867 0.25331748 0.6273957 0.80884373
0.7041887 0.52229816 0.22399089 -0.030539002 -0.08892451 -0.010342011 0.20809548 0.61627907
0.8828949 1.0336889 0.8765383 0.42964482 -0.14928788 -0.5268214 -0.70243293 -0.6863697
-0.4080335 -0.032347497 0.2795696 0.34360626 0.29580292 -0.11355263 -0.58178145 -1.0484698
-1.2858119 -1.1899073 -0.8619131 -0.3827188 0.30032614 0.69494784 0.91273516 0.8898435
0.74403846 0.39296997 -0.052796904 -0.24056587 -0.29334104 -0.19521442 0.09006492 0.3142801
0.40784207 0.30126822 -0.069232546 -0.41067767 -0.8007016 -0.9563731 -0.8433603 -0.5762486
-0.13939519 0.12408042 0.4260512 0.4368695 0.25547865 -0.028112935 -0.36765453 -0.48132107
-0.41315508 -0.16512506 0.22467026 0.67089415 0.9410059 1.041271 0.7995371 0.4670934
0.049103383 -0.14625588 -0.26642534 -0.08980843 0.097999215 0.48304793 0.78316224 0.83276564
0.713564 0.2998994 -0.13528337 -0.58637625 -0.7844599 -0.89983857 -0.70323676 -0.37683976

net.bn1.weight f4 [8]
00000000: 550a c23f 48ed c03f 2e13 de3f 13e4 bd3f
00000010: 0b4b f73f 8211 a23f 1f0a c23f ab44 cc3f
1.5159403 1.5072412 1.7349603 1.4835228 1.9319776 1.2661593 1.5159339 1.5958456

net.bn1.bias f4 [8]
00000000: 8c44 4cbe 2648 d5bd 3c0b 4d3d 6fb7 7bbe
00000010: 6340 55bd 2a72 383d d6f8 533d ca19 4abe
-0.19948024 -0.10414152 0.050059542 -0.24581693 -0.052063357 0.04503075 0.05175098 -0.197364

net.bn1.running_mean f4 [8]
00000000: 1b83 26ba 5158 1e39 66d3 a539 dfb6 8239
00000010: 2512 c0ba 8e19 5a3a 0745 a63a b3c1 6eba
-0.00063519337 0.00015100955 0.00031628757 0.00024931782 -0.0014653845 0.0008319848 0.0012685367 -0.0009107843

net.bn1.running_var f4 [8]
00000000: af26 3144 3eeb e643 579f 3a44 5ee3 3d44
00000010: 652c 3344 1e15 1444 bf25 4344 4012 4a44
708.60443 461.83783 746.4897 759.5526 716.69366 592.32996 780.5898 808.28516

net.depth_conv.weight f4 [16, 1, 32, 1]
00000000: ab2e 6c3e cd1f d63e 1be0 1bbe afe9 c43d
00000010: b325 293f daf6 d73e 1bc0 9bbe 3456 283f
00000020: 8f01 f0bd 49a8 e2bf f0f2 afbd dcd2 cb3d
00000030: a0a4 92bf 5b8b 4fbe 6a27 f5bd 7627 ae3e
00000040: e338 313f fbc6 e1bd 4073 00bf 131c 22bf
00000050: cd18 2a3f 4d3a d7be 4831 46bf 7e90 233f
00000060: a1a0 ccbe 9de6 4ebf 6088 be3f c5e7 a9be
00000070: 6410 223e 4d96 703f 5fde f43e 5bde 6dbe
00000080: 6372 99bd 6a43 663e c43d 9d3e e2d5 a8bd
00000090: a0fc bf3f c272 e93e 0d91 03c0 0f33 59bd
000000a0: c3c6 95bf e790 013f 8afe 04bf 4cc7 8abe
000000b0: 2678 49bf e6f4 9ebe 9a19 87be 8e13 853f
000000c0: a7e2 9abe e987 673d ea2f b43d ddfa dabe
000000d0: 3667 5fbd 08a9 8abf 39bc 66bf d844 4cbe
000000e0: c7a1 703f 40e0 3dbf 6873 923f 98ae 833f
000000f0: 2164 943f b493 d3be b52b 3c3d 799d 0f3e
00000100: 9276 8a3d 2b41 4fbd 45cb 8abe 32a0 a43e
00000110: e944 183f a1e0 8b3f 7d62 95bf f944 c4be
00000120: b74f 95bf c0c6 89bd 38d2 bdbe 2864 2b3e
00000130: cb6a c9be d78e 85be 1da2 fe3d ae78 ca3d
00000140: 05a3 7d3f baab 273e 0ab9 5e3e c131 1fbe
00000150: 58a0 4c3f c9e9 2c3d 81ac 803d d9f2 233e
00000160: 4c6b 4d3c 33dd 99bf 5741 473f 1ada d83f
00000170: 3156 e53d aec2 133e cf3e 92bd b363 55be
00000180: 7e5c 373e 885e c6be 107f 77bf bf6f 7e3f
00000190: 9978 e03e b124 69be 1332 94be 0e2b 5fbf
000001a0: 39a2 86be 76b0 d63e 4fc2 0a3f 9be6 ab3e
000001b0: 42bd 493f d771 72bf cf25 ce3d d185 713f
000001c0: c177 983e 8875 ddbe e196 34be 25e3 913f
000001d0: 598a 173f 6235 87be ebe8 613e a6bd 61be
000001e0: 4598 353e 1b9a b2bf 11cc 0bbf 5be4 1e3f
000001f0: b3d0 0e3f 9296 fe3e b0a2 073e b5e8 4bbe
00000200: 8217 ea3d 8c59 bebe 864b 1abf 92a1 78bf
00000210: a691 7dbf 865a 033f 325d ee3e 2dbd cc3f
00000220: c78b 5abf bb6a 843f 8e95 f2be 9464 363e
00000230: 1cef 973e b017 7b3e 7d0d 8bbd f16b 2abe
00000240: 55c4 31be f086 26bf c32f 4abe b8bb 8abe
00000250: e1e0 91bd 47e5 76be 756a c4be 4c97 203f
00000260: 719b 93bd af3d 0ebf de29 a83f 3ff4 ec3e
00000270: 9f6c 18bf b133 513f b525 9abe adf5 8f3e
00000280: eb23 773d e670 863f edbf 263f 8b7d 503e
00000290: e538 f33e 2316 94be 60ac 88bc dba6 7dbf
000002a0: 2d74 483e da64 08c0 00e9 1d3e 9c9f b93d
000002b0: ea81 e13e afac 5f3f 1cae 3abe cff2 eb3d
000002c0: 7db2 3c3e ed31 a53e c534 c93e 0fc2 c83e
000002d0: 03e0 453f a315 13be ee72 15be d0b1 d0bd
000002e0: 3ee3 2cbf 9321 65be 0441 7fbf aacb 03bf
000002f0: 943b e73e 3787 59be 9f57 053f 7730 4dbe
00000300: c755 d6bd e55c 82bf e9f3 91be 0681 8d3e
00000310: 8a91 563e 80d6 503e e03e aebe aaa4 9d3e
00000320: 3593 d53e 3b7b 0b40 7b3e 4a3e a2db c2be
00000330: fce5 33bf 198e a0bf f737 823e 8730 243d
00000340: 7f1b ddbe 32e0 5d3e 5f34 1abf ff47 d3bd
00000350: 4d6a 1ebf 7539 363f 03d1 863e b794 abbd
00000360: 23e6 323f 4b76 163f 9539 f93e a480 d93e
00000370: e672 073e 95ba 12bf a68c e7be 0d22 73be
00000380: b4a5 41bc 0a48 743f a19c 053f e147 523e
00000390: acb4 3d3e da4e dfbe 50e7 1cbb 5725 80bf
000003a0: ae44 2ebe cfbd 0dc0 c3d1 3b3e b0f8 303e
000003b0: 1c5a 3c3f d9f7 7b3f b309 3fbd cae4 debd
000003c0: c200 2f3c 2725 ad3e b606 fe3e fcdd a13d
000003d0: c807 3f3f d9ec 22bf 7dd6 96be 00e4 22bf
000003e0: ef4e c3be 2918 c2be 6af1 62bf 343a 2cbf
000003f0: 8e89 463e b77a d83e 2d25 f73e b88f 463e
0.23064677 0.41821137 -0.15222208 0.09614884 0.6607315 0.4218052 -0.30420002 0.65756536
-0.11719047 -1.7707607 -0.085912585 0.099523276 -1.145649 -0.20268004 -0.11970408 0.3401448
0.6922743 -0.11024281 -0.5017586 -0.6332409 0.66444093 -0.42036667 -0.7741895 0.6389235
-0.399663 -0.8082064 1.4885368 -0.3318464 0.15826565 0.9397934 0.47825906 -0.23229353
-0.07492521 0.22486654 0.30711186 -0.0824392 1.499897 0.45595366 -2.0557282 -0.05302721
-1.1701282 0.5061173 -0.51950896 -0.27105176 -0.78698957 -0.31046218 -0.2638672 1.0396593
-0.30251047 0.0565261 0.087982014 -0.42769518 -0.05454179 -1.0832834 -0.90130955 -0.19948137
0.9399685 -0.74170303 1.1441469 1.0287657 1.1593057 -0.41323626 0.04594012 0.14024915
0.06760897 -0.05059926 -0.27108207 0.3215347 0.5948015 1.0927926 -1.1670681 -0.38333872
-1.1664952 -0.06727362 -0.37074447 0.16737425 -0.3933929 -0.2608554 0.124332644 0.09886299
0.99076873 0.16374102 0.21750274 -0.15546323 0.79932165 0.042215142 0.062829025 0.16010608
0.012537789 -1.202063 0.77834076 1.6941559 0.1119808 0.14429733 -0.07140886 -0.20838813
0.17906377 -0.38743997 -0.96678257 0.9938926 0.4384201 -0.22767903 -0.28944454 -0.8717507
-0.2629564 0.41931504 0.5420274 0.33574376 0.7880441 -0.94704956 0.10065805 0.9434481
0.29778865 -0.43253732 -0.1763568 1.1397444 0.59195477 -0.26407915 0.22061507 -0.22045001
0.17733867 -1.3953279 -0.54608256 0.6206719 0.557872 0.4972425 0.13245654 -0.1991299
0.11430265 -0.37177694 -0.6027149 -0.97121537 -0.99050367 0.5131 0.46555477 1.5995232
-0.85369533 1.0345072 -0.47379726 0.17811805 0.29674613 0.24520755 -0.06789682 -0.16642739
-0.17360051 -0.6504965 -0.19744782 -0.27096343 -0.0712297 -0.241109 -0.3836247 0.6273086
-0.072073825 -0.5556287 1.3137777 0.46280095 -0.5954074 0.817195 -0.30106893 0.28117123
0.06033699 1.0503204 0.65136606 0.20360391 0.47504345 -0.2892314 -0.016683757 -0.99082726
0.19575568 -2.1311555 0.15420914 0.09063646 0.4404443 0.8737287 -0.1823048 0.115209214
0.18427463 0.32264653 0.39298072 0.39210555 0.7729494 -0.14363723 -0.14594623 -0.10190165
-0.67534244 -0.22376089 -0.9970858 -0.5148264 0.45162642 -0.21242987 0.52086824 -0.20038019
-0.104655795 -1.0184599 -0.285064 0.276375 0.20953956 0.20394325 -0.34032345 0.3078969
0.41713873 2.1793964 0.19750397 -0.38058192 -0.70272803 -1.2543365 0.25433323 0.04008534
-0.4318504 0.21667555 -0.6023616 -0.103164665 -0.6188095 0.7118142 0.26331338 -0.083779745
0.6988241 0.5877425 0.48676744 0.42480958 0.13227424 -0.5731595 -0.45224494 -0.23743458
-0.011819292 0.9542242 0.5219212 0.20535232 0.18525952 -0.43614846 -0.0023941584 -1.0011395
-0.17018387 -2.21471 0.18341736 0.17282367 0.73574996 0.9842506 -0.04664011 -0.10883482
0.010681333 0.33817407 0.49614495 0.07903668 0.7462125 -0.6364265 -0.29460517 -0.6362915
-0.3814616 -0.37909058 -0.8864962 -0.6727631 0.1938841 0.42281124 0.4827055 0.19390762

net.bn2.weight f4 [16]
00000000: bb09 f33f 2588 e83f f1ab df3f 36ab db3f
00000010: 3fe5 ec3f 59c8 f13f c31c fd3f 3db7 f43f
00000020: 2fee e43f c265 0540 b61f b23f af8c d53f
00000030: a5be b83f 9a31 cb3f 7d30 c93f 0b5b fc3f
1.8987345 1.8166548 1.7474347 1.7161624 1.850746 1.8889266 1.9774402 1.911842
1.7885188 2.0843358 1.3915927 1.6683558 1.443318 1.5874512 1.5717922 1.9715284

net.bn2.bias f4 [16]
00000000: 7310 e6be 01f1 99be e28e b6be 8bcb b2be
00000010: b76d d9be d874 abbe 4c73 d9be 57b4 e4be
00000020: 848c c6be c69e b3be 84a6 c4be 0f15 ccbe
00000030: 72f6 b2be 17ba efbe 95cc cebe c101 92be
-0.44934425 -0.30066684 -0.35655886 -0.34920916 -0.42466518 -0.33487582 -0.42470777 -0.44668838
-0.3877908 -0.35082072 -0.3840829 -0.39859816 -0.34953648 -0.46821663 -0.4039046 -0.28516963

net.bn2.running_mean f4 [16]
00000000: b2dc 173d d6ac 503e 27d9 44be bac5 3cbe
00000010: 64e9 12bb 1ea4 e63c 1360 ddbd d873 783e
00000020: 2c96 80bd 658e e0bc 7b29 093d 78d8 ed3d
00000030: c7f4 a63d 182b 60bd 4b99 8ebe d04b 0d3d
0.037075706 0.20378432 -0.19223462 -0.18434802 -0.0022416944 0.028154429 -0.1080934 0.24262941
-0.06278643 -0.027411649 0.033486824 0.11613554 0.08152156 -0.054728597 -0.27851328 0.03449613

net.bn2.running_var f4 [16]
00000000: b8b5 8b42 f31d 1a42 111a e841 64a3 1842
00000010: de67 f840 794e 0941 8d0c 3341 9b49 ee40
00000020: 11d9 2241 bbee fd40 f4f5 fd40 8c7b 0a41
00000030: d01f a241 5bbf 8640 0a49 b740 f418 4841
69.85492 38.529247 29.012728 38.15956 7.762679 8.581658 11.190564 7.446485
10.177995 7.935392 7.9362736 8.655163 20.265533 4.210859 5.727666 12.506092

net.point_conv.weight f4 [16, 16, 1, 16]
00000000: 9223 1fbf 8032 26bf f40d 2ebf 9f48 1dbf
00000010: c24f 26bf cb8d 20bf f0cf 2abf bd48 28bf
00000020: a060 15bf 9542 10bf 47c4 cfbe bd1e 9ebe
00000030: dd75 aabe 82d7 0cbf 6fab 3abf d60e 31bf
00000040: 43ce bcbe b710 dbbe b055 e8be 742d febe
00000050: 9222 0bbf b775 13bf 40a4 15bf 835f 11bf
00000060: e606 08bf 8992 2cbf c04d 2dbf 0874 1fbf
00000070: 862f 1ebf 3793 2bbf a758 28bf f169 23bf
00000080: 8f45 e4be 7b55 ccbe 1285 8cbe 5dcb 8dbe
00000090: 1ed2 bcbe 1173 dfbe cf56 2dbf 1bdb 4bbf
000000a0: a1ab 5dbf 18ee 80bf fb9b 70bf d951 41bf
000000b0: 09e2 25bf c516 11bf 7a07 cebe 86c1 ddbe
000000c0: b183 56be c05f 76be de50 2bbe be08 42be
000000d0: 8f98 8fbe b5d6 b9be 6131 c3be c4de e4be
000000e0: f6be efbe c64b eabe b7ea 06bf 5690 01bf
000000f0: 27ba ecbe c66d cfbe 2801 01bf 4a34 20bf
00000100: 031d fb3e dce2 cf3e e22c 0a3f e6cb 063f
00000110: 7677 023f a3bb ec3e e7f4 af3e e440 403e
00000120: bbda 6e3d 462e c53d 062a 493c 23d7 833d
00000130: 2614 0b3e 3bf7 923e 70eb 063f eeb3 2c3f
00000140: 8888 093e 403e 663e b452 8d3e 0d96 ac3e
00000150: c819 ae3e 3c24 173e 017f 403d d173 0fbd
00000160: 0e6b 763c 96e4 98bc d7b1 8d3c b52f 913d
00000170: b384 423e 22ea 743e a0e3 a53e 8629 dc3e
00000180: deef 2b3f d14b 373f e6bf 2f3f 7189 0a3f
00000190: 7781 9d3e 403c 3f3e 9f76 373c 724e 0ebe
000001a0: 3d5a 21bc 8e2b b53d 906a 833e bf55 b83e
000001b0: 22bf 013f c231 c03e 305d 923e a43b 083e
000001c0: 75c9 103f 4a89 073f b415 053f 86ba dc3e
000001d0: 27be 8b3e b681 033d b04d babd 3283 1dbe
000001e0: c74b b1bd 5b3c 5b3e 99a2 b33e bba0 0a3f
000001f0: 1c71 2b3f 97e8 2a3f 678b 363f 3c91 053f
00000200: 66d7 f73e 734e 0d3f f335 2d3f 053f 1d3f
00000210: ae83 123f d4d2 b73e 7e11 683e db4d 6d3e
00000220: 11a9 193e 907a 873d 20a9 0f3d 8f6a 153e
00000230: 0a12 1c3e cc86 413e 25c7 993e f0f1 613e
00000240: 2e67 163f 7870 283f 46d2 3e3f 8b09 2f3f
00000250: e747 003f b6fa d93e c753 993e 6b58 813e
00000260: 6c23 163e 12e4 8e3d 3787 6c3e 5a3f 853e
00000270: f192 c73e fe0f 0e3f c085 273f c1d9 2a3f
00000280: 8e64 70bb cc07 97be b234 dcbe 9878 e4be
00000290: 29a2 16bf 5b4d f7be 4daa cdbe 0f8e 6dbe
000002a0: ee0b 3abd fd42 e4bd de59 1ebe 16ea c4bd
000002b0: 84fb 39be 16fe a4be dca6 94be 3407 c8be
000002c0: 6c28 84be 9efd 6cbe bf93 13bd 65e8 2f3e
000002d0: 1834 d73e 6bf5 1e3f 0773 1e3f 508c ec3e
000002e0: dfe0 c03e e796 5e3e ea8d 8f3c de8a 1bbe
000002f0: 1586 6bbe 0ffc a1bd 934e f33d bd03 6b3e
00000300: 210e c3be ecff fabe 0414 b8be 0fe0 a9bd
00000310: cd03 743e 9e3d 193f da1a 503f d268 753f
00000320: b86d 5d3f d996 3f3f 7e0f 123f 21d0 aa3e
00000330: e25f 0ebc 4bb1 dfbd 83a6 2abe da31 96bd
00000340: d98f 94bd 1d95 6fbd bc67 80bc bacb ccbd
00000350: 3f22 6fbe 9106 afbe a5d4 f4be 61ca 08bf
00000360: 69ff d7be 47c0 acbe 0aef 9bbe 0c86 a7be
00000370: 4334 8ebe 29d2 98be 750c 9bbe bfd1 dabe
00000380: b488 30be b473 04be 2fc0 51be 4df5 81be
00000390: 157d 98be b1dc bfbe 2844 aabe fafd cfbe
000003a0: 4d69 c6be 9e73 c7be 4782 acbe f3b9 b2be
000003b0: 3435 e8be 6730 e0be 4bcd 07bf 6a5f 00bf
000003c0: de01 a13c f48b 4fbe ec4e 79be 61dc abbb
000003d0: de2f 6e3e 7831 ff3e cdb0 1d3f 5318 163f
000003e0: a230 d53e 35b1 a43e 4f55 593e 1675 b4bc
000003f0: 9e6b 5dbe 6284 99be a910 2cbe b844 b6bd
-0.6216365 -0.64920807 -0.6799004 -0.61438936 -0.6496545 -0.6271636 -0.6672354 -0.6573599
-0.58350563 -0.56351596 -0.40579435 -0.30882826 -0.33293048 -0.5501634 -0.72917837 -0.6916326
-0.36876115 -0.4278619 -0.45377874 -0.49644053 -0.54349625 -0.57601494 -0.5845375 -0.56786364
-0.53135526 -0.67411095 -0.6769676 -0.62286425 -0.61791265 -0.6702151 -0.6576027 -0.6383353
-0.4458432 -0.39908966 -0.27445275 -0.27694216 -0.36879057 -0.43642476 -0.67710584 -0.79631203
-0.8659001 -1.007266 -0.9398801 -0.75515515 -0.6479803 -0.5667537 -0.4024008 -0.4331171
-0.20948674 -0.24059963 -0.16730067 -0.18948647 -0.2804608 -0.3629662 -0.3812361 -0.44701207
-0.4682538 -0.45760936 -0.52701896 -0.50610864 -0.46235773 -0.40513438 -0.5039239 -0.62579787
0.49045572 0.40602767 0.53974736 0.52654874 0.5096353 0.46236905 0.34366533 0.18774754
0.058314066 0.096279666 0.012278086 0.064375184 0.13581905 0.28704247 0.52703 0.6746205
0.13430989 0.22484684 0.2760216 0.3370823 0.34004045 0.14759916 0.04699612 -0.03502256
0.015040172 -0.018663686 0.017296715 0.070891775 0.18995933 0.2391744 0.32400227 0.4300043
0.67162883 0.7160006 0.6865219 0.5411597 0.30762836 0.18675327 0.011197715 -0.13897112
-0.009848175 0.08846198 0.25667238 0.3600292 0.5068227 0.37537962 0.2858672 0.13304001
0.565574 0.5294386 0.5198624 0.43111056 0.27293512 0.032106124 -0.09096849 -0.15382078
-0.086570315 0.21409743 0.3508499 0.54151505 0.66969466 0.66761154 0.7130646 0.52174735
0.48406523 0.5519783 0.67660445 0.61424285 0.5723218 0.35903037 0.22662923 0.23174231
0.150059 0.06615174 0.0350734 0.1459143 0.15241256 0.18899077 0.30034748 0.22064948
0.5875119 0.65796614 0.745396 0.68373936 0.50109714 0.4257409 0.2994673 0.2526277
0.1466195 0.06977095 0.23098455 0.26024896 0.38979295 0.5549315 0.6543846 0.66738516
-0.003668103 -0.29498136 -0.43008953 -0.44623256 -0.58841187 -0.48301205 -0.40168992 -0.23198722
-0.045421533 -0.111455895 -0.15463969 -0.09614961 -0.18162352 -0.32225102 -0.29033554 -0.39067996
-0.2581209 -0.23143622 -0.036029574 0.17178495 0.42031932 0.6209323 0.6189427 0.462008
0.37671563 0.21737252 0.017523725 -0.15189692 -0.23000367 -0.079094045 0.11880221 0.22950645
-0.38096717 -0.49023378 -0.3595277 -0.08294689 0.23829575 0.59859645 0.8129097 0.9586307
0.8649554 0.7483955 0.5705489 0.33361915 -0.008689852 -0.10922488 -0.16665082 -0.07333727
-0.07253999 -0.058491815 -0.015674464 -0.09999795 -0.23352908 -0.34184697 -0.47818485 -0.53433806
-0.4218705 -0.33740446 -0.3045581 -0.32719457 -0.27774248 -0.2984784 -0.3028294 -0.4273815
-0.17239648 -0.12934762 -0.20483468 -0.25382462 -0.2978293 -0.37473062 -0.33255124 -0.40623456
-0.38752213 -0.38955396 -0.33693144 -0.34907493 -0.4535309 -0.43786928 -0.5304763 -0.5014559
0.01965421 -0.20268232 -0.24346513 -0.005244777 0.23260447 0.4984243 0.615979 0.58630866
0.41638666 0.32166448 0.21223949 -0.022028487 -0.21623084 -0.29983813 -0.1680323 -0.08899826

net.bn3.weight f4 [16]
00000000: f2fa 963f 81ed 9c3f de82 b63f 805c 0840
00000010: 4a87 a73f bf91 da3f 09cd 9e3f 1dbc f43f
00000020: 3dbb 993f 1272 4f3f 220c cf3f 9a39 b43f
00000030: e9ee a93f 6d8e a53f ab8c 943f 2448 eb3f
1.1795332 1.225998 1.4258687 2.1306458 1.3088162 1.7075728 1.2406322 1.9119908
1.2010266 0.8103343 1.6175578 1.4080079 1.3276035 1.293409 1.1605428 1.838139

net.bn3.bias f4 [16]
00000000: 47e6 41be f0c4 51bd afda 56be 6c52 1fbf
00000010: 96d1 f2bc e03f cebe a9ab 00bd 32c2 d2be
00000020: 63b5 9ebe 4b02 443e 5667 eabe 91ec 85be
00000030: 4764 17be 6391 5cbe 4089 cd3b d851 febe
-0.189355 -0.051213205 -0.20981859 -0.6223514 -0.029640954 -0.40283108 -0.031413708 -0.41163784
-0.30997762 0.191415 -0.45781964 -0.26157048 -0.14784347 -0.21539836 0.006272465 -0.49671817

net.bn3.running_mean f4 [16]
00000000: 14cd 8f3f 17bb 4340 b402 3a3f a3f4 cdc0
00000010: 194b d740 355f c2c0 b0b6 5140 3c1e efc0
00000020: 226f a5bf bbad b240 e98f b0c0 f39b 44c0
00000030: 6a76 4840 60a7 efbf 9d15 8340 6296 aec0
1.123446 3.058294 0.72660375 -6.436113 6.727917 -6.074122 3.2767754 -7.4724407
-1.292454 5.5837073 -5.517567 -3.0720184 3.1322274 -1.8722954 4.0963883 -5.4558573

net.bn3.running_var f4 [16]
00000000: 8478 c843 12e8 0044 9979 dd43 15f0 1344
00000010: 09c0 eb43 0d8e 4044 ca9f f643 4492 5a44
00000020: 1ff7 e443 bb1b ad43 910c 3c44 d068 0e44
00000030: 458d fa43 ac1e cd43 f745 f443 623f 4744
400.94153 515.6261 442.94998 591.7513 471.50027 770.21954 493.24835 874.2854
457.93063 346.21664 752.19635 569.6377 501.10367 410.23962 488.5466 796.99036

net.fc.weight f4 [32, 256]
00000000: 0ab1 dc3d 9835 23bf 2c3d 33bf 8fb7 f0be
00000010: 580a fcbd 89c8 7b3e bcb5 193d d270 e23d
00000020: fac7 573f 545c 7a3f 4b54 1f3e 2f83 03bd
00000030: 9039 14be da9b ffbe f9a1 56bf b204 81be
00000040: 97a8 58bd 696b 1dbf d17f a9bd 6f7f 16be
00000050: ad6d 673d a8a4 d33d aeb4 d43e 619d 993e
00000060: e0d2 f33e 7798 2b3f 6eed 03be f775 3dbd
00000070: 4cc3 25be 5e84 1ebf 0616 0abf 2cfd 193e
00000080: dab5 aebe 894c bbbe 4640 64bf 5703 50be
00000090: 9928 703e 84c1 b7be b8c8 cc3e a522 f83d
000000a0: 3d01 cf3d 4cf3 443f 7302 873e 5855 ba3e
000000b0: f03d 173f fc02 953e cc8b dcbe 3fed cb3d
000000c0: 580c a03f 6599 323f 3526 223f 2c99 583f
000000d0: fdf9 db3d 12f6 a8be 3aad 0d3e bf11 eabe
000000e0: 6897 23bf 66f1 6dbf 29d8 e0be 549d babe
000000f0: 8692 7dbe 5e0e 873e e903 d33e 9952 683e
00000100: 3673 5e3e 2ab0 fc3e 4b4c 0fbc ac15 3e3e
00000110: 6dc3 1f3f ebe2 8e3d 5e4d 163e e707 963e
00000120: 2cdb 493f 23c0 263f 702f 053f 857a 443f
00000130: 0a4a 1bbe 7b63 323f 69e3 c73e 4990 db3d
00000140: 8f1a 343f 2ecd cc3e f02e 343f 3be2 ea3e
00000150: d374 c23e ecc4 21be d20d c8be 38e8 853e
00000160: 2b2c fabe f82b 93be cf3e bcbe 3e45 a5be
00000170: 0676 ff3e 2b15 b63f 52cf 313f 1e64 553f
00000180: 1ff3 6bbe 5f29 d2be b5e5 e3be 80b5 1dbf
00000190: 3273 b53d 15e3 933d 9459 063f 7019 7c3e
000001a0: 595e 953e b1ac 3c3e 1cb8 be3e 2602 1e3f
000001b0: 611c 3fbd 115b 8fbd 21f0 c1be a940 97be
000001c0: afaa 4f3f af49 843f 6c2d 583f 9fd2 ee3e
000001d0: aadc 3b3e e761 9a3e 8e30 10bf 19d2 81be
000001e0: ce5e 28bf 2d9b 65bf 594e 69be fc76 e4be
000001f0: 83cb 8cbe c4ac 1c3f a315 0b3f fb44 bf3e
00000200: eb23 643f d4ee abbe 70e8 c23d 9312 6b3d
00000210: 5802 a63c ba0a f63e 8bc2 343e 89b6 60bd
00000220: 39d6 953e eade 3b3f 7031 0d3e 9b84 1a3f
00000230: 096a 1d3f d2db 5abe ebec ad3e 83ad ae3e
00000240: 5155 1cbf 2f51 e3be c946 20bf 1a00 edbe
00000250: b927 c9be 5917 e1be 024a 9dbe 101a 2fbd
00000260: ea87 1bbe 3e69 31be 5a27 9fbe d61d 8bbe
00000270: 5338 babd 7f4b 29bf e753 3fbf 50c0 0abf
00000280: 687f 253f a0f7 6a3f 5623 4e3d 6731 6a3e
00000290: 7c4b b83e 10ab 8cbe cb2f f4be 32f1 53be
000002a0: 8073 04bf 5fae 91be ffeb 8cbe b76d 1cbf
000002b0: d04c 33be b8c5 b53e adbc 663f e7ba e83e
000002c0: ee5e 803f aad4 183f 1d5c 5d3e 2c38 af3e
000002d0: 0705 9fbe 5659 cabe da40 0abf d706 3ebf
000002e0: 5261 46bf d4b6 62bf 0065 12bf 1403 18bf
000002f0: 0121 6d3e 714b 343f ea1c 933e 4740 6a3e
00000300: ca32 5bbe 963c 49bf 8b94 74bf d5c1 32be
00000310: a32f c73e 0168 a13d c132 55be 2e1a 82be
00000320: cc02 52be 53b4 7a3f 4f45 f83e 575e 96be
00000330: e237 7e3e d356 03be 4bfc 1cbf 7486 1d3e
00000340: f118 563c 1aef 98be 1edb a4be b5cb b53d
00000350: 7894 33be d546 a93d b2a8 edbd 52df a63d
00000360: 5b17 303f 67f7 7a3f f2d5 143f 9323 ac3e
00000370: 103d b13e 1ecf 01bd 2144 f2be f22b 61be
00000380: 8a1b 68bf 799a 81bf 2247 71be 1ba7 61bf
00000390: e263 003e 0816 6e3e 78a9 2e3e 961f b73d
000003a0: 3a3f dcbc 00f6 e1bd 7dec 603e 32c4 5ebe
000003b0: aa39 30bf 5071 5fbe 49f1 c4be e585 02bf
000003c0: bf0f 823e 9188 753f e2a4 443f 15c0 2b3f
000003d0: e90f 233d 8285 17be 27b9 2ebe 61ea 00bf
000003e0: f0c6 0abf 662f 3abf a429 47be 52fe a3be
000003f0: de27 ccbd 9e55 813c 9276 e93e 4f40 9f3e
0.10775955 -0.6375365 -0.70015216 -0.47015044 -0.123066604 0.24588217 0.03752683 0.11056675
0.84289515 0.9779713 0.15559499 -0.03210753 -0.14475083 -0.49923593 -0.838409 -0.25198895
-0.052895155 -0.6149202 -0.08276332 -0.1469705 0.05650108 0.1033414 0.41544098 0.30002883
0.47621822 0.6702952 -0.12883541 -0.04625508 -0.16187781 -0.61920726 -0.53939855 0.15037984
-0.34123117 -0.3658183 -0.89160573 -0.20313774 0.23452987 -0.35889828 0.39996886 0.12115983
0.10107658 0.7693374 0.26369056 0.36393237 0.59078884 0.2910384 -0.43075407 0.099573605
1.2503767 0.6976531 0.6333955 0.8460872 0.10741041 -0.33000237 0.13835612 -0.45716664
-0.639029 -0.9294647 -0.43914917 -0.36448157 -0.24762926 0.2637815 0.4121392 0.22687759
0.21723637 0.49353153 -0.008746217 0.18562955 0.6240757 0.06976875 0.1467795 0.29302904
0.78850055 0.6513693 0.5202551 0.7674945 -0.15164962 0.69683045 0.39040688 0.107208796
0.70353025 0.4000029 0.7038412 0.45875725 0.37979755 -0.15797776 -0.39073044 0.2615373
-0.48861822 -0.28744483 -0.3676667 -0.3227939 0.49894732 1.422521 0.6945697 0.8335589
-0.23041962 -0.4104719 -0.4451119 -0.6160507 0.088598624 0.07221047 0.52480435 0.24619079
0.29173544 0.18425252 0.3724984 0.6172203 -0.046657924 -0.069997914 -0.37878516 -0.2954152
0.8111982 1.0334986 0.8444431 0.46645066 0.18345895 0.3015282 -0.5632409 -0.25355604
-0.6576966 -0.89689904 -0.22783794 -0.44622028 -0.27499017 0.6120112 0.5432989 0.37357315
0.89117306 -0.3358065 0.0951699 0.05739076 0.02026479 0.4805506 0.17652337 -0.05486158
0.29265 0.73387015 0.1378839 0.6035859 0.6148992 -0.21372917 0.33969817 0.34116754
-0.6106768 -0.44397876 -0.6260801 -0.4628914 -0.39288118 -0.43963125 -0.30720526 -0.042749465
-0.15188566 -0.17325303 -0.3108471 -0.271712 -0.09092774 -0.6613082 -0.747374 -0.54199696
0.6464753 0.91784096 0.050326668 0.22870408 0.3599509 -0.2747426 -0.47692713 -0.20697477
-0.5173874 -0.28453347 -0.275238 -0.6110491 -0.1750977 0.3550241 0.90131646 0.45455095
1.002897 0.596995 0.2161717 0.34222543 -0.31058523 -0.39521283 -0.54005206 -0.74229187
-0.7749225 -0.88560224 -0.57185364 -0.59379697 0.23157121 0.70427614 0.28732997 0.22876082
-0.21406093 -0.7860807 -0.9553916 -0.17456754 0.3890353 0.07881165 -0.20820142 -0.254106
-0.2050888 0.979314 0.48490378 -0.2936885 0.24826005 -0.1282609 -0.6132247 0.15383321
0.01306747 -0.2986992 -0.32198423 0.08876745 -0.17537105 0.08265463 -0.11604442 0.08148064
0.6878564 0.98033756 0.58138955 0.3362089 0.346169 -0.031691663 -0.47317603 -0.2198942
-0.9066702 -1.0125266 -0.23562291 -0.8814561 0.12538102 0.23250592 0.17056835 0.089415714
-0.026885618 -0.11033249 0.21965213 -0.2175453 -0.6883799 -0.21820569 -0.38465336 -0.50985557
0.25402638 0.9591151 0.7681409 0.6708997 0.039810095 -0.14797023 -0.17062818 -0.50357634
-0.54209805 -0.72728574 -0.19449478 -0.32029969 -0.099685416 0.015787896 0.45598274 0.3110375

net.fc.bias f4 [32]
00000000: 0033 f6bf 4471 fdbe 2ee7 7abf 8497 16bf
00000010: dfdd b1bf cc23 96bf 4bcf 4c3f 57c5 a5bf
00000020: 76a9 1340 de7d 93bf e6d7 213f b4bb 753f
00000030: 8998 d73f 172d b13e af26 a9be 93eb 6cbf
00000040: 5ead 493f 7c58 4f40 fd0a 58bf 58e9 95bf
00000050: f3ec 55bf 90ae f6be 4876 93bf ac5a 74bf
00000060: 2ba8 43bf 1f9d 7bbf ba2b 953f 18e1 113f
00000070: 81c4 f43e fc8e 8c3f 9e67 4b3f f92f 36bf
-1.9234314 -0.49500477 -0.98009 -0.58824944 -1.3895835 -1.1729674 0.80003804 -1.2950848
2.307218 -1.1522787 0.6322006 0.9598954 1.6843425 0.34604713 -0.33037326 -0.9254696
0.7878016 3.2397757 -0.84391767 -1.1711836 -0.8356468 -0.48180056 -1.1520472 -0.95450854
-0.7642848 -0.9828662 1.1653969 0.5698409 0.4780617 1.0981135 0.7945498 -0.7116695
