model/sub2_20240206_130642/checkpoints/epoch1_0.8726.pt (torch, 195725 bytes, 39 tensors)

net.conv.weight f4 [8, 1, 1, 256]
0	0xbed0357f	-0.40665814
1	0xbf0b133e	-0.54326236
2	0xbf4230bc	-0.7585561
3	0xbf5d1d8e	-0.8637322
4	0xbf40dea8	-0.75339746
5	0xbf4693ef	-0.7756948
6	0xbf5f4a57	-0.8722281
7	0xbf661930	-0.89882183
8	0xbf8af992	-1.0857413
9	0xbf74939b	-0.9553773
10	0xbf4dfde1	-0.80465513
11	0xbf20eaa7	-0.6285805
12	0xbeba42b3	-0.36379012
13	0xbd077d56	-0.033078514
14	0x3e80f830	0.25189352
15	0x3efcc4e1	0.49368957
16	0x3ee17682	0.44035727
17	0x3e7c4d33	0.24638824
18	0x3d31bc70	0.0433926
19	0xbe8dd77c	-0.27703464
20	0xbecb097b	-0.3965567
21	0xbef19745	-0.47185722
22	0xbec36ff8	-0.38171363
23	0xbe1be509	-0.15224089
24	0x3e62f79f	0.22164772
25	0x3ee0dc71	0.43918183
26	0x3ef44db4	0.47715533
27	0x3efe6da5	0.49693027
28	0x3ef1b622	0.4720927
29	0x3e59ea67	0.21280824
30	0x3e57a842	0.21060279
31	0x3e568e95	0.20952828
32	0x3ebff74b	0.37493357
33	0x3f3f9ecf	0.748517
34	0x3f978935	1.1838747
35	0x3fa8e4c1	1.319481
36	0x3fbab61a	1.4586823
37	0x3fb2fde4	1.3983731
38	0x3fa2df09	1.2724315
39	0x3f5d3431	0.8640776
40	0x3ef0fec6	0.47069377
41	0x3dfa2158	0.12213391
42	0xbdcfa514	-0.10138908
43	0xbe3df111	-0.18548991
44	0xbe54671c	-0.20742458
45	0xbdb25f95	-0.08709637
46	0xbe5bcbbb	-0.21464436
47	0xbe68f4b5	-0.22749598
48	0xbec8caba	-0.39217168
49	0xbf18fe3b	-0.59762925
50	0xbf27fe35	-0.65622264
51	0xbf33228b	-0.69974583
52	0xbf469e94	-0.7758572
53	0xbf12ffe1	-0.5742169
54	0xbedc9bb0	-0.4308753
55	0xbe53ea18	-0.20694768
56	0xbe2e5fd1	-0.17028739
57	0xbe6ff090	-0.23431611
58	0xbeb31ae5	-0.34981456
59	0xbef46252	-0.47731262
60	0xbf3d10db	-0.73853844
61	0xbf7b932a	-0.9827143
62	0xbf8b2b2c	-1.087255
63	0xbf843a14	-1.0330224
64	0xbf659304	-0.89677453
65	0xbf2c4bed	-0.67303354
66	0xbf11e0d8	-0.5698371
67	0xbed8497a	-0.42243558
68	0xbeadfaa1	-0.33980277
69	0xbe662558	-0.22475183
70	0x3aa2fc81	0.0012434871
71	0x3dcc29d9	0.09968919
72	0x3e7ad97d	0.24497028
73	0x3eaedf6d	0.34154835
74	0x3f079c74	0.52973104
75	0x3f361031	0.71118456
76	0x3f3a6b74	0.7282021
77	0x3f2b1c2a	0.6683985
78	0x3f1490d5	0.58033496
79	0x3f137d40	0.5761299
80	0x3edf9678	0.43669486
81	0x3ebed0df	0.3726873
82	0x3e8b125e	0.2716245
83	0x3ee8e0f0	0.45484114
84	0x3f0a279e	0.539667
85	0x3f1b6b03	0.6071016
86	0x3f26daae	0.6517743
87	0x3f223dd1	0.63375574
88	0x3f016f2d	0.50560266
89	0x3e956e64	0.29185784
90	0x3e05f3dd	0.13081308
91	0xbdb33143	-0.0874963
92	0xbe328e3a	-0.17437068
93	0xbd16d9c5	-0.036828775
94	0x3e2b93aa	0.16755548
95	0x3ef31f8e	0.47485012
96	0x3f1c025e	0.6094111
97	0x3f30a55b	0.6900231
98	0x3f01ae1c	0.50656295
99	0x3e79bc61	0.24388267
100	0xbde7d9cf	-0.113208406
101	0xbed4a74f	-0.41533896
102	0xbf24d8f1	-0.64393526
103	0xbf2e3b9f	-0.68059725
104	0xbf2a8409	-0.6660772
105	0xbf0a2f90	-0.53978825
106	0xbea80fe7	-0.32824633
107	0xbeac0db4	-0.33604205
108	0xbed396d8	-0.41326022
109	0xbf3580e7	-0.70899814
110	0xbf7eeb81	-0.995781
111	0xbfb5cd1f	-1.4203223
112	0xbfca00e3	-1.5781521
113	0xbfd2cbcc	-1.6468444
114	0xbfb1b597	-1.3883542
115	0xbf61f3fb	-0.8826291
116	0xbeac0b1c	-0.33602226
117	0x3e336b4f	0.17521404
118	0x3ed70e34	0.42003024
119	0x3f16ef6b	0.5895907
120	0x3f0b3f99	0.5439392
121	0x3f0889bb	0.5333516
122	0x3ea636ef	0.32463786
123	0x3ead3d7c	0.3383597
124	0x3eb8037b	0.35940155
125	0x3f0909e5	0.5353072
126	0x3f21dbf3	0.6322624
127	0x3f222ea2	0.63352406
128	0x3f1aa5d3	0.6040928
129	0x3ec5308f	0.3851361
130	0x3e5f143b	0.21785061
131	0x3d2b2b89	0.041789565
132	0xbe14d2cf	-0.14533542
133	0xbdc838b4	-0.0977644
134	0xbdfbaca8	-0.12288791
135	0x3d446f66	0.0479578
136	0x3e88ad8a	0.266949
137	0x3ef312ea	0.47475368
138	0x3f1d5fdc	0.61474395
139	0x3f36a6bd	0.7134817
140	0x3f1565c0	0.58358383
141	0x3ef8e953	0.48615512
142	0x3e865440	0.26236153
143	0x3e0d3a9f	0.13791893
144	0x3e3c4fea	0.1838986
145	0x3eb5f7bf	0.35540578
146	0x3eda57c3	0.42645082
147	0x3ef073d9	0.46963385
148	0x3edb2388	0.42800546
149	0x3ebe0de0	0.3711996
150	0x3d83ed62	0.064417616
151	0xbee2fbaf	-0.44332644
152	0xbf4b7d0c	-0.7948768
153	0xbf81e3fc	-1.01477
154	0xbf872bec	-1.0560279
155	0xbf810498	-1.0079527
156	0xbf526251	-0.8218127
157	0xbf0d7a14	-0.552644
158	0xbee1c764	-0.44097435
159	0xbedd148d	-0.43179742
160	0xbf2caa20	-0.6744709
161	0xbf59632d	-0.84916955
162	0xbf95bcb7	-1.1698216
163	0xbf9f5b6c	-1.2449775
164	0xbf8d2c81	-1.1029207
165	0xbf5a3560	-0.85237694
166	0xbf11b285	-0.56913024
167	0xbea35e4e	-0.31907886
168	0xbe04f6b5	-0.12984736
169	0x3d309906	0.043114685
170	0xbdde1fb5	-0.108458914
171	0xbe180c70	-0.14848495
172	0xbea30a6d	-0.31843892
173	0xbedcb527	-0.43106958
174	0xbec1c00f	-0.37841842
175	0xbea88e7a	-0.329212
176	0xbda7a60a	-0.08185966
177	0x3e5a8998	0.2134155
178	0x3ecb3f22	0.39696604
179	0x3f087254	0.5329945
180	0x3efa2315	0.4885489
181	0x3eecd14e	0.46253437
182	0x3ed08ae6	0.4073097
183	0x3ea5a50d	0.32352486
184	0x3e8315bc	0.2560252
185	0x3ecbffd9	0.39843634
186	0x3f270e50	0.65256214
187	0x3f881c8e	1.0633714
188	0x3fa0979e	1.254627
189	0x3fa1f3ff	1.2652587
190	0x3fa4311c	1.2827487
191	0x3f8b57e8	1.0886202
192	0x3f360e9f	0.7111606
193	0x3ed14331	0.40871575
194	0x3d9f2775	0.07771198
195	0x3d610e2c	0.054945156
196	0x3b170701	0.0023044946
197	0x3dfa5917	0.12224024
198	0x3d197266	0.037462614
199	0x3d8d967c	0.06913468
200	0xbdf7470f	-0.120741
201	0xbec7108c	-0.38879812
202	0xbf4512bb	-0.76981705
203	0xbf73fb65	-0.9530547
204	0xbf85d04f	-1.0454196
205	0xbf6d438e	-0.92681205
206	0xbf1d1ae1	-0.6136914
207	0xbe96ecde	-0.2947759
208	0x3dfdd4d1	0.12394107
209	0x3ee26ed0	0.44225168
210	0x3ee484ee	0.44632667
211	0x3e7a92a6	0.24470004
212	0xbde44e2b	-0.11147722
213	0xbf07e732	-0.5308715
214	0xbf609a56	-0.877355
215	0xbf93f2a8	-1.1558428
216	0xbf9c50e3	-1.2212185
217	0xbf8e0c84	-1.109757
218	0xbf466cbc	-0.77509665
219	0xbecb86c1	-0.39751247
220	0xbeb4c0f5	-0.35303465
221	0xbe9adbb4	-0.30245745
222	0xbf1abe6d	-0.60446817
223	0xbf706318	-0.93901205
224	0xbf82f83b	-1.0232004
225	0xbf4f4b5b	-0.8097436
226	0xbf0e2198	-0.5552001
227	0xbe4aeb04	-0.19816214
228	0x3ea38646	0.3193838
229	0x3f52f9c5	0.8241237
230	0x3f8aeb9c	1.0853152
231	0x3f85a5bf	1.0441207
232	0x3f72581d	0.946657
233	0x3f1a979d	0.60387594
234	0x3e09b001	0.13446046
235	0xbd592326	-0.053012036
236	0xbd046d83	-0.032331
237	0x3e81cdcb	0.2535232
238	0x3f3cf0d1	0.73804957
239	0x3f868d16	1.0511806
240	0x3fa19835	1.2624575
241	0x3f99c388	1.2012796
242	0x3f76bdfd	0.9638365
243	0x3f291123	0.66041774
244	0x3e751e15	0.23937257
245	0x3d94b493	0.07261004
246	0xbdad376d	-0.08457837
247	0xbd3d0e49	-0.0461562
248	0xbda45a9f	-0.08025097
249	0x3c86e4a1	0.01646644
250	0xbc84bbcf	-0.016202835
251	0xbe088b73	-0.13334446
252	0xbef569e7	-0.4793236
253	0xbf7c8225	-0.98636085
254	0xbfba8f96	-1.4575069
255	0xbfdeb5d1	-1.7399236

net.bn1.weight f4 [8]
0	0x3fc102de	1.5079
1	0x3fe7c4ba	1.8106911
2	0x4001ff66	2.0312133
3	0x3fb5b53d	1.4195935
4	0x3f886d4d	1.0658356
5	0x3ff7b2c3	1.9351429
6	0x3f9132bc	1.1343608
7	0x3f6163ce	0.88042915

net.bn1.bias f4 [8]
0	0xbd7b86e0	-0.061407924
1	0xbd8cdb1d	-0.0687773
2	0xbe5a4770	-0.21316314
3	0xbd85df75	-0.06536762
4	0xbdf67585	-0.12034134
5	0x3e93b227	0.28846857
6	0xbd782c51	-0.06058914
7	0x3dff8635	0.1247677

net.bn1.running_mean f4 [8]
0	0xb8efb707	-0.000114304996
1	0xba562f88	-0.0008170535
2	0x3993ee05	0.00028215363
3	0xb9948966	-0.0002833113
4	0xb9f90626	-0.00047497562
5	0xb97aed5a	-0.00023930278
6	0xb9b0dc05	-0.00033733263
7	0xba365a15	-0.00069561723

net.bn1.running_var f4 [8]
0	0x4437aeb7	734.7299
1	0x447340bd	973.01154
2	0x447f9805	1022.3753
3	0x4397044d	302.0336
4	0x443523a2	724.55676
5	0x4466eb26	923.6742
6	0x43277ace	167.4797
7	0x43e258ab	452.69272

net.depth_conv.weight f4 [16, 1, 32, 1]
0	0xbe849344	-0.25893605
1	0x3e96825b	0.29396328
2	0x3f29b330	0.66289043
3	0x3e1011d5	0.14069302
4	0x3f6716f7	0.90269417
5	0xbf287a5d	-0.6581171
6	0x3f39dfb0	0.72606945
7	0x3f337b9b	0.7011048
8	0xbf66fd59	-0.9023033
9	0x3eb8bbd1	0.36080793
10	0xbfb9eb36	-1.4524906
11	0xbec10b55	-0.37703958
12	0xbf2316e4	-0.63706803
13	0xbd674715	-0.056464273
14	0x3eb62f0f	0.35582778
15	0x3f46e59c	0.77694106
16	0xbdbe3d15	-0.09288994
17	0x3ed448ba	0.41461736
18	0x3fc5ed0f	1.546297
19	0x3f6b3b1d	0.91887075
20	0xbe64d512	-0.22346905
21	0x3df3b989	0.119006224
22	0x3e46dca3	0.19420104
23	0xbfae042b	-1.3595022
24	0xbfb0a39c	-1.379993
25	0x3fa1505f	1.2602652
26	0xbeaa8b6e	-0.333095
27	0xbfbf79b7	-1.495902
28	0xbef52a11	-0.47883657
29	0xbee8750d	-0.45401803
30	0x3f35efed	0.7106922
31	0x3e8159af	0.25263736
32	0xbe7d7e52	-0.24755219
33	0x3f2780ea	0.6543108
34	0x3f415aec	0.7552936
35	0x3e8d2865	0.2756988
36	0x3fc11297	1.5083798
37	0x3e73628d	0.23768063
38	0xbef2b7d5	-0.47405878
39	0xbe0a9529	-0.13533463
40	0xbfea04bd	-1.8282696
41	0x3f4ca648	0.79941225
42	0xbf0820f8	-0.53175306
43	0xbe76ff98	-0.24120939
44	0xbfcb6dad	-1.5892845
45	0xbf1f342f	-0.62189
46	0xbd048ea3	-0.03236259
47	0x3ef10476	0.47073716
48	0xbdfc0171	-0.123049624
49	0x3ec08744	0.376032
50	0x3f49b529	0.78792053
51	0x3faadb00	1.3348083
52	0x3f299365	0.6624053
53	0x3fd75f9f	1.6826056
54	0x3f0ede74	0.55808187
55	0xbf8f28f8	-1.1184378
56	0xbfc58aa7	-1.5432938
57	0x3f1369c9	0.5758329
58	0x3de94245	0.11389593
59	0xbf07f41c	-0.53106856
60	0xbf9e9b70	-1.2391186
61	0xbf371d2f	-0.71528906
62	0x3f47d410	0.78057957
63	0x3e542a3b	0.20719235
64	0x3eb09639	0.3448961
65	0x3f8d4bfe	1.1038816
66	0x3ec3fbd2	0.3827806
67	0xbf1792f9	-0.5920864
68	0x3edd7618	0.4325416
69	0xbd4de0c8	-0.050263196
70	0x3ea4669f	0.32109544
71	0xbea566cf	-0.32305
72	0xbe7b8b78	-0.24564922
73	0xc02982ca	-2.6486077
74	0x3d927fca	0.0715328
75	0x3f334b5f	0.7003688
76	0x3ec44918	0.38337016
77	0x3f9179b6	1.1365268
78	0xbe90a88a	-0.28253585
79	0x3eb49fca	0.3527816
80	0xbb9419af	-0.0045196633
81	0xbc666830	-0.014062926
82	0x3eaa7bb4	0.33297503
83	0x3f1341d7	0.5752234
84	0x3f8f1a78	1.1179953
85	0xbe000a0d	-0.12503834
86	0x3b8fb458	0.0043855123
87	0x3d150b07	0.03638747
88	0xbf80d447	-1.0064782
89	0xbec0ce6d	-0.3765749
90	0xbf8fe0f1	-1.1240522
91	0xbeecd5f1	-0.46256974
92	0xbe33ab56	-0.17545828
93	0xbe036141	-0.12830068
94	0x3ee67a96	0.450154
95	0x3e4b26c5	0.19839008
96	0xbeba43e2	-0.36379915
97	0xbf3b8dd9	-0.7326332
98	0xbf498c95	-0.78730136
99	0xbf4290f8	-0.76002455
100	0xbf944d92	-1.1586173
101	0x3f12237a	0.5708538
102	0x3ee257cd	0.44207612
103	0x3fbe8886	1.4885414
104	0xbf4a99d5	-0.7914098
105	0x400225ad	2.0335495
106	0xbf0e04f0	-0.55476284
107	0x3e5c8731	0.21535946
108	0x3c952b16	0.018209022
109	0xbeccdb40	-0.40011024
110	0x3d1195a6	0.035543106
111	0xbe03f5a9	-0.1288668
112	0x3e39a9d5	0.18131192
113	0xbf3a331d	-0.7273424
114	0xbda38950	-0.07985175
115	0xbeecac45	-0.4622518
116	0xbf280a70	-0.65640926
117	0xbec1be5f	-0.37840554
118	0xbf01bb58	-0.5067649
119	0x3f3776bd	0.71665555
120	0x3e423771	0.18966462
121	0xbee35213	-0.44398555
122	0x3fef196c	1.8679633
123	0x3eec8466	0.46194762
124	0xbf15d845	-0.58533126
125	0x3f627c8a	0.8847128
126	0xbf0765ea	-0.52889884
127	0x3e6ca78e	0.23110792
128	0xbe0731ca	-0.13202587
129	0xbf9ce01e	-1.2255895
130	0xbefca8c4	-0.49347508
131	0xbec1ced3	-0.37853107
132	0xbeaaa6f4	-0.333305
133	0x3eafef07	0.3436205
134	0xbdabfb76	-0.08397572
135	0x3fa4fb17	1.2889127
136	0x3dbff7fa	0.0937347
137	0x403e5a4d	2.9742615
138	0xbdcac402	-0.09900667
139	0xbeb7198f	-0.35761687
140	0xbf33534b	-0.7004897
141	0xbfa61b8b	-1.2977155
142	0x3e787424	0.24263054
143	0xbe217169	-0.15765919
144	0xbd36e20b	-0.044649165
145	0xbe836d74	-0.25669444
146	0xbf3b5dea	-0.73190176
147	0xbec0a1d0	-0.37623453
148	0xbf8187c6	-1.011956
149	0x3ee3f736	0.44524544
150	0x3e36eb4f	0.178632
151	0x3ec4d267	0.38441774
152	0x3ec714a2	0.3888293
153	0x3f258c8a	0.6466757
154	0x3f8a0cab	1.0785116
155	0x3f99ef26	1.2026107
156	0xbe84ed0b	-0.259621
157	0xbe56a12b	-0.20959918
158	0xbf135593	-0.5755245
159	0x3f0ed2a8	0.55790186
160	0x3e40486a	0.18777624
161	0x3ea15189	0.3150752
162	0xbeced237	-0.40394756
163	0xbf801807	-1.0007333
164	0xbfbdf60a	-1.484071
165	0x3ef965d9	0.48710516
166	0x3f20628b	0.62650365
167	0x3fa5ba18	1.2947416
168	0xbfae0838	-1.3596258
169	0x3dddc666	0.10828857
170	0xbf0ae34c	-0.5425308
171	0x3f0b1bcf	0.5433931
172	0x3f2021a4	0.6255133
173	0x3f77dd87	0.968224
174	0xbe98a832	-0.29815823
175	0xbe0b4622	-0.13600972
176	0x3e4dc65d	0.20095201
177	0xbf172bf2	-0.5905143
178	0x3ef9481f	0.48687837
179	0xbdf3fe68	-0.119137585
180	0x3c245ac2	0.010031404
181	0xbf342050	-0.70361805
182	0xbeb862ed	-0.36012974
183	0x3f0c0175	0.54689723
184	0xbf188412	-0.59576523
185	0xbf70dff4	-0.94091725
186	0x3fbce307	1.4756783
187	0x3e0164f5	0.12636168
188	0xbf6ae414	-0.9175427
189	0x3fcad915	1.5847498
190	0xbe06d6ef	-0.13167928
191	0x3e91fbe5	0.28512493
192	0x3eeb3e47	0.4594595
193	0xbe7101bd	-0.2353582
194	0x3e70eae4	0.23527104
195	0xbd0d0362	-0.034427054
196	0x3f38ca4d	0.72183686
197	0xbe43ef37	-0.19134222
198	0xbfb736b8	-1.4313574
199	0x3d778d15	0.06043728
200	0x3b202e4c	0.0024441658
201	0xbe5b74e3	-0.21431307
202	0xbf36fa79	-0.7147594
203	0xbec7d53b	-0.3902987
204	0x3f1db583	0.6160509
205	0xbcd1a34d	-0.025590563
206	0xbefeb32a	-0.49746066
207	0x3ea08023	0.3134776
208	0xbdc7cbef	-0.09755694
209	0x3dd6dda3	0.104914926
210	0xbf2f52ca	-0.684857
211	0xbf623eda	-0.88377154
212	0x3deae4e9	0.114694424
213	0xbc72d07d	-0.014820215
214	0x3d9a0a23	0.07521465
215	0x3f22caa9	0.63590485
216	0x400b5602	2.1771245
217	0xbfd62be2	-1.6732142
218	0x40065eb4	2.0995302
219	0x3fbebefa	1.4902031
220	0xbed5263a	-0.41630727
221	0xbfa8592a	-1.3152211
222	0x3e53de54	0.2069028
223	0x3e837ba0	0.25680256
224	0x3e393f37	0.18090521
225	0xbe985860	-0.29754925
226	0x3ea8208a	0.32837325
227	0xbf264f8d	-0.64965135
228	0x3f8fa7c9	1.1223079
229	0x3d915fb2	0.070983306
230	0xbec17c91	-0.3779035
231	0x3f1ed124	0.62037873
232	0x3e14076c	0.14455956
233	0xbe27d654	-0.16390353
234	0xbfecb224	-1.8491864
235	0xbe4e6960	-0.20157385
236	0xbd9dcea3	-0.077054285
237	0x3e8956e7	0.26824114
238	0xbcd5bd13	-0.026091134
239	0x3f620aae	0.88297546
240	0x3f5e7773	0.86901015
241	0xbd287130	-0.04112357
242	0xbe2133b1	-0.15742375
243	0xbf314833	-0.6925079
244	0xbed60ca0	-0.41806507
245	0xbf6891b7	-0.90847343
246	0x3ebd639d	0.3699006
247	0x3dd30ac9	0.103047915
248	0x3fe95576	1.8229206
249	0xbfa30338	-1.2735357
250	0x3ffd81ae	1.98052
251	0x3fbcfad8	1.4764051
252	0xbe9d914d	-0.30774918
253	0xbfb5a2ae	-1.4190271
254	0x3ce720ac	0.028213821
255	0x3cac547b	0.021036377

net.bn2.weight f4 [16]
0	0x3fd64399	1.6739379
1	0x3fc9a6a6	1.5753982
2	0x400a05f5	2.1566136
3	0x400be5b9	2.1858962
4	0x4010da93	2.2633407
5	0x401393c5	2.3058941
6	0x3fcecc00	1.6156006
7	0x3fd5deba	1.6708596
8	0x3f811c69	1.0086795
9	0x3fd18c6d	1.637098
10	0x400a62e2	2.1622853
11	0x400ea260	2.2286606
12	0x3fdad696	1.7096736
13	0x3fd9b840	1.7009354
14	0x3fbe12f3	1.4849533
15	0x3fcce03a	1.6005929

net.bn2.bias f4 [16]
0	0xbece7bf5	-0.40328947
1	0xbefbf4b8	-0.49210143
2	0xbf3248f5	-0.69642574
3	0xbf33059b	-0.6993043
4	0xbf40c36c	-0.7529819
5	0xbf3e1540	-0.74251175
6	0xbed127c0	-0.4085064
7	0xbedfd4b7	-0.43716976
8	0xbe7b2232	-0.24524763
9	0xbee9dc95	-0.45676103
10	0xbf2b7737	-0.6697878
11	0xbf3812d0	-0.71903706
12	0xbeecf644	-0.46281636
13	0xbef30e16	-0.47471684
14	0xbecfd139	-0.40589312
15	0xbede7acc	-0.43453062

net.bn2.running_mean f4 [16]
0	0xbc2ccb1e	-0.010546474
1	0xbd4a6e27	-0.049421456
2	0xbce78bda	-0.028264929
3	0x3d4a3e7e	0.049376003
4	0xbe6f2957	-0.23355614
5	0xbd7f2fec	-0.06230156
6	0xbd3b7bd7	-0.0457724
7	0xbdbb3dec	-0.0914267
8	0xbe261af8	-0.16221225
9	0x3dbca7e8	0.09211713
10	0xbe4fa2d4	-0.20276958
11	0x3ee5ffc3	0.44921693
12	0x3c1b33db	0.0094728125
13	0x3b19ca7d	0.002346664
14	0xbddc19a3	-0.10747077
15	0x3dfca2cc	0.123357385

net.bn2.running_var f4 [16]
0	0x418ece53	17.850744
1	0x410ed053	8.92586
2	0x4192945c	18.322441
3	0x4154ea79	13.307244
4	0x420d1f33	35.280468
5	0x41c64cf8	24.787582
6	0x422c8b4a	43.136024
7	0x4207f07d	33.98485
8	0x4185629f	16.673155
9	0x41ac129f	21.509092
10	0x421345e5	36.818256
11	0x416d28ec	14.822491
12	0x4287b364	67.85037
13	0x428327fb	65.57809
14	0x41288c9c	10.534328
15	0x417aba58	15.670494

net.point_conv.weight f4 [16, 16, 1, 16]
0	0x3e8ef30d	0.27919808
1	0x3ec854ae	0.39127105
2	0x3f1ab7a8	0.6043649
3	0x3ee2aa3d	0.44270507
4	0x3ed5daf3	0.41768607
5	0x3e8619cd	0.2619156
6	0x3e097ee6	0.13427314
7	0x3db57706	0.088605925
8	0xbd6fffb2	-0.05859346
9	0x3d52e110	0.051484168
10	0xbd857c00	-0.06517792
11	0x3d025381	0.031817917
12	0x3ddde75d	0.10835145
13	0x3e67fd69	0.22655262
14	0x3ebf2a28	0.3733685
15	0x3efe51c9	0.49671772
16	0x3e10536e	0.14094326
17	0x3e7e3c5f	0.24827717
18	0x3efceaab	0.49397787
19	0x3f1b3961	0.6063443
20	0x3f3a05ab	0.726649
21	0x3f659efb	0.8969571
22	0x3f740a9d	0.95328695
23	0x3f86e599	1.0538818
24	0x3f678c42	0.9044839
25	0x3f508561	0.8145352
26	0x3f0726e5	0.52793723
27	0x3ea7ef3d	0.32799712
28	0x3e61738b	0.22016732
29	0x3e49b356	0.19697317
30	0x3e776674	0.24160177
31	0x3eda4c67	0.42636415
32	0x3d825ac4	0.063649684
33	0x3e1d98a5	0.1539026
34	0x3e25ab7f	0.16178702
35	0x3e4fa7f4	0.20278913
36	0x3e1978a9	0.14987434
37	0x3e72d104	0.23712546
38	0x3e68b628	0.22725737
39	0x3e99991d	0.2999963
40	0x3edfef81	0.43737414
41	0x3eead54b	0.45865855
42	0x3f143f94	0.5790951
43	0x3f1ed563	0.6204435
44	0x3f0d9442	0.5530435
45	0x3f0a845b	0.5410821
46	0x3edcf73b	0.43157372
47	0x3ee2fbd2	0.4433275
48	0xbe475e1b	-0.19469492
49	0xbe261c59	-0.16221751
50	0xbcf197bc	-0.029491298
51	0x3d839977	0.064257555
52	0x3d07c3fc	0.03314589
53	0x3d35ed6d	0.04441588
54	0x3b9a27df	0.00470446
55	0x3c757ff9	0.014984124
56	0xbdb02af1	-0.086019404
57	0x3d548587	0.051885154
58	0xbd376f1f	-0.044783708
59	0x3c5dafb3	0.0135306595
60	0x3ba52beb	0.005040636
61	0x3d9a6a39	0.075397916
62	0x3e1e2803	0.15444951
63	0x3e06cb54	0.13163501
64	0xbd1da699	-0.038488958
65	0x3d74c40c	0.059757277
66	0x3daaa5a0	0.08332372
67	0x3e3705f6	0.17873368
68	0x3e975f4b	0.2956489
69	0x3e3e3f1d	0.18578763
70	0x3e82bd2d	0.25534955
71	0x3e814e26	0.25254935
72	0x3e0ad4cb	0.13557737
73	0x3cbebe10	0.023283988
74	0xbd090c68	-0.033459097
75	0x3d551e72	0.052030988
76	0xbd7080f5	-0.058716733
77	0x3d663e85	0.056211967
78	0x3df98227	0.12183028
79	0x3dbec7ae	0.0931543
80	0xbed05d96	-0.406964
81	0xbea921b3	-0.33033523
82	0xbe9c94e8	-0.30582356
83	0xbe47b542	-0.19502738
84	0x3d4a9e8c	0.04946761
85	0x3c973f03	0.018462664
86	0x3e0d1a18	0.13779485
87	0x3d9e6456	0.07733981
88	0xbe0dc2d0	-0.13843846
89	0xbe324560	-0.17409277
90	0xbeba0812	-0.36334282
91	0xbeead370	-0.4586444
92	0xbf159ce4	-0.5844252
93	0xbf2e6e19	-0.68136746
94	0xbf18b99e	-0.5965823
95	0xbecfa418	-0.4055488
96	0x3f86b88e	1.0525072
97	0x3f6a6c44	0.9157145
98	0x3f4aa1ef	0.7915334
99	0x3f3b7467	0.7322449
100	0x3f462227	0.7739586
101	0x3f52c7d5	0.8233617
102	0x3f4b8143	0.7949411
103	0x3f3bb685	0.7332538
104	0x3f4729da	0.77798235
105	0x3f5e4a9a	0.8683258
106	0x3f677977	0.90419716
107	0x3f568915	0.8380292
108	0x3f1774d2	0.5916263
109	0x3eb0b92b	0.34516272
110	0x3e8d0367	0.27541658
111	0x3e3a0627	0.1816641
112	0x3f8630b0	1.0483608
113	0x3f7628d5	0.96156055
114	0x3f5d211c	0.86378646
115	0x3f72a460	0.94782066
116	0x3f92881a	1.1447785
117	0x3f96a1cc	1.1768126
118	0x3f951c15	1.1649195
119	0x3f72d909	0.9486242
120	0x3f55dbdb	0.835386
121	0x3f71de66	0.9447998
122	0x3f801be7	1.0008515
123	0x3f62be03	0.88571185
124	0x3f4d838f	0.8027887
125	0x3f276c74	0.6539986
126	0x3f2675d8	0.65023565
127	0x3f0972f7	0.5369105
128	0x3e2cadca	0.1686317
129	0x3e917cb1	0.28415444
130	0x3ecb3418	0.39688182
131	0x3ee54e79	0.44786432
132	0x3f01134f	0.5042009
133	0x3effc4e2	0.49954897
134	0x3f18b3eb	0.59649533
135	0x3f06a480	0.5259476
136	0x3f070303	0.5273897
137	0x3eff3454	0.4984461
138	0x3e87acc1	0.26498988
139	0x3e27df41	0.16393758
140	0xbd9aaa0d	-0.07551966
141	0xbe12a51e	-0.143208
142	0xbe7fe9f8	-0.24991596
143	0xbe86334e	-0.26211017
144	0x3efaa7ff	0.48956296
145	0x3f07fef6	0.53123415
146	0x3ef157fa	0.47137433
147	0x3ed670ae	0.41882843
148	0x3ec7e9c4	0.39045537
149	0x3ea26533	0.31717834
150	0x3e33bab1	0.17551686
151	0x3d933f22	0.07189776
152	0x3d672284	0.0564294
153	0x3d68f834	0.05687733
154	0x3dfdcf51	0.12393058
155	0x3e44b78c	0.19210643
156	0x3eb8b6d1	0.36076978
157	0x3ec1e3e7	0.37869188
158	0x3eeeaed6	0.46617764
159	0x3f010cf9	0.5041042
160	0xbeebcab0	-0.46053076
161	0xbe7589ce	-0.2397835
162	0xbdf2376d	-0.11826978
163	0xbbc3f59a	-0.0059802057
164	0x3d4f6354	0.050631836
165	0xbd08dcea	-0.033413805
166	0x3c6ba19e	0.014381794
167	0xbd348776	-0.044074498
168	0xbe32858b	-0.17433755
169	0xbeccf116	-0.40027684
170	0xbef65b09	-0.4811633
171	0xbef1c7db	-0.4722279
172	0xbebe5c42	-0.37179762
173	0xbeb839cb	-0.35981593
174	0xbe9fc882	-0.31207663
175	0xbe907f6c	-0.28222215
176	0x3e356f67	0.17718278
177	0x3e0afdab	0.13573329
178	0x3e7d2f69	0.24725117
179	0x3e6d0307	0.23145686
180	0x3e7d654b	0.24745671
181	0x3e2e83e7	0.17042504
182	0x3e2ed50e	0.17073461
183	0x3e247bd1	0.16062857
184	0x3d968891	0.07350267
185	0x3da2154c	0.07914218
186	0xbd3ac178	-0.045594662
187	0x3c4468b9	0.011987858
188	0x3bd66668	0.0065429695
189	0x3d2d6494	0.042332247
190	0xbcdc465c	-0.026889019
191	0x3c676efa	0.01412558
192	0x3f75a0f8	0.95948744
193	0x3f76a6ed	0.9634846
194	0x3f6d6b96	0.9274229
195	0x3f7d904f	0.9904832
196	0x3f8757c6	1.0573661
197	0x3f642e8f	0.8913354
198	0x3f59198d	0.8480461
199	0x3f5f79a4	0.87294984
200	0x3f47fdb1	0.7812148
201	0x3f2edf12	0.6830913
202	0x3f3e53ac	0.74346423
203	0x3f201446	0.62530935
204	0x3f02bb4c	0.5106704
205	0x3f1ec6a9	0.6202188
206	0x3f3323fe	0.69976795
207	0x3f3f897a	0.7481915
208	0x3f408b7c	0.75212836
209	0x3f26ffc7	0.65234035
210	0x3f1c3574	0.61019063
211	0x3ee686f9	0.4502485
212	0x3efd3f52	0.49462372
213	0x3f036725	0.5132926
214	0x3ea5ff65	0.32421413
215	0x3ed39d7a	0.41331083
216	0x3eaf581c	0.3424691
217	0x3e91a7cb	0.28448328
218	0x3e888390	0.26662874
219	0x3ecda7c0	0.40167046
220	0x3eba6102	0.36402136
221	0x3ebcdea1	0.36888602
222	0x3ea33232	0.31874233
223	0x3f0caeea	0.549544
224	0x3eaa1463	0.3321868
225	0x3efcdc88	0.49387002
226	0x3f1fa86a	0.62366354
227	0x3f492ba5	0.7858222
228	0x3f338b6f	0.70134634
229	0x3f361724	0.7112906
230	0x3f2cec6d	0.6754826
231	0x3f3eb698	0.74497366
232	0x3f404392	0.75103104
233	0x3f360cfb	0.71113557
234	0x3f2794d2	0.65461457
235	0x3f24423d	0.6416357
236	0x3efee73a	0.49785787
237	0x3ef6b2f7	0.48183414
238	0x3ef58a9f	0.47957322
239	0x3f053529	0.5203424
240	0x3e7d1d94	0.24718314
241	0x3ea26fdc	0.31725967
242	0x3e65b7ee	0.22433445
243	0x3ea90622	0.3301249
244	0x3ec22662	0.3791991
245	0x3ee55418	0.4479072
246	0x3ef0093c	0.46882045
247	0x3efe37f0	0.49652052
248	0x3f04c95e	0.5186976
249	0x3ec0e449	0.37674168
250	0x3ed66cbd	0.41879836
251	0x3ea86d1c	0.32895744
252	0x3e93335b	0.2875012
253	0x3e9321d2	0.2873674
254	0x3e7f62cd	0.24940033
255	0x3e583c56	0.21116766

net.bn3.weight f4 [16]
0	0x3f56cec5	0.83909255
1	0x3fecb149	1.8491603
2	0x400a0db4	2.1570864
3	0x3fc4e3da	1.5382035
4	0x3f9428d2	1.1574957
5	0x3fdaa25b	1.7080797
6	0x3f2b1e33	0.66842955
7	0x3f63a999	0.8893066
8	0x3fd2a98f	1.6457995
9	0x3f8ff6fc	1.1247249
10	0x4008f1d7	2.1397607
11	0x3fc00643	1.5001911
12	0x3f633901	0.88758856
13	0x3ff4b63b	1.9118112
14	0x3f8cbd75	1.0995318
15	0x40040b3b	2.0631855

net.bn3.bias f4 [16]
0	0xbe08fe94	-0.13378364
1	0xbef9bedd	-0.4877843
2	0xbf129cf5	-0.5727075
3	0x3d3d6871	0.04624218
4	0xbdbe2c85	-0.09285835
5	0xbe8192e7	-0.2530739
6	0x3c8058f4	0.015667416
7	0xbd954ff1	-0.07290638
8	0xbf059d87	-0.5219349
9	0x3d885eab	0.066586815
10	0xbf0cf82c	-0.5506618
11	0xbe63c89d	-0.22244497
12	0xbe964fa2	-0.2935763
13	0xbec04c35	-0.3755814
14	0xbda15822	-0.07878138
15	0xbf098175	-0.5371316

net.bn3.running_mean f4 [16]
0	0x40840eb8	4.1267967
1	0x3fa12718	1.2590055
2	0xc08db858	-4.428753
3	0x409870bd	4.763762
4	0x403b1ab8	2.9235058
5	0xc078d3e6	-3.8879333
6	0x3fd1cfcb	1.6391538
7	0x3e466331	0.19373776
8	0xbf49c48d	-0.7881554
9	0x40793268	3.8937016
10	0xc09373f6	-4.6079054
11	0x40532d3f	3.2996366
12	0x40aa9540	5.330719
13	0xc09451e8	-4.6349983
14	0x404a06fe	3.1566768
15	0xc0978ba4	-4.735796

net.bn3.running_var f4 [16]
0	0x43df5ee9	446.7415
1	0x4444e267	787.53754
2	0x4494aab8	1189.335
3	0x4474438b	977.05536
4	0x44454745	789.1136
5	0x4482b419	1045.628
6	0x43b625f1	364.29642
7	0x44106bdd	577.68536
8	0x442107bc	644.12085
9	0x444084cc	770.07495
10	0x449aa6f5	1237.2174
11	0x4439fa64	743.91235
12	0x43cc6fba	408.87286
13	0x449b2cc9	1241.3995
14	0x4437b893	734.884
15	0x448cbbe6	1125.8718

net.fc.weight f4 [32, 256]
0	0xbe9ec1a8	-0.31007123
1	0xbed70df9	-0.42002848
2	0xbf3adbc4	-0.72991586
3	0xbdfc5142	-0.12320186
4	0xbe96ce43	-0.2945424
5	0xbeb24419	-0.3481758
6	0xbe0d2841	-0.13784887
7	0xbe4e8f3d	-0.20171829
8	0xbedef079	-0.4354284
9	0xbef2d4db	-0.4742802
10	0x3ce4eedb	0.027945926
11	0xbde943f9	-0.11389918
12	0xbe60af67	-0.2194191
13	0xbe8b0c43	-0.27157792
14	0xbf45ccb2	-0.77265465
15	0xbf1826c6	-0.59434164
16	0xbea3b895	-0.31976762
17	0xbeb44f56	-0.3521678
18	0xbdd02435	-0.10163156
19	0xbf06b6c0	-0.52622604
20	0xbf1eb835	-0.6199983
21	0xbf36017c	-0.71096015
22	0xbf12ae1e	-0.5729693
23	0xbf016141	-0.5053902
24	0xbeb2edb3	-0.34946975
25	0x3d45a2e0	0.048251033
26	0x3d87955d	0.06620286
27	0xbf3d4805	-0.7393802
28	0xbf77bef7	-0.96775764
29	0xbf4c951e	-0.79915035
30	0xbebd9ddf	-0.3703451
31	0x3e18c601	0.14919282
32	0x3e916e51	0.28404477
33	0x3ef70331	0.48244622
34	0x3ce7bb27	0.028287483
35	0x3eebb69e	0.46037763
36	0x3f8855b6	1.0651157
37	0x3f7d03b7	0.98833793
38	0x3f12d052	0.5734912
39	0x3edb84eb	0.42874846
40	0x3f60b9e6	0.8778366
41	0x3eca9e23	0.39573774
42	0x3eb2d2a4	0.3492633
43	0x3ef7e813	0.48419246
44	0x3f665642	0.8997537
45	0x3f8b2f50	1.0873814
46	0x3f0275fe	0.5096129
47	0x3e10636c	0.14100426
48	0x3e20cf62	0.1570411
49	0xbe7c45a0	-0.24635935
50	0xbf5df5e4	-0.86703324
51	0xbeb71e85	-0.35765472
52	0xbe885452	-0.2662683
53	0xbf780c70	-0.9689398
54	0xbf710ced	-0.9416035
55	0xbeec0a80	-0.4610176
56	0xbefacf89	-0.48986462
57	0xbe23424e	-0.15943262
58	0xbee15a54	-0.44014227
59	0xbe9d5d6b	-0.30735335
60	0xbe92bf47	-0.28661558
61	0xbf4e791b	-0.8065354
62	0xbeb39c5c	-0.3508023
63	0xbf314e60	-0.69260216
64	0xbea69f27	-0.325433
65	0xbf0d02af	-0.5508222
66	0xbd8ffc52	-0.07030548
67	0xbea6b6be	-0.32561296
68	0xbf426b52	-0.7594501
69	0xbedcd9f0	-0.43135023
70	0xbe420789	-0.18948187
71	0xbf06ba03	-0.5262758
72	0xbed70559	-0.41996267
73	0xbe23f8b1	-0.16012837
74	0x3e50664b	0.20351522
75	0xbf351bbe	-0.70745456
76	0xbf06b12a	-0.5261408
77	0xbed83711	-0.42229512
78	0xbe3db141	-0.18524648
79	0xbe6d9ca6	-0.23204288
80	0xbe31ba10	-0.17356133
81	0x3d8537da	0.065047935
82	0x3e95b2a3	0.29237852
83	0x3f1db0f8	0.6159816
84	0x3efb9ba9	0.49142197
85	0x3f1cf38f	0.6130914
86	0x3eda2fa7	0.4261448
87	0x3f016c5a	0.50555956
88	0x3eacc3a5	0.33743015
89	0xbcc9ba6d	-0.024625028
90	0x3e790529	0.24318375
91	0x3e9c4865	0.30523983
92	0x3f5675b8	0.83773375
93	0x3f54a0da	0.8305794
94	0x3e2c3ec3	0.16820817
95	0x3e102fbe	0.14080712
96	0xbe5ed50f	-0.21760963
97	0xbe22f954	-0.15915424
98	0xbeafba55	-0.34321848
99	0x3d729d3d	0.059231985
100	0x3de08232	0.10962333
101	0xbd319ff7	-0.043365445
102	0xbd2d2b80	-0.042277813
103	0xbe096c96	-0.13420328
104	0x3dbc2908	0.091875136
105	0xbe0cdb44	-0.13755518
106	0xbf213375	-0.6296914
107	0xbebc0fba	-0.36730748
108	0x3e822af4	0.25423396
109	0x3cfe3459	0.03103082
110	0xbe5ff4cf	-0.21870731
111	0xbeb1be69	-0.34715584
112	0xbe6b61d2	-0.22986534
113	0xbe6e6c9c	-0.23283619
114	0xbd38fe9e	-0.045164697
115	0xbd9054ae	-0.07047401
116	0xbd87ff38	-0.06640476
117	0x3e1a3934	0.15060884
118	0x3ecd936d	0.4015154
119	0xbe21b257	-0.15790688
120	0xbe3345f7	-0.17507158
121	0x3e11df95	0.14245446
122	0xbe29d1fe	-0.16584012
123	0x3d46e8b9	0.048561785
124	0x38de130a	0.00010589331
125	0xbe8a320e	-0.26991314
126	0xbe26a0f9	-0.16272344
127	0xbeae39e4	-0.34028542
128	0x3e5387b5	0.20657237
129	0x3d79cf4d	0.060988713
130	0xbd575679	-0.0525727
131	0xbe89793b	-0.26850304
132	0xbee1fabc	-0.44136608
133	0xbee0ba54	-0.43892157
134	0x3d4512f7	0.04811379
135	0xbe54f9cd	-0.20798416
136	0xbf06e109	-0.52687126
137	0xbda26c6e	-0.079308376
138	0x3ea8c416	0.32962102
139	0xbdd94ee8	-0.10610753
140	0xbf18727d	-0.59549695
141	0xbf2200c4	-0.6328242
142	0xbe99020b	-0.2988437
143	0x3e61b800	0.22042847
144	0xbeb1d66b	-0.347339
145	0xbe4fb312	-0.20283154
146	0xbf0e2321	-0.5552235
147	0xbdcabb39	-0.09898991
148	0xbe8d202a	-0.27563602
149	0xbea3aefa	-0.31969434
150	0xbe71d1f2	-0.23615244
151	0xbe6fcfbc	-0.23419088
152	0xbe614707	-0.21999751
153	0xbdb290f6	-0.08719055
154	0x3d041d04	0.032254234
155	0xbe8f9e3a	-0.28050405
156	0xbf394bfb	-0.7238156
157	0xbe63c6d8	-0.22243822
158	0xbf20e678	-0.6285167
159	0xbf362597	-0.7115111
160	0xbd7f1643	-0.06227709
161	0x3eb6ac16	0.35678166
162	0x3ef98b6a	0.48739177
163	0x3ef52288	0.47877908
164	0x3f224061	0.63379484
165	0x3f7930a5	0.9733985
166	0x3f498b67	0.78728336
167	0x3f042552	0.51619446
168	0x3f51ba15	0.81924564
169	0x3efe9adf	0.49727532
170	0x3e0df150	0.13861585
171	0x3ef4b09c	0.47790992
172	0x3f1dac79	0.615913
173	0x3f8bb305	1.0914007
174	0x3f683842	0.9071084
175	0x3ec92546	0.3928625
176	0x3b553b7e	0.003253668
177	0xbeb52c2b	-0.3538526
178	0xbf046847	-0.51721615
179	0xbee50c47	-0.4473593
180	0xbee0a4fd	-0.43875876
181	0xbf1f2741	-0.6216927
182	0xbed09591	-0.4073911
183	0xbe6a8506	-0.22902307
184	0x3dcfae99	0.10140724
185	0xbe354ff8	-0.17706287
186	0xbe404aaa	-0.18778482
187	0xbe53fc03	-0.20701604
188	0xbf7ee11e	-0.9956225
189	0xbf9162f6	-1.1358325
190	0xbef4fba0	-0.47848225
191	0xbce287e6	-0.027652692
192	0xbeafd6cb	-0.34343562
193	0xbf1ce5ce	-0.61288154
194	0xbebdc789	-0.37066296
195	0x3e02c78a	0.1277143
196	0xbd3c3149	-0.04594544
197	0xbe8d13e6	-0.27554244
198	0xbdf56ff6	-0.119842455
199	0x3de6f8f1	0.112779506
200	0xbea4ccd9	-0.32187536
201	0x3eb0c99d	0.3452882
202	0xbdf89ef2	-0.121396914
203	0xbe508c90	-0.2036612
204	0xbe848b8e	-0.25887722
205	0xbe546700	-0.20742416
206	0xbdd2e049	-0.10296685
207	0xbf012420	-0.5044575
208	0x3dba4f82	0.09097196
209	0x3e3a93be	0.18220422
210	0x3e6ce44e	0.23133966
211	0x3edde04a	0.4333518
212	0x3ed921be	0.42408556
213	0x3f293767	0.6610016
214	0x3f51ff8a	0.82030547
215	0x3f0f3b4b	0.5594985
216	0x3f1fb2a2	0.6238195
217	0x3e423312	0.18964794
218	0xbe87d6d2	-0.26531082
219	0x3e8b4d32	0.27207333
220	0x3f34fafa	0.7069546
221	0x3f851cef	1.0399455
222	0x3f42b60f	0.7605905
223	0x3ea689c3	0.3252698
224	0xbe54e9dd	-0.20792337
225	0xbe49462f	-0.19655679
226	0x3d6b1ae8	0.057398707
227	0xbeb01be9	-0.34396294
228	0xbf092b34	-0.5358155
229	0xbe595fde	-0.21227977
230	0xbedd55e3	-0.4322959
231	0xbea92afa	-0.330406
232	0xbe552b3b	-0.20817272
233	0xbea03c05	-0.3129579
234	0xbd188134	-0.037232593
235	0x3d6d63a2	0.057956345
236	0xbf2b7560	-0.66975975
237	0xbee7952f	-0.45231006
238	0xbed3996e	-0.41327995
239	0xbe2324dc	-0.1593203
240	0xbf055d2a	-0.5209528
241	0x3f1946e3	0.5987379
242	0xbea37dd9	-0.31931952
243	0x3f2d4a7d	0.67691785
244	0x3f9b23ec	1.2120337
245	0x3f8bcf08	1.0922556
246	0x3f1835cd	0.59457093
247	0x3eb51300	0.35366058
248	0x3f207a95	0.62687045
249	0x3f064f84	0.5246508
250	0x3e2980ee	0.16553089
251	0x3e82f585	0.25577942
252	0x3ef01d97	0.46897575
253	0x3f1296ec	0.5726154
254	0x3f2daaff	0.67839044
255	0x3e9c8477	0.30569813

net.fc.bias f4 [32]
0	0xbf3746ca	-0.7159239
1	0x3e51a3fe	0.20472714
2	0xbf25429d	-0.6455477
3	0x3f94acc7	1.1615227
4	0xbf4c289c	-0.79749465
5	0xbdd14e64	-0.1022003
6	0xbf9154d5	-1.1354014
7	0x3f27c775	0.6553872
8	0x3effbe08	0.4994967
9	0xbf81e58f	-1.0148181
10	0xc024a03f	-2.5722806
11	0x3f4b29f5	0.79360896
12	0xbfc00333	-1.5000976
13	0x3eb1951f	0.34684083
14	0x3f3db501	0.74104315
15	0xbf3516ab	-0.70737714
16	0xbf452bde	-0.7702006
17	0xbfb920d9	-1.4463149
18	0x3f74d988	0.95644426
19	0x3f2b1a5c	0.66837096
20	0x3f8869e6	1.0657318
21	0xbe6431b4	-0.22284585
22	0x3ef37f3f	0.4755802
23	0xbf3a1abf	-0.7269706
24	0xbfe5630f	-1.7920855
25	0x3e991530	0.29898977
26	0x3f3084f1	0.6895285
27	0xbf5979ed	-0.8495167
28	0x3f17a129	0.59230286
29	0x3f7ec0a0	0.9951267
30	0x3f804f8a	1.0024273
31	0x3f99e8f4	1.2024217

exp_avg f4 [8, 1, 1, 256]
0	0xb8109310	-3.4469238e-05
1	0xb7bd5327	-2.2569277e-05
2	0xb700ef40	-7.685099e-06
3	0x371070ca	8.60933e-06
4	0x37cd43b4	2.4469431e-05
5	0x38209a9a	3.8290957e-05
6	0x384e164c	4.9134993e-05
7	0x386f19b5	5.7005982e-05
8	0x3883d1e1	6.28566e-05
9	0x388f15ef	6.822857e-05
10	0x389c6c83	7.4588716e-05
11	0x38ac61c3	8.219809e-05
12	0x38be38bf	9.070476e-05
13	0x38ce9d2d	9.852122e-05
14	0x38d98450	0.000103720115
15	0x38dceb97	0.000105342995
16	0x38d890d2	0.000103266575
17	0x38cda22b	9.805368e-05
18	0x38bf07b6	9.109026e-05
19	0x38b09fc6	8.422094e-05
20	0x38a531ae	7.877067e-05
21	0x389ddc25	7.5273485e-05
22	0x389a231e	7.349833e-05
23	0x3897ab33	7.2321294e-05
24	0x38939f82	7.039217e-05
25	0x388bfda1	6.6752786e-05
26	0x387f46ae	6.0862563e-05
27	0x385df948	5.2922667e-05
28	0x3837f507	4.38588e-05
29	0x3813141c	3.506626e-05
30	0x37e63a94	2.7445414e-05
31	0x37b664f4	2.17431e-05
32	0x37956cf0	1.7812912e-05
33	0x37768c63	1.4695429e-05
34	0x3735f497	1.0845389e-05
35	0x369387bf	4.3967443e-06
36	0xb6bb4716	-5.58131e-06
37	0xb79c3276	-1.8620147e-05
38	0xb80cbb0c	-3.3552802e-05
39	0xb84b156d	-4.8418926e-05
40	0xb881a01f	-6.181024e-05
41	0xb8989b85	-7.2768926e-05
42	0xb8a9a060	-8.08842e-05
43	0xb8b5285a	-8.6382686e-05
44	0xb8bcbe0c	-8.9999376e-05
45	0xb8c1d1b9	-9.242021e-05
46	0xb8c62436	-9.4481205e-05
47	0xb8ca6db1	-9.652542e-05
48	0xb8cdd4b6	-9.814782e-05
49	0xb8cdddb2	-9.816456e-05
50	0xb8c7de1e	-9.530432e-05
51	0xb8baf604	-8.914995e-05
52	0xb8a800ee	-8.0110374e-05
53	0xb892043e	-6.962613e-05
54	0xb87a7964	-5.97177e-05
55	0xb85bcdca	-5.2405325e-05
56	0xb84dc33c	-4.9057635e-05
57	0xb85087d6	-4.971757e-05
58	0xb8605fec	-5.3495096e-05
59	0xb875b566	-5.8581492e-05
60	0xb88442a0	-6.30666e-05
61	0xb8893ba1	-6.543776e-05
62	0xb88837f8	-6.49541e-05
63	0xb881c852	-6.188512e-05
64	0xb86f6af0	-5.7081634e-05
65	0xb859cf0e	-5.1929666e-05
66	0xb847b3f7	-4.7612903e-05
67	0xb83b7a8d	-4.469841e-05
68	0xb834315a	-4.2961306e-05
69	0xb82e6ee6	-4.1588115e-05
70	0xb82499ab	-3.924376e-05
71	0xb815091f	-3.5532863e-05
72	0xb801fc52	-3.099099e-05
73	0xb7e10f07	-2.6829088e-05
74	0xb7cde836	-2.4546036e-05
75	0xb7d5e189	-2.5496602e-05
76	0xb7fd6fd5	-3.0212026e-05
77	0xb820f9df	-3.8379683e-05
78	0xb84d853b	-4.899989e-05
79	0xb87c3784	-6.0133185e-05
80	0xb892151f	-6.9657566e-05
81	0xb89eb346	-7.5674194e-05
82	0xb8a1bf51	-7.712714e-05
83	0xb89ae4bf	-7.3858995e-05
84	0xb88d6960	-6.7430316e-05
85	0xb87c7ef6	-6.0199724e-05
86	0xb8654215	-5.46594e-05
87	0xb85b8481	-5.2337073e-05
88	0xb8608713	-5.353156e-05
89	0xb86f4b0d	-5.7051937e-05
90	0xb87e78d6	-6.0670856e-05
91	0xb8817d5e	-6.174551e-05
92	0xb8755924	-5.849557e-05
93	0xb8531a5a	-5.0330862e-05
94	0xb81fb3e1	-3.807608e-05
95	0xb7c5f1de	-2.3596858e-05
96	0xb71a4f10	-9.1975235e-06
97	0x365dc061	3.3043545e-06
98	0x375abd38	1.30378685e-05
99	0x37a96a0c	2.0195752e-05
100	0x37d898c9	2.5820353e-05
101	0x38036892	3.1330223e-05
102	0x381f7c3c	3.8024256e-05
103	0x3842ee52	4.6475157e-05
104	0x386bc22b	5.62092e-05
105	0x388a21dc	6.5866596e-05
106	0x3899deb0	7.337087e-05
107	0x38a0fe11	7.676718e-05
108	0x389d9835	7.514694e-05
109	0x3890d4cc	6.9060916e-05
110	0x387c5c1b	6.0167262e-05
111	0x3854fc6c	5.0779825e-05
112	0x3836f73e	4.3622444e-05
113	0x3828d991	4.0256946e-05
114	0x382c1461	4.1026975e-05
115	0x383d5c8d	4.5147306e-05
116	0x3855d23e	5.097896e-05
117	0x386e7025	5.6848065e-05
118	0x388147bc	6.164561e-05
119	0x388856b7	6.501137e-05
120	0x388cb491	6.709353e-05
121	0x388f6578	6.8376714e-05
122	0x3890fa9c	6.913135e-05
123	0x38918ce3	6.940381e-05
124	0x388fcf5c	6.857395e-05
125	0x3889b2f9	6.566005e-05
126	0x387a781a	5.9716498e-05
127	0x38520246	5.007002e-05
128	0x3819bbc0	3.66529e-05
129	0x37a8dadf	2.012908e-05
130	0x3649e6be	3.0085644e-06
131	0xb74ec3a5	-1.2324109e-05
132	0xb7c5a005	-2.3558745e-05
133	0xb7f3eff3	-2.9079592e-05
134	0xb7ee15e7	-2.838201e-05
135	0xb7b903ad	-2.205543e-05
136	0xb7451e51	-1.1749174e-05
137	0x350db84b	5.2794775e-07
138	0x3751d510	1.2506978e-05
139	0x37bf31de	2.2792196e-05
140	0x3801fe30	3.0992727e-05
141	0x381ef166	3.7894955e-05
142	0x383b0e87	4.4597804e-05
143	0x385a61da	5.206638e-05
144	0x387eaad0	6.07174e-05
145	0x38936fd8	7.030339e-05
146	0x38a707e9	7.964654e-05
147	0x38b6a69e	8.709471e-05
148	0x38be4ff7	9.0748006e-05
149	0x38bb5202	8.93213e-05
150	0x38ae0167	8.297228e-05
151	0x3899a373	7.326053e-05
152	0x38832ae4	6.254556e-05
153	0x385f5fd9	5.325661e-05
154	0x3845d5fe	4.7167756e-05
155	0x383bb771	4.4755117e-05
156	0x383bb2f9	4.4750956e-05
157	0x383c2a0b	4.486185e-05
158	0x3835994d	4.3296535e-05
159	0x3821c5c6	3.8569582e-05
160	0x37fe6441	3.0325844e-05
161	0x37a13f49	1.9222165e-05
162	0x36f0bd15	7.1745694e-06
163	0xb68401f0	-3.934132e-06
164	0xb755c859	-1.2742436e-05
165	0xb7a072a7	-1.9126875e-05
166	0xb7c5ee10	-2.3595087e-05
167	0xb7e7bf27	-2.7626358e-05
168	0xb80b060e	-3.314582e-05
169	0xb82ecd25	-4.167589e-05
170	0xb85f1831	-5.3189873e-05
171	0xb88ab804	-6.6146284e-05
172	0xb8a4d868	-7.860438e-05
173	0xb8b969c2	-8.841186e-05
174	0xb8c525c2	-9.400725e-05
175	0xb8c75886	-9.505548e-05
176	0xb8c0e1c9	-9.197329e-05
177	0xb8b47a1f	-8.605816e-05
178	0xb8a6788a	-7.937949e-05
179	0xb89986ff	-7.3207535e-05
180	0xb88e6ee2	-6.791741e-05
181	0xb883d9cb	-6.287134e-05
182	0xb86da8b9	-5.666234e-05
183	0xb8474af7	-4.7515114e-05
184	0xb80f9c41	-3.423938e-05
185	0xb789d8ec	-1.6432685e-05
186	0x3699eef6	4.587574e-06
187	0x37e19571	2.689168e-05
188	0x38486d9c	4.7785798e-05
189	0x38884a16	6.498785e-05
190	0x38a08d5b	7.655724e-05
191	0x38aca76e	8.232785e-05
192	0x38ae96e0	8.325069e-05
193	0x38a9f615	8.104384e-05
194	0x38a346b9	7.785619e-05
195	0x389ec002	7.569791e-05
196	0x389ee0b1	7.575879e-05
197	0x38a42826	7.8276076e-05
198	0x38ac0fc1	8.2045335e-05
199	0x38b36387	8.5539235e-05
200	0x38b6baa4	8.713201e-05
201	0x38b4f4c2	8.6286585e-05
202	0x38af1f7e	8.350516e-05
203	0x38a770de	7.984204e-05
204	0x389ff119	7.626619e-05
205	0x389904ee	7.296527e-05
206	0x38933acb	7.020457e-05
207	0x388d7fb1	6.747188e-05
208	0x38864e1a	6.4041655e-05
209	0x387571b2	5.851844e-05
210	0x3851fa1f	5.0062426e-05
211	0x381fd0c2	3.8102975e-05
212	0x37be33fc	2.2673972e-05
213	0x36a3aa79	4.877624e-06
214	0xb75edf0f	-1.3284166e-05
215	0xb7fc2128	-3.005618e-05
216	0xb8391c83	-4.413399e-05
217	0xb8671e8f	-5.510315e-05
218	0xb884ae7a	-6.326749e-05
219	0xb891d508	-6.953819e-05
220	0xb89c2cc2	-7.4469965e-05
221	0xb8a5001d	-7.867834e-05
222	0xb8ac2ea9	-8.21029e-05
223	0xb8b12698	-8.447206e-05
224	0xb8b31824	-8.539882e-05
225	0xb8b03602	-8.402394e-05
226	0xb8a827e5	-8.018295e-05
227	0xb89c305e	-7.447669e-05
228	0xb88d8315	-6.74782e-05
229	0xb87aa58e	-5.975883e-05
230	0xb85e3545	-5.2978536e-05
231	0xb84a9928	-4.830319e-05
232	0xb8412572	-4.604966e-05
233	0xb83d5d0d	-4.514777e-05
234	0xb83af464	-4.4573462e-05
235	0xb8345d76	-4.3002387e-05
236	0xb82695aa	-3.971687e-05
237	0xb812cc22	-3.4999226e-05
238	0xb7fa2afc	-2.9822339e-05
239	0xb7d58929	-2.5455449e-05
240	0xb7c16ea9	-2.3058923e-05
241	0xb7c09b7e	-2.296059e-05
242	0xb7d14b73	-2.4949875e-05
243	0xb7ebddde	-2.8117498e-05
244	0xb8029f97	-3.1143045e-05
245	0xb807bbb9	-3.236134e-05
246	0xb8006393	-3.0610314e-05
247	0xb7d6ada4	-2.5591646e-05
248	0xb795f282	-1.787511e-05
249	0xb7146f65	-8.8474235e-06
250	0x344b62b6	1.8941759e-07
251	0x37099821	8.201257e-06
252	0x377571e1	1.46296525e-05
253	0x37a0fb64	1.919055e-05
254	0x37bfc58b	2.2860962e-05
255	0x37dcffc5	2.6345146e-05

exp_avg_sq f4 [8, 1, 1, 256]
0	0x33060f66	3.121331e-08
1	0x33009a0b	2.9942424e-08
2	0x32f72f47	2.8776084e-08
3	0x32eef89a	2.7819897e-08
4	0x32e89a2d	2.7078466e-08
5	0x32e366fe	2.6473113e-08
6	0x32defdf4	2.5959686e-08
7	0x32db8c8a	2.5558865e-08
8	0x32d96095	2.5306045e-08
9	0x32d87753	2.5199972e-08
10	0x32d937b6	2.528746e-08
11	0x32dca565	2.5686584e-08
12	0x32e3f93a	2.6539613e-08
13	0x32eef5f0	2.7818686e-08
14	0x32fae200	2.9206603e-08
15	0x3301da5f	3.023376e-08
16	0x330392dd	3.0634386e-08
17	0x33032716	3.0536363e-08
18	0x33025602	3.0346207e-08
19	0x3302620f	3.0357167e-08
20	0x33033f63	3.0558464e-08
21	0x33041967	3.075675e-08
22	0x33045ec1	3.0819823e-08
23	0x330415b2	3.0753377e-08
24	0x330391b7	3.063334e-08
25	0x3302d78a	3.0464015e-08
26	0x3301d7af	3.0231316e-08
27	0x3300bdc0	2.99749e-08
28	0x32ffba7f	2.9770716e-08
29	0x32fe45f0	2.9601296e-08
30	0x32fc7da2	2.9393792e-08
31	0x32fa8956	2.9166284e-08
32	0x32fa2961	2.9122647e-08
33	0x32fd868a	2.9514258e-08
34	0x33027b12	3.0379915e-08
35	0x3306c005	3.1373947e-08
36	0x33098120	3.2015237e-08
37	0x3309c298	3.207478e-08
38	0x330856ca	3.17439e-08
39	0x3307046f	3.143617e-08
40	0x3307067d	3.1438038e-08
41	0x33086c31	3.1763367e-08
42	0x330a7bf8	3.2243378e-08
43	0x330c8983	3.2721356e-08
44	0x330e1860	3.308412e-08
45	0x330eaa6f	3.321696e-08
46	0x330dd241	3.3020346e-08
47	0x330ba5a8	3.2514123e-08
48	0x3308b13d	3.1826165e-08
49	0x3305a40f	3.1115686e-08
50	0x3302cbf4	3.0453478e-08
51	0x330032f6	2.984867e-08
52	0x32fc4794	2.9369211e-08
53	0x32fa956d	2.9171781e-08
54	0x32fc1898	2.9347845e-08
55	0x32ffa7ca	2.9762209e-08
56	0x33014a28	3.0102598e-08
57	0x330183d4	3.015505e-08
58	0x3300d923	2.9999807e-08
59	0x330086e9	2.9925022e-08
60	0x3301562b	3.0113522e-08
61	0x3302e496	3.047588e-08
62	0x330434c9	3.0781653e-08
63	0x3304c3aa	3.09116e-08
64	0x3304f9f2	3.096097e-08
65	0x3305638b	3.105701e-08
66	0x3305fb41	3.119499e-08
67	0x33066491	3.129077e-08
68	0x33066943	3.129504e-08
69	0x33062b33	3.1238596e-08
70	0x33059c8e	3.110886e-08
71	0x33045c83	3.0817784e-08
72	0x33023638	3.0317295e-08
73	0x32ff04ea	2.9688142e-08
74	0x32fa0935	2.9108017e-08
75	0x32f65a1f	2.8679151e-08
76	0x32f39389	2.8356014e-08
77	0x32f10750	2.8059418e-08
78	0x32ef5168	2.7860281e-08
79	0x32ef9d03	2.7894663e-08
80	0x32f1ed14	2.8163903e-08
81	0x32f3f2c9	2.8399329e-08
82	0x32f2b6d4	2.8255648e-08
83	0x32ed49f2	2.7624058e-08
84	0x32e5e8d4	2.6764987e-08
85	0x32dfda37	2.605985e-08
86	0x32dd0a30	2.5732419e-08
87	0x32dd4dfa	2.5763246e-08
88	0x32df7d2b	2.6017537e-08
89	0x32e27ff5	2.636805e-08
90	0x32e56a5c	2.6707475e-08
91	0x32e704f4	2.6894192e-08
92	0x32e6f0f0	2.688509e-08
93	0x32e72257	2.6907555e-08
94	0x32eb8f32	2.7422718e-08
95	0x32f6d2d0	2.8734036e-08
96	0x3303b75c	3.066758e-08
97	0x330c2418	3.2629117e-08
98	0x3312465e	3.4057273e-08
99	0x33155b83	3.4774995e-08
100	0x331614ed	3.494363e-08
101	0x33157e59	3.480668e-08
102	0x3314196d	3.448206e-08
103	0x331233df	3.404045e-08
104	0x3310619f	3.36164e-08
105	0x330f237f	3.3327066e-08
106	0x330e15d0	3.308179e-08
107	0x330c1753	3.2617503e-08
108	0x33088f77	3.1795448e-08
109	0x33044150	3.0793046e-08
110	0x330093f4	2.9936885e-08
111	0x32fc88f4	2.939894e-08
112	0x32fa1786	2.9114528e-08
113	0x32f93f34	2.9016157e-08
114	0x32fb6b4a	2.9269035e-08
115	0x33018815	3.015892e-08
116	0x3308072b	3.1671487e-08
117	0x330f0491	3.3298935e-08
118	0x33134687	3.429025e-08
119	0x3312f333	3.4214462e-08
120	0x330ea73a	3.3214043e-08
121	0x33089851	3.18035e-08
122	0x33029903	3.0407147e-08
123	0x32faade2	2.9182903e-08
124	0x32f1d682	2.815364e-08
125	0x32eb6696	2.7404251e-08
126	0x32e89e7b	2.7080423e-08
127	0x32eb05f8	2.7360315e-08
128	0x32f47bb6	2.8461596e-08
129	0x330434d8	3.0781706e-08
130	0x33138346	3.4345497e-08
131	0x3326c356	3.8827544e-08
132	0x333a02e3	4.3309125e-08
133	0x33485868	4.6646534e-08
134	0x334e7cbc	4.8076558e-08
135	0x334c9a80	4.763797e-08
136	0x33457de6	4.598214e-08
137	0x333c6596	4.3864553e-08
138	0x33336947	4.1772434e-08
139	0x332b70c6	3.9916607e-08
140	0x3324accc	3.8341383e-08
141	0x331ec5a5	3.6967e-08
142	0x3318b933	3.5558696e-08
143	0x3311966e	3.389726e-08
144	0x3309904f	3.2029046e-08
145	0x33023b1c	3.0321743e-08
146	0x32fa616b	2.9148131e-08
147	0x32f58f3e	2.8586893e-08
148	0x32f3a54f	2.8364097e-08
149	0x32f20391	2.817413e-08
150	0x32eff99c	2.7936771e-08
151	0x32eea4bb	2.7781757e-08
152	0x32ee885a	2.7768852e-08
153	0x32ee7573	2.7760256e-08
154	0x32ed1bf3	2.7603141e-08
155	0x32eaf5f4	2.7353032e-08
156	0x32e9b1d3	2.7205635e-08
157	0x32ea162f	2.7251273e-08
158	0x32eae08c	2.7343297e-08
159	0x32ea115e	2.7249083e-08
160	0x32e7a93b	2.6968896e-08
161	0x32e5e386	2.6762574e-08
162	0x32e73abe	2.6918652e-08
163	0x32ec0f38	2.7480937e-08
164	0x32f316e4	2.8299333e-08
165	0x32fb0de3	2.922656e-08
166	0x3301c0ac	3.0210387e-08
167	0x3305c0a9	3.11417e-08
168	0x33085dbe	3.1750226e-08
169	0x33087f91	3.178099e-08
170	0x3306732c	3.1304054e-08
171	0x3303e629	3.0710144e-08
172	0x33029985	3.040761e-08
173	0x3302e395	3.047497e-08
174	0x3303f134	3.0720187e-08
175	0x3304e1e1	3.093908e-08
176	0x33059291	3.1099777e-08
177	0x33063f2b	3.1256757e-08
178	0x3306c219	3.1375837e-08
179	0x330649bc	3.1266367e-08
180	0x33044e5e	3.080492e-08
181	0x33011ddf	3.006232e-08
182	0x32fac9db	2.9195624e-08
183	0x32f2fa13	2.8286228e-08
184	0x32eac9ed	2.733301e-08
185	0x32e31a0e	2.6438126e-08
186	0x32ddfd47	2.5842963e-08
187	0x32dd79d7	2.5783192e-08
188	0x32e1643b	2.6239027e-08
189	0x32e71fed	2.6906458e-08
190	0x32eba728	2.7433614e-08
191	0x32ee431c	2.7737364e-08
192	0x32efeb72	2.793033e-08
193	0x32f188f4	2.8118372e-08
194	0x32f28b11	2.8235748e-08
195	0x32f2129d	2.8180972e-08
196	0x32f06dc8	2.79896e-08
197	0x32ef341b	2.7846957e-08
198	0x32ef6e1b	2.7873332e-08
199	0x32f0959b	2.800771e-08
200	0x32f141a2	2.8085939e-08
201	0x32f0b082	2.8019944e-08
202	0x32eec2a9	2.7795368e-08
203	0x32eb6d5c	2.7407332e-08
204	0x32e6c486	2.6864893e-08
205	0x32e1a794	2.6269653e-08
206	0x32dea918	2.5921096e-08
207	0x32e043aa	2.6107802e-08
208	0x32e60513	2.6777832e-08
209	0x32eb771e	2.7411769e-08
210	0x32eb7655	2.7411412e-08
211	0x32e440a9	2.6572097e-08
212	0x32d8eb48	2.5252703e-08
213	0x32cee273	2.4084533e-08
214	0x32c9a889	2.347612e-08
215	0x32c904a7	2.3401595e-08
216	0x32cb2516	2.3649175e-08
217	0x32cea8bc	2.4058288e-08
218	0x32d3a7cd	2.463994e-08
219	0x32da7849	2.543324e-08
220	0x32e31ece	2.6440286e-08
221	0x32ed87b8	2.7652149e-08
222	0x32f97e8c	2.9044962e-08
223	0x3302d625	3.0462747e-08
224	0x33078f6d	3.1562582e-08
225	0x33094bcf	3.1966746e-08
226	0x3307b778	3.1599e-08
227	0x330401c1	3.073524e-08
228	0x33001121	2.98179e-08
229	0x32fa1741	2.9114405e-08
230	0x32f600a6	2.8638464e-08
231	0x32f3149a	2.8298292e-08
232	0x32f16c82	2.8105436e-08
233	0x32f1cec1	2.8150113e-08
234	0x32f40863	2.8409152e-08
235	0x32f6306c	2.8660189e-08
236	0x32f65f3c	2.8681477e-08
237	0x32f47971	2.8460564e-08
238	0x32f20e2d	2.8178954e-08
239	0x32f0a74a	2.8015751e-08
240	0x32f0752d	2.7992963e-08
241	0x32f0f468	2.805082e-08
242	0x32f2a5fd	2.824799e-08
243	0x32f6c221	2.8726449e-08
244	0x32fddc4b	2.9553254e-08
245	0x33033673	3.0550336e-08
246	0x3306ed86	3.1415333e-08
247	0x33094d7e	3.1968277e-08
248	0x330a6fc9	3.2232297e-08
249	0x330adf28	3.233359e-08
250	0x330ae0c3	3.233505e-08
251	0x330a5070	3.2203786e-08
252	0x3308ff31	3.1897063e-08
253	0x3306eda4	3.141544e-08
254	0x33042253	3.0764863e-08
255	0x3300e629	3.0011652e-08

exp_avg f4 [8]
0	0x30576620	7.836167e-10
1	0x3236d4ba	1.0642163e-08
2	0x324da1f8	1.1969398e-08
3	0x30ec7594	1.7204678e-09
4	0xb11f724f	-2.3202522e-09
5	0x321e6396	9.219454e-09
6	0x2ff3e474	4.4363768e-10
7	0x30ee0850	1.7319142e-09

exp_avg_sq f4 [8]
0	0x24d7d098	9.359476e-17
1	0x25a53553	2.865907e-16
2	0x24ca1bb8	8.765049e-17
3	0x23185ac7	8.259159e-18
4	0x2451b92e	4.5476504e-17
5	0x251e5bff	1.3735485e-16
6	0x2360ded7	1.21902525e-17
7	0x25124cf6	1.2689557e-16

exp_avg f4 [8]
0	0xb02d30a0	-6.3006134e-10
1	0xb014d90c	-5.415053e-10
2	0xaf80e925	-2.3448724e-10
3	0x2f2b8ad6	1.5601684e-10
4	0xaf6a3296	-2.1300148e-10
5	0xafe83402	-4.2237508e-10
6	0x2f3ab5f5	1.6981246e-10
7	0x2fb5f462	3.3097353e-10

exp_avg_sq f4 [8]
0	0x2231f239	2.4116205e-18
1	0x22bceaa5	5.120594e-18
2	0x227ebbf0	3.4522912e-18
3	0x2137cd26	6.2274323e-19
4	0x21650226	7.759106e-19
5	0x22fcb374	6.849474e-18
6	0x2112e6d6	4.9772233e-19
7	0x219680cd	1.0198489e-18
