model/sub1_20240206_130642/checkpoints/epoch1_0.5283.pt (torch, 195725 bytes, 39 tensors)

net.conv.weight f4 [8, 1, 1, 256]
0	0xbe9a1eec	-0.30101717
1	0xbed567f2	-0.41680866
2	0xbf1a7204	-0.60330224
3	0xbf30b6b2	-0.6902877
4	0xbf11ee74	-0.57004476
5	0xbf18bb76	-0.5966104
6	0xbf367dd9	-0.7128578
7	0xbf471895	-0.77771884
8	0xbf82a6e0	-1.0207176
9	0xbf73c8ae	-0.9522809
10	0xbf5b0a9b	-0.8556306
11	0xbf383598	-0.7195678
12	0xbef5addd	-0.4798421
13	0xbe25dd26	-0.16197643
14	0x3de9429c	0.11389658
15	0x3eb2bd2a	0.34909946
16	0x3e93174c	0.28728712
17	0x3dadf97e	0.084948525
18	0xbdf5767b	-0.11985489
19	0xbedc9b17	-0.43087074
20	0xbf07d213	-0.5305492
21	0xbf1455d3	-0.5794346
22	0xbeeb2cf8	-0.45932746
23	0xbe4c41d3	-0.19946985
24	0x3e4c3ed9	0.1994585
25	0x3edc6e62	0.43052965
26	0x3eefa745	0.46807304
27	0x3ef33805	0.47503677
28	0x3edc1b06	0.42989367
29	0x3e199849	0.14999498
30	0x3e0855c5	0.13313968
31	0x3e01df28	0.12682784
32	0x3e98de79	0.29857233
33	0x3f30b24e	0.6902207
34	0x3f930ee1	1.1488916
35	0x3fa6d866	1.303479
36	0x3fba0024	1.4531293
37	0x3fb29683	1.3952183
38	0x3fa1fc2f	1.2655085
39	0x3f5a29f0	0.8522024
40	0x3eebcc7e	0.46054453
41	0x3e01c8cb	0.12674253
42	0xbd8e186d	-0.069382526
43	0xbdf7ea0a	-0.12105186
44	0xbdedc521	-0.11609865
45	0x3ca62ba0	0.020284474
46	0xbdce7ae2	-0.10082032
47	0xbdebd7f0	-0.11515796
48	0xbe9449ae	-0.28962463
49	0xbf031b9c	-0.51214004
50	0xbf16a76e	-0.5884923
51	0xbf246e53	-0.6423084
52	0xbf380a52	-0.7189075
53	0xbf0222bf	-0.5083427
54	0xbeb6af62	-0.3568068
55	0xbe07cc10	-0.13261437
56	0xbdd4c250	-0.10388625
57	0xbe410248	-0.18848526
58	0xbeab31f0	-0.33436537
59	0xbefe8199	-0.4970825
60	0xbf496f03	-0.78685015
61	0xbf85bf61	-1.0449029
62	0xbf931771	-1.1491529
63	0xbf8abef2	-1.0839522
64	0xbf6e4e88	-0.9308858
65	0xbf313595	-0.69222385
66	0xbf1590db	-0.58424157
67	0xbee46dcb	-0.44615015
68	0xbec565d6	-0.38554257
69	0xbe986780	-0.29766464
70	0xbdbb7803	-0.0915375
71	0xbbab9433	-0.0052361726
72	0x3e0b982e	0.1363227
73	0x3e71b841	0.23605444
74	0x3edd1d3b	0.43186364
75	0x3f204d7d	0.6261824
76	0x3f26ea61	0.65201384
77	0x3f171a1e	0.59024227
78	0x3efa6482	0.48904806
79	0x3eef901e	0.4678964
80	0x3ea2bcb7	0.31784603
81	0x3e81e689	0.25371197
82	0x3e266231	0.16248395
83	0x3ebb77ac	0.3661474
84	0x3ef7e6e9	0.48418358
85	0x3f1842fe	0.5947722
86	0x3f2da19c	0.6782472
87	0x3f2e4d6f	0.68086904
88	0x3f0d6808	0.55236864
89	0x3ea4bc5a	0.3217495
90	0x3e0c6010	0.1370852
91	0xbdcea6c4	-0.10090402
92	0xbe49c4f0	-0.19704032
93	0xbd639bb8	-0.055568427
94	0x3e29b2ed	0.16572161
95	0x3efddfeb	0.49584898
96	0x3f25f8a4	0.6483252
97	0x3f3c9fdc	0.73681426
98	0x3f0d304a	0.5515181
99	0x3e8e74c2	0.27823454
100	0xbdc2287e	-0.094803795
101	0xbed24f54	-0.41076148
102	0xbf2480a1	-0.6425877
103	0xbf2aedce	-0.6676911
104	0xbf20eaf4	-0.6285851
105	0xbef26503	-0.4734269
106	0xbe783721	-0.2423978
107	0xbe767e33	-0.24071579
108	0xbea35e30	-0.31907797
109	0xbf210861	-0.6290341
110	0xbf71ed34	-0.9450257
111	0xbfb444c1	-1.4083482
112	0xbfcd0e01	-1.6019899
113	0xbfd901b1	-1.6953641
114	0xbfb98267	-1.4492921
115	0xbf728b71	-0.9474402
116	0xbecf4ee0	-0.40489864
117	0x3dc3d920	0.09562898
118	0x3ea43699	0.32072905
119	0x3eebff6b	0.46093306
120	0x3ec34512	0.38138634
121	0x3eaf86f0	0.34282637
122	0x3dfbe953	0.123003624
123	0x3e15c327	0.14625226
124	0x3e48c312	0.19605663
125	0x3ed475a1	0.41495994
126	0x3f0eaa35	0.55728465
127	0x3f17ca8e	0.5929345
128	0x3f14b330	0.5808592
129	0x3eb90d67	0.36143038
130	0x3e39c35e	0.18140933
131	0xbc1f5274	-0.009724248
132	0xbe53076b	-0.20608298
133	0xbe23c990	-0.15994859
134	0xbe395a80	-0.1810093
135	0x3b1e20d2	0.002412845
136	0x3e731897	0.23739849
137	0x3eea60de	0.4577703
138	0x3f19aa6c	0.6002567
139	0x3f3033ec	0.68829226
140	0x3f09359b	0.5359742
141	0x3ed49417	0.41519234
142	0x3e2e2ee0	0.17010069
143	0x3d053122	0.03251756
144	0x3d9a2dc9	0.07528264
145	0x3e827733	0.25481567
146	0x3eb06561	0.34452346
147	0x3ed1e788	0.40996957
148	0x3ec4c302	0.3843003
149	0x3eaa2290	0.33229494
150	0x3ca33d92	0.01992682
151	0xbefea472	-0.49734837
152	0xbf5a5bbe	-0.8529624
153	0xbf8883fa	-1.0665276
154	0xbf8b8e02	-1.0902712
155	0xbf81d0bb	-1.0141824
156	0xbf4c407a	-0.79785883
157	0xbf00f984	-0.5038073
158	0xbec2e75c	-0.38067138
159	0xbebfce4b	-0.37462077
160	0xbf21cfce	-0.6320771
161	0xbf54b07e	-0.83081806
162	0xbf96ae2b	-1.1771902
163	0xbfa25a03	-1.2683719
164	0xbf90178a	-1.1257184
165	0xbf5b865f	-0.8575191
166	0xbf0be268	-0.54642344
167	0xbe8a63d5	-0.2702929
168	0xbd8318ed	-0.064012386
169	0x3defb9c9	0.117053576
170	0xbd0dc82a	-0.03461472
171	0xbdab63c5	-0.08368639
172	0xbe88e3a6	-0.26736182
173	0xbec9437b	-0.39309296
174	0xbeaf59bc	-0.3424815
175	0xbe9086c4	-0.28227818
176	0xbc76a34e	-0.015053583
177	0x3e989c12	0.29806572
178	0x3efc4bff	0.4927673
179	0x3f20d9a7	0.6283211
180	0x3f1236d6	0.57114923
181	0x3f051324	0.5198233
182	0x3edd7620	0.43254185
183	0x3ea53443	0.32266435
184	0x3e7b4466	0.2453781
185	0x3ec83816	0.3910529
186	0x3f29491a	0.6612717
187	0x3f8c3490	1.0953541
188	0x3fa741eb	1.3066992
189	0x3fa9ae84	1.3256383
190	0x3fab0dcc	1.3363585
191	0x3f8f9c8e	1.1219652
192	0x3f37ed7d	0.71846753
193	0x3eca1de0	0.39475918
194	0x3d540049	0.051758084
195	0x3cd3c81c	0.025852256
196	0xbcb1af49	-0.021690028
197	0x3de1ffaa	0.11035092
198	0x3d1e59f0	0.03865999
199	0x3d9b7850	0.07591307
200	0xbdf882b4	-0.12134305
201	0xbed1d760	-0.4098463
202	0xbf51a18e	-0.8188714
203	0xbf83a30f	-1.0284137
204	0xbf918de6	-1.1371429
205	0xbf840578	-1.0314169
206	0xbf3915f6	-0.72299135
207	0xbecbb031	-0.3978286
208	0x3d0cae46	0.034345888
209	0x3eb96b61	0.36214736
210	0x3ebb0e3c	0.36534297
211	0x3e1d5d3c	0.15367597
212	0xbe5d3782	-0.21603206
213	0xbf247839	-0.64245945
214	0xbf7ae599	-0.9800659
215	0xbf9d9187	-1.2310036
216	0xbfa07f69	-1.2538882
217	0xbf8b4279	-1.0879661
218	0xbf34172a	-0.70347846
219	0xbe9531db	-0.291396
220	0xbe68e2f2	-0.22742823
221	0xbe2d49d4	-0.16922694
222	0xbef2f016	-0.47448796
223	0xbf520e12	-0.8205272
224	0xbf6a94df	-0.9163341
225	0xbf34e5f0	-0.70663357
226	0xbee4094f	-0.44538352
227	0xbd979bdb	-0.07402774
228	0x3eeac13d	0.45850554
229	0x3f7901cd	0.9726837
230	0x3f9e3925	1.2361189
231	0x3f98491a	1.1897309
232	0x3f8a0b38	1.0784674
233	0x3f380eaa	0.71897376
234	0x3e68a7e2	0.22720292
235	0x3ccbd304	0.024880894
236	0x3d2e6f70	0.042586744
237	0x3eabee43	0.33580217
238	0x3f5440b0	0.82911205
239	0x3f92b528	1.1461535
240	0x3fac95c0	1.34832
241	0x3fa1c837	1.2639226
242	0x3f7da82e	0.99084747
243	0x3f254c72	0.6456977
244	0x3e408136	0.1879929
245	0xbb32a081	-0.0027256312
246	0xbe2e1a3b	-0.17002194
247	0xbe048e9b	-0.12945025
248	0xbe1c021b	-0.15235178
249	0xbd29e7f4	-0.041480973
250	0xbd85932b	-0.06522211
251	0xbe3c4746	-0.18386564
252	0xbf0ae584	-0.54256463
253	0xbf88f8a9	-1.0700885
254	0xbfc80ba7	-1.5628556
255	0xbfee034e	-1.8594759

net.bn1.weight f4 [8]
0	0x3fbe3a7b	1.4861597
1	0x3ff1d206	1.8892219
2	0x40041d12	2.0642743
3	0x3fb544e3	1.4161648
4	0x3f86e23d	1.0537792
5	0x3ff522af	1.915121
6	0x3f8b0299	1.0860168
7	0x3f55c800	0.835083

net.bn1.bias f4 [8]
0	0xbd4f3c2c	-0.050594494
1	0xbd8b142c	-0.06790957
2	0xbe5c8044	-0.21533304
3	0xbd71ae27	-0.059003975
4	0xbdfde814	-0.12397781
5	0x3e8a70c4	0.27039158
6	0xbd71aaf3	-0.05900092
7	0x3df85c63	0.12126996

net.bn1.running_mean f4 [8]
0	0x3b070442	0.0020601903
1	0x3b3049df	0.00268995
2	0xb98d7d54	-0.00026986992
3	0x3a87ddf9	0.0010365836
4	0x3ac14e66	0.0014748096
5	0x3b0a46e1	0.0021099376
6	0x3a7d2a5e	0.0009657497
7	0xb95e7e36	-0.00021218587

net.bn1.running_var f4 [8]
0	0x448d3146	1129.5398
1	0x44914225	1162.067
2	0x44ab7f85	1371.985
3	0x44459158	790.271
4	0x43fa3b0e	500.46136
5	0x44a3ded2	1310.9631
6	0x44248d79	658.2105
7	0x43d9ec67	435.8469

net.depth_conv.weight f4 [16, 1, 32, 1]
0	0xbe941493	-0.28921947
1	0x3e8ff37a	0.28115445
2	0x3f1c50d3	0.6106083
3	0x3e385b88	0.18003666
4	0x3f4a186c	0.78943515
5	0xbf2f96a4	-0.68589234
6	0x3f4ecd57	0.80782074
7	0x3f214d83	0.630089
8	0xbf813422	-1.0094035
9	0x3f0a40eb	0.54005307
10	0xbfabaeee	-1.3412759
11	0xbed41958	-0.41425586
12	0xbf306070	-0.6889715
13	0x3e08f3fe	0.13374326
14	0x3ebe1f9d	0.37133494
15	0x3f139160	0.576437
16	0x3d5ff1fd	0.054674137
17	0x3ee96296	0.45583028
18	0x3fbf1524	1.4928327
19	0x3f6feb0b	0.9371802
20	0xbeab79c2	-0.3349133
21	0x3e18d679	0.14925565
22	0x3e845db2	0.25852734
23	0xbfc4bda0	-1.5370369
24	0xbfbb8665	-1.4650389
25	0x3fac169a	1.3444397
26	0xbec50b25	-0.38485065
27	0xbfb676c9	-1.4255
28	0xbea1ecb6	-0.3162591
29	0xbf0d94ad	-0.55304986
30	0x3f1ab8c4	0.6043818
31	0x3e9aa5b6	0.30204552
32	0xbe2d942e	-0.16951057
33	0x3f4d0b74	0.800956
34	0x3f66bcae	0.9013165
35	0x3e5b92b6	0.21442685
36	0x3fbdecb4	1.4837861
37	0x3eaff1d7	0.34364197
38	0xbeea21ac	-0.45728815
39	0xbe429542	-0.1900225
40	0xbfe8bf9c	-1.8183475
41	0x3f66306c	0.89917636
42	0xbee65f6e	-0.44994682
43	0xbe96f2f9	-0.29482248
44	0xbfc6d710	-1.5534382
45	0xbf0522b2	-0.52006066
46	0x3d41b072	0.047287412
47	0x3eefe3cc	0.46853483
48	0xbd09be2c	-0.033628628
49	0x3ed57a86	0.4169504
50	0x3f632ae7	0.8873734
51	0x3f918f8a	1.137193
52	0x3f0db334	0.5535157
53	0x3fd67aca	1.6756222
54	0x3efedb99	0.49776915
55	0xbfa9bef7	-1.3261403
56	0xbfc94485	-1.5724036
57	0x3f277666	0.65415037
58	0xbb7f498f	-0.0038953756
59	0xbf009d23	-0.5023977
60	0xbf97fd35	-1.1874148
61	0xbf56bb6f	-0.8387975
62	0x3f11d2d2	0.5696231
63	0x3e839c46	0.25705165
64	0x3e99966b	0.29997572
65	0x3f8950e4	1.0727811
66	0x3ec21cc5	0.37912574
67	0xbef14f5a	-0.47130853
68	0x3ead4740	0.33843422
69	0xbe2416b6	-0.16024289
70	0x3ee4bd90	0.44675875
71	0xbea32c42	-0.31869704
72	0xbea85acc	-0.32881773
73	0xc02a0aa2	-2.656899
74	0x3d79e8e9	0.061013136
75	0x3ef3f403	0.47647104
76	0x3ede2467	0.43387148
77	0x3fa52fcc	1.2905211
78	0xbebbdaa3	-0.36690244
79	0x3e8cca4c	0.2749809
80	0x3e4e1b24	0.20127541
81	0x3e21fa45	0.15818126
82	0x3e9efc3d	0.31051818
83	0x3efaf84d	0.49017563
84	0x3f644fff	0.89184564
85	0xbeab91ee	-0.33509773
86	0x3db7e991	0.08980096
87	0xbcb6d6cb	-0.022319218
88	0xbf9432b4	-1.1577973
89	0xbe76903d	-0.2407846
90	0xbf8c1b16	-1.0945766
91	0xbe7bd53e	-0.24593064
92	0xbb8a0aac	-0.004212698
93	0xbe80f9bc	-0.25190532
94	0x3f0a59d7	0.54043335
95	0x3ebab7a0	0.3646822
96	0xbe8418f2	-0.25800282
97	0xbf3fcbb8	-0.74920225
98	0xbf7637dd	-0.9617899
99	0xbf55a5f4	-0.8345635
100	0xbf8a7ba2	-1.081898
101	0x3f17a8b2	0.59241784
102	0x3ee1b3dc	0.44082534
103	0x3fa82f9f	1.3139533
104	0xbf22c99c	-0.6358888
105	0x400e7224	2.2257166
106	0xbf0f91a7	-0.5608162
107	0x3e880518	0.26566386
108	0xbab9f58f	-0.0014187562
109	0xbec52c00	-0.38510132
110	0xbd747332	-0.05968017
111	0xbe80bcb0	-0.25143957
112	0xbdedd690	-0.1161319
113	0xbf509c7d	-0.8148878
114	0xbe4bf435	-0.19917376
115	0xbe88e196	-0.26734608
116	0xbf162337	-0.58647484
117	0xbe22c27c	-0.15894502
118	0xbf083436	-0.5320467
119	0x3f357857	0.7088675
120	0x3eceb207	0.403702
121	0xbee82069	-0.45337227
122	0x3fdbbb6e	1.7166574
123	0x3eebcfc1	0.4605694
124	0xbf2e4846	-0.6807903
125	0x3f45342f	0.7703275
126	0xbf1964bb	-0.5991933
127	0x3e38c36b	0.18043296
128	0xbe0ffbff	-0.14060973
129	0xbf96c487	-1.1778725
130	0xbf1c5ad1	-0.61076075
131	0xbeeb8c28	-0.46005368
132	0xbe76073f	-0.24026202
133	0x3ec672cd	0.3875946
134	0xbe2e0078	-0.16992366
135	0x3fa06ee6	1.2533844
136	0x3e2f2c50	0.17106748
137	0x403ebe18	2.9803524
138	0xbd346e70	-0.044050634
139	0xbdd623ba	-0.10456033
140	0xbf42f4d7	-0.76154846
141	0xbfb93af3	-1.4471115
142	0x3e9036aa	0.28166705
143	0xbd508c15	-0.050914843
144	0xbe655194	-0.22394401
145	0xbeaa9c75	-0.33322492
146	0xbf494cb8	-0.7863269
147	0xbe8a6533	-0.27030334
148	0xbf5261a3	-0.8218023
149	0x3f27e5b1	0.65584856
150	0x3df5fb80	0.120108604
151	0x3ef4bce2	0.47800356
152	0x3ef321c1	0.4748669
153	0x3f05d335	0.522754
154	0x3f87359c	1.0563235
155	0x3f822505	1.0167547
156	0xbec11321	-0.37709907
157	0xbdd1c496	-0.10242574
158	0xbf282262	-0.65677464
159	0x3eb471a0	0.3524294
160	0x3e7a5bf7	0.24449144
161	0x3edf7785	0.43645874
162	0xbf0ebf6d	-0.5576084
163	0xbf84174b	-1.0319608
164	0xbfa5186a	-1.2898076
165	0x3ef1c438	0.47220016
166	0x3f1ddd28	0.6166558
167	0x3fa7da6c	1.3113532
168	0xbf93e0a0	-1.1552925
169	0x3d5c217b	0.053742867
170	0xbf1fecf7	-0.62470955
171	0x3f1a2083	0.6020586
172	0x3f321d7b	0.69576234
173	0x3f8d4d0b	1.1039137
174	0xbecc02f6	-0.3984601
175	0xbe9a2c80	-0.30112076
176	0x3c6332f6	0.0138671305
177	0xbf18e5f4	-0.5972588
178	0x3f098ebd	0.53733426
179	0xbcc7e7b9	-0.024402486
180	0x3df4756d	0.1193646
181	0xbf489ada	-0.78361285
182	0xbf0296c3	-0.51011294
183	0x3f2ff32b	0.6873042
184	0xbf0b25e4	-0.5435469
185	0xbf78ed70	-0.972373
186	0x3fb0f6ca	1.3825314
187	0x3e2902f7	0.16505037
188	0xbf8755e3	-1.0573086
189	0x3fbba8d4	1.4660897
190	0xbdba39cf	-0.09093057
191	0x3e4449f3	0.19168834
192	0x3f041fa5	0.51610786
193	0xbe8a3258	-0.26991534
194	0x3ea20ccb	0.31650385
195	0xbd47ea2f	-0.04880732
196	0x3f438caf	0.7638654
197	0xbe8b850a	-0.27249938
198	0xbfad6b5d	-1.354839
199	0x3de940e1	0.11389328
200	0xbdc81f42	-0.09771587
201	0xbe8f065f	-0.27934548
202	0xbf379b0d	-0.71720964
203	0xbea11470	-0.31460905
204	0x3f0212bc	0.50809836
205	0xbe8eb798	-0.27874446
206	0xbf066785	-0.5250171
207	0x3f05d568	0.5227876
208	0xbe58cd42	-0.2117205
209	0x3d3ccabb	0.046091776
210	0xbf265319	-0.64970547
211	0xbf61d170	-0.882102
212	0x3d8c912b	0.06863626
213	0xbd5dc94e	-0.054147057
214	0x3d993b9a	0.07482071
215	0x3f27edf9	0.6559749
216	0x40056c70	2.0847435
217	0xbfe39b9e	-1.7781866
218	0x400ce7e8	2.2016544
219	0x3fb433b0	1.4078274
220	0xbe9928b2	-0.2991386
221	0xbf8ff715	-1.1247278
222	0x3ea68fa0	0.32531452
223	0x3e7497d4	0.23886043
224	0x3e199148	0.14996827
225	0xbecb8bdf	-0.3975515
226	0x3ea0cb40	0.31405067
227	0xbf2c50cf	-0.67310804
228	0x3f8986a1	1.074421
229	0xbd1ebe2b	-0.038755577
230	0xbf0152f8	-0.50517225
231	0x3f11d28f	0.5696191
232	0x3ddfa433	0.109199904
233	0xbe845aef	-0.25850627
234	0xbff0b754	-1.8805947
235	0xbde073eb	-0.109596096
236	0xbde61bce	-0.11235772
237	0x3dd33c1b	0.103141986
238	0xbe1b0b56	-0.15141043
239	0x3f7d04ec	0.98835635
240	0x3f4b7f8f	0.79491514
241	0xbc28e2fd	-0.0103080245
242	0xbe4bc50e	-0.19899389
243	0xbf1aa6cc	-0.6041076
244	0xbeae214f	-0.34009787
245	0xbf6355e5	-0.8880294
246	0x3eb22e67	0.34801027
247	0x3e822638	0.25419784
248	0x3feeafcd	1.86474
249	0xbfa7c1bb	-1.3105997
250	0x4006596b	2.0992076
251	0x3fba0c4b	1.4535002
252	0xbe9074ad	-0.28214017
253	0xbfa5c16f	-1.2949656
254	0x3e37ada4	0.17937332
255	0x3cd07f78	0.025451407

net.bn2.weight f4 [16]
0	0x3fd52d73	1.6654495
1	0x3fc59cde	1.5438497
2	0x40138b1a	2.305365
3	0x400d2c90	2.2058449
4	0x40188d00	2.383606
5	0x400fcd96	2.246923
6	0x3fd5dd6c	1.6708198
7	0x3fdc3d26	1.7206161
8	0x3f84cd6e	1.0375192
9	0x3fc93aae	1.5721033
10	0x400837b9	2.128401
11	0x4012b7f8	2.2924786
12	0x3fd82ad3	1.6888069
13	0x3fd9bc28	1.7010546
14	0x3fb75fb7	1.4326085
15	0x3fc61968	1.5476503

net.bn2.bias f4 [16]
0	0xbedc75bb	-0.4305857
1	0xbf0406c2	-0.5157281
2	0xbf2d086f	-0.67590994
3	0xbf25045d	-0.6445978
4	0xbf3531ae	-0.7077893
5	0xbf383bcc	-0.7196624
6	0xbeca9683	-0.39567956
7	0xbece036d	-0.4023699
8	0xbe53ff15	-0.20702775
9	0xbef182b9	-0.47170046
10	0xbf217771	-0.6307288
11	0xbf3673f6	-0.7127069
12	0xbee75b39	-0.45186785
13	0xbede9d25	-0.43479267
14	0xbec44cef	-0.38339946
15	0xbeda6cac	-0.42661035

net.bn2.running_mean f4 [16]
0	0xbbbb3ca3	-0.0057140156
1	0xbd444827	-0.047920372
2	0xbcf9e293	-0.030503547
3	0x3d993807	0.074813895
4	0xbe59ff28	-0.2128874
5	0xbd00541e	-0.03133022
6	0xbd28cafd	-0.04120921
7	0xbd990a88	-0.07472712
8	0xbe224f9f	-0.15850686
9	0x3d8ee3cb	0.06977042
10	0xbe801cda	-0.25022012
11	0x3f023204	0.5085757
12	0x3cef29d1	0.029194744
13	0x3a941248	0.0011296952
14	0xbdc2bdb0	-0.09508836
15	0x3de26b49	0.11055619

net.bn2.running_var f4 [16]
0	0x419d39a6	19.653149
1	0x40ffa45b	7.988813
2	0x4190fb49	18.122698
3	0x4140bdc5	12.04633
4	0x41cda8d2	25.707432
5	0x41919942	18.199833
6	0x41db0ee1	27.382265
7	0x41a0debe	20.10876
8	0x420174eb	32.364178
9	0x41cae32c	25.360924
10	0x4133381a	11.201197
11	0x41563ba2	13.389559
12	0x4213a6c2	36.91285
13	0x41f98eb7	31.194685
14	0x4115a08d	9.351697
15	0x410ec95f	8.924163

net.point_conv.weight f4 [16, 16, 1, 16]
0	0x3eba8755	0.36431375
1	0x3eec2af8	0.46126533
2	0x3f2928fc	0.6607816
3	0x3efc80fa	0.4931715
4	0x3ef45aba	0.4772547
5	0x3ea87d22	0.3290797
6	0x3e51aea5	0.20476778
7	0x3e218fe7	0.1577755
8	0x3a0aa2f5	0.0005288565
9	0x3ddda477	0.10822385
10	0xbc10dae7	-0.008841253
11	0x3dc7945f	0.097450964
12	0x3e388efe	0.18023297
13	0x3e94ac36	0.29037637
14	0x3edcfe5c	0.4316281
15	0x3f0d9526	0.5530571
16	0x3e4b00d7	0.19824539
17	0x3e91bcf9	0.28464487
18	0x3f07015b	0.52736443
19	0x3f21d08d	0.6320885
20	0x3f410cc9	0.75410134
21	0x3f6dfa31	0.92959887
22	0x3f7b87db	0.98254174
23	0x3f8aed59	1.0853683
24	0x3f6ddb4f	0.92912763
25	0x3f58bd7e	0.8466414
26	0x3f128761	0.5723782
27	0x3ebdd2c6	0.3707487
28	0x3e87c0cd	0.26514283
29	0x3e707e1b	0.23485605
30	0x3e8ddbb9	0.27706698
31	0x3ef18bde	0.47177023
32	0x3d9c0b9e	0.07619403
33	0x3e2d46a8	0.16921484
34	0x3e3e0ceb	0.18559615
35	0x3e757140	0.23968983
36	0x3e4bac2a	0.19889894
37	0x3e987875	0.297794
38	0x3e986825	0.29766956
39	0x3ebe0288	0.37111306
40	0x3efdcb65	0.4956924
41	0x3efc7c92	0.4931379
42	0x3f16e151	0.58937556
43	0x3f1cfd0e	0.6132363
44	0x3f086e03	0.53292865
45	0x3f02b081	0.51050574
46	0x3ecd20e4	0.40064156
47	0x3edd5030	0.4322524
48	0xbe21780f	-0.15768455
49	0xbdd916ee	-0.106000766
50	0x3d5cebdc	0.05393587
51	0x3e2b3475	0.1671923
52	0x3e10f0e4	0.14154392
53	0x3e190d77	0.14946543
54	0x3dca1dd2	0.09868969
55	0x3dc0056a	0.09376033
56	0xbcac4929	-0.02103098
57	0x3ddb03bd	0.106940724
58	0x3c1410c9	0.009037205
59	0x3da04c3c	0.078270406
60	0x3db8f547	0.09031158
61	0x3e2f5a05	0.17124183
62	0x3e79bc07	0.24388133
63	0x3e52fa19	0.20603217
64	0x3ce7dc06	0.028303158
65	0x3df625ed	0.120189525
66	0x3e158835	0.1460274
67	0x3e80b4d0	0.2513795
68	0x3ec30c5a	0.3809536
69	0x3e91ccd2	0.28476578
70	0x3eb91071	0.36145356
71	0x3eb6fc3d	0.35739318
72	0x3e6b6d94	0.2299102
73	0x3dd1aae1	0.10237671
74	0x3cde4d18	0.02713637
75	0x3dbcda64	0.09221342
76	0xbcf2810c	-0.02960255
77	0x3db6133c	0.088903874
78	0x3e2f04f6	0.17091736
79	0x3e262888	0.16226399
80	0xbe9737bb	-0.29534706
81	0xbe749c4d	-0.23887749
82	0xbe6e082b	-0.23245303
83	0xbe08248f	-0.13295196
84	0x3ddda712	0.10822882
85	0x3d885e11	0.06658567
86	0x3e3b4f50	0.18291974
87	0x3e06f4aa	0.1317927
88	0xbd80c7d2	-0.06288113
89	0xbd8a7666	-0.06760864
90	0xbe79b977	-0.24387155
91	0xbeb27f4f	-0.34862754
92	0xbef87f7c	-0.48534763
93	0xbf14ab8f	-0.5807428
94	0xbef670eb	-0.48133025
95	0xbe940807	-0.28912374
96	0x3f8a9efa	1.0829766
97	0x3f6bfeac	0.92185473
98	0x3f477ce2	0.7792493
99	0x3f330987	0.6993641
100	0x3f3884c2	0.7207757
101	0x3f4014c5	0.7503169
102	0x3f386f2c	0.72044635
103	0x3f2d2076	0.67627656
104	0x3f3cebbf	0.7379722
105	0x3f5985c3	0.8496973
106	0x3f6824b7	0.9068102
107	0x3f5c9dc0	0.8617821
108	0x3f23df28	0.64012384
109	0x3ed4597d	0.41474524
110	0x3eb588dd	0.3545598
111	0x3e842c97	0.2581527
112	0x3f9123d9	1.1339065
113	0x3f839610	1.028017
114	0x3f686b9b	0.9078919
115	0x3f75e899	0.9605804
116	0x3f90480e	1.1271989
117	0x3f9049e7	1.1272553
118	0x3f8c3a5d	1.0955311
119	0x3f615ca5	0.8803199
120	0x3f482304	0.7817843
121	0x3f69f7ef	0.9139394
122	0x3f802cae	1.0013635
123	0x3f6a8ca5	0.91620857
124	0x3f590ec1	0.8478814
125	0x3f34f562	0.70686924
126	0x3f36b951	0.7137652
127	0x3f1c6373	0.6108925
128	0x3e653daa	0.22386804
129	0x3eaef75a	0.3417309
130	0x3ee8d02a	0.45471317
131	0x3f00a81a	0.502565
132	0x3f0d14ed	0.55110055
133	0x3f098d76	0.5373148
134	0x3f205e9f	0.6264438
135	0x3f0cc1a3	0.54982966
136	0x3f0b8fae	0.5451611
137	0x3f02b5e9	0.5105882
138	0x3e8a3e78	0.27000785
139	0x3e22e932	0.1590927
140	0xbdb6235d	-0.08893464
141	0xbe2707d0	-0.16311574
142	0xbe8c2e6f	-0.27379176
143	0xbe9435a1	-0.28947166
144	0x3eed7edc	0.4638585
145	0x3f00b3d1	0.5027438
146	0x3ee531ba	0.447645
147	0x3ece5c2d	0.403047
148	0x3ec35575	0.38151136
149	0x3ea041f2	0.31300312
150	0x3e3611ab	0.17780177
151	0x3da9d070	0.082917094
152	0x3d9da110	0.07696736
153	0x3dafb8c5	0.08580164
154	0x3e1db36f	0.1540048
155	0x3e607327	0.21918927
156	0x3ec393b5	0.3819863
157	0x3ec9f3da	0.39443856
158	0x3ef4cd8a	0.47813064
159	0x3f027120	0.50953865
160	0xbebd2850	-0.36944818
161	0xbe2c9351	-0.16853072
162	0xbd69257b	-0.05692051
163	0x3d74eb22	0.059794553
164	0x3dfa980b	0.12236031
165	0x3d0c9ac1	0.034327272
166	0x3d9ad6b2	0.07560481
167	0x3c1e8733	0.009675789
168	0xbdfe6f82	-0.12423612
169	0xbeb22b45	-0.34798637
170	0xbed93e16	-0.4243018
171	0xbed17155	-0.40906778
172	0xbe99c92a	-0.30036288
173	0xbe8dc4d8	-0.27689242
174	0xbe6118ed	-0.21982165
175	0xbe46816d	-0.1938531
176	0x3e8e5668	0.27800298
177	0x3e79eb59	0.24406184
178	0x3eb93c34	0.36178744
179	0x3eafb872	0.34320408
180	0x3eb1438e	0.34621853
181	0x3e7e8477	0.24855219
182	0x3e6a0f24	0.22857338
183	0x3e4e8e29	0.20171417
184	0x3dd97cdc	0.10619518
185	0x3dedd3f3	0.11612692
186	0x3b57e2d6	0.0032941601
187	0x3d99d34c	0.07511005
188	0x3da32df6	0.07967751
189	0x3deb6094	0.1149303
190	0x3d2183d9	0.03943238
191	0x3d8dff73	0.06933489
192	0x3f718599	0.9434448
193	0x3f753244	0.95779824
194	0x3f6c8e88	0.92404985
195	0x3f7c04ea	0.98445
196	0x3f84fb58	1.0389204
197	0x3f5ecc78	0.87030745
198	0x3f52f6c3	0.8240778
199	0x3f56ec0b	0.83953923
200	0x3f431730	0.76207256
201	0x3f2b92ec	0.6702106
202	0x3f38cc03	0.721863
203	0x3f1bf152	0.609151
204	0x3f030806	0.5118412
205	0x3f1e8c71	0.61933047
206	0x3f2d6983	0.67739123
207	0x3f3bb294	0.73319364
208	0x3f3d2e57	0.73898834
209	0x3f231444	0.637028
210	0x3f19e766	0.6011871
211	0x3ee334c2	0.4437619
212	0x3ef360a1	0.4753466
213	0x3efd0bd1	0.49423078
214	0x3ea42d55	0.32065836
215	0x3ed1707b	0.40906128
216	0x3ea61b7a	0.32442838
217	0x3e9058d1	0.28192762
218	0x3e8c4fd9	0.2740467
219	0x3ec9e53b	0.394327
220	0x3eb661de	0.35621542
221	0x3ebdad16	0.37046117
222	0x3e9fd747	0.3121893
223	0x3f065e08	0.5248723
224	0x3ea8d6bb	0.32976326
225	0x3ef76e9c	0.48326576
226	0x3f1cc10d	0.6123207
227	0x3f45abcd	0.7721527
228	0x3f2d8bac	0.6779125
229	0x3f2d126a	0.6760622
230	0x3f21244b	0.62946004
231	0x3f30552c	0.6887996
232	0x3f30ea99	0.6910797
233	0x3f262970	0.6490698
234	0x3f17a15f	0.5923061
235	0x3f139672	0.57651436
236	0x3eda77a4	0.42669404
237	0x3ed27d8d	0.41111413
238	0x3ed27d10	0.4111104
239	0x3eeae706	0.45879382
240	0x3ea11f1a	0.3146904
241	0x3ec619d8	0.38691592
242	0x3e9631aa	0.29334766
243	0x3ecc769b	0.3993424
244	0x3ee2ecdb	0.4432133
245	0x3f0205ad	0.5078991
246	0x3f0451b0	0.51687145
247	0x3f084d80	0.53243256
248	0x3f0c9dcd	0.54928285
249	0x3ecddf36	0.4020936
250	0x3ee02cc3	0.4378415
251	0x3eac4590	0.33646822
252	0x3e8f667e	0.28007883
253	0x3e8a6511	0.27030233
254	0x3e66baf4	0.22532254
255	0x3e3e3f9d	0.18578954

net.bn3.weight f4 [16]
0	0x3f60ca02	0.8780824
1	0x3ff74ed9	1.9320937
2	0x40045b36	2.068067
3	0x3fe15287	1.760331
4	0x3faadb99	1.3348266
5	0x3fc9cdd8	1.5765944
6	0x3f26d7fd	0.6517332
7	0x3f55f3a0	0.8357487
8	0x3fd68ff9	1.6762687
9	0x3f980aca	1.1878293
10	0x400564c2	2.0842748
11	0x3fd265cb	1.6437315
12	0x3f74886c	0.95520663
13	0x3fe75b34	1.8074708
14	0x3f995208	1.1978159
15	0x3ffd9b58	1.9813032

net.bn3.bias f4 [16]
0	0xbde88028	-0.11352569
1	0xbec628f9	-0.38703135
2	0xbf2b0015	-0.66797
3	0x3e351a27	0.17685758
4	0x3d499c48	0.049221307
5	0xbebca55e	-0.36844915
6	0xbce0bf84	-0.027435072
7	0xbe0e04cf	-0.13869022
8	0xbee2ac98	-0.44272304
9	0x3df2c986	0.11854844
10	0xbf1abd23	-0.6044485
11	0xbd943d5b	-0.07238265
12	0xbe480b73	-0.19535618
13	0xbeece9a3	-0.46272
14	0x3d8def26	0.069303796
15	0xbf1ccf76	-0.6125406

net.bn3.running_mean f4 [16]
0	0x40b0ba02	5.522706
1	0x4020283e	2.5024562
2	0xc0ddc131	-6.929833
3	0x40c1e9cf	6.059791
4	0x4087b772	4.241143
5	0xc0b90f56	-5.783122
6	0x4022fd7f	2.5467222
7	0x3edf18d5	0.43573633
8	0xbe07e2a1	-0.13270046
9	0x40bdc163	5.929857
10	0xc0e4c02f	-7.14846
11	0x4092a9ae	4.583213
12	0x40bf406d	5.9766145
13	0xc0df0401	-6.9692388
14	0x4091c1ab	4.554891
15	0xc0d94ac7	-6.790378

net.bn3.running_var f4 [16]
0	0x43f0ccac	481.599
1	0x447478e3	977.88885
2	0x44a7ca21	1342.3165
3	0x44894872	1098.2639
4	0x4456f79e	859.869
5	0x4490c340	1158.1016
6	0x43cd78fd	410.94522
7	0x442074f0	641.82715
8	0x442c79ea	689.9049
9	0x445bb5ae	878.83875
10	0x44a852bb	1346.5853
11	0x445a49bd	873.15216
12	0x43e8130c	464.1488
13	0x44ac3959	1377.7921
14	0x44517ca9	837.9478
15	0x44994850	1226.2598

net.fc.weight f4 [32, 256]
0	0xbe84fb98	-0.259732
1	0xbee9413c	-0.45557582
2	0xbf55d298	-0.83524466
3	0xbe629989	-0.22128882
4	0xbed0e7de	-0.408019
5	0xbef543c0	-0.47903252
6	0xbe6da663	-0.23208003
7	0xbe8fdf89	-0.2810023
8	0xbf02d121	-0.51100355
9	0xbf0aa717	-0.5416121
10	0xbd2ad350	-0.04170543
11	0xbe5454da	-0.20735493
12	0xbead4a95	-0.33845964
13	0xbeb868e3	-0.36017522
14	0xbf51f468	-0.8201356
15	0xbf0f19c6	-0.558987
16	0xbeb987d2	-0.36236435
17	0xbebfd6cb	-0.37468562
18	0xbe0aa731	-0.13540341
19	0xbf0f4fef	-0.55981344
20	0xbf18f385	-0.5974658
21	0xbf38638f	-0.72026914
22	0xbf158f91	-0.5842219
23	0xbf020bfb	-0.5079953
24	0xbea4676d	-0.32110158
25	0x3d61021b	0.05493365
26	0x3d912ecf	0.07089006
27	0xbf370829	-0.71496826
28	0xbf73ed8e	-0.95284355
29	0xbf466eee	-0.77513015
30	0xbeb00b57	-0.34383652
31	0x3e029e07	0.12755595
32	0x3eadafcf	0.33923194
33	0x3f03712d	0.5134457
34	0x3d0bb2ac	0.03410594
35	0x3ef661fc	0.4812163
36	0x3f8f72fd	1.1206967
37	0x3f870b81	1.0550386
38	0x3f167180	0.5876694
39	0x3ecf454c	0.40482557
40	0x3f640f29	0.8908563
41	0x3ecf2d26	0.40464133
42	0x3ebf0252	0.37306458
43	0x3f099b29	0.5375238
44	0x3f7182af	0.9434003
45	0x3f8c6375	1.0967852
46	0x3f0d15fd	0.55111676
47	0x3e6d782c	0.23190373
48	0x3da476cb	0.080304705
49	0xbec776c8	-0.3895781
50	0xbf8059f6	-1.0027454
51	0xbf02914a	-0.51002944
52	0xbec975bc	-0.39347637
53	0xbf882c81	-1.0638582
54	0xbf8442ad	-1.0332848
55	0xbf0f617f	-0.5600814
56	0xbf127294	-0.5720608
57	0xbe68584b	-0.22689931
58	0xbf06d11b	-0.5266282
59	0xbecd57d1	-0.4010606
60	0xbec487df	-0.3838491
61	0xbf648660	-0.8926754
62	0xbeed1b0b	-0.46309695
63	0xbf417a69	-0.7557741
64	0xbec953e3	-0.39321813
65	0xbf265a00	-0.6498108
66	0xbe20320b	-0.1564409
67	0xbec5302c	-0.38513315
68	0xbf4b6d60	-0.7946377
69	0xbee195ad	-0.44059506
70	0xbe562514	-0.20912582
71	0xbf0c0247	-0.54690975
72	0xbef31566	-0.47477263
73	0xbe4a884c	-0.19778556
74	0x3def9919	0.11699123
75	0xbf4f7b70	-0.81047726
76	0xbf0f5de3	-0.56002635
77	0xbef422da	-0.4768284
78	0xbe769da6	-0.24083576
79	0xbe7f157b	-0.24910538
80	0xbe340f57	-0.17583977
81	0x3d2ebb0d	0.042658854
82	0x3e91539b	0.28384098
83	0x3f1b9b59	0.60783917
84	0x3ef10fc3	0.47082338
85	0x3f115b96	0.56780374
86	0x3ec809cc	0.39069974
87	0x3ef28c79	0.47372797
88	0x3ea23469	0.3168061
89	0xbcc59aba	-0.024121631
90	0x3e7d4d4c	0.24736518
91	0x3ea3eab7	0.3201501
92	0x3f4df77f	0.80455774
93	0x3f4d9b7b	0.8031537
94	0x3e7ba003	0.24572758
95	0x3e286467	0.1644455
96	0xbe723b52	-0.23655441
97	0xbe346b4f	-0.1761906
98	0xbed60d18	-0.41806865
99	0xbc97db7d	-0.018537277
100	0x3d5c40eb	0.053772848
101	0xbdd6ec15	-0.10494248
102	0xbe020878	-0.12698543
103	0xbe6cca61	-0.23124076
104	0x3d017d96	0.03161391
105	0xbe2f7d77	-0.17137705
106	0xbf2ec85d	-0.6827448
107	0xbee9d9f6	-0.45674103
108	0x3e1f9936	0.15585789
109	0xbdb28435	-0.08716623
110	0xbea01156	-0.31263226
111	0xbec40d1a	-0.38291246
112	0xbe4d3198	-0.2003845
113	0xbe691757	-0.2276281
114	0xbd62afcc	-0.055343434
115	0xbdd0d430	-0.101967216
116	0xbe00a092	-0.12561253
117	0x3dc22c53	0.094811104
118	0x3ea3192a	0.31855136
119	0xbe533e5b	-0.20629255
120	0xbe3a948a	-0.18220726
121	0x3df32521	0.11872316
122	0xbe887026	-0.26648062
123	0x3c9fd4d1	0.019510658
124	0xbd47b963	-0.048760783
125	0xbead8c6e	-0.33896202
126	0xbe427349	-0.1898929
127	0xbeb6a188	-0.35670114
128	0x3e62fae5	0.22166021
129	0x3d7873a4	0.06065716
130	0xbda74ad9	-0.08168573
131	0xbe7f062b	-0.24904697
132	0xbed8f88f	-0.42377135
133	0xbedd8127	-0.43262598
134	0x3da7d053	0.081940316
135	0xbe22cea8	-0.15899146
136	0xbf0565a2	-0.52108204
137	0xbdd5f344	-0.1044679
138	0x3eac8ea6	0.33702582
139	0xbdb02de8	-0.08602506
140	0xbf024cff	-0.50898737
141	0xbf17da87	-0.5931782
142	0xbe9706d1	-0.29497388
143	0x3e5715ab	0.2100436
144	0xbec757f4	-0.3893429
145	0xbe6943d6	-0.22779784
146	0xbf1afaaa	-0.60538733
147	0xbe1b13a0	-0.15144205
148	0xbea9b3d8	-0.33145022
149	0xbeb8bda7	-0.36082193
150	0xbea90abb	-0.33016
151	0xbeb05745	-0.3444158
152	0xbe8c2a24	-0.273759
153	0xbdfa09ed	-0.122089244
154	0x3ce670e1	0.028129997
155	0xbea695d5	-0.32536188
156	0xbf47a245	-0.7798198
157	0xbe89b524	-0.26896012
158	0xbf3d8053	-0.7402393
159	0xbf410a85	-0.75406677
160	0xbb8e8722	-0.004349605
161	0x3ebe72f9	0.37197092
162	0x3f08f0d4	0.53492475
163	0x3ef59cce	0.47971195
164	0x3f199cd4	0.60004926
165	0x3f78a992	0.97133744
166	0x3f45face	0.7733582
167	0x3f0cf0b4	0.55054784
168	0x3f52e0dd	0.82374364
169	0x3f057e44	0.5214579
170	0x3e2f10ab	0.17096202
171	0x3f028230	0.509799
172	0x3f20245a	0.6255547
173	0x3f86c66b	1.0529302
174	0x3f69e67d	0.9136732
175	0x3ed43a07	0.4145052
176	0xbcc4aa49	-0.02400698
177	0xbed53cfa	-0.41648084
178	0xbf098112	-0.5371257
179	0xbef1977d	-0.4718589
180	0xbedd5bbf	-0.4323406
181	0xbf2211e2	-0.63308537
182	0xbecf1a3f	-0.40449712
183	0xbe83dd9a	-0.25755006
184	0x3dd5f341	0.104467876
185	0xbe434045	-0.19067486
186	0xbe40e178	-0.1883601
187	0xbe51b4f7	-0.20479189
188	0xbf809306	-1.0044868
189	0xbf914037	-1.1347722
190	0xbef76383	-0.4831811
191	0xbc1321c4	-0.008980218
192	0xbea1fbf9	-0.31637552
193	0xbf22d377	-0.6360392
194	0xbebc8fad	-0.36828366
195	0x3dcdd3a8	0.10050136
196	0xbdfc1026	-0.123077676
197	0xbeb7b583	-0.3588067
198	0xbe2d55ec	-0.16927308
199	0x3d40b50e	0.047047667
200	0xbead5c20	-0.33859348
201	0x3eb57182	0.35438162
202	0xbde717b3	-0.11283817
203	0xbe69aa06	-0.22818765
204	0xbe915060	-0.28381634
205	0xbe55a418	-0.20863378
206	0xbdd4ab6e	-0.1038426
207	0xbee4bdb6	-0.44675988
208	0x3e31b94d	0.17355843
209	0x3e6b3d4c	0.22972602
210	0x3e89ecc8	0.26938462
211	0x3ed212b2	0.41029888
212	0x3ed60796	0.41802663
213	0x3f2a1357	0.6643576
214	0x3f53d4cc	0.8274658
215	0x3f110de6	0.5666183
216	0x3f15a72e	0.5845822
217	0x3e2089bd	0.15677543
218	0xbe9bd818	-0.30438304
219	0x3ea5042e	0.3222975
220	0x3f320958	0.6954551
221	0x3f8225b9	1.0167762
222	0x3f4ec7c1	0.8077355
223	0x3eb7d246	0.35902613
224	0xbe5be72d	-0.21474905
225	0xbe87f9d1	-0.26557782
226	0x3d15de5f	0.036589023
227	0xbeb1bbfd	-0.34713736
228	0xbf0bc434	-0.5459626
229	0xbe5e90cd	-0.21734925
230	0xbee4b48b	-0.44668993
231	0xbeaf0e60	-0.34190655
232	0xbe57ba63	-0.21067195
233	0xbea2665c	-0.3171872
234	0xbd4a2b4f	-0.04935771
235	0xbaee3608	-0.0018174062
236	0xbf2ba899	-0.67054135
237	0xbed66795	-0.41875902
238	0xbedc4bfd	-0.43026724
239	0xbe2b0522	-0.16701177
240	0xbef26c37	-0.47348186
241	0x3f285bdf	0.65765184
242	0xbe8ba93b	-0.2727755
243	0x3f39839e	0.72466457
244	0x3f9e6498	1.2374449
245	0x3f8a4183	1.0801243
246	0x3f22acbb	0.63544816
247	0x3ebc53b9	0.36782625
248	0x3f249a89	0.642983
249	0x3f04eb52	0.5192157
250	0x3e36855c	0.1782431
251	0x3ea08edf	0.31359002
252	0x3ef1cdc6	0.47227305
253	0x3f0d314a	0.55153334
254	0x3f339aa9	0.7015787
255	0x3ea0c3ca	0.31399375

net.fc.bias f4 [32]
0	0xbf4f7043	-0.8103067
1	0x3e2a360d	0.16622181
2	0xbf05d965	-0.5228484
3	0x3f93fc3f	1.1561354
4	0xbf48287d	-0.7818678
5	0xbdb579f0	-0.08861148
6	0xbf8a6d35	-1.0814577
7	0x3f3c953a	0.736652
8	0x3ecedd32	0.40403134
9	0xbf74834b	-0.9551284
10	0xc0247b6f	-2.5700338
11	0x3f2a9a20	0.66641426
12	0xbfc670a2	-1.5503123
13	0x3ed06b0d	0.40706673
14	0x3f1c42e1	0.6103955
15	0xbf1a5250	-0.6028185
16	0xbf5739b7	-0.8407244
17	0xbfbae4b9	-1.4601051
18	0x3f539228	0.8264489
19	0x3f470cac	0.7775371
20	0x3f8fdcf4	1.1239305
21	0xbe6e5869	-0.23275913
22	0x3ef176bd	0.47160903
23	0xbf57cd29	-0.84297425
24	0xbfe32636	-1.7746036
25	0x3eba55ec	0.36393678
26	0x3f49ef82	0.78881085
27	0xbf311c92	-0.6918422
28	0x3f28f726	0.6600212
29	0x3f5e768d	0.86899644
30	0x3f85ef24	1.0463605
31	0x3f92f90f	1.1482257

exp_avg f4 [8, 1, 1, 256]
0	0xb62c76ea	-2.5699214e-06
1	0xb73a5301	-1.110579e-05
2	0xb7c3aeb5	-2.3327166e-05
3	0xb815f50c	-3.5752586e-05
4	0xb83a16b5	-4.4367003e-05
5	0xb841c11a	-4.6194626e-05
6	0xb827decd	-4.0023402e-05
7	0xb7e0e38f	-2.6808846e-05
8	0xb71e1d79	-9.424396e-06
9	0x37097a68	8.194336e-06
10	0x37bb1bb9	2.2305047e-05
11	0x3800f4dd	3.0745625e-05
12	0x380a49f2	3.297063e-05
13	0x38013fe4	3.08155e-05
14	0x37e5c579	2.7390883e-05
15	0x37d7601e	2.5674755e-05
16	0x37e79eaf	2.7611239e-05
17	0x38080570	3.242999e-05
18	0x381e0369	3.767331e-05
19	0x382823fd	4.0087838e-05
20	0x381b8bcb	3.7085072e-05
21	0x37e93c4e	2.7803846e-05
22	0x37608597	1.3382544e-05
23	0xb645d725	-2.9480518e-06
24	0xb78ee6e4	-1.7035236e-05
25	0xb7d45411	-2.5311516e-05
26	0xb7d9fc8c	-2.5986017e-05
27	0xb7a2ab51	-1.939168e-05
28	0xb70bced7	-8.333204e-06
29	0x36443a74	2.92403e-06
30	0x372ec5ad	1.0417233e-05
31	0x3743a755	1.1661866e-05
32	0x36dc148d	6.5589034e-06
33	0xb650b690	-3.110068e-06
34	0xb76c924f	-1.4100761e-05
35	0xb7c008b1	-2.289223e-05
36	0xb7e2c8e7	-2.7034852e-05
37	0xb7da5c99	-2.6030744e-05
38	0xb7b77533	-2.1869875e-05
39	0xb794a553	-1.771996e-05
40	0xb792a69d	-1.7482142e-05
41	0xb7c68331	-2.366453e-05
42	0xb818462e	-3.6304984e-05
43	0xb85f090e	-5.3175776e-05
44	0xb89307c5	-7.0109534e-05
45	0xb8ad92dd	-8.276638e-05
46	0xb8b929ef	-8.829298e-05
47	0xb8b4c8f6	-8.620501e-05
48	0xb8a43f8f	-7.831968e-05
49	0xb88f3291	-6.82819e-05
50	0xb87d037e	-6.0323153e-05
51	0xb8730ef8	-5.7949655e-05
52	0xb882c15e	-6.2349005e-05
53	0xb896ca64	-7.1902556e-05
54	0xb8ad3e27	-8.2608596e-05
55	0xb8bce47f	-9.007099e-05
56	0xb8be6499	-9.078644e-05
57	0xb8af2fdc	-8.353565e-05
58	0xb8923c33	-6.9730355e-05
59	0xb85e3efe	-5.298759e-05
60	0xb81e2ee7	-3.7713817e-05
61	0xb7e78fa5	-2.7604236e-05
62	0xb7cdef35	-2.4549294e-05
63	0xb7e8d61f	-2.7756263e-05
64	0xb80f068e	-3.409996e-05
65	0xb82449a1	-3.916922e-05
66	0xb82262c7	-3.8715803e-05
67	0xb7ff8abe	-3.0462976e-05
68	0xb7794383	-1.4857275e-05
69	0x36aaf3d9	5.0947824e-06
70	0x37cb4c62	2.4235054e-05
71	0x381fb796	3.807953e-05
72	0x3839aa5b	4.4266093e-05
73	0x38358726	4.327963e-05
74	0x381dd2e9	3.7628142e-05
75	0x3804e208	3.168176e-05
76	0x37fbbcf9	3.0009529e-05
77	0x3813ab53	3.520709e-05
78	0x3845e625	4.71828e-05
79	0x38836fd7	6.2673986e-05
80	0x38a18943	7.702645e-05
81	0x38b3dff9	8.577103e-05
82	0x38b32857	8.542899e-05
83	0x389df42d	7.531825e-05
84	0x3873633a	5.8028127e-05
85	0x3821db8c	3.858986e-05
86	0x37bd2c78	2.2551263e-05
87	0x376f2d2e	1.4256029e-05
88	0x377d2ff0	1.5091136e-05
89	0x37c0ce84	2.298435e-05
90	0x380d7d50	3.3733726e-05
91	0x382f5ac0	4.180777e-05
92	0x38338d16	4.2808322e-05
93	0x3813ad3f	3.520888e-05
94	0x37aa16c3	2.0276178e-05
95	0x360e7952	2.1230267e-06
96	0xb7648e81	-1.3623038e-05
97	0xb7b9fc34	-2.217116e-05
98	0xb7b61924	-2.1707798e-05
99	0xb7654023	-1.3664397e-05
100	0xb61ad153	-2.306963e-06
101	0x36ed94c4	7.080469e-06
102	0x371b91b1	9.272641e-06
103	0x35f97554	1.8586093e-06
104	0xb76fbbce	-1.4289237e-05
105	0xb8111fa7	-3.4600173e-05
106	0xb8605214	-5.3482203e-05
107	0xb888cdef	-6.5233435e-05
108	0xb88b4efd	-6.642749e-05
109	0xb86dda93	-5.6708766e-05
110	0xb826707c	-3.9682243e-05
111	0xb7adc56f	-2.0715144e-05
112	0xb6aa39dd	-5.073131e-06
113	0x367473bb	3.6426197e-06
114	0x36ae8f2f	5.202273e-06
115	0x363776f4	2.7338365e-06
116	0x35bfc0f2	1.4286763e-06
117	0x36db0d84	6.528282e-06
118	0x37ac50db	2.0541649e-05
119	0x38339a71	4.282076e-05
120	0x38919c2e	6.9432295e-05
121	0x38c67678	9.463442e-05
122	0x38ebc51b	0.00011242387
123	0x38f9f072	0.00011918032
124	0x38f091f7	0.0001147128
125	0x38d696f6	0.00010232434
126	0x38b71c4b	8.73139e-05
127	0x389eaae8	7.565861e-05
128	0x3895986b	7.133264e-05
129	0x38a004c1	7.63028e-05
130	0x38b623a6	8.685076e-05
131	0x38cd33ac	9.7847864e-05
132	0x38d96939	0.000103669656
133	0x38d20f81	0.00010016468
134	0x38b4f0f4	8.62795e-05
135	0x388787c7	6.462592e-05
136	0x382a5d34	4.061796e-05
137	0x37ae1d23	2.0755984e-05
138	0x372b9c9a	1.0228856e-05
139	0x373caf50	1.1246491e-05
140	0x37bb17a5	2.2303147e-05
141	0x3822a8ca	3.8781007e-05
142	0x386502eb	5.4600572e-05
143	0x38870595	6.4383414e-05
144	0x3888ddc2	6.526291e-05
145	0x38727a96	5.7811463e-05
146	0x383ff869	4.57693e-05
147	0x3810e69b	3.4547043e-05
148	0x37f1d73e	2.8829669e-05
149	0x3801dacf	3.0959778e-05
150	0x3827dfae	4.002422e-05
151	0x385b25d9	5.2248917e-05
152	0x3883cdc1	6.2848914e-05
153	0x388d46f1	6.736618e-05
154	0x38853325	6.3514606e-05
155	0x3859fdfa	5.1973366e-05
156	0x3818cc3a	3.6429825e-05
157	0x37bac391	2.2263996e-05
158	0x37745aef	1.4564705e-05
159	0x37883778	1.6238293e-05
160	0x37e2f15a	2.7053688e-05
161	0x38360de0	4.3405103e-05
162	0x387ad648	5.980421e-05
163	0x389437d8	7.067592e-05
164	0x3897e501	7.2428964e-05
165	0x3887c029	6.473094e-05
166	0x38569bc6	5.116665e-05
167	0x381b378d	3.7006615e-05
168	0x37e8231a	2.76729e-05
169	0x37dea3e5	2.6540782e-05
170	0x380e8e85	3.398817e-05
171	0x384651bd	4.7283003e-05
172	0x3880fd39	6.150682e-05
173	0x38963e7f	7.164198e-05
174	0x389c5027	7.453589e-05
175	0x3891a29c	6.944427e-05
176	0x3875f950	5.8644742e-05
177	0x38423661	4.630385e-05
178	0x381dd36f	3.762863e-05
179	0x3817a520	3.615499e-05
180	0x383353cc	4.2754968e-05
181	0x386855c3	5.5392982e-05
182	0x38924059	6.973808e-05
183	0x38a83830	8.02133e-05
184	0x38ada888	8.280674e-05
185	0x389f275f	7.589044e-05
186	0x3880d5d3	6.1433435e-05
187	0x383920df	4.413805e-05
188	0x37f77982	2.9501276e-05
189	0x37b777d0	2.1871092e-05
190	0x37c54fcf	2.3521394e-05
191	0x380b5171	3.321603e-05
192	0x3845c70b	4.7153833e-05
193	0x387c33ab	6.01296e-05
194	0x388d0950	6.7251385e-05
195	0x388a8e73	6.606886e-05
196	0x3872b457	5.786525e-05
197	0x38448418	4.6853063e-05
198	0x38219931	3.8528062e-05
199	0x381d694b	3.752978e-05
200	0x3841d8b9	4.6216624e-05
201	0x3885861d	6.366915e-05
202	0x38b3d3eb	8.574858e-05
203	0x38df936a	0.00010660927
204	0x38fd76b8	0.00012086093
205	0x39032690	0.00012507499
206	0x38f8befd	0.00011861136
207	0x38db95c7	0.00010470632
208	0x38b8bbfe	8.80882e-05
209	0x389af562	7.388998e-05
210	0x3889b229	6.565854e-05
211	0x3885c93a	6.3794156e-05
212	0x3889e673	6.5755936e-05
213	0x388ca8a3	6.707131e-05
214	0x3883a157	6.276619e-05
215	0x385080aa	4.9710892e-05
216	0x37eb9975	2.8085642e-05
217	0x35a1fc16	1.2068801e-06
218	0xb7d5dd11	-2.549452e-05
219	0xb842d633	-4.6452693e-05
220	0xb8729f97	-5.7845926e-05
221	0xb8762f1c	-5.8694844e-05
222	0xb8574c3a	-5.1330986e-05
223	0xb82b0896	-4.0777573e-05
224	0xb808f643	-3.2654276e-05
225	0xb8009af9	-3.0661908e-05
226	0xb816889d	-3.5890018e-05
227	0xb843498b	-4.6560115e-05
228	0xb8752e33	-5.845558e-05
229	0xb88bee12	-6.6723806e-05
230	0xb88e6d44	-6.79144e-05
231	0xb880026c	-6.103967e-05
232	0xb8471d0a	-4.7472342e-05
233	0xb803ffec	-3.147118e-05
234	0xb7963fae	-1.7911047e-05
235	0xb73c0f04	-1.1209169e-05
236	0xb76433f3	-1.3601954e-05
237	0xb7c98c52	-2.4026409e-05
238	0xb820ce6d	-3.833922e-05
239	0xb8561757	-5.1043313e-05
240	0xb8707d82	-5.7337347e-05
241	0xb867692c	-5.517264e-05
242	0xb83d2b61	-4.510151e-05
243	0xb7ffc33a	-3.0489278e-05
244	0xb78ac8dd	-1.6544416e-05
245	0xb708d8e9	-8.156735e-06
246	0xb7084da2	-8.124307e-06
247	0xb78a704d	-1.6503176e-05
248	0xb7fc2708	-3.0058916e-05
249	0xb8370dae	-4.364334e-05
250	0xb85d3bca	-5.274619e-05
251	0xb8652bfd	-5.4638822e-05
252	0xb84f082f	-4.9360267e-05
253	0xb825d010	-3.953284e-05
254	0xb7f95910	-2.9724586e-05
255	0xb7cbbb8a	-2.4286815e-05

exp_avg_sq f4 [8, 1, 1, 256]
0	0x329cf2fa	1.8271283e-08
1	0x32960062	1.7462472e-08
2	0x32925539	1.7035392e-08
3	0x3294a145	1.7302805e-08
4	0x3298f08d	1.7804519e-08
5	0x3297195f	1.7590251e-08
6	0x328be640	1.6286435e-08
7	0x327a7551	1.457859e-08
8	0x326860d7	1.3526196e-08
9	0x32678d39	1.347808e-08
10	0x326f103b	1.3915321e-08
11	0x32759eb4	1.4296962e-08
12	0x327d3b2b	1.47399914e-08
13	0x32868f25	1.5664748e-08
14	0x3291d2cc	1.6976081e-08
15	0x329ab13d	1.8008558e-08
16	0x329ddd74	1.837791e-08
17	0x329fbfa9	1.8597193e-08
18	0x32a79dd1	1.9513125e-08
19	0x32b5f68f	2.1183295e-08
20	0x32c25771	2.2624336e-08
21	0x32c424f4	2.2834207e-08
22	0x32bbbf8f	2.1856776e-08
23	0x32b12cae	2.062583e-08
24	0x32aab53a	1.9873017e-08
25	0x32a72f96	1.9462998e-08
26	0x32a2b655	1.8942197e-08
27	0x329db26a	1.8358339e-08
28	0x329c7f55	1.8218694e-08
29	0x329fab4e	1.8587937e-08
30	0x32a0adf4	1.8705556e-08
31	0x3298d8d4	1.7793731e-08
32	0x328a4cdf	1.6100271e-08
33	0x327e5ca3	1.4805809e-08
34	0x327d63a4	1.4749194e-08
35	0x32854605	1.5515079e-08
36	0x32896097	1.5992823e-08
37	0x3286cbcc	1.569233e-08
38	0x32827e2d	1.519137e-08
39	0x3282fc58	1.5248744e-08
40	0x32882bdf	1.5852434e-08
41	0x328ce5c0	1.6402623e-08
42	0x328fc7e5	1.6738293e-08
43	0x3295db46	1.7445597e-08
44	0x32a30e9b	1.898234e-08
45	0x32b271be	2.0773651e-08
46	0x32b964eb	2.1582727e-08
47	0x32b2c070	2.0809438e-08
48	0x32a40767	1.9095479e-08
49	0x32971c50	1.7591589e-08
50	0x32900f0c	1.6770649e-08
51	0x328c386e	1.6323806e-08
52	0x3289fba0	1.6063325e-08
53	0x328d60b5	1.6458538e-08
54	0x329a0c69	1.7933603e-08
55	0x32aaa407	1.9865196e-08
56	0x32b2b4f3	2.0804213e-08
57	0x32aac592	1.988045e-08
58	0x3298abe4	1.7773296e-08
59	0x3289db9d	1.6048768e-08
60	0x3285b52d	1.5565627e-08
61	0x3288632a	1.5877578e-08
62	0x328aae00	1.614444e-08
63	0x328be8c5	1.6287581e-08
64	0x3290ce7c	1.6857705e-08
65	0x329a55dd	1.7967006e-08
66	0x32a201f0	1.8860163e-08
67	0x32a17ed8	1.8800549e-08
68	0x329b8963	1.8106851e-08
69	0x329974c1	1.7864638e-08
70	0x329f9af1	1.8580495e-08
71	0x32a7a692	1.9517106e-08
72	0x32a844a0	1.9588981e-08
73	0x32a04b1e	1.866061e-08
74	0x3297420a	1.7608745e-08
75	0x32934a13	1.7146737e-08
76	0x3292262d	1.7013997e-08
77	0x328e9240	1.6597482e-08
78	0x328a2daf	1.6086089e-08
79	0x328cf256	1.6408347e-08
80	0x329a3e00	1.7956154e-08
81	0x32a943f3	1.970509e-08
82	0x32ac31ff	2.0046171e-08
83	0x329ed66e	1.8491132e-08
84	0x328b3628	1.6206357e-08
85	0x327cffdf	1.4726509e-08
86	0x32783c62	1.4449229e-08
87	0x327c5ff7	1.469015e-08
88	0x32804ea5	1.4936925e-08
89	0x32855a17	1.5524206e-08
90	0x3290b3c5	1.6845556e-08
91	0x329d7e55	1.8334655e-08
92	0x32a1e9c5	1.8849173e-08
93	0x329bb606	1.812715e-08
94	0x3294ffcb	1.7345789e-08
95	0x3299ebd0	1.791878e-08
96	0x32a9e57e	1.977855e-08
97	0x32b7961a	2.1372262e-08
98	0x32b7a4ba	2.1378913e-08
99	0x32ac4f5e	2.0059527e-08
100	0x32a0c3b3	1.8715445e-08
101	0x329b662d	1.8090839e-08
102	0x32995604	1.785066e-08
103	0x3296f60a	1.7574184e-08
104	0x32985706	1.7734703e-08
105	0x32a3bf16	1.9062593e-08
106	0x32b6195f	2.1199126e-08
107	0x32c17776	2.2522482e-08
108	0x32ba6f20	2.1703784e-08
109	0x32a4c6ce	1.9182519e-08
110	0x328f8bde	1.6710995e-08
111	0x32852b00	1.5502792e-08
112	0x3282f927	1.5247293e-08
113	0x328186c1	1.5078855e-08
114	0x32813890	1.5043298e-08
115	0x3289988e	1.6018273e-08
116	0x329c2f4a	1.8182295e-08
117	0x32ad9200	2.0206244e-08
118	0x32af7c0f	2.0429097e-08
119	0x32a0acc8	1.8705023e-08
120	0x328e7c08	1.6587379e-08
121	0x328618d8	1.561095e-08
122	0x32874aa0	1.5750004e-08
123	0x32889a63	1.590269e-08
124	0x3285258c	1.5500312e-08
125	0x32820260	1.5135072e-08
126	0x32850545	1.5485634e-08
127	0x328baf2f	1.6261394e-08
128	0x328f67b9	1.6694559e-08
129	0x32925066	1.7033198e-08
130	0x329e57ba	1.8433514e-08
131	0x32b9dd42	2.1637451e-08
132	0x32db2135	2.5510056e-08
133	0x32ee8ee1	2.777182e-08
134	0x32e9b510	2.7207108e-08
135	0x32d4f9f9	2.4793723e-08
136	0x32c186ab	2.2529397e-08
137	0x32b8415a	2.1450138e-08
138	0x32b5daea	2.1170724e-08
139	0x32b57efa	2.1128916e-08
140	0x32b95d94	2.1579389e-08
141	0x32c543cf	2.2964654e-08
142	0x32d40066	2.468023e-08
143	0x32d89ab4	2.521606e-08
144	0x32cc3555	2.3772978e-08
145	0x32b74a7c	2.1337875e-08
146	0x32a9496f	1.9707583e-08
147	0x32a7f884	1.955437e-08
148	0x32ab0708	1.9910217e-08
149	0x32a858ae	1.9598101e-08
150	0x32a0c47d	1.8715804e-08
151	0x329cf4d0	1.8272118e-08
152	0x32a01d99	1.8639911e-08
153	0x32a2f44c	1.8970375e-08
154	0x329dfb8e	1.83916e-08
155	0x3294cbf5	1.7322217e-08
156	0x3292adfe	1.707576e-08
157	0x329bed78	1.8152363e-08
158	0x32a71e3d	1.945511e-08
159	0x32a78399	1.9501202e-08
160	0x329bc566	1.8134141e-08
161	0x328e8fe4	1.659641e-08
162	0x3289730b	1.6001215e-08
163	0x328aac99	1.6143803e-08
164	0x328ac6a9	1.6155655e-08
165	0x3288df0b	1.5933912e-08
166	0x328c318d	1.6320678e-08
167	0x32987b83	1.7751296e-08
168	0x32a5aa98	1.9286105e-08
169	0x32a76a5c	1.9489725e-08
170	0x329be9a1	1.8150617e-08
171	0x328edfb9	1.6632713e-08
172	0x328c62d9	1.6343096e-08
173	0x3293b4c9	1.7195264e-08
174	0x3299e008	1.7913422e-08
175	0x32980efc	1.7701943e-08
176	0x3292b38d	1.7078287e-08
177	0x3291b189	1.6960955e-08
178	0x3294e59a	1.7333878e-08
179	0x3294ce44	1.7323266e-08
180	0x328e25a0	1.6548086e-08
181	0x3287b13c	1.5796665e-08
182	0x3289c0b2	1.6036527e-08
183	0x3292660c	1.7043043e-08
184	0x32964877	1.7495251e-08
185	0x328e1182	1.6538937e-08
186	0x327ef250	1.4839841e-08
187	0x326cb57d	1.3778274e-08
188	0x326db64b	1.3836664e-08
189	0x3274ee26	1.4256818e-08
190	0x3274d187	1.425031e-08
191	0x3272c373	1.4130694e-08
192	0x327e7815	1.4812049e-08
193	0x328cea71	1.6404757e-08
194	0x3298feba	1.7810965e-08
195	0x3299fcd9	1.7926526e-08
196	0x3291a7ca	1.6956523e-08
197	0x328a83d6	1.6125266e-08
198	0x328b2c34	1.6201831e-08
199	0x328f9659	1.6715761e-08
200	0x32907bd0	1.682011e-08
201	0x328d917a	1.6480715e-08
202	0x328d2c36	1.6434665e-08
203	0x3291d28b	1.6975966e-08
204	0x32952954	1.7364677e-08
205	0x328fc6b1	1.6737745e-08
206	0x32840161	1.536745e-08
207	0x327a2b14	1.456171e-08
208	0x32820043	1.513411e-08
209	0x328c9da1	1.6369826e-08
210	0x32906bfc	1.6812912e-08
211	0x32889bc1	1.5903312e-08
212	0x32795e5e	1.4515164e-08
213	0x326d15cc	1.3800172e-08
214	0x326f38e2	1.3924565e-08
215	0x32748a6c	1.4234143e-08
216	0x3277f478	1.4432878e-08
217	0x32817d77	1.5074631e-08
218	0x328f49aa	1.668089e-08
219	0x32a0e609	1.873106e-08
220	0x32ac1db5	2.0036945e-08
221	0x32ac6936	2.007128e-08
222	0x32a83751	1.9582929e-08
223	0x32a8b483	1.9639861e-08
224	0x32aee448	2.0360076e-08
225	0x32b37452	2.0891239e-08
226	0x32b19f77	2.0678028e-08
227	0x32ad714b	2.019137e-08
228	0x32ad9c36	2.0210887e-08
229	0x32b16c04	2.0654632e-08
230	0x32b08c8c	2.055301e-08
231	0x32a57d9b	1.9265647e-08
232	0x3295505c	1.7382426e-08
233	0x328a8040	1.6123636e-08
234	0x3288b2a4	1.591372e-08
235	0x32897b84	1.6005067e-08
236	0x3285543b	1.5521541e-08
237	0x327a2a3a	1.4561516e-08
238	0x32701a68	1.3975843e-08
239	0x32748cdb	1.4234696e-08
240	0x327fb771	1.4884663e-08
241	0x32838949	1.5312837e-08
242	0x32872c66	1.5736259e-08
243	0x3291c49d	1.6969631e-08
244	0x32a5205b	1.9223242e-08
245	0x32b949cd	2.1570395e-08
246	0x32c3e5fd	2.2805574e-08
247	0x32c32ee2	2.2722308e-08
248	0x32bef26d	2.2229154e-08
249	0x32bec628	2.2209022e-08
250	0x32c21e2a	2.259829e-08
251	0x32c37d81	2.275806e-08
252	0x32c0c86c	2.2442883e-08
253	0x32bd5bc1	2.204422e-08
254	0x32bb5878	2.1809896e-08
255	0x32b6fce2	2.1302586e-08

exp_avg f4 [8]
0	0xaff3db00	-4.435705e-10
1	0xb2860261	-1.5600735e-08
2	0xb0adb554	-1.2638943e-09
3	0x3094418f	1.078705e-09
4	0xb12970ca	-2.465685e-09
5	0xb23763a3	-1.0674657e-08
6	0x310b3123	2.0255093e-09
7	0xafab0253	-3.110637e-10

exp_avg_sq f4 [8]
0	0x2525964f	1.4362395e-16
1	0x25b6ffee	3.1745392e-16
2	0x25141f16	1.2847486e-16
3	0x240116ad	2.7991623e-17
4	0x23c9d66c	2.1883275e-17
5	0x25ae3a4f	3.02237e-16
6	0x24543916	4.6018526e-17
7	0x254d1dbc	1.779099e-16

exp_avg f4 [8]
0	0x2e5d7d45	5.0360844e-11
1	0xb012319c	-5.318499e-10
2	0x2fb7fdcf	3.3467848e-10
3	0x2fe65e4f	4.1903767e-10
4	0xae81fbaa	-5.910945e-11
5	0x3117f15b	2.2110587e-09
6	0x2ebf5ee7	8.7025324e-11
7	0xaf80827a	-2.3375774e-10

exp_avg_sq f4 [8]
0	0x221fa67a	2.163665e-18
1	0x22bc6e47	5.1074263e-18
2	0x22605f2c	3.0408044e-18
3	0x21c55b61	1.3373427e-18
4	0x20ac7b46	2.921951e-19
5	0x232f1277	9.490679e-18
6	0x213a2793	6.3071627e-19
7	0x216ec7cb	8.090196e-19
