model/all_subjects_20240205_181004/model.pt (torch, 65706 bytes, 17 tensors)

net.conv.weight f4 [8, 1, 1, 256]
0	0xbedae65f	-0.42753884
1	0xbf0dd2a3	-0.5539953
2	0xbf422e86	-0.7585224
3	0xbf5c1658	-0.85971594
4	0xbf3fd848	-0.74939394
5	0xbf467aa8	-0.7753091
6	0xbf60e334	-0.87846684
7	0xbf6a0dd5	-0.91427356
8	0xbf8e6ee8	-1.1127596
9	0xbf7f1072	-0.9963447
10	0xbf5cac87	-0.86200756
11	0xbf342f28	-0.70384455
12	0xbee9ae52	-0.45640808
13	0xbe0f6ee7	-0.1400715
14	0x3e07ffad	0.13281126
15	0x3ebda708	0.37041497
16	0x3ea368b8	0.31915832
17	0x3e08cdba	0.13359728
18	0xbd5ff5ca	-0.054677762
19	0xbeb653f0	-0.35610914
20	0xbee98463	-0.45608816
21	0xbf03e410	-0.5151987
22	0xbed44674	-0.4146
23	0xbe392d9e	-0.18083808
24	0x3e44cf1b	0.1921963
25	0x3ecfae01	0.40562442
26	0x3ee085c5	0.43852058
27	0x3ee867fd	0.45391837
28	0x3eda14e4	0.42594063
29	0x3e2829c6	0.16422185
30	0x3e22cdd3	0.15898828
31	0x3e1ca68b	0.15297906
32	0x3e9f5366	0.31118315
33	0x3f2d1c6c	0.67621493
34	0x3f8d3940	1.1033096
35	0x3f9db97e	1.2322233
36	0x3faef490	1.3668385
37	0x3fa6f1be	1.3042524
38	0x3f96d698	1.1784239
39	0x3f45cebb	0.7726857
40	0x3ec48c29	0.38388184
41	0x3d270dda	0.040784694
42	0xbe35c130	-0.17749476
43	0xbe83844d	-0.25686875
44	0xbe8c525b	-0.27406582
45	0xbe17a2b7	-0.14808165
46	0xbe8943e3	-0.26809606
47	0xbe8ab954	-0.2709452
48	0xbed8a9ff	-0.42317197
49	0xbf1d4d16	-0.6144575
50	0xbf28a1dc	-0.6587198
51	0xbf309199	-0.68972164
52	0xbf41d0f5	-0.7570947
53	0xbf0d3537	-0.55159324
54	0xbed18547	-0.40921995
55	0xbe41e063	-0.18933253
56	0xbe1f0353	-0.15528612
57	0xbe63847c	-0.22218508
58	0xbeacc75c	-0.3374585
59	0xbeec3fd2	-0.4614244
60	0xbf37818c	-0.7168205
61	0xbf746035	-0.954593
62	0xbf86e538	-1.0538702
63	0xbf7f1b03	-0.9965059
64	0xbf5bff7e	-0.85936725
65	0xbf22e168	-0.6362519
66	0xbf08c070	-0.53418636
67	0xbec6511c	-0.38733757
68	0xbe9bcbca	-0.30428916
69	0xbe40a2f9	-0.18812169
70	0x3d201d03	0.039090168
71	0x3e0d02ec	0.13770646
72	0x3e8fe331	0.2810302
73	0x3ebeee98	0.37291408
74	0x3f0d4cd5	0.5519536
75	0x3f39a62c	0.72519183
76	0x3f3c3f1f	0.73533815
77	0x3f2bf1dd	0.6716593
78	0x3f1552f2	0.5832969
79	0x3f14fded	0.5819996
80	0x3ee530cf	0.447638
81	0x3ec76c54	0.38949835
82	0x3e9674cb	0.2938598
83	0x3ef6648a	0.4812358
84	0x3f118af2	0.5685264
85	0x3f22f5a7	0.63656086
86	0x3f2e2109	0.6801916
87	0x3f28f673	0.6600105
88	0x3f077645	0.5291484
89	0x3e9ff0bf	0.31238362
90	0x3e177fc0	0.14794827
91	0xbd988acb	-0.07448348
92	0xbe2a740b	-0.1664583
93	0xbd0f7086	-0.03501942
94	0x3e271c12	0.16319302
95	0x3eee5ed3	0.4655672
96	0x3f19052b	0.5977351
97	0x3f2dd671	0.67905337
98	0x3effa475	0.49930158
99	0x3e786c26	0.24260005
100	0xbddc6480	-0.10761356
101	0xbeceb60b	-0.40373263
102	0xbf20e82b	-0.6285426
103	0xbf2a0660	-0.6641598
104	0xbf26b1c5	-0.65115005
105	0xbf0725bc	-0.52791953
106	0xbea3c99d	-0.31989756
107	0xbea97143	-0.33094224
108	0xbed25b49	-0.4108527
109	0xbf358cb9	-0.7091785
110	0xbf7ff480	-0.9998245
111	0xbfb73481	-1.4312898
112	0xbfcce325	-1.6006819
113	0xbfd7d4fd	-1.6861874
114	0xbfb973ee	-1.4488504
115	0xbf772db6	-0.96554124
116	0xbee0afec	-0.43884218
117	0x3d6c2593	0.05765302
118	0x3e9639dc	0.29341018
119	0x3eeb49b7	0.45954677
120	0x3ed51c65	0.41623226
121	0x3ed4cff4	0.41564906
122	0x3e604dbf	0.21904658
123	0x3e7a09ae	0.24417755
124	0x3e8ce44f	0.27517936
125	0x3eeb0ce8	0.45908284
126	0x3f1011ce	0.5627717
127	0x3f122158	0.5708213
128	0x3f0ca50c	0.5493934
129	0x3eadc3f7	0.33938572
130	0x3e39f871	0.18161179
131	0x3c664cde	0.0140564125
132	0xbe2b0f17	-0.16704975
133	0xbdef48c4	-0.11683801
134	0xbe14095d	-0.14456697
135	0x3cbdb3f9	0.023157107
136	0x3e739814	0.23788482
137	0x3ee226bb	0.44170174
138	0x3f144a23	0.57925624
139	0x3f2d7134	0.6775086
140	0x3f0c70d7	0.5485968
141	0x3ee9c7d4	0.4566027
142	0x3e719b49	0.23594393
143	0x3de6ace5	0.11263446
144	0x3e2147a4	0.15749985
145	0x3ea6e43e	0.3259601
146	0x3ec96ad7	0.39339325
147	0x3ede67d9	0.43438604
148	0x3ec986a8	0.39360547
149	0x3eaeb8ee	0.34125465
150	0x3d2c31ea	0.04203979
151	0xbee9b8e5	-0.45648876
152	0xbf4c9fa1	-0.79931074
153	0xbf81ac5a	-1.0130723
154	0xbf86abfb	-1.0521234
155	0xbf80d045	-1.0063559
156	0xbf53a18a	-0.82668364
157	0xbf118f79	-0.56859547
158	0xbeeecd57	-0.46641037
159	0xbeee3f20	-0.46532536
160	0xbf36a6fb	-0.7134854
161	0xbf640da2	-0.890833
162	0xbf9b1cd8	-1.2118177
163	0xbfa4aa70	-1.2864513
164	0xbf927caf	-1.14443
165	0xbf652087	-0.8950276
166	0xbf1d1db0	-0.61373425
167	0xbebb0ae7	-0.36531755
168	0xbe346d37	-0.17619787
169	0xba67ef32	-0.00088475936
170	0xbe16ec0e	-0.14738485
171	0xbe3874e2	-0.18013337
172	0xbeaf37c1	-0.34222224
173	0xbee5a0d0	-0.44849253
174	0xbec8f77a	-0.3925131
175	0xbeafc56c	-0.34330308
176	0xbdc9da77	-0.09856122
177	0x3e45a281	0.19300272
178	0x3ebf2f40	0.37340736
179	0x3f022050	0.50830555
180	0x3eee594d	0.46552506
181	0x3ee35793	0.4440275
182	0x3eca8a29	0.39558533
183	0x3ea38ebe	0.3194484
184	0x3e85a017	0.260987
185	0x3ed17473	0.40909156
186	0x3f2aef69	0.6677156
187	0x3f8a9761	1.0827447
188	0x3fa3b575	1.2789751
189	0x3fa5e69b	1.2961
190	0x3fa928b8	1.3215551
191	0x3f916714	1.1359582
192	0x3f440eae	0.765849
193	0x3eef899d	0.46784678
194	0x3e0c7815	0.13717683
195	0x3de1fe0e	0.11034785
196	0x3d4c87a3	0.04993404
197	0x3e23e0f6	0.16003785
198	0x3d862c85	0.0655146
199	0x3db7b13a	0.0896935
200	0xbdd574ec	-0.10422692
201	0xbebef198	-0.37293696
202	0xbf40aa43	-0.752598
203	0xbf6f3f8d	-0.93456346
204	0xbf839e0d	-1.0282608
205	0xbf6a697c	-0.91567206
206	0xbf1d1fae	-0.61376464
207	0xbe9ecab3	-0.31014022
208	0x3dbc3f98	0.09191817
209	0x3eca6c66	0.39535826
210	0x3ec6dccc	0.3884033
211	0x3e38c172	0.18042544
212	0xbe355f98	-0.17712247
213	0xbf17e871	-0.5933905
214	0xbf6f2a79	-0.93424183
215	0xbf9a7e9b	-1.2069887
216	0xbfa291dc	-1.2700763
217	0xbf93f220	-1.1558266
218	0xbf51b84b	-0.81921834
219	0xbee10076	-0.43945664
220	0xbec851fd	-0.39125052
221	0xbeab66f8	-0.33476996
222	0xbf211481	-0.6292191
223	0xbf74c11a	-0.9560715
224	0xbf84615f	-1.0342215
225	0xbf5143a9	-0.81743866
226	0xbf0ffa2c	-0.56241107
227	0xbe53f4d2	-0.2069886
228	0x3e9defe4	0.30847085
229	0x3f4ffd47	0.81245846
230	0x3f89aa4f	1.0755099
231	0x3f84fd6d	1.038984
232	0x3f72c81f	0.9483661
233	0x3f1e46c8	0.61826754
234	0x3e1f4148	0.15552247
235	0xbcedf45e	-0.029047187
236	0xbc198d8b	-0.009372125
237	0x3e8b4144	0.2719823
238	0x3f3fcb51	0.7491961
239	0x3f86d15e	1.0532644
240	0x3fa0a6a2	1.2550852
241	0x3f97ad8d	1.1849838
242	0x3f7083b9	0.9395099
243	0x3f20ec45	0.6286052
244	0x3e4d4178	0.20044506
245	0x3cdc98cc	0.026928328
246	0xbe0be797	-0.13662563
247	0xbdd4d677	-0.103924684
248	0xbe1208a2	-0.14261106
249	0xbd4882fe	-0.04895305
250	0xbda9c266	-0.08289032
251	0xbe4c6004	-0.19958502
252	0xbf0b4593	-0.54403037
253	0xbf865214	-1.0493798
254	0xbfc287c6	-1.5197685
255	0xbfe6d2bb	-1.803306

net.bn1.weight f4 [8]
0	0x3fc9254c	1.5714507
1	0x3fecb693	1.8493217
2	0x4006315e	2.0967631
3	0x3fbd69ba	1.479789
4	0x3f8e7239	1.1128608
5	0x400143ba	2.0197587
6	0x3f95f370	1.1714916
7	0x3f6d92cb	0.92802113

net.bn1.bias f4 [8]
0	0xbd6ec33f	-0.05829167
1	0xbd929a20	-0.07158303
2	0xbe633287	-0.22187243
3	0xbd8db8ce	-0.06920014
4	0xbdfbe235	-0.12299005
5	0x3e91e314	0.2849356
6	0xbd78ef1a	-0.0607749
7	0x3dff9697	0.124798946

net.bn1.running_mean f4 [8]
0	0xb806e683	-3.216277e-05
1	0x3a80940c	0.0009809746
2	0x3ac408d7	0.0014956248
3	0x39c96d0d	0.00038418957
4	0xba916fad	-0.0011095904
5	0x38bf6542	9.1264505e-05
6	0xba8ae7e5	-0.0010597674
7	0xba519988	-0.0007995595

net.bn1.running_var f4 [8]
0	0x44802ba3	1025.3636
1	0x4481bbb6	1037.866
2	0x448edbca	1142.8684
3	0x4421624c	645.5359
4	0x43f31f65	486.24527
5	0x4486acb8	1077.3975
6	0x441196d7	582.3569
7	0x43d2f93d	421.94717

net.depth_conv.weight f4 [16, 1, 32, 1]
0	0xbe644825	-0.22293146
1	0x3e8b15ad	0.27164975
2	0x3f318e94	0.6935818
3	0x3e2424b7	0.1602963
4	0x3f609fbb	0.8774373
5	0xbf38a08f	-0.7211999
6	0x3f3cadf2	0.7370292
7	0x3f312e58	0.6921134
8	0xbf81cf7a	-1.0141442
9	0x3ef8168a	0.48454696
10	0xbfa747fa	-1.306884
11	0xbec0f2b5	-0.3768517
12	0xbf351fd7	-0.7075171
13	0xbbd7f6e0	-0.006590709
14	0x3ed22987	0.41047308
15	0x3f3b5097	0.73169845
16	0x3ce22a3b	0.027608028
17	0x3ec1c402	0.37844855
18	0x3fc40ed5	1.5317026
19	0x3f64d1de	0.8938273
20	0xbe93658d	-0.28788415
21	0x3e05a9c8	0.13053048
22	0x3e8da147	0.27662107
23	0xbfb9d6a9	-1.4518634
24	0xbfbad568	-1.4596376
25	0x3f9d7a13	1.2302879
26	0xbe9f3312	-0.3109365
27	0xbfc37ce2	-1.5272486
28	0xbea2bf18	-0.31786418
29	0xbef8a67a	-0.48564512
30	0x3f1bdbbb	0.6088216
31	0x3e8b417f	0.27198407
32	0xbe4b940a	-0.19880691
33	0x3f417906	0.7557529
34	0x3f51cd14	0.8195355
35	0x3e381945	0.1797839
36	0x3fba19bf	1.4539107
37	0x3e9b7bdb	0.30367932
38	0xbee39c16	-0.44455022
39	0xbe5a8af8	-0.21342075
40	0xbfec2b6a	-1.8450749
41	0x3f6b4730	0.919055
42	0xbef43083	-0.47693262
43	0xbe95e295	-0.2927443
44	0xbfc79b65	-1.5594298
45	0xbf1cd5c6	-0.6126369
46	0x3d3be066	0.0458683
47	0x3f0393b6	0.51397264
48	0x3d538b7f	0.051646706
49	0x3ee71ef5	0.45140806
50	0x3f622d23	0.88350123
51	0x3f96877f	1.17601
52	0x3f1053df	0.5637798
53	0x3fdd5aae	1.7293298
54	0x3ef778fd	0.48334494
55	0xbf9f3c7b	-1.2440332
56	0xbfc53e23	-1.5409588
57	0x3f19cbf5	0.6007684
58	0x3d179e8a	0.03701643
59	0xbf000f26	-0.50023115
60	0xbf91ef8a	-1.1401227
61	0xbf417d65	-0.7558196
62	0x3f322a62	0.6959592
63	0x3e84bfe0	0.2592764
64	0x3ec54d86	0.38535708
65	0x3f901802	1.1257327
66	0x3efc76a4	0.49309266
67	0xbf074eb1	-0.5285445
68	0x3f063da1	0.5243779
69	0xbdf958d2	-0.12175144
70	0x3ebc5afe	0.36788172
71	0xbe8696a2	-0.262868
72	0xbe92c9f2	-0.28669697
73	0xc02866ae	-2.631267
74	0x3d839c25	0.064262666
75	0x3f039ea1	0.51413924
76	0x3ebd9509	0.37027767
77	0x3fa5ba21	1.2947427
78	0xbea72363	-0.32644185
79	0x3e448ba7	0.19193898
80	0x3e1cdea4	0.15319306
81	0x3d62936c	0.055316374
82	0x3ead0a0c	0.33796728
83	0x3ef35dab	0.475324
84	0x3f786283	0.97025317
85	0xbe7ad8da	-0.24496785
86	0x3d0fb977	0.035088982
87	0xbc5c85cf	-0.013459637
88	0xbf8f0904	-1.1174626
89	0xbec467cd	-0.38360444
90	0xbf8aca22	-1.0842936
91	0xbeae65ec	-0.34062135
92	0xbd9006e4	-0.07032564
93	0xbe3fe8dd	-0.18741174
94	0x3ee1889b	0.44049534
95	0x3eac59fc	0.33662403
96	0xbe911bfa	-0.28341657
97	0xbf482253	-0.78177375
98	0xbf7d9e10	-0.9906931
99	0xbf58052a	-0.8438288
100	0xbf8940a6	-1.0722854
101	0x3f03c44e	0.5147141
102	0x3eed212c	0.4631437
103	0x3fb50c93	1.4144462
104	0xbf361af2	-0.71134865
105	0x4001ac92	2.0261579
106	0xbf06b9b6	-0.5262712
107	0x3e899a77	0.2687566
108	0xbd9d753e	-0.07688378
109	0xbed3e5ce	-0.41386265
110	0xbd55b0b1	-0.05217046
111	0xbe412805	-0.18862922
112	0x3d5b81fc	0.05359076
113	0xbf4acec3	-0.79221743
114	0xbdd5173d	-0.10404823
115	0xbe83bf1f	-0.2573175
116	0xbf188cfc	-0.59590125
117	0xbe86b569	-0.2631028
118	0xbeff7b83	-0.4989892
119	0x3f5144bc	0.81745505
120	0x3e949b18	0.29024577
121	0xbeea5d47	-0.4577429
122	0x3ff244ba	1.8927224
123	0x3ed89642	0.42302138
124	0xbf238507	-0.6387486
125	0x3f5fc4e4	0.87409806
126	0xbf08fbbc	-0.53509116
127	0x3e36e0d5	0.17859204
128	0xbe210be7	-0.15727197
129	0xbfa2a4a0	-1.270649
130	0xbf27e013	-0.65576285
131	0xbed5ff73	-0.41796455
132	0xbeb7b15f	-0.3587751
133	0x3ebd0093	0.369145
134	0xbe076370	-0.13221526
135	0x3fa2ae5e	1.2709463
136	0x3e20d81d	0.1570744
137	0x403d826e	2.9610858
138	0xbd2e0ece	-0.042494588
139	0xbe25ded7	-0.16198288
140	0xbf2ab3bc	-0.666805
141	0xbfb21c7b	-1.3914942
142	0x3e611f08	0.21984494
143	0xbd29b84f	-0.041435536
144	0xbe75963a	-0.23983088
145	0xbe9cdfcd	-0.30639496
146	0xbf4b95a7	-0.79525226
147	0xbe61dcae	-0.22056839
148	0xbf5aae9d	-0.8542269
149	0x3f106ebb	0.5641896
150	0x3e33261c	0.17495006
151	0x3ef77679	0.48332575
152	0x3ede1066	0.43371886
153	0x3f19e4d8	0.6011481
154	0x3f84d722	1.0378153
155	0x3f8db6a1	1.1071359
156	0xbecafc8a	-0.39645797
157	0xbe49bd63	-0.19701152
158	0xbf234302	-0.6377412
159	0x3ecf8026	0.40527457
160	0x3e8221d1	0.25416425
161	0x3eb32009	0.34985378
162	0xbf11b06a	-0.5690981
163	0xbf813e2e	-1.0097101
164	0xbfa91e6b	-1.3212408
165	0x3ef4a527	0.4778225
166	0x3f259125	0.646746
167	0x3fa77d97	1.3085202
168	0xbf9d45ac	-1.2286887
169	0x3dec750f	0.11545765
170	0xbf10caf0	-0.5655966
171	0x3f1d98f0	0.6156149
172	0x3f200110	0.6250162
173	0x3f83b677	1.0290059
174	0xbeba5ee4	-0.3640052
175	0xbe802b94	-0.25033247
176	0x3d608e6a	0.054823317
177	0xbf181d6c	-0.59419894
178	0x3ef7a718	0.4836967
179	0xbc74b9f8	-0.0149369165
180	0x3d25381c	0.040336713
181	0xbf3010d1	-0.6877566
182	0xbedfdc4f	-0.4372277
183	0x3f230fdd	0.6369608
184	0xbf118776	-0.5684732
185	0xbf7e2a4b	-0.99283284
186	0x3fb9fd0f	1.4530352
187	0x3de4d944	0.11174253
188	0xbf837b3f	-1.0271987
189	0x3fc7a567	1.5597352
190	0xbe0cc67d	-0.13747592
191	0x3e323f85	0.17407043
192	0x3effc483	0.49954614
193	0xbe15e644	-0.1463862
194	0x3e98abdb	0.29818615
195	0xbd796880	-0.060890675
196	0x3f3ec3c4	0.74517465
197	0xbe26bde5	-0.16283377
198	0xbfacb9a4	-1.3494153
199	0x3de27e0f	0.110592
200	0x3d099d25	0.03359713
201	0xbe5e7a65	-0.21726377
202	0xbf48d8c9	-0.7845579
203	0xbe9904db	-0.29886517
204	0x3f20f456	0.6287283
205	0xbdf6f1bf	-0.12057828
206	0xbf043f26	-0.51658857
207	0x3ebd2d54	0.36948645
208	0xbe714389	-0.23560919
209	0x3d89c482	0.06726934
210	0xbf2e415d	-0.68068486
211	0xbf754239	-0.9580417
212	0x3d1d6d0d	0.038434077
213	0xbd1faa6f	-0.038980898
214	0xbcf6d37d	-0.030130142
215	0x3f1f4d8d	0.6222771
216	0x40064ef0	2.098568
217	0xbfe04f79	-1.7524253
218	0x40044ae0	2.06707
219	0x3fbf8d51	1.4965001
220	0xbedec03d	-0.4350604
221	0xbf9e6d28	-1.2377062
222	0x3ea8117e	0.32825845
223	0x3e6402ce	0.22266695
224	0x3e311790	0.17294145
225	0xbe8dcbff	-0.276947
226	0x3ead5da0	0.33860493
227	0xbf34f71d	-0.70689565
228	0x3f8b7dd4	1.0897775
229	0x3d92c98d	0.07167349
230	0xbefbbafc	-0.49166095
231	0x3f1c0abd	0.60953885
232	0x3e574fbe	0.21026513
233	0xbe3cf819	-0.18454017
234	0xbff90b31	-1.945654
235	0xbd968cfa	-0.07351108
236	0xbcc1a7e4	-0.023639627
237	0x3e32be80	0.17455482
238	0xbdf0b1f1	-0.1175269
239	0x3f6a86d8	0.91612005
240	0x3f2907aa	0.6602732
241	0xbd05084c	-0.032478616
242	0xbe3608cd	-0.17776795
243	0xbf3103c0	-0.6914635
244	0xbeb71868	-0.35760808
245	0xbf603cbe	-0.87592685
246	0x3e8ba29b	0.27272496
247	0x3e44ab10	0.1920588
248	0x3ff032b8	1.8765478
249	0xbfaa7d72	-1.3319533
250	0x3ffb7dcd	1.9647766
251	0x3fbe3678	1.4860373
252	0xbec8ae6f	-0.39195582
253	0xbfaec115	-1.3652674
254	0x3e49539c	0.196608
255	0xbc269bdc	-0.010168996

net.bn2.weight f4 [16]
0	0x3feae2c9	1.8350459
1	0x3fcfdbcf	1.6238955
2	0x4010dcb1	2.26347
3	0x400a52ce	2.161304
4	0x401655c4	2.3489847
5	0x4019d204	2.4034433
6	0x3fe2b8bc	1.7712626
7	0x3fe85fd4	1.8154244
8	0x3f890076	1.0703266
9	0x3fda1f55	1.7040812
10	0x401363a7	2.3029573
11	0x4014dddb	2.326041
12	0x3fecb7c3	1.849358
13	0x3fe79a61	1.8093988
14	0x3fc676b0	1.550497
15	0x3fd1bb58	1.6385298

net.bn2.bias f4 [16]
0	0xbe9bb9bd	-0.30415145
1	0xbf05d4a6	-0.522776
2	0xbf06f4ee	-0.52717483
3	0xbf20c971	-0.62807375
4	0xbf226b57	-0.6344504
5	0xbf0fe451	-0.5620776
6	0xbea13978	-0.31489158
7	0xbeaac80a	-0.33355743
8	0xbe58c1a4	-0.21167618
9	0xbee20721	-0.44146064
10	0xbeedce93	-0.46446666
11	0xbf1ed9c8	-0.6205106
12	0xbea18fe0	-0.3155508
13	0xbeb7bc1c	-0.35885704
14	0xbeb5b8b8	-0.35492492
15	0xbedc7e88	-0.43065286

net.bn2.running_mean f4 [16]
0	0xbc5dfd5c	-0.013549175
1	0xbd8551b6	-0.06509726
2	0xbcef8ee5	-0.029242942
3	0x3d7f7853	0.06237061
4	0xbe3bb14f	-0.18329357
5	0xbca8143b	-0.02051746
6	0xbd2cd3f3	-0.042194318
7	0xbda1bb4c	-0.07897052
8	0xbe00b0a4	-0.12567383
9	0x3d9aa921	0.0755179
10	0xbe559a1b	-0.20859568
11	0x3ef25cd6	0.47336453
12	0x3c85d363	0.016336149
13	0x3c29b047	0.010356969
14	0xbdfb4e02	-0.12270738
15	0x3df2320a	0.118259504

net.bn2.running_var f4 [16]
0	0x41a1ceaa	20.22591
1	0x4125edb4	10.370533
2	0x418ade62	17.358585
3	0x416efe93	14.937152
4	0x41d249fc	26.286125
5	0x41e70e6f	28.882048
6	0x425a6b01	54.604496
7	0x423ff1dc	47.98619
8	0x41ef597f	29.9187
9	0x41e153b7	28.165876
10	0x4201a997	32.415615
11	0x4185ae61	16.710146
12	0x4296db95	75.42887
13	0x42a4d703	82.419945
14	0x416d4774	14.829945
15	0x41864d76	16.787823

net.point_conv.weight f4 [16, 16, 1, 16]
0	0x3eac48d9	0.33649328
1	0x3ecefb04	0.40425885
2	0x3f16b82e	0.58874786
3	0x3ed81e50	0.42210627
4	0x3ed38bf9	0.41317728
5	0x3e90433e	0.28176302
6	0x3e398614	0.18117553
7	0x3e231bda	0.15928593
8	0x3d030735	0.031989295
9	0x3e2431fc	0.16034693
10	0x3d4803f6	0.048831902
11	0x3e0fbc1d	0.14036603
12	0x3e469b79	0.19395246
13	0x3e8d60f4	0.27613032
14	0x3ec9c9ae	0.39411682
15	0x3f00fac4	0.5038264
16	0x3e7ddffc	0.24792475
17	0x3ea3e0f4	0.32007563
18	0x3f078003	0.52929705
19	0x3f1d8cdd	0.61543065
20	0x3f3819cc	0.7191436
21	0x3f621f1c	0.8832872
22	0x3f6eece2	0.93330204
23	0x3f84b8c4	1.0368886
24	0x3f6705b0	0.90243053
25	0x3f5837b2	0.84459984
26	0x3f174366	0.59087217
27	0x3ed35c90	0.41281557
28	0x3e9e97ba	0.30975133
29	0x3e8b2c25	0.27182117
30	0x3e96bcf5	0.29441038
31	0x3eecd4a0	0.4625597
32	0x3e21a666	0.15786132
33	0x3e7a82e2	0.2446399
34	0x3e847391	0.2586942
35	0x3ea101b9	0.31446627
36	0x3e90781e	0.28216642
37	0x3ec7e83a	0.39044362
38	0x3eca3ab6	0.39497918
39	0x3eee81e0	0.46583462
40	0x3f14b49f	0.58088106
41	0x3f1139df	0.5672893
42	0x3f274893	0.65345114
43	0x3f2bb158	0.6706748
44	0x3f16a0b8	0.5883899
45	0x3f127f66	0.57225645
46	0x3ef4d32c	0.4781736
47	0x3f074c54	0.5285084
48	0xbe0504f1	-0.12990166
49	0xbde81f4d	-0.11334095
50	0x3c1d8dd2	0.009616332
51	0x3dd0e6cc	0.10200271
52	0x3da5f1f0	0.081027865
53	0x3de92781	0.11384488
54	0x3dca2a2c	0.09871325
55	0x3e008cc5	0.125537
56	0x3cddb96d	0.027065957
57	0x3e1f8c63	0.15580897
58	0x3d1ed9f9	0.038782094
59	0x3d9319fa	0.07182689
60	0x3d2868d4	0.041115597
61	0x3dcab449	0.09897668
62	0x3e3a2c36	0.18180928
63	0x3e373a79	0.178934
64	0x3d3c561e	0.045980565
65	0x3e0c2427	0.13685666
66	0x3e1e61da	0.15467015
67	0x3e7edacf	0.24888156
68	0x3ebbb272	0.3665958
69	0x3e847213	0.25868282
70	0x3ea75212	0.32679802
71	0x3ea55340	0.32290077
72	0x3e5317ec	0.20614594
73	0x3dc1c367	0.09461098
74	0x3d12a66d	0.035803247
75	0x3de29c40	0.110649586
76	0xbc1c5925	-0.009542738
77	0x3dd675f3	0.10471716
78	0x3e390692	0.18068913
79	0x3e2c5cec	0.16832322
80	0xbe8a2959	-0.2698467
81	0xbe3ea808	-0.18618786
82	0xbe3a8b1b	-0.18217127
83	0xbdfe7438	-0.12424511
84	0x3d4a0a98	0.04932651
85	0xbd178331	-0.03699035
86	0x3d7b1d67	0.061307337
87	0x3c324e26	0.01088289
88	0xbe2554b5	-0.16145594
89	0xbe00b7e8	-0.12570155
90	0xbe7d60d4	-0.24743968
91	0xbe9db7f4	-0.30804408
92	0xbed98ba2	-0.42489344
93	0xbf08513e	-0.53248966
94	0xbef9daeb	-0.48799834
95	0xbebd1f9d	-0.36938182
96	0x3f8a1675	1.0788103
97	0x3f6a8335	0.91606456
98	0x3f493e87	0.78611034
99	0x3f39b29f	0.7253818
100	0x3f41876b	0.75597256
101	0x3f484225	0.7822593
102	0x3f3e4a3d	0.7433203
103	0x3f2f517e	0.6848372
104	0x3f3b2aad	0.73111993
105	0x3f56386c	0.8367984
106	0x3f628bb2	0.8849441
107	0x3f560046	0.8359417
108	0x3f1d220b	0.6138007
109	0x3eca0347	0.39455625
110	0x3eb60e4d	0.35557786
111	0x3e920c65	0.2852508
112	0x3f887ff6	1.066405
113	0x3f75f5c8	0.9607816
114	0x3f5b458f	0.85653013
115	0x3f6e80d7	0.93165344
116	0x3f8ebb98	1.1150999
117	0x3f8f2c48	1.1185389
118	0x3f8bfb7b	1.0936121
119	0x3f60ac2b	0.8776271
120	0x3f44d825	0.7689231
121	0x3f63b48f	0.88947386
122	0x3f7454ec	0.9544208
123	0x3f5a54a7	0.8528542
124	0x3f483248	0.78201723
125	0x3f26356c	0.64925265
126	0x3f2e2c78	0.68036604
127	0x3f1a048b	0.6016318
128	0x3e172f8d	0.14764233
129	0x3e839607	0.257004
130	0x3ebc577b	0.36785492
131	0x3ed75b87	0.42062017
132	0x3ef4374e	0.47698444
133	0x3ef248a7	0.47321054
134	0x3f128ce6	0.57246244
135	0x3f01c8c7	0.50696987
136	0x3f03d941	0.5150338
137	0x3efdcabc	0.49568737
138	0x3e8c2bae	0.27377075
139	0x3e3a5cd3	0.18199472
140	0xbd42b56a	-0.04753629
141	0xbddcec12	-0.10787214
142	0xbe5936ac	-0.21212262
143	0xbe68687a	-0.22696105
144	0x3ef5d902	0.48017126
145	0x3f059c6a	0.52191794
146	0x3eefc7cc	0.4683212
147	0x3ed929d8	0.42414737
148	0x3ece2422	0.40261942
149	0x3eabf292	0.33583504
150	0x3e4f0442	0.20216468
151	0x3dddcfc2	0.10830642
152	0x3dd3cc94	0.103417546
153	0x3dde2c39	0.108482786
154	0x3e2dcd8a	0.16972938
155	0x3e694685	0.22780807
156	0x3ec46583	0.38358697
157	0x3ec8214f	0.39087912
158	0x3ef14e0e	0.47129864
159	0x3f00f554	0.5037434
160	0xbe9b825f	-0.30372903
161	0xbda7e66c	-0.08198246
162	0x3c482a77	0.012217156
163	0x3d9e6097	0.07733267
164	0x3dab29d5	0.08357588
165	0xbd25deca	-0.04049567
166	0xbc877434	-0.016534902
167	0xbda1c2f7	-0.07898515
168	0xbe3ff12b	-0.18744342
169	0xbebb2694	-0.3655287
170	0xbec7cc51	-0.3902307
171	0xbeae1295	-0.33998552
172	0xbe640fce	-0.22271654
173	0xbe62d08e	-0.2214987
174	0xbe560249	-0.20899309
175	0xbe68390b	-0.2267801
176	0x3e808b98	0.25106502
177	0x3e4d0a23	0.20023398
178	0x3e9d7edf	0.30760857
179	0x3e9621ca	0.29322654
180	0x3ea03c93	0.31296214
181	0x3e74e8f8	0.23916996
182	0x3e774069	0.24145664
183	0x3e6dc254	0.23218662
184	0x3e1585f4	0.1460188
185	0x3e1dcc42	0.1540995
186	0x3cf4e57d	0.029894585
187	0x3dadad4f	0.084803216
188	0x3d972555	0.073801674
189	0x3dd3f712	0.10349859
190	0x3d083c03	0.033260357
191	0x3da1f920	0.07908845
192	0x3f7fcce3	0.9992201
193	0x3f80bbd9	1.0057327
194	0x3f791f1d	0.973131
195	0x3f82d531	1.0221311
196	0x3f8af5f2	1.0856307
197	0x3f6c15e1	0.92220885
198	0x3f614b2b	0.8800532
199	0x3f658c88	0.8966756
200	0x3f507443	0.814274
201	0x3f3a2eca	0.72727644
202	0x3f4600f4	0.77345204
203	0x3f276e47	0.65402645
204	0x3f0e0b21	0.5548573
205	0x3f291465	0.66046745
206	0x3f39a877	0.7252268
207	0x3f4748df	0.7784557
208	0x3f42b04f	0.76050276
209	0x3f2912f2	0.66044533
210	0x3f1fdae4	0.62443376
211	0x3ef248c7	0.4732115
212	0x3f027570	0.50960445
213	0x3f0840ac	0.5322368
214	0x3ebad23e	0.36488527
215	0x3ee5f861	0.4491606
216	0x3ec05139	0.37561968
217	0x3ea91dd6	0.33030576
218	0x3ea088ee	0.3135447
219	0x3ee16def	0.44029185
220	0x3ecbf90d	0.39838448
221	0x3ed21788	0.41033578
222	0x3eb48801	0.35260013
223	0x3f0fffa4	0.5624945
224	0x3ea9de9e	0.33177656
225	0x3ef43aff	0.4770126
226	0x3f193d1e	0.5985888
227	0x3f40b869	0.7528139
228	0x3f28f0f4	0.65992665
229	0x3f2a6dd4	0.66573834
230	0x3f2043bf	0.6260337
231	0x3f308914	0.68959165
232	0x3f324537	0.69636863
233	0x3f29fa19	0.66397244
234	0x3f1d83bf	0.61529154
235	0x3f1bd10b	0.6086585
236	0x3ef13fc8	0.47118974
237	0x3eece6ec	0.4626993
238	0x3eee186e	0.46503013
239	0x3f041a4f	0.51602644
240	0x3e87324d	0.26405564
241	0x3ea71110	0.32630205
242	0x3e6bb1dd	0.23017068
243	0x3eaa25e9	0.33232048
244	0x3ec09acb	0.37618098
245	0x3ee1dbb4	0.44112933
246	0x3ee9bfa0	0.4565401
247	0x3ef46145	0.4773046
248	0x3eff968b	0.49919543
249	0x3ebc4a55	0.3677546
250	0x3ed5ebf6	0.41781586
251	0x3ea88fe2	0.32922274
252	0x3e93f361	0.2889662
253	0x3e959cb4	0.29221117
254	0x3e83e454	0.25760138
255	0x3e67d980	0.22641563

net.bn3.weight f4 [16]
0	0x3f8b58a5	1.0886427
1	0x3fe8c7c1	1.818596
2	0x4003f1bf	2.06163
3	0x3fcd550d	1.604158
4	0x3f8ccd50	1.1000156
5	0x3fd4c5e6	1.6622894
6	0x3f69ea59	0.9137321
7	0x3f8a5290	1.0806446
8	0x3fd3f219	1.6558257
9	0x3f76e62f	0.9644498
10	0x40047c2a	2.0700784
11	0x3fbcd1fa	1.475158
12	0x3f93484a	1.1506436
13	0x3fedb7fc	1.8571773
14	0x3f8d647b	1.1046289
15	0x3ff837d4	1.9392037

net.bn3.bias f4 [16]
0	0x3d3a8a63	0.045542132
1	0xbef1ad38	-0.47202468
2	0xbf2bf8ad	-0.67176324
3	0x3e50f1f6	0.20404801
4	0xbc9d23f3	-0.019182181
5	0xbe923ce0	-0.2856207
6	0x3e3f0289	0.18653311
7	0x3d3481d7	0.044069137
8	0xbf0178fa	-0.5057522
9	0x3df44b79	0.11928458
10	0xbf1d644a	-0.61481154
11	0xbe1e9968	-0.15488207
12	0xbdd9b968	-0.106310666
13	0xbed49a6c	-0.41524065
14	0x3c051947	0.008123702
15	0xbf2b3af8	-0.66886854

net.bn3.running_mean f4 [16]
0	0x411a003e	9.625059
1	0x3dda0f5e	0.10647462
2	0xc0c589b9	-6.173062
3	0x40c707a6	6.2196836
4	0x404a2e3a	3.1590714
5	0xc0aa257b	-5.3170753
6	0x40c63570	6.194023
7	0x406cb7e7	3.6987245
8	0xc08a54c7	-4.322849
9	0x40bdeca2	5.935136
10	0xc0e830b5	-7.2559457
11	0x40662cf0	3.5964928
12	0x412d1b8e	10.819227
13	0xc0d97469	-6.79546
14	0x4054c760	3.324669
15	0xc0cc3671	-6.3816457

net.bn3.running_var f4 [16]
0	0x445415bf	848.3398
1	0x4462e143	907.5197
2	0x44a859b3	1346.8031
3	0x448e6eae	1139.4587
4	0x44554bf2	853.18665
5	0x449276f8	1171.7178
6	0x440d3522	564.8302
7	0x4424323b	656.78485
8	0x4444b1d9	786.7789
9	0x446d9726	950.3617
10	0x44b1692d	1419.2867
11	0x444dd004	823.25024
12	0x443fc20a	767.03186
13	0x44a964bb	1355.1478
14	0x44520391	840.0557
15	0x4494cfc2	1190.4924

net.fc.weight f4 [32, 256]
0	0xbe3aa014	-0.18225127
1	0xbeb35136	-0.35022897
2	0xbf35c33d	-0.71001035
3	0xbd367440	-0.04454446
4	0xbe785faa	-0.24255243
5	0xbeb20d17	-0.34775612
6	0xbdb9e61a	-0.090770915
7	0xbe17a2bb	-0.1480817
8	0xbed52082	-0.41626364
9	0xbeec313b	-0.4613131
10	0x3d84d7b3	0.06486454
11	0xbdaad7ff	-0.08341979
12	0xbe6335b8	-0.22188461
13	0xbe8675ff	-0.262619
14	0xbf3f2692	-0.7466823
15	0xbf030bc4	-0.5118983
16	0xbe407a6d	-0.18796702
17	0xbe679c7a	-0.22618285
18	0x3c389f36	0.011268428
19	0xbee821d6	-0.45338315
20	0xbf09ab73	-0.53777236
21	0xbf2695c6	-0.65072286
22	0xbf065985	-0.52480346
23	0xbed0e19b	-0.40797123
24	0xbe67380c	-0.22579974
25	0x3e08ac2c	0.13346928
26	0x3e086d46	0.13322935
27	0xbf2fc6aa	-0.6866251
28	0xbf68543a	-0.9075352
29	0xbf484011	-0.7822276
30	0xbe97c3b6	-0.29641503
31	0x3e5a3dfa	0.21312705
32	0x3e0e17ac	0.13876218
33	0x3eac711c	0.33680046
34	0xbde71e0c	-0.11285028
35	0x3eb7b3c1	0.3587933
36	0x3f80cf8b	1.0063337
37	0x3f736194	0.9507077
38	0x3ef48354	0.47756445
39	0x3e8dc72f	0.27691028
40	0x3f3e6ff2	0.74389565
41	0x3e86b10d	0.26306954
42	0x3e7a6d99	0.2445587
43	0x3edcc821	0.43121436
44	0x3f5d6ec8	0.86497164
45	0x3f887d82	1.0663302
46	0x3ef149a5	0.471265
47	0x3d90b327	0.070654206
48	0x3ea79212	0.3272863
49	0xbe2705ad	-0.16310759
50	0xbf5960e5	-0.84913474
51	0xbebb2819	-0.3655403
52	0xbe9208c3	-0.2852231
53	0xbf7fad5c	-0.998739
54	0xbf7a7d43	-0.97847384
55	0xbef634bd	-0.4808711
56	0xbef7021d	-0.482438
57	0xbe1cdcd1	-0.1531861
58	0xbef0cdcb	-0.47032008
59	0xbeba1ecb	-0.36351618
60	0xbeb484b4	-0.35257494
61	0xbf6620a4	-0.89893556
62	0xbed533ef	-0.41641185
63	0xbf2adc38	-0.6674228
64	0xbe37db52	-0.17954758
65	0xbee4d420	-0.4469309
66	0x3ce0f067	0.027458383
67	0xbe81efd3	-0.25378284
68	0xbf33df50	-0.7026262
69	0xbeafaf90	-0.3431363
70	0xbdf458ff	-0.11931037
71	0xbee160c1	-0.4401913
72	0xbeacf04a	-0.33777076
73	0xbd8a6d62	-0.06759144
74	0x3e8be47c	0.27322757
75	0xbf27c97f	-0.65541834
76	0xbef155e6	-0.47135848
77	0xbec67ce2	-0.38767153
78	0xbddf7d6c	-0.10912594
79	0xbddc5e5c	-0.10760185
80	0xbeb71986	-0.3576166
81	0xbe056a19	-0.13028754
82	0x3e0eeb79	0.13957013
83	0x3efcc564	0.49369347
84	0x3ec36fa3	0.3817111
85	0x3ef7c3b0	0.48391485
86	0x3e96b660	0.29436016
87	0x3eb6b2ac	0.3568319
88	0x3e472a3b	0.19449703
89	0xbe12aed9	-0.14324512
90	0x3e157e7d	0.14599033
91	0x3e5e1145	0.21686275
92	0x3f404e88	0.7511983
93	0x3f45d4a2	0.77277577
94	0x3dfcfa1f	0.12352394
95	0x3cf23d3b	0.029570213
96	0xbe728169	-0.23682179
97	0xbe5a5c34	-0.21324235
98	0xbedc98b0	-0.4308524
99	0xbc6e7704	-0.014554743
100	0x3d512c81	0.051067833
101	0xbddb0c7c	-0.106957406
102	0xbdc28128	-0.09497291
103	0xbe71879f	-0.23586892
104	0x3bc265db	0.0059325523
105	0xbe5c4e99	-0.21514358
106	0xbf3732f6	-0.71562135
107	0xbee6342c	-0.4496168
108	0x3e3502ea	0.17676893
109	0xbd51e3fd	-0.051242817
110	0xbea1242c	-0.3147291
111	0xbecf1d21	-0.4045191
112	0xbe93a11d	-0.28833857
113	0xbea247a7	-0.3169529
114	0xbdeef8e7	-0.11668568
115	0xbe143ff0	-0.14477515
116	0xbe26a166	-0.16272506
117	0x3d911e81	0.07085896
118	0x3ea15c92	0.31515938
119	0xbe788000	-0.24267578
120	0xbe8632c0	-0.26210594
121	0x3d6df1c7	0.058091905
122	0xbe821417	-0.25405952
123	0xba49932b	-0.0007689471
124	0xbd9c2437	-0.07624095
125	0xbeb069d0	-0.3445573
126	0xbe60ddec	-0.21959656
127	0xbec27f2d	-0.37987652
128	0x3e9bc605	0.30424514
129	0x3e29e1ce	0.16590044
130	0x3c1c281d	0.009531048
131	0xbe4a069c	-0.19729084
132	0xbec0a6ea	-0.37627345
133	0xbeb59a64	-0.35469353
134	0x3df8e721	0.12153459
135	0xbdee1268	-0.116246045
136	0xbee3c669	-0.44487312
137	0xbce789d5	-0.028263966
138	0x3ed0b42e	0.40762466
139	0xbd767d7c	-0.060178265
140	0xbf0db190	-0.55349064
141	0xbf226ba2	-0.63445485
142	0xbe86e741	-0.26348308
143	0x3e95927f	0.2921333
144	0xbe379336	-0.1792725
145	0xbd232ff0	-0.03984064
146	0xbee7c3ad	-0.45266476
147	0xbcb9f9ce	-0.022702124
148	0xbe59c4a3	-0.21266417
149	0xbe8e393e	-0.27778047
150	0xbe585a1e	-0.21128127
151	0xbe5e053f	-0.21681689
152	0xbe33f628	-0.1757437
153	0xbc99f479	-0.018793331
154	0x3d8e1af9	0.069387384
155	0xbe880d23	-0.26572523
156	0xbf33f536	-0.7029604
157	0xbe5a9f7e	-0.21349904
158	0xbf1b5c16	-0.60687387
159	0xbf17d117	-0.5930342
160	0xbe6a2f94	-0.22869712
161	0x3e3dfccd	0.18553467
162	0x3eadfcd5	0.33981958
163	0x3eb48bf3	0.35263023
164	0x3efed7e8	0.49774098
165	0x3f5a5f33	0.8530151
166	0x3f29dd0f	0.66352934
167	0x3ed7d8ba	0.42157537
168	0x3f32e319	0.69877774
169	0x3ec45337	0.38344738
170	0x3cf542fb	0.029939165
171	0x3ed6e55c	0.41971862
172	0x3f112a28	0.5670495
173	0x3f7f668c	0.9976585
174	0x3f4fbea2	0.8115026
175	0x3e9736c5	0.29533973
176	0x3e2c84ba	0.16847506
177	0xbe57f20d	-0.21088429
178	0xbebf3783	-0.3734704
179	0xbeaba5cf	-0.3352494
180	0xbea4b761	-0.32171157
181	0xbf09c342	-0.53813565
182	0xbea2cbf4	-0.3179623
183	0xbe08cb9a	-0.13358918
184	0x3e54418e	0.20728132
185	0xbd8a6cae	-0.0675901
186	0xbdc74e8e	-0.0973178
187	0xbe112c2c	-0.14177006
188	0xbf754ac0	-0.95817184
189	0xbf8dfc96	-1.1092708
190	0xbecec277	-0.4038274
191	0x3dc14304	0.0943661
192	0xbe6e79b8	-0.2328862
193	0xbf0b2fe5	-0.54369956
194	0xbe945399	-0.2897003
195	0x3e6ad353	0.22932176
196	0x3c03dcd1	0.008048252
197	0xbe81730f	-0.25283095
198	0xbd99e13e	-0.07513665
199	0x3e0f0574	0.13966924
200	0xbe9213b5	-0.2853066
201	0x3ed51c9e	0.41623396
202	0xbd599cba	-0.05312798
203	0xbe2d4f37	-0.1692475
204	0xbe5a4f5e	-0.21319339
205	0xbe07a8d0	-0.1324799
206	0xbd0660f9	-0.032807324
207	0xbecdd811	-0.40203908
208	0xbd8fa616	-0.070141
209	0x3ce0c003	0.027435308
210	0x3dc0f0ae	0.09420906
211	0x3e93c812	0.2886358
212	0x3e96168c	0.29314077
213	0x3f087577	0.5330424
214	0x3f303756	0.68834436
215	0x3ed4399d	0.41450205
216	0x3ee530c3	0.44763765
217	0x3cb0ff24	0.021606036
218	0xbed897ec	-0.42303407
219	0x3e3450b9	0.17608918
220	0x3f19d803	0.6009523
221	0x3f6db813	0.92859
222	0x3f2a5aeb	0.6654498
223	0x3e4dbc23	0.200913
224	0xbc72bc9b	-0.014815475
225	0xbd524c28	-0.05134216
226	0x3e55ee83	0.20891766
227	0xbe583c26	-0.21116695
228	0xbee2c454	-0.4429041
229	0xbdeb9bae	-0.11504303
230	0xbeb5b678	-0.35490775
231	0xbe783e32	-0.24242476
232	0xbdffccc1	-0.124902256
233	0xbe6da0cf	-0.23205875
234	0x3cea402a	0.028595049
235	0x3d99ec72	0.075158015
236	0xbf2514c6	-0.6448482
237	0xbed76e4b	-0.42076334
238	0xbebed4c1	-0.37271693
239	0xbd664d8a	-0.05622629
240	0xbf2f656e	-0.68514144
241	0x3ef86558	0.4851482
242	0xbed3e1c1	-0.41383174
243	0x3f1b2a54	0.6061146
244	0x3f94b91e	1.1618993
245	0x3f80a26f	1.0049571
246	0x3f016fc3	0.5056116
247	0x3e76749a	0.24067917
248	0x3f036792	0.5132991
249	0x3ec7328c	0.38905752
250	0x3ce972d1	0.028497132
251	0x3e5136f3	0.20431118
252	0x3ec445e2	0.38334566
253	0x3ef2d8d5	0.47431055
254	0x3f169bb8	0.5883136
255	0x3e40a666	0.18813476

net.fc.bias f4 [32]
0	0xbf5c700b	-0.86108464
1	0x3e57a446	0.21058759
2	0xbf26b879	-0.6512523
3	0x3fa12af5	1.2591234
4	0xbf6ef433	-0.9334137
5	0xbe592a4c	-0.21207541
6	0xbf910a20	-1.1331215
7	0x3f4d6788	0.802361
8	0x3f01bb16	0.50676095
9	0xbf82b40e	-1.0211198
10	0xc025aec1	-2.5887911
11	0x3f40ea9d	0.7535799
12	0xbfbe65a2	-1.4874766
13	0x3f0bdef5	0.5463708
14	0x3f27ab8a	0.6549612
15	0xbf4e8c9d	-0.8068331
16	0xbf79b4b5	-0.9754136
17	0xbfc9e837	-1.5773991
18	0x3f7d0de9	0.9884935
19	0x3f497c5b	0.78705376
20	0x3f923700	1.1423035
21	0xbe93f4d6	-0.28897732
22	0x3efc6d24	0.49302018
23	0xbf52be0e	-0.8232125
24	0xbff33cd3	-1.9002937
25	0x3e987eb3	0.29784164
26	0x3f50b75d	0.8152979
27	0xbf48149b	-0.7815644
28	0x3f1acfcf	0.6047334
29	0x3f844db1	1.033621
30	0x3f921c1b	1.1414827
31	0x3f90b394	1.1304803
