model/sub4_20240206_130642/checkpoints/epoch2_0.9883.pt (torch, 195725 bytes, 39 tensors)

net.conv.weight f4 [8, 1, 1, 256]
-0.28069672 -0.42489526 -0.6453007 -0.76046145 -0.6621027 -0.6977009 -0.8081184 -0.84882176
-1.0517501 -0.93493193 -0.79819083 -0.6365175 -0.38543716 -0.066372044 0.20726158 0.44301268
0.38677344 0.19264354 -0.007898176 -0.32455826 -0.44168165 -0.5186069 -0.43500966 -0.21581627
0.14714958 0.3571106 0.3950553 0.425005 0.42042717 0.18800074 0.21335551 0.23340261
0.40786836 0.77632815 1.1946338 1.3054347 1.4162065 1.326813 1.1733358 0.74092096
0.32853064 -0.03340568 -0.2645683 -0.35079932 -0.36932415 -0.24000263 -0.3528309 -0.3458673
-0.48685572 -0.66683996 -0.70114595 -0.72494686 -0.7890537 -0.58450305 -0.4463459 -0.23222604
-0.20370293 -0.27431032 -0.39059243 -0.5127914 -0.76452935 -0.99818057 -1.0946031 -1.0368997
-0.90248144 -0.68487245 -0.59042335 -0.45239735 -0.3785101 -0.27073053 -0.05013761 0.044324886
0.18626381 0.2795433 0.4648352 0.6451682 0.66504365 0.61337954 0.53872204 0.5517719
0.4313729 0.38584867 0.3004139 0.4948504 0.58580714 0.65392506 0.6935977 0.66478276
0.5200389 0.2836958 0.0941622 -0.15769522 -0.28076595 -0.1781049 -0.0037533208 0.28665406
0.417045 0.5051391 0.33808002 0.09723546 -0.23664425 -0.5188279 -0.7344181 -0.76684743
-0.7562021 -0.63848233 -0.43579033 -0.44879058 -0.52526164 -0.8145182 -1.0922616 -1.5103307
-1.6693906 -1.750413 -1.5155079 -1.0408735 -0.5268494 -0.044028286 0.17990126 0.33764952
0.290098 0.2899031 0.09911795 0.13830294 0.18781397 0.39619535 0.529828 0.57119197
0.583154 0.40289617 0.27139306 0.12717374 -0.032678235 0.036985267 0.027191041 0.21079868
0.4382857 0.65001076 0.7895047 0.88286495 0.74198395 0.6311161 0.38593984 0.23426196
0.24962121 0.39082715 0.43707052 0.46572506 0.42229912 0.3755927 0.08686485 -0.4007112
-0.7362456 -0.9489095 -0.9937934 -0.9591362 -0.7927478 -0.5460936 -0.45010155 -0.447802
-0.68751884 -0.8516347 -1.158675 -1.2223773 -1.0747396 -0.8253041 -0.5480249 -0.30521536
-0.1209369 0.051474918 -0.09615606 -0.12940383 -0.29291788 -0.4027991 -0.35294148 -0.3118175
-0.07600356 0.20696177 0.380154 0.5097201 0.46335134 0.43957818 0.389675 0.31245834
0.25313067 0.40081602 0.66006726 1.0771756 1.2772682 1.2999891 1.3324877 1.1548648
0.79282576 0.50160515 0.17523593 0.14949198 0.08734135 0.19425799 0.096739165 0.119760364
-0.07595444 -0.34247723 -0.71986634 -0.90203345 -1.0003326 -0.8973275 -0.60878986 -0.31930545
0.07153426 0.36983863 0.36566195 0.16900313 -0.16926277 -0.560471 -0.87424105 -1.1201098
-1.1636618 -1.0364355 -0.69148785 -0.3046499 -0.2480166 -0.18073682 -0.46253124 -0.77654034
-0.8439044 -0.6207554 -0.3676479 -0.019116126 0.48377484 0.97145504 1.2162519 1.1609373
1.0518533 0.7036038 0.22268616 0.019513132 0.020197058 0.2831277 0.74430835 1.0368887
1.2333454 1.1643776 0.9255908 0.62489635 0.20822956 0.045752637 -0.108262375 -0.065971054
-0.09884748 -0.0009258825 -0.032332424 -0.149093 -0.49771488 -1.0133095 -1.5019994 -1.8127712
00000000: 7bb7 8fbe df8b d9be 6d32 25bf 9aad 42bf
00000010: 907f 29bf 879c 32bf d9e0 4ebf 624c 59bf
00000020: bf9f 86bf b357 6fbf 3c56 4cbf d0f2 22bf
00000030: 0558 c5be 11ee 87bd 613c 543e 8fd2 e23e
00000040: 2b07 c63e 5944 453e 5a67 01bc 802c a6be
00000050: 1924 e2be 6cc3 04bf 96b9 debe f1fe 5cbe
00000060: 61ae 163e 33d7 b63e b044 ca3e 419a d93e
00000070: 3b42 d73e 4483 403e de79 5a3e 1801 6f3e
00000080: 1fd4 d03e 71bd 463f c3e9 983f 7c18 a73f
00000090: 4146 b53f 02d5 a93f de2f 963f ffac 3d3f
000000a0: 2b35 a83e 65d4 08bd 7f75 87be f89b b3be
000000b0: 0e18 bdbe 40c3 75be 40a6 b4be 8515 b1be
000000c0: 2745 f9be 06b6 2abf 4d7e 33bf 1e96 39bf
000000d0: 6cff 49bf fea1 15bf 7387 e4be aacc 6dbe
000000e0: 8097 50be 6772 8cbe bbfb c7be 4c46 03bf
000000f0: 32b8 43bf c388 7fbf f41b 8cbf 21b9 84bf
00000100: 0609 67bf cd53 2fbf fc25 17bf a0a0 e7be
00000110: 13cc c1be 319d 8abe 185d 4dbd 038e 353d
00000120: f1bb 3e3e 4d20 8f3e e1fe ed3e be29 253f
00000130: 4d40 2a3f 7106 1d3f b0e9 093f ec40 0d3f
00000140: e9dc dc3e f58d c53e dacf 993e 085d fd3e
00000150: 75f7 153f a267 273f 9e8f 313f 342f 2a3f
00000160: 4521 053f 9340 913e 1dd8 c03d db7a 21be
00000170: 8ec0 8fbe 2261 36be 46fa 75bb 52c4 923e
00000180: ec86 d53e cc50 013f d318 ad3e 6323 c73d
00000190: df52 72be e8d1 04bf d302 3cbf 1d50 44bf
000001a0: 7696 41bf 9473 23bf e91f dfbe e1c7 e5be
000001b0: 8c77 06bf 4484 50bf 3acf 8bbf 8452 c1bf
000001c0: 97ae d5bf 880d e0bf 2afc c1bf 583b 85bf
000001d0: 9adf 06bf 0157 34bd 0938 383e 66e0 ac3e
000001e0: ba87 943e 2e6e 943e 5afe ca3d 499f 0d3e
000001f0: 4e52 403e 1eda ca3e cfa2 073f a339 123f
00000200: 9549 153f 6848 ce3e 08f4 8a3e d539 023e
00000210: 9dd9 05bd dd7d 173d bfbf de3c 9cdb 573e
00000220: fc66 e03e 1b67 263f fb1c 4a3f 7003 623f
00000230: a9f2 3d3f d390 213f e899 c53e 5ee2 6f3e
00000240: b49c 7f3e 7f1a c83e b5c7 df3e 8473 ee3e
00000250: 9737 d83e b04d c03e 33e6 b13d 052a cdbe
00000260: 977a 3cbf bceb 72bf 3f69 7ebf f389 75bf
00000270: 85f1 4abf cacc 0bbf b673 e6be 4e46 e5be
00000280: 3c01 30bf bb04 5abf 764f 94bf dc76 9cbf
00000290: 1191 89bf 2147 53bf 5c4b 0cbf 3045 9cbe
000002a0: c4ad f7bd 5dd7 523d 78ed c4bd 7082 04be
000002b0: 55f9 95be af3b cebe bfb4 b4be 8ba6 9fbe
000002c0: c1a7 9bbd c9ed 533e 8ca3 c23e 047d 023f
000002d0: 633c ed3e 6410 e13e 7b83 c73e 8afa 9f3e
000002e0: 589a 813e c237 cd3e 2bfa 283f e4e0 893f
000002f0: 867d a33f 0b66 a63f f58e aa3f 9cd2 933f
00000300: a1f6 4a3f 3269 003f 0c71 333e 6d14 193e
00000310: 06e0 b23d 91eb 463e 2f1f c63d ec44 f53d
00000320: 008e 9bbd 2d59 afbe 2949 38bf aaeb 66bf
00000330: e60a 80bf 41b7 65bf a7d9 1bbf 017c a3be
00000340: 8e80 923d 7d5b bd3e 0b38 bb3e 280f 2d3e
00000350: 3853 2dbe 077b 0fbf 43ce 5fbf c25f 8fbf
00000360: dff2 94bf eba9 84bf 5905 31bf 12fb 9bbe
00000370: 10f8 7dbe 1313 39be e5d0 ecbe 59cb 46bf
00000380: 1e0a 58bf d3e9 1ebf 583c bcbe 6c99 9cbc
00000390: 56b1 f73e 47b1 783f 24ae 9b3f 9899 943f
000003a0: 21a3 863f 611f 343f d707 643e 01da 9f3c
000003b0: 4d74 a53c 1df6 903e fe8a 3e3f c5b8 843f
000003c0: 43de 9d3f 530a 953f 85f3 6c3f 35f9 1f3f
000003d0: 213a 553e 1e67 3b3d aab8 ddbd d51b 87bd
000003e0: 8c70 cabd ecb6 72ba 016f 04bd d6ab 18be
000003f0: 7cd4 febe 20b4 81bf 8441 c0bf e308 e8bf

net.bn1.weight f4 [8]
1.6403831 1.900969 2.1073968 1.4362309 1.0489489 2.0129411 1.1346623 0.82431203
00000000: 13f8 d13f f452 f33f 97df 0640 6ad6 b73f
00000010: f543 863f 07d4 0040 9d3c 913f 1d06 533f

net.bn1.bias f4 [8]
-0.06350739 -0.073939525 -0.2316191 -0.067115724 -0.123344705 0.28878388 -0.062338393 0.1288104
00000000: 2a10 82bd 9b6d 97bd 8f2d 6dbe f873 89bd
00000010: 269c fcbd 7bdb 933e 8b56 7fbd e0e6 033e

net.bn1.running_mean f4 [8]
0.00053538586 -0.00030617308 -0.00020535123 0.0002530128 -0.0009965114 0.00021691251 0.00014231693 0.0011334108
00000000: 2359 0c3a db85 a0b9 8d53 57b9 cea6 8439
00000010: 609d 82ba 0273 6339 e93a 1539 f58e 943a

net.bn1.running_var f4 [8]
1159.0594 1371.1079 1416.885 403.56683 558.4092 1276.371 167.79889 445.259
00000000: e7e1 9044 7463 ab44 521c b144 8ec8 c943
00000010: 309a 0b44 df8b 9f44 84cc 2743 27a1 de43

net.depth_conv.weight f4 [16, 1, 32, 1]
-0.2164583 0.20142332 0.66211516 0.1303535 0.8446403 -0.66383505 0.5543025 0.59311855
-1.3077793 0.49416977 -1.3870857 -0.44481522 -0.6495734 0.114446744 0.23750594 0.55218977
0.22690573 0.24551918 1.4904894 0.9868213 -0.03471943 0.25678316 0.3599213 -1.4171993
-1.4357337 1.2651252 -0.25325716 -1.4321011 -0.20910384 -0.58302903 0.7431731 0.3835637
-0.1678709 0.5616286 0.7028812 0.32000414 1.4861304 0.19418478 -0.53843296 -0.14187628
-2.0476527 0.8360066 -0.5968477 -0.18078959 -1.5059704 -0.65322 -0.058144577 0.5235024
0.15063587 0.31201184 0.67687184 1.3213153 0.58852994 1.6441727 0.65691733 -1.0962458
-1.5597684 0.48475945 0.17541237 -0.42691737 -1.1290118 -0.7352992 0.91197616 0.20150486
0.33165455 1.0373931 0.47122622 -0.54208416 0.3794001 -0.23800011 0.27525866 -0.3214443
-0.30223733 -2.6487095 0.06588821 0.46160996 0.40062758 1.2964691 -0.2562789 0.27396753
0.1442148 0.04190059 0.3893078 0.6174768 1.031105 -0.34490305 0.13387033 0.033922773
-1.0543882 -0.2032004 -1.1088865 -0.37019336 -0.049766403 -0.20106292 0.46841648 0.32952198
-0.34492233 -0.71167827 -0.6003108 -0.8293624 -0.97860193 0.53135467 0.49063134 1.5750198
-0.65809035 2.0866506 -0.5360543 0.16067192 -0.06775537 -0.372004 -0.0033101293 -0.20667885
0.1023027 -0.5810422 -0.02070966 -0.38407472 -0.7821485 -0.318478 -0.48222092 0.6678602
0.28581324 -0.46271545 1.9300947 0.37767005 -0.7822153 0.7491375 -0.6428774 0.13969049
-0.15695508 -1.1551961 -0.54384863 -0.5306648 -0.22983664 0.50794816 -0.0531954 1.3269421
0.17489484 2.9197512 -0.06264568 -0.09718914 -0.6865917 -1.5157602 0.30041337 0.0354098
-0.19444303 -0.25803977 -0.7267048 -0.3904179 -0.922605 0.70974916 0.039236464 0.39868084
0.45888314 0.4435529 1.050843 1.0829492 -0.39391485 -0.08271374 -0.6344678 0.31884038
0.06942531 0.2813311 -0.4312624 -0.9444589 -1.3128644 0.33738706 0.60139555 1.5379561
-1.2016478 0.17884153 -0.5800552 0.4770475 0.614378 1.1084361 -0.21984585 -0.28765267
0.120606415 -0.4988515 0.5662165 0.07545681 -0.004700945 -0.877473 -0.30575043 0.6055406
-0.5591596 -0.88669825 1.5209475 0.035298657 -1.1221443 1.4359066 -0.26356468 0.10352246
0.39298066 -0.20429218 0.078314826 -0.112523824 0.7633065 -0.2324671 -1.2097487 0.07635486
0.3497785 -0.38393208 -0.7438984 -0.12645552 0.6569267 -0.4022012 -0.39920086 0.6623186
-0.35854414 0.12630865 -0.686446 -0.90431666 0.077821694 -0.14114513 -0.14091286 0.7996034
2.218044 -1.7448457 2.0473702 1.4138632 -0.600913 -1.0025042 0.4405376 0.075184956
0.046158195 -0.39263815 0.11714026 -0.67561865 1.0899196 -0.042460274 -0.51968426 0.52513695
0.45895055 -0.2950479 -1.8525599 0.1331093 0.066472515 -0.09850372 -0.024220003 1.1949799
0.47520927 0.04325633 -0.24804668 -0.6124935 -0.2811621 -0.93718463 0.26517552 0.37976927
2.016132 -1.3504763 1.960121 1.3999633 -0.57361966 -1.1828173 0.27853516 -0.17934766
00000000: 3fa7 5dbe ea41 4e3e 6180 293f 637b 053e
00000010: 593a 583f 18f1 29bf c5e6 0d3f 9ed6 173f
00000020: 5065 a7bf d203 fd3e 068c b1bf d2be e3be
00000030: 714a 26bf 0e63 ea3d c234 733e 4f5c 0d3f
00000040: fa59 683e 6169 7b3e 5bc8 be3f 52a0 7c3f
00000050: f635 0ebd 1579 833e 9b47 b83e c966 b5bf
00000060: 1fc6 b7bf 9fef a13f ecaa 81be 174f b7bf
00000070: 511f 56be 6441 15bf 9840 3e3f 7662 c43e
00000080: 59e6 2bbe e4c6 0f3f 06f0 333f 95d7 a33e
00000090: 8539 be3f 60d8 463e bed6 09bf 0448 11be
000000a0: be0c 03c0 8704 563f 03cb 18bf e820 39be
000000b0: a3c3 c0bf 6d39 27bf 0229 6ebd 4104 063f
000000c0: 4a40 1a3e 04c0 9f3e 7947 2d3f dc20 a93f
000000d0: e6a9 163f 4074 d23f bc2b 283f c851 8cbf
000000e0: 7ea6 c7bf 6432 f83e 4d9f 333e ea94 dabe
000000f0: 7583 90bf 923c 3cbf 4577 693f 4a57 4e3e
00000100: a0ce a93e 4cc9 843f 9044 f13e 07c6 0abf
00000110: bb40 c23e 4db6 73be b4ee 8c3e 5994 a4be
00000120: dabe 9abe 7584 29c0 66f0 863d 2458 ec3e
00000130: 0f1f cd3e b3f2 a53f fd36 83be 7945 8c3e
00000140: 0bad 133e f49f 2b3d 5a53 c73e f612 1e3f
00000150: 40fb 833f 2297 b0be 4e15 093e 9bf2 0a3d
00000160: 31f6 86bf c413 50be feef 8dbf fc89 bdbe
00000170: dbd7 4bbd 70e3 4dbe 49d4 ef3e 1bb7 a83e
00000180: a999 b0be 8c30 36bf f8ad 19bf 1851 54bf
00000190: a885 7abf dc06 083f 0834 fb3e 409a c93f
000001a0: 9c78 28bf af8b 0540 db3a 09bf 2e87 243e
000001b0: 54c3 8abd 4f77 bebe c1ee 58bb 9fa3 53be
000001c0: 1484 d13d 2ebf 14bf 4ea7 a9bc 71a5 c4be
000001d0: e23a 48bf 8c0f a3be a9e5 f6be e3f8 2a3f
000001e0: 1d56 923e 0ae9 ecbe 580d f73f f85d c13e
000001f0: 433f 48bf 7ac7 3f3f 9d93 24bf 060b 0f3e
00000200: d5b8 20be 77dd 93bf aa39 0bbf a6d9 07bf
00000210: 4c5a 6bbe e408 023f 6be3 59bd 3dd9 a93f
00000220: a217 333e 34dd 3a40 614c 80bd 1a0b c7bd
00000230: 79c4 2fbf 6e04 c2bf c8cf 993e de09 113d
00000240: 131c 47be ca1d 84be 5309 3abf dbe4 c7be
00000250: d72f 6cbf 1fb2 353f 6ab6 203d e51f cc3e
00000260: bbf2 ea3e 5e19 e33e 0682 863f 149e 8a3f
00000270: 35af c9be d265 a9bd 7b6c 22bf 0c3f a33e
00000280: db2e 8e3d a10a 903e 6dce dcbe 0fc8 71bf
00000290: f10b a8bf ffbd ac3e 0ff5 193f bfdb c43f
000002a0: 98cf 99bf 3c22 373e 7f7e 14bf 923f f43e
000002b0: e047 1d3f 3ce1 8d3f 451f 61be 3647 93be
000002c0: 7f00 f73d 7769 ffbe 91f3 103f 1a89 9a3d
000002d0: 630a 9abb 12a2 60bf 528b 9cbe b504 1b3f
000002e0: 1525 0fbf a8fe 62bf 68ae c23f 5395 103d
000002f0: 6da2 8fbf cacb b73f f3f1 86be 9503 d43d
00000300: c334 c93e f831 51be 8663 a03d e472 e6bd
00000310: 0e68 433f db0b 6ebe 0cd9 9abf f05f 9c3d
00000320: 2b16 b33e bf92 c4be 2070 3ebf 8e7d 01be
00000330: 592c 283f 51ed cdbe 0e64 ccbe b68d 293f
00000340: 1993 b7be 0e57 013e edba 2fbf 4c81 67bf
00000350: fb60 9f3d 5988 10be 764b 10be cfb2 4c3f
00000360: 6ff4 0d40 1b57 dfbf 1d08 0340 78f9 b43f
00000370: 6fd5 19bf 0f52 80bf 258e e13e 92fa 993d
00000380: 6010 3d3d de07 c9be 3ce7 ef3d 58f5 2cbf
00000390: 7c82 8b3f d3ea 2dbd 070a 05bf 606f 063f
000003a0: 91fb ea3e 8510 97be af20 edbf ce4d 083e
000003b0: be22 883d 51bc c9bd 0769 c6bc 1af5 983f
000003c0: a14e f33e 8d2d 313d f3ff 7dbe 60cc 1cbf
000003d0: 7bf4 8fbe 55eb 6fbf 16c5 873e 1e71 c23e
000003e0: 4f08 0140 68dc acbf 3fe5 fa3f ff31 b33f
000003f0: bdd8 12bf 8f66 97bf 299c 8e3e eaa6 37be

net.bn2.weight f4 [16]
1.8089294 1.8163531 2.2648358 2.247968 2.366691 2.368619 1.6440276 1.684688
1.0360115 1.506864 2.2593873 2.3420944 1.614872 1.6158317 1.4219993 1.5172675
00000000: 008b e73f 427e e83f 12f3 1040 b5de 0f40
00000010: de77 1740 7497 1740 7f6f d23f dba3 d73f
00000020: 069c 843f ebe0 c03f cd99 1040 e0e4 1540
00000030: 20b4 ce3f 93d3 ce3f 1304 b63f d235 c23f

net.bn2.bias f4 [16]
-0.38410208 -0.39104107 -0.6039038 -0.6073895 -0.67300075 -0.6336856 -0.44323015 -0.46699798
-0.21854705 -0.44714612 -0.5408648 -0.6672346 -0.45234418 -0.4443059 -0.38142702 -0.45218125
00000000: 07a9 c4be 8936 c8be 7099 1abf e17d 1bbf
00000010: c749 2cbf 3839 22bf 10ef e2be 5c1a efbe
00000020: ccca 5fbe 56f0 e4be 1e76 0abf e3cf 2abf
00000030: a899 e7be 107c e3be 674a c3be 4d84 e7be

net.bn2.running_mean f4 [16]
-0.018873923 -0.05642077 -0.040962473 0.05009929 -0.26411983 -0.038839884 -0.05190488 -0.078568906
-0.08298645 0.08369284 -0.3388664 0.60127926 0.006652299 0.009250389 -0.09174892 0.13676146
00000000: 7c9d 9abc 7719 67bd 44c8 27bd ea34 4d3d
00000010: b73a 87be 9216 1fbd 369a 54bd bce8 a0bd
00000020: cdf4 a9bd 2767 ab3d e67f adbe 70ed 193f
00000030: 87fb d93b f28e 173c dce6 bbbd 320b 0c3e

net.bn2.running_var f4 [16]
41.808765 21.407795 23.57352 15.11855 31.962978 40.41972 61.53316 50.04431
21.862566 31.234625 35.978157 19.334824 81.92079 89.69532 7.740982 14.47491
00000000: 2d3c 2742 2a43 ab41 9296 bc41 95e5 7141
00000010: 2eb4 ff41 cbad 2142 f521 7642 602d 4842
00000020: 89e6 ae41 83e0 f941 a2e9 0f42 b8ad 9a41
00000030: 72d7 a342 0164 b342 20b6 f740 3b99 6741

net.point_conv.weight f4 [16, 16, 1, 16]
0.30824763 0.47001904 0.7153523 0.57689625 0.5698048 0.41221026 0.24610245 0.11464953
-0.1257188 -0.06525966 -0.19574353 -0.074994266 0.056160726 0.2503618 0.46428186 0.6322891
-0.008216739 0.14826046 0.45999822 0.63541216 0.7977443 0.9853378 1.0182574 1.0591261
0.82028353 0.6550022 0.32483923 0.11908202 0.020762661 0.025230365 0.13486311 0.40156385
0.08963112 0.13508879 0.08720888 0.08862138 0.021057617 0.11453586 0.12242512 0.21599557
0.37623647 0.4277264 0.5808944 0.649083 0.58206916 0.53644854 0.37386978 0.34623304
-0.20684922 -0.18132111 -0.06627518 -0.00075450086 -0.061362844 -0.066435404 -0.10748382 -0.08614793
-0.16860376 -0.008750368 -0.084440626 -0.004833781 0.0054216837 0.08591925 0.16243736 0.11852938
-0.0149446 0.05450644 0.04448625 0.1120227 0.21416235 0.10778043 0.19591545 0.22431749
0.14068572 0.055458132 0.008630725 0.08398565 -0.047775026 0.042708278 0.08356625 0.03494737
-0.54780185 -0.43372184 -0.33041492 -0.08876572 0.25792634 0.24457435 0.35056132 0.2609693
-0.01251826 -0.14257795 -0.4235275 -0.57278913 -0.7208504 -0.81518286 -0.7009935 -0.42236876
1.1090974 0.95976883 0.7931044 0.68544936 0.6834358 0.6942543 0.64322186 0.5769552
0.63691366 0.76459944 0.8541263 0.83802015 0.63878363 0.4221896 0.35522282 0.24187808
1.0630925 0.98156035 0.8576864 0.8939849 1.0517572 1.0466137 1.0026922 0.77153057
0.67251605 0.8256371 0.9373808 0.8719691 0.82743007 0.6990343 0.70844376 0.5961257
0.18993646 0.31532198 0.43612358 0.4896208 0.53674287 0.51754785 0.6014678 0.526934
0.53182656 0.5091638 0.27203524 0.14199333 -0.12826206 -0.22113241 -0.3415121 -0.35527712
0.36760747 0.4154556 0.37107152 0.3363126 0.3199012 0.2517243 0.11083762 0.00904139
-0.0018228993 0.008344675 0.08508186 0.16259865 0.33589068 0.34938285 0.42233008 0.4369761
-0.5798452 -0.36103153 -0.2286965 -0.07918621 0.051850587 0.04407041 0.13706532 0.08695877
-0.059525747 -0.33311176 -0.4863484 -0.5444387 -0.4885669 -0.50703555 -0.4795503 -0.44531935
0.12843156 0.09253449 0.22243758 0.23097572 0.26939625 0.2074518 0.21191204 0.19210318
0.08449703 0.06522751 -0.08848185 -0.060461804 -0.0901596 -0.068907395 -0.13745627 -0.07953109
0.8487901 0.8752798 0.8578993 0.96022487 1.0618852 0.90406007 0.8717379 0.91494334
0.8276963 0.7142427 0.7709613 0.6496144 0.5206386 0.6112228 0.6779841 0.71108687
0.7214536 0.6102089 0.54139036 0.36319527 0.39639708 0.39364812 0.19405288 0.2912265
0.22475968 0.17239346 0.16803901 0.31293017 0.28048432 0.28249305 0.23058344 0.4585239
0.34948528 0.54616004 0.6951628 0.8672122 0.7854457 0.801636 0.7629821 0.8224859
0.82003385 0.76127166 0.6820895 0.6467971 0.47690612 0.43904492 0.42106947 0.43993524
0.31240258 0.39930514 0.31422818 0.42718026 0.47838676 0.5434263 0.5539644 0.56693363
0.569989 0.4102172 0.43991745 0.3388289 0.27784428 0.2563787 0.20170335 0.144942
00000000: a2d2 9d3e 56a6 f03e 5421 373f 79af 133f
00000010: bade 113f 390d d33e 4802 7c3e 5fcd ea3d
00000020: 6ebc 00be dba6 85bd fe70 48be 9896 99bd
00000030: ca08 663d 6c2f 803e 5ab6 ed3e b3dd 213f
00000040: 809f 06bc 97d1 173e e384 eb3e 5faa 223f
00000050: f838 4c3f 193f 7c3f 4256 823f 7291 873f
00000060: 1afe 513f 39ae 273f 5451 a63e 46e1 f33d
00000070: 7516 aa3c e9af ce3c 8e19 0a3e c799 cd3e
00000080: 8590 b73d b754 0a3e 929a b23d 207f b53d
00000090: 0681 ac3c c791 ea3d 05ba fa3d f12d 5d3e
000000a0: 11a2 c03e f4fe da3e 7fb5 143f 4e2a 263f
000000b0: 7c02 153f b154 093f dc6b bf3e 7545 b13e
000000c0: 48d0 53be 3eac 39be 48bb 87bd b2c9 45ba
000000d0: 9b57 7bbd 490f 88bd 7a20 dcbd 536e b0bd
000000e0: 77a6 2cbe b45d 0fbc 35ef acbd b264 9ebb
000000f0: 61a8 b13b 6ff6 af3d fb55 263e 88bf f23d
00000100: 32da 74bc 2542 5f3d 3737 363d 286c e53d
00000110: 604d 5b3e fcbb dc3d 0f9e 483e 7cb3 653e
00000120: eb0f 103e 1128 633d e267 0d3c ab00 ac3d
00000130: bfaf 43bd e0ee 2e3d c824 ab3d f924 0f3d
00000140: be3c 0cbf ca10 debe 252c a9be cdca b5bd
00000150: ec0e 843e b371 7a3e c67c b33e c59d 853e
00000160: 6319 4dbc f4ff 11be 99d8 d8be 4fa2 12bf
00000170: a789 38bf d3af 50bf 4f74 33bf b840 d8be
00000180: e7f6 8d3f 69b3 753f e408 4b3f 9c79 2f3f
00000190: a6f5 2e3f a6ba 313f 30aa 243f 56b3 133f
000001a0: c60c 233f cabc 433f 05a8 5a3f 7d88 563f
000001b0: 5387 233f 3c29 d83e c4df b53e e3ae 773e
000001c0: 6a13 883f 8a47 7b3f 5691 5b3f 32dc 643f
000001d0: fb9f 863f 70f7 853f 3858 803f 0783 453f
000001e0: 032a 2c3f f45c 533f 30f8 6f3f 5e39 5f3f
000001f0: 75d2 533f e9f3 323f 925c 353f b29b 183f
00000200: b47e 423e e271 a13e 974b df3e 94af fa3e
00000210: fb67 093f 047e 043f cbf9 193f 26e5 063f
00000220: c925 083f 8f58 023f 3448 8b3e b366 113e
00000230: 2157 03be 8970 62be adda aebe e2e6 b5be
00000240: 0c37 bc3e 99b6 d43e 16fd bd3e 2a31 ac3e
00000250: 17ca a33e 02e2 803e d6fe e23d 5722 143c
00000260: 5aee eeba 1bb8 083c 663f ae3d 4380 263e
00000270: ddf9 ab3e 4fe2 b23e a63b d83e 55bb df3e
00000280: bc70 14bf 20d9 b8be 6a2f 6abe 612c a2bd
00000290: 4861 543d 2d83 343d da5a 0c3e 7117 b23d
000002a0: 45d1 73bd a08d aabe a802 f9be 5660 0bbf
000002b0: 7125 fabe 15cd 01bf 9e87 f5be e600 e4be
000002c0: 9083 033e b982 bd3d adc6 633e e684 6c3e
000002d0: 4eee 893e 3f6e 543e 78ff 583e b2b6 443e
000002e0: c70c ad3d 0096 853d f935 b5bd cca6 77bd
000002f0: 99a5 b8bd 521f 8dbd 56c1 0cbe 32e1 a2bd
00000300: 4f4a 593f 5612 603f 4a9f 5b3f 4cd1 753f
00000310: dbeb 873f 7b70 673f 372a 5f3f ba39 6a3f
00000320: e8e3 533f 9cd8 363f b85d 453f 214d 263f
00000330: 9248 053f 1979 1c3f 5e90 2d3f ca09 363f
00000340: 2fb1 383f a736 1c3f 8f98 0a3f bbf4 b93e
00000350: 8ff4 ca3e 3f8c c93e ccb5 463e a41b 953e
00000360: 6727 663e e987 303e 6b12 2c3e 6238 a03e
00000370: a49b 8f3e eea2 903e 111e 6c3e a5c3 ea3e
00000380: bcef b23e 25d1 0b3f 30f6 313f 9e01 5e3f
00000390: f812 493f 0438 4d3f cb52 433f 708e 523f
000003a0: bded 513f b3e2 423f 6b9d 2e3f 7f94 253f
000003b0: 0a2d f43e 7fca e03e 6b96 d73e 313f e13e
000003c0: 3bf3 9f3e b971 cc3e 84e2 a03e 5fb7 da3e
000003d0: 1cef f43e fc1d 0b3f 9cd0 0d3f 9022 113f
000003e0: cdea 113f fd07 d23e dc3c e13e fb7a ad3e
000003f0: 9b41 8e3e 1244 833e 538b 4e3e ad6b 143e

net.bn3.weight f4 [16]
0.71718264 2.0561407 2.133535 1.7893735 1.3976715 1.6112992 0.50913423 0.7676515
1.7606897 1.2329072 2.0961354 1.7305683 0.8007774 1.8722285 1.3718921 2.083375
00000000: 4899 373f cf97 0340 d68b 0840 310a e53f
00000010: e6e6 b23f 0d3f ce3f 9f56 023f cf84 443f
00000020: 485e e13f e7cf 9d3f 1527 0640 4383 dd3f
00000030: bfff 4c3f 2fa5 ef3f 299a af3f 0456 0540

net.bn3.bias f4 [16]
-0.11292124 -0.27404606 -0.62392294 0.168393 0.092109986 -0.3894281 -0.07063613 -0.15355474
-0.38195866 0.17026189 -0.6237297 -0.014904298 -0.20697378 -0.44664788 0.09814265 -0.56877935
00000000: 4043 e7bd c44f 8cbe 6ab9 1fbf 376f 2c3e
00000010: 29a4 bc3d 1f63 c7be ada9 90bd 743d 1dbe
00000020: 1690 c3be 2259 2e3e c0ac 1fbf 2831 74bc
00000030: eff0 53be 08af e4be 04ff c83d 869b 11bf

net.bn3.running_mean f4 [16]
2.9232748 2.6080842 -9.422688 6.5765815 5.5753155 -7.699303 -0.3151051 -2.3295715
0.62832606 5.7788754 -9.193569 4.5571017 3.389121 -8.62742 5.005863 -8.896158
00000000: ef16 3b40 daea 2640 54c3 16c1 5b73 d240
00000010: fc68 b240 b160 f6c0 7555 a1be b317 15c0
00000020: fad9 203f 8cec b840 dc18 13c1 c7d3 9140
00000030: 5ce7 5840 ea09 0ac1 0830 a040 aa56 0ec1

net.bn3.running_var f4 [16]
615.7202 1128.6223 1929.2894 1376.454 1119.021 1625.6447 589.5837 1087.2974
823.58307 1104.7906 1954.933 1043.1777 639.53357 1955.7668 1146.7485 1809.1926
00000000: 18ee 1944 ea13 8d44 4329 f144 870e ac44
00000010: ace0 8b44 a134 cb44 5b65 1344 84e9 8744
00000020: 51e5 4d44 4d19 8a44 db5d f444 b065 8244
00000030: 26e2 1f44 8a78 f444 f457 8f44 2a26 e244

net.fc.weight f4 [32, 256]
-0.22744557 -0.38911492 -0.70409846 -0.06864967 -0.23947018 -0.30659723 -0.054388363 -0.1471578
-0.37414375 -0.39867446 0.03566688 -0.09808858 -0.19356856 -0.28015953 -0.7873979 -0.53912956
-0.31910312 -0.39449468 -0.17801458 -0.5945407 -0.6592988 -0.78805274 -0.6340867 -0.51529616
-0.35219792 -0.04736052 0.047495913 -0.76529694 -1.0220928 -0.8168776 -0.43255594 0.08179464
0.32166523 0.54571843 0.113246605 0.57564336 1.2093315 1.1335098 0.681958 0.49470568
1.0017458 0.51905525 0.4596059 0.6269229 1.0613234 1.2699347 0.6175067 0.27549636
0.09561409 -0.4107428 -0.9614633 -0.47260815 -0.37844515 -0.9828571 -1.0212411 -0.56895864
-0.52806604 -0.30162913 -0.5477284 -0.43070713 -0.481717 -0.9724207 -0.5280619 -0.8348625
-0.42679396 -0.67662156 -0.22285703 -0.46029338 -0.83636826 -0.51746607 -0.30072272 -0.5962509
-0.53166693 -0.257834 0.090336606 -0.87400687 -0.6826517 -0.5616995 -0.34174648 -0.34593028
-0.08504107 0.16597436 0.37954256 0.7392434 0.61917555 0.7151237 0.55483896 0.5682536
0.44821936 0.15331343 0.37627566 0.46011785 0.9583047 0.9819396 0.35517922 0.28271064
-0.20312434 -0.16369423 -0.37643808 0.03617511 0.06659073 -0.07418391 -0.05962045 -0.19454268
0.08349686 -0.14044759 -0.64632946 -0.37016782 0.20970263 -0.03569072 -0.2661102 -0.3256786
-0.12044153 -0.18142335 0.032948952 0.035498627 -0.06277495 0.18046688 0.4294427 -0.11271206
-0.07618233 0.21261209 -0.11321298 0.12610966 0.014769743 -0.19495212 -0.120760106 -0.2349293
0.19599709 -0.01718939 -0.178275 -0.3797956 -0.4932882 -0.5144739 -0.03685309 -0.20493703
-0.6129731 -0.19672312 0.2447531 -0.18479446 -0.6387347 -0.72910964 -0.39562276 0.16561584
-0.43683577 -0.30318 -0.66759 -0.24940446 -0.39562458 -0.3973496 -0.38222694 -0.40754867
-0.3127192 -0.21009538 -0.079790555 -0.40472585 -0.8633499 -0.34065136 -0.76770926 -0.78600204
0.032800958 0.4463413 0.57923996 0.5859044 0.69017345 1.0448581 0.8661903 0.5999099
0.87106806 0.6290567 0.25521395 0.616769 0.80079037 1.1810595 0.9868657 0.5044622
0.011970809 -0.43241522 -0.5348168 -0.5015812 -0.5062571 -0.6893956 -0.48941675 -0.31241322
0.035277642 -0.26736173 -0.22570077 -0.26892474 -1.064905 -1.2143358 -0.58263695 -0.0846339
-0.251822 -0.55003846 -0.28573927 0.18455045 -0.024273384 -0.17119016 -0.0763119 0.09843496
-0.28378043 0.4055994 -0.049534444 -0.15553528 -0.19238876 -0.15509997 -0.04096185 -0.4011563
0.22796582 0.29372224 0.35129815 0.56308854 0.52933896 0.7853313 0.9227226 0.69688976
0.72997224 0.35592517 -0.14715333 0.42982215 0.8742825 1.1404505 0.9258964 0.4561435
-0.2765815 -0.30529457 -0.07747769 -0.47216192 -0.62540036 -0.30724153 -0.5496123 -0.43831816
-0.31192616 -0.43549573 -0.19832088 -0.12059147 -0.85280097 -0.6134941 -0.55257666 -0.27987745
-0.39976293 0.7753767 -0.1182149 0.8553967 1.3425403 1.1640447 0.6791392 0.450219
0.72043 0.6342082 0.2588984 0.46130326 0.6244268 0.6885785 0.82417613 0.41967338
00000000: 7ee7 68be 123a c7be cc3f 34bf 3398 8cbd
00000010: ac37 75be 50fa 9cbe 55c6 5ebd 89b0 16be
00000020: c58f bfbe 0f1f ccbe 6f17 123d aae2 c8bd
00000030: d636 46be 1271 8fbe e992 49bf 6504 0abf
00000040: 7c61 a3be 35fb c9be 7449 36be d233 18bf
00000050: cec7 28bf d3bd 49bf 8253 22bf 73ea 03bf
00000060: 4953 b4be 1bfd 41bd 138b 423d 80ea 43bf
00000070: f0d3 82bf e41e 51bf f977 ddbe f383 a73d
00000080: 4eb1 a43e 34b4 0b3f d6ed e73d 5d5d 133f
00000090: 60cb 9a3f d916 913f cd94 2e3f 104a fd3e
000000a0: 3539 803f cee0 043f 7751 eb3e 057e 203f
000000b0: 72d9 873f 388d a23f eb14 1e3f dc0d 8d3e
000000c0: 52d1 c33d e14c d2be 7522 76bf b2f9 f1be
000000d0: 90c3 c1be 869c 7bbf 07b8 82bf 46a7 11bf
000000e0: 562f 07bf 226f 9abe ee37 0cbf a585 dcbe
000000f0: 9ca3 f6be 90f0 78bf 112f 07bf 8cb9 55bf
00000100: bd84 dabe 1237 2dbf a234 64be 93ab ebbe
00000110: 3b1c 56bf a878 04bf 54f8 99be e6a3 18bf
00000120: 531b 08bf d102 84be 6602 b93d eabe 5fbf
00000130: 43c2 2ebf 8acb 0fbf 65f9 aebe c61d b1be
00000140: 032a aebd 2ff5 293e 6753 c23e 0e3f 3d3f
00000150: 4a82 1e3f 5912 373f ed09 0e3f 1179 113f
00000160: 027d e53e 32fe 1c3e 34a7 c03e 9194 eb3e
00000170: 7553 753f 6560 7b3f 0dda b53e 73bf 903e
00000180: d4ff 4fbe 769f 27be 7ebc c0be 5a2c 143d
00000190: b860 883d bced 97bd 9334 74bd 3236 47be
000001a0: 6700 ab3d 7ed1 0fbe d975 25bf a386 bdbe
000001b0: 49bc 563e 6f30 12bd 993f 88be 58bf a6be
000001c0: 0daa f6bd 0bc7 39be 7bf5 063d 0267 113d
000001d0: 2790 80bd 4fcc 383e eadf db3e 95d5 e6bd
000001e0: 7b05 9cbd fcb6 593e 35dc e7bd e422 013e
000001f0: cbfc 713c 87a1 47be 1351 f7bd 4e91 70be
00000200: 76b3 483e c3d0 8cbc b98d 36be 9274 c2be
00000210: 4590 fcbe 90b4 03bf 44f3 16bd 03db 51be
00000220: ceeb 1cbf c971 49be 8fa0 7a3e c23a 3dbe
00000230: 1e84 23bf eea6 3abf 118f cabe 3397 293e
00000240: f0a8 dfbe 693a 9bbe 2ee7 2abf e263 7fbe
00000250: 4e8f cabe 6871 cbbe 40b3 c3be 38aa d0be
00000260: bb1c a0be 3e23 57be 3b69 a3bd 3a38 cfbe
00000270: 8004 5dbf db69 aebe 9888 44bf 6e37 49bf
00000280: 4c5a 063d d986 e43e 1249 143f d5fd 153f
00000290: 35af 303f e9bd 853f a6be 5d3f b293 193f
000002a0: 51fe 5e3f dc09 213f 67ab 823e 93e4 1d3f
000002b0: 9900 4d3f f52c 973f 3ba3 7c3f 6f24 013f
000002c0: 3621 443c 8765 ddbe c1e9 08bf a067 00bf
000002d0: 119a 01bf 3b7c 30bf d594 fabe a0f4 9fbe
000002e0: 4a7f 103d a3e3 88be 1a1e 67be 81b0 89be
000002f0: cf4e 88bf 5b6f 9bbf b227 15bf 8a54 adbd
00000300: d0ee 80be 52cf 0cbf 6b4c 92be cbfa 3c3e
00000310: fad8 c6bc 794c 2fbe 6a49 9cbd 4598 c93d
00000320: ab4b 91be b9aa cf3e a1e4 4abd a444 1fbe
00000330: 8f01 45be 87d2 1ebe 9dc7 27bd 5c64 cdbe
00000340: df6f 693e c362 963e 5add b33e 9226 103f
00000350: c282 073f 790b 493f 8c37 6c3f 5e67 323f
00000360: 76df 3a3f d33b b63e 5daf 16be a611 dc3e
00000370: fad0 5f3f 48fa 913f 8c07 6d3f a48b e93e
00000380: 179c 8dbe 924f 9cbe a0ac 9ebd 35bf f1be
00000390: 3d1a 20bf c34e 9dbe 64b3 0cbf 3d6b e0be
000003a0: c9b4 9fbe 4cf9 debe a114 4bbe a9f8 f6bd
000003b0: 2a51 5abf f30d 1dbf aa75 0dbf 194c 8fbe
000003c0: baad ccbe 167f 463f a71a f2bd 47fb 5a3f
000003d0: 5cd8 ab3f 6bff 943f 11dc 2d3f 1b83 e63e
000003e0: 1a6e 383f 785b 223f 558e 843e f12f ec3e
000003f0: 6fda 1f3f ae46 303f 35fd 523f 6edf d63e

net.fc.bias f4 [32]
-0.8176482 0.13901776 -0.51214355 1.1609555 -0.79176694 0.012886664 -0.9669545 0.74444973
0.35423315 -0.8806395 -2.5580606 0.6201397 -1.5079095 0.38079658 0.5480012 -0.5850224
-0.77968675 -1.3982975 0.81452346 0.80722827 1.037837 -0.278744 0.48183373 -0.872347
-1.6485076 0.33045065 0.8158418 -0.620709 0.729124 0.85095495 0.98442763 1.0562954
00000000: 6451 51bf ac5a 0e3e d71b 03bf 319a 943f
00000010: 3db1 4abf 9622 533c 558a 77bf 4294 3e3f
00000020: 0c5e b53e 9771 61bf 44b7 23c0 7ac1 1e3f
00000030: 2e03 c1bf c5f7 c23e cf49 0c3f 07c4 15bf
00000040: 8d99 47bf 6afb b2bf 9c84 503f 83a6 4e3f
00000050: d8d7 843f 89b7 8ebe e9b2 f63e 2252 5fbf
00000060: 4c02 d3bf d430 a93e 02db 503f c9e6 1ebf
00000070: dfa7 3a3f 2fd8 593f 7303 7c3f b034 873f

exp_avg f4 [8, 1, 1, 256]
-8.047844e-06 -1.4302599e-06 4.6091227e-06 1.0263107e-05 1.5727037e-05 2.1205253e-05 2.69993e-05 3.316159e-05
3.952322e-05 4.5971792e-05 5.2225845e-05 5.7970556e-05 6.2948006e-05 6.706987e-05 7.026344e-05 7.249608e-05
7.379207e-05 7.427268e-05 7.403572e-05 7.316546e-05 7.171837e-05 6.9699345e-05 6.718478e-05 6.420476e-05
6.0730898e-05 5.6735575e-05 5.2167794e-05 4.710927e-05 4.186233e-05 3.6964564e-05 3.2798493e-05 2.9559236e-05
2.727893e-05 2.5803647e-05 2.4876583e-05 2.4094385e-05 2.31387e-05 2.1785083e-05 1.9935442e-05 1.7516375e-05
1.4465051e-05 1.0734021e-05 6.48917e-06 2.2333606e-06 -1.5955095e-06 -4.5796387e-06 -6.1316396e-06 -5.9193703e-06
-3.8714297e-06 -2.0132349e-07 4.7385183e-06 1.0487361e-05 1.6548847e-05 2.2354487e-05 2.7320626e-05 3.0951047e-05
3.2933727e-05 3.341679e-05 3.2429984e-05 3.0159305e-05 2.6785072e-05 2.2496442e-05 1.7575503e-05 1.2520638e-05
7.981815e-06 4.6121086e-06 2.8113677e-06 2.8047755e-06 4.395687e-06 7.0192773e-06 1.0053668e-05 1.2829312e-05
1.4824037e-05 1.5726357e-05 1.5543426e-05 1.4305809e-05 1.2262271e-05 9.626662e-06 6.7150304e-06 3.7049329e-06
7.16739e-07 -2.2877043e-06 -5.23922e-06 -8.117348e-06 -1.0963793e-05 -1.38566675e-05 -1.6729224e-05 -1.9394765e-05
-2.1543334e-05 -2.2700102e-05 -2.2462387e-05 -2.0755795e-05 -1.7699957e-05 -1.372524e-05 -9.274066e-06 -4.782911e-06
-6.356502e-07 2.903037e-06 5.940381e-06 8.713262e-06 1.14904e-05 1.445589e-05 1.7822711e-05 2.1655613e-05
2.5757394e-05 2.9621346e-05 3.2611304e-05 3.433825e-05 3.4820416e-05 3.4170393e-05 3.2646334e-05 3.0718194e-05
2.8902667e-05 2.7775366e-05 2.756119e-05 2.8348226e-05 3.0016578e-05 3.2252097e-05 3.4423883e-05 3.5862322e-05
3.6021025e-05 3.441489e-05 3.066202e-05 2.4698553e-05 1.6757289e-05 7.346099e-06 -2.9393861e-06 -1.3512711e-05
-2.3925026e-05 -3.3376346e-05 -4.1886513e-05 -4.932915e-05 -5.5715707e-05 -6.0977753e-05 -6.523754e-05 -6.840723e-05
-7.0397036e-05 -7.0977876e-05 -7.021065e-05 -6.8119494e-05 -6.479224e-05 -6.022437e-05 -5.4805358e-05 -4.87589e-05
-4.2478623e-05 -3.629301e-05 -3.0997056e-05 -2.7150865e-05 -2.5091414e-05 -2.467368e-05 -2.5643978e-05 -2.7422011e-05
-2.9289997e-05 -3.052573e-05 -3.0992913e-05 -3.0801555e-05 -3.027884e-05 -2.9952756e-05 -3.0413532e-05 -3.2009644e-05
-3.4777087e-05 -3.849006e-05 -4.2669788e-05 -4.6607136e-05 -4.9716633e-05 -5.164548e-05 -5.2357715e-05 -5.212944e-05
-5.131859e-05 -5.027684e-05 -4.9258426e-05 -4.833201e-05 -4.746913e-05 -4.6570258e-05 -4.5453722e-05 -4.3929875e-05
-4.1855572e-05 -3.912894e-05 -3.5723995e-05 -3.1585565e-05 -2.664181e-05 -2.1122503e-05 -1.5357535e-05 -9.563615e-06
-3.9700567e-06 1.1401473e-06 5.652154e-06 9.439151e-06 1.2307096e-05 1.4092754e-05 1.4716123e-05 1.42147965e-05
1.27357835e-05 1.066862e-05 8.621537e-06 7.3431083e-06 7.3414813e-06 8.558766e-06 1.0866222e-05 1.3891068e-05
1.7201739e-05 2.0192143e-05 2.2453092e-05 2.3589344e-05 2.3480607e-05 2.1974154e-05 1.9113068e-05 1.48418885e-05
9.141207e-06 1.9448757e-06 -6.462897e-06 -1.5796277e-05 -2.548871e-05 -3.516876e-05 -4.411726e-05 -5.1771804e-05
-5.779011e-05 -6.2249266e-05 -6.535661e-05 -6.7472756e-05 -6.8861606e-05 -6.962469e-05 -6.972292e-05 -6.8951784e-05
-6.6959605e-05 -6.3414795e-05 -5.8318907e-05 -5.1884108e-05 -4.4546196e-05 -3.671408e-05 -2.8888107e-05 -2.1514035e-05
-1.4663815e-05 -8.271488e-06 -2.1506453e-06 3.8766448e-06 9.951908e-06 1.6155589e-05 2.2442722e-05 2.8626639e-05
3.444748e-05 3.9605515e-05 4.3843964e-05 4.6885387e-05 4.8556805e-05 4.872638e-05 4.749647e-05 4.4918757e-05
4.1154584e-05 3.6454243e-05 3.1390206e-05 2.6648631e-05 2.2906484e-05 2.061758e-05 1.9985553e-05 2.0847676e-05
00000000: 3a05 07b7 5bf7 bfb5 10a8 9a36 b52f 2c37
00000010: 8eed 8337 efe1 b137 8e7c e237 fc16 0b38
00000020: bcc5 2538 d6d1 4038 130d 5b38 6925 7338
00000030: f402 8438 dda7 8c38 665a 9338 0909 9838
00000040: d1c0 9a38 d7c2 9b38 a043 9b38 6870 9938
00000050: 8267 9638 8d2b 9238 8ee5 8c38 aba5 8638
00000060: 4eb9 7e38 5cf7 6d38 bece 5a38 3297 4538
00000070: 5695 2f38 660a 1b38 1d91 0938 faf5 f737
00000080: 0ed5 e437 e974 d837 0eae d037 4c1e ca37
00000090: fb19 c237 1cbf b637 093b a737 21f0 9237
000000a0: ecae 7237 4516 3437 8cbd d936 d8e0 1536
000000b0: 4a25 d6b5 ccaa 99b6 62be cdb6 019f c6b6
000000c0: 54e7 81b6 612b 58b4 90ff 9e36 dff2 2f37
000000d0: 61d2 8a37 e585 bb37 992e e537 6fd1 0138
000000e0: 5222 0a38 0129 0c38 6e05 0838 9dfe fc37
000000f0: 81b0 e037 beb6 bc37 1b6f 9337 bb0f 5237
00000100: a2e9 0537 b6c1 9a36 eeaa 3c36 ad39 3c36
00000110: aa7e 9336 2287 eb36 2dac 2837 7a3d 5737
00000120: c1b4 7837 18ec 8337 4163 8237 fb02 7037
00000130: 0eba 4d37 3382 2137 ac51 e136 43a2 7836
00000140: ee65 4035 7686 19b6 8fcc afb6 bf2f 08b7
00000150: 22f1 37b7 ef79 68b7 bc55 8cb7 f1b1 a2b7
00000160: f5b7 b4b7 196c beb7 9c6d bcb7 bb1c aeb7
00000170: 5e7a 94b7 7545 66b7 cf97 1bb7 e57c a0b6
00000180: 8da1 2ab5 ccd1 4236 7c53 c736 2d2f 1237
00000190: e4c6 4037 9387 7237 fb81 9537 13a9 b537
000001a0: 9511 d837 5b7b f837 1fc8 0838 6a06 1038
000001b0: 230c 1238 2e52 0f38 bced 0838 69d7 0038
000001c0: 0174 f237 25ff e837 3433 e737 5acd ed37
000001d0: 1ccc fb37 6d46 0738 5d62 1038 e06a 1638
000001e0: 4815 1738 b558 1038 189b 0038 bd2f cf37
000001f0: 0192 8c37 837e f636 4542 45b6 a7b4 62b7
00000200: 9ab2 c8b7 94fd 0bb8 4daf 2fb8 c6e6 4eb8
00000210: 49b0 69b8 5dc2 7fb8 23d0 88b8 da75 8fb8
00000220: 1fa2 93b8 f5d9 94b8 0e3e 93b8 60db 8eb8
00000230: 12e1 87b8 6d99 7cb8 cede 65b8 7882 4cb8
00000240: 132b 32b8 5339 18b8 d602 02b8 0ac2 e3b7
00000250: 677b d2b7 53fa ceb7 061e d7b7 5208 e6b7
00000260: cab3 f5b7 c108 00b8 63fe 01b8 eb30 01b8
00000270: 50ff fdb7 0e43 fbb7 9020 ffb7 1842 06b8
00000280: 9ddd 11b8 6370 21b8 56f8 32b8 087c 43b8
00000290: d486 50b8 e99d 58b8 ab9a 5bb8 8fa5 5ab8
000002a0: eb3e 57b8 59e0 52b8 d59a 4eb8 1ab8 4ab8
000002b0: 9719 47b8 6f54 43b8 90a5 3eb8 5841 38b8
000002c0: 148e 2fb8 611e 24b8 59d6 15b8 be7a 04b8
000002d0: da7c dfb7 3b30 b1b7 0ed4 80b7 6a73 20b7
000002e0: 8736 85b6 2a07 9935 a2a7 bd36 d85c 1e37
000002f0: 937a 4e37 eb6f 6c37 44e5 7637 167c 6e37
00000300: c6ab 5537 60fd 3237 38a5 1037 d264 f636
00000310: d856 f636 9f97 0f37 114e 3637 af0d 6937
00000320: 744c 9037 4c62 a937 a659 bc37 bbe1 c537
00000330: 38f8 c437 2355 b837 0055 a037 6d01 7937
00000340: 2f5d 1937 b684 0236 dddb d8b6 3f82 84b7
00000350: 97d0 d5b7 2b82 13b8 8c0a 39b8 8d25 59b8
00000360: a863 72b8 d28b 82b8 1010 89b8 2980 8db8
00000370: cb69 90b8 7903 92b8 3538 92b8 359a 90b8
00000380: aa6c 8cb8 8ffd 84b8 739b 74b8 239e 59b8
00000390: 1dd7 3ab8 71fd 19b8 bd54 f2b7 0a79 b4b7
000003a0: 9b04 76b7 c5c5 0ab7 ce53 10b6 2014 8236
000003b0: 1ff7 2637 dd85 8737 6143 bc37 3d23 f037
000003c0: b37b 1038 191e 2638 19e5 3738 cda6 4438
000003d0: 79a9 4b38 8d5f 4c38 f236 4738 2667 3c38
000003e0: 669d 2c38 72e6 1838 faa8 0338 808b df37
000003f0: 4d27 c037 eaf3 ac37 a6a6 a737 0be2 ae37

exp_avg_sq f4 [8, 1, 1, 256]
2.5302592e-08 2.3437163e-08 2.177996e-08 2.0499476e-08 1.9688756e-08 1.934596e-08 1.9404203e-08 1.9758188e-08
2.0332662e-08 2.110921e-08 2.2114326e-08 2.3360187e-08 2.4783267e-08 2.6208376e-08 2.7417324e-08 2.8234723e-08
2.8634295e-08 2.8760388e-08 2.8868351e-08 2.9136011e-08 2.957108e-08 3.0029543e-08 3.0321424e-08 3.0299955e-08
2.9901564e-08 2.9123903e-08 2.7998713e-08 2.6586159e-08 2.4982118e-08 2.3330482e-08 2.1805182e-08 2.0616586e-08
1.997285e-08 2.0001805e-08 2.0674822e-08 2.1752838e-08 2.2868184e-08 2.3717721e-08 2.4180748e-08 2.433515e-08
2.4368925e-08 2.4443718e-08 2.4622363e-08 2.4843816e-08 2.4991785e-08 2.4945011e-08 2.4653733e-08 2.4121885e-08
2.3406084e-08 2.2590505e-08 2.179103e-08 2.1117186e-08 2.0648475e-08 2.0393694e-08 2.0282469e-08 2.0173232e-08
1.9923085e-08 1.9467247e-08 1.8881373e-08 1.8360868e-08 1.8136939e-08 1.8364647e-08 1.9059131e-08 2.0105794e-08
2.1318382e-08 2.2510728e-08 2.3554644e-08 2.4384512e-08 2.499159e-08 2.5398625e-08 2.5641258e-08 2.5737101e-08
2.5699276e-08 2.5542612e-08 2.5301022e-08 2.5004228e-08 2.467861e-08 2.4343565e-08 2.4024644e-08 2.3740839e-08
2.3507752e-08 2.3318105e-08 2.3146338e-08 2.2974637e-08 2.2806349e-08 2.265916e-08 2.2544894e-08 2.2452257e-08
2.2325887e-08 2.2086882e-08 2.1679428e-08 2.1132204e-08 2.0590967e-08 2.0269491e-08 2.0349853e-08 2.0872402e-08
2.1680403e-08 2.249683e-08 2.3033689e-08 2.3139314e-08 2.2825894e-08 2.2205256e-08 2.1395413e-08 2.048365e-08
1.9525128e-08 1.8561813e-08 1.7637102e-08 1.6840229e-08 1.6310429e-08 1.6180673e-08 1.6448018e-08 1.6903659e-08
1.7194301e-08 1.7051399e-08 1.6501284e-08 1.5897314e-08 1.5709237e-08 1.6225346e-08 1.736185e-08 1.874486e-08
1.9915136e-08 2.0543919e-08 2.0500302e-08 1.9881766e-08 1.894465e-08 1.8044343e-08 1.7531303e-08 1.7718534e-08
1.880252e-08 2.0819368e-08 2.3433204e-08 2.6192453e-08 2.8553023e-08 3.0039768e-08 3.04086e-08 2.9701184e-08
2.820544e-08 2.6314687e-08 2.4408951e-08 2.2732046e-08 2.1386212e-08 2.0367972e-08 1.9642052e-08 1.9155328e-08
1.8862654e-08 1.8714417e-08 1.8661908e-08 1.8641543e-08 1.8613676e-08 1.8587004e-08 1.8614404e-08 1.8724927e-08
1.8880154e-08 1.8994967e-08 1.9007247e-08 1.8916678e-08 1.8771912e-08 1.86183e-08 1.8478174e-08 1.8375868e-08
1.8369779e-08 1.8548025e-08 1.8991997e-08 1.9716044e-08 2.0660233e-08 2.1709328e-08 2.270644e-08 2.3481137e-08
2.3882967e-08 2.383352e-08 2.3387651e-08 2.27168e-08 2.2027447e-08 2.1454644e-08 2.105108e-08 2.0785162e-08
2.0591582e-08 2.0398412e-08 2.0159664e-08 1.9833323e-08 1.9386722e-08 1.8810933e-08 1.8133065e-08 1.7425831e-08
1.6815704e-08 1.6464114e-08 1.6482208e-08 1.6868727e-08 1.7502098e-08 1.8204359e-08 1.8844462e-08 1.939153e-08
1.990121e-08 2.0449678e-08 2.1070461e-08 2.175566e-08 2.2476957e-08 2.3201054e-08 2.3866333e-08 2.4388475e-08
2.4657835e-08 2.4581373e-08 2.412471e-08 2.3370449e-08 2.2556126e-08 2.2019481e-08 2.2055437e-08 2.2728011e-08
2.3768276e-08 2.4669529e-08 2.493825e-08 2.437782e-08 2.3181183e-08 2.178712e-08 2.062405e-08 1.9955621e-08
1.9843315e-08 2.0199693e-08 2.0886292e-08 2.1781506e-08 2.2800506e-08 2.3873934e-08 2.4945496e-08 2.5911788e-08
2.6631962e-08 2.69848e-08 2.6936279e-08 2.6545969e-08 2.5900182e-08 2.5034655e-08 2.3960778e-08 2.2732626e-08
2.1476776e-08 2.034251e-08 1.9441682e-08 1.8803961e-08 1.8398238e-08 1.8192594e-08 1.817303e-08 1.835541e-08
1.8763311e-08 1.9418934e-08 2.0362092e-08 2.1635893e-08 2.3258162e-08 2.5177027e-08 2.7280787e-08 2.941943e-08
3.142213e-08 3.311148e-08 3.4319534e-08 3.4883595e-08 3.4677043e-08 3.3675907e-08 3.202064e-08 3.00473e-08
00000000: fd58 d932 de52 c932 a316 bb32 d316 b032
00000010: 0820 a932 372e a632 4bae a632 b7b8 a932
00000020: ffa7 ae32 a553 b532 ebf5 bd32 98a9 c832
00000030: fbe2 d432 d420 e132 5583 eb32 d088 f232
00000040: 7bf7 f532 c30c f732 2dfa f732 c446 fa32
00000050: 7e03 fe32 d5f9 0033 c23a 0233 2723 0233
00000060: 1e6d 0033 242c fa32 d281 f032 955f e432
00000070: 4298 d632 4668 c832 1a4e bb32 5a18 b132
00000080: c390 ab32 6fd0 ab32 6a98 b132 ffda ba32
00000090: ab6f c432 d2bb cb32 07b6 cf32 9009 d132
000000a0: d553 d132 4ef8 d132 2681 d332 2168 d532
000000b0: 84ad d632 a946 d632 22c6 d332 9634 cf32
000000c0: 860e c932 0c0d c232 fb2e bb32 2f65 b532
000000d0: 7a5e b132 352e af32 9f39 ae32 6849 ad32
000000e0: 5423 ab32 ee38 a732 9430 a232 fab7 9d32
000000f0: 8dcb 9b32 49c0 9d32 79b7 a332 1cb5 ac32
00000100: 9e1f b732 9d5d c132 3655 ca32 1c76 d132
00000110: 16ad d632 2b2c da32 b941 dc32 7c14 dd32
00000120: 4ec1 dc32 cc68 db32 8955 d932 e1c8 d632
00000130: d6fc d332 111c d132 c05e ce32 a8ee cb32
00000140: 18ee c932 0e4d c832 56d3 c632 c359 c532
00000150: b1e7 c332 05a4 c232 bfa8 c132 09dd c032
00000160: 25c7 bf32 91b9 bd32 9139 ba32 3586 b532
00000170: 04e0 b032 151d ae32 cdcd ae32 e64a b332
00000180: b63b ba32 0d3f c132 9edb c532 e4c3 c632
00000190: ac12 c432 e0bd be32 03c9 b732 06f4 af32
000001a0: 36b8 a732 dc71 9f32 6680 9732 0ea8 9032
000001b0: 031b 8c32 adfd 8a32 9349 8d32 8a33 9132
000001c0: abb2 9332 6c78 9232 b5be 8d32 908e 8832
000001d0: faf0 8632 ea5f 8b32 1d23 9532 6204 a132
000001e0: d911 ab32 8e78 b032 a418 b032 77c8 aa32
000001f0: babb a232 eeff 9a32 be97 9632 7833 9832
00000200: 2e83 a132 46d6 b232 294a c932 d0fd e032
00000210: c344 f532 1305 0133 9c9a 0233 9821 ff32
00000220: 6b48 f232 9c0a e232 daab d132 4c44 c332
00000230: c7b4 b732 a5f5 ae32 54b9 a832 038b a432
00000240: 6a07 a232 70c1 a032 f84d a032 3021 a032
00000250: e8e3 9f32 41a9 9f32 82e5 9f32 8dd8 a032
00000260: e62d a232 602a a332 6145 a332 377e a232
00000270: df3f a132 13ee 9f32 efb9 9e32 f6d8 9d32
00000280: 92cb 9d32 8a53 9f32 d823 a332 0a5c a932
00000290: 5578 b132 517b ba32 fd0b c332 91b3 c932
000002a0: 3327 cd32 77ba cc32 fde5 c832 c622 c332
000002b0: de36 bd32 434b b832 d1d3 b432 0e8b b232
000002c0: 5ee1 b032 9538 af32 922b ad32 f05d aa32
000002d0: da87 a632 ae95 a132 08c3 9b32 cfaf 9532
000002e0: 2072 9032 f86c 8d32 c294 8d32 b9e6 9032
000002f0: 8557 9632 cf5f 9c32 69df a132 6d92 a632
00000300: 39f3 aa32 51a9 af32 6ffe b432 34e1 ba32
00000310: 5a13 c132 a84b c732 9f02 cd32 d37e d132
00000320: 27cf d332 0327 d332 cc3a cf32 29c0 c832
00000330: 72c1 c132 5a25 bd32 6b74 bd32 6d3b c332
00000340: fe2a cc32 dee8 d332 cb37 d632 6567 d132
00000350: f61f c732 6226 bb32 c428 b132 e06a ab32
00000360: e973 aa32 9883 ad32 7169 b332 0a1a bb32
00000370: d8da c332 5613 cd32 ba47 d632 a094 de32
00000380: 4ec4 e432 34cc e732 8161 e732 3407 e432
00000390: 1a7b de32 ca0b d732 4fd2 cd32 9345 c332
000003a0: ee7b b832 a7bd ae32 b600 a732 5986 a132
000003b0: 270a 9e32 f045 9c32 ea1a 9c32 f9ab 9d32
000003c0: f52c a132 b0ce a632 b7e8 ae32 d5d9 b932
000003d0: 3dc9 c732 de44 d832 1657 ea32 03b6 fc32
000003e0: fff4 0633 7536 0e33 ba66 1333 ebd2 1533
000003f0: d0ef 1433 0da3 1033 1187 0933 5b0d 0133

exp_avg f4 [8]
-1.34262506e-11 1.1376499e-11 1.5946653e-09 -1.3868371e-09 1.3228989e-09 1.7538052e-09 -6.8058226e-10 -1.9410338e-09
00000000: 7532 6cad 3223 482d 4c2b db30 fe9a beb0
00000010: 5ed1 b530 890a f130 b813 3bb0 0763 05b1

exp_avg_sq f4 [8]
5.8032576e-17 2.288142e-16 7.89571e-17 1.1738906e-17 1.6997726e-17 1.1931963e-16 4.486456e-18 1.04201616e-16
00000000: 63d0 8524 04e7 8325 0c10 b624 6b8b 5823
00000010: bfc6 9c23 f090 0925 6185 a522 c745 f024

exp_avg f4 [8]
-7.936547e-11 -1.9433144e-11 -6.076899e-11 -2.8842315e-10 1.7300852e-12 -9.485295e-10 -2.7690407e-11 -1.8225628e-10
00000000: ca86 aeae 8def aaad e6a1 85ae f38f 9eaf
00000010: e37c f32b 6a5d 82b0 4191 f3ad 9564 48af

exp_avg_sq f4 [8]
2.2924546e-18 4.2104064e-18 2.9582076e-18 6.5741327e-19 3.0732192e-19 8.45732e-18 1.5870967e-19 6.098797e-19
00000000: 3e27 2922 2a56 9b22 f646 5a22 be08 4221
00000010: 2d69 b520 9102 1c23 0e5f 3b20 3501 3421

exp_avg f4 [16, 1, 32, 1]
0.00035312795 8.582937e-05 -0.00048398416 2.3293584e-05 -0.00045850873 -0.00072397065 0.00030496315 -2.4448702e-06
9.064766e-05 -0.00027445352 3.3194556e-06 -0.00029321536 -0.00028819314 -0.00013497529 4.771481e-05 0.00013947698
0.0002421397 -0.00017110696 -0.00027557331 0.00018699316 -0.00023318166 -0.00013537575 0.00011301977 0.00015024465
-5.2002637e-05 0.00032020736 0.00038793826 9.521673e-06 0.00015313053 0.00046409026 0.00018827336 0.0004080724
-0.0004223688 0.00089615484 6.290575e-05 -0.0011735281 -0.00029927454 0.0002999455 -0.00036027102 -5.3711872e-05
0.00058707775 -0.0003623395 6.695099e-05 0.00089599966 -0.00019377409 -0.00090951833 0.0007869233 0.0010465689
-0.0014451359 0.0010571394 0.0014107798 -0.0008065805 0.00046328994 0.00069789373 -0.0007396222 -5.8752616e-05
0.0006083022 -0.00028105517 0.00013376407 -0.0008417205 -0.00059542723 0.00085712946 4.7228446e-07 -0.0007034747
-0.0007534441 -0.0029787517 -0.0033716008 -0.0006794865 0.0016348413 -0.0015622696 -0.00199672 0.0011893442
-0.00030378666 -0.0013045986 0.00036570267 0.0013535719 -0.00049899 -0.0019753 0.00076781894 0.0017616091
0.0017523734 0.0023362965 0.000113148584 0.0031070155 0.0016130282 -0.0008237034 0.0012287931 0.0023699566
0.00041449137 -0.002116313 0.0015218012 -0.00019416383 0.0001396155 0.0017603458 0.00060950057 -0.00096193346
-0.0016195843 -0.0017210077 -0.0006887141 -0.0011153292 0.0016181186 -0.00046621394 -0.004648361 0.00022994088
0.0019484368 -0.0010747681 0.0008421444 0.0065437714 0.00165045 -0.0030288068 0.0038909963 0.0041419934
-0.002651867 -0.0003207537 0.00072397717 0.00042865734 0.00319059 -0.0008202711 -0.00073906337 0.0028521363
0.00219883 -0.004215102 -0.0005609022 -0.0016380695 -0.0016202577 0.0027219243 0.00020696703 -0.0058305636
0.0016230474 0.0001685633 -0.0010504237 0.002009282 -0.001890881 -0.0010591956 0.00078690535 -0.000496302
-0.0018786151 0.00025294314 0.003613963 -0.0001273224 -0.0028606215 0.002660476 0.0026161356 -0.002595544
-0.0019238248 -0.0020373298 -0.0026937989 3.6575457e-05 -6.307704e-05 6.110864e-05 0.0020842468 -6.858585e-06
-0.0021007843 0.0023169 0.0009213073 -0.0024086135 0.0031812505 -0.0011780163 -0.004716235 -0.0014915541
0.00086999405 0.0008688835 0.00055044744 -0.0014483677 -0.0011923455 6.556778e-05 0.00078452093 -0.0020356288
2.9658217e-05 0.0020390665 -0.0018675942 -2.0503368e-05 0.0036889305 0.0002671689 -0.0017512265 0.00067085604
0.0009913007 -0.0016429933 -1.5620611e-06 -0.0005366086 -0.00032545565 0.0019770113 -0.00095078605 -0.0004664694
0.0013891243 0.00046926568 -0.0012529391 0.0020880597 -0.0019857767 -0.0017943105 0.0019116352 0.0005120056
0.00013707888 0.00017226906 -2.003485e-05 -0.000111399364 -0.0001326992 0.000395458 0.000105638 -0.00012575701
-0.00013850207 0.00021951314 -0.0001232816 -9.173763e-05 1.6094424e-05 0.00013533646 -2.1151174e-05 -0.00017517075
4.9898455e-05 -0.0002031042 -2.736653e-05 -0.0003149342 -2.3584114e-05 0.00036245686 -0.00011543623 -0.00023112218
0.00011181591 -2.3685163e-05 -8.781645e-05 0.00015970565 0.00010650746 -0.0001778892 -2.8245184e-05 -2.2047641e-05
0.00035882622 0.0004954803 0.0005212578 1.5589101e-05 3.1229152e-05 0.000633895 0.00020624131 0.00013193184
5.0733004e-05 4.2172618e-05 -0.0001592133 -0.0005433044 -0.00022057047 -2.4311141e-06 -5.2492496e-06 1.4551077e-05
0.0005765317 -0.00040973214 4.7681433e-06 -0.00058807 -0.00032640432 0.00011054147 -0.00042455705 -0.00048136787
-0.00012492196 5.977852e-05 -9.942066e-05 8.158443e-05 0.00015300138 -0.000110369 9.053928e-05 0.00032400075
00000000: 0824 b939 4bff b338 41bf fdb9 9766 c337
00000010: 0064 f0b9 d9c8 3dba 76e3 9f39 8d12 24b6
00000020: 181a be38 87e4 8fb9 d0c3 5e36 b3ba 99b9
00000030: a118 97b9 2788 0db9 6321 4838 9140 1239
00000040: e1e6 7d39 2d6b 33b9 d37a 90b9 9813 4439
00000050: 3a82 74b9 a7f3 0db9 0705 ed38 fe8a 1d39
00000060: 681d 5ab8 81e1 a739 3164 cb39 46bf 1f37
00000070: aa91 2039 2451 f339 3f6b 4539 8df2 d539
00000080: 6171 ddb9 efeb 6a3a 44ec 8338 12d1 99ba
00000090: f3e7 9cb9 0142 9d39 c2e2 bcb9 af48 61b8
000000a0: 1fe6 193a 62f8 bdb9 0a68 8c38 85e1 6a3a
000000b0: d62f 4bb9 be6c 6eba 8749 4e3a 062d 893a
000000c0: b76a bdba b68f 8a3a eae9 b83a b370 53ba
000000d0: b9e5 f239 dbf2 363a 35e3 41ba 246d 76b8
000000e0: 7876 1f3a 965a 93b9 0543 0c39 e8a6 5cba
000000f0: 7216 1cba fcb0 603a 488e fd34 6369 38ba
00000100: c782 45ba 2937 43bb 13f6 5cbb 911f 32ba
00000110: 2c48 d63a 12c5 ccba 67db 02bb c5e3 9b3a
00000120: 8e45 9fb9 11ff aaba c8bb bf39 566a b13a
00000130: a7ce 02ba 0974 01bb 7547 493a cbe5 e63a
00000140: e5af e53a 8d1c 193b 2f4a ed38 129f 4b3b
00000150: 3f6c d33a cded 57ba 740f a13a 4651 1b3b
00000160: 1750 d939 d7b1 0abb 2d77 c73a 7598 4bb9
00000170: c065 1239 67bb e63a e4c6 1f3a 432a 7cba
00000180: 3b48 d4ba 7093 e1ba d28a 34ba 3d30 92ba
00000190: 0d17 d43a 2d6e f4b9 4751 98bb 491c 7139
000001a0: b162 ff3a 3cdf 8cba 5bc3 5c3a 226d d63b
000001b0: ea53 d83a f27e 46bb 1600 7f3b 8fb9 873b
000001c0: f2ca 2dbb d52a a8b9 49c9 3d3a 6abd e039
000001d0: 3819 513b 7607 57ba b4bd 41ba e8ea 3a3b
000001e0: 3f1a 103b d71e 8abb 8209 13ba 7eb4 d6ba
000001f0: d45e d4ba 5062 323b 4a05 5939 500e bfbb
00000200: 6fbc d43a 5ec0 3039 5fae 89ba 28ae 033b
00000210: 70d7 f7ba b5d4 8aba 5348 4e3a 431a 02ba
00000220: dd3b f6ba 749d 8439 3dd8 6c3b d981 05b9
00000230: 4479 3bbb 615b 2e3b 7973 2b3b 011a 2abb
00000240: d928 fcba b984 05bb 728a 30bb 9968 1938
00000250: 3a48 84b8 7427 8038 dc97 083b cc22 e6b6
00000260: 50ad 09bb 22d7 173b e383 713a d4d9 1dbb
00000270: 877c 503b ab67 9aba a68a 9abb 4080 c3ba
00000280: 5010 643a c9c5 633a e74b 103a 28d7 bdba
00000290: 7a48 9cba 6f81 8938 4fa8 4d3a 2f68 05bb
000002a0: 89ca f837 dca1 053b 10ca f4ba a6fe abb7
000002b0: fcc1 713b ce12 8c39 6989 e5ba 63dc 2f3a
000002c0: 88ee 813a b559 d7ba 03a8 d1b5 32ab 0cba
000002d0: eba1 aab9 bf90 013b 2c3e 79ba 7790 f4b9
000002e0: 4713 b63a c607 f639 a939 a4ba d4d7 083b
000002f0: ce23 02bb 122f ebba d58f fa3a 1d38 063a
00000300: d5bc 0f39 20a3 3439 8310 a8b7 149f e9b8
00000310: 2c25 0bb9 7955 cf39 f889 dd38 a4dd 03b9
00000320: de3a 11b9 1c2d 6639 2745 01b9 4463 c0b8
00000330: 8302 8737 1be9 0d39 cd6d b1b7 0aae 37b9
00000340: 0f4a 5138 5ef8 54b9 2d91 e5b7 c11d a5b9
00000350: 80d6 c5b7 2308 be39 5b16 f2b8 6359 72b9
00000360: b67e ea38 80af c6b7 192a b8b8 a976 2739
00000370: c25c df38 c587 3ab9 12f0 ecb7 f3f2 b8b7
00000380: d720 bc39 1fe3 013a 05a5 083a 57c5 8237
00000390: 0cfc 0238 f92b 263a 7b42 5839 2f57 0a39
000003a0: 26ca 5438 81e2 3038 7ff2 26b9 8b6c 0eba
000003b0: ef48 67b9 3926 23b6 b622 b0b6 6620 7437
000003c0: 6322 173a 51d1 d6b9 0afe 9f36 b628 1aba
000003d0: 3f21 abb9 80d2 e738 1597 deb9 1a60 fcb9
000003e0: 7cfd 02b9 b2ba 7a38 0f80 d0b8 4f18 ab38
000003f0: ff6e 2039 e875 e7b8 e8df bd38 a5de a939
