model/sub4_20240206_130642/checkpoints/epoch1_0.9766.pt (torch, 195725 bytes, 39 tensors)

net.conv.weight f4 [8, 1, 1, 256]
000000 90 f1 b0 be 15 bc f5 be 1b fe 30 bf 45 78 4c bf
       -0.34559298 -0.47995058 -0.69137734 -0.79871017
000010 2c a4 31 bf 3a 87 39 bf 20 0d 55 bf 65 37 5f bf
       -0.6939113 -0.72471964 -0.8322315 -0.871939
000020 84 ae 89 bf 45 ff 75 bf 36 bd 53 bf 04 2e 2b bf
       -1.0756383 -0.96092635 -0.8271059 -0.6686709
000030 86 4a d7 be ec 72 d3 bd 63 52 2e 3e ca d1 d0 3e
       -0.42049044 -0.10324654 0.17023616 0.40785056
000040 2f 1f b6 3e 37 fe 2b 3e ba 1e c6 bc d3 94 a9 be
       0.35570666 0.16796194 -0.024184573 -0.33121356
000050 2d 7c e0 be 25 90 01 bf 3e 53 d4 be 5f 5a 42 be
       -0.4384474 -0.5061057 -0.4146976 -0.18979786
000060 e0 3f 34 3e 4e 48 c5 3e 36 32 d6 3e f2 a9 e0 3e
       0.17602491 0.38531727 0.41835183 0.43879658
000070 a3 46 d7 3e 12 75 2f 3e 7c 8c 37 3e a3 6a 3c 3e
       0.4204608 0.17134503 0.17924684 0.18400054
000080 d8 3e b2 3e 63 8a 36 3f f8 3a 91 3f 34 83 a0 3f
       0.3481357 0.7130491 1.1346121 1.254004
000090 3e 38 b0 3f d6 83 a6 3f 4f ac 94 3f 2f 24 3e 3f
       1.3767164 1.3008983 1.1615084 0.7427396
0000a0 80 4f af 3e 20 4b 24 bc e2 88 70 be ff e0 a2 be
       0.3424034 -0.010027677 -0.23489717 -0.31812283
0000b0 9e 5b ac be e0 da 56 be 12 81 a7 be 5a ec a6 be
       -0.33663648 -0.20981932 -0.3271566 -0.32602197
0000c0 48 74 f2 be 40 01 29 bf 92 5d 33 bf 75 bf 3a bf
       -0.4735434 -0.6601753 -0.7006465 -0.7294839
0000d0 38 02 4c bf 98 ff 17 bf 88 39 e9 be b9 66 76 be
       -0.79690886 -0.5937438 -0.45551705 -0.24062623
0000e0 ae 65 58 be 7c 32 90 be e6 e9 cb be b6 76 05 bf
       -0.21132538 -0.28163517 -0.39826888 -0.52134264
0000f0 39 26 46 bf 67 0b 81 bf df 58 8d bf b6 cd 85 bf
       -0.77402073 -1.0081605 -1.1042746 -1.0453403
000100 95 a4 68 bf 58 2d 30 bf c4 15 17 bf ff 6f e5 be
       -0.9087613 -0.6881919 -0.59017587 -0.4481201
000110 52 5b bd be 8f f1 83 be 43 a8 07 bd 84 82 84 3d
       -0.36983734 -0.25770232 -0.03311945 0.064702064
000120 92 3b 56 3e 34 be 9b 3e 3f f1 fa 3e 05 7e 2b 3f
       0.20921162 0.3041855 0.4901218 0.66989166
000130 b2 1c 30 3f ed 19 22 3f 35 ef 0d 3f af 0c 10 3f
       0.68793786 0.6332081 0.55443126 0.56269354
000140 55 d9 df 3e f4 f1 c5 3e fc d3 97 3e 78 60 f9 3e
       0.437205 0.38661158 0.2965392 0.48706412
000150 71 2c 13 3f da 06 24 3f 45 e6 2d 3f 2f b0 26 3f
       0.5748969 0.64072955 0.6792949 0.65112585
000160 d9 65 02 3f c9 c8 8e 3e 8f 51 c9 3d 8e 59 11 be
       0.5093666 0.27887562 0.09830009 -0.14194319
000170 6e 05 81 be e6 42 0c be 32 48 40 3d ab 53 af 3e
       -0.25199455 -0.13697395 0.04694385 0.3424352
000180 bd 29 f2 3e f3 88 0e 3f f7 cd c3 3e 0f 0b 08 3e
       0.4729747 0.5567772 0.38243076 0.13285469
000190 7e 9a 56 be 4c 3b ff be 3a b5 37 bf 82 e8 3f bf
       -0.20957372 -0.49849927 -0.71760905 -0.74964154
0001a0 c9 27 3c bf 18 70 1c bf de b4 cd be 2d a8 d1 be
       -0.7349821 -0.6110854 -0.40177053 -0.4094862
0001b0 12 6d f7 be 45 de 45 bf 34 db 86 bf 7d e1 bc bf
       -0.48325402 -0.7729228 -1.0535645 -1.4756314
0001c0 e5 af d1 bf 1c 47 dc bf c0 1e be bf 7c 00 81 bf
       -1.6381804 -1.7209201 -1.4853134 -1.0078273
0001d0 83 bd fa be c1 4d 38 bb c3 bc 65 3e c7 a5 c4 3e
       -0.4897271 -0.0028122517 0.22435288 0.38407728
0001e0 dd 9f ac 3e 3d 10 ac 3e 87 17 12 3e 79 c1 35 3e
       0.33715716 0.3360614 0.14266787 0.17749585
0001f0 6d 58 62 3e 3b 22 d8 3e 16 30 0c 3f 3a 95 14 3f
       0.22104044 0.42213616 0.54760873 0.580402
000200 82 76 15 3f 7c 68 ca 3e 5f cc 82 3e 06 10 d2 3d
       0.58383954 0.3953284 0.25546548 0.102569625
000210 ed de 87 bd 04 d8 c1 bb b0 f1 cb bc 26 ac 19 3e
       -0.066343166 -0.0059156436 -0.024895519 0.15007076
000220 96 84 bd 3e 87 a0 13 3f 2f be 36 3f ce e7 4e 3f
       0.37015218 0.5766682 0.7138395 0.80822456
000230 f7 fd 2b 3f f8 a0 11 3f fe 34 ab 3e 15 1c 48 3e
       0.67184395 0.56886244 0.33438867 0.19541962
000240 79 b0 65 3e 45 c0 c1 3e 89 e9 de 3e 4f 58 f1 3e
       0.224306 0.37842003 0.43537548 0.47137687
000250 36 eb dc 3e 88 06 c5 3e 8e cc bf 3d c5 75 cb be
       0.43148202 0.38481545 0.093651876 -0.3973829
000260 f5 57 3c bf 43 00 73 bf c7 0b 7e bf e6 2f 74 bf
       -0.7357171 -0.94922274 -0.9923672 -0.9538559
000270 69 60 48 bf 93 38 08 bf 5a 7d de be 6c 4a de be
       -0.7827211 -0.53211325 -0.4345501 -0.43416154
000280 29 eb 2d bf 0d 01 5a bf 0f 6e 95 bf ee 8f 9e bf
       -0.6793695 -0.85157853 -1.1674212 -1.2387674
000290 25 57 8c bf 57 82 59 bf 27 b2 12 bf eb d6 a8 be
       -1.0964094 -0.8496451 -0.5730309 -0.3297647
0002a0 ce 26 14 be c8 b7 eb 3c a7 fa ef bd 9f 03 17 be
       -0.14467928 0.028774157 -0.1171773 -0.14747475
0002b0 46 cc 9c be 8d 9e d1 be 72 d8 b3 be 81 25 9a be
       -0.30624598 -0.40941277 -0.35126072 -0.30106738
0002c0 9c 23 67 bd 12 e5 6f 3e b8 b3 d3 3e 48 14 0c 3f
       -0.056430444 0.23427227 0.41348052 0.54718447
0002d0 4e d8 00 3f 76 16 f6 3e 90 94 dc 3e f9 b0 b4 3e
       0.50330055 0.4806401 0.43082094 0.3529127
0002e0 ff a1 95 3e ab 37 e0 3e 10 cc 31 3f 03 e8 8d 3f
       0.29225156 0.4379247 0.69452 1.1086429
0002f0 c9 22 a7 3f 13 b0 a9 3f e2 88 ad 3f ad 85 96 3f
       1.305749 1.3256859 1.3557398 1.1759545
000300 4a e1 4f 3f 33 02 05 3f b1 b6 45 3e db ac 2c 3e
       0.8120314 0.5195648 0.19307972 0.16862814
000310 c9 10 df 3d ed df 5f 3e 7b 72 fc 3d eb 58 16 3e
       0.108918734 0.21862765 0.12326523 0.14682357
000320 eb 3b 4e bd de d0 a3 be e2 80 33 bf 3b 03 63 bf
       -0.05035011 -0.3199529 -0.70118535 -0.88676804
000330 ae a3 7c bf 1e 31 62 bf 48 ca 17 bf 38 ef 99 be
       -0.98687255 -0.88356197 -0.5929303 -0.30065322
000340 e2 d2 bc 3d 80 f0 c7 3e d5 6b c4 3e cd bd 39 3e
       0.0921991 0.39050674 0.3836352 0.1813881
000350 e1 f3 28 be f1 d7 10 bf db 94 63 bf ed 39 92 bf
       -0.16499282 -0.565795 -0.8889901 -1.1423928
000360 6e 64 98 bf c8 5b 88 bf e4 8c 38 bf f8 73 ab be
       -1.1905649 -1.065301 -0.7208998 -0.33486915
000370 db a6 8f be 1e df 5e be 1a 64 01 bf 9c 7d 53 bf
       -0.28056988 -0.217648 -0.5054337 -0.8261354
000380 02 4d 66 bf 08 45 2e bf 54 c0 db be 31 7d a2 bd
       -0.89961255 -0.68074083 -0.42920172 -0.079340346
000390 18 db da 3e 34 bf 6b 3f dd 16 96 3f 86 f9 8f 3f
       0.4274528 0.9208863 1.1725727 1.1248024
0003a0 86 06 83 3f b9 08 2f 3f 50 be 58 3e 61 b9 92 3c
       1.0236366 0.68372685 0.21166348 0.017910661
0003b0 62 33 e8 3c 28 f9 99 3e c8 1c 45 3f a5 b9 88 3f
       0.028344814 0.30072904 0.7699704 1.0681654
0003c0 b3 31 a2 3f 8c 4c 99 3f 07 b9 74 3f de a6 26 3f
       1.2671417 1.1976485 0.9559483 0.6509837
0003d0 62 44 6b 3e bc 5d 81 3d e9 e4 c0 bd b2 5e 5f bd
       0.22975305 0.063167065 -0.09418661 -0.054533668
0003e0 72 97 b7 bd ee 1c cf 3b cb a2 da bc fd b0 13 be
       -0.08964433 0.0063205874 -0.026688954 -0.14422984
0003f0 9f ee fb be 89 8d 80 bf 21 41 be bf be bb e4 bf
       -0.4920549 -1.0043193 -1.4863626 -1.7869794

net.bn1.weight f4 [8]
000000 67 c6 cf 3f 8b 71 f1 3f 65 41 07 40 a9 35 b8 3f
       1.6232423 1.8862776 2.1133664 1.4391376
000010 9c fc 87 3f 05 00 01 40 05 da 91 3f 77 88 57 3f
       1.0623965 2.0156262 1.1394659 0.84192604

net.bn1.bias f4 [8]
000000 ba c8 78 bd f9 17 93 bd 54 4a 65 be 42 1e 8a bd
       -0.060738303 -0.07182307 -0.22391635 -0.067440525
000010 71 49 ff bd 8a 17 93 3e b4 67 80 bd 50 58 01 3e
       -0.1246518 0.28728896 -0.0626978 0.12631345

net.bn1.running_mean f4 [8]
000000 50 b4 3e ba 43 4f c4 38 85 83 c2 ba fa a0 38 ba
       -0.00072747935 9.360772e-05 -0.0014840221 -0.00070430303
000010 d3 f3 38 b9 7e 6f c3 37 f4 b2 bf b8 89 c4 9d b9
       -0.00017638439 2.3297729e-05 -9.140922e-05 -0.00030091804

net.bn1.running_var f4 [8]
000000 b4 f5 8c 44 29 21 a0 44 5e e8 a9 44 65 26 bd 43
       1127.6782 1281.0363 1359.2615 378.29996
000010 02 ff 0c 44 14 74 9b 44 95 e0 1f 43 96 92 e0 43
       563.9845 1243.6274 159.87727 449.1452

net.depth_conv.weight f4 [16, 1, 32, 1]
000000 c8 7e 49 be 9b c2 6d 3e 76 90 2d 3f 34 54 0a 3e
       -0.1967727 0.23218767 0.67798555 0.13508683
000010 c9 f7 51 3f a0 9f 34 bf 66 02 24 3f 43 e5 20 3f
       0.82018715 -0.7055607 0.6406616 0.62849826
000020 49 35 99 bf 15 73 04 3f e5 96 aa bf 25 60 db be
       -1.1969386 0.517381 -1.3327299 -0.4284679
000030 1b 62 28 bf a7 a7 c4 3d 24 37 9f 3e 6b 2e 1b 3f
       -0.657747 0.0960229 0.31096756 0.60617703
000040 42 7c 32 3e b6 86 88 3e 37 ed be 3f f4 72 73 3f
       0.17430213 0.26665276 1.4916142 0.9509728
000050 ae 3f 14 be 38 66 67 3e 39 56 b1 3e d1 f1 b8 bf
       -0.14477417 0.22597587 0.34636095 -1.4448797
000060 a4 99 b9 bf ef 87 a3 3f 65 62 8d be d3 cb bd bf
       -1.4500012 1.2775859 -0.27614132 -1.4827827
000070 ba 01 82 be 60 8a 13 bf ba 81 29 3f 28 74 b2 3e
       -0.25391942 -0.5763302 0.6621357 0.34854245
000080 14 1b 28 be 68 0e 25 3f ef 67 3f 3f 6d d1 8e 3e
       -0.1641658 0.6447511 0.74767965 0.27894154
000090 66 d1 bc 3f 5c 8d 55 3e d3 06 fd be 8c 45 0e be
       1.4751403 0.20854706 -0.4941927 -0.13893718
0000a0 1c 85 fe bf 2d ed 55 3f ac 9c 01 bf ff d5 59 be
       -1.9884372 0.83565027 -0.5062969 -0.2127304
0000b0 3d 88 c8 bf 79 f9 29 bf 52 d7 d1 3c 69 68 0c 3f
       -1.5666577 -0.6639629 0.025615368 0.5484682
0000c0 20 6a 02 3e 0d f5 bc 3e 28 44 41 3f bf 85 a2 3f
       0.12735796 0.3690571 0.75494623 1.2697066
0000d0 f6 0f 0c 3f d6 df d3 3f 19 38 1a 3f f2 37 92 bf
       0.54711854 1.6552684 0.6024185 -1.1423323
0000e0 ab fe cb bf 5d 89 05 3f ad 06 1a 3e d6 73 fe be
       -1.5937093 0.52162725 0.15041609 -0.4969775
0000f0 fd 2c 8d bf 85 10 34 bf 0e f2 4d 3f 83 96 55 3e
       -1.1029354 -0.70337707 0.8044747 0.20858197
000100 17 d8 af 3e 90 bd 83 3f 73 6a ee 3e 2e 7f 04 bf
       0.3434455 1.0292225 0.4656559 -0.5175656
000110 7f 8b e3 3e 27 8b 62 be 60 e0 91 3e b9 ae 96 be
       0.44442365 -0.22123395 0.28491497 -0.29430178
000120 90 06 9e be 27 f4 2a c0 8b 90 94 3d 49 4d fc 3e
       -0.30864382 -2.6711519 0.07254132 0.49277714
000130 32 2b c8 3e 3e b2 a2 3f fa d2 90 be d7 a0 8a 3e
       0.39095455 1.2710645 -0.28285962 0.27075836
000140 7d fa 14 3e 8c 82 28 3d ce 08 af 3e ad ab 18 3f
       0.14548679 0.041140124 0.34186405 0.59636956
000150 86 35 84 3f bd 1e a6 be 0d f0 fb 3d 33 97 3b 3d
       1.0328834 -0.32445326 0.123016454 0.04579849
000160 78 42 8a bf 8b f0 8c be b5 0d 89 bf 18 ba be be
       -1.0801535 -0.2752727 -1.0707308 -0.37251353
000170 4c e8 87 bd 3b 83 3e be 3b ec f1 3e e2 b7 a7 3e
       -0.06636104 -0.18604748 0.47250542 0.3275748
000180 15 75 a6 be d9 0e 3c bf ba 50 40 bf a7 5f 4e bf
       -0.32511202 -0.73460156 -0.7512318 -0.80614704
000190 90 b7 7f bf dc 87 0b 3f c1 14 fe 3e 6e b9 c5 3f
       -0.9988947 0.5450418 0.4962521 1.5447214
0001a0 e6 66 2d bf 1f 7e 05 40 e2 4d 02 bf ad db 5c 3e
       -0.67735136 2.0858228 -0.5090009 0.21568175
0001b0 f9 f0 8b bd b2 71 b4 be cc 33 6a bc e5 d6 70 be
       -0.06833071 -0.35242993 -0.014294576 -0.23519476
0001c0 cf 4f a4 3d 72 06 27 bf db 47 34 bd e3 9c aa be
       0.08023035 -0.6524421 -0.04401384 -0.3332282
0001d0 cc 8f 3a bf 88 ff a3 be a5 82 ff be d5 c1 34 3f
       -0.72875667 -0.32030892 -0.4990436 0.70608264
0001e0 e6 e9 7e 3e 8f 63 f8 be 3c fa f2 3f d7 14 c7 3e
       0.24893913 -0.48513457 1.8982615 0.38883087
0001f0 7c 21 3a bf 28 7c 46 3f 4a 27 24 bf c2 54 13 3e
       -0.72707343 0.775332 -0.6412245 0.14387801
000200 18 e1 36 be ed da 94 bf 8e ee 0b bf 08 6f 02 bf
       -0.17859304 -1.1629311 -0.5466088 -0.5095067
000210 55 d3 83 be 8f 3a fc 3e 86 86 9b bd 8e e7 a6 3f
       -0.2574717 0.49263427 -0.07594018 1.3039415
000220 a9 1a 42 3e 7c 6a 3d 40 bf 20 69 bd 5f 14 d3 bd
       0.18955483 2.9596243 -0.056915995 -0.1030662
000230 31 63 32 bf 94 fc be bf 35 52 a4 3e e3 6e 22 3d
       -0.69682604 -1.4920831 0.3209397 0.03965653
000240 5a ec 75 be de 1a 82 be 4a 26 32 bf 5e 02 bc be
       -0.24015942 -0.25411123 -0.69589674 -0.36720556
000250 7e 14 68 bf ab 5b 29 3f cb dc 59 3d d7 1e c9 3e
       -0.9065627 0.661555 0.05318908 0.3928134
000260 fe 05 e9 3e e8 19 f8 3e 4e 85 83 3f 74 fc 8a 3f
       0.45512384 0.48457265 1.0275056 1.0858293
000270 17 35 c6 be 7b eb e1 bd 19 44 24 bf 66 d6 9b 3e
       -0.3871238 -0.110312425 -0.6416641 0.3043701
000280 f1 5a 0a 3e 83 91 92 3e f4 ad fc be 75 8a 76 bf
       0.13511254 0.28626642 -0.49351466 -0.9630502
000290 de bf a6 bf 02 e8 c2 3e 9f 6f 1b 3f 6d 0e bb 3f
       -1.3027303 0.38067633 0.60717195 1.4613777
0002a0 29 68 9c bf 68 73 2e 3e bf 53 0d bf be 0c 0a 3f
       -1.2219287 0.17036211 -0.5520591 0.53925693
0002b0 d5 f5 22 3f 52 44 8c 3f 03 01 90 be a4 bb 91 be
       0.6365636 1.095835 -0.28125772 -0.2846347
0002c0 b8 d8 b6 3d 49 7a 02 bf 47 9b 0b 3f 8d fc 8e 3d
       0.089280546 -0.5096784 0.5453381 0.06981764
0002d0 ab 8f e1 ba 4f b8 4e bf f4 19 b2 be d4 66 20 3f
       -0.0017208954 -0.8074998 -0.34785426 0.62656903
0002e0 45 e0 11 bf 48 fc 74 bf cb 4c bf 3f 13 1f 74 3d
       -0.56982833 -0.9569745 1.494531 0.059599947
0002f0 00 de 8b bf 2d 17 ba 3f 93 8f 73 be d0 ea 08 3e
       -1.0927124 1.4538323 -0.23785238 0.13370824
000300 c7 20 dd 3e a7 b4 45 be b5 e3 17 3e 0a ab 8e bd
       0.4318907 -0.19307195 0.14832957 -0.06966217
000310 b6 fb 4b 3f 25 e8 54 be 9d c2 a1 bf d3 a8 15 3e
       0.79680955 -0.20791681 -1.2637516 0.14615183
000320 92 0d 68 3e 16 1a b1 be 40 f3 43 bf 18 9b 31 be
       0.22661427 -0.34590214 -0.76543045 -0.1734432
000330 b6 95 1d 3f f7 04 92 be 02 e0 da be cf b2 08 3f
       0.61556566 -0.28519413 -0.4274903 0.5339784
000340 e8 c4 b3 be a9 4b eb 3d a3 ce 2e bf ef c7 69 bf
       -0.35111165 0.114890404 -0.6828405 -0.913207
000350 0b 53 73 3d 6a 6e 0b be e6 3e c9 bd bd 45 41 3f
       0.059405368 -0.13616338 -0.0982645 0.7549704
000360 ca 18 09 40 e1 bc e5 bf 6a 2b 05 40 26 6f b5 3f
       2.142138 -1.7948266 2.0807748 1.4174545
000370 ee 0b 0a bf 99 9e 8a bf f2 f6 c6 3e 40 96 ef 3d
       -0.53924453 -1.082965 0.3886028 0.1169858
000380 8b e1 c8 3d ce 89 ab be d5 fb 5d 3e 19 8f 36 bf
       0.09808644 -0.33503574 0.21678098 -0.713121
000390 6c 0c 8d 3f cb 3d f6 3c 94 8f 02 bf ec 12 14 3f
       1.1019416 0.030058762 -0.5100033 0.5784137
0003a0 05 48 bb 3e 9e ea 73 be dd 61 f4 bf 33 48 67 3d
       0.36578384 -0.23819968 -1.9092366 0.05646534
0003b0 b5 f9 16 3d bd 30 d7 3c aa c0 7f bd 77 86 87 3f
       0.036859233 0.026268357 -0.0624396 1.058791
0003c0 44 78 07 3f 12 7f 81 3c 3b 34 44 be 3e 19 29 bf
       0.52917886 0.015807662 -0.1916055 -0.6605414
0003d0 bf 43 9b be 11 7a 68 bf 1a 64 7a 3e 40 13 96 3e
       -0.30325124 -0.9081126 0.24452248 0.29311562
0003e0 49 7a fc 3f 23 85 ae bf c3 e0 f9 3f 65 a7 b7 3f
       1.9724818 -1.363438 1.9521717 1.434796
0003f0 0c 46 02 bf 19 8e a2 bf 33 d1 7f 3e 84 a7 f4 bd
       -0.50888133 -1.2699615 0.24982147 -0.119460136

net.bn2.weight f4 [16]
000000 70 1f ea 3f 60 f1 e3 3f 7b 8b 10 40 2d c4 0e 40
       1.8290844 1.7808037 2.2585132 2.2307236
000010 56 57 18 40 e5 9b 17 40 5a dd d5 3f ad 28 d8 3f
       2.3803306 2.36889 1.6708176 1.6887413
000020 ef 2e 84 3f 36 a9 c8 3f cb 6a 0f 40 4f 73 16 40
       1.0326823 1.5676639 2.2408931 2.3507879
000030 ac e1 d4 3f 9a 13 d4 3f af 2a ba 3f 52 b7 c3 3f
       1.663137 1.6568482 1.4544276 1.529032

net.bn2.bias f4 [16]
000000 e2 92 bd be 8a dc ca be c7 11 1b bf 76 45 1b bf
       -0.37026125 -0.39621383 -0.60574 -0.60652864
000010 b8 ea 2b bf 96 02 1f bf 8b 62 cc be d7 a0 e5 be
       -0.6715503 -0.6211332 -0.39918932 -0.44849274
000020 29 d3 57 be 70 a1 e1 be e4 67 0f bf e9 17 27 bf
       -0.21076645 -0.4406848 -0.560179 -0.6527086
000030 de ea dd be f6 5a db be 0e 1e bd be 19 22 ed be
       -0.43343252 -0.42842835 -0.36936992 -0.46315077

net.bn2.running_mean f4 [16]
000000 5a 34 7a bc 41 14 76 bd e3 84 21 bd 6d 29 6a 3d
       -0.015271271 -0.06007791 -0.03943337 0.057168413
000010 66 20 7a be 1d 02 19 bd e9 12 26 bd 5e 62 9f bd
       -0.24426422 -0.03735553 -0.040545378 -0.07782434
000020 96 16 c0 bd 6d 17 a0 3d dd a9 9b be 58 f8 10 3f
       -0.09379308 0.07816968 -0.30403033 0.5662894
000030 64 cd 2b 3c 20 f4 19 3c 19 47 c8 bd 0d bf 0c 3e
       0.010485981 0.009396583 -0.09779186 0.13744755

net.bn2.running_var f4 [16]
000000 58 b1 25 42 2d 78 b6 41 8d 54 cc 41 d7 b2 82 41
       41.423187 22.80868 25.541285 16.337324
000010 98 7f 03 42 e1 05 16 42 48 99 54 42 c7 0b 2b 42
       32.874603 37.50574 53.14969 42.7615
000020 ab 67 c0 41 ed 2e dc 41 08 7d 01 42 a5 cd 9d 41
       24.05062 27.522913 32.3721 19.725412
000030 84 18 ad 42 2b 09 bd 42 07 f3 f3 40 c6 93 67 41
       86.54788 94.51791 7.6234164 14.4735775

net.point_conv.weight f4 [16, 16, 1, 16]
000000 86 bc b5 3e 8c da f9 3e 26 35 36 3f bb 8d 0f 3f
       0.35495394 0.4879955 0.7117485 0.5607564
000010 58 31 0d 3f 34 b0 ce 3e 2d da 85 3e 4a ff 27 3e
       0.5515342 0.40368807 0.26143017 0.16405979
000020 66 fa 34 bd 4e ce 10 3d 29 54 b7 bd 56 40 e8 3c
       -0.04418411 0.035352997 -0.08951599 0.02835099
000030 c7 68 13 3e d4 10 9d 3e ac da f8 3e 66 d4 20 3f
       0.14395438 0.306769 0.48604333 0.62824094
000040 80 42 ae 3d 8b db 68 3e d4 0d 04 3f 7d 7c 2a 3f
       0.085087776 0.22739999 0.515836 0.66596204
000050 dc 88 4f 3f 87 0c 7e 3f 5a 40 84 3f a8 43 8c 3f
       0.81068206 0.99237865 1.0332139 1.0958147
000060 75 36 63 3f a8 7f 3e 3f 9f fa d8 3e 7f 35 63 3e
       0.8875497 0.7441354 0.4237871 0.22188376
000070 bd d9 fd 3d f5 3c fe 3d 64 4e 60 3e cb ac eb 3e
       0.12395046 0.124139704 0.21904904 0.46030268
000080 fd fc a9 3d 1e c2 18 3e 48 81 05 3e 52 8c 22 3e
       0.08300207 0.149178 0.13037598 0.1587384
000090 92 93 dd 3d 0e f3 54 3e 09 b5 59 3e ab 90 96 3e
       0.108191624 0.20795843 0.21260466 0.29407248
0000a0 78 9e dd 3e 4d df e9 3e 5b b9 15 3f b0 26 23 3f
       0.43284965 0.45678177 0.58485955 0.6373091
0000b0 5b 2b 11 3f e7 20 08 3f 04 3f c9 3e 82 c7 ca 3e
       0.5670678 0.53175205 0.3930589 0.39605337
0000c0 ac 8e 4b be d8 94 34 be c5 ad 65 bd 3e b5 ba 3c
       -0.19878644 -0.17634904 -0.056073923 0.022791501
0000d0 37 22 b3 bc d9 48 69 bc 1f 9b 40 bd e0 c5 b7 bc
       -0.0218669 -0.01423856 -0.047022935 -0.022433221
0000e0 83 d5 db bd 26 0f 35 3d a0 70 34 bd bb 84 a5 3c
       -0.107340835 0.0442039 -0.04405272 0.020204892
0000f0 5a 4b 82 3c 84 b9 b3 3d 4f 44 29 3e 7a 12 08 3e
       0.015905071 0.08775619 0.16529964 0.13288298
000100 a6 6a 9a bc 8c c5 82 3d 2b e2 8e 3d c4 be 1a 3e
       -0.018849682 0.06385335 0.06976732 0.15111834
000110 cb 7d 84 3e 1d e6 17 3e b1 4a 65 3e 4c d1 70 3e
       0.25877222 0.14833875 0.22391774 0.2351734
000120 79 fd 0a 3e 26 2d 24 3d f6 0a 37 bc 9d 72 88 3d
       0.13573255 0.04008212 -0.011172047 0.06662486
000130 ec 5c 68 bd c6 08 42 3d 19 eb d7 3d 59 13 94 3d
       -0.056729242 0.04737165 0.10542888 0.07230253
000140 ef 6a e8 be 24 63 b3 be 8c 08 8f be ec 98 c0 bd
       -0.45394084 -0.35036576 -0.27936208 -0.094041675
000150 f9 8e 4f 3e f3 91 26 3e 36 a6 84 3e 25 8f 32 3e
       0.20269383 0.16266613 0.2590806 0.17437418
000160 03 b2 95 bd c2 54 18 be 50 3e bf be 9e 04 fb be
       -0.07309344 -0.14876083 -0.37352228 -0.4902696
000170 3b 0e 20 bf 2a 49 38 bf b6 85 1f bf b3 d7 c7 be
       -0.62521714 -0.7198664 -0.623134 -0.39031753
000180 fa 0d 90 3f 55 bc 79 3f e8 58 50 3f 03 d0 35 3f
       1.1254265 0.97552997 0.8138566 0.71020526
000190 61 fa 34 3f 5b 33 36 3f 0b b3 28 3f bb 52 18 3f
       0.7069455 0.7117211 0.658982 0.59501237
0001a0 5b 05 28 3f fc 0d 48 3f 44 96 5d 3f c6 e3 59 3f
       0.6563317 0.7814634 0.8655741 0.8511318
0001b0 5b 3c 27 3f 0b 5c e0 3e e1 9b c0 3e 11 d7 88 3e
       0.6532647 0.43820223 0.37618926 0.26726583
0001c0 63 90 8a 3f 33 3d 7f 3f 0c 80 60 3f 2d c0 6a 3f
       1.0825313 0.9970276 0.87695384 0.91699487
0001d0 10 81 89 3f a4 20 88 3f b3 a2 82 3f db 65 4b 3f
       1.0742512 1.0634961 1.0205902 0.79452294
0001e0 0e f5 31 3f a5 d6 56 3f dc e1 70 3f 8a d7 5e 3f
       0.6951455 0.8392127 0.94094634 0.87047637
0001f0 ed 07 53 3f 4f f5 32 3f 36 bb 35 3f 2f c8 19 3f
       0.8243397 0.6990556 0.70988786 0.6007108
000200 66 b2 39 3e 46 33 9c 3e fe d3 d8 3e 08 b6 f3 3e
       0.1813446 0.3050787 0.42349237 0.47599816
000210 d7 80 06 3f ef f2 02 3f 45 18 1a 3f e8 47 08 3f
       0.52540344 0.5115194 0.6019328 0.5323472
000220 49 42 0a 3f 7e a6 04 3f 97 e3 8f 3e 6e 95 1d 3e
       0.54007393 0.51816547 0.28103325 0.15389034
000230 8d 2e e0 bd 3f 57 46 be fd 6c 9d be d7 34 a3 be
       -0.10946379 -0.19369219 -0.30747214 -0.3187625
000240 8d e3 cc 3e 27 9f e5 3e 22 3b ce 3e b5 7d bb 3e
       0.40017357 0.44847986 0.4027949 0.36619344
000250 e1 a1 b1 3e a8 d0 8d 3e 86 2b 0d 3e e7 ac 20 3d
       0.34693816 0.27698255 0.13786134 0.039227393
000260 cd f2 f3 3c be 90 0f 3d cb 97 d1 3d 2a 5d 2e 3e
       0.029778862 0.035050146 0.1023403 0.17027727
000270 93 48 ac 3e 69 14 b3 3e 45 78 db 3e e5 54 e7 3e
       0.3364912 0.3497651 0.42865196 0.45181957
000280 98 94 01 bf 98 32 90 be 0d 2c 22 be fb 4d 0a bd
       -0.5061736 -0.281636 -0.15837117 -0.033765774
000290 cd 2a 6d 3d b0 dc 2b 3c f9 0f 9b 3d f4 cd 35 3c
       0.057902146 0.010489628 0.07571406 0.011096466
0002a0 22 b2 0a be 36 b0 c6 be 34 19 ff be 26 99 02 bf
       -0.13544515 -0.38806313 -0.49823916 -0.51014936
0002b0 a1 f5 d8 be 8d 30 db be a1 45 cc be 64 20 c1 be
       -0.423749 -0.4281048 -0.39896873 -0.37720025
0002c0 2c 6f 20 3e d6 d0 ea 3d f0 f8 6d 3e fc 8c 67 3e
       0.15667409 0.114656135 0.23239493 0.22612375
0002d0 05 2a 80 3e d2 78 35 3e ee af 33 3e 83 dc 1f 3e
       0.25032058 0.1772187 0.1754758 0.15611462
0002e0 fd 37 6b 3d 47 98 61 3d 5f 2b 9f bd 64 ef f7 bc
       0.05742644 0.055076864 -0.07771944 -0.030265518
0002f0 b2 17 3d bd 69 be 9d bc 54 d2 ba bd e2 f0 34 bd
       -0.046165176 -0.019255834 -0.09122148 -0.044175036
000300 2e 23 62 3f bb 38 66 3f 0c cd 60 3f 1d 1f 78 3f
       0.8833493 0.89930314 0.87812877 0.96922475
000310 b2 38 88 3f 59 7b 67 3f 4f f3 5d 3f 16 4c 69 3f
       1.0642302 0.9042259 0.86699384 0.9113172
000320 db 16 53 3f 01 30 37 3f 1b 79 46 3f 03 61 27 3f
       0.8245675 0.71557623 0.7752854 0.65382403
000330 67 48 07 3f e0 51 1e 3f 64 70 2f 3f 97 94 39 3f
       0.5284485 0.6184368 0.6853087 0.72492355
000340 ca a9 3d 3f ee 50 22 3f c4 c2 12 3f a9 43 cd 3e
       0.740872 0.6340474 0.5732844 0.40090683
000350 7d 80 df 3e b0 1e e4 3e 4a e2 81 3e 91 63 b0 3e
       0.43652716 0.44554663 0.25367957 0.34450963
000360 b6 29 90 3e 17 9b 6d 3e 2f bd 60 3e cb 78 b8 3e
       0.28156823 0.23203693 0.21947168 0.36029658
000370 ad a2 a7 3e 28 71 aa 3e b0 44 8c 3e 80 ec fd 3e
       0.327413 0.33289456 0.27396154 0.49594498
000380 6b 8b ac 3e af 6d 04 3f 63 28 28 3f 82 44 52 3f
       0.33700117 0.51729864 0.65686625 0.82135785
000390 fc 37 3c 3f 5c c4 3e 3f 6c a2 34 3f 00 bf 45 3f
       0.73522925 0.7451837 0.70560336 0.7724457
0003a0 7d f4 46 3f 15 27 3a 3f d3 ff 27 3f 5e a2 21 3f
       0.7771681 0.72715884 0.6562473 0.6313838
0003b0 98 15 f2 3e 2c 8a e3 3e a5 1d df 3e 52 20 ef 3e
       0.472821 0.44441354 0.43577304 0.46704346
0003c0 d3 21 91 3e de be ba 3e c2 1e 8f 3e 63 fa c8 3e
       0.28346118 0.36473745 0.27953154 0.3925353
0003d0 86 41 e4 3e 56 49 03 3f 5f a8 05 3f 0c 02 0a 3f
       0.4458124 0.51283777 0.5221004 0.53909373
0003e0 da 17 0e 3f 9c 0a d1 3e 48 fd e4 3e eb e3 b4 3e
       0.55505145 0.40828407 0.44724488 0.35330138
0003f0 36 5b 97 3e f1 d9 8b 3e b4 e8 65 3e 1b 17 3c 3e
       0.29561776 0.27314714 0.2245205 0.18368189

net.bn3.weight f4 [16]
000000 d1 e6 50 3f cb 35 fc 3f 36 6c 07 40 4b 67 e1 3f
       0.816022 1.9703916 2.1159797 1.7609648
000010 85 b2 a9 3f 41 a8 d0 3f 17 a5 1f 3f f7 e8 55 3f
       1.3257605 1.6301347 0.6236128 0.835586
000020 d1 b8 dc 3f 5a 20 97 3f 72 74 06 40 36 f2 d3 3f
       1.7243901 1.1806748 2.1008573 1.6558292
000030 d0 c5 64 3f f5 b4 ed 3f 90 a8 a3 3f 05 59 02 40
       0.8936434 1.8570849 1.2785816 2.0366833

net.bn3.bias f4 [16]
000000 81 61 eb bd 69 54 b5 be c8 9d 25 bf b2 ce 35 3e
       -0.11493207 -0.35415962 -0.6469388 0.17754629
000010 70 5d 9f 3d 95 92 b6 be d5 bc bd bc e7 05 09 be
       0.07781494 -0.35658708 -0.023161331 -0.13381158
000020 99 19 d7 be 72 72 22 3e 38 94 1e bf cf 10 73 bd
       -0.42011717 0.1586397 -0.61944914 -0.0593422
000030 6c 66 6a be 2e c6 e4 be 40 58 8c 3d ea b7 1c bf
       -0.22890633 -0.4468245 0.0685277 -0.6121813

net.bn3.running_mean f4 [16]
000000 af 43 a5 40 45 e7 15 40 b9 26 02 c1 92 72 cd 40
       5.164512 2.3422406 -8.134454 6.4202356
000010 4e 55 9a 40 28 5f dc c0 c9 c1 bb 3f f3 6e d8 be
       4.822913 -6.8866158 1.4668514 -0.42272148
000020 a6 e4 c7 be de 31 ba 40 08 0d 0a c1 da 5c 91 40
       -0.39041632 5.8185873 -8.628181 4.5425844
000030 a9 e1 ab 40 14 68 fd c0 7b 85 94 40 d8 2b fc c0
       5.3712964 -7.918955 4.641294 -7.880352

net.bn3.running_var f4 [16]
000000 b4 97 0c 44 dd 30 8d 44 52 44 e4 44 94 9d ad 44
       562.37036 1129.527 1826.135 1388.9243
000010 5c f8 8a 44 96 1e c3 44 05 92 04 44 af 18 75 44
       1111.7612 1560.9558 530.28156 980.3857
000020 8d 14 49 44 ac 20 89 44 82 0c e9 44 c9 53 81 44
       804.3211 1097.021 1864.3909 1034.6183
000030 79 4d 07 44 c9 38 eb 44 38 bd 8d 44 93 80 d9 44
       541.2105 1881.7745 1133.9131 1740.018

net.fc.weight f4 [32, 256]
000000 13 e4 69 be 7c cc bd be 4e 36 35 bf 2a 86 b3 bd
       -0.2284091 -0.37070072 -0.7078599 -0.08765824
000010 6f cd 87 be 80 6a a6 be 99 b1 9e bd aa 46 30 be
       -0.2652392 -0.32503128 -0.07748718 -0.17214456
000020 37 f3 cd be 23 cd da be f8 f9 06 3d 43 1f ca bd
       -0.4022462 -0.42734632 0.032953233 -0.09869244
000030 9a c7 59 be 0b 18 93 be 3b ce 42 bf 8a 06 06 bf
       -0.21267548 -0.2872928 -0.7609593 -0.5235373
000040 7e 4e 8f be 47 3f b2 be 4e b8 fd bd bf 4a 14 bf
       -0.27989572 -0.34813902 -0.12388669 -0.57926553
000050 c5 1d 1f bf 68 3e 43 bf c4 db 1c bf d3 b8 fc be
       -0.621548 -0.762671 -0.61272836 -0.4935976
000060 f0 41 b3 be 7a 4e 97 3b ab 76 2e 3d ff ff 47 bf
       -0.35011244 0.0046175094 0.04259364 -0.78124994
000070 32 56 83 bf 57 1d 54 bf e6 64 d3 be 15 99 d6 3d
       -1.026068 -0.8285727 -0.41287917 0.10478417
000080 8b 49 93 3e e2 54 00 3f 2e c3 54 3d 8b 28 04 3f
       0.28767046 0.5012952 0.05194395 0.51624364
000090 34 78 95 3f aa c6 8e 3f b3 75 27 3f 30 25 ea 3e
       1.1677308 1.1154377 0.6541397 0.45731497
0000a0 6b e5 70 3f a5 35 ed 3e 35 fb dc 3e cc 02 17 3f
       0.94100064 0.4632999 0.43160406 0.5898864
0000b0 ea d2 84 3f 39 64 9d 3f eb 01 21 3f da cd 7b 3e
       1.0376866 1.229621 0.6289355 0.24590245
0000c0 ea d3 2e 3e 67 13 a2 be 74 8c 70 bf cc f7 e6 be
       0.17073026 -0.31655428 -0.93964314 -0.4511093
0000d0 85 06 b7 be 95 90 85 bf 41 3c 86 bf bd 50 15 bf
       -0.35747162 -1.0434748 -1.0487138 -0.5832632
0000e0 e9 8e 14 bf d8 41 90 be 0e a5 16 bf f3 e9 f2 be
       -0.58030564 -0.28175235 -0.58845603 -0.47444114
0000f0 c1 e6 f0 be a9 6e 7e bf a2 58 03 bf 50 5f 49 bf
       -0.4705105 -0.99387604 -0.5130712 -0.7866106
000100 52 69 ae be c9 92 1d bf 09 43 0c be 84 b0 d5 be
       -0.34064728 -0.615521 -0.13697447 -0.41736233
000110 06 eb 56 bf d1 36 fe be 7f 70 8f be 56 82 17 bf
       -0.8395237 -0.49651197 -0.28015515 -0.5918325
000120 55 2c 03 bf ac b1 80 be 4e 3a f5 3d 6f 72 53 bf
       -0.5123952 -0.25135553 0.11974011 -0.82596487
000130 c1 e7 22 bf 52 26 01 bf 32 d3 8f be 51 be 90 be
       -0.6363488 -0.504491 -0.28090817 -0.282702
000140 88 a2 37 be 9d d6 99 3d ca 3d 9b 3e aa 9f 2a 3f
       -0.17933095 0.07511637 0.3032058 0.6664988
000150 c8 fe 0f 3f 63 47 2d 3f 63 81 f6 3e 56 b8 07 3f
       0.5624814 0.6768705 0.4814559 0.5301565
000160 51 02 c7 3e 69 14 bd 3d 9e 2f a3 3e 13 30 c8 3e
       0.38868955 0.092324086 0.31872267 0.39099178
000170 d7 81 68 3f 33 94 66 3f 39 c5 9d 3e 83 4a 61 3e
       0.9082312 0.90069884 0.3081453 0.2200108
000180 00 78 59 be 88 1f 2e be 26 d0 d4 be 99 2c 27 3c
       -0.21237183 -0.17004216 -0.41565055 0.010203504
000190 d3 f9 39 3d c9 c3 d3 bd ee c6 b1 bd 74 df 57 be
       0.045404267 -0.103400774 -0.08680521 -0.21081334
0001a0 64 e7 62 3d 5f a2 28 be 83 5e 2b bf 12 24 c6 be
       0.055396453 -0.1646819 -0.6694109 -0.38699394
0001b0 23 c1 4b 3e a9 de 52 bd 81 d1 87 be e7 43 a1 be
       0.19897895 -0.051481877 -0.26527026 -0.31497118
0001c0 4a 77 3d be 5e 5c 5d be 16 4a bd bc 41 12 e7 bc
       -0.18502536 -0.21617267 -0.023106616 -0.028206946
0001d0 6e 02 f1 bd 38 fa 02 3e f6 76 d4 3e 1a ef 15 be
       -0.117680416 0.12790763 0.4149701 -0.14641991
0001e0 ee ab 19 be a7 82 31 3e c2 0c 28 be 88 07 d6 3d
       -0.15006992 0.17334996 -0.16411117 0.10450655
0001f0 c7 20 5a bc 4b ec 84 be 12 5c 04 be cd 70 95 be
       -0.013313479 -0.25961527 -0.12925747 -0.29187623
000200 e8 33 67 3e b8 20 2c 3d 98 fd fd bd 02 f2 98 be
       0.22578394 0.04202339 -0.12401885 -0.29872137
000210 0e 6c ef be 60 c0 e8 be aa f2 ae 3c 99 30 67 be
       -0.46762127 -0.4545927 0.021355946 -0.22577132
000220 bf 14 13 bf 12 66 19 be b6 50 95 3e 8f a0 1a be
       -0.5745353 -0.14980343 0.2916314 -0.1510031
000230 6b b5 21 bf 07 69 31 bf ae 11 b6 be 1a a0 51 3e
       -0.63167447 -0.69300884 -0.35560364 0.2047123
000240 a2 a1 be be e3 83 68 be 1c 29 1e bf d2 60 48 be
       -0.3723269 -0.22706561 -0.6178148 -0.19568184
000250 71 a9 b7 be 60 fc d1 be 8a 1a b8 be 1e 77 c3 be
       -0.3587146 -0.4101286 -0.35957748 -0.38176817
000260 bd df a9 be 89 9f 32 be e0 e3 c9 bd dc 85 d1 be
       -0.3317851 -0.1744367 -0.09857917 -0.4092244
000270 a6 e9 52 bf 3d 76 b6 be 3b 73 3a bf f6 33 40 bf
       -0.8238777 -0.35637084 -0.7283208 -0.75079286
000280 fd 8f 0b bd e6 8f c1 3e 29 64 00 3f 0f 57 06 3f
       -0.034072865 0.37805098 0.5015283 0.5247659
000290 41 67 26 3f dd d3 80 3f cf 59 55 3f 2a 47 12 3f
       0.650013 1.0064656 0.8334016 0.5713984
0002a0 76 04 5c 3f d9 87 18 3f fa 3c 66 3e 61 14 15 3f
       0.85944307 0.5958229 0.22484198 0.5823422
0002b0 0d 8c 40 3f 7c 2f 93 3f 6b 20 76 3f 2b e2 ed 3e
       0.752137 1.1498866 0.96143216 0.46461615
0002c0 9c 48 3e 3d 9d 42 b1 be bf d7 03 bf f6 c6 ea be
       0.046455964 -0.34621134 -0.5150108 -0.4585492
0002d0 9f 8b db be 10 a3 2c bf b1 33 ed be 17 da 91 be
       -0.4287996 -0.67436314 -0.463285 -0.28486702
0002e0 46 f8 2f 3d 52 fa 6e be 32 86 6a be 7e ef 8c be
       0.04296138 -0.23337677 -0.22902754 -0.27526468
0002f0 73 86 87 bf 5b 42 9b bf f7 d4 0a bf 15 1b 2a bd
       -1.0587906 -1.2129625 -0.5423121 -0.041529734
000300 66 1b 8d be 69 f3 10 bf 63 4c 99 be fd b5 42 3e
       -0.27559966 -0.56621414 -0.2994109 0.19014736
000310 1f 54 1a bd 20 6c 6c be 09 69 be bd 7f e6 a6 3d
       -0.03767788 -0.23088121 -0.092973776 0.081494324
000320 02 5c a1 be b1 b1 bc 3e df 0b af bd a4 87 30 be
       -0.3151551 0.36854318 -0.08547186 -0.17239243
000330 68 50 6a be 94 df 25 be 83 3a 6c bd 6e e2 d8 be
       -0.22882235 -0.1619857 -0.05767299 -0.42360252
000340 79 68 00 3e 3a 24 65 3e c0 ac 8c 3e 34 a2 fd 3e
       0.12539853 0.223771 0.27475548 0.49537814
000350 35 e6 ef 3e f0 83 37 3f a4 8b 5e 3f 92 a9 1f 3f
       0.46855322 0.71685696 0.86931825 0.6236812
000360 85 70 29 3f f3 b6 87 3e eb 75 5f be 98 17 be 3e
       0.66187316 0.26506767 -0.21822326 0.37127376
000370 d2 e1 4c 3f 8e fa 89 3f e5 0b 5c 3f b0 b0 c7 3e
       0.80032074 1.0779588 0.8595565 0.3900199
000380 5d cf 3f be 4d c2 5d be bd 28 55 3b 8c ed ca be
       -0.18731447 -0.21656151 0.0032525503 -0.3963436
000390 ad 95 16 bf 2e bf 8e be 98 59 06 bf 17 d2 d2 be
       -0.5882214 -0.27880234 -0.5248046 -0.4117591
0003a0 e7 85 9b be 8a 89 d2 be 9e a0 13 be 1b 93 89 bd
       -0.30375597 -0.4112056 -0.1441674 -0.06717511
0003b0 f6 87 49 bf 24 1b 09 bf 25 f9 fc be 3f b8 4c be
       -0.78723085 -0.5355704 -0.49408832 -0.1999216
0003c0 71 5e 02 bf ef 08 2d 3f 61 9a 73 be 40 d0 48 3f
       -0.50925356 0.67591757 -0.2378936 0.78442764
0003d0 6d c9 a7 3f 49 f3 93 3f 58 1c 2b 3f 15 80 d0 3e
       1.3108345 1.155862 0.66840124 0.4072272
0003e0 bf 07 31 3f be c5 17 3f 55 9a 59 3e f0 d9 c8 3e
       0.69152445 0.59286106 0.21250279 0.39228773
0003f0 72 04 13 3f 23 16 21 3f 99 f3 42 3f 46 fe ba 3e
       0.5742866 0.629244 0.7615295 0.3652212

net.fc.bias f4 [32]
000000 1f e3 53 bf b6 2f 0e 3e 64 ed 06 bf a4 f5 91 3f
       -0.82768434 0.13885388 -0.5270598 1.1403089
000010 63 a4 45 bf 4a e7 8e bd f2 d5 83 bf 56 66 41 3f
       -0.7720396 -0.06977709 -1.0299666 0.7554678
000020 61 42 c4 3e 85 84 62 bf e7 9d 20 c0 4d f3 24 3f
       0.38331893 -0.8848346 -2.5096376 0.6443375
000030 b9 0f bd bf f9 fd bf 3e 77 8e 14 3f 47 5d 20 bf
       -1.4770423 0.37498453 0.58029884 -0.6264233
000040 3c 6d 4d bf 30 4c bd bf 86 3c 57 3f 73 d1 4c 3f
       -0.80244803 -1.4788876 0.84076726 0.80007094
000050 8f 2a 8c 3f 95 04 6d be 70 e2 00 3f d4 da 59 bf
       1.0950488 -0.23146279 0.50345516 -0.8509953
000060 ca 00 e1 bf b3 ef b3 3e 08 43 51 3f 1c 2d 25 bf
       -1.7578366 0.35143813 0.81742907 -0.64521956
000070 df c1 28 3f 94 c9 61 3f a0 c3 81 3f f2 69 88 3f
       0.65920824 0.8819821 1.0137825 1.0657332

exp_avg f4 [8, 1, 1, 256]
000000 29 30 de b6 9b 2f ba b6 10 5a 9f b6 81 91 97 b6
       -6.621722e-06 -5.548774e-06 -4.749054e-06 -4.5170896e-06
000010 13 f7 a9 b6 93 50 df b6 3b 3f 1a b7 d7 19 55 b7
       -5.0653557e-06 -6.655298e-06 -9.193837e-06 -1.2701806e-05
000020 d5 e6 8e b7 30 77 b8 b7 57 3f e2 b7 64 2c 04 b8
       -1.7035209e-05 -2.199001e-05 -2.6970794e-05 -3.1512594e-05
000030 4c 31 13 b8 77 64 1c b8 67 09 1e b8 b3 cc 17 b8
       -3.5093442e-05 -3.7286864e-05 -3.7678892e-05 -3.6191846e-05
000040 5b c3 09 b8 72 8a e8 b7 aa 6e b0 b7 22 fd 5b b7
       -3.2845284e-05 -2.7721024e-05 -2.1032367e-05 -1.3112354e-05
000050 36 85 93 b6 86 6a a0 36 13 a7 66 37 dc d2 b7 37
       -4.396449e-06 4.7807725e-06 1.3747968e-05 2.1913489e-05
000060 87 73 f0 37 ab 28 0c 38 3c 16 15 38 79 c3 11 38
       2.8664026e-05 3.3416476e-05 3.5545076e-05 3.4752742e-05
000070 1e ab 02 38 82 d5 d3 37 33 b7 96 37 35 56 2f 37
       3.115378e-05 2.5252582e-05 1.7966702e-05 1.04508845e-05
000080 97 4c 81 36 56 e2 79 b5 8c 86 67 b6 a1 62 7a b6
       3.853416e-06 -9.308909e-07 -3.45e-06 -3.7310313e-06
000090 29 66 0a b6 c4 66 6e 35 f2 2b 89 36 44 de da 36
       -2.0623067e-06 8.881145e-07 4.088034e-06 6.5227814e-06
0000a0 07 5d f4 36 a5 13 c6 36 75 fc 1c 36 0d 66 5b b6
       7.2825965e-06 5.9031468e-06 2.339276e-06 -3.2692944e-06
0000b0 5d 43 30 b7 10 85 9e b7 85 47 e9 b7 88 a4 19 b8
       -1.0506102e-05 -1.889703e-05 -2.7809068e-05 -3.6631274e-05
0000c0 e7 57 3c b8 b2 c4 5b b8 4d d5 76 b8 e3 85 86 b8
       -4.490456e-05 -5.2396856e-05 -5.8849622e-05 -6.414556e-05
0000d0 8d ad 8e b8 be ad 93 b8 43 8f 95 b8 38 c2 94 b8
       -6.803414e-05 -7.041868e-05 -7.131558e-05 -7.093366e-05
0000e0 b9 06 92 b8 1b 33 8e b8 da 9c 89 b8 f9 7b 84 b8
       -6.963075e-05 -6.780607e-05 -6.561885e-05 -6.317342e-05
0000f0 4d 50 7d b8 7b e2 6f b8 19 22 60 b8 90 f6 4d b8
       -6.0394686e-05 -5.7192967e-05 -5.3437518e-05 -4.9105438e-05
000100 8a 29 39 b8 a0 95 21 b8 77 b3 07 b8 68 b2 d7 b7
       -4.4146123e-05 -3.852474e-05 -3.2353648e-05 -2.5713074e-05
000110 63 de 9e b7 ef 5d 4f b7 1b 44 d6 b6 eb c6 b1 b5
       -1.8938625e-05 -1.2360032e-05 -6.3856255e-06 -1.324542e-06
000120 03 3d 2e 36 71 ba b1 36 10 81 e6 36 2d 3c fe 36
       2.5963534e-06 5.2967157e-06 6.869559e-06 7.5767953e-06
000130 f9 85 00 37 13 89 f4 36 2e a2 d9 36 88 e1 b4 36
       7.6605875e-06 7.287724e-06 6.485984e-06 5.3906733e-06
000140 15 03 8c 36 35 f4 57 36 68 5e 40 36 61 6b 65 36
       4.172684e-06 3.2179644e-06 2.8665181e-06 3.4186162e-06
000150 e1 65 a7 36 38 80 fd 36 22 f1 35 37 62 a6 72 37
       4.988848e-06 7.554914e-06 1.0844584e-05 1.4463063e-05
000160 62 60 96 37 02 41 ad 37 12 24 b9 37 93 8c b4 37
       1.7926275e-05 2.0653479e-05 2.2070515e-05 2.1523132e-05
000170 5b 07 9c 37 97 c8 5c 37 c2 a4 bb 36 6f 11 62 b6
       1.8600074e-05 1.3159725e-05 5.5922146e-06 -3.3686772e-06
000180 8f 0f 54 b7 01 04 b1 b7 7b d7 e7 b7 bd 95 04 b8
       -1.2639807e-05 -2.1101909e-05 -2.7637687e-05 -3.1610707e-05
000190 9c 42 09 b8 22 47 02 b8 3f 7c e1 b7 df 7d ae b7
       -3.272538e-05 -3.1060663e-05 -2.6879947e-05 -2.080103e-05
0001a0 89 84 63 b7 d2 93 cd b6 a8 a1 54 35 77 5d de 36
       -1.3561113e-05 -6.1266846e-06 7.9211395e-07 6.6269963e-06
0001b0 44 d2 38 37 35 4b 67 37 b3 dd 7b 37 8d d6 78 37
       1.1016211e-05 1.3786183e-05 1.5012384e-05 1.4831906e-05
0001c0 78 a4 5e 37 45 83 2f 37 03 79 df 36 b8 53 1e 36
       1.32705245e-05 1.0461376e-05 6.6600055e-06 2.3592565e-06
0001d0 a7 15 f1 b5 c6 1c b2 b6 ca 4e 04 b7 c9 61 1f b7
       -1.7962201e-06 -5.308163e-06 -7.886158e-06 -9.499906e-06
0001e0 b7 18 2e b7 02 88 38 b7 42 48 44 b7 10 cc 54 b7
       -1.0376963e-05 -1.0998921e-05 -1.1699334e-05 -1.2683697e-05
0001f0 ee 02 69 b7 e0 ee 7d b7 15 5e 87 b7 58 db 8b b7
       -1.3888564e-05 -1.5135593e-05 -1.6137064e-05 -1.6672231e-05
000200 9d bd 8b b7 55 11 8b b7 93 75 8a b7 b8 f2 8c b7
       -1.6658387e-05 -1.6578162e-05 -1.6505632e-05 -1.6802325e-05
000210 40 b9 94 b7 1c e3 a2 b7 60 10 b5 b7 82 da c7 b7
       -1.7729239e-05 -1.9417661e-05 -2.1584507e-05 -2.38244e-05
000220 49 54 d6 b7 d3 29 dc b7 ce f0 d6 b7 eb d7 c7 b7
       -2.5550036e-05 -2.624552e-05 -2.5622921e-05 -2.3823193e-05
000230 e9 b9 b2 b7 b7 da 9b b7 61 ae 87 b7 d0 ba 70 b7
       -2.1305825e-05 -1.8579287e-05 -1.6174456e-05 -1.434861e-05
000240 d0 c3 5b b7 14 2d 4b b7 51 bf 3a b7 0b 1c 22 b7
       -1.3099008e-05 -1.21102385e-05 -1.1131008e-05 -9.662482e-06
000250 75 71 f0 b6 e6 64 51 b6 02 90 22 36 6b 31 19 37
       -7.1657655e-06 -3.1202158e-06 2.4223705e-06 9.131017e-06
000260 77 f7 88 37 1a 42 c2 37 5f c0 f0 37 59 7d 06 38
       1.6327698e-05 2.3157383e-05 2.869981e-05 3.206483e-05
000270 84 4e 09 38 d1 a0 00 38 30 91 dc 37 53 b9 a9 37
       3.273647e-05 3.066735e-05 2.6293652e-05 2.0232668e-05
000280 32 ad 5d 37 03 87 c7 36 65 00 78 b5 15 35 e9 b6
       1.3212952e-05 5.9463796e-06 -9.2387774e-07 -6.9501207e-06
000290 85 28 48 b7 09 cd 84 b7 9d 9f 9d b7 c2 8f ad b7
       -1.1930363e-05 -1.5831103e-05 -1.8790184e-05 -2.069015e-05
0002a0 83 f9 b3 b7 41 34 af b7 7f e0 9e b7 f2 cd 84 b7
       -2.145465e-05 -2.0885958e-05 -1.8939607e-05 -1.5831527e-05
0002b0 bd b3 47 b7 df f5 fc b6 d3 9a 56 b6 ad 6d 4c 35
       -1.1903173e-05 -7.5388084e-06 -3.1978605e-06 7.615552e-07
0002c0 1e 63 87 36 af eb d4 36 02 2f 00 37 75 47 05 37
       4.0348523e-06 6.3455295e-06 7.640339e-06 7.944055e-06
0002d0 3b 83 fa 36 5d 17 cc 36 d4 df 85 36 3b c5 9d 35
       7.465858e-06 6.0823936e-06 3.989766e-06 1.1754813e-06
0002e0 65 ba 18 b6 9d ff d2 b6 9f dc 2e b7 37 1a 6d b7
       -2.275826e-06 -6.288245e-06 -1.04225755e-05 -1.4132404e-05
0002f0 b8 75 8c b7 ef 58 95 b7 81 e3 8e b7 f7 bd 73 b7
       -1.6744118e-05 -1.7803597e-05 -1.7033659e-05 -1.4528158e-05
000300 e4 9d 33 b7 5d 95 c7 b6 4d 19 3e b5 73 34 9f 36
       -1.0705993e-05 -5.9480503e-06 -7.0817333e-07 4.744675e-06
000310 0d 2a 2a 37 8e 29 80 37 f6 7e a6 37 92 19 c6 37
       1.014258e-05 1.527814e-05 1.9847863e-05 2.3615346e-05
000320 68 d7 de 37 88 01 f2 37 66 cf ff 37 47 ec 04 38
       2.6564769e-05 2.8849361e-05 3.0494946e-05 3.1691303e-05
000330 bd 7d 08 38 10 d8 0a 38 83 f0 0c 38 82 af 0e 38
       3.254203e-05 3.3102988e-05 3.3602595e-05 3.4018893e-05
000340 9c 83 0f 38 a0 5b 0e 38 11 9c 0a 38 cd 73 04 38
       3.4216428e-05 3.394077e-05 3.3047112e-05 3.15791e-05
000350 fe be fa 37 10 db ee 37 04 09 ea 37 93 12 ef 37
       2.989126e-05 2.847382e-05 2.7899172e-05 2.849967e-05
000360 10 43 fe 37 71 7c 0a 38 3a 1f 17 38 2e 03 22 38
       3.0310388e-05 3.301766e-05 3.6030287e-05 3.862677e-05
000370 a2 64 28 38 3f c7 28 38 1e de 21 38 88 74 13 38
       4.0148043e-05 4.0239884e-05 3.8592254e-05 3.515606e-05
000380 5f fc fc 37 2f 0b ca 37 68 ec 91 37 af d9 32 37
       3.015826e-05 2.4085484e-05 1.7395432e-05 1.066031e-05
000390 f1 00 93 36 e3 14 88 b5 97 47 a2 b6 a8 3f e7 b6
       4.381051e-06 -1.0138868e-06 -4.8363104e-06 -6.891747e-06
0003a0 f8 4d ed b6 6e a5 c0 b6 91 9f 5f b6 e8 fb 07 b5
       -7.072227e-06 -5.7413044e-06 -3.332247e-06 -5.065799e-07
0003b0 55 26 14 36 02 da 92 36 fe 74 c4 36 f2 f9 e0 36
       2.207603e-06 4.3765185e-06 5.854875e-06 6.7048177e-06
0003c0 0e 53 ec 36 6d 5b ed 36 3b b5 e8 36 8f 8a e7 36
       7.043017e-06 7.0737938e-06 6.935237e-06 6.900467e-06
0003d0 1f ae f1 36 4c 00 05 37 50 30 18 37 90 16 2f 37
       7.20263e-06 7.927487e-06 9.071155e-06 1.0436066e-05
0003e0 1c 1a 48 37 b6 d8 63 37 40 93 80 37 fb 1b 90 37
       1.1927008e-05 1.3580711e-05 1.5327358e-05 1.7179167e-05
0003f0 eb 31 a1 37 ea 32 b5 37 a3 de cb 37 38 8b e4 37
       1.921594e-05 2.160059e-05 2.4303159e-05 2.7244547e-05

exp_avg_sq f4 [8, 1, 1, 256]
000000 66 07 5e 32 6e c8 4e 32 63 79 41 32 2c db 36 32
       1.2923783e-08 1.2036351e-08 1.1261679e-08 1.0643628e-08
000010 4e 2d 2f 32 c7 44 2a 32 26 d0 27 32 98 82 27 32
       1.0196642e-08 9.9109405e-09 9.768007e-09 9.750373e-09
000020 55 43 29 32 7e 33 2d 32 a9 70 33 32 b5 ee 3b 32
       9.852404e-09 1.0081633e-08 1.0444787e-08 1.0939108e-08
000030 68 2b 46 32 95 0b 51 32 42 1b 5b 32 e6 12 63 32
       1.1534986e-08 1.2168035e-08 1.27536754e-08 1.3217436e-08
000040 5a 8a 68 32 78 1d 6c 32 37 34 6f 32 e0 df 72 32
       1.3535635e-08 1.3743708e-08 1.3923503e-08 1.4137157e-08
000050 66 05 77 32 bf 62 7a 32 f1 7e 7b 32 10 58 79 32
       1.437852e-08 1.45743675e-08 1.4638986e-08 1.4513731e-08
000060 b6 be 73 32 c8 1c 6b 32 13 29 60 32 53 a7 53 32
       1.4187824e-08 1.3685344e-08 1.3047855e-08 1.2319862e-08
000070 a6 72 46 32 d8 84 39 32 bf 17 2e 32 1e 8e 25 32
       1.1551185e-08 1.0798622e-08 1.0133532e-08 9.636578e-09
000080 69 43 21 32 dc 04 22 32 57 7c 27 32 26 de 2f 32
       9.386761e-09 9.430746e-09 9.748951e-09 1.0236851e-08
000090 80 80 38 32 62 0c 3f 32 c7 9b 42 32 8d b1 43 32
       1.0739427e-08 1.1120479e-08 1.1327706e-08 1.1390864e-08
0000a0 0d ae 43 32 21 b6 43 32 33 28 44 32 50 a8 44 32
       1.1390068e-08 1.1391905e-08 1.1417842e-08 1.1446971e-08
0000b0 95 86 44 32 d6 00 43 32 88 e4 3f 32 2e 72 3b 32
       1.1439302e-08 1.1350684e-08 1.1169625e-08 1.0910794e-08
0000c0 07 2d 36 32 ba bb 30 32 37 fe 2b 32 f8 9b 28 32
       1.0604032e-08 1.0287232e-08 1.0011312e-08 9.81435e-09
0000d0 54 f4 26 32 ab d6 26 32 e9 69 27 32 be 5c 27 32
       9.7180255e-09 9.711282e-09 9.7447606e-09 9.7417665e-09
0000e0 fa 65 25 32 ff ef 20 32 c8 b4 1a 32 fc 87 14 32
       9.627451e-09 9.3677945e-09 9.005085e-09 8.645653e-09
0000f0 98 95 10 32 31 72 10 32 d1 6e 14 32 bb b5 1b 32
       8.415917e-09 8.407867e-09 8.6399305e-09 9.063508e-09
000100 b0 b6 24 32 6f e3 2d 32 02 36 36 32 a7 46 3d 32
       9.587595e-09 1.0121638e-08 1.0606074e-08 1.1017312e-08
000110 3e 28 43 32 95 09 48 32 9f f5 4b 32 64 cb 4e 32
       1.1359644e-08 1.1643711e-08 1.1872003e-08 1.2037024e-08
000120 1e 4c 50 32 a1 29 50 32 c7 58 4e 32 46 fa 4a 32
       1.21245005e-08 1.2116659e-08 1.2010964e-08 1.1814853e-08
000130 9e 60 46 32 23 f5 40 32 89 50 3b 32 eb f8 35 32
       1.1547085e-08 1.12316085e-08 1.0903144e-08 1.0592184e-08
000140 1e 3b 31 32 6f 01 2d 32 e4 1b 29 32 29 6f 25 32
       1.0316198e-08 1.0070251e-08 9.843436e-09 9.629539e-09
000150 e9 31 22 32 d4 bc 1f 32 fa 47 1e 32 34 b6 1d 32
       9.440989e-09 9.297953e-09 9.213176e-09 9.180031e-09
000160 ce 7e 1d 32 37 d6 1c 32 2a 19 1b 32 20 5e 18 32
       9.167435e-09 9.129102e-09 9.027909e-09 8.868966e-09
000170 06 9f 15 32 3d 8f 14 32 4a af 16 32 53 7a 1c 32
       8.709099e-09 8.647302e-09 8.771005e-09 9.108208e-09
000180 50 e1 24 32 af c2 2d 32 39 cc 34 32 00 a2 38 32
       9.5972865e-09 1.0114191e-08 1.0523814e-08 1.0747044e-08
000190 c6 1d 39 32 bc 02 37 32 ff 12 33 32 a9 25 2e 32
       1.0775187e-08 1.0652624e-08 1.04234905e-08 1.0136696e-08
0001a0 7e e8 28 32 8b fc 23 32 e3 b2 1f 32 c1 7e 1c 32
       9.83175e-09 9.54527e-09 9.295692e-09 9.109216e-09
0001b0 a7 0d 1b 32 ef 10 1c 32 23 68 1f 32 ea 95 23 32
       9.025292e-09 9.084245e-09 9.278696e-09 9.521935e-09
0001c0 96 12 26 32 41 db 24 32 c7 35 20 32 aa ea 1a 32
       9.666698e-09 9.595909e-09 9.325453e-09 9.017336e-09
0001d0 3a a4 18 32 fb c7 1b 32 ce db 23 32 ba 24 2e 32
       8.884905e-09 9.067658e-09 9.5378265e-09 1.0136484e-08
0001e0 1b 26 37 32 5e 49 3c 32 6d 50 3c 32 6d c4 37 32
       1.0660666e-08 1.0959722e-08 1.0961327e-08 1.0696664e-08
0001f0 54 85 30 32 64 6d 29 32 83 6e 25 32 86 46 27 32
       1.0274864e-08 9.861967e-09 9.6293915e-09 9.7367145e-09
000200 26 bf 30 32 c6 8b 42 32 1e ac 59 32 57 49 72 32
       1.028801e-08 1.1324067e-08 1.2670197e-08 1.41029295e-08
000210 02 d1 83 32 5f c3 8a 32 92 c1 8c 32 17 dc 89 32
       1.5345453e-08 1.6154159e-08 1.638617e-08 1.6048984e-08
000220 3f 31 83 32 74 d0 74 32 46 51 62 32 54 63 51 32
       1.5272802e-08 1.4250066e-08 1.3173411e-08 1.2187986e-08
000230 02 69 43 32 16 d9 38 32 5a 58 31 32 d6 4a 2c 32
       1.137437e-08 1.0759569e-08 1.0322845e-08 1.0028733e-08
000240 d6 25 29 32 cd 99 27 32 14 14 27 32 9f 02 27 32
       9.845698e-09 9.75565e-09 9.725245e-09 9.721275e-09
000250 a5 fc 26 32 89 13 27 32 49 5e 27 32 e6 d3 27 32
       9.719916e-09 9.725121e-09 9.742117e-09 9.7688595e-09
000260 f9 01 28 32 6b 5e 27 32 6c 96 25 32 7c 00 23 32
       9.779336e-09 9.7421475e-09 9.638466e-09 9.487959e-09
000270 48 52 20 32 2c 3a 1e 32 45 f6 1c 32 be b9 1c 32
       9.331934e-09 9.210037e-09 9.13639e-09 9.122628e-09
000280 3f dc 1d 32 fb e8 20 32 72 22 26 32 07 44 2d 32
       9.188681e-09 9.366199e-09 9.670304e-09 1.0085393e-08
000290 b3 89 35 32 87 ef 3d 32 8e 4c 45 32 37 87 4a 32
       1.0566896e-08 1.105571e-08 1.1484316e-08 1.1788692e-08
0002a0 18 c3 4c 32 07 aa 4b 32 88 e3 47 32 29 d2 42 32
       1.1918722e-08 1.1854815e-08 1.1635059e-08 1.1340071e-08
0002b0 1b 19 3e 32 d2 c4 3a 32 b5 2a 39 32 34 e3 38 32
       1.1065164e-08 1.0871377e-08 1.0778128e-08 1.076187e-08
0002c0 fd 42 39 32 93 a0 39 32 57 6b 39 32 9a 08 38 32
       1.0783649e-08 1.0804928e-08 1.07928235e-08 1.0712165e-08
0002d0 df ee 34 32 bc d7 2f 32 30 cb 28 32 d4 6c 20 32
       1.0531692e-08 1.0235393e-08 9.8250865e-09 9.33797e-09
0002e0 4a 07 18 32 e1 40 11 32 05 75 0d 32 bd 2a 0d 32
       8.849222e-09 8.454863e-09 8.233887e-09 8.216998e-09
0002f0 dd d1 0f 32 9b 40 14 32 02 4f 19 32 5a 7c 1e 32
       8.371413e-09 8.629423e-09 8.923736e-09 9.225085e-09
000300 5f d6 23 32 55 91 29 32 17 ba 2f 32 3d 3d 36 32
       9.536591e-09 9.870139e-09 1.0228653e-08 1.0607718e-08
000310 12 05 3d 32 13 f4 43 32 9b 9c 4a 32 b8 3f 50 32
       1.1002401e-08 1.140599e-08 1.17935555e-08 1.2121681e-08
000320 2e e1 53 32 4f c4 54 32 53 a2 52 32 25 34 4e 32
       1.2333016e-08 1.23846595e-08 1.2260517e-08 1.2002634e-08
000330 6c 60 49 32 84 e6 46 32 86 1d 49 32 ac 54 50 32
       1.1721664e-08 1.157753e-08 1.1706453e-08 1.2126446e-08
000340 95 e1 59 32 e9 31 61 32 b8 0f 62 32 c7 0d 5b 32
       1.2682354e-08 1.3108072e-08 1.3158505e-08 1.275061e-08
000350 e8 35 4e 32 88 d1 3f 32 37 04 34 32 01 5e 2d 32
       1.2003035e-08 1.1165305e-08 1.0478337e-08 1.0091299e-08
000360 48 81 2c 32 05 97 30 32 9f 18 38 32 c3 93 41 32
       1.0041113e-08 1.0278886e-08 1.0715808e-08 1.1267676e-08
000370 75 f0 4b 32 ab 73 56 32 9f 92 60 32 80 97 69 32
       1.1870829e-08 1.2482739e-08 1.3071854e-08 1.3596832e-08
000380 1e 8f 70 32 be ab 74 32 32 b9 75 32 a3 ec 73 32
       1.400238e-08 1.4241719e-08 1.43029855e-08 1.4198267e-08
000390 c2 87 6f 32 61 a8 68 32 0c 5d 5f 32 df 1f 54 32
       1.3942499e-08 1.3542462e-08 1.3001465e-08 1.2347271e-08
0003a0 7c 13 48 32 4e 97 3c 32 bd b9 32 32 6c c3 2a 32
       1.1645962e-08 1.0977443e-08 1.0403196e-08 9.939736e-09
0003b0 2e 75 24 32 20 b3 1f 32 98 ad 1c 32 07 e0 1b 32
       9.5727e-09 9.295746e-09 9.119866e-09 9.073125e-09
0003c0 c1 c0 1d 32 28 b4 22 32 e7 ff 2a 32 82 b9 36 32
       9.18243e-09 9.470604e-09 9.953488e-09 1.0635974e-08
0003d0 e4 ba 45 32 32 47 57 32 eb 4f 6a 32 e3 9f 7d 32
       1.1509403e-08 1.2530835e-08 1.3638764e-08 1.4762892e-08
0003e0 a6 f1 87 32 c5 d9 8f 32 ae cc 95 32 ec fe 98 32
       1.5825957e-08 1.6746421e-08 1.743896e-08 1.7811054e-08
0003f0 99 cb 98 32 c0 03 95 32 45 34 8e 32 cd c5 85 32
       1.7787714e-08 1.7347588e-08 1.6554745e-08 1.5573187e-08

exp_avg f4 [8]
000000 28 9c bb b0 76 4c 28 ae bd 3a 8b af 51 11 39 30
       -1.3650423e-09 -3.826669e-11 -2.532569e-10 6.7327216e-10
000010 8e cb 9d 2f 17 3a ba b1 a7 94 94 30 d0 19 c3 2f
       2.8702768e-10 -5.4199165e-09 1.0810667e-09 3.5488634e-10

exp_avg_sq f4 [8]
000000 6d 2d e1 23 b8 b1 fe 24 40 6f 33 24 4d e8 14 23
       2.4413787e-17 1.1045601e-16 3.890867e-17 8.072288e-18
000010 a3 1e 92 23 bc f3 84 24 1c e4 89 22 04 8e bd 24
       1.5842327e-17 5.765878e-17 3.7375445e-18 8.220627e-17

exp_avg f4 [8]
000000 25 cf 4c b0 87 0e bf ae 8a 14 10 b0 43 35 cd 2e
       -7.450914e-10 -8.688255e-11 -5.241608e-10 9.331782e-11
000010 87 8b a0 ad c3 ae 16 af 0a e2 42 2d fa bb 2e ad
       -1.8251857e-11 -1.3704508e-10 1.1077814e-11 -9.932494e-12

exp_avg_sq f4 [8]
000000 4a dd 85 21 c7 93 20 22 fc 39 c1 21 c4 e7 00 21
       9.071005e-19 2.1762276e-18 1.3093537e-18 4.3674826e-19
000010 64 26 9a 20 30 87 98 22 e6 b7 29 20 62 a6 fb 20
       2.611402e-19 4.1342818e-18 1.4375704e-19 4.2631157e-19
