model/sub5_20240206_130642/checkpoints/epoch1_0.7375.pt (torch, 195725 bytes, 39 tensors)

net.conv.weight f4 [8, 1, 1, 256]
000000 0e 78 c3 be de e9 02 bf 3b 60 38 bf ea a9 53 bf
       -0.38177532 -0.51138103 -0.72021836 -0.82681143
000010 a3 41 38 bf b7 dc 3e bf 3c 4c 58 bf 27 c6 5f bf
       -0.71975154 -0.74555534 -0.84491324 -0.8741173
000020 b3 99 88 bf 8a cc 73 bf 10 66 53 bf 56 ed 2d bf
       -1.0671905 -0.95233977 -0.8257761 -0.6794027
000030 dd e4 e4 be 95 ef 14 be e9 02 f2 3d ac 16 b4 3e
       -0.4470586 -0.14544518 0.11816961 0.35173547
000040 9c 99 99 3e 0a 85 f1 3d 67 e0 7c bd 12 f2 b4 be
       0.30000007 0.11792953 -0.061737444 -0.35340935
000050 6b a1 e4 be 0c 57 00 bf f0 d4 cb be c6 7b 27 be
       -0.44654402 -0.50132823 -0.39810896 -0.1635581
000060 7a e0 56 3e 1a 54 da 3e d6 8e ef 3e 3f 09 ff 3e
       0.20984069 0.4264229 0.46788663 0.49811742
000070 ce 6c f8 3e e5 51 6a 3e 8d 6e 64 3e 14 13 5e 3e
       0.4852051 0.22882803 0.22307797 0.21686965
000080 d6 a9 c0 3e ba 89 3d 3f df 6f 94 3f f0 da a3 3f
       0.37629575 0.7403828 1.159664 1.280119
000090 df fd b4 3f cd fc ad 3f 6b 2c 9f 3f 93 eb 56 3f
       1.4139975 1.3592774 1.243543 0.8395321
0000a0 6a d8 e4 3e 69 fe ce 3d 4e fb f2 bd 69 b0 4e be
       0.4469636 0.10107119 -0.11864339 -0.20184483
0000b0 8a c2 6b be 6e ab eb bd b5 53 74 be 4a fa 72 be
       -0.2302343 -0.11507307 -0.23860057 -0.2372829
0000c0 c6 52 c2 be 8a f5 0f bf 47 df 1a bf 5f 51 23 bf
       -0.37953776 -0.5623404 -0.60496944 -0.6379604
0000d0 b7 6c 35 bf 23 ba 02 bf cd d7 c2 be 20 28 2f be
       -0.7086901 -0.5106527 -0.38055268 -0.1710515
0000e0 c7 50 11 be 8e 73 55 be ce 57 a3 be 9b f0 df be
       -0.1419097 -0.20844862 -0.31902927 -0.43738255
0000f0 c7 12 31 bf 83 12 6f bf 72 67 85 bf 2e 97 7f bf
       -0.69169277 -0.9338762 -1.0422194 -0.99840057
000100 63 78 60 bf 72 4c 2a bf 13 8a 11 bf 85 b7 d8 be
       -0.87683696 -0.66522896 -0.5685131 -0.42327514
000110 90 1a ad be 91 12 5b be 01 c1 c7 3c 57 e1 05 3e
       -0.33809328 -0.21393801 0.024384024 0.13074242
000120 bb 4f 8e 3e 82 76 be 3e 3b 9c 0d 3f 7e ca 3a 3f
       0.27795205 0.3719979 0.55316514 0.7296523
000130 11 d4 3e 3f 7d 20 31 3f 4c 6d 1e 3f b2 b0 21 3f
       0.7454234 0.691902 0.61885524 0.6316024
000140 e5 90 00 3f 06 d9 e2 3e a8 a8 b0 3e 5e 8c 07 3f
       0.5022109 0.443062 0.34503675 0.5294856
000150 15 a9 1c 3f 5c 99 2b 3f a7 be 33 3f 0b 19 2d 3f
       0.611955 0.6703088 0.7021279 0.6761634
000160 14 42 0c 3f bc 43 ad 3e 30 4a 37 3e d8 41 2c bd
       0.5478833 0.3384074 0.17899394 -0.04205498
000170 b9 a4 09 be 6b 70 92 bb 6f 09 43 3e df ee f8 3e
       -0.13441743 -0.0044689677 0.19046567 0.48619744
000180 05 51 1c 3f 21 88 30 3f ea ef 03 3f 88 f4 8a 3e
       0.61061126 0.68957716 0.51537955 0.27139688
000190 98 ec 85 bd ee 49 b5 be 8c 5d 13 bf 53 0b 1c bf
       -0.06539267 -0.35407966 -0.57564616 -0.6095478
0001a0 db 02 19 bf 7e c0 f7 be 91 57 93 be 5e 67 9b be
       -0.5976998 -0.48389047 -0.28777745 -0.303523
0001b0 28 ea c1 be 2c 73 29 bf fe 30 6e bf cc 6d ac bf
       -0.3787396 -0.66191363 -0.93043506 -1.3471007
0001c0 1d 9f c1 bf b5 73 cc bf ab 50 ae bf 1a 33 64 bf
       -1.5126683 -1.5972811 -1.3618368 -0.89140475
0001d0 55 93 c5 be 51 ad c4 3d cc 2b a8 3e 81 bc 00 3f
       -0.38588968 0.0960337 0.32845914 0.50287634
0001e0 08 99 f3 3e f1 4c f7 3e b0 08 92 3e 70 c6 9e 3e
       0.4757769 0.4830089 0.28522253 0.3101077
0001f0 82 e1 af 3e 4a 46 07 3f 15 a7 1f 3f 45 99 1e 3f
       0.34351736 0.5284163 0.6236432 0.6195262
000200 dc de 17 3f aa fe c6 3e 8e 86 74 3e 57 9e 91 3d
       0.5932443 0.38866168 0.23879454 0.07110279
000210 3d 06 ea bd bd 9c 89 bd 0b 92 c5 bd 2b 6c 8e 3d
       -0.11426971 -0.067193486 -0.09646996 0.06954225
000220 f3 95 8e 3e 2a a5 f2 3e d4 ea 1b 3f 78 e3 36 3f
       0.27848777 0.47391635 0.60905194 0.7144084
000230 c8 58 19 3f f1 36 04 3f 24 3b 98 3e 99 4e 31 3e
       0.59901094 0.51646334 0.2973262 0.17315139
000240 01 64 5e 3e fe d4 c3 3e 34 fb df 3e c3 37 eb 3e
       0.21717836 0.38248438 0.4374634 0.4594098
000250 4e ed cf 3e 70 5d b3 3e df 8a 63 3d de cf dd be
       0.40610737 0.35032225 0.05555236 -0.43322653
000260 fd d1 44 bf 9a 2c 7b bf 84 f6 82 bf 77 8e 7c bf
       -0.76882917 -0.9811493 -1.0231481 -0.98654884
000270 a3 b4 52 bf 0d 16 14 bf 29 17 f7 be d8 20 f7 be
       -0.8230688 -0.57846147 -0.48259857 -0.48267245
000280 5f 2d 3a bf 01 ed 64 bf 09 6f 99 bf 20 4e a1 bf
       -0.7272548 -0.8942414 -1.198701 -1.2601967
000290 1f 57 8e bf a0 f7 5c bf e0 3b 17 bf 73 ee b4 be
       -1.1120337 -0.86315346 -0.59075737 -0.35338172
0002a0 07 94 2e be a2 ed 8e 3b 50 d4 0b be da da 20 be
       -0.17048655 0.004361824 -0.1365521 -0.15708485
0002b0 3c 06 9e be dd 1b d2 be 04 13 b6 be 0c 25 9f be
       -0.3086413 -0.41036883 -0.35561383 -0.31082952
0002c0 a8 38 9a bd 23 d2 50 3e 5b af bf 3e fb e6 00 3f
       -0.075303376 0.20392661 0.37438473 0.5035245
0002d0 cf eb ea 3e 06 55 e3 3e b6 c6 cf 3e 45 5e ac 3e
       0.45883033 0.44400805 0.40581292 0.33665672
0002e0 ee 16 90 3e d5 72 dc 3e 2f 0e 30 3f 2b 63 8c 3f
       0.28142494 0.4305636 0.6877164 1.0967764
0002f0 38 85 a4 3f 5c 1b a6 3f ba 5b a9 3f 6e 25 92 3f
       1.2853155 1.29771 1.3231118 1.1417673
000300 e8 ed 46 3f 8e 37 f6 3e 5f 40 17 3e e9 82 e9 3d
       0.77706766 0.4808926 0.1477065 0.11401922
000310 55 5f 27 3d a7 e1 08 3e 04 5b d9 3c 34 1e 39 3d
       0.0408624 0.1336733 0.026532657 0.04519482
000320 6d 4d 1b be e2 5d d8 be 69 32 4d bf 97 63 7a bf
       -0.15166254 -0.42259127 -0.80155045 -0.9780821
000330 eb a6 88 bf 0c 2e 75 bf 74 76 2a bf 68 5b be be
       -1.0675939 -0.95773387 -0.66586995 -0.37179112
000340 92 a7 ec 3c 66 15 ab 3e 8a e2 a7 3e c5 9a f3 3d
       0.028888498 0.33414763 0.32790023 0.11894754
000350 6c 6c 74 be 4d e7 25 bf f3 f0 79 bf 21 d7 9e bf
       -0.23869485 -0.6480606 -0.97633284 -1.2409402
000360 c0 af a6 bf 0a 1c 98 bf 5b a0 59 bf 48 2a ef be
       -1.3022385 -1.1883557 -0.8501031 -0.46711946
000370 fd a8 d4 be af 44 b5 be 81 0a 24 bf 6c f7 74 bf
       -0.41535178 -0.35403964 -0.6407853 -0.95690036
000380 f3 57 83 bf 1b 15 4e bf f7 93 0c bf 4f aa 48 be
       -1.0261215 -0.80500954 -0.54913276 -0.19596218
000390 ce 17 a1 3e b1 66 50 3f 55 ab 89 3f 97 4e 85 3f
       0.31463474 0.81406695 1.0755411 1.0414609
0003a0 d3 46 75 3f e8 fa 22 3f b1 73 36 3e b6 33 cf bb
       0.95811194 0.636641 0.1781757 -0.006323303
0003b0 d5 b0 2c 3c 0c 13 92 3e a7 11 40 3f 17 27 85 3f
       0.010540207 0.28530157 0.75026935 1.0402554
0003c0 1e b4 9d 3f ac de 93 3f 07 ea 67 3f bc bb 18 3f
       1.2320592 1.1552329 0.9059147 0.5966146
0003d0 ea 2a 33 3e ee 8d d7 3b 2b 1d 20 be df 80 02 be
       0.17496839 0.0065781986 -0.15636127 -0.12744473
0003e0 4d dd 2f be 4c 76 a3 bd b6 68 e5 bd 3b f6 67 be
       -0.17174263 -0.07981548 -0.11201613 -0.22652523
0003f0 06 73 11 bf c4 b5 88 bf 67 ca c3 bf 9d 3f e7 bf
       -0.56816137 -1.068047 -1.5296143 -1.8066288

net.bn1.weight f4 [8]
000000 49 70 bf 3f bb 4c e7 3f 77 72 01 40 67 ac b8 3f
       1.4956142 1.8070291 2.0226114 1.4427613
000010 49 c6 87 3f 28 82 fc 3f e6 ac 91 3f c2 82 6a 3f
       1.0607387 1.972722 1.138089 0.9160577

net.bn1.bias f4 [8]
000000 fe 37 7e bd 30 2b 91 bd 98 ee 5a be 58 e5 85 bd
       -0.062065117 -0.070883155 -0.21380079 -0.065378845
000010 f1 a6 f7 bd 7d 60 90 3e 85 2e 82 bd 41 02 06 3e
       -0.120923884 0.28198615 -0.06356529 0.13086797

net.bn1.running_mean f4 [8]
000000 ca a2 8e b9 cd 71 95 39 86 9f cc b8 54 dd 2f 3a
       -0.00027205638 0.00028504283 -9.7571916e-05 0.00067087007
000010 3f b4 45 3a 23 65 c0 b8 c8 c4 de b8 80 07 a6 b9
       0.00075418124 -9.1741116e-05 -0.00010622438 -0.00031667575

net.bn1.running_var f4 [8]
000000 ae 00 ad 44 ec 1f 97 44 0f 6b 9c 44 69 1c 4d 44
       1384.0212 1208.9976 1251.3456 820.4439
000010 fd 15 18 44 63 2f ae 44 eb 33 3b 44 15 be ee 43
       608.34357 1393.4808 748.8112 477.48502

net.depth_conv.weight f4 [16, 1, 32, 1]
000000 c6 52 4d be 55 6f 88 3e 86 5c 24 3f 0c 67 32 3e
       -0.20051107 0.2664744 0.6420368 0.17422122
000010 dc a7 4c 3f 19 c4 2b bf a2 54 4e 3f 0b 49 34 3f
       0.79943633 -0.67096096 0.8059789 0.70423955
000020 02 d8 86 bf 56 67 10 3f 61 b4 a4 bf e0 4e c1 be
       -1.053467 0.5640768 -1.2867547 -0.3775549
000030 63 59 34 bf 55 8b 72 3c fd 14 e4 3e 50 a6 30 3f
       -0.70448893 0.014803727 0.44547263 0.6900377
000040 21 b5 bd bd e1 16 d0 3e 52 6b be 3f 6c 35 6b 3f
       -0.09263063 0.40642455 1.4876502 0.9187839
000050 95 e1 ad be ca 76 33 3e b6 ef 8d 3e 67 fd bf bf
       -0.33961168 0.17525783 0.27721947 -1.4999207
000060 3f 76 bb bf 66 01 a2 3f 2c c7 a4 be 01 2b c0 bf
       -1.4645461 1.2656677 -0.32183206 -1.5013124
000070 c1 5e 92 be d0 11 0b bf b9 b7 0b 3f 21 54 3f 3e
       -0.28587916 -0.54324055 0.54577214 0.18684436
000080 23 f1 dd bd 03 e5 42 3f 3b 8b 49 3f 4f d7 96 3e
       -0.10837009 0.76130694 0.78728074 0.29461142
000090 d2 53 ba 3f 8a 33 7b 3e 2d 3a b6 be 27 2f f7 bd
       1.455683 0.2453138 -0.3559126 -0.120695405
0000a0 d0 ae f6 bf 1f 36 69 3f 9c d6 cd be 6c f3 88 be
       -1.9272099 0.9109821 -0.40202796 -0.26748216
0000b0 dc c8 ce bf 98 ee 14 bf 52 85 3f 3d fe d3 e8 3e
       -1.6155047 -0.58176565 0.046758004 0.45474237
0000c0 19 f0 a9 bd 50 08 d4 3e 6e 29 42 3f 0a 11 a0 3f
       -0.08297748 0.41412592 0.75844467 1.25052
0000d0 a4 05 d1 3e 8d d2 d5 3f 63 90 07 3f e4 b5 9d bf
       0.40824616 1.670488 0.5295469 -1.2321134
0000e0 20 9c d3 bf 63 e9 13 3f c8 ab b9 3d 22 47 0a bf
       -1.653202 0.57777995 0.09065968 -0.5401479
0000f0 1e 50 88 bf 21 a1 44 bf 6e 5f 1c 3f 41 d4 44 3e
       -1.064945 -0.76808363 0.61083114 0.19221593
000100 68 1e ea 3e 29 76 95 3f cb 9b e6 3e 48 e7 01 bf
       0.45726323 1.1676685 0.45040736 -0.5074353
000110 7b 9e d8 3e 46 fb 3f be 0a f2 0a 3f 95 c0 a5 be
       0.4230841 -0.18748197 0.5427557 -0.3237349
000120 26 56 b2 be b5 3f 24 c0 26 91 aa 3d 33 3b cf 3e
       -0.3483135 -2.5663884 0.08328466 0.40474853
000130 45 92 b9 3e 80 02 b1 3f 99 c7 8b be 1d 92 a0 3d
       0.36244407 1.3828888 -0.27300718 0.07840369
000140 c7 0a 85 3e 52 10 0c bd ab 84 91 3e d0 37 f4 3e
       0.25984785 -0.03419525 0.2842153 0.47698832
000150 fb ca 65 3f a4 bd 5e be b3 00 0d 3d ba b1 91 bd
       0.8976285 -0.2175203 0.034424495 -0.07113977
000160 bf c3 99 bf 32 5e 7c be be 37 86 bf 61 43 a3 be
       -1.2012862 -0.24645308 -1.0485761 -0.31887344
000170 aa 60 6d 3c 57 f1 65 be 9d c5 d7 3e 9e 62 cb 3e
       0.014488379 -0.22455345 0.42142954 0.39723676
000180 64 31 84 be bb 78 21 bf 16 0d 62 bf dd 6b 7a bf
       -0.25818932 -0.63074845 -0.8830122 -0.97820836
000190 b3 8a 7f bf 3b b9 27 3f 56 42 a7 3e 88 49 b9 3f
       -0.99821013 0.65517014 0.32667798 1.4475565
0001a0 2f 20 0f bf e7 7c 01 40 e8 7f fb be 5a 99 c2 3e
       -0.55908483 2.0232484 -0.49121022 0.38007623
0001b0 ca 16 4b 3d 22 03 ef be f0 f7 0e 3d bb ba 82 bd
       0.04958228 -0.46682078 0.03490442 -0.06383272
0001c0 d8 dc 61 3d 25 dd 43 bf 05 19 94 3c f4 fc d7 be
       0.055142254 -0.76509315 0.018078336 -0.42185175
0001d0 e3 14 01 bf d4 cb 82 be 83 46 37 bf 59 5e 5b 3f
       -0.50422496 -0.25546134 -0.7159197 0.8569084
0001e0 73 ba a9 3e 47 26 12 bf f0 b3 e5 3f bf 39 ab 3e
       0.33150062 -0.57089657 1.7945538 0.33442494
0001f0 94 5b 41 bf 54 96 5b 3f ba 1d 18 bf 6f 91 1c 3e
       -0.7553036 0.8577626 -0.5942036 0.15289854
000200 4a c1 59 be d8 b2 a5 bf ed 1a 22 bf 73 f7 f7 be
       -0.2126514 -1.2945204 -0.63322335 -0.48430976
000210 af 89 5a be 5b 6d dc 3e 36 31 c2 be 18 69 af 3f
       -0.21341585 0.43052182 -0.3792817 1.3703947
000220 18 59 63 3e 58 ed 35 40 f9 34 19 bd 47 1a 2b 3d
       0.22201955 2.8426113 -0.037404034 0.041773107
000230 e7 69 2b bf a0 45 c4 bf 65 9c 94 3e 55 09 02 3e
       -0.6695847 -1.5333748 0.2902557 0.12698872
000240 ed 50 ba be 44 b6 86 be a7 79 35 bf 8c 22 6f be
       -0.36389866 -0.26310933 -0.7088875 -0.23353022
000250 6c 12 3f bf f7 ef ff 3e d6 eb 0e 3e 3d 63 1e 3f
       -0.74637485 0.49987766 0.13957152 0.61870176
000260 5f b7 08 3f ba 99 d1 3e db 82 84 3f 33 d7 80 3f
       0.534048 0.40937597 1.0352434 1.0065674
000270 15 16 f3 be ab be ba bd f1 95 2c bf 35 bb 87 3e
       -0.47477785 -0.09118398 -0.6741629 0.26510015
000280 3e 24 99 3e 5b 7e ce 3e 99 24 30 bf e6 57 97 bf
       0.29910463 0.40330777 -0.68805844 -1.18237
000290 a7 d5 b2 bf 8e 37 10 3f 56 78 19 3f f1 d7 9f 3f
       -1.3971452 0.5633477 0.59949243 1.2487775
0002a0 c6 eb 9a bf b4 5b 81 3e 41 85 0f bf 4b 9f 1b 3f
       -1.2103202 0.25265276 -0.56062704 0.60789937
0002b0 ec db 36 3f f4 f0 7b 3f 48 9d 70 be 76 cc 27 be
       0.71429324 0.9841454 -0.23497498 -0.1638659
0002c0 f2 56 26 3e 7c f3 25 bf 44 98 0a 3f 35 b7 af bd
       0.16244105 -0.6482465 0.5413859 -0.08579866
0002d0 fe 33 a9 3d a3 ab 0c bf d3 fc 14 bf 76 74 23 3f
       0.0826187 -0.54949397 -0.5819828 0.6384958
0002e0 37 7c ed be f8 10 7b bf 4f 80 b0 3f 1c 24 b7 3d
       -0.4638383 -0.9807277 1.3789157 0.08942434
0002f0 d5 b5 82 bf a9 e2 be 3f d8 72 26 be a0 22 35 3e
       -1.0211741 1.4912921 -0.16254747 0.1768899
000300 b0 d0 eb 3e 58 12 37 be 56 98 91 3e 31 29 95 bc
       0.46057653 -0.17878091 0.28436536 -0.018208118
000310 f5 d8 53 3f 1b be 42 be 47 63 a9 bf a2 c1 59 3e
       0.82752925 -0.19017832 -1.3233422 0.21265271
000320 f1 6c 6f bc a8 55 83 be 49 5b 36 bf 42 89 88 be
       -0.014613376 -0.25651288 -0.7123304 -0.2666722
000330 34 83 e7 3e 8c ae 08 be c5 44 16 bf 92 fd c3 3e
       0.45217288 -0.13347834 -0.58698684 0.38279396
000340 1e c2 66 be 1e 0d bd 3d 52 07 31 bf d7 35 6b bf
       -0.22534987 0.092310175 -0.69151795 -0.9187903
000350 a2 a6 36 3d 00 f6 01 be 95 1e 61 3d c0 33 28 3f
       0.044592507 -0.12691498 0.054960806 0.65703964
000360 a3 83 f6 3f 9b 50 ed bf c0 13 0f 40 14 a1 b9 3f
       1.9258922 -1.8540224 2.2355804 1.4502282
000370 98 4d 90 be 5b 4d 98 bf 80 55 aa 3e 13 c9 90 3e
       -0.281842 -1.1898607 0.33268356 0.28278407
000380 0f a3 f0 3d b3 0b af be 12 03 96 3e b3 cb 1e bf
       0.11749851 -0.34188613 0.29299217 -0.6202957
000390 ef 0a 97 3f 3a 28 94 3d 23 3b fa be 70 33 32 3f
       1.1800212 0.07234235 -0.48873243 0.6960974
0003a0 fe 67 f8 3d 57 47 78 be f3 11 f0 bf e1 0d 00 bc
       0.1212921 -0.24245964 -1.8755478 -0.007815809
0003b0 63 9c 39 be 3d ce 15 3e 7f 56 0e be f3 c0 6f 3f
       -0.18126063 0.14629455 -0.13900183 0.9365379
0003c0 d0 66 32 3f fa 61 99 3c e1 ef 65 be 28 ca 1d bf
       0.6968813 0.018723477 -0.22454788 -0.6163659
0003d0 9e df a6 be 15 4a 7e bf 7b 6e d3 3e bc d8 81 3e
       -0.3259248 -0.9933179 0.41295227 0.25360668
0003e0 00 d5 e0 3f b3 36 b7 bf c9 5c 09 40 c5 26 b5 3f
       1.7565002 -1.4313568 2.1462882 1.4152457
0003f0 75 72 41 be ef 23 a6 bf 7c dc 5a 3e 4d f1 e3 ba
       -0.18891318 -1.2979716 0.2137317 -0.0017390639

net.bn2.weight f4 [16]
000000 02 83 dc 3f 0e 84 c6 3f b8 19 07 40 06 38 0c 40
       1.722748 1.550905 2.1109447 2.1909194
000010 47 c2 0e 40 7a df 13 40 d6 ae d5 3f 0a b7 d9 3f
       2.2306077 2.310515 1.6693981 1.7008984
000020 81 9d 79 3f 20 58 cd 3f e4 63 0d 40 f8 58 10 40
       0.97505957 1.6042519 2.2092218 2.2554302
000030 b1 e6 dd 3f af 5c e1 3f 10 2c ca 3f ec 6c c8 3f
       1.7336026 1.760641 1.5794697 1.565824

net.bn2.bias f4 [16]
000000 f3 db d8 be 88 bd 0a bf 70 de 25 bf 1b 84 33 bf
       -0.42355308 -0.5419545 -0.6479254 -0.7012345
000010 3a d5 41 bf e2 29 34 bf f0 b8 e8 be f1 c2 f9 be
       -0.7571598 -0.7037641 -0.45453596 -0.4878154
000020 aa 7d 55 be 46 02 fe be d7 a7 1b bf 53 09 36 bf
       -0.20848718 -0.4961111 -0.6080298 -0.7110798
000030 bb 96 f6 be e1 f8 f2 be 5a b6 ce be ef e6 f0 be
       -0.48161873 -0.47455505 -0.40373498 -0.47051188

net.bn2.running_mean f4 [16]
000000 a4 40 a5 bb b4 69 41 bd c4 53 23 bd 5a a3 28 3d
       -0.005043106 -0.047219947 -0.039874807 0.04117141
000010 7b eb 32 be 56 63 85 bd e6 2b 31 bd 24 54 c1 bd
       -0.17472641 -0.065130875 -0.043254755 -0.09439877
000020 07 78 05 be c7 8d 52 3d e7 1f 70 be 7b a0 f3 3e
       -0.13034068 0.05140474 -0.2344967 0.47583374
000030 1e 55 68 3c 1f 64 f1 3a a0 23 88 bd 9e dd 1f 3e
       0.01418045 0.0018416679 -0.0664742 0.15611884

net.bn2.running_var f4 [16]
000000 12 3d 60 41 6a e4 b6 40 d5 bf 6d 41 0e 75 58 41
       14.01491 5.7153826 14.859334 13.528578
000010 f7 ca 81 41 92 b8 d7 41 c1 e7 79 42 0d e2 3b 42
       16.224104 26.965122 62.476322 46.970753
000020 dd dc 84 41 b9 7d 4c 41 e1 6a fa 41 e6 9e a3 41
       16.607843 12.780694 31.302187 20.452587
000030 73 38 3e 42 a8 51 7d 42 06 27 08 41 39 c2 18 41
       47.555126 63.329742 8.509527 9.547418

net.point_conv.weight f4 [16, 16, 1, 16]
000000 1a c1 ac 3e 38 63 d6 3e 90 09 1b 3f 95 15 df 3e
       0.33741075 0.41872573 0.60561466 0.43571153
000010 1d c2 d3 3e 4b 40 84 3e 8e 8a 0a 3e 03 90 c7 3d
       0.41359034 0.25830302 0.13529417 0.09744265
000020 89 24 17 bd 77 c6 d0 3d 2c a4 6b 3a 33 1b de 3d
       -0.036900077 0.10194104 0.0008989002 0.108450316
000030 24 42 38 3e b9 34 8d 3e 5f 4b cf 3e 92 e0 02 3f
       0.1799398 0.27579287 0.4048719 0.5112392
000040 f8 30 5e 3e 64 d7 98 3e e0 78 03 3f 64 86 18 3f
       0.21698368 0.2985183 0.51356316 0.59580064
000050 83 ca 32 3f 6c 5c 5c 3f 3f 49 68 3f ec 82 81 3f
       0.6984026 0.86078525 0.90736765 1.0118079
000060 fd 35 5e 3f 55 43 4e 3f 02 ac 0b 3f d5 83 bc 3e
       0.8680113 0.8057149 0.5455934 0.3681933
000070 a7 17 89 3e f5 cb 6f 3e 7f 6c 83 3e 06 ba d7 3e
       0.26775858 0.23417647 0.25668713 0.42134112
000080 29 24 2d 3e c7 c5 84 3e 0b cc 89 3e 1e ca 9f 3e
       0.16908325 0.25932142 0.26913485 0.3120889
000090 e8 74 86 3e 4b ee b5 3e 9a c0 b2 3e 76 de d6 3e
       0.26261067 0.35533366 0.34912568 0.419666
0000a0 66 62 0a 3f a3 67 09 3f 1e 11 23 3f b3 d7 2b 3f
       0.54056394 0.5367376 0.63697994 0.67126006
0000b0 d5 08 1b 3f 1c c7 18 3f da df fd 3e d2 5d 06 3f
       0.6056035 0.59678817 0.49584848 0.5248691
0000c0 2a 11 3d be 9c 40 2c be df d2 4a bd 61 02 0b 3d
       -0.18463579 -0.16821522 -0.04951751 0.033937816
0000d0 c6 e8 22 bb 42 67 36 3c d8 fb ad bc 9a e1 50 bb
       -0.0024857982 0.011133017 -0.021238253 -0.003187275
0000e0 b2 16 c5 bd c6 75 48 3d 6c 7a 42 bd b7 12 9d 3b
       -0.096234694 0.048940443 -0.04748003 0.0047934907
0000f0 8c 0f 6d bc bf 28 37 3d 03 03 fa 3d 98 ef df 3d
       -0.014469039 0.044716593 0.12207606 0.10934371
000100 8b 82 c8 3d 48 11 46 3e 5b 34 57 3e 5c 21 97 3e
       0.09790524 0.1934253 0.21016066 0.2951764
000110 98 ce ce 3e 41 0a 93 3e 02 57 b2 3e 2e b1 ad 3e
       0.40391994 0.2871876 0.34832007 0.3392424
000120 1c 25 62 3e 82 46 e9 3d 71 f9 79 3d 56 eb 13 3e
       0.22084469 0.113904014 0.0610289 0.14445242
000130 f0 73 05 3d 71 0f 1c 3e 15 79 6a 3e 06 bb 58 3e
       0.03258127 0.15240265 0.22897752 0.21165094
000140 01 28 96 be d8 60 5a be 4a e5 4c be 7c ff ed bd
       -0.29327396 -0.21326005 -0.20009342 -0.116209954
000150 6b c8 9f 3d 99 ce 13 3b 8b e6 d2 3d dd c8 50 3d
       0.078018986 0.0022553562 0.10297879 0.05097281
000160 d9 5c 03 be 67 12 da bd e4 6f 7e be 53 e8 a7 be
       -0.12828387 -0.10648041 -0.2484737 -0.32794437
000170 d1 80 e8 be cb df 0f bf ec 30 01 bf 3c 72 b7 be
       -0.4541078 -0.56200856 -0.50465274 -0.3582934
000180 22 74 8a 3f 0a c2 69 3f 6d e2 48 3f 3a 6f 37 3f
       1.0816691 0.91311705 0.784705 0.71654093
000190 db 2b 3f 3f bd 63 47 3f 0c 74 3b 3f 7f ef 2b 3f
       0.74676293 0.77886564 0.7322395 0.6716232
0001a0 05 16 36 3f b3 f7 4f 3f 82 50 5e 3f f4 00 51 3f
       0.7112735 0.81237334 0.86841595 0.8164208
0001b0 a7 ae 18 3f 54 e0 be 3e e5 97 a7 3e 3b 67 83 3e
       0.596415 0.37280524 0.32733074 0.25664696
0001c0 65 91 82 3f c7 d4 67 3f 36 d6 4d 3f 1a 7b 5f 3f
       1.0200621 0.9055905 0.80404985 0.87297213
0001d0 68 de 86 3f 13 5f 89 3f 5e 8b 85 3f 83 9f 54 3f
       1.0536623 1.0732139 1.0433156 0.83055896
0001e0 58 5f 39 3f 8a 14 56 3f eb bd 69 3f d9 43 4e 3f
       0.7241111 0.8362509 0.91305417 0.8057228
0001f0 dd 99 3d 3f 9d b7 1b 3f 44 93 22 3f 22 ad 10 3f
       0.740629 0.60827047 0.6350596 0.5651418
000200 73 b2 ad 3d 08 08 4c 3e 9c de 9f 3e d1 a3 ba 3e
       0.08481302 0.19924939 0.31224525 0.36453107
000210 4f 65 d6 3e 43 f6 d3 3e b0 a3 03 3f 18 04 e8 3e
       0.41874167 0.4139882 0.5142164 0.45315623
000220 24 24 ee 3e ca 7d e3 3e fd ee 5f 3e 6a 40 fd 3d
       0.46511948 0.44431907 0.2186851 0.12365802
000230 48 95 d8 bd e2 4e 26 be 13 4e 85 be 2e 94 87 be
       -0.10575348 -0.16241029 -0.26036128 -0.2648024
000240 ea c8 e6 3e 1c ef 00 3f 9d 3c eb 3e 01 a6 d8 3e
       0.4507516 0.5036485 0.45944682 0.4231415
000250 69 64 ce 3e b8 8e a9 3e b4 be 43 3e 7e c4 c6 3d
       0.40310982 0.33116698 0.19115716 0.09705447
000260 49 83 c6 3d a4 d8 e3 3d ef 4f 38 3e 56 0c 74 3e
       0.096930094 0.11125305 0.17999242 0.23832831
000270 f9 86 c6 3e f6 c9 c4 3e f0 9e ea 3e fd 7f f9 3e
       0.3877485 0.38435334 0.45824385 0.4873046
000280 a2 e5 a7 be 83 71 ed bd d8 fd a8 bc d4 30 71 3d
       -0.32792383 -0.11593916 -0.020628855 0.058884457
000290 20 37 b4 3d 91 e7 5a bc cc ae ef 3c d6 1a d2 bc
       0.08799577 -0.013360874 0.029258154 -0.025647562
0002a0 6d 48 0b be 36 62 a6 be 0a dc bd be cc 86 af be
       -0.13601847 -0.32496804 -0.3708194 -0.3428253
0002b0 d0 88 7a be 6d f7 82 be 04 77 7b be 75 c9 81 be
       -0.24466252 -0.25579396 -0.2455712 -0.25349012
0002c0 39 34 77 3e db 80 42 3e f3 b9 96 3e b6 61 8d 3e
       0.24141015 0.18994467 0.29438743 0.2761361
0002d0 a0 35 95 3e 12 d4 5b 3e 1c bf 5d 3e b8 9d 55 3e
       0.29142475 0.21467617 0.21654934 0.20860946
0002e0 e2 7c 00 3e b2 15 0e 3e 58 5d a0 3c 12 76 9f 3d
       0.12547639 0.13875464 0.01957576 0.07786192
0002f0 23 e6 8c 3d 8f fe c7 3d 13 ac bf 3c 0c e9 83 3d
       0.068798326 0.0976535 0.023397481 0.064409345
000300 76 e8 82 3f e5 9d 82 3f 0a 3e 7f 3f 96 45 86 3f
       1.0227191 1.0204436 0.9970404 1.0489986
000310 c2 ba 8d 3f 30 b2 73 3f de 30 67 3f fb c5 6c 3f
       1.1072619 0.9519377 0.9030894 0.92489594
000320 28 4d 57 3f 10 59 3e 3f e3 36 4c 3f e6 de 29 3f
       0.84102106 0.7435465 0.7977125 0.6635574
000330 24 40 0f 3f 68 0a 2b 3f 4e 3a 39 3f 19 7e 47 3f
       0.55957246 0.66812754 0.7235459 0.77926785
000340 8a 21 49 3f 99 8c 2d 3f 4b 14 26 3f 01 3d fc 3e
       0.785668 0.6779266 0.64874715 0.49265292
000350 55 1a 06 3f c2 39 0e 3f ed 8e c2 3e d0 4f f1 3e
       0.5238393 0.5555688 0.3799967 0.47131205
000360 38 a0 cc 3e b7 2a b4 3e b5 82 b0 3e 1b b4 ee 3e
       0.39965987 0.3518884 0.34474722 0.46621785
000370 07 6b d9 3e 2c bf e0 3e 63 51 be 3e 37 d8 16 3f
       0.42464468 0.43895853 0.37171468 0.5892367
000380 48 39 e6 3e db f2 18 3f 8f e0 37 3f 7c 19 5e 3f
       0.44965577 0.5974557 0.71827024 0.86757636
000390 ac 33 43 3f d4 01 42 3f 63 e7 34 3f 0e 7b 43 3f
       0.7625072 0.7578404 0.7066557 0.7635964
0003a0 f9 eb 43 3f 54 9b 39 3f 1a 7b 2b 3f fc 09 27 3f
       0.7653194 0.72502637 0.66984713 0.6524961
0003b0 b3 d3 02 3f fc ed 00 3f 7d 9d 00 3f 49 ea 0c 3f
       0.5110428 0.50363135 0.5024031 0.5504499
0003c0 aa 1f 87 3e 2b a6 a9 3e 76 95 74 3e f9 ec ad 3e
       0.26391345 0.3313459 0.2388514 0.33969858
0003d0 38 70 bf 3e ac 39 df 3e 8a b3 e3 3e 6a 93 ef 3e
       0.37390304 0.43598688 0.44472915 0.46792156
0003e0 4e f2 fa 3e 51 b5 b1 3e 2b aa c9 3e 91 93 95 3e
       0.4901299 0.34708646 0.3938764 0.29214147
0003f0 f2 1e 7d 3e af 50 82 3e 18 80 5e 3e d4 5c 42 3e
       0.24718836 0.25452182 0.21728551 0.18980724

net.bn3.weight f4 [16]
000000 4a 1d 84 3f e8 50 e9 3f c5 ce 06 40 bf 4b c4 3f
       1.0321438 1.8227816 2.1063702 1.5335616
000010 00 cc 86 3f 30 42 ce 3f 6d 3d 61 3f d4 77 8b 3f
       1.0531006 1.6113949 0.87984353 1.0895944
000020 06 07 d1 3f b3 f0 73 3f 28 72 06 40 1f f9 b7 3f
       1.6330268 0.9528915 2.1007175 1.4372901
000030 ed 4f 91 3f 8b 5a f0 3f 89 73 94 3f 06 56 00 40
       1.1352516 1.8777632 1.1597759 2.0052505

net.bn3.bias f4 [16]
000000 a2 b7 e3 bb 35 a3 db be e4 5b 2a bf ec 75 68 3e
       -0.006949381 -0.42897955 -0.66546464 0.22701234
000010 81 9a bb bc 80 9f c8 be 47 9d 4b 3e ac fd 7e 3d
       -0.022900822 -0.3918419 0.19884215 0.06225364
000020 b7 e8 07 bf e6 78 1f 3e 93 7b 1f bf 5a c7 0f be
       -0.5308947 0.15573463 -0.62297934 -0.1404089
000030 33 22 da bd 6a 69 e7 be b4 cb 23 3d 15 6b 26 bf
       -0.10651054 -0.45197612 0.03998919 -0.65007144

net.bn3.running_mean f4 [16]
000000 53 1e c0 40 60 c3 3d 3e c1 45 a7 c0 fc 04 99 40
       6.0037017 0.18531561 -5.227265 4.7818584
000010 9f a7 26 40 2c 8a 88 c0 80 9a 8a 40 05 02 02 40
       2.6039808 -4.2668667 4.33136 2.0313733
000020 42 6e 2e c0 0f e0 89 40 35 ee b6 c0 05 75 4a 40
       -2.7254796 4.308601 -5.716578 3.1633923
000030 60 6d eb 40 ac 27 9e c0 0b 09 4b 40 66 6d a5 c0
       7.3571014 -4.9423428 3.172427 -5.1696043

net.bn3.running_var f4 [16]
000000 f9 b1 93 43 9d 1a 2d 44 e2 da 7f 44 0e 90 7a 44
       295.3904 692.41583 1023.42004 1002.25085
000010 68 92 1a 44 70 fd 54 44 e5 6d 69 43 a7 c6 cc 43
       618.2876 851.95996 233.42928 409.55197
000020 22 66 f4 43 4c 21 40 44 c0 32 81 44 2a 10 23 44
       488.7979 768.52026 1033.5859 652.25256
000030 42 eb 68 43 20 a5 6f 44 87 86 1b 44 ca 41 63 44
       232.91898 958.5801 622.102 909.02795

net.fc.weight f4 [32, 256]
000000 c3 62 18 be 2c cf ac be a6 e6 2f bf 3c 3d 4d bd
       -0.14881425 -0.3375181 -0.68711317 -0.050107226
000010 4b 09 94 be 86 90 bb be 95 e5 f4 bd 47 d7 47 be
       -0.2891334 -0.366337 -0.11957852 -0.19515716
000020 9c bb e0 be ee ec f3 be 66 40 27 3d 53 9b d5 bd
       -0.43893135 -0.476417 0.0408329 -0.10430016
000030 8a d1 6f be a9 ad 7f be 13 19 36 bf 75 63 e0 be
       -0.23419777 -0.2496859 -0.7113201 -0.4382588
000040 96 7d 2e be 78 d6 41 be 1a 02 24 3d 7e be c8 be
       -0.17040095 -0.1892947 0.040041067 -0.39207834
000050 a4 bf f4 be 12 97 15 bf a7 aa e7 be 28 f4 b4 be
       -0.4780246 -0.5843364 -0.45247385 -0.35342526
000060 20 81 23 be 62 98 31 3e c6 b1 56 3e 6d 7f 15 bf
       -0.15967226 0.17343286 0.20966253 -0.5839756
000070 a0 c8 5d bf fe 29 35 bf b7 86 88 be a1 1d 48 3e
       -0.86634254 -0.707672 -0.2666528 0.19542553
000080 bc a4 3d 3e 22 f1 b5 3e 85 12 fc bd 1a 7d b8 3e
       0.18519872 0.35535532 -0.1230822 0.36032945
000090 e6 82 80 3f dc 3c 75 3f 77 19 e9 3e 37 57 82 3e
       1.0039947 0.9579599 0.4552724 0.25457165
0000a0 23 38 3b 3f 69 1d 65 3e 72 67 41 3e a3 44 c8 3e
       0.7313253 0.223745 0.18887118 0.39114866
0000b0 8f 76 55 3f 7d e1 85 3f 12 e5 f4 3e fb f3 ae 3d
       0.8338403 1.0459439 0.47831017 0.08542629
0000c0 52 19 a8 3e 95 2f e2 bd 98 43 4a bf b2 db 9b be
       0.32831818 -0.11044232 -0.7900939 -0.30441052
0000d0 ec 30 5c be 39 da 70 bf 61 38 65 bf 52 e6 dd be
       -0.21503037 -0.9408298 -0.8953915 -0.43339783
0000e0 6f 2d d8 be a1 4b d9 bd c1 e1 d6 be 50 24 a1 be
       -0.42222163 -0.10610128 -0.41969112 -0.31473017
0000f0 e5 6e 94 be c6 61 53 bf 70 8e b8 be 5b 50 27 bf
       -0.28990856 -0.82571065 -0.3604617 -0.6535699
000100 e8 6f 54 be 18 83 dd be 2c 45 98 3d c5 a5 49 be
       -0.20745814 -0.4326408 0.074350685 -0.19692142
000110 f2 b5 21 bf 6b 06 9b be 95 35 9c bd c1 29 cd be
       -0.6316825 -0.30278334 -0.076274075 -0.40070918
000120 de 86 87 be a5 96 ad bb 64 a7 ab 3e ef 82 10 bf
       -0.26470083 -0.0052974992 0.33526146 -0.5644979
000130 01 c2 e9 be 2e 49 a7 be ca 3b 61 bd b7 cc 09 be
       -0.45655826 -0.3267302 -0.05498866 -0.13456999
000140 79 e4 b1 be 97 4f e1 bd a6 e7 1f 3e 26 e5 f5 3e
       -0.34744623 -0.11001509 0.1561571 0.4802639
000150 c4 d0 bb 3e 72 d1 f3 3e 5d 6d 89 3e d2 53 a5 3e
       0.36682713 0.47620732 0.2684125 0.32290512
000160 13 58 2a 3e 17 1d 45 be a2 a6 c7 3d 2a 0d 38 3e
       0.1663516 -0.19249378 0.097485796 0.17973772
000170 11 21 3a 3f 88 1d 39 3f 09 a2 68 3d 0d b3 6e 3d
       0.72706705 0.72310686 0.056795154 0.058276225
000180 84 f2 52 be 8a 23 34 be f1 4c d9 be 56 8a 2d bd
       -0.20600325 -0.17591682 -0.42441514 -0.042368256
000190 1f 4a cf 3b d7 50 19 be 90 e1 0a be 28 50 89 be
       0.0063259746 -0.14972244 -0.13562608 -0.26818967
0001a0 e8 a1 a9 bc 7b df 6d be 5f 42 3a bf be 04 ed be
       -0.020707086 -0.23229782 -0.72757524 -0.4629268
0001b0 57 d1 0e 3e 57 26 b7 bd 0c d8 97 be 84 eb a7 be
       0.13947044 -0.089428596 -0.29657018 -0.32796872
0001c0 b1 f6 3b be 43 c1 6b be 12 cc cf bd 31 0f 28 be
       -0.18355824 -0.23022942 -0.10146345 -0.16412045
0001d0 da c2 44 be b8 26 0e 3d 85 3c 82 3e 45 0f 9f be
       -0.19214955 0.034704894 0.25436798 -0.31066337
0001e0 83 8d a0 be 21 16 9d 3c 69 9e 91 be 8b 9e a2 bd
       -0.31357965 0.019175591 -0.2844117 -0.07940396
0001f0 05 51 cb bd 00 73 92 be 6c d7 0e be 36 60 8a be
       -0.099275626 -0.28603363 -0.13949364 -0.27026528
000200 d3 f4 9b 3e 6f 55 2a 3e 27 ac 1f 3d 65 5c 1e be
       0.30460224 0.16634153 0.038982537 -0.15464933
000210 7b da ae be 30 c0 a7 be 94 06 38 3e dd cf 8b bd
       -0.34151062 -0.32763815 0.1797126 -0.06826756
000220 b3 76 c8 be 00 8a cb 3c 51 21 e5 3e fd 75 66 bc
       -0.3915306 0.024846077 0.4475198 -0.014066217
000230 b3 d3 02 bf a6 6f 15 bf 46 8d 83 be ef c9 81 3e
       -0.5110428 -0.58373487 -0.2569372 0.25349376
000240 ee cf 48 be 13 28 85 bd 18 44 e7 be 42 a7 8e bc
       -0.19610569 -0.06501784 -0.4516914 -0.01741374
000250 94 44 56 be 17 1a 84 be 58 02 3c be de 51 56 be
       -0.20924598 -0.25801155 -0.18360269 -0.20929667
000260 fb b4 01 be 59 61 c6 3c 6e ce ac 3d 15 2b 56 be
       -0.12666695 0.02421634 0.08437811 -0.20914872
000270 0b ab 29 bf 42 d4 3b be da 2d 13 bf 16 1f 21 bf
       -0.66276616 -0.18342689 -0.5749184 -0.6293806
000280 d2 3c 50 be 6b cd 37 3e 78 69 a5 3e e6 c4 b2 3e
       -0.20335701 0.17949454 0.3230703 0.34915847
000290 49 6a f5 3e 71 21 5b 3f b1 74 23 3f 9e f4 ce 3e
       0.47932652 0.855979 0.6384993 0.40421003
0002a0 82 cf 2c 3f 6b 09 b9 3e b5 11 81 bc f6 cb bf 3e
       0.6750413 0.36139998 -0.015755514 0.37460297
0002b0 ea 50 0d 3f c4 5e 79 3f d6 51 46 3f a9 d2 98 3e
       0.5520159 0.97410226 0.7746862 0.2984822
0002c0 c4 eb 3f 3e b5 b4 34 be fe 07 b7 be 8c da 9d be
       0.18742281 -0.1764706 -0.35748285 -0.308308
0002d0 04 fc 87 be 85 28 f5 be 94 03 8c be 91 cc b6 bd
       -0.2655946 -0.47882476 -0.2734648 -0.08925737
0002e0 08 6a 8c 3e cd 9e 89 3c c1 2c 99 bc 0c 7d 95 bd
       0.27424645 0.016799355 -0.018698098 -0.072992414
0002f0 77 84 62 bf b4 e3 82 bf 7b e6 bf be 6e 5f a0 3d
       -0.88483375 -1.022574 -0.3748053 0.07830702
000300 de 46 50 be a8 50 01 bf 21 ab 8b be 09 95 31 3e
       -0.20339534 -0.50513697 -0.27278998 0.17342009
000310 8a 61 83 bd bf a1 a3 be 4f 06 0e be 55 ca 6c 3d
       -0.064150885 -0.3195934 -0.13869594 0.057810146
000320 7a 75 b0 be 5a 29 b9 3e 31 26 ff bd cb 1f 54 be
       -0.34464628 0.3616436 -0.12458456 -0.20715253
000330 28 f1 66 be 72 1c 11 be 17 50 1f bb 22 c4 b6 be
       -0.22552931 -0.14171007 -0.0024309212 -0.35696512
000340 9d 4c b0 bb 09 78 91 3d 50 c8 c5 3d 38 dd 8b 3e
       -0.0053802268 0.07102973 0.09657347 0.27317214
000350 b5 00 8c 3e 9b 8c 0b 3f dd 7d 34 3f b0 52 d7 3e
       0.2734429 0.5451142 0.7050455 0.42055273
000360 94 59 e0 3e 52 29 91 ba f5 96 e1 be 64 ac 1e 3e
       0.43818343 -0.0011074936 -0.44060484 0.1549545
000370 5c f3 13 3f 81 a9 68 3f b9 40 1e 3f e5 3a 69 3e
       0.5779321 0.9088364 0.6181751 0.22776373
000380 31 b7 33 bd 2e 61 ae bd c3 2a 4f 3e b4 65 58 be
       -0.043875877 -0.08514629 0.20231156 -0.21132547
000390 da 26 db be f7 9c e3 bd 79 9f b0 be 62 7e 68 be
       -0.4280308 -0.11113923 -0.34496668 -0.22704461
0003a0 90 f5 b5 bd 13 c1 52 be e4 6c 32 3d 10 c7 02 3e
       -0.08884728 -0.20581464 0.043560877 0.12771249
0003b0 13 cb 1d bf 40 46 c3 be 61 98 b3 be 7b aa 71 bd
       -0.6163799 -0.38139534 -0.35077193 -0.059000473
0003c0 af de 1c bf 02 0b 0d 3f 82 4a d0 be b1 0c 11 3f
       -0.6127729 0.5509492 -0.40681845 0.5665999
0003d0 e9 e4 91 3f c0 e7 81 3f f5 09 00 3f 09 70 77 3e
       1.1397983 1.014885 0.50015193 0.24163832
0003e0 46 fb 00 3f 0d b6 c2 3e 1f 11 12 3d 73 bd 3c 3e
       0.5038341 0.3802952 0.03566086 0.18431644
0003f0 08 4e c0 3e 11 b3 ed 3e ca 3b 13 3f 5f a7 7b 3e
       0.37559533 0.4642568 0.57513106 0.24575566

net.fc.bias f4 [32]
000000 be 59 6c bf 1b e4 83 3e e2 d4 26 bf 26 6c a9 3f
       -0.92324436 0.25759968 -0.65168583 1.3236129
000010 7c 76 79 bf 7b 41 4f be 1d cb 8e bf 51 ab 64 3f
       -0.9744642 -0.20239823 -1.1155735 0.8932391
000020 77 96 00 3f 97 6d 88 bf 23 52 27 c0 ef 1f 3a 3f
       0.5022959 -1.0658444 -2.6143882 0.72704977
000030 4a 3f c2 bf f5 ca 17 3f 9f 62 1b 3f 1d f2 55 bf
       -1.5175564 0.5929406 0.6069736 -0.8357256
000040 07 4f 82 bf c3 43 d4 bf 56 69 7e 3f 66 67 59 3f
       -1.0180367 -1.6583179 0.9937948 0.849234
000050 50 61 93 3f f1 f5 a3 be b9 4c 05 3f f2 48 63 bf
       1.1514072 -0.32023576 0.52070194 -0.8878318
000060 be e6 fc bf 5b 25 9a 3e b4 5d 60 3f 87 0c 55 bf
       -1.9757917 0.30106625 0.8764298 -0.8322224
000070 9f ca 25 3f 5c f1 83 3f b4 a6 97 3f ca 51 8e 3f
       0.647623 1.0308032 1.1847749 1.111871

exp_avg f4 [8, 1, 1, 256]
000000 e2 15 8b b7 b5 40 9f b7 57 72 eb b7 0d 4e 28 b8
       -1.6580281e-05 -1.8984409e-05 -2.8067427e-05 -4.012701e-05
000010 b2 9e 54 b8 46 2f 66 b8 aa 01 57 b8 17 bc 28 b8
       -5.0692535e-05 -5.48803e-05 -5.1261544e-05 -4.0229494e-05
000020 38 f8 ce b7 4c 87 17 b7 47 7c 16 36 61 90 e5 36
       -2.46727e-05 -9.031803e-06 2.242408e-06 6.8415397e-06
000030 31 31 9b 36 82 86 f1 b5 c7 8d 10 b7 d6 53 4a b7
       4.6250866e-06 -1.7995046e-06 -8.616079e-06 -1.2059658e-05
000040 c5 52 21 b7 f1 a6 a6 b5 8a 78 2b 37 e6 af ac 37
       -9.615619e-06 -1.241655e-06 1.0220459e-05 2.0585907e-05
000050 3b 4e d8 37 0b 8d c3 37 15 e0 6d 37 db e9 f8 35
       2.5785635e-05 2.331149e-05 1.4178474e-05 1.8545501e-06
000060 55 ee 2a b7 16 69 9e b7 64 ae af b7 f9 f9 83 b7
       -1.0188281e-05 -1.8884002e-05 -2.0942833e-05 -1.573282e-05
000070 56 f4 a5 b6 a7 eb f1 36 0e 05 8b 37 9c f1 a8 37
       -4.9458276e-06 7.2097932e-06 1.6572445e-05 2.0139669e-05
000080 34 56 93 37 b1 de 27 37 6a 78 9b 35 ad 0e b7 b6
       1.7563907e-05 1.0005825e-05 1.1583445e-06 -5.4555335e-06
000090 2f 4c e0 b6 a6 9b e6 b5 80 30 06 37 e3 49 a0 37
       -6.684589e-06 -1.7181635e-06 7.998315e-06 1.9107893e-05
0000a0 c6 22 e6 37 2f 24 f7 37 0d ce cc 37 02 70 59 37
       2.743433e-05 2.9461544e-05 2.4414645e-05 1.2960287e-05
0000b0 e8 87 be b5 57 9e 6e b7 44 b7 af b7 7c 26 a3 b7
       -1.4195657e-06 -1.4222772e-05 -2.0946965e-05 -1.9449035e-05
0000c0 b7 88 2b b7 ed d2 75 36 56 f2 8c 37 2b 4e d2 37
       -1.0224226e-05 3.663062e-06 1.6802147e-05 2.507035e-05
0000d0 61 1d dc 37 77 d0 ae 37 d7 31 41 37 d2 44 08 36
       2.6239724e-05 2.083949e-05 1.1515301e-05 2.0305638e-06
0000e0 2b 6f 7b b6 01 8f 49 b6 04 93 9c 36 76 ea 88 37
       -3.7466623e-06 -3.0034573e-06 4.666277e-06 1.6321643e-05
0000f0 b7 81 e5 37 dc e3 0c 38 87 dc 0a 38 56 41 d9 37
       2.735933e-05 3.359081e-05 3.3107146e-05 2.589884e-05
000100 29 f8 6c 37 a9 f0 bf 35 b9 33 0a b7 3e 00 43 b7
       1.41244755e-05 1.430065e-06 -8.237484e-06 -1.1622962e-05
000110 1a 38 fe b6 ff 0d 2d 36 2a 1c 7a 37 94 c1 c8 37
       -7.576321e-06 2.5787156e-06 1.4907719e-05 2.3932e-05
000120 46 21 db 37 58 1d ae 37 42 a8 24 37 e4 81 55 b6
       2.6122329e-05 2.075608e-05 9.814337e-06 -3.181508e-06
000130 30 d0 6d b7 76 66 a2 b7 b6 cf 8d b7 c4 90 04 b7
       -1.4174773e-05 -1.9359617e-05 -1.6905233e-05 -7.901519e-06
000140 0c 4e a3 36 d5 ea 91 37 9f c3 db 37 0c c0 f5 37
       4.8668644e-06 1.73947e-05 2.6197928e-05 2.9295705e-05
000150 33 8c e5 37 8e 16 c1 37 01 dd a2 37 0e 15 9d 37
       2.7364213e-05 2.3017896e-05 1.9414818e-05 1.8725663e-05
000160 10 b9 bb 37 96 c3 fb 37 e4 f7 24 38 c2 5b 43 38
       2.2378314e-05 3.0012608e-05 3.9331513e-05 4.657708e-05
000170 ad 1a 4c 38 62 a4 3b 38 92 1a 14 38 18 66 bf 37
       4.8662234e-05 4.4737368e-05 3.5310695e-05 2.2816515e-05
000180 65 01 39 37 0f 4b 54 36 0c ea d2 35 5b dd da 36
       1.1027184e-05 3.1634152e-06 1.5714336e-06 6.5226754e-06
000190 8d 28 82 37 31 bf ce 37 70 1f 00 38 99 64 01 38
       1.551609e-05 2.4646144e-05 3.0546857e-05 3.0849686e-05
0001a0 35 e5 d3 37 0e 7f 84 37 3b 56 9b 36 1b 1c b2 b6
       2.5259893e-05 1.579479e-05 4.6293985e-06 -5.3080853e-06
0001b0 b6 eb 39 b7 ab 21 45 b7 db 3d 08 b7 40 3b 76 b6
       -1.108174e-05 -1.1749954e-05 -8.1206335e-06 -3.6691345e-06
0001c0 4c bd 05 b6 d8 0f a3 b6 59 d5 4a b7 01 24 bb b7
       -1.992873e-06 -4.859623e-06 -1.2089812e-05 -2.2308903e-05
0001d0 5e f6 0a b8 6f bf 2f b8 22 80 3f b8 64 7b 34 b8
       -3.313121e-05 -4.1901538e-05 -4.565728e-05 -4.303026e-05
0001e0 dd 4c 13 b8 a3 37 d5 b7 3f 1f 9a b7 31 93 92 b7
       -3.5119116e-05 -2.5417487e-05 -1.837278e-05 -1.7473098e-05
0001f0 a3 89 c6 b7 b6 6a 14 b8 7b c1 4e b8 ea 37 81 b8
       -2.3667531e-05 -3.5385332e-05 -4.929442e-05 -6.161614e-05
000200 2a c4 90 b8 2c 72 94 b8 8f 2b 8c b8 5c 62 7b b8
       -6.9029935e-05 -7.078456e-05 -6.6838336e-05 -5.9934668e-05
000210 2d b7 61 b8 40 d4 57 b8 95 0d 63 b8 5d 1c 80 b8
       -5.3814776e-05 -5.1457668e-05 -5.4133667e-05 -6.108799e-05
000220 7d 8a 93 b8 36 ce a5 b8 b4 7c b1 b8 88 61 b3 b8
       -7.035302e-05 -7.906223e-05 -8.4632455e-05 -8.553552e-05
000230 41 8e ab b8 79 97 9e b8 ea 21 93 b8 1c 73 8f b8
       -8.180412e-05 -7.562241e-05 -7.015823e-05 -6.840212e-05
000240 d5 e1 95 b8 93 42 a5 b8 70 bb b9 b8 64 16 cd b8
       -7.146938e-05 -7.8802135e-05 -8.8564004e-05 -9.779332e-05
000250 c8 99 d8 b8 f1 57 d8 b8 da e4 cb b8 2d 09 b7 b8
       -0.000103283266 -0.00010316063 -9.722421e-05 -8.727829e-05
000260 99 9a a1 b8 b4 9e 92 b8 65 e5 8d b8 8c 92 92 b8
       -7.705874e-05 -6.991383e-05 -6.766132e-05 -6.989119e-05
000270 9a 48 9d b8 e9 ce a8 b8 c0 e6 af b8 c9 a7 ae b8
       -7.4998665e-05 -8.049404e-05 -8.387631e-05 -8.328219e-05
000280 88 82 a4 b8 96 7c 94 b8 26 fe 84 b8 bd 85 79 b8
       -7.844443e-05 -7.080396e-05 -6.341589e-05 -5.949078e-05
000290 7f 5c 80 b8 f7 35 8e b8 8b 79 a1 b8 cc d7 b4 b8
       -6.1207444e-05 -6.7811394e-05 -7.6997174e-05 -8.623264e-05
0002a0 48 26 c2 b8 01 06 c4 b8 3a 71 b8 b8 54 fa a1 b8
       -9.257771e-05 -9.3471266e-05 -8.794894e-05 -7.7237055e-05
0002b0 d2 ec 87 b8 89 57 63 b8 01 92 4b b8 2c b9 4b b8
       -6.481413e-05 -5.420254e-05 -4.853495e-05 -4.8571426e-05
0002c0 36 8a 5c b8 41 f0 70 b8 f1 ab 7c b8 8a f7 75 b8
       -5.2580806e-05 -5.7444213e-05 -6.0241615e-05 -5.864309e-05
0002d0 1c 38 5b b8 e7 0d 33 b8 7c 7e 07 b8 cd 9a cb b7
       -5.2265925e-05 -4.2689873e-05 -3.2304306e-05 -2.427157e-05
0002e0 8d 08 b6 b7 77 be d1 b7 b1 fe 07 b8 8b 0d 2d b8
       -2.1700072e-05 -2.5003434e-05 -3.2423708e-05 -4.1259027e-05
0002f0 3d cf 4c b8 f1 6d 5d b8 1a 1a 59 b8 bf b6 42 b8
       -4.8830396e-05 -5.2792897e-05 -5.176114e-05 -4.64234e-05
000300 45 75 24 b8 72 aa 0c b8 37 72 03 b8 c7 c0 0c b8
       -3.9209863e-05 -3.353734e-05 -3.1339205e-05 -3.355814e-05
000310 15 cd 24 b8 27 72 41 b8 ea 21 56 b8 39 73 57 b8
       -3.9291644e-05 -4.61211e-05 -5.105316e-05 -5.1367304e-05
000320 65 26 40 b8 06 4a 11 b8 11 3d a7 b7 5e 4a b1 b6
       -4.5812125e-05 -3.4639634e-05 -1.9936388e-05 -5.2836685e-06
000330 16 ca c1 36 40 3a 46 37 d5 85 5c 37 de 08 46 37
       5.775374e-06 1.1815282e-05 1.3144182e-05 1.1803784e-05
000340 8c 9d 27 37 18 6b 2a 37 24 39 5c 37 e0 e3 9f 37
       9.990657e-06 1.0157724e-05 1.3126326e-05 1.906039e-05
000350 dc c0 df 37 86 ae 0c 38 b7 3d 1c 38 f0 fc 19 38
       2.6673479e-05 3.354114e-05 3.7250775e-05 3.671361e-05
000360 cf 57 08 38 3f e9 de 37 62 ef b0 37 58 e1 94 37
       3.2506705e-05 2.6573076e-05 2.1092306e-05 1.7747909e-05
000370 cd 2a 95 37 f5 53 ba 37 eb 09 fe 37 10 60 25 38
       1.7782115e-05 2.2212023e-05 3.0283778e-05 3.942853e-05
000380 e4 a5 43 38 c0 fb 50 38 19 70 4e 38 79 ee 40 38
       4.664612e-05 4.9825525e-05 4.9218626e-05 4.5998462e-05
000390 40 c5 30 38 5d 22 25 38 50 07 23 38 93 b8 28 38
       4.2145373e-05 3.937107e-05 3.886904e-05 4.022622e-05
0003a0 5d 2f 33 38 7d a9 3c 38 dc 88 3e 38 69 0b 35 38
       4.2721036e-05 4.498054e-05 4.542699e-05 4.316439e-05
0003b0 fa ff 24 38 c3 87 13 38 49 98 05 38 92 18 fa 37
       3.9339044e-05 3.517397e-05 3.1851498e-05 2.9813764e-05
0003c0 a1 f8 fd 37 81 51 08 38 23 28 15 38 b0 05 1e 38
       3.0275727e-05 3.2500833e-05 3.556175e-05 3.7675432e-05
0003d0 76 a7 1d 38 d5 66 0f 38 9a 14 e6 37 32 47 a0 37
       3.7587677e-05 3.4189627e-05 2.742773e-05 1.910664e-05
0003e0 cb c8 34 37 66 0a 86 36 51 48 0d b4 b1 0f b3 b5
       1.0775587e-05 3.9947217e-06 -1.3157957e-07 -1.3341106e-06
0003f0 7c aa f7 34 72 41 8e 36 ae f5 0d 37 85 0d 5a 37
       4.613138e-07 4.2395486e-06 8.461457e-06 1.299696e-05

exp_avg_sq f4 [8, 1, 1, 256]
000000 7a c6 e0 32 72 38 d1 32 55 7a cf 32 1b 7a f4 32
       2.6167289e-08 2.435647e-08 2.4153602e-08 2.8460866e-08
000010 e6 28 16 33 34 1c 22 33 bc 7a 11 33 2d 88 e6 32
       3.4961793e-08 3.7744215e-08 3.387207e-08 2.683745e-08
000020 7a e6 c0 32 f0 63 bf 32 10 e2 c5 32 c5 d5 be 32
       2.245655e-08 2.2280773e-08 2.303662e-08 2.2216122e-08
000030 68 43 bb 32 1e 27 d7 32 7d 1c 05 33 00 30 13 33
       2.1800318e-08 2.5047083e-08 3.0992386e-08 3.426976e-08
000040 d8 42 06 33 63 6a d4 32 b5 8d b3 32 3d 28 be 32
       3.12601e-08 2.4728427e-08 2.0902784e-08 2.213721e-08
000050 d9 bc d3 32 d6 bd cd 32 4f be b1 32 c8 23 a5 32
       2.464951e-08 2.3951468e-08 2.0692054e-08 1.92248e-08
000060 e4 83 b7 32 91 c0 cc 32 9c 16 c3 32 c5 14 a4 32
       2.136398e-08 2.3836295e-08 2.271127e-08 1.9101558e-08
000070 49 7e 9c 32 ce 5f c0 32 f9 d5 eb 32 2e b2 ec 32
       1.8218218e-08 2.2395309e-08 2.7454904e-08 2.7555043e-08
000080 b5 41 c0 32 9b b2 94 32 ee a6 8f 32 02 8e a3 32
       2.2381622e-08 1.7310688e-08 1.6723302e-08 1.9040275e-08
000090 c8 58 a8 32 3c af 94 32 d2 1b 8b 32 89 43 a7 32
       1.9598147e-08 1.7309155e-08 1.6194381e-08 1.947207e-08
0000a0 25 9e d1 32 24 6c d9 32 5d 05 b4 32 a3 50 8d 32
       2.4402718e-08 2.5311301e-08 2.0957197e-08 1.645123e-08
0000b0 52 7f 92 32 81 f1 ba 32 2e 14 d4 32 e2 09 c1 32
       1.7054536e-08 2.1763073e-08 2.4689225e-08 2.2472651e-08
0000c0 b0 67 9d 32 28 eb 95 32 17 1c ad 32 37 7e bc 32
       1.8324357e-08 1.745282e-08 2.0152624e-08 2.1943476e-08
0000d0 97 8b af 32 60 f6 a3 32 f9 c7 c2 32 0c 67 02 33
       2.043616e-08 1.9087736e-08 2.267551e-08 3.0361704e-08
0000e0 91 da 18 33 0f a2 0f 33 b9 2d e4 32 f2 7c bc 32
       3.5589043e-08 3.3442173e-08 2.6563486e-08 2.1942899e-08
0000f0 34 5f c2 32 05 ca d6 32 4f 1c d5 32 4b 78 c7 32
       2.2627866e-08 2.5004747e-08 2.4809337e-08 2.3221352e-08
000100 cd 82 d4 32 b3 be 01 33 7a 7a 14 33 88 0b 0d 33
       2.473953e-08 3.0208593e-08 3.4570327e-08 3.283961e-08
000110 9e 76 e6 32 48 2a cb 32 2e c6 e8 32 62 4e 0d 33
       2.6829465e-08 2.3651538e-08 2.7098476e-08 3.290041e-08
000120 cb ac 12 33 7b 2f ff 32 af 91 d4 32 22 79 cb 32
       3.415043e-08 2.9707499e-08 2.4746297e-08 2.3687395e-08
000130 49 a4 d7 32 4e 91 d6 32 7b c4 ca 32 7d 0b e1 32
       2.5104002e-08 2.4978956e-08 2.3605244e-08 2.6198672e-08
000140 18 63 18 33 d1 09 46 33 40 ca 53 33 59 74 36 33
       3.5480383e-08 4.6109395e-08 4.931121e-08 4.2480995e-08
000150 17 04 09 33 43 cf da 32 13 f3 d3 32 0c 1b d9 32
       3.1901518e-08 2.5472792e-08 2.467417e-08 2.5274424e-08
000160 5b ab d5 32 2e 07 e5 32 5f 06 12 33 73 e8 3a 33
       2.4874387e-08 2.6662374e-08 3.399907e-08 4.351791e-08
000170 a2 95 4a 33 43 27 32 33 2a 2c 0a 33 fd b8 ee 32
       4.716788e-08 4.1479563e-08 3.2170796e-08 2.779097e-08
000180 72 1c 02 33 2d c4 11 33 11 6b 0f 33 7b 1c 03 33
       3.0293855e-08 3.3938864e-08 3.339216e-08 3.0526717e-08
000190 ca 8a 05 33 6c b2 1a 33 70 83 2a 33 57 09 22 33
       3.1092704e-08 3.6018193e-08 3.970075e-08 3.772706e-08
0001a0 72 61 0f 33 43 26 11 33 a5 5a 2e 33 19 a5 4a 33
       3.3383408e-08 3.3795242e-08 4.0594973e-08 4.7181945e-08
0001b0 7a 32 47 33 e8 73 28 33 84 17 10 33 e4 bf 12 33
       4.6379206e-08 3.9220964e-08 3.3549e-08 3.4167797e-08
0001c0 64 5b 20 33 08 31 1e 33 f9 88 0c 33 47 db 04 33
       3.7336022e-08 3.6831835e-08 3.2720866e-08 3.0933077e-08
0001d0 5e fe 14 33 9a 72 29 33 4a b8 24 33 c2 16 07 33
       3.469028e-08 3.945261e-08 3.8351835e-08 3.1452835e-08
0001e0 d1 4b e3 32 c6 8b fa 32 55 10 1a 33 09 0a 23 33
       2.6460755e-08 2.9167392e-08 3.5870773e-08 3.7960522e-08
0001f0 2f f2 0b 33 f7 03 db 32 59 4f c7 32 c6 cf d7 32
       3.2583724e-08 2.5496758e-08 2.3202732e-08 2.5123779e-08
000200 cf 01 dd 32 d2 e2 c8 32 8c 8d ca 32 c3 75 06 33
       2.5728609e-08 2.338621e-08 2.3580263e-08 3.130641e-08
000210 57 55 37 33 ca 8d 4d 33 8e f5 34 33 3c 48 06 33
       4.2685624e-08 4.785924e-08 4.2132847e-08 3.1265003e-08
000220 38 6a d2 32 d4 de d1 32 82 db df 32 0f c5 d7 32
       2.449552e-08 2.4432133e-08 2.6060437e-08 2.5118906e-08
000230 dc 60 d0 32 53 82 f5 32 ac 4c 1e 33 19 26 31 33
       2.4258433e-08 2.8581018e-08 3.6856974e-08 4.1245674e-08
000240 61 e6 1d 33 96 c5 ef 32 22 6b cb 32 ca 7c e8 32
       3.676394e-08 2.7913114e-08 2.3681029e-08 2.7065102e-08
000250 20 f3 09 33 e1 61 08 33 5b eb e2 32 57 21 c2 32
       3.211892e-08 3.1753988e-08 2.641689e-08 2.2599734e-08
000260 f3 52 cb 32 5a 6e dd 32 7a 9b d0 32 43 23 b6 32
       2.3670031e-08 2.5777968e-08 2.428509e-08 2.1203624e-08
000270 f0 91 c6 32 e9 9d 09 33 73 57 31 33 43 40 35 33
       2.3116598e-08 3.2041417e-08 4.129056e-08 4.2200792e-08
000280 b5 7f 11 33 03 a6 ce 32 61 4e ab 32 af 5b b2 32
       3.3876592e-08 2.405705e-08 1.9942663e-08 2.076362e-08
000290 0a e6 b6 32 58 ac ae 32 2e 5b be 32 98 b9 fc 32
       2.1292198e-08 2.0334639e-08 2.2160375e-08 2.942106e-08
0002a0 47 b0 21 33 80 ad 28 33 7f 6d 0c 33 eb c9 d4 32
       3.7646057e-08 3.9273345e-08 3.2695876e-08 2.477187e-08
0002b0 3e 4c c5 32 e5 3c e6 32 f5 e2 fd 32 87 29 ec 32
       2.296849e-08 2.6803216e-08 2.9556285e-08 2.74929e-08
0002c0 dd ea ce 32 b4 73 d2 32 85 aa f3 32 57 4b 02 33
       2.408836e-08 2.4499833e-08 2.8366467e-08 3.0336505e-08
0002d0 f9 11 ee 32 e5 d5 d4 32 f4 46 ec 32 c3 e8 16 33
       2.771502e-08 2.4777316e-08 2.7506282e-08 3.5136292e-08
0002e0 c6 aa 2c 33 c9 b2 20 33 93 1c 00 33 bb 4f d4 32
       4.020219e-08 3.7415507e-08 2.982831e-08 2.4716305e-08
0002f0 dd 02 d7 32 ca 0b e8 32 78 d6 e1 32 7c 6b cf 32
       2.5030596e-08 2.7013716e-08 2.6290977e-08 2.414685e-08
000300 54 f9 d9 32 1c 1a 04 33 f8 97 15 33 9a 11 0c 33
       2.5375506e-08 3.075739e-08 3.482998e-08 3.26123e-08
000310 4f 18 e1 32 17 03 c2 32 29 cf d8 32 8b 63 01 33
       2.6204502e-08 2.2585978e-08 2.5239915e-08 3.0125687e-08
000320 0f 71 04 33 55 2d e3 32 b3 51 be 32 b6 d4 bd 32
       3.083647e-08 2.6446893e-08 2.2156064e-08 2.2099226e-08
000330 0f a7 cf 32 fa f5 cc 32 77 73 b6 32 17 f9 b6 32
       2.4173941e-08 2.3860583e-08 2.1240096e-08 2.1300862e-08
000340 ef 34 e8 32 ee 12 14 33 46 94 1c 33 60 70 04 33
       2.7032426e-08 3.447615e-08 3.6456434e-08 3.083585e-08
000350 e3 c9 c5 32 0a 80 a7 32 06 98 b0 32 c6 8d b9 32
       2.3025626e-08 1.9499584e-08 2.0558229e-08 2.1601306e-08
000360 78 c8 ae 32 55 ac aa 32 9b e7 ca 32 65 cf fe 32
       2.0347429e-08 1.9868972e-08 2.3621217e-08 2.9663804e-08
000370 22 c1 09 33 46 25 f2 32 cd cf bf 32 7f ec b2 32
       3.207345e-08 2.8189458e-08 2.2329823e-08 2.0829473e-08
000380 59 08 d1 32 b2 80 eb 32 cc 2c de 32 7e a1 ba 32
       2.4334598e-08 2.7416124e-08 2.5864573e-08 2.1726688e-08
000390 16 fc ab 32 c9 dc bc 32 5e 06 cc 32 4b 18 bd 32
       2.0021655e-08 2.1986482e-08 2.3751621e-08 2.2013543e-08
0003a0 02 47 a3 32 fd ba aa 32 bf 86 da 32 87 36 02 33
       1.9007988e-08 1.9875637e-08 2.5439816e-08 3.0317576e-08
0003b0 59 fb fa 32 cb 98 c7 32 bd d6 9c 32 54 53 99 32
       2.921813e-08 2.3236131e-08 1.8258442e-08 1.7849437e-08
0003c0 79 23 a9 32 4d 57 a8 32 e5 bb 96 32 d8 84 96 32
       1.969032e-08 1.9597474e-08 1.7547743e-08 1.7522709e-08
0003d0 3a a8 b8 32 9f 60 de 32 7c af dd 32 cc 92 b7 32
       2.149692e-08 2.588814e-08 2.5807587e-08 2.137076e-08
0003e0 33 dd 97 32 fc a6 9f 32 c1 09 be 32 02 d2 c7 32
       1.7679303e-08 1.8585972e-08 2.2123347e-08 2.326215e-08
0003f0 69 d2 ae 32 e4 26 92 32 b8 60 92 32 e4 29 a6 32
       2.035195e-08 1.7014322e-08 1.704062e-08 1.9343993e-08

exp_avg f4 [8]
000000 b2 59 51 31 2b 5d 35 31 89 0f 4b 31 e1 d6 d6 30
       3.0464489e-09 2.6391926e-09 2.9549219e-09 1.5631622e-09
000010 09 37 ca b0 89 7c 3b 31 25 94 8d 31 9c 50 7e b1
       -1.4713076e-09 2.7282872e-09 4.120482e-09 -3.7007686e-09

exp_avg_sq f4 [8]
000000 61 dd 40 25 9c f9 da 24 66 dd 5d 24 62 0c 00 23
       1.6728351e-16 9.4965284e-17 4.8109268e-17 6.941516e-18
000010 11 bd 33 24 72 bb 4d 24 63 39 83 23 9e af 0d 25
       3.8974583e-17 4.461106e-17 1.4227353e-17 1.2289302e-16

exp_avg f4 [8]
000000 0c 8b a1 2f 82 14 03 b1 54 dd 40 b0 35 7a a5 b0
       2.9384528e-10 -1.9074666e-09 -7.016372e-10 -1.2040063e-09
000010 5c f9 c6 2f 3f 46 83 ae 3e 7d e2 2f a5 2c c6 af
       3.619317e-10 -5.9696685e-11 4.119815e-10 -3.6047712e-10

exp_avg_sq f4 [8]
000000 ea d3 23 22 3e b8 28 22 2c 0e e6 21 03 0f bd 21
       2.2202806e-18 2.2865783e-18 1.5589157e-18 1.2811112e-18
000010 26 86 b8 20 1b 92 51 22 fb fc b3 20 24 bb c1 21
       3.1259584e-19 2.840213e-18 3.0491188e-19 1.3127724e-18
