model/all_subjects_20240208_105943/checkpoints/epoch1_0.6328.pt (torch, 195725 bytes, 39 tensors)

net.conv.weight f4 [8, 1, 1, 256]
0.12627582 0.2071945 0.18626505 0.047055613 0.022194222 -0.018787604 -0.007579361 -0.06890178
0.032730035 0.15762722 0.14671588 0.24305552 0.22690947 0.13010746 0.107907385 -0.051948737
-0.13586842 -0.1088536 -0.090558484 0.011775432 0.09392627 0.062515914 0.050943356 0.1081643
0.037350632 -0.13226677 -0.19336578 -0.1112771 -0.18374303 -0.037191432 -0.011769137 0.06447364
0.1904085 0.08279142 0.010218676 0.009182057 -0.100497566 -0.14183454 -0.04277294 -0.10494775
0.024772748 0.0512637 0.06777085 0.026632322 -0.039390247 -0.18852699 -0.29608756 -0.33026394
-0.2834488 -0.24879116 -0.097006686 0.0065666535 0.0041175466 -0.0050547784 -0.123926654 -0.19862953
-0.27364898 -0.2959677 -0.26256546 -0.11018867 -0.062289506 0.12470202 0.15313198 0.25652322
0.23356509 0.07016486 -0.06935445 -0.04903627 -0.21548235 -0.14305295 -0.0752507 0.037663434
0.04473723 0.07101276 -0.04561576 -0.12619431 -0.16280504 -0.11609348 -0.08984386 -0.09758359
0.06371179 0.10600505 0.21458307 0.16824426 0.09901982 0.0738391 0.07498149 -0.036360696
-0.09335561 -0.05627224 -0.023423696 0.09541167 0.11320167 0.15539166 0.06753376 0.0084367655
-0.0053072707 -0.10759515 -0.087468565 -0.1566307 0.015208191 0.018122664 0.17466417 0.13701239
0.1434807 0.023840185 -0.03842438 -0.14880544 -0.13655226 -0.19670391 -0.11776262 -0.03782579
0.064483814 0.1701601 0.16180399 0.043133866 -0.039844148 -0.11565054 -0.20752876 -0.17503285
-0.20458572 -0.11772472 -0.13518144 -0.024307014 -0.0005513345 -0.14204156 -0.2933872 -0.3275019
-0.45523643 -0.61446166 -0.63329875 -0.56987685 -0.44672507 -0.3390707 -0.23446865 -0.17313908
-0.21202606 -0.3047347 -0.3696198 -0.3724872 -0.39467436 -0.24965546 -0.23524742 -0.10000586
-0.052903604 -0.058602322 -0.05736211 -0.20189062 -0.23771016 -0.20976311 -0.096579686 0.06657003
0.1838624 0.44416502 0.47550687 0.4441949 0.36191785 0.3047147 0.071268365 -0.02783585
-0.07662447 -0.080123 -0.0170612 0.06255633 0.13118927 0.11889688 0.20932637 0.14842965
-0.013357452 0.02854372 0.046985276 0.043082513 0.21114281 0.29473788 0.4788697 0.56673765
0.52133006 0.5326183 0.454958 0.3467109 0.32425815 0.32549793 0.35174334 0.48043007
0.48449934 0.5356421 0.5037927 0.3676635 0.15830971 0.058637388 -0.0015412492 -0.04094068
0.02007855 0.07593287 0.111237735 0.053305406 0.06188381 -0.13553132 -0.28476936 -0.43626565
-0.48508477 -0.40525243 -0.31857055 -0.26417387 -0.04547191 -0.00398292 0.03219369 0.0058360645
0.024763517 -0.057315778 -0.2417607 -0.25763485 -0.2650287 -0.24982613 -0.13134557 -0.057061538
-0.013042089 -0.03516083 -0.18767568 -0.23545408 -0.3732002 -0.41061974 -0.33700934 -0.25953713
-0.104329534 -0.10657741 0.03772994 0.031730663 -0.01627354 -0.053718615 -0.15394983 -0.14566542
-0.1078377 -0.041650075 0.054443028 0.1874637 0.24318668 0.29605788 0.1994022 0.15836635
0.059061795 0.09441473 0.07132302 0.20180055 0.20981221 0.34013063 0.43744686 0.4408757
0.46145383 0.34563127 0.26524857 0.110792115 0.09418108 0.023318637 0.116925485 0.22624484
00000000: 734e 013e cc2a 543e 44bc 3e3e 63bd 403d
00000010: a8d0 b53c 76e8 99bc 4a5c f8bb 601c 8dbd
00000020: ee0f 063d 0869 213e b03c 163e 8ce3 783e
00000030: f55a 683e e43a 053e 8cfe dc3d 33c8 54bd
00000040: 1721 0bbe a3ee debd ba76 b9bd beed 403c
00000050: 6b5c c03d 5808 803d fba9 503d 3f85 dd3d
00000060: fafc 183d f170 07be ae01 46be 40e5 e3bd
00000070: 2227 3cbe 0b56 18bd 57d3 40bc c10a 843d
00000080: 72fa 423e 8c8e a93d 3c6c 273c 5770 163c
00000090: abd1 cdbd 133d 11be ae32 2fbd d9ee d6bd
000000a0: 38f0 ca3c e3f9 513d 72cb 8a3d 072c da3c
000000b0: ab57 21bd 380d 41be ca98 97be 5b18 a9be
000000c0: 3320 91be 1cc3 7ebe 71ab c6bd 152d d73b
000000d0: 7cec 863b 8ea2 a5bb 42cd fdbd 8a65 4bbe
000000e0: b81b 8cbe 1489 97be fb6e 86be 99aa e1bd
000000f0: 4823 7fbd c663 ff3d a1ce 1c3e 0357 833e
00000100: b02b 6f3e 98b2 8f3d b509 8ebd 41da 48bd
00000110: 68a7 5cbe 797c 12be 0a1d 9abd f944 1a3d
00000120: 633e 373d 236f 913d 97d7 3abd 1539 01be
00000130: 5db6 26be 6bc2 edbd 0f00 b8bd e8d9 c7bd
00000140: 547b 823d 2d19 d93d aabb 5b3e 3948 2c3e
00000150: e7ca ca3d f438 973d e58f 993d f4ee 14bd
00000160: 3a31 bfbd b87d 66bd 0de3 bfbc 3267 c33d
00000170: 47d6 e73d fe1e 1f3e 244f 8a3d 5c3a 0a3c
00000180: 9de8 adbb d95a dcbd b822 b3bd cc63 20be
00000190: c72b 793c fb75 943c 2adb 323e fa4c 0c3e
000001a0: 9bec 123e 7e4c c33c e262 1dbd 7460 18be
000001b0: 5bd4 0bbe c06c 49be 872d f1bd 37ef 1abd
000001c0: 1710 843d 733e 2e3e f2af 253e 23ad 303d
000001d0: 9e33 23bd 31da ecbd 6b82 54be d03b 33be
000001e0: eb7e 51be a819 f1bd 016d 0abe 811f c7bc
000001f0: 6f87 10ba 5873 11be d936 96be 54ae a7be
00000200: c014 e9be 5c4d 1dbf de1f 22bf 73e3 11bf
00000210: 26b9 e4be ad9a adbe 8d18 70be 5f4b 31be
00000220: 5c1d 59be 3006 9cbe ce3e bdbe a4b6 bebe
00000230: c212 cabe aea5 7fbe b3e4 70be dfcf ccbd
00000240: 73b1 58bd fd08 70bd 88f4 6abd 6abc 4ebe
00000250: 4b6a 73be 24cc 56be 92cb c5bd de55 883d
00000260: 6d46 3c3e 9969 e33e a375 f33e 846d e33e
00000270: 4c4d b93e 9103 9c3e 26f5 913d 0208 e4bc
00000280: 4aed 9cbd 8717 a4bd eec3 8bbc 881d 803d
00000290: 7b56 063e 3580 f33d a759 563e f1fd 173e
000002a0: 37d9 5abc 85d4 e93c a273 403d 4a77 303d
000002b0: d235 583e e2e7 963e 692e f53e b815 113f
000002c0: e375 053f ac59 083f 41f0 e83e 1784 b13e
000002d0: 2a05 a63e aaa7 a63e b417 b43e eefa f53e
000002e0: 4c10 f83e d71f 093f 8ff8 003f 643e bc3e
000002f0: f11b 223e c22d 703d be03 caba 6ab1 27bd
00000300: c57b a43c b182 9b3d 9cd0 e33d c556 5a3d
00000310: e179 7d3d b9c8 0abe 4acd 91be 365e dfbe
00000320: 085d f8be 3f7d cfbe ae1b a3be cc41 87be
00000330: c140 3abd 2883 82bb 88dd 033d 753c bf3b
00000340: dcdc ca3c f3c3 6abd 1e90 77be b7e8 83be
00000350: d7b1 87be 6cd2 7fbe 747f 06be 5cb9 69bd
00000360: 7cae 55bc cd04 10bd 0e2e 40be e01a 71be
00000370: 1914 bfbe c03c d2be 7d8c acbe 0de2 84be
00000380: b9aa d5bd 4245 dabd b68a 1a3d 03f8 013d
00000390: 1650 85bc 0d08 5cbd 06a5 1dbe 5129 15be
000003a0: 03da dcbd 4599 2abd a7ff 5e3d 7cf6 3f3e
000003b0: ee05 793e e694 973e 1730 4c3e ca2a 223e
000003c0: c8ea 713d 835c c13d ce11 923d cea4 4e3e
000003d0: 03d9 563e 9a25 ae3e 09f9 df3e 76ba e13e
000003e0: ad43 ec3e 95f6 b03e a9ce 873e fae6 e23d
000003f0: 03e2 c03d ba06 bf3c a176 ef3d baac 673e

net.bn1.weight f4 [8]
1.1161101 1.1334858 1.2228656 1.0327711 1.3026934 1.1671449 1.0887387 1.1809814
00000000: b2dc 8e3f 1016 913f dc86 9c3f d831 843f
00000010: a8be a63f 0165 953f ca5b 8b3f 662a 973f

net.bn1.bias f4 [8]
-0.017924875 0.008437755 0.093443185 -0.059253775 -0.03995322 0.23021896 -0.04176082 -0.037576918
00000000: 30d7 92bc 823e 0a3c 245f bf3d 16b4 72bd
00000010: fda5 23bd 85be 6b3e 650d 2bbd 41ea 19bd

net.bn1.running_mean f4 [8]
1.9814577e-05 -0.00032683168 0.00016229278 -0.00026793574 0.00022804049 5.552904e-05 -3.153699e-05 0.00029610848
00000000: 7b37 a637 9b5a abb9 232d 2a39 ba79 8cb9
00000010: 271e 6f39 dae7 6838 9646 04b8 023f 9b39

net.bn1.running_var f4 [8]
104.32675 71.64959 152.19969 91.063995 110.95914 116.12661 90.85808 113.144264
00000000: 4ca7 d042 974c 8f42 1f33 1843 c420 b642
00000010: 14eb dd42 d340 e842 56b7 b542 dd49 e242

net.depth_conv.weight f4 [16, 1, 32, 1]
0.20462194 0.02523555 -0.06678458 0.07494684 0.32044715 -0.3730841 -0.41256705 0.285252
0.2052951 -0.34530443 0.19687298 -0.021868281 -0.62895876 -0.126882 -0.08953209 -0.17492728
-0.18608351 -0.0078086304 -0.37666026 -0.10644682 0.0066675264 -0.118755855 -0.2121628 0.04459443
0.045017194 -0.33423176 0.26386598 0.021616617 0.35452837 0.4059477 0.08922616 -0.20695657
-0.0908802 0.07679391 0.3608622 -0.5896226 0.100171484 0.064501554 -0.28709257 -0.32357982
0.18968345 0.30490226 -0.12145367 0.12949874 0.12420188 -0.02950227 0.02645496 0.4025694
0.20560919 -0.07529066 0.58949625 -0.27957702 0.094809145 0.020526366 -0.44509283 -0.29055914
0.459294 0.15524726 0.16688816 -0.001945033 0.085502215 -0.39672357 -0.014423784 -0.18797827
-0.20979464 -0.06474697 -0.25521076 -0.108741805 0.044030268 0.3200723 -0.2616814 0.14409156
0.10058649 0.022227917 -0.03325295 0.042493794 0.042213365 0.2397123 0.10124715 -0.24634095
0.18333803 0.424989 0.16725785 0.19773921 0.34826505 -0.078019656 0.09374768 -0.20475939
0.40849814 -0.0913609 -0.11480103 0.046726555 -0.16137257 -0.04574987 -0.10250353 -0.11706138
0.03968445 -0.20852776 -0.8798559 0.6650981 0.03035526 -0.29145402 -0.0062952912 -0.10213748
0.18167157 0.34267843 -0.019297807 0.2385922 0.5366315 -0.027352909 0.1491006 0.02042778
-0.12829553 -0.18434732 -0.5368793 0.35824236 0.2055524 -0.23224078 0.026727548 0.17096141
0.018190846 -0.1865208 -0.44173366 0.2385431 -0.08346108 0.026056834 0.23354748 -0.275604
-0.10460504 -0.30313137 -0.15764573 -0.365057 -0.33337778 -0.25552833 0.38598287 1.1211115
-0.31275213 0.040560286 -0.34351617 -0.005193538 0.28004512 0.26051638 0.17011404 -0.19856755
0.12592399 -0.058793943 0.16572692 0.048481096 0.14512536 -0.037339006 -0.053967476 0.60010695
-0.34707788 -0.5448116 0.7134899 -0.010375392 -0.24526727 0.06812942 -0.06853189 0.13367285
-0.15588172 0.31189483 0.2984252 -0.09461941 0.6168507 -0.16356608 0.31747583 0.031867743
0.35023278 -1.0374006 -0.07778594 0.06574447 0.08221143 0.4055611 -0.36001065 -0.29482895
0.15626302 0.1376271 0.37125456 0.27127126 0.33976382 -0.020617716 -0.24244861 0.15952078
-0.6356098 -0.40947953 -0.074208654 -0.2884095 -0.10224091 -0.14746726 0.2559216 -0.13023423
0.011828484 -0.48947445 -0.12317656 0.26167545 0.11032229 0.03297294 -0.175275 -0.6939506
0.120901145 0.7769511 0.17662738 -0.109091826 -0.037334934 -0.3056867 0.09333537 0.19379087
-0.2402952 0.44043705 -0.2581498 -0.1815598 -0.26985705 -0.0029137733 0.28317207 -0.2736349
0.5711342 0.50526345 -0.09553475 0.057388507 0.22013025 -0.30289903 -0.21848254 0.0034895833
-0.2947798 0.3238318 0.3210065 -0.13037366 0.3257006 -0.1415908 0.061374694 0.023968881
-0.17753181 -0.97667557 -0.0058599724 0.07948909 0.24336983 0.17717908 -0.10232375 -0.30013853
0.3312429 0.061605334 0.13059631 -0.20272398 0.40475386 -0.15219839 -0.4298479 -0.13125207
-0.31402948 -0.15404733 -0.12001564 -0.276519 -0.048006605 0.5139635 0.30219027 0.052008007
00000000: 6a88 513e c9ba ce3c 5bc6 88bd bb7d 993d
00000010: a611 a43e e104 bfbe fd3b d3be 8d0c 923e
00000020: e138 523e becb b0be 1299 493e 1c25 b3bc
00000030: 7103 21bf 5bed 01be 9a5c b7bd 2320 33be
00000040: ad8c 3ebe 8adf ffbb 9dd9 c0be ca00 dabd
00000050: 447b da3b 4536 f3bd 3441 59be a6a8 363d
00000060: f363 383d 6d20 abbe 7119 873e 5515 b13c
00000070: be84 b53e 60d8 cf3e 34bc b63d 6cec 53be
00000080: 661f babd 2046 9d3d eec2 b83e 82f1 16bf
00000090: b526 cd3d 6419 843d ccfd 92be 41ac a5be
000000a0: 613c 423e 261c 9c3e b4bc f8bd 519b 043e
000000b0: 8e5d fe3d bfae f1bc 13b8 d83c 941d ce3e
000000c0: 378b 523e fd31 9abd 3ae9 163f b824 8fbe
000000d0: 4c2b c23d e926 a83c 35e3 e3be 2bc4 94be
000000e0: 9528 eb3e 23f9 1e3e bbe4 2a3e 7af0 feba
000000f0: c91b af3d 5a1f cbbe bc51 6cbc 607d 40be
00000100: 68d4 56be 0f9a 84bd fcaa 82be 06b4 debd
00000110: 1559 343d 84e0 a33e 1bfb 85be bd8c 133e
00000120: 4a00 ce3d 5217 b63c 3f34 08bd f90d 2e3d
00000130: ece7 2c3d 2477 753e aa5a cf3d cd40 7cbe
00000140: f7bc 3b3e 2998 d93e a445 2b3e 267c 4a3e
00000150: cc4f b23e c5c8 9fbd c9fe bf3d 72ac 51be
00000160: ab26 d13e 6c1b bbbd cd1c ebbd 5864 3f3d
00000170: da3e 25be 3764 3bbd 5fed d1bd e0bd efbd
00000180: 298c 223d 4d88 55be 3c3e 61bf de43 2a3f
00000190: 98ab f83c 7639 95be bb48 cebb 752d d1bd
000001a0: 1d08 3a3e 8c73 af3e 6f16 9ebc 8451 743e
000001b0: af60 093f 3513 e0bc d4ad 183e 2958 a73c
000001c0: e75f 03be 8bc5 3cbe ec70 09bf 8b6b b73e
000001d0: 547c 523e 87d0 6dbe bbf3 da3c 8210 2f3e
000001e0: f804 953c 4fff 3ebe ea2a e2be a444 743e
000001f0: a5ed aabd 2475 d53c 1227 6f3e f81b 8dbe
00000200: 2b3b d6bd 0934 9bbe e26d 21be c0e8 babe
00000210: 7eb0 aabe 9cd4 82be 8c9f c53e 9580 8f3f
00000220: 0c21 a0be 8b22 263d 5ae1 afbe 8e2e aabb
00000230: 1362 8f3e 6762 853e 6032 2e3e 4b55 4bbe
00000240: 38f2 003e ebd1 70bd 51b4 293e 1d94 463d
00000250: be9b 143e c9f0 18bd 000d 5dbd 9ca0 193f
00000260: 31b4 b1be c678 0bbf 46a7 363f 8cfd 29bc
00000270: 5827 7bbe 7087 8b3d 735a 8cbd 89e1 083e
00000280: 759f 1fbe aeb0 9f3e 30cb 983e d2c7 c1bd
00000290: ede9 1d3f de7d 27be 318c a23e c087 023d
000002a0: b651 b33e 8bc9 84bf 3c4e 9fbd 09a5 863d
000002b0: 775e a83d b4a5 cf3e 5153 b8be d2f3 96be
000002c0: 6a03 203e 1eee 0c3e 1415 be3e 11e4 8a3e
000002d0: 86f5 ad3e 7ce6 a8bc 7344 78be 6a59 233e
000002e0: 53b7 22bf 4da7 d1be b5fa 97bd 69aa 93be
000002f0: af63 d1bd a801 17be 2808 833e 1f5c 05be
00000300: 42cc 413c 659c fabe fe43 fcbd 53fa 853e
00000310: a7f0 e13d a20e 073d 4a7b 33be bfa6 31bf
00000320: 059b f73d 44e6 463f cfdd 343e 896b dfbd
00000330: 84ec 18bd f882 9cbe 9d26 bf3d 1d71 463e
00000340: f20f 76be f780 e13e 362c 84be d0ea 39be
00000350: b42a 8abe 01f5 3ebb eefb 903e e019 8cbe
00000360: da35 123f f258 013f b9a7 c3bd 3610 6b3d
00000370: d369 613e 9515 9bbe e3b9 5fbe 7eb1 643b
00000380: 61ed 96be 48cd a53e f75a a43e ac80 05be
00000390: 3bc2 a63e 2efd 10be 0864 7b3d 635a c43c
000003a0: e6ca 35be 6907 7abf 0305 c0bb 2dcb a23d
000003b0: f135 793e 6f6e 353e 1d8f d1bd c2ab 99be
000003c0: ab98 a93e e055 7c3d 0abb 053e e096 4fbe
000003d0: e63b cf3e e5d9 1bbe 0615 dcbe f166 06be
000003e0: 79c8 a0be 95be 1dbe c3ca f5bd e693 8dbe
000003f0: 93a2 44bd 1d93 033f afb8 9a3e 5906 553d

net.bn2.weight f4 [16]
1.3149229 1.2334024 0.7978303 1.2551858 1.4327605 1.2663369 1.3321885 1.159243
0.9074848 1.4117712 1.264417 1.4836917 0.82634425 1.1443568 0.8167435 1.3572735
00000000: 654f a83f 21e0 9d3f 9b3e 4c3f eea9 a03f
00000010: b264 b73f 5417 a23f 2785 aa3f 1362 943f
00000020: ed50 683f ebb4 b43f 6bd8 a13f 9ce9 bd3f
00000030: 4c8b 533f 497a 923f 1a16 513f 23bb ad3f

net.bn2.bias f4 [16]
-0.23279765 -0.15721574 -0.08365344 -0.21950841 -0.28276834 -0.38307607 -0.23343025 -0.29316077
-0.10433336 -0.13908494 -0.34937704 -0.23567545 -0.11543063 -0.18653762 -0.1939962 -0.28825843
00000000: 8262 6ebe 2afd 20be 7f52 abbd d0c6 60be
00000010: 03c7 90be 8c22 c4be 5708 6fbe 2b19 96be
00000020: bbac d5bd 486c 0ebe 8ce1 b2be e854 71be
00000030: e566 ecbd b803 3fbe f1a6 46be 9c96 93be

net.bn2.running_mean f4 [16]
0.02496942 -0.00649583 0.003810303 0.0012683977 0.043300677 -0.0076284613 -0.0067544286 0.036694665
-0.020402653 -0.017269615 -0.036149792 0.5236992 -0.043551847 -0.008164358 0.02518584 0.043995213
00000000: ab8c cc3c f9da d4bb 47b6 793b 5d40 a63a
00000010: 0d5c 313d 2cf8 f9bb 4154 ddbb 254d 163d
00000020: 7723 a7bc 0279 8dbc ce11 14bd 2711 063f
00000030: 6c63 32bd cdc3 05bc 8952 ce3c 5334 343d

net.bn2.running_var f4 [16]
8.819585 13.56569 3.316475 5.235266 8.759749 4.9308186 3.6008918 2.784688
2.4668267 1.7891533 4.697644 3.9961944 3.21054 3.8806458 4.8194394 8.400322
00000000: 051d 0d41 110d 5941 2041 5440 4d87 a740
00000010: ef27 0c41 44c9 9d40 0375 6640 5438 3240
00000020: 7de0 1d40 fa02 e53f 1a53 9640 a6c1 7f40
00000030: 7d79 4d40 805c 7840 d938 9a40 b867 0641

net.point_conv.weight f4 [16, 16, 1, 16]
-0.14492784 -0.20824085 -0.2916526 -0.2136451 -0.25861347 -0.21095176 -0.2006116 -0.24409774
-0.21118888 -0.25261328 -0.21953934 -0.16001838 -0.08777374 -0.118478306 -0.1311457 -0.030827742
-0.20400348 -0.30139932 -0.39236528 -0.38372344 -0.3595467 -0.32255268 -0.268461 -0.26732793
-0.16890386 -0.24070153 -0.2208603 -0.18745393 -0.25240806 -0.33246768 -0.33663338 -0.28255537
-0.11139675 -0.17516339 -0.10909846 -0.061971307 -0.0065011326 0.026183609 -0.070589684 -0.0920232
-0.08631533 -0.18552066 -0.18276681 -0.11581792 -0.13543545 -0.20815207 -0.09872878 -0.030148724
-0.12198773 -0.19524993 -0.13881357 -0.17376807 -0.24665661 -0.21265052 -0.108496726 -0.09597782
-0.025122166 0.019273464 -0.024197187 -0.017186517 -0.06891882 -0.08403459 -0.24473971 -0.30956206
0.3093899 0.22853303 0.32097885 0.2118354 0.08470832 -0.02039968 -0.10175108 -0.132394
-0.10312597 0.07862909 0.068411306 0.14029977 0.18115081 0.25967538 0.36015865 0.33213395
0.19818474 0.18457416 0.11354755 0.08553369 0.0785349 -0.043157436 -0.03628761 -0.011973854
0.12415124 0.14558314 0.20128672 0.22567725 0.26690754 0.20086122 0.14489347 0.13078864
0.23100048 0.2132301 0.24630114 0.22660907 0.12954956 0.13524754 0.07513754 -0.028782986
0.038549066 0.055368252 0.12775338 0.18097565 0.34086615 0.28437337 0.31146857 0.2676157
0.2796707 0.25286394 0.22368643 0.1445367 0.07327301 -0.0032693013 0.04438848 0.07263903
0.08799453 0.27019057 0.2761256 0.32574743 0.31345436 0.22721444 0.2988797 0.27253556
0.08153533 0.08313746 0.18574442 0.17015196 0.23834896 0.16117503 0.12598209 0.15754476
0.06817929 -0.0041595325 -0.00706142 0.1043085 0.046160996 -0.009857569 0.06072188 0.0366164
-0.050274853 0.033411764 0.17071679 0.21361573 0.16414402 0.21905905 0.20165974 0.20860897
0.07994676 -0.051943574 0.0011200042 -0.10696059 -0.11601262 -0.06638494 -0.039486524 -0.026349248
0.074831896 0.026444979 0.09903162 0.2403366 0.19868363 0.2955421 0.24350885 0.19690044
0.1966773 0.044882696 0.010133827 0.1431351 0.1640283 0.13548507 0.27701166 0.2838314
0.2533861 0.1604121 0.13546191 0.05381751 0.04538931 0.10820269 0.12163328 0.09067021
0.18294503 0.22009172 0.18425813 0.119509034 0.05927225 0.123782426 0.15082338 0.058586
-0.13051476 -0.17696704 -0.13278066 -0.049800698 0.0011417205 0.08105856 0.09613201 0.17134131
0.14135303 0.16943237 0.18418503 0.15897205 0.022171896 0.07827528 0.07177946 0.08556036
-0.004508707 0.05576945 0.1420771 0.110632844 0.014754561 -0.086525865 -0.25242648 -0.3787198
-0.39308 -0.44041863 -0.44510397 -0.40696707 -0.22553232 -0.09615692 0.0061150915 -0.0405127
-0.10952109 -0.19359443 -0.33004868 -0.34602055 -0.25977677 -0.16990508 0.001472423 0.014709222
0.071856745 0.08547181 0.1043729 0.0068783355 -0.19676246 -0.25893545 -0.37070572 -0.2927233
-0.114982836 -0.23469445 -0.26990217 -0.12011595 -0.022722652 0.116138026 0.18654954 0.21084608
0.16327411 0.19575737 0.20076185 0.058822934 -0.057989314 -0.08310229 0.045203738 0.026382163
00000000: f767 14be 173d 55be 7d53 95be c8c5 5abe
00000010: fc68 84be bd03 58be 216d 4dbe c2f4 79be
00000020: e641 58be 8756 81be ecce 60be dcdb 23be
00000030: b8c2 b3bd c1a4 f2bd 0f4b 06be 768a fcbc
00000040: 4ae6 50be 0351 9abe 1ae4 c8be 6677 c4be
00000050: 8116 b8be a025 a5be b873 89be 35df 88be
00000060: 22f5 2cbe 767a 76be 3429 62be ecf3 3fbe
00000070: a13b 81be 3439 aabe 365b acbe 19ab 90be
00000080: fb23 e4bd 085e 33be 036f dfbd a0d5 7dbd
00000090: 7407 d5bb 027f d63c 5391 90bd a976 bcbd
000000a0: 17c6 b0bd 21f9 3dbe 3927 3bbe f231 edbd
000000b0: 97af 0abe d125 55be 5132 cabd 75fa f6bc
000000c0: b4d4 f9bd 99ef 47be 2525 0ebe 42f0 31be
000000d0: 8d93 7cbe 0fc1 59be 8833 debd 0590 c4bd
000000e0: 00cd cdbc 62e3 9d3c 2e39 c6bc bdca 8cbc
000000f0: 4f25 8dbd 541a acbd 0c9d 7abe eb7e 9ebe
00000100: 5a68 9e3e 9004 6a3e 5757 a43e 61eb 583e
00000110: 8e7b ad3d 3b1d a7bc df62 d0bd 4b92 07be
00000120: b533 d3bd 4a08 a13d 3a1b 8c3d beaa 0f3e
00000130: 997f 393e 2cf4 843e b766 b83e 760d aa3e
00000140: f1f0 4a3e 0201 3d3e 9e8b e83d 4a2c af3d
00000150: e8d6 a03d dac5 30bd 51a2 14bd fc2d 44bc
00000160: 0143 fe3d bf13 153e 1b1e 4e3e f017 673e
00000170: 1ba8 883e 90ae 4d3e f45e 143e 75ed 053e
00000180: 648b 6c3e fe58 5a3e 5e36 7c3e 350c 683e
00000190: a4a8 043e 557e 0a3e b6e1 993d 4cca ebbc
000001a0: a0e5 1d3d d2c9 623d c8d1 023e ae51 393e
000001b0: 0286 ae3e 6399 913e cf78 9f3e ed04 893e
000001c0: ff30 8f3e 6277 813e 0e0e 653e 6e01 143e
000001d0: 2910 963d c641 56bb b2d0 353d c6c3 943d
000001e0: 7a36 b43d 6b56 8a3e 5660 8d3e 5ec8 a63e
000001f0: 177d a03e e7aa 683e c306 993e c889 8b3e
00000200: fffb a63d f943 aa3d c933 3e3e 513c 2e3e
00000210: c011 743e 110b 253e 7301 013e 6a53 213e
00000220: 95a1 8b3d b04c 88bb 7c63 e7bb b29f d53d
00000230: 5013 3d3d a481 21bc 82b7 783d 14fb 153d
00000240: 01ed 4dbd c6da 083d 62d0 2e3e 15be 5a3e
00000250: 5f15 283e 0451 603e e47f 4e3e 979d 553e
00000260: 20bb a33d c9c2 54bd 1bcd 923a 270e dbbd
00000270: 0698 edbd d4f4 87bd 9fbc 21bd 61da d7bc
00000280: 7741 993d 24a3 d83c 17d1 ca3d cc1a 763e
00000290: b973 4b3e 4b51 973e 625a 793e 45a0 493e
000002a0: c665 493e ebd6 373d 5a08 263c 0292 123e
000002b0: 09f7 273e 99bc 0a3e 79d4 8d3e 5952 913e
000002c0: d3bb 813e 1243 243e 87b6 0a3e c06f 5c3d
000002d0: 24ea 393d 5f99 dd3d de1a f93d 4eb1 b93d
000002e0: f155 3b3e b95f 613e 2aae 3c3e 27c1 f43d
000002f0: 75c7 723d a481 fd3d 7271 1a3e e0f7 6f3d
00000300: a9a5 05be d936 35be a7f7 07be d1fb 4bbd
00000310: c8a5 953a 0802 a63d dce0 c43d 1974 2f3e
00000320: d9be 103e ae7f 2d3e 009b 3c3e 92c9 223e
00000330: d6a1 b53c ca4e a03d 1c01 933d 453a af3d
00000340: c7bd 93bb 826e 643d a97c 113e 7993 e23d
00000350: 1dbd 713c 7934 b1bd 0b3e 81be 90e7 c1be
00000360: c841 c9be 8d7e e1be abe4 e3be fd5d d0be
00000370: f2f1 66be ebed c4bd 1b61 c83b a5f0 25bd
00000380: 984c e0bd 9e3d 46be 24fc a8be 9b29 b1be
00000390: 7601 85be 99fb 2dbe 51fe c03a f3fe 703c
000003a0: a129 933d d80b af3d 76c1 d53d a963 e13b
000003b0: 197c 49be 3093 84be 24cd bdbe d4df 95be
000003c0: 1f7c ebbd be53 70be 9e30 8abe 5aff f5bd
000003d0: db24 babc c6d9 ed3d d806 3f3e 09e8 573e
000003e0: 5431 273e 9f74 483e 8494 4d3e 51f0 703d
000003f0: 3486 6dbd 8931 aabd 8e27 393d 681f d83c

net.bn3.weight f4 [16]
1.0634792 1.1795958 1.0329405 1.5213203 1.0900143 1.3436388 1.0865623 1.1910092
0.78864413 0.98897815 1.1544294 0.8131912 1.1771992 1.0416937 1.1724432 1.0166318
00000000: 1620 883f fffc 963f 6537 843f a0ba c23f
00000010: 9785 8b3f 5bfc ab3f 7914 8b3f fd72 983f
00000020: 95e4 493f ac2d 7d3f 58c4 933f 4c2d 503f
00000030: 77ae 963f 3856 853f 9e12 963f fe20 823f

net.bn3.bias f4 [16]
-0.08216574 -0.07609342 -0.043097917 -0.107025795 0.121406 0.15584409 0.13111009 0.034184564
-0.2793547 0.116941586 0.1352868 0.0390663 0.007853961 -0.05648966 0.23561507 0.058117475
00000000: 8346 a8bd ded6 9bbd 7187 30bd 5730 dbbd
00000010: b5a3 f83d 9895 1f3e b941 063e 1d05 0c3d
00000020: 9407 8fbe 127f ef3d 9f88 0a3e fc03 203d
00000030: e6ad 003c b461 67bd 1445 713e 970c 6e3d

net.bn3.running_mean f4 [16]
-0.21639098 0.19138913 0.07958743 -0.67361534 -0.58723843 -0.42428136 -0.26535064 -0.27339897
-0.6430273 0.15141004 -0.937759 -0.17503019 0.20844772 -0.15856487 0.37854144 -0.49822432
00000000: 9995 5dbe 83fb 433e bcfe a23d 0e72 2cbf
00000010: 4255 16bf 683b d9be 0adc 87be f3fa 8bbe
00000020: 709d 24bf 3c0b 1b3e f910 70bf 1d3b 33be
00000030: 5273 553e d45e 22be 2fd0 c13e 4217 ffbe

net.bn3.running_var f4 [16]
60.90404 86.35598 51.081337 53.58276 49.739838 77.89795 47.31139 44.8426
33.80629 61.382526 41.817 40.879887 57.921143 67.07779 66.56777 46.21635
00000000: bd9d 7342 43b6 ac42 4a53 4c42 bf54 5642
00000010: 98f5 4642 c0cb 9b42 dd3e 3d42 d35e 3342
00000020: a439 0742 b587 7542 9c44 2742 0185 2342
00000030: 40af 6742 d427 8642 b322 8542 8bdd 3842

net.fc.weight f4 [32, 256]
0.017845869 0.07450061 -0.030719673 -0.02228909 -0.10930991 -0.083289355 -0.048890065 0.046326403
0.14453264 -0.04311079 0.031790264 0.17218365 -0.07813062 -0.0731878 -0.15361863 0.076540254
-0.16750403 -0.19677411 -0.009815737 -0.09988439 -0.08739249 -0.08614611 -0.087209955 0.09684037
-0.072864346 0.077739336 -0.15706767 -0.12102828 0.0025248944 -0.010577075 -0.038840376 0.1071284
-0.2312843 -0.23571064 -0.17006443 0.06196052 0.038297072 -0.09339656 0.014812011 0.15905364
0.14746399 -0.002430536 -0.119987845 0.023365408 -0.03642851 -0.07384764 -0.14943713 0.10683583
0.16775976 -0.010914807 0.009675397 0.111659214 -0.038308974 0.0035331058 0.23746304 0.11497658
0.013094864 -0.15290831 -0.0633173 -0.03304424 -0.16552301 -0.17529577 -0.10029448 -0.24140157
-0.04758289 -0.07847189 -0.013346649 -0.16486207 0.09298698 -0.047015782 -0.12783135 -0.11824822
0.09627526 0.22497764 -0.15021689 0.04397106 -0.15075603 0.0386019 0.29743567 -0.12429577
-0.103754625 0.04381027 0.127653 -0.07373215 0.05355081 0.0026689884 -0.07309192 0.107565016
-0.15188558 -0.07524147 -0.16956277 -0.059609085 -0.029189529 0.34334764 -0.057673283 -0.079347804
0.047715914 -0.29192916 -0.2586271 -0.033022363 -0.02080588 -0.1629381 -0.076169975 -0.0630353
-0.08253065 -0.11848959 -0.059383046 0.04698566 -0.11345649 0.016152104 -0.1266832 -0.1145835
-0.1102432 -0.034134835 0.05493933 0.02701613 -0.11226506 0.10850336 0.026614964 -0.02557702
-0.13339126 -0.33140647 0.06941167 -0.18249512 0.04983659 -0.032309253 -0.09888886 -0.014370837
0.18546441 0.08929844 -0.060165856 -0.036554746 0.0051256754 -0.07062293 0.005148382 -0.06960917
0.072818436 0.08235371 -0.065649524 -0.006914931 0.03247757 -0.05620892 0.12885568 0.14217551
0.05547887 0.0297455 -0.13459307 -0.13933863 -0.17823757 0.058983587 0.018879358 -0.002857686
-0.08395643 -0.07197849 0.04586136 0.044283822 -0.09821244 -0.16793808 -0.0085813515 0.07487906
0.14182582 0.07515552 -0.09276587 0.11137675 0.13896322 -0.020740423 -0.13490264 0.080322444
0.016297378 0.025851632 -0.019206176 0.001096033 0.07159291 0.020378754 0.16718803 -0.05583417
0.040310767 0.15108149 0.08710472 0.0813875 -0.10774002 -0.046685148 -0.041241776 -0.05922272
-0.06298146 -0.145141 -0.04138128 -0.08160384 -0.0035171714 0.06402202 0.10886359 -0.0836091
-0.1076461 -0.19471864 -0.1530816 0.030601613 0.06397614 0.0415458 0.015273312 0.032598354
-0.022022156 0.15616463 0.13582228 0.0529152 -0.0033294477 -0.14464429 -0.14359061 0.18511316
0.047380727 0.006868184 -0.0784213 0.080695085 -0.24865216 0.114968084 0.17719512 0.114486955
0.12234904 0.20402622 0.109375425 -0.008136182 -0.014430901 -0.0058564516 -0.20544747 0.011078562
-0.14865126 -0.2663785 -0.028000677 -0.22025955 0.018915018 -0.08286449 -0.015242894 -0.24880902
-0.19580437 -0.00469865 0.1488156 -0.076450415 -0.25911796 0.000791066 -0.018236846 -0.1253526
-0.017559132 -0.078425825 -0.008010804 0.09400912 -0.06260568 -0.0021667206 0.09988765 -0.0009797572
-0.12687415 -0.20522238 -0.046755124 0.03859837 -0.07436433 -0.26703385 -0.09934585 0.024244467
00000000: 8031 923c c793 983d d3a7 fbbc 9c97 b6bc
00000010: e0dd dfbd 9c93 aabd f340 48bd c1c0 3d3d
00000020: 5d00 143e f194 30bd 8236 023d e950 303e
00000030: f202 a0bd 7ce3 95bd 344e 1dbe 23c1 9c3d
00000040: 2d86 2bbe 277f 49be 2fd2 20bc 3090 ccbd
00000050: d5fa b2bd 5f6d b0bd 229b b2bd 3e54 c63d
00000060: e739 95bd cd35 9f3d 59d6 20be addd f7bd
00000070: b378 253b 784b 2dbc 1617 1fbd 2266 db3d
00000080: cbd5 6cbe 215e 71be 5f25 2ebe 50ca 7d3d
00000090: 64dd 1c3d b246 bfbd 14ae 723c f5de 223e
000000a0: cd00 173e a149 1fbb 30bc f5bd d068 bf3c
000000b0: 1036 15bd 6e3d 97bd 0c06 19be becc da3d
000000c0: 37c9 2b3e 05d4 32bc 8e85 1e3c 96ad e43d
000000d0: dfe9 1cbd ae8b 673b 8329 733e d778 eb3d
000000e0: d78b 563c ff93 1cbe 80ac 81bd 6659 07bd
000000f0: dd7e 29be bc80 33be 3167 cdbd f931 77be
00000100: 47e6 42bd dfb5 a0bd e7ab 5abc 9ad1 28be
00000110: f56f be3d 9f93 40bd 39e6 02be 1f2c f2bd
00000120: f72b c53d 8a60 663e 75d2 19be 001b 343d
00000130: ca5f 1abe 071d 1e3d 7d49 983e c88e febd
00000140: 4e7d d4bd 6672 333d 78b7 023e e200 97bd
00000150: 1858 5b3d 32ea 2e3b 37b1 95bd 0c4b dc3d
00000160: e587 1bbe 3318 9abd dda1 2dbe a828 74bd
00000170: e11e efbc 43cb af3e d23a 6cbd 1a81 a2bd
00000180: c371 433d bd77 95be c56a 84be 7542 07bd
00000190: 1871 aabc 3fd9 26be 01ff 9bbd a718 81bd
000001a0: d405 a9bd acaa f2bd a33b 73bd 0974 403d
000001b0: e05b e8bd 6b51 843c 3eb9 01be c1aa eabd
000001c0: 30c7 e1bd f8d0 0bbd 1008 613d ee50 dd3c
000001d0: 39eb e5bd 0237 de3d a007 da3c e686 d1bc
000001e0: b897 08be 1cae a9be b527 8e3d 00e0 3abe
000001f0: 7421 4c3d b556 04bd 3e86 cabd a973 6bbc
00000200: 62ea 3d3e 1ae2 b63d 7970 76bd 6eba 15bd
00000210: 48f5 a73b c1a2 90bd c2b3 a83b 418f 8ebd
00000220: d521 953d 10a9 a83d 4273 86bd a596 e2bb
00000230: 3307 053d 533b 66bd bef2 033e 7596 113e
00000240: d03d 633d d6ac f33c c4d2 09be c9ae 0ebe
00000250: e983 36be c698 713d e2a8 9a3c 0448 3bbb
00000260: 59f1 abbd 7569 93bd 1fd9 3b3d f462 353d
00000270: 9b23 c9bd f6f7 2bbe cc98 0cbc 315a 993d
00000280: ca3a 113e 23eb 993d 08fc bdbd 7e19 e43d
00000290: 604c 0e3e d2e7 a9bc eb23 0abe 1880 a43d
000002a0: 1482 853c cdc6 d33c 4556 9dbc c4a8 8f3a
000002b0: 4e9f 923d 58f1 a63c 5733 2b3e 5fb2 64bd
000002c0: e71c 253d 1bb5 1a3e f663 b23d 7dae a63d
000002d0: cda6 dcbd ed38 3fbd 23ed 28bd 8693 72bd
000002e0: 6cfc 80bd d89f 14be 6b7f 29bd ea1f a7bd
000002f0: 5880 66bb fa1d 833d e0f3 de3d 3f3b abbd
00000300: 8f75 dcbd 5364 47be 6cc1 1cbe 3cb0 fa3c
00000310: ec05 833d ee2b 2a3d ea3c 7a3c da85 053d
00000320: cf67 b4bc 9fe9 1f3e ff14 0b3e 9cbd 583d
00000330: dd32 5abb a21d 14be 6b09 13be 4e8e 3d3e
00000340: 4b12 423d 810e e13b 599b a0bd 7743 a53d
00000350: ac9e 7ebe 6374 eb3d a372 353e 2378 ea3d
00000360: 2292 fa3d 40ec 503e 3900 e03d 9f4d 05bc
00000370: 966f 6cbc 7ae7 bfbb d260 52be db82 353c
00000380: 0938 18be c362 88be ad61 e5bc b88b 61be
00000390: abf3 9a3c dcb4 a9bd 55bd 79bc cbc7 7ebe
000003a0: f180 48be 22f7 99bb 1e63 183e 0992 9cbd
000003b0: 1cab 84be 8a5f 4f3a 7065 95bc 6f5c 00be
000003c0: 2bd8 8fbc b89d a0bd bf3f 03bc da87 c03d
000003d0: 6837 80bd 8aff 0dbb e591 cc3d 326b 80ba
000003e0: 4ceb 01be d125 52be 4d82 3fbd 5319 1e3d
000003f0: 534c 98bd a9b8 88be d675 cbbd 559c c63c

net.fc.bias f4 [32]
-0.36473706 -0.20385137 -0.09895177 -0.10895245 -0.41759396 -0.53634363 0.39760908 -0.3757479
0.3356744 -0.048992064 0.34531412 0.14391285 0.34574234 0.291885 0.018720914 -0.53688174
0.44871113 0.41417214 -0.13233778 -0.24337505 -0.32523778 -0.05022563 -0.5133757 -0.40350226
-0.47934094 -0.5532093 0.45994055 0.30667078 0.15501882 0.47539243 0.410106 -0.11367856
00000000: d1be babe 6abe 50be 3aa7 cabd 7622 dfbd
00000010: e0ce d5be d14d 09bf 6b93 cb3e 0762 c0be
00000020: 84dd ab3e e7ab 48bd 03cd b03e e45d 133e
00000030: 2405 b13e f371 953e 9a5c 993c 1571 09bf
00000040: 77bd e53e 5f0e d43e 8e83 07be 4f37 79be
00000050: 9185 a6be 64b9 4dbd 976c 03bf d997 cebe
00000060: 2d6c f5be 209f 0dbf 547d eb3e f403 9d3e
00000070: 41bd 1e3e a366 f33e 6af9 d13e 4ed0 e8bd

exp_avg f4 [8, 1, 1, 256]
-0.00022478185 -0.00021902242 -0.0001843898 -0.00012638015 -5.965089e-05 -1.2601693e-06 3.5770245e-05 4.691585e-05
3.743163e-05 1.915694e-05 9.717676e-06 2.3416529e-05 6.795852e-05 0.00013985619 0.00022459873 0.00030378439
0.0003610849 0.00038752813 0.00038553216 0.00036474166 0.00034159064 0.00033238638 0.00034782264 0.0003893863
0.00044686382 0.00050173997 0.00053644105 0.00053917745 0.00050888665 0.00045347886 0.0003884186 0.0003312268
0.00029547652 0.0002857446 0.00029585283 0.00031036642 0.00031263003 0.0002899981 0.0002399695 0.00016936174
9.155627e-05 2.3192508e-05 -2.1199123e-05 -3.5666384e-05 -2.5210891e-05 -3.7584662e-06 9.900786e-06 1.8507701e-06
-3.160396e-05 -8.46777e-05 -0.00014445675 -0.00019573249 -0.00022267715 -0.0002174824 -0.00018421307 -0.00013781444
-9.8433564e-05 -8.377432e-05 -0.00010105996 -0.00014590759 -0.00020621801 -0.0002654085 -0.0003057689 -0.00031578023
-0.00029526334 -0.0002554633 -0.00021668716 -0.00019800758 -0.00020906527 -0.00024853894 -0.0003061919 -0.0003656855
-0.00040941106 -0.00042373146 -0.0004049197 -0.00036198067 -0.00031443825 -0.0002823474 -0.00027875832 -0.00030531842
-0.0003540605 -0.0004102325 -0.00045594713 -0.0004745614 -0.00045926814 -0.00041642872 -0.00036285428 -0.00031818764
-0.00029759682 -0.00030609942 -0.0003376254 -0.00037644984 -0.0004041972 -0.00040504188 -0.00037121522 -0.00030728237
-0.0002294647 -0.0001599378 -0.00011597842 -0.00010504422 -0.00012431967 -0.00016111732 -0.00019641382 -0.00021274557
-0.00019915738 -0.00015667452 -9.854154e-05 -4.4609693e-05 -1.4568111e-05 -1.9902065e-05 -5.82646e-05 -0.00011740422
-0.00017884429 -0.00022183456 -0.00023022777 -0.0002007633 -0.00014461981 -8.223707e-05 -3.6247257e-05 -2.181267e-05
-4.2040152e-05 -8.885805e-05 -0.00014528056 -0.00019124192 -0.00020801839 -0.00018871985 -0.00013978922 -7.898441e-05
-2.8100734e-05 -3.868278e-06 -1.1159914e-05 -4.353076e-05 -8.5767526e-05 -0.000119132645 -0.00012685735 -0.000101220685
-4.8017573e-05 1.442121e-05 6.330389e-05 8.1246915e-05 6.262607e-05 1.4062672e-05 -4.865235e-05 -0.00010568525
-0.00013924697 -0.00013912168 -0.000107694505 -6.0492566e-05 -1.9902127e-05 -4.966768e-06 -2.4278177e-05 -7.395768e-05
-0.00013957139 -0.0002008517 -0.0002377747 -0.0002365158 -0.00019572707 -0.00012853916 -5.883694e-05 -1.0415892e-05
2.3315797e-06 -2.1519627e-05 -7.2009854e-05 -0.00013083547 -0.00017779949 -0.0001954579 -0.00017764982 -0.00013247032
-7.947458e-05 -3.9998067e-05 -3.0078918e-05 -5.3086915e-05 -0.00010057492 -0.00015601526 -0.00020084063 -0.00021923248
-0.00020374818 -0.00015905732 -0.000102759164 -5.6347144e-05 -3.5794325e-05 -4.647234e-05 -8.398941e-05 -0.00013484925
-0.00018146016 -0.00020677592 -0.00020040569 -0.00016366645 -0.000110632434 -6.2956526e-05 -3.8978636e-05 -4.7698344e-05
-8.7230386e-05 -0.00014577611 -0.00020528407 -0.00024810742 -0.0002613776 -0.00024302212 -0.0002037393 -0.00016350203
-0.00014187716 -0.00015180837 -0.00019346047 -0.00025692445 -0.00032509313 -0.0003794703 -0.00040552486 -0.00039705
-0.00036035437 -0.00031202173 -0.0002702261 -0.00024724792 -0.00024670514 -0.00026220144 -0.00027975574 -0.00028429384
-0.0002614404 -0.00020390762 -0.00011828799 -2.085405e-05 6.792463e-05 0.00013315423 0.00016934297 0.00018097849
0.0001794988 0.0001789784 0.0001929493 0.00023011233 0.0002887161 0.00035712644 0.000417751 0.00045478385
0.0004615822 0.00044025684 0.00040084016 0.0003577818 0.00032522954 0.00031399514 0.00032549683 0.0003507972
0.00037333404 0.00037738372 0.00035366445 0.00030281485 0.00023467561 0.00016400378 0.00010509759 6.946733e-05
6.027562e-05 7.062605e-05 8.4374384e-05 8.484535e-05 6.166322e-05 1.3335424e-05 -5.3870725e-05 -0.00012681649
00000000: 6bb3 6bb9 62a9 65b9 c358 41b9 ea84 04b9
00000010: a831 7ab8 1623 a9b5 0208 1638 83c7 4438
00000020: e8ff 1c38 37b3 a037 1a09 2337 9d6e c437
00000030: f484 8e38 5ca6 1239 4382 6b39 4045 9f39
00000040: ff4f bd39 252d cb39 4021 ca39 cc3a bf39
00000050: 8517 b339 2544 ae39 f75b b639 8b26 cc39
00000060: 0c49 ea39 3387 033a f39f 0c3a 9657 0d3a
00000070: ce66 053a e7c0 ed39 a9a4 cb39 82a8 ad39
00000080: 30ea 9a39 fecf 9539 b21c 9b39 adb8 a239
00000090: 7ee8 a339 e30a 9839 52a0 7b39 b296 3139
000000a0: e601 c038 888d c237 c5d4 b1b7 7d98 15b8
000000b0: fa7b d3b7 f539 7cb6 8d1b 2637 fa67 f835
000000c0: 7e8e 04b8 fe94 b1b8 5079 17b9 8a3d 4db9
000000d0: 717e 69b9 fd0b 64b9 5229 41b9 4882 10b9
000000e0: 1e6e ceb8 ffaf afb8 27f0 d3b8 c5fe 18b9
000000f0: 3a3c 58b9 8726 8bb9 9b4f a0b9 4e8f a5b9
00000100: 93cd 9ab9 b4ef 85b9 8436 63b9 41a0 4fb9
00000110: 8838 5bb9 554e 82b9 6288 a0b9 7ab9 bfb9
00000120: 39a6 d6b9 4628 deb9 674b d4b9 39c8 bdb9
00000130: 30db a4b9 0708 94b9 4f26 92b9 2513 a0b9
00000140: 32a1 b9b9 7914 d7b9 300c efb9 8ece f8b9
00000150: edc9 f0b9 1e54 dab9 7a3d beb9 6cd2 a6b9
00000160: c506 9cb9 f87b a0b9 5003 b1b9 3e5e c5b9
00000170: 6eea d3b9 cd5b d4b9 aa9f c2b9 be1a a1b9
00000180: 769c 70b9 fab4 27b9 7139 f3b8 304b dcb8
00000190: cf5b 02b9 9af1 28b9 6ff4 4db9 7414 5fb9
000001a0: e7d4 50b9 ff48 24b9 16a8 ceb8 4b1b 3bb8
000001b0: 8f69 74b7 5cf3 a6b7 2361 74b8 e936 f6b8
000001c0: 2688 3bb9 439c 68b9 4c69 71b9 fd83 52b9
000001d0: 16a5 17b9 b176 acb8 3208 18b8 5afa b6b7
000001e0: 4554 30b8 4d59 bab8 7456 18b9 1d88 48b9
000001f0: 831f 5ab9 19e3 45b9 6294 12b9 6fa4 a5b8
00000200: deb9 ebb7 41cc 81b6 773b 3bb7 cc94 36b8
00000210: 17de b3b8 dad6 f9b8 0305 05b9 7146 d4b8
00000220: 7a66 49b8 a0f2 7137 04c2 8438 1b63 aa38
00000230: 1e56 8338 b7ee 6b37 1010 4cb8 56a3 ddb8
00000240: d302 12b9 31e1 11b9 0cda e1b8 66b9 7db8
00000250: 7ef3 a6b7 36a8 a6b6 fda8 cbb7 ba19 9bb8
00000260: e959 12b9 b89b 52b9 2953 79b9 3a01 78b9
00000270: 163c 4db9 78c8 06b9 afc7 76b8 eabf 2eb7
00000280: 3c78 1c36 0c85 b4b7 ff03 97b8 e130 09b9
00000290: b06f 3ab9 d5f3 4cb9 8347 3ab9 bbe7 0ab9
000002a0: 97ab a6b8 99c3 27b8 fc51 fcb7 a4a9 5eb8
000002b0: c0eb d2b8 0798 23b9 bf98 52b9 c5e1 65b9
000002c0: 3ca5 55b9 a0c8 26b9 6880 d7b8 4956 6cb8
000002d0: dd21 16b8 4ceb 42b8 7923 b0b8 5266 0db9
000002e0: 5746 3eb9 fdd1 58b9 fe23 52b9 e19d 2bb9
000002f0: 5603 e8b8 8707 84b8 fe7c 23b8 b50f 48b8
00000300: 75ef b6b8 7adb 18b9 8641 57b9 6a14 82b9
00000310: 8209 89b9 c1d3 7eb9 daa2 55b9 be71 2bb9
00000320: dcc4 14b9 c02e 1fb9 a6db 4ab9 d1b3 86b9
00000330: 4371 aab9 a4f3 c6b9 a09c d4b9 262b d0b9
00000340: f2ed bcb9 d996 a3b9 22ad 8db9 0ea1 81b9
00000350: 3458 81b9 1578 89b9 2eac 92b9 460d 95b9
00000360: f011 89b9 09d0 55b9 6211 f8b8 bbef aeb7
00000370: c272 8e38 519f 0b39 a891 3139 0bc5 3d39
00000380: d837 3c39 26ac 3b39 6f52 4a39 4f4a 7139
00000390: d25e 9739 b33c bb39 9705 db39 0e70 ee39
000003a0: 8400 f239 46d2 e639 db27 d239 a994 bb39
000003b0: 9283 aa39 b79f a439 72a7 aa39 34eb b739
000003c0: 0cbc c339 96db c539 0a6c b939 1fc3 9e39
000003d0: 4113 7639 6ef8 2b39 d767 dc38 fdae 9138
000003e0: 74d0 7c38 121d 9438 27f2 b038 00ef b138
000003f0: 3051 8138 36bb 5f37 40f3 61b8 0bfa 04b9

exp_avg_sq f4 [8, 1, 1, 256]
2.0803104e-07 2.1772027e-07 2.2233715e-07 2.2375858e-07 2.2600992e-07 2.3077831e-07 2.3547847e-07 2.380499e-07
2.394796e-07 2.4187463e-07 2.4458745e-07 2.435778e-07 2.358496e-07 2.2297507e-07 2.1127127e-07 2.0365815e-07
1.9815138e-07 1.9133773e-07 1.838683e-07 1.7842818e-07 1.7613672e-07 1.7427679e-07 1.7015356e-07 1.6464627e-07
1.6182193e-07 1.6395407e-07 1.6869679e-07 1.7180858e-07 1.72525e-07 1.7396977e-07 1.7868871e-07 1.8518315e-07
1.8997156e-07 1.9232091e-07 1.9631729e-07 2.0507873e-07 2.1635218e-07 2.2367347e-07 2.2446231e-07 2.2123317e-07
2.1817817e-07 2.153067e-07 2.1041772e-07 2.0208621e-07 1.9342568e-07 1.8808518e-07 1.8601312e-07 1.8310314e-07
1.7722822e-07 1.7138485e-07 1.7040767e-07 1.743388e-07 1.7763611e-07 1.7574071e-07 1.6982368e-07 1.6527554e-07
1.6490301e-07 1.6652167e-07 1.6765692e-07 1.6951294e-07 1.7550391e-07 1.854711e-07 1.9404274e-07 1.9542946e-07
1.9003471e-07 1.8399923e-07 1.8232268e-07 1.8431405e-07 1.8652835e-07 1.883415e-07 1.925786e-07 2.0053798e-07
2.0852669e-07 2.1103826e-07 2.0714391e-07 2.0209441e-07 2.0130322e-07 2.0481369e-07 2.0881738e-07 2.1200513e-07
2.1749669e-07 2.2766348e-07 2.4008068e-07 2.4879458e-07 2.5121003e-07 2.5138135e-07 2.543148e-07 2.5982774e-07
2.6285667e-07 2.6056063e-07 2.56155e-07 2.5504926e-07 2.5778593e-07 2.5939508e-07 2.5618337e-07 2.5050605e-07
2.4739984e-07 2.4685502e-07 2.4367856e-07 2.3354045e-07 2.1881702e-07 2.0682506e-07 2.018196e-07 2.0177923e-07
2.0275846e-07 2.0502749e-07 2.1320425e-07 2.2749535e-07 2.410805e-07 2.456108e-07 2.4169515e-07 2.3650665e-07
2.3648745e-07 2.406427e-07 2.4533296e-07 2.4988228e-07 2.581762e-07 2.7218894e-07 2.8649623e-07 2.9287975e-07
2.8887368e-07 2.7992746e-07 2.72409e-07 2.6594807e-07 2.5513268e-07 2.37689e-07 2.1838228e-07 2.0339002e-07
1.9270531e-07 1.8048338e-07 1.64694e-07 1.495602e-07 1.40986e-07 1.3886125e-07 1.366449e-07 1.2959467e-07
1.2049722e-07 1.1576692e-07 1.1692535e-07 1.1909226e-07 1.1810291e-07 1.1645138e-07 1.1969922e-07 1.2842426e-07
1.3581486e-07 1.3495422e-07 1.271434e-07 1.2020321e-07 1.1949652e-07 1.2311968e-07 1.2686165e-07 1.3107572e-07
1.3972362e-07 1.5322723e-07 1.6490064e-07 1.6734305e-07 1.6123111e-07 1.5490518e-07 1.5666701e-07 1.65726e-07
1.7538078e-07 1.8218714e-07 1.8885032e-07 1.9900122e-07 2.1097637e-07 2.192241e-07 2.2231805e-07 2.2487994e-07
2.309312e-07 2.3660267e-07 2.3427482e-07 2.202868e-07 2.0011392e-07 1.8312024e-07 1.726864e-07 1.6589054e-07
1.597324e-07 1.5664023e-07 1.5968803e-07 1.6698276e-07 1.7116342e-07 1.6696083e-07 1.5795996e-07 1.5197004e-07
1.5253217e-07 1.5577785e-07 1.5644892e-07 1.5508076e-07 1.5662478e-07 1.6364636e-07 1.7023315e-07 1.7100609e-07
1.6721556e-07 1.6537587e-07 1.6958883e-07 1.7693932e-07 1.8185632e-07 1.8347784e-07 1.8680217e-07 1.9487062e-07
2.0433204e-07 2.0961606e-07 2.105077e-07 2.1283807e-07 2.2113534e-07 2.325692e-07 2.4044982e-07 2.416478e-07
2.4016074e-07 2.4087134e-07 2.443665e-07 2.4583576e-07 2.4220984e-07 2.3565617e-07 2.2954745e-07 2.2446014e-07
2.178614e-07 2.0901247e-07 2.0197486e-07 2.0081843e-07 2.0425257e-07 2.0594119e-07 2.0127287e-07 1.9252921e-07
1.8566011e-07 1.834562e-07 1.8315271e-07 1.8148575e-07 1.7963534e-07 1.8160048e-07 1.8826739e-07 1.9532075e-07
1.9791038e-07 1.9627784e-07 1.9423886e-07 1.9430155e-07 1.944816e-07 1.916496e-07 1.867737e-07 1.8431703e-07
1.8654865e-07 1.90045e-07 1.9025912e-07 1.8680244e-07 1.8400317e-07 1.8545417e-07 1.8900677e-07 1.8972398e-07
1.857545e-07 1.8060197e-07 1.7805878e-07 1.7772885e-07 1.7593665e-07 1.7134663e-07 1.6691571e-07 1.6666236e-07
00000000: 235f 5f34 7ec6 6934 92bb 6e34 4a42 7034
00000010: 22ad 7234 dccb 7734 d4d7 7c34 a99a 7f34
00000020: d391 8034 ffda 8134 d84f 8334 14c5 8234
00000030: d83d 7d34 ec6a 6f34 ced9 6234 20ad 5a34
00000040: 70c3 5434 8472 4d34 556d 4534 f795 3f34
00000050: 1820 3d34 d720 3b34 74b3 3634 9fc9 3034
00000060: 46c1 2d34 5a0b 3034 0523 3534 627a 3834
00000070: 503f 3934 72cc 3a34 94dd 3f34 c2d6 4634
00000080: fcfa 4b34 c580 4e34 49cb 5234 9d33 5c34
00000090: 6f4e 6834 e52a 7034 bb03 7134 1c8c 6d34
000000a0: 5c44 6a34 0e2f 6734 2fef 6134 09fd 5834
000000b0: 72b0 4f34 76f4 4934 e6ba 4734 029b 4434
000000c0: 1f4c 3e34 e905 3834 4ef9 3634 e231 3b34
000000d0: 3ebc 3e34 3db3 3c34 c758 3634 9876 3134
000000e0: 3210 3134 21cd 3234 2f05 3434 5d03 3634
000000f0: 2672 3c34 e825 4734 105a 5034 3ed7 5134
00000100: 580c 4c34 5391 4534 7ac4 4334 dce7 4534
00000110: 8648 4834 eb3a 4a34 9ac7 4e34 7653 5734
00000120: 61e7 5f34 c199 6234 496b 5e34 4aff 5834
00000130: cf25 5834 c2ea 5b34 4937 6034 87a3 6334
00000140: 0989 6934 a973 7434 70e4 8034 1192 8534
00000150: 0bde 8634 97f5 8634 c388 8834 747e 8b34
00000160: bf1e 8d34 2ee3 8b34 ad85 8934 b4ed 8834
00000170: d465 8a34 fd42 8b34 9389 8934 4a7d 8634
00000180: 60d2 8434 7f87 8434 edd2 8234 1cc3 7a34
00000190: f7f3 6a34 a413 5e34 c0b3 5834 a7a8 5834
000001a0: d2b5 5934 8725 5c34 23ed 6434 7245 7434
000001b0: da6d 8134 7edc 8334 54c2 8134 74f2 7d34
000001c0: 2ded 7d34 ae31 8134 4eb6 8334 8f27 8634
000001d0: 779b 8a34 5d21 9234 becf 9934 163d 9d34
000001e0: 7f16 9b34 f048 9634 9c3f 9234 a0c7 8e34
000001f0: 2bf9 8834 7437 7f34 777c 6a34 6c63 5a34
00000200: 6fea 4e34 e5ca 4134 bed6 3034 cb96 2034
00000210: f061 1734 e419 1534 aab8 1234 b626 0b34
00000220: 0662 0134 8a9b f833 6418 fb33 aabf ff33
00000230: c39f fd33 d313 fa33 ac86 0034 fee4 0934
00000240: 81d4 1134 efe7 1034 e984 0834 3511 0134
00000250: f44e 0034 e132 0434 7737 0834 d2bd 0c34
00000260: f006 1634 c886 2434 8b0f 3134 e8ae 3334
00000270: df1e 2d34 0354 2634 4d38 2834 6af2 3134
00000280: 4d50 3c34 389f 4334 c8c6 4a34 0aad 5534
00000290: be88 6234 dd63 6b34 52b6 6e34 8776 7134
000002a0: e3f5 7734 d90c 7e34 f98c 7b34 f987 6c34
000002b0: e5de 5634 b59f 4434 ad6b 3934 a51f 3234
000002c0: e882 2b34 f030 2834 b676 2b34 df4b 3334
000002d0: 0bc9 3734 d845 3334 b49b 2934 352d 2334
000002e0: b9c7 2334 e443 2734 5afc 2734 4684 2634
000002f0: b12c 2834 c5b6 2f34 55c9 3634 cc9d 3734
00000300: dd8b 3334 2c92 3134 3918 3634 b6fc 3d34
00000310: 4944 4334 0102 4534 ca93 4834 a13d 5134
00000320: 5d66 5b34 d312 6134 ea07 6234 7c88 6434
00000330: 3871 6d34 23b8 7934 2c17 8134 d2bb 8134
00000340: 71ef 8034 1b51 8134 7a31 8334 69fb 8334
00000350: 1109 8234 ad08 7d34 8679 7634 2203 7134
00000360: 49ed 6934 e96c 6034 6dde 5834 8da0 5734
00000370: 8550 5b34 af20 5d34 771d 5834 07ba 4e34
00000380: dd59 4734 0efc 4434 a2a8 4434 6cde 4234
00000390: c9e1 4034 f6fd 4234 8c26 4a34 5cb9 5134
000003a0: 3181 5434 71c0 5234 f98f 5034 34a1 5034
000003b0: b2d2 5034 3ec8 4d34 f78b 4834 aee8 4534
000003c0: 1a4e 4834 2c0f 4c34 074a 4c34 dd93 4834
000003d0: 6892 4534 4121 4734 c9f1 4a34 eeb6 4b34
000003e0: cf73 4734 7eeb 4134 6d30 3f34 bcd5 3e34
000003f0: 19e9 3c34 67fb 3734 7139 3334 cdf3 3234

exp_avg f4 [8]
-1.3720583e-08 -1.7717932e-08 5.5624976e-09 1.866284e-08 -2.8374586e-08 4.719197e-09 -2.2030562e-09 -1.1608104e-08
00000000: c3b7 6bb2 2532 98b2 3f20 bf31 0550 a032
00000010: 60bc f3b2 7f26 a231 9364 17b1 fb6c 47b2

exp_avg_sq f4 [8]
7.591842e-16 1.1078915e-15 3.1571072e-15 5.7687564e-15 2.27332e-15 3.3868574e-15 5.486489e-16 1.1733843e-15
00000000: e8d1 5a26 fba9 9f26 597e 6327 63d7 cf27
00000010: 5acf 2327 7e0c 7427 2523 1e26 3d1a a926

exp_avg f4 [8]
1.1650762e-10 -4.6936063e-11 -2.2214373e-10 5.8811384e-10 3.6175857e-10 8.9850816e-10 -2.922036e-10 1.1250728e-09
00000000: fb19 002f 4f6d 4eae e73f 74af d5a8 2130
00000010: fee0 c62f e4fa 7630 00a4 a0af fba0 9a30

exp_avg_sq f4 [8]
1.191452e-18 3.140095e-19 2.5270833e-18 2.0780413e-18 1.3269611e-18 1.5268745e-17 4.753706e-19 3.776934e-18
00000000: c9d3 af21 c65b b920 4177 3a22 1755 1922
00000010: 2cd3 c321 4ed4 8c23 fd4d 0c21 2258 8b22
