model/all_subjects_20240208_105943/checkpoints/epoch2_0.6797.pt (torch, 195725 bytes, 39 tensors)

net.conv.weight f4 [8, 1, 1, 256]
0	0xbe1e7b0d	-0.15476628
1	0xbd6801df	-0.05664241
2	0xbdd75c49	-0.10515649
3	0xbe995f62	-0.29955584
4	0xbec0c057	-0.37646744
5	0xbeddf9d4	-0.43354666
6	0xbec57479	-0.38565424
7	0xbeb67cbd	-0.35642043
8	0xbdfc544b	-0.12320765
9	0x3e11d8a0	0.14242792
10	0x3e7753e9	0.24153103
11	0x3ec898eb	0.39179167
12	0x3ebaf9fa	0.36518842
13	0x3e497a86	0.19675645
14	0x3d7de749	0.06198815
15	0xbe584a2b	-0.21122043
16	0xbebccd7f	-0.3687553
17	0xbeb786bb	-0.3584498
18	0xbe9aa32e	-0.3020262
19	0xbe01a21b	-0.12659495
20	0x3cd84772	0.026401255
21	0x3ce5f237	0.028069599
22	0xbc078648	-0.008271761
23	0xbd0d4f48	-0.034499437
24	0xbe66e54b	-0.22548406
25	0xbf01ef5a	-0.50755847
26	0xbf21f126	-0.6325859
27	0xbf0c8047	-0.54883236
28	0xbf0d091c	-0.55092025
29	0xbe8c6772	-0.27422673
30	0xbdbe0fcb	-0.09280356
31	0x3df07651	0.11741317
32	0x3ea7b72d	0.3275694
33	0x3e7ea995	0.24869378
34	0x3e216cec	0.15764207
35	0x3decb3a5	0.11557702
36	0xbcc60aaf	-0.024175016
37	0xbd7ab381	-0.061206345
38	0x3da7fbb1	0.08202303
39	0x3dbd4fce	0.09243737
40	0x3e97669d	0.29570475
41	0x3ebc3ee8	0.36766744
42	0x3ec52960	0.3850813
43	0x3e994ea8	0.29942822
44	0x3e1bb44b	0.15205495
45	0xbdb461b5	-0.08807699
46	0xbe83c87b	-0.25738892
47	0xbe977b00	-0.2958603
48	0xbe40200a	-0.18762222
49	0xbd1190b0	-0.035538375
50	0x3e815a58	0.2526424
51	0x3eeb4a28	0.45955014
52	0x3effb7a9	0.4994481
53	0x3ef03fd1	0.46923688
54	0x3e8c17f0	0.27362013
55	0x3db4ee28	0.08834487
56	0xbdb05449	-0.08609826
57	0xbe1c6cdf	-0.15275906
58	0xbdbc9163	-0.09207418
59	0x3e1a2c43	0.15055947
60	0x3ea13316	0.31484288
61	0x3f1841d8	0.5947547
62	0x3f2981b5	0.6621354
63	0x3f3e16b4	0.7425339
64	0x3f225e21	0.6342488
65	0x3eab3814	0.33441222
66	0x3d3b18d9	0.045677993
67	0xbd3d48f6	-0.04621216
68	0xbe8575a4	-0.26066315
69	0xbe2f746d	-0.17134257
70	0xbd2d6af8	-0.04233834
71	0x3e1013b6	0.14070019
72	0x3e478c1e	0.19487044
73	0x3e6ca777	0.23110758
74	0x3dad8b23	0.08473804
75	0xbd641445	-0.055683393
76	0xbe1f8155	-0.1557668
77	0xbe10e29a	-0.14148942
78	0xbdc23241	-0.094822414
79	0xbcea19b7	-0.028576715
80	0x3e76bd25	0.2409559
81	0x3ec74120	0.38916874
82	0x3f10de02	0.5658876
83	0x3f088efb	0.5334317
84	0x3ed8d221	0.42347816
85	0x3ea02310	0.3127675
86	0x3e5933b3	0.21211128
87	0x3cb886a2	0.022525135
88	0xbd80d94a	-0.062914446
89	0x3ae5938b	0.0017515285
90	0x3ddd69f5	0.10811225
91	0x3ea2f76a	0.31829387
92	0x3ecf3912	0.4047323
93	0x3eee4a1e	0.46540922
94	0x3ead6585	0.33866516
95	0x3e444a58	0.19168985
96	0x3d91cdac	0.07119307
97	0xbde9c93e	-0.11415337
98	0xbe0076ba	-0.1254529
99	0xbe2b8224	-0.16748863
100	0x3daabe30	0.08337057
101	0x3e45573a	0.19271556
102	0x3ede79d5	0.43452325
103	0x3ed69f71	0.4191852
104	0x3ebec633	0.3726059
105	0x3e0a886d	0.13528605
106	0xbd98c0d7	-0.07458656
107	0xbe9e7af7	-0.3095319
108	0xbeb9d13f	-0.36292455
109	0xbed742d3	-0.4204317
110	0xbe8c9d75	-0.2746388
111	0xbda2094a	-0.07911928
112	0x3e172250	0.14759183
113	0x3ead3212	0.33827263
114	0x3eb2793c	0.3485812
115	0x3e39b980	0.18137169
116	0x3b08e13e	0.0020886208
117	0xbe32ef3b	-0.17474072
118	0xbea86e15	-0.32896486
119	0xbe981a8a	-0.29707748
120	0xbe859668	-0.26091313
121	0xbd629ffd	-0.055328358
122	0x3d7072e4	0.05870332
123	0x3e897019	0.26843336
124	0x3eab0f60	0.33410168
125	0x3e2f69ca	0.17130199
126	0xbd81acc6	-0.06331782
127	0xbe685df3	-0.22692089
128	0xbefbd66d	-0.4918703
129	0xbf3f3a62	-0.7469846
130	0xbf4b9d1d	-0.7953661
131	0xbf312b85	-0.6920703
132	0xbef9a951	-0.4876199
133	0xbe9d7935	-0.30756536
134	0xbe357a0b	-0.17722337
135	0xbe1b8755	-0.15188344
136	0xbe94c666	-0.29057616
137	0xbf05f111	-0.52320963
138	0xbf34d0e7	-0.7063126
139	0xbf3fcefb	-0.749252
140	0xbf3886e5	-0.7208083
141	0xbee82fba	-0.45348912
142	0xbe99444a	-0.29934913
143	0xbd8eac9b	-0.06966516
144	0xbaabb1aa	-0.0013099213
145	0xbd73dfe8	-0.059539706
146	0xbe359a4b	-0.1773464
147	0xbef4004a	-0.4765647
148	0xbf221f56	-0.63329065
149	0xbf213d3f	-0.6298408
150	0xbede3fe5	-0.43408123
151	0xbdcf8169	-0.10132105
152	0x3e639e58	0.22228372
153	0x3f2744e0	0.6533947
154	0x3f45eb26	0.77311933
155	0x3f3c260c	0.73495555
156	0x3f0b6fb1	0.544673
157	0x3e91aae5	0.28450695
158	0xbe3e3594	-0.18575126
159	0xbeee3f65	-0.4653274
160	0xbf1ab1b6	-0.60427415
161	0xbf1cd742	-0.6126596
162	0xbef72124	-0.48267472
163	0xbe986b10	-0.29769182
164	0xbe0d1429	-0.13777222
165	0xbde37ebe	-0.111081585
166	0xbd3098bb	-0.043114405
167	0xbe2bd994	-0.16782218
168	0xbecaff63	-0.3964797
169	0xbec8a9f4	-0.39192164
170	0xbebe0533	-0.37113342
171	0xbea8342a	-0.32852298
172	0xbd85627b	-0.06512924
173	0x3e1e324e	0.15448877
174	0x3ef5ba44	0.47993672
175	0x3f2a5c0c	0.665467
176	0x3f25338b	0.64531773
177	0x3f1c8c21	0.6115132
178	0x3ee86d94	0.453961
179	0x3e8ea657	0.27861282
180	0x3e6b8e9b	0.23003618
181	0x3e82b60c	0.25529516
182	0x3eb4e22a	0.353288
183	0x3f150017	0.5820326
184	0x3f2b6507	0.6695103
185	0x3f3d9870	0.74060726
186	0x3f261ba8	0.6488595
187	0x3ec5ee4a	0.38658363
188	0x3cdc780f	0.026912717
189	0xbe4400a2	-0.19140866
190	0xbe9f180e	-0.3107304
191	0xbeb1fa97	-0.34761497
192	0xbe685548	-0.22688782
193	0xbd910745	-0.07081465
194	0x3d800124	0.062502176
195	0x3d5ec4ab	0.054386776
196	0x3d3e00bb	0.046387415
197	0xbe6607dd	-0.22463937
198	0xbef315b7	-0.47477505
199	0xbf350307	-0.70707744
200	0xbf477694	-0.7791531
201	0xbf263608	-0.64926195
202	0xbee16f2f	-0.4403014
203	0xbe597307	-0.21235286
204	0x3e39514d	0.1809742
205	0x3eb349e3	0.3501731
206	0x3ee5fd20	0.44919682
207	0x3ed855e9	0.42253044
208	0x3ec46ea1	0.38365653
209	0x3e528469	0.20558323
210	0xbd99ffb9	-0.07519478
211	0xbe1d9242	-0.15387824
212	0xbe348fb0	-0.17632937
213	0xbe06a853	-0.13150148
214	0x3d25d083	0.040482055
215	0x3e2428fe	0.16031262
216	0x3e5d8e98	0.21636426
217	0x3e22deb2	0.15905264
218	0xbda17dbc	-0.0788531
219	0xbe797883	-0.24362378
220	0xbefad29f	-0.48988816
221	0xbf184fd2	-0.59496796
222	0xbf097f53	-0.53709906
223	0xbed9b849	-0.4252341
224	0xbe4dc7fd	-0.2009582
225	0xbe069192	-0.13141468
226	0x3d57ef11	0.052718226
227	0x3d18fd8d	0.03735118
228	0xbd86637b	-0.06561943
229	0xbe376f6d	-0.179136
230	0xbeaef779	-0.34173182
231	0xbeb75128	-0.35804105
232	0xbe9a6b78	-0.30160117
233	0xbe3437d9	-0.17599429
234	0x3bda54ad	0.006662926
235	0x3e689503	0.22713093
236	0x3ead316b	0.33826765
237	0x3ec96426	0.3933422
238	0x3e7878c5	0.2426482
239	0x3ddd9862	0.1082008
240	0xbdb4facc	-0.08836898
241	0xbdfbbc2a	-0.12291749
242	0xbe344552	-0.17604569
243	0xbd12daaf	-0.035853084
244	0x3c9c10b4	0.019050933
245	0x3e5d0722	0.21584752
246	0x3ebc7d9e	0.36814588
247	0x3ec4e5cf	0.3845658
248	0x3eba0d44	0.36338246
249	0x3e239900	0.15976334
250	0xbcd88c44	-0.026434071
251	0xbe8d0833	-0.27545318
252	0xbeb7b47b	-0.35879883
253	0xbeec3c74	-0.46139872
254	0xbeb65043	-0.3560811
255	0xbe45afff	-0.19305418

net.bn1.weight f4 [8]
0	0x3fa0b07a	1.2553856
1	0x3faf7f1a	1.3710663
2	0x3faaa5dc	1.3331866
3	0x3facf80a	1.3513196
4	0x3fc25b71	1.5184156
5	0x3f972cfa	1.1810601
6	0x3fa10661	1.2580072
7	0x3f9f1153	1.2427162

net.bn1.bias f4 [8]
0	0xbc36968c	-0.011144292
1	0x3d92f76b	0.071760975
2	0x3dfcf5d7	0.12351578
3	0xbe3fa2b9	-0.18714418
4	0xbe01e225	-0.12683924
5	0x3e5b4c01	0.21415712
6	0xbbdee2c5	-0.0068019354
7	0xbde1142a	-0.10990174

net.bn1.running_mean f4 [8]
0	0xba3abd09	-0.00071235053
1	0x36e65316	6.8642066e-06
2	0x3ac96da9	0.0015367764
3	0x3a88893f	0.0010416879
4	0xba4ae1d0	-0.0007739337
5	0xbaea8289	-0.0017891686
6	0xba5dc1a0	-0.00084593333
7	0x39d11bb5	0.0003988423

net.bn1.running_var f4 [8]
0	0x433a79e6	186.47617
1	0x432d9dbd	173.61617
2	0x43857464	266.9093
3	0x438573ed	266.90567
4	0x437124f7	241.1444
5	0x435cbcde	220.73776
6	0x435e6bdc	222.42133
7	0x43440baf	196.04564

net.depth_conv.weight f4 [16, 1, 32, 1]
0	0x3e41647c	0.18885988
1	0x3df2dfc1	0.11859084
2	0xbd6cf657	-0.057852115
3	0x3e3889f9	0.18021382
4	0x3f1f5a99	0.62247616
5	0x3b84b88a	0.004050319
6	0xbf162dea	-0.5866381
7	0x3f329ce4	0.69770646
8	0x3cf954ea	0.030435998
9	0xbf6af194	-0.9177487
10	0x3badb0bc	0.0053006094
11	0xbe0df5ba	-0.13863268
12	0xbf1cbc52	-0.61224854
13	0xbda84174	-0.08215609
14	0xbe94a79c	-0.29034126
15	0xbe8cc18b	-0.27491412
16	0xbe49333b	-0.19648449
17	0xbd1229d8	-0.035684437
18	0xbeeee5d9	-0.46659735
19	0xbe4b9a56	-0.19883093
20	0x3e721312	0.23640087
21	0xbef13196	-0.47108144
22	0xbee5f256	-0.4491145
23	0x3eabf6ff	0.3358688
24	0xbc0f842e	-0.008759541
25	0xbf0bd86e	-0.5462712
26	0x3f268ae7	0.650557
27	0xbe4b8976	-0.19876656
28	0x3e55e465	0.20887907
29	0x3ea4551f	0.32096192
30	0x3ebb1316	0.36538
31	0xbd67f16b	-0.05662672
32	0xbe5defab	-0.21673457
33	0xbe1936fc	-0.14962381
34	0x3e6c83ed	0.230972
35	0xbf3308b4	-0.69935155
36	0x3ecc4d01	0.399025
37	0x3f2683da	0.6504494
38	0xbf66c7cc	-0.90148616
39	0xbebe9022	-0.3721934
40	0x3d3b7b70	0.045772016
41	0x3e005ef5	0.12536223
42	0xbea83feb	-0.32861266
43	0xbc209b46	-0.009802645
44	0xbd0c1235	-0.03419705
45	0xbe6a5eb0	-0.22887683
46	0xbd30b251	-0.043138806
47	0x3efa1c5c	0.4884976
48	0x3e840af1	0.25789598
49	0x3cf1495d	0.029453928
50	0x3ee927bc	0.45538127
51	0xbef82b83	-0.48470697
52	0x3f00bd52	0.5028888
53	0x3d481691	0.048849646
54	0xbf04adfb	-0.51827973
55	0xbc3de20b	-0.011589537
56	0x3f603e29	0.8759485
57	0xbd38960f	-0.045064982
58	0x3ea1a29c	0.31569374
59	0x3eb1944b	0.3468345
60	0x3e4ef004	0.20208746
61	0xbe7f8c38	-0.24955833
62	0x3e4174fe	0.18892285
63	0xbdc2c965	-0.09511069
64	0x3e911ee1	0.2834387
65	0xbd930d58	-0.071802795
66	0xbe6f14e8	-0.23347819
67	0x3e0cb265	0.13739927
68	0x3e2ab283	0.1666966
69	0x3f6e7515	0.93147403
70	0xbf1df815	-0.6170667
71	0x3e24d784	0.16097838
72	0xbebceb69	-0.36898354
73	0xbea6e111	-0.32593587
74	0xbe657a82	-0.22410014
75	0x3d9374c3	0.07200005
76	0xbe8883a1	-0.26662925
77	0xbddfd217	-0.10928743
78	0x3d9e8b23	0.07741382
79	0xbd9f3204	-0.077732116
80	0x3f64459d	0.8916872
81	0xbc7e888b	-0.015535484
82	0xbeab2e8f	-0.3343396
83	0x3d69796b	0.05700056
84	0x3f284ae1	0.65739256
85	0xbd4bcc13	-0.049755167
86	0x3b2309a1	0.0024877565
87	0x3e2e82f0	0.17042136
88	0x3e9e79a2	0.30952173
89	0xbf2aaa55	-0.66666156
90	0x3e9cad54	0.3060099
91	0x3ef573a4	0.4793979
92	0xbc995f9f	-0.018722354
93	0x3e9ddf64	0.30834496
94	0x3e8383c0	0.25686455
95	0xbde42aaa	-0.1114095
96	0x3decdf42	0.115660205
97	0xbef17932	-0.47162777
98	0xbf4f580c	-0.80993724
99	0x3f26dfc1	0.6518517
100	0x3e962886	0.29327792
101	0xbe6f4356	-0.2336553
102	0xbed03028	-0.4066174
103	0xbeaa52ba	-0.3326624
104	0xbe009295	-0.12555917
105	0x3f3034c8	0.6883054
106	0x3e862b98	0.26205134
107	0x3e78fdb9	0.24315538
108	0x3f73f76a	0.952994
109	0xbf0aeac9	-0.54264504
110	0x3cc75f0a	0.02433731
111	0x3f0680a4	0.5254004
112	0x3e615b6b	0.2200753
113	0xbeaf891b	-0.3428429
114	0xbeb37650	-0.35051203
115	0x3f0ccc9f	0.54999727
116	0x3edb69e2	0.4285422
117	0xbe77fa98	-0.24216688
118	0x3e555bf4	0.20835859
119	0x3ddae589	0.106883116
120	0x3e054448	0.13014328
121	0xbf77280d	-0.9654549
122	0xbf0d6669	-0.5523439
123	0x3eabaea8	0.3353169
124	0x3de9fad6	0.11424796
125	0x3db06bf6	0.08614342
126	0x3e905965	0.28193203
127	0xbe0a4f05	-0.13506706
128	0xbdd8660d	-0.1056634
129	0xbf05a303	-0.5220186
130	0xbf15e0a6	-0.5854591
131	0xbf0e3479	-0.55548817
132	0xbf58f1ad	-0.8474377
133	0x3d7a2a43	0.06107546
134	0x3eace0f9	0.3376539
135	0x3fa611b9	1.2974159
136	0xbf153977	-0.5829081
137	0x3f1189f0	0.568511
138	0xbeda428c	-0.42628896
139	0x3de29970	0.11064422
140	0x3e77c5db	0.2419657
141	0x3e0629b4	0.13101846
142	0x3d98cc29	0.074608155
143	0xbda9606f	-0.082703464
144	0x3db8a9df	0.09016775
145	0xbd52c04b	-0.051452916
146	0xbdcb9d4a	-0.0994211
147	0xbe31c2cd	-0.17359467
148	0xbdb1532a	-0.086584404
149	0x3d50f8df	0.051018592
150	0xbdb044c1	-0.08606864
151	0x3f32cd0f	0.69844145
152	0xbe0c8f8e	-0.13726637
153	0xbf02a863	-0.5103819
154	0x3f81eb18	1.014987
155	0x3db5ff85	0.08886627
156	0xbe8a61e9	-0.27027825
157	0x3e97eebc	0.29674327
158	0xbde5450e	-0.11194812
159	0x3e65952e	0.22420189
160	0xbdf1497c	-0.11781594
161	0x3ee1c710	0.44097185
162	0x3f257310	0.64628696
163	0xba1d69d2	-0.0006004843
164	0x3f36d1ab	0.7141368
165	0xbe64057f	-0.22267722
166	0x3e68b3a2	0.22724774
167	0xbea9c044	-0.331545
168	0x3e77ded9	0.24206103
169	0xbfa78388	-1.3087015
170	0xbd2a5e80	-0.04159403
171	0xbd9a558c	-0.07535848
172	0x3dda4779	0.106581636
173	0x3f1f54b2	0.6223861
174	0xbeebf4c4	-0.4608518
175	0xbec31e11	-0.38108876
176	0x3dfe9c28	0.12432128
177	0x3df895aa	0.12137921
178	0x3ec17eaf	0.37791964
179	0x3e631504	0.22175986
180	0x3edc7c43	0.43063554
181	0x3da6a6b6	0.08137266
182	0xbdb8dbc2	-0.090262905
183	0x3d752553	0.05985005
184	0xbf49f947	-0.7889599
185	0xbe95f7aa	-0.29290515
186	0xbea9e1b5	-0.33180013
187	0xbe526352	-0.205457
188	0x3e145258	0.14484537
189	0xbe4188eb	-0.18899886
190	0x3ea2df67	0.31811067
191	0xbcd8e8e9	-0.026478248
192	0x3e273d7d	0.1633205
193	0xbf534be1	-0.8253766
194	0xbe492e38	-0.19646537
195	0x3ea56c61	0.3230925
196	0xbab46916	-0.0013764228
197	0x3d459896	0.04824122
198	0xbe555f6a	-0.20837179
199	0xbe7496a5	-0.23885591
200	0x3e8d6d6c	0.27622545
201	0x3fa7394f	1.3064364
202	0x3de56aa3	0.1120198
203	0xbe7ec54c	-0.2487995
204	0xbe81b984	-0.2533685
205	0xbf14e635	-0.5816377
206	0x3e48b978	0.19602
207	0x3e92c0bb	0.28662667
208	0xbe3d07bc	-0.18459982
209	0x3e4463f4	0.19178754
210	0xbf039079	-0.5139232
211	0xbbe57ada	-0.0070031704
212	0xbf0af151	-0.5427447
213	0x3e7d4134	0.24731904
214	0x3e942541	0.28934672
215	0xbd90421c	-0.07043859
216	0x3f427131	0.75953966
217	0x3f0c9085	0.5490802
218	0x3e2588e0	0.16165495
219	0x3dfbed17	0.12301081
220	0x3dc45096	0.09585683
221	0xbf04a126	-0.51808393
222	0xbebc3870	-0.36761808
223	0xbda52690	-0.08063996
224	0xbdf0262e	-0.11726032
225	0x3f1595fe	0.58431995
226	0x3f009754	0.5023091
227	0x3d3ac888	0.045601398
228	0x3ea23dc2	0.31687742
229	0xbeaea09a	-0.34106904
230	0x3cc42a9e	0.023946103
231	0xbeeace4f	-0.45860526
232	0xbe10dcd7	-0.14146744
233	0xbfcb6dba	-1.5892861
234	0x3e1e4dba	0.15459338
235	0x3e2e4566	0.17018661
236	0x3ee1d7da	0.44109994
237	0x3f00a9ef	0.502593
238	0xbdf506ed	-0.119642116
239	0xbe955bc0	-0.29171562
240	0x3e81924b	0.25306925
241	0x3e02fbf8	0.12791431
242	0x3e2abb0e	0.16672918
243	0x3caf9c8e	0.021436956
244	0x3eef4f16	0.46740025
245	0xbe526bb6	-0.20548901
246	0xbeb5c688	-0.3550303
247	0xbe94fa7d	-0.29097357
248	0xbf0cfad7	-0.5507025
249	0xbe5ae86d	-0.21377726
250	0xbeecd173	-0.46253547
251	0xbf023de2	-0.50875676
252	0x3c7bb103	0.015362027
253	0x3f120136	0.570331
254	0x3ea8424b	0.32863078
255	0x3e0a9901	0.13534929

net.bn2.weight f4 [16]
0	0x3fc818cb	1.5632566
1	0x3fb8dea5	1.4442946
2	0x3fbc5d69	1.4716007
3	0x3fb6f418	1.4293242
4	0x3fc84d5e	1.564861
5	0x3fb39944	1.4031148
6	0x3fbde23c	1.4834666
7	0x3fd43a81	1.6580354
8	0x3fa0aa4e	1.2551973
9	0x3fcf27f7	1.6184071
10	0x3f8dc81b	1.1076692
11	0x3fbb94e6	1.4654815
12	0x3f86b218	1.05231
13	0x3fb2ccd5	1.396876
14	0x3f535bf4	0.82562184
15	0x3fbd952c	1.4811149

net.bn2.bias f4 [16]
0	0xbea170cd	-0.31531373
1	0xbe808bf2	-0.2510677
2	0xbe69be3e	-0.22826478
3	0xbe8ac4f0	-0.27103376
4	0xbed72990	-0.42023897
5	0xbebb9b96	-0.3664214
6	0xbed2494e	-0.41071552
7	0xbe9ebc7c	-0.31003177
8	0xbe824c03	-0.25448617
9	0xbe9a372e	-0.30120224
10	0xbe84ff49	-0.25976017
11	0xbea287b5	-0.3174416
12	0xbe2189d8	-0.1577524
13	0xbeb2e2a1	-0.3493853
14	0xbeb3fa1f	-0.35151765
15	0xbe98f581	-0.29874805

net.bn2.running_mean f4 [16]
0	0x3ce55fa7	0.027999712
1	0xbc82fe32	-0.01599035
2	0x3e0c6740	0.13711262
3	0x3d695bfc	0.05697249
4	0x3baf605e	0.005352064
5	0x3bb4a4e9	0.005512823
6	0xbd5a77fa	-0.053337075
7	0x3e17e991	0.14835192
8	0xbe2b36ce	-0.16720125
9	0xbd8c41ed	-0.06848512
10	0xbdbd7d8e	-0.09252463
11	0x3eeb81b5	0.45997396
12	0xbc1ba31f	-0.00949934
13	0x3b7b4ef5	0.0038346623
14	0x3d177d9c	0.036985025
15	0x3e08ac0b	0.13346879

net.bn2.running_var f4 [16]
0	0x41c62caf	24.771818
1	0x41d40548	26.502579
2	0x4168d7af	14.552657
3	0x41832e7f	16.397703
4	0x40ff8f80	7.986267
5	0x4081986c	4.049856
6	0x40d5cd6b	6.6813254
7	0x40da578d	6.8231874
8	0x40a962a5	5.2932916
9	0x40b5a16b	5.6759543
10	0x41761c89	15.381967
11	0x408794cd	4.236914
12	0x4060cdfe	3.5125728
13	0x40d98204	6.797121
14	0x40d1a504	6.5513935
15	0x40cab4d8	6.3345757

net.point_conv.weight f4 [16, 16, 1, 16]
0	0xbe83eb89	-0.25765637
1	0xbea7a103	-0.3274003
2	0xbecd3716	-0.4008109
3	0xbeaf757a	-0.34269315
4	0xbecb5239	-0.39711168
5	0xbea3ead7	-0.32015106
6	0xbe90aa35	-0.28254858
7	0xbe932f90	-0.28747225
8	0xbe6dd5b5	-0.23226054
9	0xbe81ad85	-0.25327697
10	0xbe45ca7b	-0.19315521
11	0xbe105f67	-0.14098893
12	0xbdb1a14a	-0.086733416
13	0xbe325c26	-0.17417964
14	0xbe8ae897	-0.27130577
15	0xbe56f436	-0.20991597
16	0xbe8e1637	-0.27751324
17	0xbeab6e04	-0.33482373
18	0xbeaf00d1	-0.3418031
19	0xbe81c177	-0.25342914
20	0xbe4c6bcc	-0.19962996
21	0xbe0fac7d	-0.14030643
22	0xbddbc50b	-0.10730942
23	0xbe20903d	-0.15680023
24	0xbde0506d	-0.1095284
25	0xbe6f68e9	-0.23379864
26	0xbe8120b8	-0.25220275
27	0xbe74fb42	-0.23923972
28	0xbea047be	-0.31304735
29	0xbecb96dc	-0.39763534
30	0xbed45ee7	-0.41478655
31	0xbebc1f96	-0.36742848
32	0xbe0c5468	-0.13704073
33	0xbe3fa356	-0.18714651
34	0xbe2c1539	-0.16804971
35	0xbe156d65	-0.14592512
36	0xbe03622d	-0.1283042
37	0xbd8e39d2	-0.06944622
38	0xbdf324a4	-0.11872223
39	0xbe0476de	-0.12935969
40	0xbdbdd3ec	-0.092689365
41	0xbe3d55e0	-0.1848979
42	0xbe383bc3	-0.17991547
43	0xbdba97ba	-0.09110971
44	0xbe097e80	-0.13427162
45	0xbe738f46	-0.23785123
46	0xbe394a09	-0.18094648
47	0xbe39c3cd	-0.18141098
48	0xbd372063	-0.04470862
49	0xbd8043aa	-0.06262906
50	0x3c860e6f	0.016364304
51	0xbcc8be34	-0.024504758
52	0xbdd35729	-0.10319359
53	0xbddcf441	-0.10788775
54	0xbda68f50	-0.081328034
55	0xbe1ff275	-0.15619834
56	0xbe2cd724	-0.16878945
57	0xbe0c9443	-0.13728432
58	0xbe3115ab	-0.17293422
59	0xbe0c130e	-0.13679144
60	0xbdfef2a5	-0.124486245
61	0xbdde851c	-0.10865232
62	0xbe785ac0	-0.24253368
63	0xbea43f96	-0.32079762
64	0x3f0061c0	0.50149155
65	0x3ea2a337	0.31765148
66	0x3e9fc417	0.31204292
67	0x3e0bc638	0.13649833
68	0x3b8fb5eb	0.0043857
69	0xbd081c56	-0.03323015
70	0xbc580f8e	-0.013187302
71	0x3d565ef2	0.05233664
72	0x3e1b7750	0.15182233
73	0x3eb3e170	0.35132933
74	0x3e94a94d	0.29035416
75	0x3e88b4d6	0.26700467
76	0x3e5893fa	0.21150199
77	0x3e56abc9	0.20963968
78	0x3e8544ab	0.26028952
79	0x3e73abfe	0.23796079
80	0x3e0238ee	0.1271703
81	0x3e2c579c	0.16830295
82	0x3e1b847f	0.15187262
83	0x3e298f50	0.16558576
84	0x3e3383bd	0.17530723
85	0x3d25722a	0.04039208
86	0x3c56283c	0.013071116
87	0xbc0a198a	-0.008428941
88	0x3da4a9ef	0.08040225
89	0x3d8ed054	0.06973329
90	0x3df4400d	0.11926279
91	0x3e26a20d	0.16272755
92	0x3e770e79	0.24126615
93	0x3e693949	0.22775759
94	0x3e7083c9	0.23487772
95	0x3e8e4888	0.27789712
96	0x3ea2d962	0.31806475
97	0x3ebbb7e4	0.36663735
98	0x3ed73c2c	0.42038095
99	0x3ec7781e	0.3895883
100	0x3e84aaa9	0.25911453
101	0x3e59efc4	0.2128287
102	0x3dbe9d9d	0.09307406
103	0xbd45c58f	-0.04828411
104	0x3ccf8a83	0.025334602
105	0x3d85de5d	0.06536553
106	0x3e21d652	0.15804413
107	0x3e6048f1	0.21902825
108	0x3ebf07eb	0.37310728
109	0x3e9a13b2	0.3009315
110	0x3e9e45c2	0.30912596
111	0x3e829e17	0.25511238
112	0x3ed03ac0	0.40669823
113	0x3ec1fd59	0.378886
114	0x3ea8e355	0.3298594
115	0x3e455325	0.19269998
116	0x3d20d6f4	0.039267495
117	0xbdec6b2e	-0.115438804
118	0xbde44d41	-0.111475475
119	0xbd9c2385	-0.07623962
120	0x3c0b176e	0.008489473
121	0x3e921fd2	0.28539902
122	0x3ec349a4	0.3814212
123	0x3f022f50	0.50853443
124	0x3f0e45f1	0.5557547
125	0x3ef3c0d4	0.47608054
126	0x3efab6fc	0.4896773
127	0x3eb5e058	0.35522723
128	0x3eb1ddab	0.34739432
129	0x3ed348e1	0.4126654
130	0x3f0d013c	0.5508001
131	0x3f06f3fe	0.5271605
132	0x3f0bbad5	0.5458196
133	0x3ecf9332	0.4054199
134	0x3e9ed8ba	0.31024724
135	0x3e927239	0.2860277
136	0x3e186424	0.1488195
137	0x3d30b1a5	0.043138165
138	0x3ce71f69	0.02821322
139	0x3e2db7d1	0.16964652
140	0x3e3393b9	0.1753682
141	0x3e39e9d8	0.1815561
142	0x3e93f29d	0.28896037
143	0x3e8c8a63	0.2744933
144	0x3e3be4d3	0.18349008
145	0x3e8d205f	0.2756376
146	0x3ebb86b1	0.366262
147	0x3e9d7dc1	0.30760005
148	0x3e0c8c87	0.13725482
149	0x3db88528	0.090097725
150	0x3c4ab740	0.012372792
151	0x3c6103b1	0.01373379
152	0xbd4d0a2e	-0.050058536
153	0xbd9183c3	-0.0710521
154	0x3dcd714c	0.10031375
155	0x3db74ecb	0.089505754
156	0x3e0433b0	0.12910342
157	0x3e33a0e8	0.1754185
158	0x3e22e4a1	0.15907528
159	0x3db35fea	0.087585285
160	0xbd6304ce	-0.055424504
161	0xbe6cf8e4	-0.23141819
162	0xbe6c25b1	-0.23061253
163	0xbdd34a76	-0.10316937
164	0xbde4927f	-0.111607544
165	0x3d801a08	0.06254965
166	0x3de9777b	0.11399742
167	0x3e3b8475	0.18312247
168	0x3e8938b5	0.26801077
169	0x3e0a31c7	0.13495551
170	0x3d5baeea	0.053633608
171	0x3da8b222	0.08237101
172	0xbd238e7a	-0.039930798
173	0xbe5329a4	-0.20621353
174	0xbe097ce8	-0.13426554
175	0xbe0902b1	-0.13379933
176	0xbd821e8e	-0.06353484
177	0xbe6bb68e	-0.23018858
178	0xbe8823ae	-0.2658972
179	0xbe8275d9	-0.25480536
180	0xbe000c75	-0.12504752
181	0x3d78a096	0.06070002
182	0x3e139997	0.14414059
183	0x3dfb31f5	0.12265388
184	0x3e3f09f4	0.1865614
185	0x3e3ed6be	0.18636605
186	0x3dfb9793	0.1228477
187	0x3d111312	0.035418577
188	0xbd3aad31	-0.045575324
189	0x3c15c2ef	0.009140714
190	0x3d416deb	0.047223967
191	0xbc28d277	-0.010304085
192	0xbe757e7e	-0.23974034
193	0xbeba1619	-0.36344984
194	0xbeacc839	-0.33746508
195	0xbe4f16d6	-0.20223555
196	0xbd14a30d	-0.03628831
197	0x3e40e64d	0.18837853
198	0x3eab8ad0	0.33504343
199	0x3ef70f5c	0.48253906
200	0x3ee85d6f	0.45383784
201	0x3edf64a6	0.43631476
202	0x3ec0f0cd	0.37683716
203	0x3e85e5d7	0.26151916
204	0x3cb59f53	0.022170698
205	0xbc97c0b1	-0.0185245
206	0xbda57736	-0.08079378
207	0xbd89d7fb	-0.06730648
208	0xbde4cf96	-0.111724064
209	0xbd963609	-0.07334525
210	0xbcbbf3d4	-0.022943415
211	0xbdc56795	-0.09638897
212	0xbe6e5e9c	-0.23278278
213	0xbebd6fa8	-0.3699925
214	0xbf0cba93	-0.5497219
215	0xbf26884b	-0.65051717
216	0xbf1a5736	-0.60289323
217	0xbf137367	-0.57597965
218	0xbf032188	-0.5122304
219	0xbeddc99b	-0.43317875
220	0xbe844ffc	-0.25842273
221	0xbe367ad5	-0.17820294
222	0xbe1677bf	-0.14694117
223	0xbe8c6949	-0.27424076
224	0xbe24753d	-0.16060348
225	0xbe8c5aa2	-0.27412897
226	0xbee6108a	-0.44934493
227	0xbf0341c0	-0.512722
228	0xbef382fc	-0.4756087
229	0xbed3b404	-0.4134828
230	0xbe6ab376	-0.22920021
231	0xbe3a6903	-0.18204121
232	0xbda4e571	-0.08051575
233	0xbcb91a4b	-0.022595545
234	0x3d337b49	0.043818746
235	0xbc93838f	-0.018007068
236	0xbe61d92c	-0.22055501
237	0xbea3ef29	-0.32018402
238	0xbefbd35a	-0.49184686
239	0xbef66b97	-0.4812896
240	0xbd0d19a9	-0.0344483
241	0xbe76b56f	-0.24092649
242	0xbea9d054	-0.33166754
243	0xbe4b5e15	-0.19860108
244	0xbdaa6dc1	-0.08321715
245	0x3dce23fd	0.10065458
246	0x3e62febc	0.22167486
247	0x3e9463c8	0.28982377
248	0x3e8db342	0.27675825
249	0x3eaa8ca6	0.3331043
250	0x3eb12dcb	0.3460525
251	0x3e40a533	0.18813019
252	0x3cc7e2aa	0.024400074
253	0xbd88f956	-0.06688182
254	0x3aa1e25e	0.0012350788
255	0xbd79aeba	-0.060957648

net.bn3.weight f4 [16]
0	0x3f903197	1.1265134
1	0x3fa277e2	1.2692835
2	0x3f829579	1.0201865
3	0x3fe5fbd4	1.7967477
4	0x3f899b7e	1.0750577
5	0x3fb02098	1.3759947
6	0x3fa70fad	1.3051659
7	0x3fb4ee14	1.4135156
8	0x3f9c8003	1.2226566
9	0x3f4b5cb9	0.7943836
10	0x3fb34e01	1.400818
11	0x3f92d74e	1.1471956
12	0x3f8ad246	1.084542
13	0x3f809088	1.0044107
14	0x3f8a7fa5	1.0820204
15	0x3faec632	1.3654234

net.bn3.bias f4 [16]
0	0xbc8bb9ff	-0.017056463
1	0xbd0207b4	-0.031745628
2	0xbe23344a	-0.15937915
3	0xbe40f10b	-0.1884195
4	0x3cf97e45	0.030455718
5	0x3c128f65	0.008945321
6	0x3bda28be	0.006657689
7	0xbe1e859e	-0.15480658
8	0xbdf41497	-0.1191799
9	0x3e387716	0.18014178
10	0xbe21f706	-0.15816888
11	0xbd845b37	-0.0646271
12	0x3a02235f	0.0004964377
13	0xbdc1464b	-0.094372354
14	0x3e4045c7	0.18776618
15	0xbd6c5880	-0.057701588

net.bn3.running_mean f4 [16]
0	0x3f20fb9c	0.62883925
1	0x3f7ff69c	0.9998567
2	0x3cd789f5	0.0263109
3	0xbfaeb96e	-1.3650339
4	0x3f618bb4	0.88103795
5	0xbee6d408	-0.45083642
6	0x3ee23236	0.44178933
7	0xbf0549c6	-0.52065694
8	0xbe5accf1	-0.21367241
9	0x3f703d21	0.93843275
10	0xbf18b7c8	-0.5965543
11	0x3f3ea91e	0.744768
12	0xbb0a51ef	-0.0021105965
13	0xbf024de7	-0.5090012
14	0x3f5e3185	0.8679431
15	0xc0059daf	-2.0877492

net.bn3.running_var f4 [16]
0	0x430a7063	138.43901
1	0x43150229	149.00844
2	0x42d5969e	106.794174
3	0x430b5f99	139.37343
4	0x42e2d4a5	113.41532
5	0x431c0660	156.0249
6	0x431de45c	157.89203
7	0x431f4519	159.26991
8	0x431876c3	152.46391
9	0x4302f27d	130.94722
10	0x42dc51ac	110.159515
11	0x42bace50	93.402954
12	0x42f55dc6	122.68315
13	0x430b0ea3	139.05717
14	0x430bd10c	139.81659
15	0x43207ec7	160.49522

net.fc.weight f4 [32, 256]
0	0xbca0a2b0	-0.019608825
1	0xbe474b57	-0.19462334
2	0xbe725735	-0.2366608
3	0xbe440bf5	-0.19145186
4	0xbd6b7555	-0.057484943
5	0x3e246fb1	0.16058232
6	0xbdff2044	-0.12457326
7	0xbd614364	-0.05499591
8	0x3eabf7ce	0.33587497
9	0x3e4a4f93	0.19756918
10	0x3e0b6211	0.13611628
11	0x3e9aae38	0.30211043
12	0x3c28e71b	0.010309006
13	0xbdcb9409	-0.09940345
14	0xbeb1d1a7	-0.34730265
15	0x3d4d7949	0.050164495
16	0xbe6bd43e	-0.23030183
17	0xbedce061	-0.43139938
18	0xbd07de3e	-0.03317093
19	0xbea07be0	-0.3134451
20	0xbc5cc8b3	-0.013475585
21	0x3d019db5	0.03164454
22	0xbdb9d844	-0.090744525
23	0x3e55b3d4	0.2086938
24	0x3e19022f	0.14942239
25	0x3ebeb881	0.3725014
26	0xbd220dd3	-0.039563965
27	0x3d9f84a3	0.0778897
28	0x3dd6d032	0.10488929
29	0xbda3891e	-0.079851374
30	0xbdc22151	-0.09479011
31	0x3e6a7beb	0.22898833
32	0xbec5bc15	-0.38620058
33	0xbf275e74	-0.653785
34	0xbeb9718e	-0.36219448
35	0xbd5dbd93	-0.05413587
36	0xbd2d3028	-0.042282254
37	0x3c66ede4	0.0140948035
38	0xbdaae9f2	-0.08345403
39	0x3d1ed372	0.03877587
40	0x3dfd0d20	0.12356019
41	0x3d959371	0.07303513
42	0xbd4b1bc1	-0.049587015
43	0x3dfa0190	0.12207329
44	0x3c7998a9	0.015234151
45	0xbd70282f	-0.058632072
46	0xbe87063b	-0.2637194
47	0xbe14e2dd	-0.14539666
48	0x3eb81cfe	0.3595962
49	0x3e103955	0.1408437
50	0x3d752a73	0.059854936
51	0x3e29c00e	0.1657717
52	0xbdbe67b5	-0.09297124
53	0xbd285ce9	-0.04110423
54	0x3c8c198b	0.017102024
55	0xbda2c68e	-0.079480276
56	0xbde4e8ad	-0.11177192
57	0xbeda23ce	-0.42605442
58	0xbe4c3bc2	-0.19944671
59	0xbe4f6074	-0.20251638
60	0xbe859fd8	-0.26098514
61	0xbe6690c3	-0.2251616
62	0xbea7d7e4	-0.327819
63	0xbea54ad0	-0.3228364
64	0xbd83dc2a	-0.06438477
65	0xbe2107b0	-0.15725589
66	0x3c0b9f0f	0.008521809
67	0xbe986259	-0.29762533
68	0x3e687ebf	0.227046
69	0xbcd85a50	-0.026410252
70	0xbd9d61bb	-0.07684656
71	0xbe1d0ba7	-0.15336476
72	0x3dff4638	0.12464565
73	0x3ea90f33	0.3301941
74	0xbdc44245	-0.095829524
75	0x3e002c40	0.1251688
76	0xbe49c1ca	-0.19702831
77	0x3e0f8347	0.14014922
78	0x3e5bc2c6	0.21461019
79	0xbda5b920	-0.080919504
80	0xbda280d1	-0.07934726
81	0x3dfe0fde	0.1240537
82	0x3e3a339f	0.18183754
83	0x3ddd85b9	0.10816521
84	0x3df131cc	0.11777076
85	0xbd09663a	-0.033544756
86	0xbe11d463	-0.14241175
87	0x3d0ef46f	0.03490108
88	0xbdd02ad3	-0.10164418
89	0xbdb126b0	-0.08649957
90	0xbe82a25a	-0.2551449
91	0xbe1d90c7	-0.1538726
92	0x3d352242	0.044222124
93	0x3ec78292	0.38966805
94	0xbd0b83b5	-0.034061152
95	0x3a252179	0.00062992383
96	0x3d0c80bc	0.03430246
97	0xbf015373	-0.5051796
98	0xbeb44eee	-0.3521647
99	0xbd978d4e	-0.073999986
100	0xbd2e8818	-0.042610258
101	0xbc1e710e	-0.009670509
102	0x3e17d45d	0.14827104
103	0xbc4929da	-0.012278045
104	0x3b69decf	0.0035685783
105	0xbda7cba6	-0.0819314
106	0x3e9ccb3c	0.30623806
107	0x3e98b37a	0.2982443
108	0xbe13912a	-0.14410844
109	0xbe1e2a33	-0.15445785
110	0xbe9c6945	-0.30549064
111	0xbdbbca95	-0.09169499
112	0xbc817d98	-0.015806958
113	0x3e306929	0.17227615
114	0x3e31a51c	0.1734814
115	0x3d30f342	0.04320074
116	0xbe5274bb	-0.20552342
117	0x3d0a9c55	0.033840496
118	0x3d04156d	0.032246996
119	0x3a85dbd8	0.0010212613
120	0xbe7205b9	-0.23634996
121	0xbf0cf758	-0.55064917
122	0xbdb4dae0	-0.088308096
123	0xbec4062e	-0.38285965
124	0xbd93b15a	-0.072115615
125	0x3d452db0	0.048139274
126	0xbd6da129	-0.058015022
127	0x3e3d0af7	0.18461214
128	0x3e80a246	0.25123805
129	0xbdb9dfb7	-0.09075873
130	0xbe306be0	-0.17228651
131	0x3e07a484	0.13246351
132	0x3df825bd	0.12116573
133	0xbd0585a5	-0.032598156
134	0x3deace32	0.1146511
135	0xbe1acac4	-0.15116411
136	0x3db444eb	0.088022076
137	0x3e8440b1	0.25830606
138	0x3d724c10	0.05915457
139	0x3e2c2866	0.16812286
140	0xba521475	-0.00080139126
141	0x3d0fedcd	0.035138894
142	0x3e1a4dc4	0.15068728
143	0x3e35d83e	0.17758271
144	0x3bc7fe11	0.006103285
145	0xbdd9d487	-0.106362395
146	0xbe2c70c8	-0.16839898
147	0xbe6f008d	-0.23340054
148	0xbe49e87c	-0.19717592
149	0x3e157993	0.14597158
150	0x3d12650a	0.03574089
151	0xbbe2299f	-0.0069019343
152	0x3e04f3ad	0.1298358
153	0xbd5a3adb	-0.053278785
154	0x3e5979db	0.2123789
155	0x3e83a88f	0.25714538
156	0xbdac40aa	-0.08410771
157	0xbd6773b4	-0.056506827
158	0xbd91e732	-0.07124175
159	0x3d5cfa72	0.05394978
160	0x3e4ec4a1	0.20192195
161	0x3d54ee8d	0.051985312
162	0xbe11f62c	-0.14254063
163	0x3e24c3b3	0.16090278
164	0x3e760cc7	0.24028312
165	0xbc8a562c	-0.016886793
166	0xbde317e8	-0.11088544
167	0x3d8856f0	0.06657207
168	0xbd1b9a6a	-0.037989058
169	0xbe101d9f	-0.140738
170	0xbe9a65bc	-0.30155742
171	0xbe81b6af	-0.2533469
172	0xbde8ef7c	-0.11373803
173	0x3dbe4459	0.0929038
174	0x3eb21377	0.34780475
175	0x3dc1ee39	0.094692655
176	0x3e7a9f51	0.24474837
177	0x3ea1a488	0.3157084
178	0x3e6f755d	0.23384614
179	0x3ddf4315	0.10901467
180	0xbe57693d	-0.21036239
181	0x3d43ff23	0.04785074
182	0xbc0aba0e	-0.00846721
183	0xbe086bd4	-0.13322383
184	0xbe57bfa0	-0.21069193
185	0xbeea5ab6	-0.45772332
186	0xbf0733e8	-0.5281358
187	0xbe8ac9f2	-0.27107197
188	0xbc07bcd4	-0.008284766
189	0x3e83dc44	0.25753987
190	0x3e750765	0.23928602
191	0xbd233b80	-0.039851665
192	0xbe7c8905	-0.24661644
193	0xbea1b126	-0.31580466
194	0xbea9ca2d	-0.3316206
195	0xbe0c1922	-0.13681462
196	0x3e07f30b	0.13276307
197	0x3d8984b9	0.06714768
198	0xbda8a452	-0.082344666
199	0xbc83d3f2	-0.016092274
200	0xbd071a0e	-0.032983832
201	0x3ebd8b37	0.37020275
202	0x3e4a85e1	0.19777633
203	0x3e2c3f7b	0.16821091
204	0x3e285ca7	0.16441594
205	0xbcf35f38	-0.02970849
206	0xbdada495	-0.08478657
207	0x3e41099e	0.18851325
208	0xbdf57f94	-0.11987224
209	0xbe809005	-0.25109878
210	0xbe3f5744	-0.18685633
211	0xbd5a82ab	-0.05334727
212	0xbe427d76	-0.18993172
213	0x3da490c1	0.08035422
214	0x3c611d87	0.01373995
215	0x3d03e31a	0.032199003
216	0x3e5e9987	0.21738254
217	0x3eee115b	0.46497616
218	0x3e78023c	0.24219602
219	0x3ea7cd1f	0.32773682
220	0x3e52d183	0.20587735
221	0x3d91a20b	0.07110985
222	0xbeb59367	-0.35464022
223	0xbdd3dd92	-0.103449956
224	0xbecf8410	-0.40530443
225	0xbed96f29	-0.4246762
226	0xbd4ff6ec	-0.050772592
227	0xbe4c486c	-0.19949502
228	0xbbc3b06d	-0.0059719593
229	0xbc2d3ba6	-0.010573303
230	0xbd177407	-0.036975887
231	0xbed30359	-0.41213492
232	0xbe115273	-0.14191608
233	0x3c1257b9	0.0089320475
234	0x3e11f43c	0.14253324
235	0xbd078a42	-0.033090837
236	0xbe926093	-0.28589305
237	0x3cc2b199	0.023766326
238	0xbe019f0d	-0.1265833
239	0xbe937839	-0.2880266
240	0x3df03c37	0.11730235
241	0x3d2a081d	0.041511644
242	0x3e4db244	0.20087534
243	0x3e3d0a2a	0.18460909
244	0xbdff139d	-0.12454913
245	0xbc6f1ff0	-0.014595017
246	0x3d8109d0	0.063007
247	0xbe34aa4d	-0.1764309
248	0xbec12a77	-0.3772771
249	0xbeedc9d8	-0.46443057
250	0xbe3c4ca6	-0.18388614
251	0xbd816745	-0.06318525
252	0xbe66a352	-0.2252324
253	0xbe889678	-0.266773
254	0xbdb8c750	-0.09022391
255	0x3e426733	0.1898468

net.fc.bias f4 [32]
0	0xbf3d4e2a	-0.73947394
1	0xbeb8284a	-0.35968238
2	0xbed378d7	-0.4130313
3	0xbe9e69b9	-0.30940035
4	0xbf1e78f3	-0.61903304
5	0xbf53ef58	-0.82787085
6	0x3f2649c9	0.6495634
7	0xbf2d87a9	-0.67785126
8	0x3f866b8d	1.0501572
9	0xbe211263	-0.1572967
10	0x3f0d8d40	0.55293655
11	0x3e52fe04	0.20604712
12	0x3f3a384b	0.72742146
13	0x3ee90469	0.45511177
14	0x3c81f5e0	0.015864313
15	0xbf428c1b	-0.75995034
16	0x3f2d9860	0.6781063
17	0x3f9c1985	1.2195288
18	0xbe0fb944	-0.14035517
19	0xbed2abae	-0.41146606
20	0xbf08dbd7	-0.5346045
21	0xbe7375fe	-0.23775479
22	0xbf520959	-0.82045513
23	0xbf26adee	-0.65109146
24	0xbf344300	-0.70414734
25	0xbf5240e1	-0.8213025
26	0x3f44c83e	0.76868045
27	0x3f0796fd	0.52964765
28	0x3e82af1c	0.25524223
29	0x3f2c466b	0.6729495
30	0x3f1e93b1	0.6194411
31	0xbe84d455	-0.25943246

exp_avg f4 [8, 1, 1, 256]
0	0x36cee7e0	6.166272e-06
1	0xb6a00bad	-4.769731e-06
2	0xb69422cd	-4.414795e-06
3	0x36d58e79	6.3644807e-06
4	0x37b55f6a	2.1621312e-05
5	0x3815ac4e	3.568484e-05
6	0x3835c311	4.3335433e-05
7	0x38286377	4.0146955e-05
8	0x37f151f6	2.8767605e-05
9	0x37758d8c	1.4636094e-05
10	0x36adf057	5.183781e-06
11	0x3704e2c6	7.920613e-06
12	0x37e21753	2.695216e-05
13	0x387e614b	6.064893e-05
14	0x38d76511	0.00010270824
15	0x39188670	0.00014545931
16	0x393be079	0.00017917332
17	0x394ee78d	0.0001973195
18	0x394e9784	0.00019702135
19	0x393e2da7	0.00018136819
20	0x39266343	0.00015867972
21	0x39110d4c	0.00013833231
22	0x3904bb11	0.00012658189
23	0x39054885	0.00012710884
24	0x39100e80	0.00013738312
25	0x391f04d3	0.00015165219
26	0x3929c421	0.0001619016
27	0x3929fb3c	0.00016210688
28	0x391ff660	0.00015255203
29	0x390b4dd3	0.00013285065
30	0x38e0b58e	0.000107149695
31	0x38ab5701	8.170121e-05
32	0x38818cdd	6.177437e-05
33	0x3850d179	4.978615e-05
34	0x3828ddf3	4.0261028e-05
35	0x37ebf502	2.8128274e-05
36	0x36f677ef	7.3453334e-06
37	0xb7e11ddc	-2.6835995e-05
38	0xb89de9a7	-7.5298645e-05
39	0xb90d6409	-0.00013484074
40	0xb94dfbae	-0.00019644081
41	0xb982b15c	-0.00024927675
42	0xb995b2c9	-0.000285527
43	0xb99ed2e4	-0.00030293234
44	0xb99eddf9	-0.0003030149
45	0xb998bda7	-0.00029133
46	0xb991aa1d	-0.000277833
47	0xb98e34bd	-0.00027123644
48	0xb9915f35	-0.0002772749
49	0xb999c5ed	-0.000293299
50	0xb9a57027	-0.00031554812
51	0xb9b070e0	-0.00033653434
52	0xb9b5c239	-0.00034667717
53	0xb9b2d8e2	-0.00034112396
54	0xb9a7d52e	-0.00032011553
55	0xb9980922	-0.00028998504
56	0xb98844a3	-0.0002599108
57	0xb97ab3bb	-0.00023908813
58	0xb971e8a0	-0.0002307021
59	0xb973fcb6	-0.00023268428
60	0xb97b5ed8	-0.00023972557
61	0xb97f1685	-0.00024327084
62	0xb9763bf2	-0.0002348272
63	0xb95af85e	-0.00020882624
64	0xb9305922	-0.00016817873
65	0xb8f96b74	-0.0001189326
66	0xb894e1d1	-7.0992515e-05
67	0xb8146e30	-3.538857e-05
68	0xb7ac5481	-2.0543348e-05
69	0xb7f1ffcd	-2.8848555e-05
70	0xb867deb3	-5.5282097e-05
71	0xb8bcebe8	-9.0084795e-05
72	0xb8fdc98c	-0.00012101521
73	0xb9104d41	-0.0001376169
74	0xb90ef074	-0.00013631751
75	0xb8f843f4	-0.00011838219
76	0xb8bf6cb2	-9.127836e-05
77	0xb88973f7	-6.554269e-05
78	0xb84b2db9	-4.8441554e-05
79	0xb826c63d	-3.9762108e-05
80	0xb8194a34	-3.654715e-05
81	0xb808f7dc	-3.2655764e-05
82	0xb7a995c6	-2.0216114e-05
83	0x36c51071	5.8729715e-06
84	0x38430d56	4.6504043e-05
85	0x38c8d104	9.575675e-05
86	0x3918282c	0.00014510815
87	0x39413523	0.0001842571
88	0x39570756	0.0002050673
89	0x39573797	0.00020524707
90	0x39431bfb	0.00018607073
91	0x3924f65b	0.00015732033
92	0x390902b8	0.00013066351
93	0x38f59dae	0.000117118805
94	0x390082e6	0.00012255795
95	0x3917b667	0.00014468432
96	0x393a4d5e	0.00017767164
97	0x395d9e4f	0.00021135177
98	0x39770416	0.00023557278
99	0x398056dc	0.00024478778
100	0x397ae213	0.00023926077
101	0x396b19c0	0.00022420939
102	0x39584f01	0.00020628796
103	0x394b129b	0.0001936652
104	0x3949e080	0.00019252487
105	0x39559074	0.00020367076
106	0x3965f73d	0.00021931245
107	0x397192a6	0.00023038182
108	0x396f59a2	0.00022826207
109	0x395c942e	0.00021036036
110	0x393dcacf	0.00018099997
111	0x391bd7e7	0.00014862382
112	0x39027904	0.00012442848
113	0x38f96a2e	0.00011893023
114	0x390f5eb8	0.00013672828
115	0x393939c2	0.00017664491
116	0x396fe009	0.00022876276
117	0x3993962d	0.00028149915
118	0x39a8b5ae	0.0003217882
119	0x39b25ca0	0.00034019817
120	0x39af59d5	0.0003344553
121	0x39a224d5	0.0003092649
122	0x398faf11	0.0002740552
123	0x397ca2fc	0.00024093309
124	0x3966d361	0.00022013254
125	0x39609450	0.00021417555
126	0x396440d1	0.0002176792
127	0x3968581f	0.00022158072
128	0x39629bf0	0.00021611131
129	0x394f1b12	0.00019751143
130	0x3927cfdb	0.00016003793
131	0x38e2e115	0.000108184446
132	0x38587dd5	5.1615603e-05
133	0x35d8c79c	1.6151348e-06
134	0xb80b6525	-3.323438e-05
135	0xb8502953	-4.962955e-05
136	0xb85786c0	-5.138549e-05
137	0xb84bd4ce	-4.859716e-05
138	0xb85e8f7e	-5.3062562e-05
139	0xb8994a4d	-7.309448e-05
140	0xb8e82bfb	-0.00011070814
141	0xb92831ba	-0.00016040253
142	0xb95d2fe2	-0.0002109404
143	0xb9830c6a	-0.00024995516
144	0xb98c0d72	-0.00026712898
145	0xb987892a	-0.00025851402
146	0xb96de974	-0.0002268905
147	0xb93e0794	-0.00018122635
148	0xb90cf45e	-0.00013442474
149	0xb8cf4ddf	-9.885034e-05
150	0xb8abe719	-8.196961e-05
151	0xb8b1e147	-8.481979e-05
152	0xb8d449d4	-0.00010122699
153	0xb8fd5d31	-0.00012081338
154	0xb909ee45	-0.000131541
155	0xb902aac1	-0.00012461377
156	0xb8cfc2c9	-9.906811e-05
157	0xb87c966e	-6.022158e-05
158	0xb7a8a09c	-2.010195e-05
159	0x37060788	7.988776e-06
160	0x3787119a	1.610145e-05
161	0x366f3f0e	3.5650478e-06
162	0xb7c1982e	-2.3078257e-05
163	0xb854abef	-5.0704864e-05
164	0xb8881c95	-6.490309e-05
165	0xb862dc22	-5.4087614e-05
166	0xb7809062	-1.5326023e-05
167	0x3846418f	4.7267935e-05
168	0x38fe0a98	0.00012113637
169	0x3948cfc8	0.00019150891
170	0x397f90ed	0.00024372684
171	0x398da533	0.000270167
172	0x398e11be	0.0002709757
173	0x3984f451	0.00025359032
174	0x396eee83	0.00022786301
175	0x3954dac4	0.00020299392
176	0x39427924	0.0001854641
177	0x393842ae	0.00017572448
178	0x39309d03	0.0001684316
179	0x39241bf9	0.0001565068
180	0x390c0476	0.00013353102
181	0x38cb4a31	9.6936135e-05
182	0x3852fab1	5.0301376e-05
183	0x36015a1b	1.9274946e-06
184	0xb827e5c4	-4.002989e-05
185	0xb88e3ddd	-6.7826106e-05
186	0xb8a33f69	-7.784257e-05
187	0xb8970ed8	-7.203006e-05
188	0xb8765ebe	-5.8739206e-05
189	0xb84bca53	-4.85874e-05
190	0xb85be4ff	-5.2426938e-05
191	0xb8a3ae61	-7.804926e-05
192	0xb9041407	-0.00012595962
193	0xb945986f	-0.0001884417
194	0xb9865fe7	-0.00025629924
195	0xb9a633ef	-0.0003170068
196	0xb9bdc659	-0.0003619667
197	0xb9cb3362	-0.0003875746
198	0xb9cf2887	-0.00039512312
199	0xb9cd0d7a	-0.00039110688
200	0xb9c8670a	-0.00038223743
201	0xb9c48d8b	-0.0003748949
202	0xb9c31d53	-0.00037215147
203	0xb9c38a19	-0.0003729619
204	0xb9c27d57	-0.0003709595
205	0xb9bc22f4	-0.00035884196
206	0xb9ad4c81	-0.0003305413
207	0xb9957ef3	-0.0002851408
208	0xb96c880b	-0.00022557394
209	0xb92731e6	-0.0001594495
210	0xb8cc6473	-9.746188e-05
211	0xb847b30f	-4.761206e-05
212	0xb7782c1e	-1.4792224e-05
213	0x35250aea	6.148317e-07
214	0x36874d5d	4.03232e-06
215	0x36a81a43	5.0098474e-06
216	0x374e5b5b	1.2299827e-05
217	0x37fd9af7	3.0232111e-05
218	0x3875aa6c	5.857127e-05
219	0x38c23f10	9.262387e-05
220	0x39034cc2	0.00012521728
221	0x391c534e	0.00014908353
222	0x3928bd2f	0.00016092205
223	0x3928f1df	0.00016111833
224	0x3922afdc	0.00015515037
225	0x391f3a75	0.00015185199
226	0x3927ac94	0.00015990651
227	0x393f0970	0.00018218695
228	0x39651752	0.0002184783
229	0x398922a7	0.00026156494
230	0x39a00118	0.00030518393
231	0x39b2f7e0	0.00034135487
232	0x39bf0ed5	0.0003644141
233	0x39c339c8	0.0003723635
234	0x39c371ba	0.0003727803
235	0x39c4391e	0.0003742659
236	0x39c9b9d0	0.0003847615
237	0x39d60c63	0.0004082649
238	0x39e8047b	0.00044253826
239	0x39fb36b0	0.00047915196
240	0x3a051534	0.0005076707
241	0x3a081edb	0.0005192586
242	0x3a05c498	0.0005102842
243	0x39fbcf0d	0.00048028716
244	0x39e46949	0.00043565992
245	0x39cae596	0.00038699497
246	0x39b56218	0.00034596096
247	0x39a81128	0.0003205624
248	0x39a477fc	0.00031369913
249	0x39a88975	0.0003214587
250	0x39b0195b	0.00033588227
251	0x39b5f546	0.00034705753
252	0x39b689d5	0.00034816438
253	0x39b0c1d2	0.00033713743
254	0x39a5d0e0	0.00031626876
255	0x399a8138	0.00029469444

exp_avg_sq f4 [8, 1, 1, 256]
0	0x350ac5f5	5.169707e-07
1	0x350dd264	5.283275e-07
2	0x350a07f6	5.142059e-07
3	0x3502dd22	4.8750564e-07
4	0x34fd339b	4.716247e-07
5	0x34fdad1f	4.7250884e-07
6	0x34ff50d5	4.7556264e-07
7	0x34fc2b9f	4.6970396e-07
8	0x34f8cfb4	4.6344724e-07
9	0x34fd78f9	4.7212941e-07
10	0x35047e5f	4.9357726e-07
11	0x3507a5f8	5.0532935e-07
12	0x3503977e	4.9021753e-07
13	0x34f614a3	4.5836086e-07
14	0x34ea6b89	4.366414e-07
15	0x34e9baa5	4.3535434e-07
16	0x34ebb90f	4.390681e-07
17	0x34e71749	4.3044045e-07
18	0x34de9fa7	4.1466885e-07
19	0x34dcea23	4.114855e-07
20	0x34e58c35	4.2756588e-07
21	0x34ee9637	4.444025e-07
22	0x34ecb618	4.4090916e-07
23	0x34e19d59	4.2024e-07
24	0x34da9f6f	4.0721667e-07
25	0x34dfe5df	4.170424e-07
26	0x34ea6f3c	4.366683e-07
27	0x34eda5f3	4.4265434e-07
28	0x34e7a1d8	4.314486e-07
29	0x34e2ff33	4.2281462e-07
30	0x34e85d72	4.3281358e-07
31	0x34f2fb99	4.5259074e-07
32	0x34f78fb0	4.6111882e-07
33	0x34f40ebc	4.5459262e-07
34	0x34f37118	4.5344564e-07
35	0x34fea8c8	4.743399e-07
36	0x3507dc33	5.061185e-07
37	0x350bc6de	5.2070925e-07
38	0x350868e5	5.081659e-07
39	0x3502f0e1	4.87793e-07
40	0x3501f4a7	4.841226e-07
41	0x35056e86	4.9707194e-07
42	0x350800c1	5.0665045e-07
43	0x3506d1b1	5.022403e-07
44	0x3505dea9	4.9870374e-07
45	0x350a505a	5.1525933e-07
46	0x35129fce	5.4621785e-07
47	0x35175b84	5.6385056e-07
48	0x35141e2b	5.5178197e-07
49	0x350d1b62	5.256644e-07
50	0x3509e802	5.1374093e-07
51	0x350c058c	5.2162136e-07
52	0x350d7d60	5.270904e-07
53	0x35094913	5.1142814e-07
54	0x35022910	4.848853e-07
55	0x34fe290b	4.734105e-07
56	0x3501c3da	4.8341246e-07
57	0x35046638	4.932258e-07
58	0x350164f7	4.820317e-07
59	0x34f62c05	4.58531e-07
60	0x34f1a58b	4.5010196e-07
61	0x34fad5d1	4.67217e-07
62	0x35034cf3	4.891328e-07
63	0x35038af4	4.9003506e-07
64	0x34fd710d	4.7207178e-07
65	0x34f84cc8	4.6249465e-07
66	0x3500333b	4.7758266e-07
67	0x3506f179	5.027028e-07
68	0x350a145e	5.1438644e-07
69	0x3509d13b	5.134095e-07
70	0x350c9895	5.23761e-07
71	0x3515d64e	5.581868e-07
72	0x3520173a	5.9638444e-07
73	0x3522a8d0	6.059536e-07
74	0x351c125c	5.8141245e-07
75	0x35143298	5.520792e-07
76	0x35128c18	5.45931e-07
77	0x3515877a	5.570397e-07
78	0x3515d3e0	5.5815144e-07
79	0x3510b2a7	5.3904154e-07
80	0x350b68d5	5.1934086e-07
81	0x350bb0a2	5.203857e-07
82	0x350fc797	5.356209e-07
83	0x3510a3da	5.3882616e-07
84	0x350bb16d	5.2039724e-07
85	0x3507217e	5.0340157e-07
86	0x3509cd4e	5.1335235e-07
87	0x3511917c	5.4228417e-07
88	0x3514f9e8	5.549796e-07
89	0x350e7113	5.3063667e-07
90	0x3502d8b9	4.8744147e-07
91	0x34f6c3d8	4.5963566e-07
92	0x34f57fb1	4.5727714e-07
93	0x34f6f857	4.6001762e-07
94	0x34f1fb47	4.5072576e-07
95	0x34ed5532	4.4206678e-07
96	0x34f5e723	4.580298e-07
97	0x3504e6c1	4.9509623e-07
98	0x350b2e90	5.184929e-07
99	0x35069897	5.014094e-07
100	0x34f5e782	4.580325e-07
101	0x34e61fc4	4.286395e-07
102	0x34e8fe65	4.3398464e-07
103	0x34f4c186	4.5589348e-07
104	0x34fa56fd	4.662942e-07
105	0x34f9935c	4.6487082e-07
106	0x34ffd985	4.7655718e-07
107	0x350942b9	5.113357e-07
108	0x35124c39	5.4500157e-07
109	0x3512f8b1	5.475113e-07
110	0x350c941a	5.236958e-07
111	0x35088f2d	5.0872296e-07
112	0x350d3bea	5.261378e-07
113	0x3515dffc	5.5832766e-07
114	0x3518ecca	5.6968986e-07
115	0x3513cc9c	5.5059513e-07
116	0x350da7ea	5.277094e-07
117	0x350d9b57	5.275264e-07
118	0x3511c454	5.4302404e-07
119	0x351373c5	5.4930234e-07
120	0x35120398	5.439447e-07
121	0x3514f962	5.5497196e-07
122	0x3521d278	6.0283446e-07
123	0x35323e08	6.6400435e-07
124	0x35384659	6.864771e-07
125	0x352c81f0	6.4264077e-07
126	0x35157e7c	5.5690884e-07
127	0x34ffdb46	4.7656994e-07
128	0x34e45149	4.2527452e-07
129	0x34d552a3	3.9734468e-07
130	0x34d18943	3.9029155e-07
131	0x34e19c1f	4.202311e-07
132	0x35052231	4.9596116e-07
133	0x351d5a56	5.8618514e-07
134	0x3529307e	6.302797e-07
135	0x351eebc0	5.920265e-07
136	0x3504ed9c	4.95196e-07
137	0x34d6323c	3.9897157e-07
138	0x34b79226	3.4192743e-07
139	0x34ac9df2	3.2152417e-07
140	0x34ada8e8	3.2346657e-07
141	0x34bd1e80	3.5226185e-07
142	0x34e0f9b3	4.1904931e-07
143	0x3507fa07	5.0655257e-07
144	0x3517a0f9	5.648613e-07
145	0x3514d7de	5.5448425e-07
146	0x35033b13	4.888727e-07
147	0x34e28be6	4.219757e-07
148	0x34d36377	3.9374183e-07
149	0x34d62e40	3.9894257e-07
150	0x34dcfa77	4.116043e-07
151	0x34e44cd2	4.2524204e-07
152	0x34f3dbcc	4.54222e-07
153	0x3505ffe3	4.9918725e-07
154	0x350e0600	5.2907853e-07
155	0x35090943	5.1049955e-07
156	0x34f1da8f	4.504877e-07
157	0x34d43c07	3.9531753e-07
158	0x34cd987e	3.8295178e-07
159	0x34d97d67	4.0510642e-07
160	0x34e4c51e	4.261173e-07
161	0x34e6d702	4.2997277e-07
162	0x34e98dad	4.3502715e-07
163	0x34f7dec1	4.616941e-07
164	0x350655cd	5.0043747e-07
165	0x350c8fff	5.2363606e-07
166	0x350d1e2f	5.2570516e-07
167	0x350f698e	5.3425254e-07
168	0x3519c70f	5.728661e-07
169	0x35272786	6.226986e-07
170	0x352ad3ba	6.363804e-07
171	0x351dc088	5.876723e-07
172	0x350608e5	4.9931833e-07
173	0x34e024f2	4.1750133e-07
174	0x34c4d3d9	3.6661984e-07
175	0x34b6f392	3.4077362e-07
176	0x34b2c933	3.3301475e-07
177	0x34bf3b15	3.561951e-07
178	0x34e203b8	4.2098486e-07
179	0x3506fbae	5.028513e-07
180	0x35131eb4	5.4806446e-07
181	0x350bf0d5	5.213199e-07
182	0x34ecfa4b	4.4140538e-07
183	0x34c1a5bc	3.606964e-07
184	0x34a94f49	3.153639e-07
185	0x34a21a22	3.0193866e-07
186	0x34a2201e	3.019822e-07
187	0x34a91c6a	3.1499377e-07
188	0x34bda927	3.5327068e-07
189	0x34dc6435	4.1051103e-07
190	0x34f2aef3	4.5203305e-07
191	0x34f21acb	4.5095507e-07
192	0x34e21d0e	4.211692e-07
193	0x34d983a1	4.0515172e-07
194	0x34e5d7b1	4.281151e-07
195	0x34fdc5bb	4.726879e-07
196	0x35070507	5.0298735e-07
197	0x350841fe	5.075998e-07
198	0x35080e4a	5.068474e-07
199	0x350b4322	5.1879226e-07
200	0x350f47af	5.3375965e-07
201	0x350ec043	5.31789e-07
202	0x350a953e	5.162618e-07
203	0x350a8c3a	5.161306e-07
204	0x3513d1c3	5.506701e-07
205	0x35216d80	6.013652e-07
206	0x3528fa85	6.294943e-07
207	0x3526378e	6.192066e-07
208	0x351f509b	5.934941e-07
209	0x351c4db0	5.822758e-07
210	0x351dc76b	5.877725e-07
211	0x351defbe	5.883593e-07
212	0x3519ef6c	5.7345346e-07
213	0x351625e4	5.593449e-07
214	0x3517d9e3	5.656895e-07
215	0x351d0824	5.8498904e-07
216	0x351d81f4	5.8676164e-07
217	0x3514a77e	5.537803e-07
218	0x3507cfcf	5.059382e-07
219	0x35001703	4.77172e-07
220	0x350009ed	4.769816e-07
221	0x3501efc3	4.8405144e-07
222	0x350050d5	4.780134e-07
223	0x34f9c23f	4.6521197e-07
224	0x34fa32d6	4.6603117e-07
225	0x3501c4d1	4.834265e-07
226	0x35054964	4.965316e-07
227	0x350302c6	4.880534e-07
228	0x34fc0421	4.6941662e-07
229	0x34fb3484	4.6790603e-07
230	0x3503c9ae	4.9094785e-07
231	0x350a03f5	5.1414764e-07
232	0x3508c76e	5.0954156e-07
233	0x35004d55	4.779625e-07
234	0x34eec9de	4.4477832e-07
235	0x34e6482b	4.2893348e-07
236	0x34e3b7ef	4.2415874e-07
237	0x34defb0c	4.1533383e-07
238	0x34d973a5	4.0503542e-07
239	0x34dd472a	4.1216236e-07
240	0x34edaed3	4.427189e-07
241	0x34fe3016	4.7346174e-07
242	0x34fe58f1	4.73759e-07
243	0x34ec0b77	4.3966767e-07
244	0x34d59865	3.9785223e-07
245	0x34c9cfeb	3.7590448e-07
246	0x34c93cd9	3.748344e-07
247	0x34ca6cf1	3.7704697e-07
248	0x34c908f0	3.744567e-07
249	0x34cb6a2a	3.788894e-07
250	0x34d71e42	4.0068886e-07
251	0x34e5bf2e	4.2793675e-07
252	0x34ea7851	4.3673438e-07
253	0x34e20c0e	4.210455e-07
254	0x34d77f30	4.0139412e-07
255	0x34d7b850	4.0180976e-07

exp_avg f4 [8]
0	0xb127800d	-2.4374487e-09
1	0xb1f6c3b4	-7.181791e-09
2	0xb1562122	-3.1159932e-09
3	0x3225cfdd	9.651527e-09
4	0x30ac8ffc	1.255557e-09
5	0xb174ede1	-3.5641892e-09
6	0x31ba76ce	5.426819e-09
7	0xb12d0920	-2.518e-09

exp_avg_sq f4 [8]
0	0x266b0000	8.1532003e-16
1	0x26d14adc	1.4522579e-15
2	0x27dcb2c0	6.1256067e-15
3	0x281e26da	8.7791865e-15
4	0x279cd9a0	4.3534647e-15
5	0x2784826d	3.6778768e-15
6	0x26b79d5b	1.2740827e-15
7	0x26f0cec2	1.6709387e-15

exp_avg f4 [8]
0	0xb09ff880	-1.16394e-09
1	0x3049ea8a	7.3456674e-10
2	0x3023366b	5.9376387e-10
3	0x30c2593d	1.4140721e-09
4	0xb0ad4234	-1.2606223e-09
5	0xb0aa891e	-1.2408099e-09
6	0xaf9cae09	-2.8499894e-10
7	0x3073a9ef	8.8644375e-10

exp_avg_sq f4 [8]
0	0x22cb9f55	5.519196e-18
1	0x23315a6b	9.614336e-18
2	0x22d64b5e	5.8084614e-18
3	0x22b328f6	4.8561416e-18
4	0x22ea9e48	6.3593414e-18
5	0x24076dac	2.9366354e-17
6	0x224bec10	2.76366e-18
7	0x2315e8bb	8.126589e-18
