model/all_subjects_20240208_105943/checkpoints/epoch4_0.6875.pt (torch, 195725 bytes, 39 tensors)

net.conv.weight f4 [8, 1, 1, 256]
00000000: d00a 2dbd 8159 363d 3edd 64bd ef11 acbe
00000010: b21b 01bf c554 1cbf 584c 09bf fb9a cdbe
00000020: 0106 c6bb 7ce0 d73e 2e24 1f3f a11c 4a3f
00000030: 6c1b 333f b414 c83e 2531 803d 09ad c9be
00000040: 7072 28bf 1e95 26bf 4208 fbbe 2d5b 13be
00000050: a200 2c3e 0e28 863e 0600 743e 62fb 0d3e
00000060: aee6 53be 5a4f 2ebf 8900 75bf 58b9 6fbf
00000070: cef4 66bf b4ce 01bf d3a5 39be 66d5 0b3e
00000080: 3a0c c63e 2d07 893e f34b 823d 06f1 ecbd
00000090: 78dc b2be 4d12 d0be 39ec 50be 4706 78bd
000000a0: bd63 9e3e 5086 033f c29d 163f a762 f13e
000000b0: 2a52 593e cad3 34be d87e edbe 465a 0dbf
000000c0: 96d7 d7be 942b 39be 7968 6b3e 9278 083f
000000d0: 68fe 173f 377e fd3e 1959 153e 2fb3 6dbe
000000e0: 46b0 0fbf cee0 33bf faea 21bf 242d 95be
000000f0: 1e60 6f3d 0b6f 0f3f d754 4d3f 30ae 773f
00000100: b318 583f a5d7 e83e 3c2b 873d 6b01 a3bd
00000110: 9295 8fbe a1ea d8bd 34bd 233e f0ee f23e
00000120: 0a32 193f 7075 213f 8a68 d13e 50b6 063e
00000130: 4769 fbbd ba71 60be 525f 57be ca05 e2bd
00000140: 0386 803e 731c 023f 0ba7 413f f271 3a3f
00000150: 9ead 0c3f eca5 9e3e 2dbb 903d 8c41 58be
00000160: f465 a6be ac23 6bbe b0fa 13bd 5db4 993e
00000170: 9253 003f f080 1d3f 6815 ef3e ca96 6e3e
00000180: ef40 193a 5785 86be a3bf 93be 8509 8fbe
00000190: 18bd b83d e9d9 b93e 9d0f 3d3f 6afc 423f
000001a0: cca5 253f b1a6 803e 51bb 22be 273f 0dbf
000001b0: c12b 2cbf f9ba 34bf eccb e7be b3b9 a8bd
000001c0: 069d a53e 25da 1f3f 7f7a 253f 9ac3 c83e
000001d0: 4dab 4f3d 6de2 96be a063 0fbf 1f09 0fbf
000001e0: 5003 efbe 74c0 fbbd 69d6 273e 4851 013f
000001f0: 72e2 1f3f 0381 de3e 5676 bb3d f14e 78be
00000200: 8ce4 2ebf 260d 84bf 4ffb 87bf d81c 54bf
00000210: 5c6f eabe 2869 1bbe 5338 4d3d 2c17 cc3d
00000220: 8a4b 6ebd 201d b3be e5ca 1abf 52cb 2dbf
00000230: b2b8 1bbf 05c7 7ebe 1848 4bbc 2729 813e
00000240: 6c57 9c3e 7a86 3c3e 6f57 4bbd 231f 03bf
00000250: 152f 53bf a660 63bf 9fbd 24bf 1109 2abe
00000260: 20e5 b23e cd27 733f 7599 953f 500d 933f
00000270: 5e96 633f e19b ec3e f2b7 6dbe 09f8 30bf
00000280: 9c2e 67bf d442 5ebf b856 1bbf 874f 88be
00000290: 4c4b 803c 0363 e73d 28e9 473e bb05 d13c
000002a0: 2376 96be f0ce c2be cb95 d2be 3c9e bcbe
000002b0: 8502 6cbd 1da5 723e 7fe1 1f3f 0135 523f
000002c0: 08a8 3e3f 410f 1a3f 3943 ab3e f70f bd3d
000002d0: 992f de3c 4044 a73d ee3a 833e edb0 1a3f
000002e0: 9087 503f 7729 733f 6820 553f 4da1 ef3e
000002f0: e707 c4bc 1ba9 afbe c069 00bf ebca 02bf
00000300: 0723 99be 9e16 83bc 2b99 5c3e 0e9e 753e
00000310: 9dd7 4a3e de29 25be 8edf 09bf 9376 65bf
00000320: b742 85bf d31a 66bf 6e26 16bf b5b3 3cbe
00000330: e6a2 c83e 3a1e 323f 201b 5e3f 067b 5a3f
00000340: cd74 443f 64b3 003f b932 0d3e ac79 203c
00000350: 3d36 5bbc c7ac 983d 064d 9c3e 0c43 ea3e
00000360: 3e41 003f 54d4 c53e 062b 4c3d 723c 71be
00000370: 061e 14bf 3b0c 38bf 10e2 20bf 1e2d d9be
00000380: f76c a1bd f7d9 c33d d12b ae3e 8264 ab3e
00000390: b0a0 3d3e b891 d9bc f4d4 95be 7005 bbbe
000003a0: 688e 9abe f5aa dabd 0543 443e 6fda 083f
000003b0: 76c6 3a3f ec3c 4f3f 47ee 1d3f 8100 c53e
000003c0: e52b 9b3d 3c03 20bd e2a7 f6bd 6933 423d
000003d0: 3459 363e 9c95 f13e d3fc 303f 10f5 353f
000003e0: e575 1f3f 224e 963e 5d4b 0ebd 71d7 c9be
000003f0: 2f9d 08bf 5268 21bf bf61 ebbe 280a 47be
-0.04224664 0.04451895 -0.055875055 -0.33607432 -0.50432885 -0.6106685 -0.53632116 -0.40157303
-0.006043196 0.42163455 0.6216458 0.78949934 0.6996372 0.39078295 0.062593736 -0.39389828
-0.6579962 -0.65071285 -0.49029738 -0.1439025 0.16797116 0.26202434 0.23828134 0.13865426
-0.20693466 -0.6808983 -0.9570394 -0.9364219 -0.9021729 -0.5070603 -0.18129663 0.13655624
0.38681203 0.26763287 0.063621424 -0.11569409 -0.3493383 -0.40638962 -0.20402612 -0.06055286
0.3093547 0.5137682 0.5883447 0.47145578 0.2122275 -0.17658916 -0.46385837 -0.5521587
-0.42156667 -0.1808303 0.22989072 0.53308976 0.5937257 0.49510357 0.1458477 -0.23212884
-0.56128347 -0.702649 -0.6324917 -0.29136002 0.058441274 0.56028813 0.8020758 0.96750164
0.8441269 0.45477024 0.06600043 -0.07959255 -0.280438 -0.10591627 0.15990144 0.4744792
0.5984198 0.6306982 0.4090007 0.13155484 -0.122759394 -0.21918383 -0.21032456 -0.110362604
0.25102243 0.5082466 0.7564551 0.72830117 0.5495242 0.30985963 0.07066951 -0.21118754
-0.3249966 -0.22962826 -0.036127746 0.3002042 0.5012752 0.6152487 0.4669602 0.23299709
0.00058461627 -0.26273605 -0.28857145 -0.2793695 0.09020442 0.36299065 0.7385195 0.76166403
0.6470611 0.25127175 -0.15891768 -0.5517449 -0.67254263 -0.705978 -0.45272768 -0.08238544
0.32346362 0.6244224 0.6464004 0.39211732 0.050700475 -0.29469624 -0.5601139 -0.5587329
-0.46682215 -0.12292567 0.16390385 0.5051465 0.62454903 0.43457803 0.0915343 -0.24248864
-0.68317485 -1.0316513 -1.0623568 -0.8285651 -0.45788085 -0.15176833 0.050102543 0.09965357
-0.05817751 -0.34983158 -0.6046584 -0.6788837 -0.608287 -0.24880607 -0.012407325 0.2522671
0.30535448 0.18410674 -0.04964393 -0.51219386 -0.82493716 -0.8881935 -0.6435184 -0.16605021
0.34940434 0.94982606 1.1687456 1.1488438 0.8890132 0.46212676 -0.23214701 -0.6912847
-0.90305495 -0.8682072 -0.606792 -0.26623175 0.015660904 0.11298182 0.19522536 0.025515428
-0.29387006 -0.38048506 -0.41129908 -0.36839473 -0.05761959 0.23695798 0.62453455 0.8211213
0.74475145 0.60179526 0.33449724 0.09231561 0.027122306 0.081673145 0.25630897 0.6042622
0.8145685 0.94985145 0.83252573 0.4680275 -0.02392955 -0.34308705 -0.5016136 -0.5109088
-0.29909536 -0.016001996 0.21542804 0.23986074 0.19808812 -0.16129252 -0.5385674 -0.89634055
-1.0410985 -0.8988468 -0.5865239 -0.18427928 0.39186782 0.6957737 0.8676014 0.8534397
0.76740724 0.5027373 0.1378888 0.009794634 -0.013379631 0.0745483 0.30527514 0.45754278
0.5009955 0.38638556 0.049845718 -0.23558214 -0.5785831 -0.7189366 -0.62844944 -0.42417234
-0.078821115 0.09563058 0.34017804 0.3347512 0.18518329 -0.026558742 -0.29264033 -0.36527586
-0.30186772 -0.10677139 0.19166191 0.53458303 0.7295908 0.80952334 0.6169171 0.38476947
0.075767316 -0.039065585 -0.1204374 0.04741231 0.17807466 0.47184455 0.6913578 0.7107706
0.6228927 0.29356486 -0.03473984 -0.3942218 -0.53364843 -0.63049805 -0.45973012 -0.19437468

net.bn1.weight f4 [8]
00000000: 798d bb3f 3998 c13f 5283 d23f 398a b23f
00000010: ceed df3f a2cd a03f 3aca ae3f cbaa b23f
1.4652549 1.512458 1.6446326 1.3948432 1.7494447 1.2562754 1.3655465 1.3958372

net.bn1.bias f4 [8]
00000000: 05da e6bd 90cf d6bd 9fab 053d 4977 7fbe
00000010: b7d2 19be a24b dd3d 9ac8 bf3b 665c 56be
-0.11272053 -0.10488808 0.032634374 -0.24947847 -0.15021788 0.108054414 0.005852771 -0.20933685

net.bn1.running_mean f4 [8]
00000000: 8fc5 2a3a 334c a0ba c506 37ba 8f25 c5ba
00000010: b99f 8b3a c7d1 6e3a 7085 cd39 17c2 3e3b
0.0006514424 -0.001222974 -0.0006981905 -0.00150411 0.001065246 0.0009110239 0.00039200066 0.0029107386

net.bn1.running_var f4 [8]
00000000: 037e 2544 d0fd c943 0eec 0244 6d93 0644
00000010: 1517 1344 55ef ca43 94df 0244 aa98 ef43
661.96893 403.9829 523.68835 538.3035 588.36066 405.86978 523.4934 479.1927

net.depth_conv.weight f4 [16, 1, 32, 1]
00000000: 2ed7 3a3e 8abf b83d 4a18 5cbe 0279 0e3e
00000010: e517 543f 667f d73e 6470 0fbf c35a 1a3f
00000020: afaa 12be 3875 a1bf 9a36 62be af42 f53b
00000030: 1e37 31bf f9a2 f1be 0791 3cbe c9c0 a63e
00000040: 3257 c23e 42f6 89bd f5fc 0dbf e7ad 52be
00000050: f5e0 2c3f 8773 27bf 57d5 1abf 5691 1e3f
00000060: 7626 963d 6699 5ebf 2c39 7f3f 3579 dcbd
00000070: 92c9 e53d 8205 633f 7227 083f 2620 23be
00000080: 012b 1ebe 25a3 adbd 8c3d 833e b8d4 5cbe
00000090: 781b 933f af95 133f 24d2 d7bf 5261 d93d
000000a0: 93f1 1ebf fa72 123e 2d18 30bf c478 35be
000000b0: 19ca 11be 57fa 57be 3172 57be 5d3a 153f
000000c0: 1c58 5dbe da20 5f3d ff27 ed3d 757f 8bbe
000000d0: db24 a63e b4a0 3fbf f422 30bf 0bdb 2b3d
000000e0: 6d2d 4f3f db7d 04bf 971b 5c3f 0164 473f
000000f0: c0fb d03e 3b25 e4be ba54 153f e91f 653d
00000100: 1d17 af3d 4c1d b0bc 666b 95be 1601 0e3e
00000110: e1ea 9c3e f7d8 8b3f 9a3b 82bf 8fcf 43bd
00000120: bf1a 65bf 51cf 29be 932e c7be 7590 cd3d
00000130: 30fe cabe b482 ba3c 0745 d83d 3fcf 3cbe
00000140: 367b 953f b1aa 143e 0735 143e c590 4fbe
00000150: 705a 593f 54dd cc3d 279c b23d 67ac 213e
00000160: 9cf5 183e fd61 5dbf 96c5 183f e093 993f
00000170: 4d65 e63d b8ed ad3c 3454 d23c 5c9c 28be
00000180: edde 8bbd d2c3 64be c49e 90bf 8adb 493f
00000190: 7cf9 e63e 1a9e bdbe 681f 8bbe 6325 10bf
000001a0: db59 56bc 9f5d 373f 5531 f13e 6b33 d93e
000001b0: 749d 803f defb 14bf aeec 753e 8645 173f
000001c0: a011 9c3d 67db 9bbd 8d55 a1be 155c 7b3f
000001d0: 6dba 8a3e 8aa7 83be b58f 093d 75e1 79be
000001e0: 8762 b83d 21e1 97bf 327f 2dbf 8dbc 0f3f
000001f0: 3cee 3d3e 47a9 d43c c297 323e cb38 b2be
00000200: b585 663d 3392 d0be a585 02bf 1616 53bf
00000210: 527e 59bf 28d6 9b3e f6cf e63e 1fc5 bc3f
00000220: e0d7 2abf 9121 623f c54c f7be d90d b93e
00000230: fb07 a63e 6785 293e 58b8 7c3e 3b6a 8cb9
00000240: 6e28 a93d 41fa e6be 421c 9cbd c379 21be
00000250: e689 03be 7fe8 09be 32ca b4be ed44 373f
00000260: 7650 14be 2117 fbbe 96f1 963f 70c0 b73e
00000270: efdb 1ebf 9970 183f d42e 97be 1c8f 8dbb
00000280: 7127 8cbd 0dc0 463f 1bd2 113f 833f f13d
00000290: a51e ee3e c00c 45be 1e9a 5e3d 3f45 4abf
000002a0: a97c 4f3e b4ae e9bf 003f 1e3e 4822 adbd
000002b0: 4581 b53e e82c 413f 64d4 c8be 200f a5bd
000002c0: 1437 6a3d ac46 9e3e fa94 ad3e 76e6 893e
000002d0: e69e 293f a624 45bd 4696 0dbe 6ad2 89bc
000002e0: 753c 43bf 446b 51be ef69 43bf f0bd cfbe
000002f0: 2d6d e03e d614 4abe 5022 c73e 3f04 e23b
00000300: 9116 dd3d 3237 43bf 15fe 85be dac4 643e
00000310: 8b73 253e aba4 063e 56a7 65be 7b84 8abc
00000320: 8161 cc3e bd8a fc3f dbf3 ca3d 7257 c2be
00000330: 8d69 19bf dfc1 6fbf 3e36 943e 69fb 193e
00000340: 0d22 1bbe 5d0d 2c3e c981 03bf 182d 5fbe
00000350: 6854 11bf 36ee 1e3f f807 743e 21f1 88bd
00000360: 5e7c 313f f5a3 203f eecb 8f3e 5db1 ba3e
00000370: 1562 db3d cc12 13bf fa2a e6be 3051 34be
00000380: 4826 8a3c 9ef2 4e3f c704 d63e d587 513d
00000390: 8d5a 393e 6dc2 bbbe 9e1d febc 643c 3ebf
000003a0: 8594 3ebe e03f 01c0 2b5f 213e 9e4f a73e
000003b0: e36d 2d3f 3b0b 433f 553c 07bc 71ac 0abe
000003c0: da9f 013e 10a3 9f3e 381e 363e 5dcc 3e3e
000003d0: bf1e 253f 3805 b6be c0cb bcbe 677d 11bf
000003e0: 94cb d5be 81f7 90be 57e4 2cbf c1c3 30bf
000003f0: 8fe4 e43d fc79 ee3e e172 fa3e ec6b 803d
0.18246147 0.09020908 -0.2149364 0.13913348 0.8284896 0.42089385 -0.5603087 0.6029474
-0.14322923 -1.2613897 -0.22091141 0.007484756 -0.6922473 -0.4719465 -0.18414699 0.32568958
0.3795715 -0.06736423 -0.55464107 -0.20574151 0.6753076 -0.65410656 -0.6048178 0.61940515
0.073315546 -0.8695282 0.9969661 -0.10765306 0.11220087 0.8868028 0.5318519 -0.15930232
-0.15446092 -0.08478383 0.25632894 -0.21565521 1.1492758 0.57650274 -1.6861005 0.106142655
-0.62087363 0.14301673 -0.6878689 -0.1772185 -0.1423725 -0.21091591 -0.21039654 0.5829218
-0.21615642 0.05447469 0.11579894 -0.2724568 0.32449993 -0.7485459 -0.68803334 0.041956943
0.8092869 -0.5175454 0.859796 0.7788697 0.4081707 -0.44559655 0.5833241 0.055938635
0.085493304 -0.021498345 -0.291835 0.13867602 0.30647948 1.0925587 -1.0174439 -0.047805365
-0.89493936 -0.16582991 -0.3890272 0.100373186 -0.39647055 0.022767402 0.10560041 -0.18438433
1.1678226 0.14518239 0.14473353 -0.20270069 0.8490362 0.100031525 0.0872119 0.15788423
0.14937443 -0.86477643 0.5967649 1.1998253 0.1124979 0.021231517 0.025674917 -0.16465896
-0.06829629 -0.22340325 -1.1298451 0.78850615 0.45112216 -0.37034684 -0.271724 -0.5630705
-0.013082947 0.7162723 0.4710795 0.4242204 1.0048051 -0.5819682 0.24016067 0.5909046
0.07620549 -0.07610207 -0.31510583 0.9818738 0.27095357 -0.2571376 0.033584315 -0.24402411
0.090031676 -1.1865579 -0.6777221 0.5614708 0.1854791 0.025959624 0.17440704 -0.34808955
0.056279857 -0.4073654 -0.50985175 -0.82455575 -0.84958375 0.30436826 0.45080537 1.4747657
-0.6673565 0.8833247 -0.48300758 0.36143377 0.32427964 0.16554795 0.24679697 -0.0002678203
0.082596645 -0.45112804 -0.07622577 -0.15769105 -0.12845573 -0.13467596 -0.35310513 0.7158955
-0.14483818 -0.49041083 1.1792476 0.35889006 -0.6205434 0.5954681 -0.29527915 -0.0043200385
-0.0684346 0.77636796 0.5696122 0.11779692 0.46507755 -0.19243145 0.054346196 -0.7901191
0.20262398 -1.825644 0.1545372 -0.08453804 0.35450187 0.75459146 -0.3922454 -0.080595255
0.057181433 0.30913293 0.33902723 0.2693364 0.66258085 -0.048130654 -0.13826856 -0.016823966
-0.76264125 -0.20451075 -0.76333517 -0.40574598 0.43833295 -0.19734511 0.38893366 0.006897479
0.1079532 -0.76256096 -0.26170412 0.22340718 0.16157357 0.13148753 -0.22427115 -0.016908875
0.3991814 1.972984 0.09909793 -0.3795734 -0.5992668 -0.936552 0.28947634 0.15037312
-0.15149708 0.16801973 -0.5136991 -0.21794546 -0.5676942 0.6208223 0.23831165 -0.06686617
0.69330394 0.6275018 0.28085274 0.36463442 0.10712067 -0.57450557 -0.44954664 -0.17609096
0.016863957 0.80838954 0.4180052 0.05115493 0.18100949 -0.36671773 -0.031019982 -0.743109
-0.18611343 -2.0195236 0.1575896 0.3267793 0.677458 0.7618901 -0.00825413 -0.13542344
0.12658635 0.31179094 0.17784965 0.18632646 0.6450004 -0.35550857 -0.368742 -0.56831974
-0.4175688 -0.2831383 -0.6753592 -0.69048697 0.111764066 0.46577442 0.4891577 0.062705845

net.bn2.weight f4 [16]
00000000: b2db df3f 939c d93f 1d8d db3f 2d9a d13f
00000010: d937 eb3f 3e14 e03f aca4 e33f d3ba e43f
00000020: cc70 d73f 27b0 e63f 0d4e 933f d7b5 d23f
00000030: a45c b23f 0123 c43f f32f bc3f 3794 d73f
1.7488921 1.7000908 1.7152439 1.6375176 1.8376418 1.7506177 1.7784629 1.7869514
1.6831298 1.8022507 1.1508194 1.6461743 1.3934522 1.5323182 1.4702133 1.6842107

net.bn2.bias f4 [16]
00000000: cb48 c0be e72c 80be fd7c 8cbe 2c78 a5be
00000010: 8333 95be bf4e 96be 57c6 9dbe 7c35 c4be
00000020: e569 9dbe 730b d8be 082e 85be dc95 94be
00000030: 15c5 6abe 8772 e5be fbbe 88be 2066 b0be
-0.37555537 -0.25034258 -0.27439108 -0.32318246 -0.29140863 -0.29356954 -0.30815384 -0.38322055
-0.30744854 -0.42196235 -0.26011682 -0.29020584 -0.22926743 -0.4481394 -0.26708207 -0.34452915

net.bn2.running_mean f4 [16]
00000000: c3a1 8f3c d006 463c 13d8 4abe 10ab 8dbd
00000010: 7458 9e3c aa32 da3a 3267 35be c656 5f3e
00000020: b667 2fbe 0f41 9fbd e636 28bd 8383 783e
00000030: 1184 c83b b428 d0bb e699 1abe 8730 9f3d
0.017533189 0.012086585 -0.19808988 -0.06917393 0.019329287 0.0016647179 -0.17715147 0.21810445
-0.17129406 -0.07776081 -0.04106798 0.24268918 0.006119259 -0.0063525084 -0.1509777 0.07772928

net.bn2.running_var f4 [16]
00000000: 91d0 6c42 c27e 0442 ba7f 9341 7839 a641
00000010: fc24 f040 5486 c240 ba89 4741 2f25 bb40
00000020: 1a1c 1041 7207 cf40 791d 7041 0d85 e340
00000030: 5d37 5c41 9dc8 8c40 57bb 1741 2db1 ee40
59.20368 33.123787 18.437366 20.77806 7.5045147 6.0788975 12.471125 5.848289
9.006861 6.469659 15.007195 7.1099916 13.763516 4.399489 9.483237 7.459128

net.point_conv.weight f4 [16, 16, 1, 16]
00000000: 32f5 cebe 6fee d5be 4817 dbbe 4a03 b8be
00000010: 8e39 d8be 74bb b8be f07c bdbe 32fe c3be
00000020: 47a8 a1be 5d2d b1be 8643 83be 814d 4bbe
00000030: 7527 3bbe 3909 aabe f9cf 01bf 728a f0be
00000040: 0ef0 04be 7d54 6abe 187d 96be 0635 95be
00000050: f244 9ebe 4ec3 9bbe db68 90be 6036 99be
00000060: 80d8 84be 2a2b cabe 8330 d3be 04c8 c3be
00000070: 8442 e0be 45d3 0bbf 85c0 15bf de77 1bbf
00000080: a99c 60be d2d7 58be d69c 0abe a71e e6bd
00000090: 9305 2abe 5466 52be abee adbe 01c7 cfbe
000000a0: 2326 d2be e5f7 01bf 7083 ecbe 2864 9bbe
000000b0: 3f85 7fbe 18a5 79be 82a0 e5bd 8587 ebbd
000000c0: 341b adbe 147a 94be e13d 0cbe 565d 00be
000000d0: a1fb 37be b5c2 73be 3bec 5abe 0b88 8cbe
000000e0: 6525 a8be 589c a6be 529a debe 3317 d7be
000000f0: 0775 c4be 2370 bebe 3dd1 fcbe 9d3a 1ebf
00000100: 1da8 f63e c9dd c33e 544d f13e 22c4 c33e
00000110: d671 993e bdf7 813e adcb 503e 05af 063e
00000120: 7a04 723d eba0 eb3d 3208 003d 07e8 b53d
00000130: fa33 193e 66e0 873e 43fd dd3e caa7 023f
00000140: cd17 293e 8a64 633e 766f 833e ae1f a93e
00000150: fbcc bc3e 15f4 603e b3c3 193e bdeb a13d
00000160: 2e04 f53d 194b 853d 7b4c 8d3d 313e ab3d
00000170: bc45 1d3e b931 183e 8c29 393e ff12 833e
00000180: 2e08 e83e 1fb7 eb3e d32e ed3e 23e0 ca3e
00000190: a1b1 883e 7234 823e e67a 353e 30c5 903d
000001a0: 97fa 293e 26f7 593e 7303 9d3e 20da b43e
000001b0: 4cd4 f53e 758e bc3e 314e a43e e6ac 523e
000001c0: c23b 213f 0b2e 1e3f 4e12 103f 6fe4 bd3e
000001d0: 1e52 c93d bc2e 4ebe f170 a0be ea26 acbe
000001e0: 94e0 68be 4040 f33d e129 8c3e 1fa4 e53e
000001f0: 6a4f 0b3f f8f5 023f 5c37 0a3f e0dc b83e
00000200: ac60 0c3f a16b 1b3f f602 373f cbae 253f
00000210: 9c71 203f 7721 ea3e 19d6 ba3e fab3 c53e
00000220: 1764 983e 42a4 5e3e df73 4d3e 9d30 ac3e
00000230: 0ea8 b63e 86ce c83e 7078 013f 5c2f e53e
00000240: 10f3 c53e dc4e f03e 29c7 113f 6021 043f
00000250: c180 ac3e 2239 873e 4d45 133e c5c3 c53d
00000260: 8f83 83bc ca3c a2bd f130 af3d f992 e63d
00000270: 7a05 693e e7cb bc3e 7218 de3e 25b5 d23e
00000280: 8b0a 2cbd 118a b7be 1097 e0be d76e aabe
00000290: 3e1d a7be a8d1 e3bd 7fd0 7e3a 8333 0e3e
000002a0: 1938 8f3e 66e3 2a3e a69d 7e3d f96b 023d
000002b0: aeb5 24be 7cd5 c4be 0e39 b1be 04b4 b9be
000002c0: 7fab febd 4618 46be 8578 bdbd b3e6 563d
000002d0: ff44 923e e3c3 053f 9d0b 173f cafa ff3e
000002e0: f6c8 eb3e 70b6 a43e c893 fb3d b5d4 6bbd
000002f0: f9a2 24be 6057 46bd 8625 da3d 3a4f 3e3e
00000300: af60 d0be c6a5 08bf 06da e8be 608c 6bbe
00000310: 6dc2 213d 2ab1 b43e 13a2 0a3f 8682 2e3f
00000320: 8fe9 1a3f 86ed 053f 86a4 cc3e a406 5b3e
00000330: 2bc9 bebd 3283 2ebe c848 62be cc3a 1fbe
00000340: cd1a 19bd b74e aabc 496d 473b a947 e7bd
00000350: ae51 91be 2611 ddbe 0834 1bbf 5881 2fbf
00000360: cc27 17bf aba4 04bf e9ed e3be ba60 cabe
00000370: 20c1 8dbe bc5c 82be 8228 83be d74f d1be
00000380: b3d0 3f3e 8392 ef3d 3cac cdbd 2ce4 8cbe
00000390: b2b1 c3be c40a e3be 2e93 a6be 3776 9abe
000003a0: e63a 4fbe 4844 0cbe e54e 41bd cbdd 86bd
000003b0: 392d 6fbe 6996 abbe 2bda 0ebf 6b3a 1fbf
000003c0: 1db9 a83e 8e21 7c3d f9ac c9bd 093d b7bc
000003d0: 5541 923d 62aa 883e 05f0 cd3e 70ff eb3e
000003e0: a36f d53e 332f db3e 380c cf3e 15d4 6f3e
000003f0: 50ee 853d 8210 26bd 9d87 a33c be0b a8bc
-0.40421444 -0.41783473 -0.427912 -0.3594001 -0.4223141 -0.36080515 -0.37009382 -0.38279873
-0.31573698 -0.34604922 -0.25637454 -0.19853784 -0.1827677 -0.3321016 -0.50707966 -0.46980625
-0.12982199 -0.22883792 -0.29392314 -0.29142016 -0.30911976 -0.30422443 -0.28204998 -0.29924297
-0.25946426 -0.39486057 -0.4124795 -0.38238537 -0.43800747 -0.54619247 -0.58496886 -0.6072978
-0.21934761 -0.21176079 -0.1353639 -0.11236315 -0.16603689 -0.20546848 -0.33971152 -0.40581515
-0.4104472 -0.5076888 -0.4619403 -0.3034985 -0.24953173 -0.24379385 -0.11212255 -0.11500458
-0.33809817 -0.28999388 -0.1369548 -0.12535605 -0.17967083 -0.23804744 -0.21379177 -0.27447543
-0.3284103 -0.32541156 -0.43477112 -0.42009887 -0.38370535 -0.3719493 -0.49378386 -0.61808187
0.48175135 0.38255146 0.4712931 0.38235575 0.29969662 0.25384322 0.20390196 0.13152702
0.0590863 0.11505302 0.031257816 0.08882146 0.14961234 0.2653839 0.43357286 0.51037276
0.16512986 0.22206321 0.25670975 0.33031982 0.36875138 0.2196811 0.1501606 0.07906292
0.11963688 0.06508464 0.06899353 0.083614714 0.15358633 0.14862718 0.18082255 0.2560043
0.4531874 0.46038148 0.46324787 0.39624128 0.2669802 0.25430638 0.17722663 0.070688605
0.16599499 0.21285686 0.30666694 0.35322666 0.48013532 0.36827436 0.32090905 0.20573768
0.6298181 0.61789006 0.5627793 0.37088344 0.09830116 -0.20135015 -0.31336167 -0.3362344
-0.2274192 0.11877489 0.273757 0.44851777 0.5441805 0.5115657 0.5399072 0.36106014
0.5483501 0.60711104 0.71488893 0.6471984 0.62673354 0.45728657 0.3649147 0.38613874
0.29763862 0.21742347 0.20063733 0.3363084 0.3567509 0.39220065 0.505744 0.44762695
0.38662004 0.46935165 0.5694452 0.51613426 0.3369198 0.26410776 0.14381905 0.09656481
-0.016053943 -0.07921751 0.08554257 0.112585016 0.22755995 0.36874315 0.43378025 0.41153827
-0.042002242 -0.35847524 -0.43865252 -0.3328769 -0.32639498 -0.11123973 0.00097203994 0.13886838
0.27972487 0.16688308 0.062162064 0.031841252 -0.1608493 -0.38444126 -0.34613842 -0.36270154
-0.12435054 -0.19345197 -0.09251503 0.052466106 0.28568265 0.52252024 0.59002095 0.49996024
0.4605176 0.3217044 0.122840464 -0.0575759 -0.16077794 -0.04842317 0.10651688 0.1858491
-0.40698764 -0.5337795 -0.4547884 -0.23002768 0.03949206 0.35291415 0.54153556 0.6816791
0.6051263 0.52315557 0.3996927 0.21389252 -0.093157135 -0.17042235 -0.22098076 -0.15549773
-0.037379075 -0.020789487 0.003043013 -0.11292965 -0.2838263 -0.43177146 -0.6062627 -0.6855674
-0.590451 -0.51813763 -0.4451745 -0.39526922 -0.27686405 -0.25461376 -0.25616843 -0.40881225
0.18731956 0.11697867 -0.10042617 -0.2751783 -0.38221508 -0.4434415 -0.32534164 -0.30168316
-0.20237312 -0.13697922 -0.04719438 -0.065852724 -0.23357095 -0.3351319 -0.5580165 -0.62198514
0.3295373 0.061555438 -0.09847445 -0.022367971 0.07141367 0.26692492 0.40222183 0.4609332
0.41686735 0.42809448 0.4043901 0.23420747 0.06539595 -0.040543087 0.019962126 -0.020513412

net.bn3.weight f4 [16]
00000000: 37b5 8a3f 3579 a53f c311 a03f d82a 0540
00000010: 7f74 913f bd6e b43f 6d98 993f 995d d13f
00000020: e465 ac3f 510c 2b3f d973 d33f 4294 8e3f
00000030: cd2a 903f 5a45 943f 5943 4d3f e04e c43f
1.0836552 1.2927614 1.250542 2.08074 1.1363677 1.4096295 1.1999642 1.6356689
1.3468595 0.6681567 1.6519729 1.1138995 1.1263062 1.1583664 0.8018089 1.5336571

net.bn3.bias f4 [16]
00000000: 226c a2bd 3427 1ebb 0078 3abe 610e e0be
00000010: f1a7 c23d 9482 d6be 4691 e2bc 483d a0be
00000020: 8fb0 70be 34c1 3e3e 179b 74be 2225 95be
00000030: 28fa 05be 16ef 72be e7f8 053d 072a f8be
-0.07930781 -0.0024132254 -0.18209839 -0.4376097 0.095046885 -0.41896498 -0.027657162 -0.31296754
-0.23504852 0.18628389 -0.23887287 -0.29129893 -0.13083708 -0.23724017 0.032708075 -0.48469564

net.bn3.running_mean f4 [16]
00000000: 2808 bf3f 2d0e e73f 8084 8b3e aec9 5cc0
00000010: 386c 1440 a4be cabf 7484 c73e b435 74c0
00000020: 9ed8 df3f 0e9d 5540 0021 54bf 69bf 2ebf
00000030: b682 f03f 54a1 f03e d02d 9d3f c911 86c0
1.4924364 1.8051201 0.27249527 -3.4498096 2.3191051 -1.5839429 0.3896824 -3.8157778
1.7487981 3.3377109 -0.82862854 -0.6826082 1.878989 0.46998084 1.2279606 -4.189671

net.bn3.running_var f4 [16]
00000000: cc34 8543 fff6 b643 57d1 8c43 da42 9a43
00000010: d5a7 8343 c210 9a43 3f7d 8243 9388 d843
00000020: 90f2 c143 8634 9343 f18e a143 11ff 9543
00000030: ae9d a643 4fb3 9f43 6c0c 4943 04be ca43
266.41248 365.92966 281.63547 308.52228 263.3112 308.13092 260.9785 433.067
387.89502 294.41034 323.11673 299.9927 333.23187 319.40085 201.04852 405.4845

net.fc.weight f4 [32, 256]
00000000: c345 f1bd ab71 e2be e763 3ebf df74 c5be
00000010: b2d2 8bbe b2d8 af3d ccba d73c 2b52 23be
00000020: 5a99 3e3f d11b 1a3f df83 793d 8c6a 9c3e
00000030: a554 41be 7ffe eebe 4efb 57bf 57a3 40be
00000040: 4b44 a6be fdcf 8dbe ce86 97be 2167 adbe
00000050: 5515 da3d 00bc 13be 30b3 543e bcc1 303e
00000060: 3764 823e 27fa dc3e e31d 7bbe 2015 22be
00000070: c08e f5bd e072 09bf b838 bfbe 757a 453e
00000080: dfb5 16bf 3c5b e8be b5a5 30bf ac88 68be
00000090: 88e7 513e 8c79 e9be 464b 363d 769d e83e
000000a0: b865 053f 55c7 643f 9283 9e3e 470b 173e
000000b0: 539c d03e 51db d63d d208 cbbe 7660 3e3e
000000c0: efcd 753f 50a6 d43e 02eb aa3e 0f6d 333f
000000d0: 5b9e 693e 37bd 9a3d 8223 a13e 3f22 f4be
000000e0: 191c 30bf 59eb 5bbf 9cb2 d9be 3260 a7be
000000f0: df66 98be 4802 393e 9d34 983e 0c97 893c
00000100: a308 a63d 6ae8 f03e 2f06 c13c 508b ddbc
00000110: cf95 f93e ec0e e73c 1b9f 12be 9a63 6b3d
00000120: 4071 e43e fae1 c83e aa24 b83e ef0a 943e
00000130: 4c5d d4be 551e e23c cfec 243e 0f4e ba3c
00000140: 96e4 c43e 72f1 7b3e 6699 fa3e 1664 8c3e
00000150: b2a8 673e 86c7 5cbe fb49 88be ff79 813c
00000160: 4c3c e8be 2a7c b9be ca14 07bf 71df efbe
00000170: 7f1d 2e3e f2d4 453f 0d44 d93e 0c8f 003f
00000180: 52eb ddbd a17d 14bf 3973 e7be e953 e0bd
00000190: 1761 33be 4b63 ce3d 79a9 443e 442b 5f3e
000001a0: e46b 0f3f cabf 863e c461 b13e fa2c 0b3f
000001b0: d88b 96bd 3d43 21be 50cf e2be e8f0 31be
000001c0: 56e3 113f 5950 223f e0fe c33e d3ce 9b3e
000001d0: 5786 f03c bee6 c83e b31f 89be 0f5d 5dbe
000001e0: 2877 17bf 9820 8abf 1287 98be df44 27bf
000001f0: 4cf8 8bbe 9a77 073f ab9b d03e e2c1 823e
00000200: 5903 473f f40b 6ebe b4e5 853d 359a e83e
00000210: 00d6 283e b44b e13e 3efa 543e 801d e53c
00000220: 0754 cf3e 2315 493f 5a06 443e c4bb 453f
00000230: 9a66 383f 5521 b03d 899d 6d3e b5be f23e
00000240: d67b d3be e0be 98be 9613 00bf 83a3 e7be
00000250: cd62 50be b511 dfbe b98f 323d 2103 ce3c
00000260: 866e 07bd d802 a93d 9c05 983c fa94 933d
00000270: 69fa 5dbd 1ae9 bdbe 0455 dcbe 654c 9bbe
00000280: 8c34 fa3e 5d47 ef3e 91db 19be 3d9e 443e
00000290: db34 dc3e bb38 11be b928 babe 542a 84be
000002a0: 5963 f3be e548 85be 8710 c6be f9c5 21bf
000002b0: 6ad0 98be acb4 8a3e 10ca 043f 9fa8 b43e
000002c0: 5ef2 373f 6d92 f13e 86c5 323e a4db e23d
000002d0: c0e2 02bf 1639 fbbe d15b 77be f514 38bf
000002e0: 7326 70bf 52e4 79bf 77e8 4fbf 4d88 c0be
000002f0: 10b8 febd d87f 043f 7247 3f3e 5012 a7be
00000300: b352 d6be 371f 5abe 9bcb 02bf 8e39 a6be
00000310: 9ba5 963e 9f4d 013e c4bf 9cbe 9b41 1cbc
00000320: 46e5 9a3d 8158 3d3f a1f6 ee3e 138c 003e
00000330: 93bd 113d 99cf 4f3d 2fe6 8dbe 4c92 603e
00000340: 977e 5cbe 382b 90be bd3d 04bf 3882 ecbd
00000350: 75f9 12be f2a4 a1bd 82b1 02be 8bee 183e
00000360: 08c8 203f 7ea6 433f 5a00 d63e 8750 233e
00000370: 1870 9a3e 5f68 5abe 7fc5 25bf e070 d7bd
00000380: f043 52bf ff12 2cbf c213 e0bc d439 09bf
00000390: 945e 853b 8537 8a3e 3807 133d 5151 05be
000003a0: de6f 1e3e 7dee 8b3d d09f 503e eac8 aebd
000003b0: b870 15bf 4b8d 4abe 49ae c8be 3576 fabe
000003c0: f099 7f3e b7ac f23e 1a47 d03e b009 e43e
000003d0: 2ce5 8a3d db52 3abe aa8e 72be 6696 1cbf
000003e0: 4cc1 59bf b6b5 8fbf c08b d2be 3dad 56be
000003f0: 5fa9 49be 00e6 ccbd a238 e23d f071 50bd
-0.11780884 -0.44227347 -0.7437119 -0.38565728 -0.27309185 0.08586253 0.026334189 -0.15949313
0.74452746 0.60198694 0.060916778 0.3055004 -0.18879946 -0.4667854 -0.84367836 -0.18812309
-0.32473978 -0.27697745 -0.29595035 -0.33867744 0.106486 -0.14427185 0.2077148 0.17261404
0.25467083 0.431596 -0.2452312 -0.15828371 -0.11990118 -0.5369091 -0.3734796 0.19284995
-0.58871263 -0.45382106 -0.6900285 -0.22708386 0.20498478 -0.45600545 0.04450538 0.45432633
0.52108335 0.89366657 0.30959755 0.14750396 0.40744266 0.1049105 -0.39655167 0.18591484
0.96017355 0.41533136 0.33382422 0.70088285 0.22814314 0.07555621 0.31472403 -0.47682378
-0.68792874 -0.8590599 -0.4251908 -0.3269058 -0.29765984 0.18067276 0.2972764 0.016795658
0.08107116 0.47052318 0.023562519 -0.027043968 0.48747107 0.028205357 -0.14318506 0.057468034
0.44617653 0.39234906 0.35965472 0.28914592 -0.4147743 0.027602354 0.1610596 0.0227423
0.38455647 0.24603823 0.4894516 0.2742011 0.22622946 -0.21560487 -0.26618943 0.015805243
-0.45358503 -0.36227542 -0.52766097 -0.4685016 0.1700344 0.77278054 0.4243473 0.5021827
-0.108358994 -0.58004194 -0.45205095 -0.109535046 -0.17517506 0.100775324 0.19205274 0.21793848
0.56024003 0.26318198 0.34644902 0.54365504 -0.07350892 -0.15748306 -0.44298792 -0.17377055
0.5698751 0.6340385 0.38280392 0.30431232 0.029360933 0.39238542 -0.26781997 -0.2161753
-0.59166193 -1.0791197 -0.2979055 -0.65339464 -0.27337873 0.5291687 0.40743765 0.25538546
0.77739483 -0.23246747 0.06537953 0.4543015 0.16487885 0.4400307 0.20798585 0.027968168
0.40493795 0.7854788 0.19143048 0.7723963 0.7203156 0.086001076 0.23204626 0.47411123
-0.41305417 -0.29833126 -0.50029886 -0.45241937 -0.2035019 -0.43568197 0.043594096 0.025147976
-0.033064388 0.082524955 0.018557362 0.072061494 -0.054193888 -0.37091905 -0.43033612 -0.30331722
0.48868215 0.46734133 -0.15025164 0.19200988 0.43009076 -0.14181797 -0.36359194 -0.25813544
-0.47536734 -0.26032177 -0.38684484 -0.6319271 -0.29846507 0.27090967 0.5187082 0.35284898
0.718542 0.47182027 0.17458162 0.110770494 -0.51127243 -0.4906699 -0.24156119 -0.7190698
-0.9380867 -0.97614014 -0.8121409 -0.3760399 -0.12437451 0.51757574 0.18679598 -0.3263116
-0.4185997 -0.2130097 -0.5109193 -0.32465786 0.29423222 0.12627266 -0.30615056 -0.009537126
0.07563262 0.7396317 0.46672538 0.12553434 0.035581183 0.05073509 -0.2771468 0.21930808
-0.21532665 -0.28157973 -0.51656705 -0.11548275 -0.14352973 -0.07892789 -0.12763026 0.14934747
0.62805223 0.7642592 0.41797143 0.15948687 0.30163646 -0.21328877 -0.6475448 -0.10519576
-0.82134914 -0.67216486 -0.027353171 -0.53603864 0.0040701125 0.26995483 0.035895556 -0.13019301
0.15472361 0.068325974 0.20373464 -0.08534415 -0.5837512 -0.19780461 -0.3919547 -0.4891831
0.24961066 0.47397396 0.40679246 0.4453864 0.06781992 -0.1819567 -0.23687235 -0.6116699
-0.8506057 -1.1227329 -0.41122246 -0.20964523 -0.19693516 -0.100048065 0.11045958 -0.05088991

net.fc.bias f4 [32]
00000000: b697 d4bf 6896 99be 4031 40bf 6fca 8bbe
00000010: a780 9dbf 1d0b 8bbf f47c 463f 0195 8dbf
00000020: eb92 f13f e74e 6cbf c0b1 1b3f 165a 473f
00000030: 8660 923f d6ed bd3e 0ec6 2fbe deb7 73bf
00000040: fefd 4c3f 39da 2d40 176d 52be 79fb 29bf
00000050: 44a3 38bf 5e85 fbbe 2c00 83bf ee9c 5cbf
00000060: 2091 3cbf f21f 84bf fc52 7c3f 278c 9d3e
00000070: f66a 2a3e afc4 583f 853c 413f f172 e0be
-1.6608799 -0.29997563 -0.7507515 -0.27302882 -1.2304887 -1.0862767 0.77534413 -1.1061097
1.8872961 -0.92307895 0.608181 0.77871835 1.1435707 0.37095517 -0.17165396 -0.95202434
0.8007506 2.7164443 -0.20549427 -0.6639934 -0.72124124 -0.4912519 -1.0234427 -0.86176956
-0.73658943 -1.0322249 0.98564124 0.3077099 0.16642365 0.84675115 0.7548297 -0.43837693

exp_avg f4 [8, 1, 1, 256]
00000000: 5546 7db9 6f60 83b9 3617 8cb9 6e56 97b9
00000010: 6743 a4b9 4caf b2b9 e87a c4b9 3bd4 d9b9
00000020: 31c6 f1b9 0f49 05ba a87b 11ba 32fa 1cba
00000030: 829d 26ba d9a4 2dba 384d 31ba 4cb1 31ba
00000040: f1e4 2fba 1046 2dba 01e0 2aba 14e5 28ba
00000050: b26c 26ba b149 22ba 2d74 1bba 8164 11ba
00000060: 32be 04ba 3db6 ecb9 27aa d0b9 fe76 b8b9
00000070: a472 a6b9 a349 9bb9 6d35 96b9 8b25 93b9
00000080: 9e69 8fb9 02d8 88b9 201e 7db9 4048 62b9
00000090: 184d 45b9 551e 2db9 8f55 1db9 af9a 16b9
000000a0: c009 18b9 b1d7 1db9 d536 22b9 b79f 1fb9
000000b0: 7cb8 14b9 2879 01b9 2f5a d3b8 fce9 a8b8
000000c0: 1d0f 88b8 88b8 56b8 7846 14b8 53e7 3eb7
000000d0: 4ed4 e637 2bac a938 db37 1739 1657 5b39
000000e0: 9cf0 8939 a6bf 9b39 de8a 9f39 dfa7 9439
000000f0: f64c 7b39 4818 4039 a03b 0439 19a0 a338
00000100: a7dd 3938 420c ce37 3ad1 4b37 f6a6 8bb5
00000110: e5ef a3b7 e293 3db8 e5df 99b8 486a d0b8
00000120: c562 f1b8 f806 f2b8 0381 d5b8 8f77 a2b8
00000130: 0a66 44b8 c5e5 8db7 c92a 0537 96e7 ca37
00000140: 9a2b 0938 4276 2438 7006 5538 b9b4 9c38
00000150: 5394 ed38 42c0 2d39 2485 6b39 07d7 9239
00000160: b14a a839 587f b239 138e b239 73aa a939
00000170: cb01 9c39 5fb6 8c39 3074 7d39 2051 6739
00000180: 0f8a 5439 bfdd 4539 ebe0 3a39 170f 3439
00000190: 41c5 3339 bdd5 3e39 44b5 5939 c334 8339
000001a0: 41d3 a139 ac21 c639 6c05 eb39 6835 053a
000001b0: 84bd 0f3a 20fb 133a f31e 123a 593e 0b3a
000001c0: 85b6 013a 8053 ef39 c1fc dc39 f545 cc39
000001d0: e397 bb39 eae9 a639 1410 8b39 2699 4d39
000001e0: b998 ed38 b2d0 c437 e363 85b8 4b7d 11b9
000001f0: a905 4ab9 953f 68b9 99c5 6cb9 3a47 5fb9
00000200: 6fc1 48b9 9956 32b9 018b 24b9 1b62 21b9
00000210: feae 25b9 1ecd 2bb9 997a 2eb9 881b 29b9
00000220: ab5a 1bb9 c988 08b9 3163 eeb8 bf83 d9b8
00000230: bd98 d6b8 a511 e2b8 4761 f2b8 28fd fcb8
00000240: 4561 fab8 f05b ecb8 9e96 ddb8 1d7d e0b8
00000250: b98e 03b9 95b3 2eb9 c8c4 71b9 a3cf a1b9
00000260: a398 c9b9 11fe e6b9 e180 f2b9 10c4 e8b9
00000270: 4958 cbb9 68e1 9fb9 3817 5db9 1c1a 00b9
00000280: 0053 5bb8 072b d1b6 3826 a437 8867 1138
00000290: 1265 4f38 c642 9b38 ae41 eb38 f43b 2639
000002a0: f1a4 5539 3742 7939 aae3 8339 e9ec 7c39
000002b0: 59d3 5d39 cb08 3439 c1ae 0b39 a272 e238
000002c0: bd4e d838 66f8 f838 5ee6 1839 e296 3439
000002d0: e57d 4239 f8e3 3c39 4f3d 2639 b5da 0839
000002e0: 43dc e238 9330 db38 5618 0239 ebcb 2839
000002f0: c46c 5539 d36a 7b39 80a9 8739 d38e 8539
00000300: 34ac 7339 a1f1 5339 519e 3a39 e361 3439
00000310: 5a6a 4839 5431 7139 b380 9039 30fa a239
00000320: c800 a839 46ab 9a39 f99b 7639 0cf1 1d39
00000330: 2848 7738 1dc8 b6b7 219e 9cb8 c5c1 c4b8
00000340: bd1b aab8 e4e9 39b8 27e3 a336 a1e6 6638
00000350: 9a20 cf38 fdfe 0d39 4297 3239 ad9d 5a39
00000360: abd5 8639 b56b a539 1c5a c439 56d0 dc39
00000370: 49df e839 3151 e539 8fd6 d039 e233 b039
00000380: d005 8a39 8c9f 4b39 03ef 1339 b3a2 e838
00000390: 84c7 ce38 013f c838 d66c bc38 1c56 9638
000003a0: 439a 1d38 4a77 19b7 1b1f 78b8 17c6 d4b8
000003b0: 3be2 01b9 d412 ffb8 a4cc cab8 e98c 64b8
000003c0: 3e84 8ab6 de10 3338 147e a038 9593 c338
000003d0: f865 c738 b56a b738 bad8 a738 20fb a338
000003e0: b1e5 af38 ef88 c038 5b2a c238 7586 a538
000003f0: 550b 3f38 10a4 a2b6 f7f7 89b8 9ea4 06b9
-0.00024154161 -0.00025058116 -0.00026720174 -0.0002886536 -0.00031330736 -0.00034081412 -0.00037475605 -0.0004154759
-0.00046114766 -0.0005084434 -0.0005549737 -0.000598821 -0.0006355868 -0.00066239905 -0.00067635207 -0.00067784335
-0.0006709835 -0.00066098664 -0.00065183645 -0.00064428267 -0.00063485943 -0.00061907904 -0.00059300923 -0.0005546287
-0.00050637417 -0.00045149206 -0.00039799625 -0.0003518387 -0.000317474 -0.00029618767 -0.00028650035 -0.00028065997
-0.00027353776 -0.0002610088 -0.00024139183 -0.00021579955 -0.00018816104 -0.00016509865 -0.0001500456 -0.00014362739
-0.00014499482 -0.00015053038 -0.0001546995 -0.0001522292 -0.00014183106 -0.00012347533 -0.00010078062 -8.054447e-05
-6.4878004e-05 -5.1193434e-05 -3.535158e-05 -1.1378742e-05 2.7516999e-05 8.090617e-05 0.0001442129 0.0002091791
0.00026309944 0.00029706693 0.00030430307 0.00028353833 0.00023965896 0.00018319592 0.00012610713 7.802266e-05
4.4313867e-05 2.4562822e-05 1.2148457e-05 -1.0404899e-06 -1.9542824e-05 -4.5198838e-05 -7.337312e-05 -9.938009e-05
-0.00011510173 -0.00011540757 -0.00010180662 -7.7470315e-05 -4.6825073e-05 -1.6915505e-05 7.937379e-06 2.4188117e-05
3.2703952e-05 3.9210783e-05 5.0789153e-05 7.472322e-05 0.00011328668 0.00016570187 0.00022460945 0.00028007498
0.00032099106 0.00034045684 0.0003405666 0.00032361186 0.00029755975 0.00026838758 0.00024171243 0.00022060098
0.00020269326 0.00018869991 0.00017822131 0.00017171759 0.00017144253 0.00018199436 0.0002076226 0.00025025578
0.0003086571 0.0003779059 0.00044826732 0.00050815055 0.0005483257 0.00056450255 0.000557407 0.000531172
0.0004948157 0.00045647845 0.00042149986 0.00038962034 0.00035780584 0.00031836267 0.00026524125 0.00019607376
0.000113294875 2.3462202e-05 -6.3605396e-05 -0.00013874953 -0.0001926633 -0.0002214893 -0.00022580325 -0.00021293471
-0.00019145546 -0.00017007663 -0.00015692042 -0.00015390704 -0.00015800816 -0.00016384243 -0.00016639604 -0.00016127352
-0.00014815728 -0.00013020927 -0.000113672 -0.00010371906 -0.00010232765 -0.00010779806 -0.000115575785 -0.000120634504
-0.00011939047 -0.000112704816 -0.00010566156 -0.000107044565 -0.00012546302 -0.00016660833 -0.00023056858 -0.00030863014
-0.0003845143 -0.00044058313 -0.0004625386 -0.00044396566 -0.00038784955 -0.00030494784 -0.00021084852 -0.00012216758
-5.229097e-05 -6.2336944e-06 1.956812e-05 3.4667115e-05 4.9446775e-05 7.4034135e-05 0.00011217907 0.00015853328
0.00020374708 0.00023771157 0.0002515589 0.00024120849 0.00021154936 0.00017169413 0.00013321174 0.00010797872
0.00010314349 0.00011871829 0.00014581668 0.00017222346 0.00018548181 0.00018014002 0.00015853833 0.00013051445
0.00010817547 0.000104517814 0.00012406832 0.00016097694 0.00020353781 0.0002397702 0.00025875494 0.0002547415
0.00023238437 0.00020212542 0.0001779732 0.00017202603 0.00019113105 0.00023001927 0.0002756171 0.00031085452
0.0003204404 0.00029500778 0.00023518493 0.00015062484 5.895659e-05 -2.1789276e-05 -7.4681135e-05 -9.382101e-05
-8.111398e-05 -4.4325265e-05 4.8842226e-06 5.5051063e-05 9.876602e-05 0.00013541798 0.00017031751 0.00020848839
0.00025717667 0.000315515 0.0003745117 0.00042116892 0.0004441685 0.00043738776 0.0003983271 0.00033607992
0.00026325742 0.00019419024 0.00014108051 0.00011092927 9.860008e-05 9.5484786e-05 8.984811e-05 7.1685965e-05
3.7575384e-05 -9.147285e-06 -5.9156777e-05 -0.00010145845 -0.00012386676 -0.000121628545 -9.670228e-05 -5.449067e-05
-4.1281155e-06 4.2692634e-05 7.6528784e-05 9.325814e-05 9.5080526e-05 8.745996e-05 8.003549e-05 7.819221e-05
8.3874336e-05 9.180779e-05 9.25853e-05 7.892858e-05 4.5548502e-05 -4.8470756e-06 -6.578856e-05 -0.0001284056

exp_avg_sq f4 [8, 1, 1, 256]
00000000: 6e6f 5235 9e7e 6035 eff2 5735 2be0 4035
00000010: 4f08 2e35 fa20 2835 6efd 2835 b760 2935
00000020: 89cd 2c35 8525 3b35 d48e 5135 3089 6035
00000030: 2028 5c35 ebdd 4935 c3d9 3935 61eb 3335
00000040: 7fe0 3135 082c 2d35 252a 2c35 433c 3b35
00000050: 4dbd 5935 d4da 7335 7473 7435 58d8 5a35
00000060: dbb7 3a35 ff9e 2635 184d 2035 78af 1f35
00000070: 57fb 2235 c954 3035 a771 4735 e470 5935
00000080: 00e3 5535 7aec 3e35 81d2 2935 0b29 2835
00000090: 221c 3535 0566 3d35 e83c 3735 8655 2c35
000000a0: 91ea 2a35 f72f 3235 5198 3435 5bfa 2b35
000000b0: a2ff 2335 a861 2b35 3265 3f35 7d36 4d35
000000c0: 3439 4835 17e4 3835 532f 3135 ab12 3635
000000d0: bf52 3b35 8858 3635 6687 2e35 7913 3435
000000e0: d9c7 4835 6885 5a35 d939 5735 c54a 4135
000000f0: 1982 2b35 0ac9 2235 45ce 2235 14a2 2235
00000100: babd 2535 b4db 3735 0ba4 5835 e61d 7435
00000110: 78eb 7535 b8af 6035 5615 4c35 1d51 4a35
00000120: 107c 5535 1f8b 5b35 521f 5835 ad2d 5a35
00000130: 96d0 6d35 043a 8435 1f48 8935 8c51 8135
00000140: eeaf 6735 d49b 5635 a35d 5335 4587 5235
00000150: e9f1 4e35 9be9 5335 f8ba 6b35 9866 8535
00000160: dff0 8a35 0ee4 7e35 d953 5535 d04a 3535
00000170: c157 2a35 3de1 2835 7f83 2435 9d3f 2335
00000180: bb33 3335 3f4d 5135 9244 6535 5114 5b35
00000190: 547d 3a35 9fb7 1e35 5fbf 1835 5e3a 2035
000001a0: 36ae 2435 9bd8 2535 a648 3235 6e96 4e35
000001b0: c707 6935 9335 6c35 d2fe 5835 0eb2 4535
000001c0: c477 4335 0b84 4b35 5fef 4b35 60f0 4135
000001d0: 81da 3d35 1143 4b35 084c 5e35 8753 6135
000001e0: 96ab 5135 3fba 4535 6f9d 5235 4358 7135
000001f0: 1196 8235 142f 7b35 19b1 5c35 d5ef 3f35
00000200: 4ae3 2e35 0abd 2535 9ef9 2735 5f21 4535
00000210: 9f15 8235 9084 a635 87a6 b935 498f ae35
00000220: 77e7 8d35 61a9 5935 58f0 3235 f0f7 2635
00000230: dade 2b35 1d96 4335 ca7d 7435 efeb 9835
00000240: b66d ac35 17f4 a635 b3f3 8c35 23b7 6235
00000250: f17a 4635 6639 4435 ab5d 4935 d917 4d35
00000260: 551c 5635 f8b2 6735 5e26 7435 4fa9 6935
00000270: 2f7f 4935 f925 2935 18c8 1a35 ee80 1b35
00000280: fd92 1e35 8ef2 2335 5298 3935 2017 6435
00000290: 4a59 8735 65fe 8d35 0248 8335 7758 6935
000002a0: 9eac 6235 a702 7435 9c0f 8235 f2d8 7d35
000002b0: b730 6535 9bdb 4c35 6994 3e35 e96d 3735
000002c0: 3580 3835 dec9 4f35 3302 8335 3afb a335
000002d0: 586f b635 8fb4 ac35 8190 8c35 099f 5235
000002e0: 4324 2435 c031 1035 a999 0a35 df88 0e35
000002f0: e078 1f35 8788 3835 fef7 4735 923d 4235
00000300: 51f9 3335 20eb 3735 99e2 5835 5f6a 8135
00000310: 9e31 8b35 bc6c 8435 3eda 6b35 b9f9 5535
00000320: 8fb7 4b35 637b 4335 9f93 3935 31c2 3635
00000330: a123 4235 52df 5335 bd82 5d35 6ca3 5d35
00000340: 5ecf 6235 a5b4 7635 6896 8635 be9a 8735
00000350: ce1a 7635 736d 5535 77dd 4535 dfaa 4a35
00000360: 8ecd 5035 92bc 4735 9448 3435 c835 2735
00000370: eac9 2635 ab84 2935 42e5 2635 03eb 2435
00000380: 83e1 2e35 afaa 4235 88e1 4e35 f931 4735
00000390: e53b 3535 e91a 2f35 907a 3d35 7291 5135
000003a0: 6ec8 5635 4380 4935 bad7 3735 d998 2e35
000003b0: e89f 2c35 5491 2b35 26ee 2e35 7ddb 4135
000003c0: bfa7 6435 41cb 8135 66a8 8335 7c8d 6c35
000003d0: 2699 4735 5f36 2f35 9b66 2835 47bc 2835
000003e0: b866 2835 cc14 2b35 ca3c 3535 9e17 4035
000003f0: 6599 3f35 7729 3335 601f 2935 f971 2e35
7.839325e-07 8.3630755e-07 8.0447256e-07 7.185178e-07 6.483214e-07 6.2632864e-07 6.2953666e-07 6.3098145e-07
6.4374086e-07 6.9717527e-07 7.806641e-07 8.3646137e-07 8.2014776e-07 7.520127e-07 6.9234756e-07 6.702522e-07
6.6264323e-07 6.4511596e-07 6.413632e-07 6.975062e-07 8.111427e-07 9.084299e-07 9.106509e-07 8.152615e-07
6.9557944e-07 6.207119e-07 5.971683e-07 5.9487456e-07 6.071545e-07 6.568849e-07 7.4298663e-07 8.1003077e-07
7.967901e-07 7.1124634e-07 6.326373e-07 6.26446e-07 6.7468693e-07 7.0556445e-07 6.826144e-07 6.4199446e-07
6.3671274e-07 6.6379965e-07 6.7276875e-07 6.406678e-07 6.1094227e-07 6.384457e-07 7.1300303e-07 7.644774e-07
7.458905e-07 6.8877256e-07 6.6006504e-07 6.782745e-07 6.978334e-07 6.7929113e-07 6.501708e-07 6.708356e-07
7.479662e-07 8.140546e-07 8.017792e-07 7.2006907e-07 6.389178e-07 6.0642253e-07 6.0649865e-07 6.058556e-07
6.174338e-07 6.849252e-07 8.0704984e-07 9.094059e-07 9.1612264e-07 8.3702207e-07 7.602697e-07 7.53689e-07
7.952922e-07 8.1786305e-07 8.051185e-07 8.1277796e-07 8.859291e-07 9.851651e-07 1.0228285e-06 9.634982e-07
8.631022e-07 7.994797e-07 7.8739885e-07 7.842794e-07 7.7093006e-07 7.8943566e-07 8.78164e-07 9.939131e-07
1.0351904e-06 9.4954237e-07 7.94707e-07 6.753662e-07 6.3457634e-07 6.291264e-07 6.1286113e-07 6.08148e-07
6.6757974e-07 7.7970975e-07 8.540893e-07 8.161342e-07 6.9472776e-07 5.912679e-07 5.6902894e-07 5.968958e-07
6.134827e-07 6.178249e-07 6.6415885e-07 7.6959884e-07 8.681058e-07 8.799481e-07 8.083708e-07 7.364732e-07
7.281744e-07 7.581554e-07 7.5971724e-07 7.2247894e-07 7.072595e-07 7.572099e-07 8.2812085e-07 8.394058e-07
7.810826e-07 7.365924e-07 7.846019e-07 8.9907934e-07 9.72943e-07 9.3573294e-07 8.22141e-07 7.1502046e-07
6.51508e-07 6.174238e-07 6.257559e-07 7.343678e-07 9.692047e-07 1.2406545e-06 1.383204e-06 1.3005712e-06
1.0572684e-06 8.108528e-07 6.6659914e-07 6.2200616e-07 6.4026756e-07 7.2861604e-07 9.108013e-07 1.1393548e-06
1.2846929e-06 1.2439003e-06 1.0501739e-06 8.445806e-07 7.393965e-07 7.3099216e-07 7.501464e-07 7.6403154e-07
7.976244e-07 8.631464e-07 9.0952915e-07 8.704564e-07 7.506341e-07 6.3012664e-07 5.7660645e-07 5.7929617e-07
5.907348e-07 6.1075195e-07 6.9139526e-07 8.497027e-07 1.008427e-06 1.0579357e-06 9.781218e-07 8.6928e-07
8.444275e-07 9.0900943e-07 9.690298e-07 9.456554e-07 8.538004e-07 7.631549e-07 7.099648e-07 6.833275e-07
6.873191e-07 7.7407265e-07 9.760901e-07 1.2217563e-06 1.3592462e-06 1.2867548e-06 1.0472869e-06 7.8462523e-07
6.114753e-07 5.3716576e-07 5.163261e-07 5.3098296e-07 5.940801e-07 6.8744015e-07 7.4494153e-07 7.236023e-07
6.70455e-07 6.8514964e-07 8.0796013e-07 9.642207e-07 1.0370748e-06 9.866412e-07 8.7861906e-07 7.971208e-07
7.5890506e-07 7.282271e-07 6.913269e-07 6.808287e-07 7.232248e-07 7.89286e-07 8.2519165e-07 8.2566726e-07
8.449332e-07 9.1905014e-07 1.0027552e-06 1.010332e-06 9.168115e-07 7.9507953e-07 7.371049e-07 7.5499514e-07
7.778516e-07 7.4407683e-07 6.716084e-07 6.229061e-07 6.213364e-07 6.3150463e-07 6.2173433e-07 6.143675e-07
6.5148214e-07 7.251901e-07 7.706917e-07 7.4205997e-07 6.751491e-07 6.523174e-07 7.058634e-07 7.807022e-07
8.0012876e-07 7.506498e-07 6.8486736e-07 6.5042474e-07 6.430769e-07 6.3913944e-07 6.51666e-07 7.22175e-07
8.518072e-07 9.670404e-07 9.809271e-07 8.812274e-07 7.435614e-07 6.52717e-07 6.273419e-07 6.2858857e-07
6.273435e-07 6.373273e-07 6.7516214e-07 7.155994e-07 7.1376263e-07 6.6743036e-07 6.300306e-07 6.4985903e-07

exp_avg f4 [8]
00000000: ecda 9130 60c1 3cb0 0978 f8b1 159e 0ab2
00000010: 2cf1 9eb2 0f65 b031 8137 a230 352a ec30
1.061236e-09 -6.8668804e-10 -7.2313964e-09 -8.068601e-09 -1.8503293e-08 5.133763e-09 1.1802826e-09 1.7183256e-09

exp_avg_sq f4 [8]
00000000: 798b 4826 7124 9826 5766 b627 9979 db27
00000010: 01e0 9527 5cd4 1427 275f ec26 80b7 cf26
6.957796e-16 1.0556996e-15 5.0626105e-15 6.0916547e-15 4.1598673e-15 2.0654246e-15 1.6401581e-15 1.4413248e-15

exp_avg f4 [8]
00000000: f2fc f52f 4b41 e430 d786 0c2e c000 ac2f
00000010: b0f1 1c2e 2ad6 edae 341d e1b0 60b7 1a30
4.474497e-10 1.6607741e-09 3.1952076e-11 3.128715e-10 3.5684955e-11 -1.08155554e-10 -1.6379205e-09 5.6285465e-10

exp_avg_sq f4 [8]
00000000: df95 d622 b72f ea23 570e 2a23 948c 4f23
00000010: 0e12 b923 7fba 1d24 3692 3723 f588 1123
5.81635e-18 2.5390539e-17 9.218755e-18 1.1251261e-17 2.0065387e-17 3.4201917e-17 9.951411e-18 7.8894675e-18

exp_avg f4 [16, 1, 32, 1]
00000000: 0fe8 513a cf37 aa3a bfa8 d93a cba6 1ab9
00000010: a80b 203a 0f2b 96ba f4f6 2ab9 610a ecb8
00000020: 6c50 e539 bb16 ee39 d0da adb8 0088 a8ba
00000030: 7dc2 f6b9 12a4 38b9 c654 a8ba d759 b639
00000040: 6c38 053a 57dc 20ba d5cf 1a38 f076 b8ba
00000050: 19e1 84ba c94f a938 ce3d a8b9 0c22 51ba
00000060: 8af3 4d39 73e6 9fb9 b7d1 3eb8 2ee0 3c39
00000070: 7a1a c338 c098 fdb7 17a9 54b9 0f1f a73a
00000080: 763a b83b b186 a8b9 1af2 bf3b a8bc 6f38
00000090: af17 e738 74fb 023a 28fc 213a 7990 ddb8
000000a0: e76d c438 5975 8eb9 1276 8f38 f2f2 473b
000000b0: 0609 87b9 c38d 033a fb62 473b bf23 bdb9
000000c0: 5642 6fba 2c1c dcbb 2ce8 e4b8 4d11 473a
000000d0: 7e30 a239 b2c9 5d36 1934 f4b8 d820 efb8
000000e0: 4c8d 69b9 a89a c939 b00f a5b8 00d3 8ab9
000000f0: 59e8 d4b8 1855 8db8 f270 4eb9 d172 4cbb
00000100: 2c72 1eba c04f 71b9 7f98 bfb9 7425 75b9
00000110: 36db 86b9 7fab afba 96e2 853a bd27 aeb8
00000120: 1a60 ee39 4895 4039 d8c4 a0b9 6bed 0c3a
00000130: 5c1e 5db9 a807 8aba 3f29 203a c1f2 743a
00000140: b485 9d3a 2cbe cc39 010d c739 c2ba e539
00000150: e30c 0d38 6c9f 5fb9 ff06 b639 9f10 84b9
00000160: 4214 bab9 7f4f 63b8 cb9f a138 0170 1f3a
00000170: 9fcf a939 867c 273a 1924 bc3a 7fe0 19ba
00000180: 848f 12ba ccf9 8aba 8676 1b3a e643 5bba
00000190: c94d 1c3a 07ca beba febb bfba 8c9b 7c3a
000001a0: 4178 b639 aedb 09bb 9ee4 c739 3092 71ba
000001b0: 85e5 d9b9 80d9 b8ba 01fd 3cba b635 fb3a
000001c0: 6fc1 b5ba 1a2c 6fb8 e96d 023b 0da7 c33a
000001d0: 8530 443a b1d4 2ab9 ad62 113a eead 943a
000001e0: a275 4d39 003d 81ba 5e37 9e3a 4d15 b8ba
000001f0: 6eca 24ba 60ac df3a 17b7 70ba 82df 863a
00000200: a37e 8c3a 1c48 d83a e6b1 3db9 1b77 03bb
00000210: 74db 84bb 65c9 d239 ef35 3bbb 7431 4fbb
00000220: cfba 11ba 517f 723a 4683 b1ba 30d7 7abb
00000230: cc8d ac3a 2f0f 973b bde3 81bb 8bb6 a6bb
00000240: a0e3 583b d80e b339 e14d 56ba 40d3 faba
00000250: bb09 18ba c74c 693b b03c d1b9 3d18 c4b8
00000260: 4fea 833b faff 153b ce97 bb39 f8e6 743a
00000270: 2c5b 73b9 84c8 87bb 1a6a 75ba 0b60 803b
00000280: 4b93 a2ba 4723 39ba affe baba 93c0 9bbb
00000290: 9abe 033a 0618 0a3a f515 a9bb 6b0b 11bb
000002a0: 87f3 e53b dbab fc3a 74e4 2ebc 0bc6 183b
000002b0: d071 d03b dc84 80bb d3a2 c73a 0a66 b73a
000002c0: ae62 10bb 4262 013a d893 2a3b 71bf 423b
000002d0: f67c 5d3b 62fb 1f3b 7bcd 90bb 059d 8e3b
000002e0: 44e0 083c abc8 cc38 db3c 63bb 03f9 083c
000002f0: 0525 eebb b255 b5ba 4fb8 3f3c 67e4 32bb
00000300: 8288 ac3a 157e 303a 56d0 ae3a b183 f33a
00000310: 31cb 2dba 4426 03ba 1a2d ac3a 09be 083b
00000320: df84 a6b7 4d4c 3738 6566 e53a c503 d239
00000330: 1ef7 4eb9 c51b 863a 6599 c539 1a97 8439
00000340: e68a 0ebb b15b a0ba f26b afba 91f7 7eba
00000350: 3b27 91ba adf9 6fba a9b5 223a 2c28 60b8
00000360: 2f52 1bbb 1066 0ab9 04b2 f339 ba06 15bb
00000370: 7a26 1cba 9bd0 b0ba 48a3 1cbb 8d69 91b9
00000380: c2c0 8039 d77b d83a 158a 7739 bf1c c3ba
00000390: 6f20 143b 1931 493b 96b6 2bbb aeaf 34bb
000003a0: f50f 903b 85a5 793a 9c1f 8dba f50f 563a
000003b0: 51b2 583b def0 0abb 152c 4d39 b39c 9b3a
000003c0: 9096 9bbb 44ae 9db7 ec39 de39 2e4a f5b9
000003d0: 2154 acb9 0dbf 7d3a 9fe1 92bb 1d0b 4d3a
000003e0: 4e95 853b d4c3 94ba c0c9 29bb 7219 273b
000003f0: b5b2 8ebb fcbf f2b9 5812 1fb8 2679 1eba
0.0008007297 0.0012986603 0.0016606076 -0.0001474872 0.00061052525 -0.0011456924 -0.0001630446 -0.0001125529
0.00043738203 0.00045411833 -8.29004e-05 -0.0012857914 -0.0004706568 -0.00017608728 -0.0012842647 0.0003478068
0.0005081955 -0.0006136349 3.691002e-05 -0.0014073532 -0.0010137885 8.073409e-05 -0.00032089505 -0.00079777907
0.00019641049 -0.0003049854 -4.5494842e-05 0.0001801259 9.303256e-05 -3.023108e-05 -0.00020280886 0.0012750345
0.0056222035 -0.0003214381 0.005857718 5.715774e-05 0.0001101935 0.0004996576 0.0006179237 -0.00010565011
9.366479e-05 -0.0002717178 6.840764e-05 0.0030509797 -0.0002575593 0.00050183776 0.0030423987 -0.00036075522
-0.0009127011 -0.0067172255 -0.000109151326 0.00075938256 0.00030935177 3.3048968e-06 -0.000116445306 -0.00011402526
-0.00022273249 0.00038452935 -7.870735e-05 -0.00026478618 -0.00010152226 -6.739254e-05 -0.00019687766 -0.0031196366
-0.00060442346 -0.0002301326 -0.00036543977 -0.00023378973 -0.00025721797 -0.001340255 0.0010214623 -8.3043684e-05
0.000454665 0.00018366158 -0.00030664238 0.0005375954 -0.00021087512 -0.0010530846 0.0006109662 0.00093440345
0.0012017996 0.000390516 0.00037965926 0.0004381743 3.362902e-05 -0.00021326327 0.00034718958 -0.00025189386
-0.00035491778 -5.4195054e-05 7.706842e-05 0.00060820585 0.00032388882 0.00063891 0.001435402 -0.00058699393
-0.00055908435 -0.001060301 0.0005930442 -0.00083643047 0.00059625186 -0.0014556058 -0.001462817 0.00096362154
0.0003480334 -0.002103548 0.0003812657 -0.0009215204 -0.0004156047 -0.0014102906 -0.00072093314 0.0019165787
-0.0013866852 -5.7023113e-05 0.0019901937 0.0014927104 0.00074840366 -0.00016291697 0.0005546015 0.0011343339
0.00019594145 -0.0009860098 0.0012070944 -0.0014044434 -0.0006286268 0.0017064922 -0.0009182556 0.0010289999
0.0010718893 0.0016500982 -0.00018090717 -0.0020060006 -0.004054481 0.00040204372 -0.0028566082 -0.003161517
-0.00055591477 0.0009250539 -0.0013543151 -0.0038275234 0.0013164817 0.0046099643 -0.003963916 -0.005087679
0.003309466 0.000341526 -0.0008175057 -0.0019136444 -0.000579979 0.0035598741 -0.00039908802 -9.350523e-05
0.0040257345 0.002288817 0.00035780523 0.00093422784 -0.0002320825 -0.0041437764 -0.00093618187 0.003917699
-0.0012403516 -0.00070624467 -0.0014266575 -0.0047531812 0.0005025655 0.0005267862 -0.005160088 -0.002213205
0.007017556 0.0019277291 -0.010674585 0.0023311402 0.0063612238 -0.003922088 0.001523102 0.0013992202
-0.0022031474 0.0004935601 0.0026028063 0.0029716159 0.0033796406 0.002441131 -0.0044190264 0.0043522143
0.00835425 9.764855e-05 -0.0034673724 0.00836015 -0.0072675967 -0.0013834743 0.011701657 -0.0027296783
0.0013163241 0.0006732655 0.0013337235 0.0018578676 -0.0006629704 -0.00050029554 0.0013136 0.0020865223
-1.9850615e-05 4.370166e-05 0.001750183 0.0004005713 -0.00019737749 0.0010231665 0.00037689056 0.0002528958
-0.002175027 -0.0012234357 -0.0013383611 -0.00097262213 -0.0011074314 -0.0009154331 0.0006206879 -5.3443175e-05
-0.0023700108 -0.00013198727 0.00046481204 -0.0022739605 -0.0005956661 -0.0013489904 -0.0023901034 -0.00027735197
0.00024557678 0.0016516399 0.00023607195 -0.0014885886 0.002260234 0.003069943 -0.002620136 -0.0027570534
0.0043964335 0.00095232605 -0.0010766867 0.000816583 0.003306527 -0.0021200697 0.00019566745 0.0011872262
-0.004748173 -1.8797007e-05 0.00042386295 -0.0004678531 -0.00032869077 0.0009679653 -0.0044824625 0.00078217854
0.0040766364 -0.0011349865 -0.0025907606 0.0025497344 -0.0043547996 -0.00046300876 -3.7925638e-05 -0.0006045274
