model/sbj4_tr_rigorous_20240214_153058/checkpoints/epoch1_0.9302.pt (torch, 195280 bytes, 39 tensors)

net.conv.weight f4 [8, 1, 1, 256]
0	0x3d93c596	0.07215421
1	0x3db45991	0.08806146
2	0x3de0c41e	0.109749064
3	0x3e175ba5	0.14781053
4	0x3df19787	0.1179648
5	0x3decb24b	0.11557444
6	0x3e0fa7d0	0.14028859
7	0x3db4103a	0.087921575
8	0x3e37af78	0.1793803
9	0x3e0a75e2	0.13521531
10	0x3d0256fc	0.031821236
11	0x3dcc67d2	0.0998074
12	0x3d6f9a61	0.058496837
13	0x3c6f280e	0.014596952
14	0x3cb27cbe	0.021787997
15	0xbd7d97af	-0.061912235
16	0xbd38caef	-0.045115408
17	0xbdda17e3	-0.10649087
18	0xbdfc8ec7	-0.1233192
19	0xbdd249aa	-0.102679566
20	0xbd75bbe5	-0.059993643
21	0xbdff2382	-0.124579445
22	0xbe38afa2	-0.18035749
23	0xbe1a4144	-0.1506396
24	0xbe14de0c	-0.14537829
25	0xbe0c5783	-0.13705258
26	0xbe34a299	-0.17640151
27	0xbe41abfd	-0.18913265
28	0xbe058d21	-0.13042118
29	0xbda103f4	-0.07862082
30	0xbe481796	-0.19540247
31	0xbe1475ed	-0.1449811
32	0xbd9f08fd	-0.07765386
33	0xbe38aec9	-0.18035425
34	0xbe13463c	-0.14382261
35	0xbd9f7e30	-0.0778774
36	0xbdd6fe04	-0.104976684
37	0xbcc5ffca	-0.024169821
38	0xbd230ba4	-0.039806023
39	0xbc76ff12	-0.015075462
40	0x3d5af040	0.053451777
41	0x3db93b40	0.09044504
42	0x3df44859	0.11927862
43	0x3dc1f013	0.09469619
44	0x3e459de1	0.19298507
45	0x3e3f90ba	0.18707553
46	0x3e48ce77	0.1961001
47	0x3e443e41	0.19164373
48	0x3e626a0e	0.22110769
49	0x3e884263	0.2661315
50	0x3e87b3e0	0.2650442
51	0x3e80c156	0.25147504
52	0x3e822671	0.25419953
53	0x3e482956	0.19547018
54	0x3e98b7e4	0.29827797
55	0x3e8bd381	0.27309802
56	0x3e92f231	0.28700402
57	0x3ea27927	0.31733057
58	0x3e87bb4c	0.26510084
59	0x3e904b99	0.28182676
60	0x3e617623	0.22017722
61	0x3e6ff553	0.23433428
62	0x3e8da5ab	0.27665457
63	0x3e46abcb	0.19401471
64	0x3dceae29	0.10091812
65	0x3dd0a128	0.10186988
66	0x3c4029d1	0.01172872
67	0xbdc6d47f	-0.09708499
68	0xbdb538c9	-0.088487215
69	0xbe16cee4	-0.1472736
70	0xbe821327	-0.25405237
71	0xbe8bf5ab	-0.27335867
72	0xbeb34344	-0.35012257
73	0xbe9b4512	-0.30326134
74	0xbead8db2	-0.33897167
75	0xbebbdcf9	-0.36692026
76	0xbeb77f33	-0.35839233
77	0xbebef4d3	-0.3729616
78	0xbed8c4f4	-0.42337763
79	0xbeb86970	-0.36017942
80	0xbe96dd22	-0.29465586
81	0xbec1c7aa	-0.37847644
82	0xbee2b754	-0.44280493
83	0xbea842c4	-0.32863438
84	0xbe987e18	-0.29783702
85	0xbe8b9202	-0.27259833
86	0xbe8715a0	-0.26383686
87	0xbe6d6b09	-0.23185362
88	0xbe09ac21	-0.13444568
89	0xbe0f3f89	-0.1398908
90	0xbd783db8	-0.060605735
91	0xbb40b819	-0.0029406606
92	0x3d40979e	0.047019593
93	0x3e291cfe	0.16514966
94	0x3e4c61f8	0.19959247
95	0x3e954d3b	0.29160485
96	0x3eac5b6e	0.33663505
97	0x3ebf1b91	0.3732572
98	0x3eca816f	0.39551875
99	0x3ed9fa82	0.42573935
100	0x3eebf427	0.4608471
101	0x3ed0477a	0.40679532
102	0x3ef1240e	0.4709782
103	0x3ee49a91	0.44649175
104	0x3eda997e	0.4269523
105	0x3ec3f321	0.3827143
106	0x3ed70332	0.41994625
107	0x3eee5797	0.465512
108	0x3ee627c7	0.44952223
109	0x3eb132d0	0.3460908
110	0x3ebd7804	0.37005627
111	0x3e983b7c	0.29732883
112	0x3e98a899	0.2981613
113	0x3e83d837	0.25750896
114	0x3e2736b0	0.16329455
115	0x3e0c8797	0.13723598
116	0xbcd24d5c	-0.025671653
117	0xbd88903a	-0.06668134
118	0xbe25dd89	-0.1619779
119	0xbe59762b	-0.21236484
120	0xbe86cd55	-0.2632853
121	0xbeba4d98	-0.36387324
122	0xbebcd970	-0.36884642
123	0xbed0113d	-0.40638152
124	0xbefdbf7c	-0.49560153
125	0xbf01352f	-0.50471777
126	0xbeeb09f9	-0.45906046
127	0xbef388d3	-0.47565326
128	0xbf03ba77	-0.514564
129	0xbed8e792	-0.42364174
130	0xbee4e8f0	-0.44708967
131	0xbee65cd7	-0.44992706
132	0xbeeea7b3	-0.4661232
133	0xbedea0fe	-0.43482202
134	0xbe9ad88d	-0.3024334
135	0xbeb200a9	-0.3476613
136	0xbe855a47	-0.2604544
137	0xbe9dad7a	-0.30796415
138	0xbe5601e2	-0.20899156
139	0xbe4c47db	-0.19949286
140	0xbdde5db7	-0.108577184
141	0xbc985c7d	-0.01859879
142	0x3ce7ad90	0.028281003
143	0x3d1ff67e	0.039053433
144	0x3e37cc36	0.17948994
145	0x3e423270	0.18964553
146	0x3e843a69	0.25825813
147	0x3eb4ffd0	0.3535142
148	0x3eae08d8	0.33991122
149	0x3eebf8ab	0.46088156
150	0x3ef100dd	0.4707097
151	0x3f0446cc	0.5167053
152	0x3ef4f3c3	0.47842225
153	0x3ed8aede	0.42320913
154	0x3ed14b88	0.40877938
155	0x3ebd8cf8	0.37021613
156	0x3ed44468	0.4145844
157	0x3ebbd47e	0.36685556
158	0x3ebf59df	0.37373254
159	0x3e93b2a7	0.28847238
160	0x3e6d739e	0.23188636
161	0x3e8cb3b4	0.27480853
162	0x3e51df25	0.20495279
163	0x3e4f53cb	0.20246808
164	0x3e11e9e3	0.14249377
165	0x3e31f417	0.17378269
166	0x3dc03aff	0.093862526
167	0xbd0034c0	-0.031300306
168	0xbdbc235b	-0.09186431
169	0xbdb23d42	-0.0870309
170	0xbe596909	-0.21231474
171	0xbe9f19d7	-0.31074402
172	0xbe85a28e	-0.26100582
173	0xbec7aa64	-0.38997185
174	0xbee32f0f	-0.4437184
175	0xbef9111f	-0.48645875
176	0xbed92d75	-0.42417493
177	0xbede3be8	-0.4340508
178	0xbee3c0ec	-0.44483125
179	0xbec0864e	-0.37602466
180	0xbec4a862	-0.38409716
181	0xbea9160a	-0.33024627
182	0xbe74b95b	-0.23898832
183	0xbe8fd501	-0.28092197
184	0xbe72c462	-0.23707727
185	0xbe39e019	-0.18151893
186	0xbdaa39ea	-0.083118275
187	0xbe04ca15	-0.12967713
188	0xbde716f8	-0.11283678
189	0xbd09a3c8	-0.03360346
190	0xbd2049aa	-0.03913275
191	0x3d14a44d	0.036289502
192	0xbcc72a86	-0.024312269
193	0x3dec3e52	0.11535324
194	0x3e22434d	0.15845986
195	0x3dfe8e95	0.12429539
196	0x3e34a194	0.17639762
197	0x3e45a049	0.19299425
198	0x3e80dec7	0.25169966
199	0x3e5e21ec	0.21692628
200	0x3e861876	0.26190537
201	0x3e8554d8	0.26041293
202	0x3e93b288	0.28847146
203	0x3e8685a3	0.26273832
204	0x3e7274de	0.23677394
205	0x3e5ff4b3	0.21870689
206	0x3e4543c1	0.19264127
207	0x3e0bf874	0.13668996
208	0x3e27419e	0.16333625
209	0x3dcf12f0	0.10111034
210	0x3c6c0a28	0.014406718
211	0x3dae6399	0.085150905
212	0x3b4c47ea	0.0031170794
213	0x3d6434ef	0.055714544
214	0x3cc881be	0.024475928
215	0xbcc38ae7	-0.023869945
216	0x3b77eb66	0.0037829517
217	0xbd808d5e	-0.06276964
218	0xbddc596a	-0.10759242
219	0xbd59b784	-0.05315353
220	0xbdc384f3	-0.095468424
221	0xbe64b8c0	-0.22336102
222	0xbe1d2fe8	-0.15350306
223	0xbe222776	-0.15835366
224	0xbe87939b	-0.26479802
225	0xbe8e5b56	-0.2780406
226	0xbe4e13ae	-0.20124695
227	0xbe809a5f	-0.25117776
228	0xbe87f83a	-0.2655657
229	0xbe21b87f	-0.15793036
230	0xbe5e2cd9	-0.21696796
231	0xbdd96074	-0.106141
232	0xbe27564a	-0.1634151
233	0xbe21b388	-0.15791142
234	0xbda7585c	-0.0817115
235	0xbd851031	-0.06497229
236	0xbdbe5731	-0.09293974
237	0xbcde5d5a	-0.027144123
238	0xbcff18bf	-0.03113973
239	0x39e91f81	0.00044464695
240	0xbc3af299	-0.011410379
241	0x3d00241a	0.03128443
242	0x3d9fe91c	0.07808134
243	0x3d095c06	0.033535026
244	0x3dceb30e	0.10092746
245	0x3d382c1c	0.04496394
246	0x3db2b8f6	0.08726685
247	0x3dd6c116	0.10486047
248	0x3e0524c9	0.13002314
249	0x3d7c22cf	0.061556634
250	0x3dfb0d7e	0.12258433
251	0x3e2ff580	0.17183495
252	0x3dc38f72	0.095488444
253	0x3dbfc341	0.093634136
254	0x3da6f9b4	0.08153096
255	0x3dc3c10b	0.095583044

net.bn1.weight f4 [8]
0	0x3fdc855c	1.7228198
1	0x3f28cd8a	0.6593863
2	0x3f9c0fe8	1.2192354
3	0x3e9c1a14	0.30488646
4	0x3f8fc53c	1.1232066
5	0x3fc54e64	1.5414548
6	0x3f98e861	1.1945916
7	0x3f245792	0.6419612

net.bn1.bias f4 [8]
0	0xbe12119d	-0.14264531
1	0xbcb42e8e	-0.021994855
2	0xbd6770f3	-0.0565042
3	0x3d2b8c91	0.0418821
4	0x3ca456bd	0.020060891
5	0xbb31a17d	-0.002710431
6	0x3d0e6cc0	0.03477168
7	0x3c96636b	0.018357953

net.bn1.running_mean f4 [8]
0	0xba33959f	-0.00068506034
1	0x3a5e640d	0.00084835367
2	0xb9c17e7e	-0.00036906073
3	0xb9c17f55	-0.00036906698
4	0xb7ad1103	-2.0631129e-05
5	0x39a40903	0.00031287232
6	0x39adf02c	0.00033176073
7	0xb9abba8a	-0.00032754644

net.bn1.running_var f4 [8]
0	0x43039f1b	131.6215
1	0x428de796	70.95232
2	0x42d62efd	107.091774
3	0x425280ed	52.625904
4	0x42b3ec79	89.96186
5	0x42ea84b5	117.25919
6	0x42d3008a	105.50105
7	0x425075b9	52.114964

net.depth_conv.weight f4 [16, 1, 32, 1]
0	0xbdd87435	-0.1056904
1	0xbdd40fdf	-0.1035459
2	0x3e668c5b	0.22514479
3	0x3f10a078	0.56494856
4	0x3e98afcf	0.2982163
5	0x3ed0788b	0.40716967
6	0x3e3f2c89	0.18669333
7	0xbf9d4fdd	-1.2289997
8	0x3e7c68d9	0.24649371
9	0x3e41814c	0.18896979
10	0xbe165deb	-0.14684264
11	0xbcfbccfd	-0.030737394
12	0x3dd40876	0.10353176
13	0xbafe0e25	-0.0019382878
14	0xbdb034a7	-0.08603793
15	0xbd6f82f8	-0.05847451
16	0x3d9551a2	0.07290961
17	0x3df0d46f	0.117592685
18	0x3ec9d781	0.3942223
19	0x3e20f192	0.15717152
20	0x3e7fbea7	0.24975072
21	0x3e8a96e9	0.2706826
22	0xbe1718fc	-0.14755625
23	0xbc293f15	-0.010329981
24	0x3e3b5211	0.18293025
25	0x3e0ccb3d	0.13749404
26	0xbf02b088	-0.51050615
27	0xbc5d89a3	-0.013521585
28	0x3e70b05d	0.23504777
29	0xbd449daf	-0.04800194
30	0xbe072df2	-0.1320112
31	0xbcdaeaab	-0.026723227
32	0xbd4c3b68	-0.04986134
33	0x3b85c871	0.0040827324
34	0xbe9b1bda	-0.30294687
35	0xbeb838fc	-0.35980976
36	0xbe69e258	-0.2284025
37	0xbe87698f	-0.26447722
38	0xbcffaab7	-0.031209333
39	0x3f9b9319	1.2154266
40	0xbe632df8	-0.22185504
41	0x3d8e9662	0.06962277
42	0x3f00a8d2	0.502576
43	0x3b1f09aa	0.0024267235
44	0xbdaaee4e	-0.08346234
45	0x3de6d9f1	0.11272038
46	0x3e85fb45	0.26168266
47	0x3e63774b	0.22213475
48	0xbded7034	-0.11593667
49	0xbd1ba45c	-0.037998542
50	0xbec5d59a	-0.38639528
51	0xbe1e414a	-0.15454593
52	0xbe956e01	-0.2918549
53	0xbd9ea8ac	-0.07747015
54	0x3ece7fac	0.4033178
55	0xbd32d5fa	-0.043661095
56	0x3c1d44d5	0.00959893
57	0x3da12e77	0.078701906
58	0x3ee15353	0.44008884
59	0x3d95f8d6	0.07322852
60	0xbe2117cb	-0.15731733
61	0x3e2f0da3	0.17095046
62	0x3e5f4a5f	0.21805714
63	0xbe4fa073	-0.2027605
64	0xbc6b8171	-0.014374123
65	0xbe11c744	-0.1423617
66	0xbe47f3e9	-0.19526638
67	0x3dc5d7a5	0.096602716
68	0x3e8bbef8	0.27294135
69	0xbe43a6aa	-0.19106546
70	0xbce51241	-0.027962806
71	0xbe275cd8	-0.16344011
72	0xbf2273e7	-0.634581
73	0xbd4bfac1	-0.049799684
74	0x3ee5a4f3	0.4485241
75	0x3b28af20	0.0025739148
76	0x3dd14946	0.10219054
77	0xbf01f3b6	-0.507625
78	0xbe053352	-0.13007858
79	0xbe1e1bdf	-0.1544032
80	0xbe1c935c	-0.15290588
81	0xbeb10cc9	-0.34580067
82	0xbcbfcf61	-0.023414316
83	0x3e074f6d	0.13213892
84	0xbda909bf	-0.08253812
85	0xbd8d0581	-0.068858154
86	0x3e478e5e	0.19487903
87	0x3e0b4de9	0.13603939
88	0x3f1b766c	0.6072757
89	0xbe0b4bab	-0.13603084
90	0xbca23a3d	-0.01980316
91	0x3e9490fb	0.2901686
92	0xbd856f00	-0.06515312
93	0x3e92467b	0.28569397
94	0x3e816d67	0.2527878
95	0x3e595daf	0.21227144
96	0xbe0c9f65	-0.13732679
97	0xbe663c14	-0.22483855
98	0xbea1bcd3	-0.31589374
99	0x3e1aa0ee	0.15100452
100	0x3e850444	0.25979817
101	0xbe9af199	-0.3026245
102	0xbd300ac9	-0.042979036
103	0xbe14e61e	-0.14540908
104	0x3eee1786	0.46502322
105	0xbf1efb35	-0.6210206
106	0x3dc78ad6	0.09743278
107	0xbe8ee152	-0.2790628
108	0xbd562311	-0.052279536
109	0xbe18c5fa	-0.14919272
110	0xbe25a0e8	-0.16174662
111	0x3ec4a812	0.38409477
112	0x3e8a90bf	0.27063558
113	0x3da512d4	0.08060232
114	0xbe250207	-0.16114055
115	0xbe49df9a	-0.19714203
116	0xbd4d728e	-0.050158076
117	0x3d8469c4	0.06465486
118	0x3e3bff56	0.18359122
119	0x3e125ef4	0.14294034
120	0x3ee39865	0.44452205
121	0x3da1e720	0.07905412
122	0x3ec0e025	0.3767101
123	0xbd76322f	-0.060106453
124	0xbc72e437	-0.0148249185
125	0x3d6554e9	0.05598918
126	0xbe042442	-0.12904456
127	0x3cd05851	0.025432738
128	0x3ea1bb69	0.31588295
129	0x3ec774fd	0.38956442
130	0x3db91b68	0.090384305
131	0xbe65ee79	-0.22454251
132	0x3e472580	0.19447899
133	0x3dbbfd91	0.09179223
134	0x3dc91e26	0.098202035
135	0x3e4eba71	0.20188309
136	0xbf930042	-1.1484454
137	0x3e05d717	0.13070332
138	0xbd9ba326	-0.075994775
139	0xbe412fe3	-0.18865924
140	0x3be34906	0.0069361953
141	0x3d0775f0	0.03307146
142	0x3e825921	0.25458625
143	0xbda67c29	-0.081291504
144	0x3eaa155f	0.3321943
145	0xbdb80a8e	-0.08986388
146	0x3ebf0bca	0.37313682
147	0xbe1cba0b	-0.15305345
148	0xbdd9108a	-0.10598858
149	0x3d5726fd	0.052527416
150	0x3d89faed	0.067373134
151	0xbf0c77e4	-0.5487044
152	0xbd86636e	-0.065619335
153	0xbd38bf6a	-0.04510442
154	0x3dc4d8bd	0.09611652
155	0x3e1abd28	0.1511122
156	0x3e8a04c1	0.26956752
157	0x3dde29f1	0.108478434
158	0x3f1764dc	0.59138274
159	0x3dc4ce2e	0.09609638
160	0x3e3d8290	0.18506837
161	0x3df8e2a4	0.12152603
162	0x3d4b779a	0.049674608
163	0x3d1ffbe6	0.03905859
164	0xbea9e5f6	-0.3318326
165	0xbdec933e	-0.11551522
166	0x3cf283f7	0.029603941
167	0x3e878ad9	0.2647312
168	0xbf8533af	-1.0406398
169	0x3e419189	0.18903174
170	0x3e347c42	0.17625526
171	0xbf1b92c4	-0.6077082
172	0x3e31eaab	0.17374675
173	0x3ec5eea5	0.38658634
174	0x3d4f36f7	0.050589528
175	0x3dfdaa68	0.12386018
176	0x3e3c2c9d	0.18376394
177	0x3e8c1d4c	0.27366102
178	0x3e5d622d	0.21619482
179	0xbe3a51e7	-0.18195306
180	0xbe822c1d	-0.2542428
181	0x3ee4b2c3	0.44667634
182	0xbe063611	-0.13106562
183	0xbef2a0c6	-0.47388285
184	0xbe662b54	-0.22477466
185	0x3c8572f9	0.016290175
186	0x3e7b22fe	0.24525067
187	0xbd0878bc	-0.033318266
188	0x3f060947	0.52357906
189	0x3d2fa7e9	0.04288474
190	0x3df31038	0.11868328
191	0x3e631753	0.22176866
192	0xbcb7f1ac	-0.022454105
193	0xbe2cf518	-0.16890371
194	0x3d5c225d	0.05374371
195	0xbd129097	-0.035782423
196	0xbef4666e	-0.47734398
197	0xbe82a56a	-0.25516826
198	0x3df19a45	0.11797003
199	0x3e6dcf63	0.23223643
200	0xbd966ae2	-0.07344605
201	0xbcc973d6	-0.024591368
202	0xbba8086e	-0.005127958
203	0xbe2e719e	-0.17035529
204	0xbe5252fe	-0.20539472
205	0x3d2dde77	0.042448487
206	0xbc4bf8f6	-0.012449494
207	0x3e68cdec	0.22734803
208	0x3e871ed3	0.26390705
209	0x3cfb75f6	0.030695897
210	0x3e84d95e	0.25947088
211	0x3dd6e9e5	0.104938306
212	0xbd9adb77	-0.07561391
213	0x3e53a6c8	0.20669091
214	0x3e9e712c	0.30945718
215	0x3f4636c5	0.7742732
216	0x3eb9b961	0.36274245
217	0x3c912bb8	0.017721042
218	0x3e4506cb	0.19240873
219	0xbdce49a0	-0.100726366
220	0xbe76d1c7	-0.24103461
221	0xbe41cb2a	-0.18925157
222	0xbdcaa0fb	-0.09893986
223	0xbe37018d	-0.17871685
224	0x3d72cfb0	0.059280097
225	0x3d0a68d9	0.033791397
226	0x3e998754	0.2998606
227	0xbf2d7e15	-0.6777051
228	0xbe0c4c96	-0.1370109
229	0x3d31a027	0.043365624
230	0x3e67c9a6	0.22635517
231	0xbe40892e	-0.1880233
232	0x3cb2a02e	0.021804895
233	0xbe0715ce	-0.13191912
234	0xbe3f66ab	-0.18691508
235	0x3e5c3c5a	0.21507397
236	0x3e1640f4	0.14673215
237	0x3ec1976d	0.3781084
238	0x3e7c58d8	0.24643266
239	0x3e60dc16	0.21958956
240	0x3d6e04e4	0.058110133
241	0xbe924a5d	-0.2857236
242	0xbecfe74b	-0.4060615
243	0x3e9c54cb	0.30533442
244	0xbe98b184	-0.29822934
245	0xbdab27eb	-0.08357223
246	0x3ec1a37e	0.37820047
247	0xbd32b110	-0.04362589
248	0x3e67dc42	0.22642615
249	0xbed86851	-0.42267087
250	0x3da32fc0	0.07968092
251	0xbdeb3867	-0.11485367
252	0xbb5a6c65	-0.0033328768
253	0xbe623cc5	-0.22093494
254	0xbed76ab6	-0.420736
255	0xbd734c4a	-0.059398927

net.bn2.weight f4 [16]
0	0x3fc791f8	1.5591421
1	0x3fc9f861	1.5778924
2	0x3f35c44e	0.7100266
3	0x3f1d73ad	0.6150463
4	0x3fa61fca	1.2978451
5	0x3f94c3ed	1.1622292
6	0x3ecbc136	0.39795846
7	0x3edf7b4d	0.4364876
8	0x3f7cae55	0.9870351
9	0x3fa372be	1.2769392
10	0x3fc9bad3	1.5760139
11	0x3fb3b99a	1.4041016
12	0x3fb6e504	1.428864
13	0x3f97451e	1.1817968
14	0x3f0515c5	0.5198634
15	0x3f3b1e51	0.73093134

net.bn2.bias f4 [16]
0	0xbeb3dc00	-0.35128784
1	0xbeacd861	-0.33758834
2	0xbe271628	-0.16317046
3	0xbd7a68c7	-0.06113508
4	0xbe4e5073	-0.20147876
5	0xbe376ad2	-0.17911842
6	0xbe7df943	-0.24802117
7	0xbe6bc38c	-0.23023814
8	0xbe4167a2	-0.18887189
9	0xbe94f1d2	-0.29090744
10	0xbeca4d3a	-0.39512044
11	0xbe973107	-0.29529592
12	0xbe5d39d2	-0.21604088
13	0xbe99d170	-0.300426
14	0xbe3c5ba3	-0.18394332
15	0xbe141462	-0.144609

net.bn2.running_mean f4 [16]
0	0xbe44f9fe	-0.1923599
1	0xbdd769a5	-0.10518197
2	0x39ca7c46	0.00038621033
3	0xbabfde43	-0.0014638383
4	0xbd9a2805	-0.07527164
5	0xbd31965c	-0.043356284
6	0x3d2109d6	0.03931602
7	0xbd05e7df	-0.032691833
8	0x3b95e8db	0.0045748777
9	0xbb99da3b	-0.0046952046
10	0xbb7ec40c	-0.0038874177
11	0x3b20281a	0.0024437965
12	0x3d63cb9e	0.055614106
13	0xbcdb8d61	-0.026800813
14	0x3b08852b	0.0020831327
15	0xbcaa7791	-0.020808967

net.bn2.running_var f4 [16]
0	0x40cee4c2	6.4654245
1	0x40dd7b0c	6.9212704
2	0x3fbb7e07	1.4647835
3	0x3faf6c96	1.3705013
4	0x411e7be8	9.905251
5	0x411e28f5	9.884999
6	0x3e8648e3	0.26227483
7	0x3ea24f75	0.31701246
8	0x4050cdc7	3.2625597
9	0x4049bbb2	3.152081
10	0x411d3333	9.825
11	0x414db738	12.857231
12	0x411a3516	9.63796
13	0x409a3e2d	4.82009
14	0x3f62d7b7	0.88610405
15	0x3f802f9e	1.0014532

net.point_conv.weight f4 [16, 16, 1, 16]
0	0xbe3e7a6f	-0.18601392
1	0xbea825e2	-0.32841402
2	0xbe6d40e3	-0.23169284
3	0xbeb3e82c	-0.3513807
4	0xbeb0bd02	-0.34519202
5	0xbec4ca85	-0.3843576
6	0xbeb2eaa3	-0.3494464
7	0xbecf15d4	-0.4044634
8	0xbec62b02	-0.38704687
9	0xbed2293f	-0.41047093
10	0xbeacbe00	-0.33738708
11	0xbeb6a77e	-0.3567466
12	0xbe98a7b7	-0.29815456
13	0xbe601d72	-0.21886232
14	0xbe8b5da3	-0.27219877
15	0xbe8084f1	-0.25101426
16	0xbefa425b	-0.4887875
17	0xbee41972	-0.44550663
18	0xbeb5ed7b	-0.35532746
19	0xbeb49f54	-0.35277808
20	0xbeeb715f	-0.45984933
21	0xbefd1af8	-0.49434638
22	0xbefb83af	-0.49123904
23	0xbef79c89	-0.48361614
24	0xbf0a48ae	-0.5401715
25	0xbf099566	-0.5374359
26	0xbf000206	-0.5000309
27	0xbef4b29e	-0.47792524
28	0xbed49c24	-0.41525376
29	0xbea27b44	-0.3173467
30	0xbe8b3cd8	-0.27194858
31	0xbe7336bb	-0.23751347
32	0xbd9769ce	-0.073932275
33	0xbcdbbca9	-0.026823359
34	0xbd720d86	-0.05909493
35	0x3e070663	0.1318603
36	0x3e225f22	0.15856603
37	0x3e2bf0cf	0.1679108
38	0x3e259883	0.1617146
39	0x3e18a968	0.14908373
40	0x3dd77c31	0.105217345
41	0x3dc9b2ca	0.098485544
42	0x3d663cc0	0.05621028
43	0x3dc46cf3	0.09591093
44	0xbd897c50	-0.06713164
45	0xbd379ae5	-0.044825453
46	0x3c60f127	0.01372937
47	0xbc1c0b01	-0.009524108
48	0x3e6d7cb2	0.23192099
49	0x3e259c25	0.16172846
50	0x3e12bf83	0.14330868
51	0x3e02c5db	0.12770788
52	0x3dca98cc	0.09892425
53	0x3dffd8d3	0.12492528
54	0x3d59ec6c	0.053203985
55	0x3c3fcc10	0.011706367
56	0xbda41819	-0.08012409
57	0xbdef4549	-0.11683137
58	0xbd8d34a3	-0.06894805
59	0xbccccd87	-0.025000347
60	0xba9d1002	-0.001198292
61	0xbbf34907	-0.007424477
62	0x3ba5cf92	0.0050601447
63	0xbcc3a564	-0.023882575
64	0xbca5c051	-0.020233305
65	0x3d58fada	0.052973606
66	0x3e01e4d2	0.12684944
67	0x3dc65959	0.096850105
68	0x3defad38	0.11702961
69	0x3dec777b	0.115462266
70	0x3e084517	0.13307606
71	0x3e17903a	0.14801112
72	0x3df2e5c1	0.11860228
73	0x3dfa4f60	0.12222171
74	0xbc8e9cab	-0.01740869
75	0x3c90c436	0.017671686
76	0xbcb1e3fd	-0.021715159
77	0x3c5316e5	0.012883876
78	0xbd2fd37b	-0.042926293
79	0x3ddb9346	0.107214496
80	0x3db8ae8b	0.090176664
81	0x3e7bb129	0.245793
82	0x3e7a32e6	0.24433479
83	0x3e809a83	0.25117883
84	0x3eb1c79e	0.34722608
85	0x3e9090aa	0.2823537
86	0x3e09d682	0.13460734
87	0x3d3f637d	0.04672574
88	0xbcd6eb6f	-0.02623531
89	0x3b404a29	0.0029341078
90	0x3d873504	0.06601909
91	0x3e4e7552	0.20161942
92	0x3e85ff0f	0.26171157
93	0x3e9f6015	0.31127992
94	0x3ec69c34	0.3879105
95	0x3ecff41f	0.40615937
96	0x3d6c0fc5	0.057632226
97	0x3c1d9fa6	0.009620583
98	0x3db60bf9	0.08889002
99	0x3e1b7567	0.15181504
100	0x3e2799b4	0.16367227
101	0x3da56ef8	0.08077806
102	0x3e630d31	0.22173001
103	0x3e37d570	0.17952514
104	0x3e130df0	0.14360785
105	0x3dd24ed8	0.102689445
106	0x3e316e26	0.17327175
107	0x3ddb7439	0.10715527
108	0x3dcf3421	0.10117365
109	0x3dbac2b0	0.09119165
110	0x3e01527f	0.12629126
111	0x3e0df32d	0.13862295
112	0xbc3e66cd	-0.011621189
113	0x3c8fe945	0.017567286
114	0xbdb82b02	-0.08992578
115	0xbd6ebe4e	-0.058286957
116	0xbd8cd221	-0.068760164
117	0xbd057e95	-0.03259142
118	0xbd3faf63	-0.04679812
119	0x3d1a40f8	0.037659615
120	0x3da9cedd	0.08291409
121	0x3d4a35b9	0.04936764
122	0x3d432928	0.04764667
123	0x3dd6ec10	0.10494244
124	0x3d9584f0	0.073007464
125	0x3d8811a1	0.066439874
126	0x3d3bb6f8	0.04582879
127	0x3bead26f	0.007166199
128	0x3d26da3a	0.04073546
129	0x3caefb32	0.021360014
130	0xbdbcf6c9	-0.09226758
131	0xbd66bc72	-0.05633206
132	0xbd891cf2	-0.06694974
133	0xbd34af70	-0.044112623
134	0xbde136b6	-0.109967634
135	0xbe4051ef	-0.18781255
136	0xbda5eefb	-0.081022225
137	0xbda64c72	-0.081200495
138	0xbe19bf1b	-0.15014307
139	0xbe1379c1	-0.14401914
140	0xbe1633ae	-0.14668152
141	0xbd348853	-0.04407532
142	0xbdd84eec	-0.10561928
143	0xbe42765a	-0.1899046
144	0xbe609f4c	-0.21935767
145	0xbe2c6e01	-0.16838838
146	0xbe7e5143	-0.24835686
147	0xbe95d92d	-0.29267254
148	0xbe3e0735	-0.18557437
149	0xbe829e59	-0.25511435
150	0xbe7ea46b	-0.24867408
151	0xbe91535b	-0.28383908
152	0xbe2b7136	-0.16742405
153	0xbe3c06ed	-0.18362017
154	0xbe3bb5b0	-0.18331027
155	0xbe6d2835	-0.23159869
156	0xbe21ec19	-0.1581272
157	0xbe3012aa	-0.1719462
158	0xbe0d1902	-0.13779071
159	0xbe4f07a1	-0.20217754
160	0xbeaedb0e	-0.341515
161	0xbed9f7cb	-0.42571864
162	0xbe95ad79	-0.29233912
163	0xbe989dd6	-0.2980792
164	0xbeca5f85	-0.39526
165	0xbeb78b25	-0.35848346
166	0xbeee16c6	-0.4650175
167	0xbeed58bc	-0.4635676
168	0xbefa63a6	-0.4890415
169	0xbf0c8804	-0.54895043
170	0xbf17ee76	-0.5934824
171	0xbeecbe37	-0.46238872
172	0xbee23648	-0.44182038
173	0xbec16775	-0.37774244
174	0xbec2b0d9	-0.3802555
175	0xbe91258b	-0.28348956
176	0x3ddb9189	0.10721118
177	0x3dc161aa	0.09442456
178	0xbcbfa39c	-0.023393445
179	0x3de36980	0.11104107
180	0x3d98bc1d	0.07457755
181	0x3dc47e4c	0.09594402
182	0x3e228044	0.15869242
183	0x3e5588d2	0.20852974
184	0x3e5cb54b	0.21553533
185	0x3e72dbcb	0.23716657
186	0x3eabadf7	0.33531162
187	0x3ead7d50	0.33884668
188	0x3e52d82e	0.20590279
189	0x3e3a2473	0.18177967
190	0x3db72821	0.08943201
191	0x3dbcb7e2	0.0921476
192	0x3e2fbc85	0.17161758
193	0x3e45928c	0.19294184
194	0x3e829517	0.25504372
195	0x3ecf3704	0.4047166
196	0x3ee0f127	0.43933985
197	0x3eb92dca	0.36167747
198	0x3e749abc	0.23887151
199	0x3deff974	0.11717501
200	0xbd2034b4	-0.03911276
201	0xbdb1e66e	-0.08686529
202	0x3bd41118	0.0064717643
203	0xbdbd6e45	-0.09249548
204	0x3cde4dac	0.027136646
205	0x3db06a95	0.08614079
206	0x3e30628d	0.17225094
207	0x3de9d943	0.114183925
208	0xbedde025	-0.4333507
209	0xbeb86fd4	-0.36022818
210	0xbe99f0ba	-0.30066472
211	0xbe987a83	-0.2978097
212	0xbe57c1e5	-0.21070059
213	0xbe897250	-0.26845026
214	0xbe9a6377	-0.3015401
215	0xbe8b6240	-0.27223396
216	0xbe977daf	-0.29588076
217	0xbeb2d3a0	-0.34927082
218	0xbea3bc31	-0.31979516
219	0xbea61c35	-0.32443395
220	0xbe2b9713	-0.16756849
221	0xbdf939d0	-0.1216923
222	0xbdf7f3dd	-0.1210706
223	0xbd7515c9	-0.05983523
224	0x3d397995	0.045281965
225	0x3c8bc547	0.017061843
226	0x3ca94b8c	0.020665906
227	0x3d880269	0.06641085
228	0x3d7b1c32	0.061306186
229	0x3dce50b3	0.10073986
230	0x3dd9d136	0.10635607
231	0x3d5cca57	0.053903904
232	0x3d022104	0.031769767
233	0x3ba9545e	0.005167528
234	0x3d32741d	0.043567766
235	0xbc33ea8d	-0.010981214
236	0x3d91856b	0.071055256
237	0xbd2b806d	-0.041870523
238	0xbd14b5eb	-0.036306303
239	0x3d65914f	0.05604678
240	0x3ddfd627	0.10929518
241	0x3e1d385d	0.15353532
242	0x3de97240	0.113987446
243	0x3dce1e4d	0.10064373
244	0x378ae0fd	1.655565e-05
245	0x3c0a3bee	0.00843714
246	0xbd5d3fa0	-0.054015756
247	0xbb98a222	-0.0046579996
248	0xbdcef0b9	-0.10104508
249	0xbd04056c	-0.032231733
250	0xbdc5db61	-0.09660984
251	0xbdf22b7e	-0.11824702
252	0xbd8a2a51	-0.067463525
253	0xbde01811	-0.1094209
254	0xbe4af26f	-0.19819044
255	0xbdf0237d	-0.11725519

net.bn3.weight f4 [16]
0	0x3fb3fb2a	1.4061024
1	0x3fa5f7c4	1.2966237
2	0x3f372420	0.715395
3	0x3f938ea8	1.152791
4	0x3ef91f06	0.48656482
5	0x3fa64cc6	1.2992179
6	0x3fb2cd31	1.396887
7	0x3f4362c5	0.76322585
8	0x3f8b2872	1.0871718
9	0x3f97cddc	1.1859698
10	0x3f9130fc	1.1343074
11	0x3fb7373f	1.4313735
12	0x3f116887	0.5680012
13	0x3fa74cfc	1.3070369
14	0x3f852fb4	1.0405183
15	0x3fc2ed37	1.5228642

net.bn3.bias f4 [16]
0	0xbe71d151	-0.23615004
1	0xbe000487	-0.12501727
2	0xba733b2d	-0.0009278532
3	0xbe3eac50	-0.1862042
4	0xbeacf922	-0.33783823
5	0xbdae5387	-0.08512025
6	0x3d777695	0.060415823
7	0xbce92dcf	-0.028464226
8	0xbdb65a77	-0.089039735
9	0x3ca5c368	0.020234779
10	0xbe7a4550	-0.24440503
11	0x3b9f23f3	0.0048565804
12	0xbea15043	-0.31506547
13	0x3d10db55	0.03536542
14	0x3babfb87	0.0052484903
15	0x3b964d18	0.004586827

net.bn3.running_mean f4 [16]
0	0xbf853a0f	-1.0408343
1	0x3ef02202	0.46900946
2	0xbe97ac53	-0.2962366
3	0x3f89a4bd	1.0753399
4	0x3e3e33f3	0.18574505
5	0xbf401aab	-0.7504069
6	0x3d045454	0.032306984
7	0x3cbecf1a	0.023292113
8	0xbc2eebee	-0.010676367
9	0x3f5a22aa	0.85209143
10	0x3f7ac119	0.97950894
11	0xbe87798d	-0.26459923
12	0xbf08c333	-0.5342285
13	0xbe8cca8b	-0.27498278
14	0x3e80ad2e	0.25132126
15	0x3efb6f2e	0.4910826

net.bn3.running_var f4 [16]
0	0x42bb4427	93.63311
1	0x42ddb7ec	110.85922
2	0x421d61c2	39.345467
3	0x429f0d76	79.52629
4	0x41b018b1	22.012056
5	0x42b14f11	88.65443
6	0x42c938c4	100.61087
7	0x42266c1d	41.60558
8	0x4280aaa4	64.33328
9	0x4293057e	73.51073
10	0x42bb0346	93.50639
11	0x42c711c1	99.534676
12	0x42727c5c	60.621445
13	0x42a39b90	81.80383
14	0x4283d5e7	65.91778
15	0x42fb3ace	125.61485

net.fc.weight f4 [32, 256]
0	0xbdc38803	-0.095474266
1	0x3dfe01fb	0.124027215
2	0x3e6a16d7	0.22860275
3	0x3e7c8ccc	0.24663085
4	0x3e906a50	0.2820611
5	0x3cfc54ef	0.030802218
6	0x3ec3fb34	0.3827759
7	0x3e8e04a7	0.27737924
8	0x3e95f734	0.29290164
9	0x3cf9fb4b	0.030515334
10	0x3e0b31b7	0.13593183
11	0x3e41814d	0.1889698
12	0x3e9ec667	0.31010744
13	0x3e8fa739	0.28057268
14	0x3e89287b	0.26788697
15	0x3e30cfbe	0.17266747
16	0x3d475a25	0.048669953
17	0x3e604395	0.2190078
18	0x3dd5ce11	0.10439695
19	0x3dfd1416	0.12357347
20	0x3e1e8196	0.1547912
21	0x3ec140b7	0.37744686
22	0x3ddca4b9	0.10773606
23	0x3e8668c2	0.262518
24	0xbc3fcb4a	-0.011706183
25	0x3e4b8665	0.19875486
26	0x3eb7a279	0.35866144
27	0x3e76e482	0.24110606
28	0x3e6cea80	0.2313633
29	0x3ec4db1d	0.3844842
30	0x3e996f2a	0.29967624
31	0x3e1813eb	0.14851348
32	0x3d1c76ed	0.038199354
33	0x3ce14108	0.02749683
34	0xbd0b9486	-0.03407719
35	0xbe3e678c	-0.18594187
36	0xbe5b2ee1	-0.21404602
37	0xbe1d72fd	-0.15375896
38	0xbe23b27f	-0.1598606
39	0xbde21d68	-0.11040765
40	0x3d16dca1	0.036831502
41	0x3d4f4d26	0.050610684
42	0xbdb8280a	-0.08992012
43	0xbbcd57f6	-0.0062665893
44	0xbd0a1706	-0.033713363
45	0xbc2ee5d1	-0.01067491
46	0xba9efc19	-0.0012129574
47	0xbd656f86	-0.05601456
48	0x3e72c26d	0.2370698
49	0x3e6db6b0	0.23214221
50	0x3e70e913	0.23526411
51	0x3e963683	0.29338464
52	0x3dadfe69	0.084957905
53	0x3e83902e	0.25695938
54	0x3e49aa28	0.19693816
55	0xbce8a36e	-0.028398242
56	0x3df5d41b	0.120033465
57	0x3d3c7cd2	0.046017475
58	0x3ed307fc	0.4121703
59	0x3ea47f99	0.321286
60	0x3e3dae2f	0.18523477
61	0x3d996e29	0.074917145
62	0x3e93e46c	0.2888521
63	0x3ef6ff2c	0.48241556
64	0xbd871315	-0.065954365
65	0x3e186724	0.14883095
66	0x3c2bc28d	0.010483396
67	0xbde9dd04	-0.114191085
68	0xbd0e9c0d	-0.03481679
69	0x3d3425ee	0.043981485
70	0x3da03651	0.0782286
71	0x3d0c50e1	0.03425682
72	0xbdfc221f	-0.123111956
73	0x3cc4ac62	0.02400798
74	0x3e7f24e3	0.24916415
75	0x3d1bb949	0.0380185
76	0x3dae8b9d	0.08522723
77	0x3e08c2d5	0.13355573
78	0xbd7768cf	-0.060402688
79	0xbdf26b2e	-0.11836849
80	0xbdbb9bb1	-0.09160555
81	0xbe8745e8	-0.26420522
82	0xbe66e067	-0.2254654
83	0xbe51a843	-0.20474343
84	0xbde8ec15	-0.11373154
85	0xbe11d793	-0.14242391
86	0xbe9609be	-0.29304308
87	0xbe20610e	-0.15662023
88	0xbe612261	-0.21985771
89	0xbdaf40fb	-0.08557316
90	0xbe9d7e6f	-0.30760524
91	0xbe673e0e	-0.22582266
92	0xbe1aaf03	-0.15105824
93	0xbe12c17e	-0.14331624
94	0xbde1e5ce	-0.1103016
95	0xbdc06e4e	-0.09396039
96	0xbd65987e	-0.05605363
97	0xbe60b6bb	-0.21944706
98	0xbe5f86dc	-0.21828789
99	0xbccea311	-0.02522424
100	0xbd91a366	-0.07111244
101	0xbdffd436	-0.12491648
102	0xbe27d70b	-0.16390626
103	0xbe1e8acc	-0.15482634
104	0xbe679285	-0.22614487
105	0xbe4cd15b	-0.20001738
106	0xbea37921	-0.31928352
107	0xbeb5b82d	-0.35492077
108	0xbe8dd275	-0.27699628
109	0xbe5040d3	-0.20337228
110	0xbde4936b	-0.1116093
111	0xbe462c09	-0.19352736
112	0x3cd844f8	0.026400074
113	0xbe21a86b	-0.15786903
114	0xbdc63bf8	-0.09679407
115	0xbd57990c	-0.05263619
116	0xbc6a8c05	-0.01431561
117	0xbe2f6f61	-0.17132331
118	0xbdb61c2f	-0.08892094
119	0xbdc8af5b	-0.097990714
120	0xbdc38b54	-0.09548059
121	0xbc9827fe	-0.018573757
122	0xbe3e64a9	-0.18593086
123	0xbe7ce65e	-0.24697253
124	0xbe18635b	-0.14881651
125	0xbdda8216	-0.10669343
126	0xbdabddef	-0.0839194
127	0x3ce29617	0.027659459
128	0x3e091aeb	0.13389175
129	0xbdde71a9	-0.10861523
130	0xbdbebdfd	-0.09313581
131	0xbd981d9c	-0.074275225
132	0xbe940411	-0.28909352
133	0xbe05be52	-0.13060883
134	0xbc8f50a5	-0.017494509
135	0x3bbc8352	0.0057529593
136	0xbe2a26fe	-0.16616437
137	0xbe036b60	-0.12833929
138	0x3bd3f974	0.006468946
139	0xbdb6a65a	-0.08918448
140	0xbc8cebdf	-0.017202316
141	0xbe0acdb8	-0.13555038
142	0xbe29f4fd	-0.16597362
143	0xbe4a005e	-0.19726703
144	0xbdf461db	-0.11932727
145	0xbe227415	-0.15864594
146	0xbe3026cb	-0.17202298
147	0xbe6a36cf	-0.2287247
148	0xbe6ef77a	-0.23336592
149	0xbe6f50b2	-0.23370627
150	0xbd9a22af	-0.075261466
151	0xbe3d1e57	-0.18468605
152	0xbda0ae95	-0.07845799
153	0xbb9cc963	-0.0047847494
154	0xbea1b806	-0.3158571
155	0xbe7bf324	-0.2460447
156	0xbdcca919	-0.0999319
157	0xbe04c260	-0.12964773
158	0xbde285dc	-0.11060688
159	0xbd67e59e	-0.056615464
160	0xbd885753	-0.06657281
161	0x3ecbaac5	0.39778724
162	0x3e598cd8	0.21245134
163	0x3e38380e	0.17990133
164	0x3e1d2b06	0.15348443
165	0x3d858579	0.065195985
166	0xbccff7d8	-0.025386736
167	0x3e9b0f97	0.30285332
168	0x3e8cee0f	0.27525374
169	0x3ed9880c	0.42486608
170	0x3e8d1cad	0.2756094
171	0x3d9eb496	0.07749288
172	0x3eb5cf48	0.35509706
173	0x3cc8f7af	0.024532167
174	0x3db3779b	0.08763047
175	0xbe0d0a47	-0.13773452
176	0xbdddf867	-0.108383946
177	0xbebea574	-0.37235606
178	0xbe9c6c7d	-0.3055152
179	0xbe6af78e	-0.22945997
180	0xbdf22ae7	-0.11824589
181	0xbda6ad33	-0.08138504
182	0x3e0138f8	0.12619388
183	0xbe6a9d4a	-0.22911564
184	0xbe882aaa	-0.2659505
185	0xbf093e36	-0.5361055
186	0xbec7b348	-0.39003968
187	0xbea69f20	-0.32543278
188	0xbe2fca52	-0.17167023
189	0xbe243502	-0.16035846
190	0xbe933910	-0.28754473
191	0xbeb4ae56	-0.35289258
192	0x3efb6a6f	0.4910464
193	0x3e9afd18	0.3027122
194	0x3cd4456f	0.025912015
195	0x3daf50d7	0.08560341
196	0xbad2df53	-0.0016088284
197	0x3db8ea1a	0.09029026
198	0x3dfaa473	0.122383974
199	0xba9b926c	-0.0011869199
200	0xbade6984	-0.0016968702
201	0xbe0d1e2b	-0.1378104
202	0x3dab7f43	0.083738826
203	0x3debc4aa	0.1151212
204	0x3d8230bf	0.06356954
205	0x3e4246b6	0.18972287
206	0x3e1d07ee	0.15335056
207	0x3d70250a	0.058629073
208	0x3d0b218c	0.03396754
209	0xbe3270fa	-0.1742591
210	0xbee356bd	-0.44402114
211	0xbed3eebc	-0.41393077
212	0xbe4b479b	-0.19851534
213	0xbe06f247	-0.13178359
214	0xbe7392f6	-0.2378653
215	0xbe9ff3b0	-0.31240606
216	0xbe604f37	-0.21905218
217	0xbe7a8864	-0.24466091
218	0xbe0f56a7	-0.13997899
219	0xbe9c6764	-0.3054763
220	0xbddc5e18	-0.107601345
221	0xbe4135af	-0.18868135
222	0xbe93189a	-0.28729707
223	0x3cf80b0c	0.030278705
224	0xbdc8534f	-0.09781515
225	0xbc831b45	-0.016004214
226	0xbe85049f	-0.25980088
227	0xbe9872cf	-0.29775092
228	0xbecd9d8d	-0.40159264
229	0xbda745fd	-0.08167646
230	0xbe70a293	-0.23499517
231	0xbc7de5e1	-0.015496702
232	0xbd9b5a79	-0.07585616
233	0xbd53d2fe	-0.05171489
234	0xbdc06116	-0.09393518
235	0xbc8b2a4e	-0.016987946
236	0xbd404165	-0.046937365
237	0xbcbde909	-0.023182409
238	0xbe4fcf1a	-0.20293847
239	0xbe098ab0	-0.13431811
240	0x3df0c7f2	0.117568865
241	0xbf003bf7	-0.500915
242	0xbeb8451c	-0.35990226
243	0xbdfe7a10	-0.12425625
244	0xbe25a512	-0.1617625
245	0xbe8ac8df	-0.27106377
246	0xbe8ff36f	-0.28115413
247	0xbd8193bb	-0.063270055
248	0xbdb7ef41	-0.08981181
249	0xbe059cf3	-0.13048153
250	0xbed6d056	-0.41955823
251	0xbe7542df	-0.2395129
252	0xbed8d222	-0.4234782
253	0xbe681ae2	-0.22666505
254	0xbe921ce2	-0.2853766
255	0xbd6da596	-0.058019243

net.fc.bias f4 [32]
0	0xbdb1aff6	-0.0867614
1	0xbdb25fd4	-0.08709684
2	0xbc7065cf	-0.014672711
3	0x3d893edb	0.06701442
4	0x3e403f57	0.18774162
5	0x3de6c046	0.11267142
6	0x3df2690c	0.11836442
7	0x3deeaab7	0.11653655
8	0x3e29ac82	0.16569713
9	0xbe824fbc	-0.25451458
10	0x3f41d570	0.75716305
11	0xbc90d57b	-0.01767992
12	0xbde5d692	-0.11222567
13	0xbd71cb93	-0.059032034
14	0x3e6989ce	0.22806475
15	0xbe597e8d	-0.21239682
16	0x3e24f806	0.16110238
17	0x3c87e3fa	0.0165882
18	0xbdc00028	-0.0937503
19	0x3e709132	0.23492888
20	0x3c77e037	0.015129141
21	0x3e8866d1	0.26640943
22	0xbda7dd1d	-0.08196471
23	0x3e09f2bb	0.134715
24	0x3c00fa88	0.007872231
25	0x3dc4e851	0.09614623
26	0x3d2e5105	0.042557735
27	0x3c3167ff	0.010828017
28	0x3e802eab	0.25035605
29	0x3dbc830d	0.092046835
30	0xbe2863f3	-0.16444378
31	0xbd88eba2	-0.066855684

exp_avg f4 [8, 1, 1, 256]
0	0x39240d12	0.00015645128
1	0x39359647	0.00017317488
2	0x3944e354	0.00018776703
3	0x3951ce06	0.00020008543
4	0x395cc28a	0.00021053306
5	0x3965ea60	0.00021926453
6	0x396c1d61	0.00022517658
7	0x396ef4f8	0.00022788707
8	0x396f5b9c	0.00022826943
9	0x396e19cb	0.00022707057
10	0x396a2232	0.00022328718
11	0x39628642	0.00021603054
12	0x3957b0ff	0.00020569934
13	0x394b3caf	0.00019382195
14	0x393d3072	0.00018042492
15	0x392dc7ae	0.00016572952
16	0x391da014	0.0001503232
17	0x390de212	0.00013531026
18	0x38fc55ed	0.00012032301
19	0x38dd2e6a	0.000105467465
20	0x38bfea79	9.151264e-05
21	0x38a63350	7.9250545e-05
22	0x388f6fa9	6.83957e-05
23	0x3879e2ca	5.957744e-05
24	0x38601d3d	5.3432992e-05
25	0x385466b7	5.06404e-05
26	0x38558ace	5.091243e-05
27	0x3860b8fc	5.3578042e-05
28	0x386f00a1	5.6982626e-05
29	0x3876a9b3	5.8809015e-05
30	0x3872c62d	5.788186e-05
31	0x38648199	5.4480133e-05
32	0x384d745c	4.8984177e-05
33	0x382f3211	4.176988e-05
34	0x380ee2dd	3.406672e-05
35	0x37e4e464	2.728607e-05
36	0x37b818eb	2.1946113e-05
37	0x37942ccc	1.7663835e-05
38	0x377353f1	1.4503473e-05
39	0x37555a8c	1.2716871e-05
40	0x37612f91	1.342212e-05
41	0x37987e10	1.8178514e-05
42	0x37f296eb	2.8918925e-05
43	0x383f40f4	4.559844e-05
44	0x388ad4e3	6.620006e-05
45	0x38b8bbc2	8.808776e-05
46	0x38e64ae5	0.00010981205
47	0x3908d5b4	0.00013049581
48	0x391cfb4f	0.00014970939
49	0x392ebc74	0.00016664137
50	0x393da9a2	0.00018087638
51	0x394948ba	0.00019195947
52	0x3951e745	0.00020017948
53	0x39587e96	0.00020646522
54	0x395e957a	0.00021227254
55	0x39662298	0.00021947396
56	0x39708cdd	0.00022940659
57	0x397dd426	0.00024206992
58	0x39862e18	0.00025592814
59	0x398db94c	0.00027031673
60	0x399540a0	0.00028467644
61	0x399c6718	0.0002983145
62	0x39a21cec	0.00030920596
63	0x39a5f1bf	0.00031651367
64	0x39a7f7b6	0.0003203728
65	0x39a8a0ff	0.00032163408
66	0x39a80141	0.0003204439
67	0x39a70021	0.00031852818
68	0x39a6c2f0	0.00031807227
69	0x39a7b87c	0.00031990174
70	0x39a99342	0.00032343908
71	0x39ac346b	0.0003284545
72	0x39afc909	0.00033528384
73	0x39b42179	0.00034357214
74	0x39b8cde3	0.00035248612
75	0x39bdb71c	0.00036185316
76	0x39c31cbb	0.00037214704
77	0x39c85454	0.00038209802
78	0x39ccb843	0.00039047198
79	0x39cf3aa5	0.0003952581
80	0x39cee3bd	0.0003946106
81	0x39ca9607	0.00038640221
82	0x39c25dfc	0.00037072587
83	0x39b68225	0.0003481071
84	0x39a79d76	0.0003197004
85	0x39968851	0.00028711793
86	0x39852aca	0.00025399617
87	0x3969dc02	0.00022302571
88	0x394ce767	0.0001954116
89	0x39338030	0.00017118524
90	0x391e03ec	0.00015069515
91	0x390c7b82	0.0001339745
92	0x38fdb13f	0.00012096995
93	0x38e9ea7d	0.000111539826
94	0x38dc6afc	0.00010510345
95	0x38d3ab78	0.000100932026
96	0x38cdbd48	9.810418e-05
97	0x38c870de	9.557766e-05
98	0x38c1206d	9.208997e-05
99	0x38b978be	8.8439774e-05
100	0x38b4f799	8.6291875e-05
101	0x38b5729a	8.652099e-05
102	0x38b709e4	8.727962e-05
103	0x38b6be54	8.713888e-05
104	0x38b4b9b2	8.617657e-05
105	0x38b4014d	8.583311e-05
106	0x38b5223d	8.63713e-05
107	0x38ba2953	8.8768684e-05
108	0x38c6b8b7	9.4757816e-05
109	0x38dee05a	0.00010627574
110	0x39006a3b	0.00012246605
111	0x39133f1a	0.0001404252
112	0x39245fd3	0.00015675956
113	0x3931add0	0.00016944786
114	0x393a1b63	0.00017748545
115	0x393d80ef	0.00018072476
116	0x393c89da	0.00017980431
117	0x39386344	0.00017584587
118	0x3931e774	0.00016966258
119	0x3929bbb7	0.00016187025
120	0x39211101	0.00015360491
121	0x3919d922	0.00014672105
122	0x3915d93a	0.0001429067
123	0x39152955	0.00014225145
124	0x391684a0	0.00014354521
125	0x39187621	0.00014539856
126	0x391ab7c7	0.00014755047
127	0x391d38f8	0.0001499391
128	0x391ea05a	0.0001512779
129	0x39219a20	0.00015411573
130	0x39255a68	0.00015769305
131	0x3928f914	0.00016114517
132	0x392a18d5	0.00016221714
133	0x39275d33	0.0001596108
134	0x39218c7c	0.00015406491
135	0x391a0919	0.00014689974
136	0x3911d66a	0.00013908153
137	0x390aa6d1	0.0001322285
138	0x3905fd00	0.00012778118
139	0x39049718	0.00012644788
140	0x390647c0	0.00012805965
141	0x390ae86c	0.0001324729
142	0x39113f4e	0.0001385186
143	0x39180d77	0.00014500866
144	0x391ce958	0.00014964247
145	0x391d926c	0.00015027233
146	0x391880c5	0.0001454382
147	0x390e729b	0.00013584869
148	0x3900d7d9	0.00012287441
149	0x38e348c5	0.00010837758
150	0x38c3f2bf	9.3435396e-05
151	0x38a7f356	8.0085054e-05
152	0x3893d608	7.049373e-05
153	0x38893f46	6.544455e-05
154	0x38850fd7	6.3448846e-05
155	0x3883acc5	6.2787476e-05
156	0x3882420d	6.211186e-05
157	0x387b6f1d	5.9946546e-05
158	0x3867750a	5.5183693e-05
159	0x3846464d	4.727235e-05
160	0x3819f8d4	3.6709782e-05
161	0x37ca9543	2.4149782e-05
162	0x372cf474	1.0308915e-05
163	0xb685c8f5	-3.9871034e-06
164	0xb79681d5	-1.7941851e-05
165	0xb803b9a3	-3.140572e-05
166	0xb8372ec1	-4.3674143e-05
167	0xb8619c19	-5.3789558e-05
168	0xb87d1dc7	-6.0347633e-05
169	0xb882f4df	-6.244494e-05
170	0xb878048b	-5.913204e-05
171	0xb8543881	-5.0597362e-05
172	0xb81c9865	-3.7335227e-05
173	0xb7ac6cda	-2.0554686e-05
174	0xb5341f74	-6.7100996e-07
175	0x37ad86a5	2.0685906e-05
176	0x382e8b5c	4.161462e-05
177	0x387db2ad	6.0486305e-05
178	0x38a2c3de	7.761245e-05
179	0x38c428d8	9.353616e-05
180	0x38e3146a	0.00010828006
181	0x38fe88a9	0.00012137119
182	0x390ba297	0.00013316642
183	0x391717b5	0.00014409314
184	0x3921e0f8	0.00015437964
185	0x392bfc1d	0.0001640175
186	0x39352d31	0.0001727834
187	0x393cdd52	0.00018011525
188	0x3941fe41	0.00018500631
189	0x394424a7	0.0001870567
190	0x39431984	0.00018606154
191	0x393f8b91	0.00018267172
192	0x393a3d6a	0.00017761221
193	0x39348e6d	0.00017219195
194	0x392de3ee	0.00016583476
195	0x39267e9f	0.00015878164
196	0x391eac9e	0.00015132359
197	0x3914aca0	0.00014178688
198	0x39060769	0.00012781996
199	0x38e42bd4	0.00010880051
200	0x38b5a97c	8.6623215e-05
201	0x3885840c	6.36653e-05
202	0x383043b3	4.202472e-05
203	0x37bd2c49	2.2551178e-05
204	0x36bb7ecf	5.5877967e-06
205	0xb7177f74	-9.029976e-06
206	0xb7b0b83f	-2.1066631e-05
207	0xb8048db2	-3.1603216e-05
208	0xb831e895	-4.2416697e-05
209	0xb868360f	-5.5363456e-05
210	0xb8939a83	-7.038286e-05
211	0xb8b50130	-8.630974e-05
212	0xb8d4f230	-0.00010154059
213	0xb8f1936c	-0.00011519235
214	0xb904e7f3	-0.00012674909
215	0xb90fa38b	-0.00013698467
216	0xb91a20e4	-0.00014698837
217	0xb925a26a	-0.0001579613
218	0xb931d7d5	-0.00016960439
219	0xb93dcca7	-0.00018100684
220	0xb9486ad0	-0.00019113277
221	0xb950547c	-0.00019867899
222	0xb953cb6c	-0.00020198309
223	0xb952aed1	-0.00020092285
224	0xb94df534	-0.00019641669
225	0xb9476f3c	-0.00019019557
226	0xb9404ae9	-0.00018338453
227	0xb9391751	-0.00017651661
228	0xb931c38a	-0.0001695288
229	0xb9296333	-0.0001615405
230	0xb91f9942	-0.00015220515
231	0xb9152139	-0.00014222124
232	0xb90ae091	-0.00013244363
233	0xb900dc19	-0.00012289024
234	0xb8f01762	-0.00011448447
235	0xb8e3be79	-0.00010859682
236	0xb8de80ce	-0.00010609777
237	0xb8dd762f	-0.000105601146
238	0xb8dd6c98	-0.00010558328
239	0xb8daf8cc	-0.00010441392
240	0xb8d26358	-0.000100320845
241	0xb8c0aa27	-9.186967e-05
242	0xb8a8e71e	-8.053913e-05
243	0xb8911898	-6.91872e-05
244	0xb878cf74	-5.9321013e-05
245	0xb852bcc4	-5.0243703e-05
246	0xb82d7842	-4.1358413e-05
247	0xb80ab8fb	-3.307404e-05
248	0xb7dba2f4	-2.6182715e-05
249	0xb7aeb3ca	-2.0826137e-05
250	0xb785f1b1	-1.5967382e-05
251	0xb731aa72	-1.0589707e-05
252	0xb699a001	-4.5783822e-06
253	0x35b6b430	1.3612498e-06
254	0x36d2903f	6.27528e-06
255	0x3710b6b0	8.625604e-06

exp_avg_sq f4 [8, 1, 1, 256]
0	0x3616f2cd	2.249307e-06
1	0x36139498	2.19912e-06
2	0x36116aac	2.1668775e-06
3	0x36107dae	2.1530827e-06
4	0x3610da96	2.1584906e-06
5	0x3612943c	2.184198e-06
6	0x3615a762	2.230016e-06
7	0x3619b4d6	2.2904037e-06
8	0x361e3efc	2.3580496e-06
9	0x3622df46	2.4269843e-06
10	0x36275fbb	2.4940662e-06
11	0x362bbcfc	2.559099e-06
12	0x362ff22f	2.6218001e-06
13	0x3633c81a	2.6789553e-06
14	0x3636e18f	2.7251406e-06
15	0x3638cbaa	2.7536685e-06
16	0x3639542d	2.7616145e-06
17	0x363898eb	2.7507147e-06
18	0x3636f149	2.726056e-06
19	0x3634cf21	2.6942655e-06
20	0x36328503	2.660149e-06
21	0x363032bd	2.6255577e-06
22	0x362dfcf4	2.5926247e-06
23	0x362c1ee2	2.5647973e-06
24	0x362ac6f0	2.544777e-06
25	0x3629de45	2.531234e-06
26	0x36295abb	2.5235775e-06
27	0x36293b25	2.521739e-06
28	0x36297e20	2.5256377e-06
29	0x362a2535	2.5353631e-06
30	0x362b4eb9	2.5526808e-06
31	0x362d2f30	2.5806476e-06
32	0x362fd13a	2.6198818e-06
33	0x3632f36c	2.6665757e-06
34	0x363635cf	2.7151434e-06
35	0x3639200f	2.7585809e-06
36	0x363b45e8	2.7905862e-06
37	0x363c781f	2.8084103e-06
38	0x363cab3a	2.811385e-06
39	0x363be08d	2.7995877e-06
40	0x363a2016	2.7734836e-06
41	0x3637724d	2.7335657e-06
42	0x36340464	2.6824646e-06
43	0x36300264	2.6227435e-06
44	0x362bc140	2.5593472e-06
45	0x36279bf0	2.4975707e-06
46	0x3623c5f3	2.4404114e-06
47	0x36201ac9	2.385745e-06
48	0x361c8e85	2.3328769e-06
49	0x361942a4	2.2837567e-06
50	0x3616721e	2.2418167e-06
51	0x36142974	2.2077847e-06
52	0x36127ce6	2.1828396e-06
53	0x36117258	2.167324e-06
54	0x3611155e	2.161912e-06
55	0x3611646d	2.166514e-06
56	0x3612434e	2.1794872e-06
57	0x36136cbf	2.1968006e-06
58	0x3614a55e	2.2149975e-06
59	0x3615d882	2.2328754e-06
60	0x3616f681	2.2495226e-06
61	0x3617db86	2.2628533e-06
62	0x361870c7	2.271541e-06
63	0x36189f4c	2.2742488e-06
64	0x36186098	2.270599e-06
65	0x3617a2a4	2.2595423e-06
66	0x361674f5	2.241982e-06
67	0x3614c7b7	2.2169968e-06
68	0x3612a8bf	2.1853918e-06
69	0x361052e8	2.150593e-06
70	0x360de4d7	2.114384e-06
71	0x360b8cb5	2.0794516e-06
72	0x3609631e	2.0472285e-06
73	0x36078509	2.0194004e-06
74	0x3605ee27	1.9957167e-06
75	0x360491ff	1.9754514e-06
76	0x360380da	1.9595523e-06
77	0x3602e9dd	1.9507636e-06
78	0x3602de52	1.9500917e-06
79	0x36034a3c	1.9563731e-06
80	0x3603ea0c	1.9656754e-06
81	0x36048006	1.9744052e-06
82	0x3604fe0f	1.9817414e-06
83	0x36058500	1.989596e-06
84	0x36061934	1.9982226e-06
85	0x360676bb	2.0036666e-06
86	0x36063a16	2.0001366e-06
87	0x36055c6e	1.9872346e-06
88	0x360408a2	1.9674558e-06
89	0x36024c4e	1.9415925e-06
90	0x36001da9	1.909075e-06
91	0x35fafcc1	1.8700013e-06
92	0x35f4f390	1.8250303e-06
93	0x35ee81ab	1.777012e-06
94	0x35e8268e	1.7296568e-06
95	0x35e256d8	1.6863587e-06
96	0x35dd6e4c	1.6497884e-06
97	0x35d9c01d	1.6223672e-06
98	0x35d7142a	1.6024617e-06
99	0x35d4f66b	1.5866948e-06
100	0x35d3018c	1.5721175e-06
101	0x35d12dfe	1.5585099e-06
102	0x35cf3b1d	1.5439906e-06
103	0x35ccd8f7	1.526233e-06
104	0x35c9e8cb	1.5043419e-06
105	0x35c68b38	1.4792668e-06
106	0x35c2e829	1.4521694e-06
107	0x35bf65d3	1.4260244e-06
108	0x35bc5d4f	1.4034248e-06
109	0x35ba0609	1.3859836e-06
110	0x35b82461	1.3719656e-06
111	0x35b69b06	1.3605174e-06
112	0x35b54d28	1.3508006e-06
113	0x35b410b3	1.3415905e-06
114	0x35b2c1bf	1.3318421e-06
115	0x35b1c353	1.3244374e-06
116	0x35b15947	1.3213511e-06
117	0x35b19fa7	1.3233993e-06
118	0x35b277a6	1.3296856e-06
119	0x35b3bf86	1.339228e-06
120	0x35b4fff4	1.3485537e-06
121	0x35b5d05f	1.3546195e-06
122	0x35b61b22	1.3567953e-06
123	0x35b63895	1.3576524e-06
124	0x35b63516	1.3575507e-06
125	0x35b60918	1.3562703e-06
126	0x35b5d877	1.354855e-06
127	0x35b5b7e1	1.3539067e-06
128	0x35b53c72	1.3503143e-06
129	0x35b4ff01	1.3485261e-06
130	0x35b445d3	1.3431367e-06
131	0x35b33b13	1.3353732e-06
132	0x35b1f2ba	1.325817e-06
133	0x35b08364	1.3151262e-06
134	0x35aefe3f	1.3038006e-06
135	0x35ad2401	1.2899983e-06
136	0x35aae490	1.2732507e-06
137	0x35a8b092	1.2568364e-06
138	0x35a721c0	1.2452292e-06
139	0x35a66e9d	1.2400156e-06
140	0x35a67d1c	1.2404375e-06
141	0x35a71662	1.2448984e-06
142	0x35a81072	1.2521762e-06
143	0x35a95cbf	1.2618474e-06
144	0x35aafea3	1.2740096e-06
145	0x35acfaf8	1.288804e-06
146	0x35af2b82	1.3051178e-06
147	0x35b14987	1.3208927e-06
148	0x35b3157f	1.3342795e-06
149	0x35b456d9	1.3436321e-06
150	0x35b50155	1.3485939e-06
151	0x35b53bd5	1.3502964e-06
152	0x35b52b63	1.3498178e-06
153	0x35b4d71e	1.3473652e-06
154	0x35b41ba4	1.341909e-06
155	0x35b30afb	1.3339735e-06
156	0x35b1c837	1.3245798e-06
157	0x35b0b172	1.3164665e-06
158	0x35afd71d	1.3101122e-06
159	0x35af930c	1.3081312e-06
160	0x35b03d07	1.3130783e-06
161	0x35b1fd5e	1.3261267e-06
162	0x35b4a853	1.3460034e-06
163	0x35b80e03	1.3713146e-06
164	0x35bbcc56	1.3992055e-06
165	0x35bf50f7	1.4254173e-06
166	0x35c20af1	1.4457311e-06
167	0x35c3c69e	1.4586437e-06
168	0x35c4cedb	1.4663341e-06
169	0x35c57db0	1.4714224e-06
170	0x35c5f070	1.474762e-06
171	0x35c617b4	1.4759048e-06
172	0x35c5c76c	1.4735683e-06
173	0x35c4f7e0	1.4675279e-06
174	0x35c39f4c	1.4574994e-06
175	0x35c1fe83	1.4453693e-06
176	0x35c070a4	1.4337897e-06
177	0x35bf63c5	1.4259646e-06
178	0x35bf291b	1.4242572e-06
179	0x35bfe616	1.4297573e-06
180	0x35c1a9e5	1.4429066e-06
181	0x35c47afd	1.4638932e-06
182	0x35c82709	1.4912522e-06
183	0x35cc8b39	1.5239704e-06
184	0x35d1604c	1.559974e-06
185	0x35d64ebe	1.596716e-06
186	0x35db4208	1.6335989e-06
187	0x35e046b7	1.6709881e-06
188	0x35e51f7b	1.7070992e-06
189	0x35e9972e	1.7403852e-06
190	0x35ed90bd	1.77e-06
191	0x35f0cb08	1.7940483e-06
192	0x35f2e845	1.8098004e-06
193	0x35f3cff9	1.8165439e-06
194	0x35f3c295	1.8161542e-06
195	0x35f327ca	1.8116491e-06
196	0x35f241b8	1.8049532e-06
197	0x35f12c51	1.7968797e-06
198	0x35eff150	1.7877119e-06
199	0x35eeab1d	1.7782182e-06
200	0x35edad35	1.7708286e-06
201	0x35ed88a4	1.7697644e-06
202	0x35ee7675	1.7766857e-06
203	0x35f0c52a	1.7938776e-06
204	0x35f4bd5f	1.8234531e-06
205	0x35fa6ca0	1.8658066e-06
206	0x3600cdf3	1.9193365e-06
207	0x3604dcd0	1.9798063e-06
208	0x36090876	2.0419516e-06
209	0x360d1e75	2.1028366e-06
210	0x3610f9a8	2.1602991e-06
211	0x361482f2	2.2129939e-06
212	0x36178c53	2.2582433e-06
213	0x3619df19	2.2928637e-06
214	0x361b64b8	2.3155426e-06
215	0x361c315f	2.327455e-06
216	0x361c6975	2.3307196e-06
217	0x361c015a	2.3246598e-06
218	0x361ad4a0	2.3071552e-06
219	0x3618a430	2.2745335e-06
220	0x361541a5	2.224094e-06
221	0x3610ced4	2.1578062e-06
222	0x360ba508	2.0808675e-06
223	0x360642cf	2.0006444e-06
224	0x360110cd	1.9232277e-06
225	0x35f8c540	1.8534847e-06
226	0x35f10657	1.7957744e-06
227	0x35eb5e31	1.7536278e-06
228	0x35e7fbdc	1.7284142e-06
229	0x35e6e772	1.7203695e-06
230	0x35e7f154	1.7281077e-06
231	0x35eab0d9	1.7485828e-06
232	0x35ee9c97	1.7777955e-06
233	0x35f311b7	1.8110067e-06
234	0x35f7c116	1.845913e-06
235	0x35fc9066	1.8817489e-06
236	0x3600a7c0	1.917113e-06
237	0x3602d84a	1.9497406e-06
238	0x3604af6c	1.9771642e-06
239	0x3606182b	1.9981624e-06
240	0x36071737	2.013008e-06
241	0x3607b529	2.0222017e-06
242	0x3607f25d	2.0257642e-06
243	0x3607ca9c	2.0234502e-06
244	0x36074e17	2.0162022e-06
245	0x3606808d	2.0042382e-06
246	0x36056224	1.987567e-06
247	0x36040c88	1.9676827e-06
248	0x3602b827	1.94787e-06
249	0x3601a0cc	1.9316094e-06
250	0x3600fe8c	1.9221652e-06
251	0x360107be	1.9227004e-06
252	0x36020dfc	1.937965e-06
253	0x360443f1	1.970908e-06
254	0x3607a73b	2.0213909e-06
255	0x360bdf83	2.0842715e-06

exp_avg f4 [8]
0	0x32be7901	2.2173937e-08
1	0x3275c404	1.4305446e-08
2	0x3150a200	3.036007e-09
3	0xb46d56f4	-2.2103978e-07
4	0xb36d1e9e	-5.520871e-08
5	0xb0ab9a8f	-1.2485816e-09
6	0xb2bd0acf	-2.2007411e-08
7	0x32c6e379	2.3153676e-08

exp_avg_sq f4 [8]
0	0x28f57161	2.7249634e-14
1	0x27966249	4.1739924e-15
2	0x2726db8e	2.3156149e-15
3	0x291bd7c3	3.4604057e-14
4	0x28829f51	1.4501992e-14
5	0x27fdce2f	7.044515e-15
6	0x280e96a5	7.915249e-15
7	0x27cecd22	5.739889e-15

exp_avg f4 [8]
0	0x30f5ad6b	1.7875385e-09
1	0xaf7fda90	-2.3269764e-10
2	0xb0a3cb96	-1.1917674e-09
3	0x302db55c	6.319476e-10
4	0xaed7db84	-9.816062e-11
5	0xb0dc2e59	-1.602028e-09
6	0xb10cafa8	-2.047253e-09
7	0xb00ea021	-5.1886856e-10

exp_avg_sq f4 [8]
0	0x24b0ccb4	7.6674614e-17
1	0x20d73fba	3.6464587e-19
2	0x22ffc40a	6.9325453e-18
3	0x21ab2775	1.1597855e-18
4	0x21285382	5.7031136e-19
5	0x22f1baa9	6.5520815e-18
6	0x23bdb805	2.0569356e-17
7	0x21f6fdc6	1.6736782e-18
