model/all_subjects_20240208_162941/model.pt (torch, 65706 bytes, 17 tensors)

net.conv.weight f4 [8, 1, 1, 256]
000000 12 5e 95 bd e3 a4 b3 3d c8 60 e0 3d 54 7e 86 3e
       -0.07293333 0.08771684 0.109559596 0.26268256
000010 66 31 af 3e 67 8d e8 3e 4f 06 0d 3f 12 02 1d 3f
       0.34217376 0.4542038 0.5508775 0.61331284
000020 50 32 2d 3f 09 fc 1f 3f 8b 2f 28 3f 6a 86 1d 3f
       0.67654896 0.6249395 0.65697545 0.61533225
000030 71 ab ee 3e 5a c4 d0 3e 2f 2d 92 3e a4 4a 34 3e
       0.46615174 0.40774804 0.28550097 0.17606598
000040 92 1f 18 3e 38 eb 40 3c d6 a5 5d bd 77 4b 22 be
       0.14855793 0.0117748305 -0.05411323 -0.158491
000050 93 9d 83 be 0c bb 88 be d4 60 c9 be 3f e0 16 bf
       -0.25706157 -0.26705205 -0.39331686 -0.5893592
000060 9f d2 2a bf d3 6c 40 bf 41 c8 4a bf bc 87 63 bf
       -0.6672763 -0.7516605 -0.79211813 -0.8887899
000070 ab e3 5d bf 32 53 68 bf d1 cd 68 bf da 7a 50 bf
       -0.8667552 -0.90751946 -0.9093905 -0.81437457
000080 b1 75 52 bf 67 75 4d bf d2 5c 14 bf 32 5a 0b bf
       -0.8221083 -0.80257267 -0.5795413 -0.544345
000090 6a dc ed be c9 c8 a4 be 8d 7f c7 bd f0 c3 a5 bd
       -0.46457225 -0.32184437 -0.09741125 -0.08094013
0000a0 2d 6c ca 3d 40 1c 40 3e 68 f4 c6 3e 8d 5e fe 3e
       0.09883914 0.18760777 0.38858342 0.49681512
0000b0 82 b0 0d 3f 3e f2 2b 3f a1 4e 48 3f fd e8 5e 3f
       0.55347455 0.6716651 0.7824498 0.8707426
0000c0 49 41 78 3f 46 7e 84 3f c0 bc 7f 3f 2a 69 92 3f
       0.9697462 1.0351036 0.99897385 1.1438344
0000d0 6d 9f 87 3f 37 c7 89 3f 1a 45 89 3f 43 37 77 3f
       1.0595528 1.076392 1.0724213 0.965687
0000e0 0f d6 4c 3f eb 52 30 3f 3e b3 0e 3f 53 40 cd 3e
       0.8001413 0.6887652 0.5574225 0.40088138
0000f0 13 1c c9 3d 95 d9 61 bd e7 a7 9a be 66 6d 04 bf
       0.09819808 -0.055139143 -0.30206224 -0.5172943
000100 1f 2d 32 bf a2 b5 58 bf 10 75 85 bf cc 8b 92 bf
       -0.696001 -0.8465215 -1.042635 -1.1448913
000110 42 98 93 bf 36 a4 99 bf 9c 7e a7 bf b0 c6 a0 bf
       -1.153084 -1.2003238 -1.3085513 -1.2560635
000120 d9 1b 9a bf e6 42 9b bf 4b 72 8e bf cb c8 88 bf
       -1.2039748 -1.2129791 -1.112863 -1.0686277
000130 e6 6e 72 bf 38 07 4c bf e2 b7 25 bf af ae 03 bf
       -0.9470047 -0.79698515 -0.6473371 -0.5143842
000140 05 d5 be be 98 0a 4a be a3 3c 78 bd 17 05 cd 3d
       -0.37271896 -0.19730604 -0.060604703 0.100107364
000150 c1 6d 8f 3e 29 2f c3 3e 98 42 09 3f fc bc 1e 3f
       0.28013423 0.38121918 0.5361724 0.6200712
000160 f9 bd 21 3f 7c 7f 3b 3f 8e a9 4a 3f 46 1f 53 3f
       0.631805 0.732414 0.7916497 0.82469594
000170 3b 6f 46 3f 36 70 52 3f d5 b5 45 3f ed e1 38 3f
       0.77513474 0.8220247 0.7723058 0.72219735
000180 d9 34 3f 3f f1 d3 37 3f 21 4d 18 3f db c0 0f 3f
       0.74690014 0.7180777 0.5949269 0.5615365
000190 9c 5f 0e 3f 0e 76 bc 3e 6c 89 ad 3e 07 95 21 3e
       0.5561464 0.3680882 0.33893907 0.15779506
0001a0 b1 06 93 3b 93 03 0f be fa 26 99 be 46 5f b9 be
       0.0044868817 -0.13966207 -0.2991255 -0.362055
0001b0 24 0b 04 bf db d2 13 bf e6 55 12 bf 5c df 31 bf
       -0.515795 -0.57743615 -0.5716232 -0.69481444
0001c0 0a de 1f bf d1 64 23 bf eb 7e 28 bf 44 4d 13 bf
       -0.6244818 -0.6382571 -0.6581866 -0.57539773
0001d0 67 4e 04 bf b7 22 02 bf 66 a6 ca be a5 03 9b be
       -0.5168213 -0.5083422 -0.39580077 -0.30276218
0001e0 6a 2f 96 be 1f d5 5f be 30 90 0f be 0e 0b e5 bd
       -0.2933305 -0.21858643 -0.14019847 -0.11183749
0001f0 c6 ad b8 bd a1 d6 d3 bc 24 a9 39 bc ef da 3a bd
       -0.0901752 -0.025859179 -0.01133183 -0.045618948
000200 2e 79 4d 3c e2 09 c7 3d eb 72 af 3d 15 54 60 3d
       0.0125410985 0.09718682 0.08566841 0.054767687
000210 3b 74 15 3e 05 e0 52 3e d5 37 22 3e 2b b6 53 3e
       0.1459512 0.20593269 0.1584161 0.2067496
000220 e2 2a 09 3e 07 15 58 3e cc 89 35 3e 06 27 dd 3d
       0.13395265 0.21101771 0.17728347 0.10798459
000230 9a 61 b7 3d 0c f0 e5 3d da b0 87 3d 15 2f 77 bb
       0.08954163 0.11227426 0.06625529 -0.0037717272
000240 cc 55 11 3d ef 6f a2 3d b1 30 66 3b ee 84 ab bb
       0.035482213 0.07931506 0.0035124237 -0.0052343523
000250 1f 81 ce bc ea 3b 1c bd 43 23 5e 3c 49 7e b0 3b
       -0.025208054 -0.038143076 0.013558212 0.005386148
000260 a4 a7 d8 3c 91 ea 07 bd 75 6c a4 3c 36 6b 9d 3d
       0.026447125 -0.033182684 0.020071248 0.076864645
000270 1f 42 22 3e 7d 53 60 3e 50 5e a5 3e cf ac b8 3e
       0.15845536 0.21906848 0.32298517 0.36069342
000280 d4 37 fd 3e bf 28 09 3f bb ad 10 3f f7 27 0b 3f
       0.49456656 0.535778 0.5651509 0.54357857
000290 cb 18 09 3f 0f e4 fe 3e 2d 48 ba 3e a4 49 a0 3e
       0.53553456 0.4978337 0.3638319 0.31306183
0002a0 dd 0d 41 3e 06 27 d3 3d 78 39 1d 3d 24 6b 27 bd
       0.18852945 0.103101775 0.038384885 -0.04087366
0002b0 1d 1b 15 be 51 a0 57 be 60 cc 8d be 4b c3 bb be
       -0.14561124 -0.2105725 -0.27694988 -0.36672434
0002c0 0c 2e cf be 7d 6c 02 bf 8f 03 0e bf 66 0c 0e bf
       -0.40464818 -0.5094679 -0.5547418 -0.5548767
0002d0 81 41 12 bf a1 40 0f bf 45 18 1e bf 61 d4 01 bf
       -0.571312 -0.5595799 -0.6175578 -0.5071469
0002e0 c3 64 f7 be 75 18 03 bf 1d 8a ef be 9e 5a a4 be
       -0.48319063 -0.51209193 -0.4678506 -0.32100385
0002f0 26 4b 7d be a2 f1 77 be 48 80 3c bd d2 26 88 bc
       -0.24735698 -0.2421327 -0.046020776 -0.016620073
000300 58 8d 11 3e ec ac 83 3e 4d dd ad 3e 5c b4 f0 3e
       0.14214075 0.25717866 0.33957902 0.47012603
000310 82 6e 16 3f ec 21 23 3f aa cc 3b 3f 43 99 40 3f
       0.5876237 0.63723636 0.7335917 0.7523386
000320 79 8d 56 3f b9 b9 61 3f eb 70 70 3f 96 3d 66 3f
       0.8380962 0.88174015 0.939223 0.8993772
000330 9a 8e 5a 3f 02 53 65 3f 27 aa 4e 3f ba 34 40 3f
       0.8537384 0.89579785 0.8072838 0.75080454
000340 7e 1a 34 3f a2 05 15 3f a1 3d f8 3e a8 41 bf 3e
       0.70352924 0.5821172 0.4848452 0.3735478
000350 63 d3 9a 3e 9e f0 0a 3e 34 07 35 3d 22 57 c5 bd
       0.302394 0.1356835 0.044196323 -0.0963576
000360 0b c7 96 be b9 a3 d6 be d0 ba df be c8 36 14 bf
       -0.29448733 -0.41921785 -0.43697214 -0.5789609
000370 73 de 10 bf 8f 2b 1c bf 8a ed 28 bf 9f 61 21 bf
       -0.5658943 -0.61003965 -0.65987456 -0.6303958
000380 ee 03 1d bf 11 4e 17 bf ee 74 0f bf aa d9 03 bf
       -0.6133412 -0.59103495 -0.56037796 -0.51504004
000390 59 c2 0c bf 2b ff d9 be a8 89 cd be 0a 71 a2 be
       -0.5498405 -0.4257749 -0.40144086 -0.31726867
0003a0 61 1e 53 be e8 16 14 be d9 dd a3 bd ac 02 92 3d
       -0.20617057 -0.14461863 -0.080012985 0.07129416
0003b0 d4 a4 33 3e cf bd 83 3e 41 e5 ac 3e 81 54 be 3e
       0.17543346 0.2573075 0.33768657 0.37173846
0003c0 31 f4 e9 3e 32 27 cd 3e 7f 22 f8 3e 26 06 f3 3e
       0.45694116 0.40068966 0.48463818 0.47465628
0003d0 13 97 d5 3e 62 48 db 3e a3 ef e0 3e 56 f0 bd 3e
       0.41716823 0.4282866 0.43932828 0.37097424
0003e0 4b 20 bd 3e 73 c6 b0 3e 69 10 a0 3e f9 a5 85 3e
       0.369387 0.34526405 0.3126252 0.2610319
0003f0 94 f3 f7 3d 41 2a b6 3d 53 d6 b8 3d a7 9b 69 bd
       0.12107006 0.08894778 0.09025254 -0.057033207

net.bn1.weight f4 [8]
000000 dd 89 ab 3f 1f ac a0 3f 1c 01 a0 3f 02 7f b5 3f
       1.3401448 1.2552527 1.2500339 1.4179385
000010 3b 4a e9 3f 5e dd c5 3f 03 72 d6 3f 50 d9 a9 3f
       1.8225778 1.5458181 1.6753544 1.3269444

net.bn1.bias f4 [8]
000000 b2 56 a9 bd e7 b8 37 3e f6 1e fb bd 96 3f 47 be
       -0.08268489 0.17941628 -0.12261765 -0.1945785
000010 3d 7a 1d be 89 84 cb 3d 15 0f 74 bd 07 46 19 3e
       -0.15378661 0.099373884 -0.059584696 0.1496812

net.bn1.running_mean f4 [8]
000000 2a d8 3a ba a9 0b 46 b8 4a ee 09 b9 13 dd f1 39
       -0.0007127548 -4.7217738e-05 -0.00013154108 0.00046131815
000010 ee ee ef b9 70 a1 8a ba 3e c5 29 38 66 b3 9c 39
       -0.0004576365 -0.0010576677 4.0476436e-05 0.000298883

net.bn1.running_var f4 [8]
000000 13 95 15 44 4a bf 55 44 c5 b6 22 44 6a fd 37 44
       598.3293 854.9889 650.8558 735.9596
000010 a0 27 2b 44 4b 40 36 44 62 15 2b 44 56 93 30 44
       684.61914 729.0046 684.3341 706.3021

net.depth_conv.weight f4 [16, 1, 32, 1]
000000 1e 80 fe 3e fb 00 44 3f 9d b8 3a 3f 84 97 80 be
       0.4970712 0.76563996 0.7293795 -0.25115597
000010 c1 49 38 3f b3 8d c4 bc b2 ab ef 3e ff f3 0f be
       0.7198754 -0.023993349 0.4681068 -0.14057921
000020 30 ef 92 be 27 9d 07 c0 0f 24 d9 3b b1 cb cc 3e
       -0.2869811 -2.1189668 0.006626613 0.39999154
000030 39 1e c8 3e d6 3a 74 3f e2 9b 81 be ff fc d5 bd
       0.39085558 0.95402277 -0.25314242 -0.10448646
000040 9d 7e 80 3c e7 56 fb be 20 c0 fb 3e 42 17 14 3f
       0.015685374 -0.4908974 0.49170017 0.5784799
000050 12 b5 f0 3e 0b 28 c6 3c 10 66 a8 be b3 db 0f 3f
       0.47013146 0.024189016 -0.32890368 0.5619461
000060 75 61 a1 bf c8 d5 d4 be 11 82 31 bf 8b cf e2 bd
       -1.2607867 -0.41569352 -0.6933909 -0.11074742
000070 0b 4f 9e bd 11 cb 8c be 9e 4c a9 3e 9c 12 3d be
       -0.0772992 -0.27498677 0.33066267 -0.1846413
000080 39 f2 05 3f 8c ef 59 3f 53 71 3f 3f 94 67 5e bf
       0.5232273 0.85131145 0.74782294 -0.868768
000090 50 a6 3a 3f c9 cd 02 be 5b a9 0d 3f c7 36 13 3f
       0.7291002 -0.12773813 0.5533654 0.5750546
0000a0 42 ee b0 bd e6 73 d4 bf 65 84 42 bd a9 ef 64 3f
       -0.08639194 -1.6597869 -0.047489543 0.8942819
0000b0 a9 1f a8 3e bc d9 6e 3f 03 11 2e bf e1 ff 64 bc
       0.32836655 0.93300986 -0.6799471 -0.013977022
0000c0 56 11 18 bd aa b0 1f bf ac fe aa 3e 6c 48 47 3f
       -0.037125908 -0.6237894 0.33397424 0.7784488
0000d0 f8 51 9e 3e 5d d1 9e 3a 83 62 a5 bd 18 cd 22 3f
       0.30921912 0.0012116838 -0.0807543 0.635942
0000e0 d4 bd a7 bf 15 f7 07 bf 2f 12 db be 5b f2 ee 3e
       -1.3104806 -0.5311139 -0.4278731 0.46669278
0000f0 f8 5e 46 be 82 af 99 be 38 69 ca 3e 07 a9 ab be
       -0.19372165 -0.30016714 0.395334 -0.33527395
000100 c4 a6 d3 3d 83 dd 6b 3d d8 5a ce 3e 6c 45 df be
       0.103345424 0.057584297 0.40303683 -0.43607652
000110 20 aa 00 3f 18 11 b2 be 06 32 bf bf 4f 26 9d be
       0.5025959 -0.34778666 -1.4937141 -0.3069329
000120 b0 d7 ef 3e df 79 e9 be c2 ae 92 3c d1 9e 92 3d
       0.46844244 -0.45600793 0.017905597 0.07159198
000130 e6 4e 60 3e 46 73 1d 3d 7e d2 0e be 78 9e ab be
       0.21905097 0.03844001 -0.13947484 -0.3351934
000140 ca 7e 64 bf c9 43 97 be ac 88 70 be d3 99 2c bf
       -0.89255965 -0.29543903 -0.23489636 -0.6742222
000150 6c 50 2c 3e b1 9e 3a be 74 30 19 bd cd 13 cd 3e
       0.16827554 -0.18224598 -0.037399724 0.4005417
000160 9a 28 e6 3f bc 67 56 bf 91 b7 91 3f c1 91 a5 3f
       1.7981141 -0.83752036 1.1384145 1.2935106
000170 29 01 fd 3d ea d2 9d be 96 12 4c be 33 99 4e 3e
       0.12353737 -0.30824977 -0.19928965 0.20175628
000180 a9 c0 c6 3d bb 8c 84 3e ab 2f 6d 3d e5 dd 9d be
       0.09704716 0.2588862 0.057906788 -0.30833355
000190 83 43 e5 3e 77 a1 c4 be 78 f0 b0 bf d6 c5 dc be
       0.4477807 -0.38404438 -1.3823385 -0.43119687
0001a0 1d d0 d6 3e 3d 39 e5 be 19 2d 94 be f1 0c 88 be
       0.41955653 -0.44770232 -0.28940657 -0.26572374
0001b0 b6 1a 7b be 49 b4 3a bd d2 b2 9d be ae 32 c4 3e
       -0.24521908 -0.04558209 -0.30800492 0.38319916
0001c0 ac d5 39 bf 6a 9c 52 3d 5b cc cf be b6 d0 0d be
       -0.7259166 0.0514187 -0.40585598 -0.13849148
0001d0 ae a6 cf be f7 84 cf 3c 4a 10 55 bd 53 3a ff 3e
       -0.40556854 0.025331957 -0.052017488 0.49849185
0001e0 d1 14 00 40 e3 21 a5 bf 8d 3a 6f 3f 88 f6 93 3f
       2.0012705 -1.2900966 0.93448716 1.155961
0001f0 99 bf a6 3e dc aa 23 bf 34 eb 53 be ad 9f 5b 3e
       0.32568052 -0.63932586 -0.20695192 0.2144763
000200 7a a7 a7 be fb 38 05 bf 63 99 6b be 24 28 81 3e
       -0.32744962 -0.5204007 -0.23007731 0.25225937
000210 b2 15 d6 bf 56 8c 3f bd 55 56 d2 3e ec 58 6a 3e
       -1.6725371 -0.046764694 0.4108149 0.22885484
000220 60 5c f3 3e 09 23 21 3f 65 8a 80 3e 6b 19 0a be
       0.47531414 0.62944084 0.25105587 -0.13486259
000230 29 c9 50 3f bd 87 20 3f be e5 81 3e 9d 71 51 bf
       0.81556946 0.6270712 0.25370592 -0.81813985
000240 7e a0 92 3e 45 06 71 bd b7 df 36 3c 03 f6 7b 3d
       0.2863807 -0.05884387 0.011161736 0.061513912
000250 b4 97 29 3f de 8b 15 be a0 c0 2a 3f 2d 28 db be
       0.66247106 -0.14604136 0.6670017 -0.4280409
000260 9e ba a5 be ad 3d 2d 40 6b 85 44 bf 9e dc 14 3f
       -0.3236894 2.7068894 -0.7676608 0.58149135
000270 ea c7 4c be 9d 86 12 bf 25 d4 b8 be d9 14 77 be
       -0.19998136 -0.57236654 -0.36099353 -0.24129046
000280 d4 60 ce bc ca 51 2c 3f 2b 0b 42 3e f3 c0 94 be
       -0.025192656 0.673123 0.18949573 -0.2905346
000290 61 5d 06 40 6d 58 42 be cf a6 95 be f2 c7 ff be
       2.0994494 -0.18979044 -0.29228827 -0.49957234
0002a0 d0 3f 3c bd e6 d1 8d bf d6 d8 5f bf 5e c5 d2 bd
       -0.045959294 -1.1079681 -0.8744024 -0.10291551
0002b0 b0 59 27 bf 73 4c cd be 50 2f 9e ba 8d 64 a9 3f
       -0.6537123 -0.4009739 -0.0012068544 1.3233811
0002c0 dc 63 bb be 2e 34 6a bd 1f c6 c0 3e 1b 22 0c be
       -0.36599624 -0.05717867 0.37651154 -0.13684885
0002d0 8f e8 0c bf 96 d4 f1 be f1 59 54 bf b4 ea 16 3e
       -0.55042356 -0.47232503 -0.8294974 0.1473797
0002e0 82 4e f3 3d 79 23 81 bf 5f 34 a3 3f 6d 47 8b be
       0.118802086 -1.008895 1.2750357 -0.2720293
0002f0 f3 65 cb be 63 01 a9 3e 11 cf e9 3e 16 dd bb 3d
       -0.3972622 0.3300887 0.45665792 0.09173028
000300 a1 fc c8 bd e6 e7 76 3d 4f 53 5d bc 0c 8e c5 3e
       -0.0981381 0.06027975 -0.013508632 0.38584936
000310 b2 39 49 3f c5 77 29 3f d7 31 32 be 6e 2d 4a bd
       0.7860366 0.6619838 -0.17401825 -0.04935973
000320 b4 d4 e3 bf c8 1f df 3e 45 60 c1 be 14 e2 52 be
       -1.7799287 0.43578935 -0.3776876 -0.20594054
000330 1e 40 24 bf 53 9e cf be d1 89 1c 3e fc 02 04 be
       -0.64160335 -0.4055048 0.15286948 -0.12891763
000340 8e 35 aa be 26 9f 04 3e 6a 86 25 3f 9f a5 8a 3f
       -0.33243984 0.12951335 0.64658225 1.0831794
000350 dc 99 e8 3e 6d b3 f3 3e ac 93 b7 3c f8 8a 5c bf
       0.45429885 0.47597829 0.022409283 -0.8614955
000360 e9 75 ae bf 89 d2 a7 3f c5 ae 54 bf f4 73 5c bf
       -1.3629733 1.3111125 -0.8307918 -0.8611443
000370 79 01 0e bf 75 83 00 3e 74 82 26 3f 3d 7e a8 be
       -0.55471 0.12550147 0.65042806 -0.32908812
000380 50 30 db 3e 04 ab a4 3c ac 79 1e bf 9a 0e ef 3d
       0.42810297 0.020101078 -0.61904407 0.11672707
000390 7d 34 88 bf 51 43 6f bd f5 0d 1a bf 15 21 c4 bd
       -1.0641018 -0.058413807 -0.60177547 -0.095766224
0003a0 bb 40 a8 3f 2a 25 b5 be 4e fe 77 3f 86 10 02 3f
       1.3144754 -0.35379916 0.96872413 0.5080646
0003b0 96 eb 21 3f ba 11 76 3e 5f 55 ab be 04 a0 17 bf
       0.632501 0.240302 -0.3346357 -0.5922854
0003c0 c6 e0 10 3e 77 1d e1 bd 49 d2 a2 bf 00 30 82 bf
       0.14148244 -0.10991948 -1.2720424 -1.0170898
0003d0 9d db 21 3e 8a 76 80 bd 21 e0 b6 be 4d ca 9b 3f
       0.15806432 -0.062726095 -0.35717872 1.2171112
0003e0 ad 4c 22 3f 8f 61 dc bf 9a f6 80 3d e0 50 9b 3f
       0.6339825 -1.7217273 0.062970355 1.2134056
0003f0 17 b5 06 3f 8d 94 8f 3e 59 31 04 bf 69 b4 3a bd
       0.5262007 0.28043023 -0.516378 -0.04558221

net.bn2.weight f4 [16]
000000 7b 09 fd 3f 58 84 f1 3f 63 72 de 3f 5b 44 d6 3f
       1.9768518 1.8868513 1.7378658 1.673961
000010 a8 db d4 3f 9d 21 d1 3f fd dd e0 3f 12 13 d5 3f
       1.6629534 1.6338383 1.7567745 1.6646445
000020 87 51 0d 40 35 b2 0a 40 40 8e eb 3f 05 5b 04 40
       2.208101 2.167127 1.8402786 2.0680554
000030 41 39 01 40 45 2f 07 40 9a 64 e6 3f 3c 9a dc 3f
       2.0191195 2.11226 1.7999451 1.7234569

net.bn2.bias f4 [16]
000000 50 0a d6 be 69 07 8a be 5c cc 9c be 61 8c 7d be
       -0.41804743 -0.26958779 -0.30624664 -0.24760582
000010 27 7d dd be 5c 48 b9 be 2d b7 d1 be c1 d4 eb be
       -0.43259546 -0.36188018 -0.40960065 -0.46060756
000020 09 86 05 bf e0 bf c6 be fb b5 d7 be a9 c1 83 be
       -0.52157646 -0.38818264 -0.42131028 -0.25733688
000030 e5 3c b8 be 3f f5 ee be 2b 0c 88 be 7f 5c e4 be
       -0.3598396 -0.46671483 -0.26571783 -0.4460182

net.bn2.running_mean f4 [16]
000000 85 37 e9 bc e8 f7 07 be e5 53 b6 bc 39 f2 3e be
       -0.028468857 -0.13278162 -0.0222568 -0.18647088
000010 2d 9e 7d be 67 7a 33 3e aa f1 a6 3e 8a 54 a1 3d
       -0.2476737 0.17527162 0.3260625 0.07877453
000020 6a e4 9c bd 2c 4e 34 be 62 bc 0c be 5c fd a1 bc
       -0.07660754 -0.17607945 -0.13743737 -0.019774131
000030 df d2 bf 3d bd 15 3c 3d 18 73 d4 3e 4d 55 9a 3e
       0.09366392 0.04591917 0.4149406 0.30143204

net.bn2.running_var f4 [16]
000000 20 ce 2a 41 ff db 44 41 83 93 b2 41 94 a7 9d 41
       10.6753235 12.30371 22.322027 19.706825
000010 2b b8 35 42 6c 39 2f 42 19 4b ba 40 1a 39 fe 40
       45.42985 43.806076 5.821667 7.9444704
000020 8c 2f f1 40 06 94 0f 41 57 8d 19 41 4b 12 5b 41
       7.537054 8.973639 9.597007 13.691966
000030 63 9c 65 41 62 ab 2e 41 db 37 b7 41 ed d4 0c 42
       14.35068 10.9168415 22.902273 35.207935

net.point_conv.weight f4 [16, 16, 1, 16]
000000 79 26 71 bb bc 36 b5 3d 37 e2 9f 3e 7c 8e 21 3f
       -0.0036796613 0.088483304 0.31227276 0.6310804
000010 aa d3 7e 3f d3 31 9e 3f af cb 9b 3f 34 e1 81 3f
       0.99541724 1.2358955 1.2171534 1.0146852
000020 13 13 43 3f 68 09 c5 3e 42 bd 41 3e 5c 78 c0 3d
       0.7620098 0.3848374 0.18919852 0.09397957
000030 69 f3 be 3d cb 79 97 3e cc c6 0c 3f 79 cf 2f 3f
       0.093237706 0.29585108 0.5499084 0.68675953
000040 3b 34 0a 3f 27 4f 86 3e 4a 5a 0b bc 3f c9 77 be
       0.5398595 0.26232263 -0.008505413 -0.24197863
000050 ba 93 80 be 06 27 45 be ec a0 ad 3d 70 02 7c 3e
       -0.25112706 -0.19253168 0.08477959 0.24610305
000060 19 1d ed 3e e7 67 1b 3f d1 4c 25 3f f6 fa fe 3e
       0.46311262 0.6070542 0.6457034 0.49800843
000070 ec 7b e2 3e 26 c7 93 3e 6a d1 54 3e b4 5b 2d 3e
       0.4423517 0.28862876 0.2078301 0.16929513
000080 42 b5 fe be b1 00 c7 be f9 47 a7 be 41 b9 08 be
       -0.49747664 -0.38867715 -0.32672098 -0.13351919
000090 68 f3 a5 bd a1 72 dd bd 10 cf e8 bd 66 78 88 be
       -0.08103067 -0.10812879 -0.11367619 -0.26654357
0000a0 46 ad bd be 71 79 cb be 44 f6 08 bf 3c e0 dc be
       -0.3704626 -0.3974109 -0.5350077 -0.43139827
0000b0 86 97 ff be 79 c7 ee be 76 b1 c0 be 40 ca b6 be
       -0.4992029 -0.4663656 -0.37635392 -0.3570118
0000c0 e2 35 51 bf a5 95 17 bf 90 51 df be 96 99 eb bd
       -0.81722844 -0.59212714 -0.43616915 -0.115039036
0000d0 cf 9d 1c bd 6c 8c f5 bd 3c 4f 79 bd 9d c4 96 be
       -0.038236436 -0.11989674 -0.06086658 -0.2944688
0000e0 50 e7 dd be 37 6a 25 bf 3b a4 4d bf ae ed 3d bf
       -0.4334054 -0.64615196 -0.8032872 -0.74190795
0000f0 a7 ea 46 bf c0 36 2a bf dd 3e f5 be 42 5e f6 be
       -0.777018 -0.6648979 -0.47899523 -0.48118788
000100 1e 06 23 bf 72 76 de be 99 96 88 be bc 19 a0 be
       -0.6368121 -0.43449742 -0.26677397 -0.31269634
000110 b9 02 a9 bd 0b 7e a9 bd 4e f0 df bd a4 9d 8a bd
       -0.082524724 -0.08275994 -0.10934506 -0.06768349
000120 09 31 43 be f9 f0 70 be 33 51 92 be df 1e e2 be
       -0.19061674 -0.23529424 -0.28577575 -0.44164178
000130 0e 41 e7 be 45 96 27 bf 56 a8 36 bf fc 24 6a bf
       -0.4516682 -0.6546367 -0.7135061 -0.91462684
000140 88 33 15 bf b7 5e 16 bf 76 06 11 bf 2e 8e 13 bf
       -0.58281755 -0.58738273 -0.56650484 -0.57638824
000150 37 c6 2a bf 2a b0 1c bf 35 a0 3b bf 4c ce 2e bf
       -0.667087 -0.61206305 -0.7329133 -0.68283534
000160 1e 5a 2b bf ce bf 2b bf 78 8d 24 bf bc b9 1f bf
       -0.6693438 -0.67089546 -0.64278364 -0.62392783
000170 87 4a 17 bf 88 31 10 bf 35 cb 16 bf 23 8b 0e bf
       -0.59098095 -0.5632558 -0.5890382 -0.55681056
000180 31 f2 f2 be 1a ca 9d be d5 59 23 be f0 5a 4c be
       -0.47450402 -0.30818254 -0.15952237 -0.19956565
000190 8a c5 1f be 98 4a 2b be 0c a9 ce be ec ff 0a bf
       -0.15602699 -0.16727674 -0.40363348 -0.54296756
0001a0 a1 7d 2c bf 79 1f 3d bf fa ba 12 bf f0 a0 18 bf
       -0.67379194 -0.7387615 -0.57316554 -0.5962057
0001b0 37 5d be be 63 0f a3 be d8 da 62 be 0d 15 9f bb
       -0.37180492 -0.31847677 -0.22153795 -0.0048548044
0001c0 02 66 06 be 92 0d 84 be 08 1b 45 be 81 44 8e be
       -0.1312485 -0.25791603 -0.19248593 -0.2778664
0001d0 b5 25 b3 be c0 b6 e6 be 6c 83 1f bf 18 36 25 bf
       -0.34989706 -0.45061302 -0.6230991 -0.64535666
0001e0 3b 38 00 bf 60 ca c3 be 44 f2 90 be 6b 56 8e be
       -0.500858 -0.38240337 -0.28309834 -0.27800307
0001f0 fd 9c ba be 21 af d7 be c2 1b 06 bf c0 13 d4 be
       -0.36447898 -0.421258 -0.52386105 -0.41421318
000200 19 e1 13 3d d8 38 f3 bd 80 05 97 be ed 50 0d be
       0.03610334 -0.118760765 -0.29496384 -0.13800402
000210 cd 7d c3 3d 8d be de 3e a0 cf f5 3e 06 60 02 3f
       0.09545479 0.43504754 0.48009968 0.5092777
000220 5e 4f 08 3f 39 71 12 3f af 1a 00 3f 0b 39 da 3e
       0.53246105 0.57204014 0.50040716 0.42621645
000230 1d 32 53 3e d5 7e 9d 3d 86 43 d6 3d ec 54 68 3e
       0.20624585 0.07690207 0.10462098 0.22688645
000240 39 e1 9c bd f7 e3 d2 3d dc f1 e5 3e 43 67 38 3f
       -0.07660145 0.10297387 0.44911087 0.72032565
000250 e2 4f 83 3f 35 f5 85 3f 54 1f 58 3f 72 e9 d6 3e
       1.0258753 1.0465456 0.844228 0.4197498
000260 bd 53 b1 3c 98 59 8e be 26 52 fe be 00 0c b3 be
       0.021646375 -0.2780273 -0.4967205 -0.34970093
000270 c3 8d 34 be dc 00 cf 3d a8 74 f4 3e 99 80 30 3f
       -0.17632203 0.10107586 0.47745252 0.68946224
000280 bf c1 15 3f 4b 45 c8 3e 17 0e b1 3e 59 f4 2b 3e
       0.5849876 0.39115366 0.34581062 0.1679243
000290 a8 cd e7 3d ce 48 bb 3d 13 bf 1a 3c 95 40 19 3e
       0.11318523 0.09144746 0.00944497 0.14966042
0002a0 b4 3f 8c 3e dc 28 a6 3e 10 31 c3 3e 7c 47 a5 3e
       0.27392352 0.32453048 0.3812337 0.322811
0002b0 44 51 95 3e 33 35 5c 3e b5 f2 c9 3d 3c bd d9 3c
       0.29163563 0.21504669 0.09860746 0.026579492
0002c0 a1 48 1b bd af cc c8 bd cb 93 3c 3d 9f fc 98 3e
       -0.03791106 -0.09804665 0.046039384 0.29880235
0002d0 78 8c 30 3f d7 41 5d 3f b6 17 6d 3f d6 df 53 3f
       0.6896434 0.8642859 0.92614305 0.8276342
0002e0 63 58 38 3f 89 27 f9 3e b3 13 90 3e 8b c3 41 3e
       0.7200987 0.48662975 0.2814003 0.1892225
0002f0 9f fc 95 3d f6 d6 40 bd 72 ef 41 3b 8d d8 7d 3e
       0.07323574 -0.047080003 0.0029592183 0.24789639
000300 62 4b 47 3f d9 67 3e 3f 64 54 32 3f 88 8f b7 3e
       0.778494 0.7437721 0.6966002 0.35851693
000310 2c 00 dc bc 25 28 a1 be 4c 42 ed be 7e b4 fb be
       -0.02685555 -0.3147594 -0.46339643 -0.49161142
000320 4c b1 c2 be 08 a1 16 be 11 ae 17 3e 1d 9b df 3e
       -0.38025892 -0.14709866 0.14812495 0.4367303
000330 74 44 03 3f f4 8b 2c 3f de 95 14 3f ad 32 d1 3e
       0.51276326 0.6740105 0.5804118 0.40858975
000340 77 83 c2 3e dd aa f1 3e 45 1a 0b 3f a7 c7 06 3f
       0.37990925 0.4720067 0.5433696 0.52648395
000350 22 c6 ec 3e 93 09 9d 3e ce 5b 74 3e d2 73 a3 3d
       0.46244913 0.30671367 0.23863146 0.07981075
000360 50 73 10 bd de 4f 5b 3d 9d a0 e0 3d 9e 04 b5 3e
       -0.03526622 0.053542964 0.109681346 0.35355085
000370 21 e9 02 3f d7 a7 2e 3f c4 be 21 3f 7d 31 08 3f
       0.51136976 0.68224853 0.6318171 0.53200513
000380 17 e1 0d be bb b4 5b bd 34 c0 d0 3d b6 86 2b 3d
       -0.13855396 -0.053639155 0.1019291 0.041876517
000390 5b e0 47 3c 83 0f ee 39 53 95 0a be aa c8 09 bd
       0.012199487 0.00045406455 -0.13533525 -0.033638634
0003a0 80 d7 ec bd 80 c1 1b be b3 14 2d be 6a 43 41 be
       -0.11564541 -0.15210533 -0.16902427 -0.18873373
0003b0 f0 df 26 be d6 49 2f be 57 c1 79 be 29 63 46 be
       -0.16296363 -0.1711801 -0.2439016 -0.19373764
0003c0 e7 2b ff be 71 07 fa be c6 73 ae be e8 a6 b8 be
       -0.49838182 -0.48833802 -0.34072703 -0.3606484
0003d0 be 05 9e be 99 ce 9d be 66 95 aa be 1c fc 8d be
       -0.30863756 -0.30821684 -0.33317107 -0.27731407
0003e0 db d8 a2 be 61 82 b0 be 8b 69 ef be 72 67 05 bf
       -0.31806073 -0.3447447 -0.4676021 -0.5211097
0003f0 74 e4 01 bf e0 80 1d bf 08 50 29 bf 0b 16 2c bf
       -0.50739217 -0.6152477 -0.66137743 -0.67221135

net.bn3.weight f4 [16]
000000 8b 74 97 3f 9d ef b4 3f 90 fe fc 3f bc 8b b3 3f
       1.1832441 1.4135624 1.9765186 1.4027019
000010 b4 b1 4d 3f f3 dd bc 3f ff 8e 5e 3f c9 cc c7 3f
       0.8034928 1.4755234 0.86936945 1.560937
000020 4c 7b 9a 3f ee f8 c5 3f ff 04 ef 3f 00 bd b2 3f
       1.2068877 1.5466592 1.86734 1.3963928
000030 84 19 a2 3f 9d df 9f 3f b8 b5 f4 3f bd 48 8f 3f
       1.2664037 1.2490116 1.9117956 1.1194073

net.bn3.bias f4 [16]
000000 1d 19 ff bd 60 16 c8 bd 6b 3d 12 bf 64 20 de be
       -0.12455962 -0.09769893 -0.57124966 -0.43384087
000010 48 d8 ce bd 05 b1 d8 be d9 b7 1b 3e 1c 42 cd be
       -0.10099846 -0.42322555 0.15206851 -0.400895
000020 ef dc 57 be 61 22 8c be 37 cb f2 be db ed c3 be
       -0.21080373 -0.2736998 -0.47420666 -0.38267407
000030 e4 f4 d8 bc 42 bc 88 3d f5 82 13 bf e8 a8 0a be
       -0.02648396 0.06676532 -0.576217 -0.13540995

net.bn3.running_mean f4 [16]
000000 5f a9 1e 40 e4 67 48 40 3e d0 00 c1 44 b6 b6 c0
       2.4790876 3.131341 -8.05084 -5.709749
000010 e6 08 b0 40 45 a7 0c c1 cf a3 cf 40 46 aa b8 c0
       5.501086 -8.790837 6.488746 -5.7707853
000020 e4 00 bc c0 1a ea 8b 3f ca f7 05 c1 39 f3 cf bd
       -5.8751087 1.0930817 -8.372995 -0.10153813
000030 e6 b7 1a 41 dd fc 04 41 55 2a 07 c1 ad 3a 0a 40
       9.669897 8.311734 -8.447835 2.1598313

net.bn3.running_var f4 [16]
000000 73 77 ff 43 c5 65 05 44 fc ba 5c 44 df 16 43 44
       510.9332 533.59015 882.92163 780.35736
000010 53 74 ec 43 9d 4f 9c 44 80 55 a8 43 4a 40 4c 44
       472.90878 1250.4879 336.66797 817.0045
000020 76 b4 50 44 44 28 eb 43 b4 d3 65 44 47 1f f1 43
       834.8197 470.31458 919.30786 482.24435
000030 5f a2 33 44 9d 23 2a 44 1f c5 82 44 92 a7 e6 43
       718.53705 680.55646 1046.16 461.30914

net.fc.weight f4 [32, 256]
000000 a7 7e c9 be 7e 2a cc be 57 22 ee be 82 9e 39 bf
       -0.3935444 -0.3987617 -0.46510574 -0.7250749
000010 a2 f7 8e be 3e f9 9f be 92 6e 6e bd 36 d3 56 be
       -0.27923304 -0.31244844 -0.058210917 -0.20979008
000020 6b 4a 41 be ba e9 5f be 68 d7 86 be 60 8c 16 be
       -0.18876044 -0.21866503 -0.26336217 -0.14701986
000030 6e e2 c0 bd fd 67 a8 3e 30 b6 0c 3f 25 4c a7 3e
       -0.09418188 0.32891837 0.54965496 0.3267528
000040 26 11 4c be 7b 53 4a be 1e f6 ef be fa af 0e bf
       -0.19928417 -0.19758408 -0.4686746 -0.5573727
000050 78 01 da be fe d9 2d bf 9d b3 0e 3d 54 a6 0b 3f
       -0.42579246 -0.67910755 0.03483926 0.5455067
000060 f7 03 55 3e ce 03 e9 3d 4b 3c b4 3e 48 06 e1 3e
       0.20802294 0.11377679 0.3520225 0.43950105
000070 26 03 88 3e 5f a8 f0 3e b5 4e a1 3e 3d 55 07 bf
       0.26564902 0.47003457 0.3150536 -0.5286444
000080 dd a4 44 3d 45 a3 12 3e 7b b5 96 3e 5d 8b fd 3e
       0.04800879 0.14320095 0.29435334 0.49520388
000090 ff be ad 3e ed f2 59 3f be e4 c3 3e e0 07 97 3e
       0.3393478 0.851363 0.38260454 0.29498196
0000a0 f2 90 a2 3e 67 04 1c be d3 ea a1 be 5b ae 9e be
       0.3175121 -0.15236054 -0.3162447 -0.30992398
0000b0 14 92 4b be 4c ea f4 be b0 3e 3d bf 7a de 71 bf
       -0.19879943 -0.47835004 -0.7392378 -0.944801
0000c0 b4 5c f6 bd 97 b4 8a 3e 88 67 2d 3e 36 27 49 bb
       -0.120294005 0.27090904 0.16934025 -0.0030693538
0000d0 a7 20 e0 3e 7e e2 2d 3f 99 89 75 3e df 8e b7 3e
       0.43774912 0.67923725 0.2397827 0.3585119
0000e0 9f 73 e6 3e 93 1c ed 3e 05 44 4a 3e f7 b1 ae be
       0.45010087 0.46310863 0.1975251 -0.3412015
0000f0 6c e7 3c 3d 96 5d d7 3d b7 8f 19 3e 80 97 cd bd
       0.04611914 0.10515897 0.14996229 -0.10038662
000100 cb fc 6c bf f3 c1 3d bf e1 b0 22 bf fe d1 41 bf
       -0.9257323 -0.7412407 -0.63551146 -0.7571105
000110 bb 7a 0c bf ad 8c 45 bf 8f fd 30 bf e0 e4 19 bf
       -0.5487477 -0.7716778 -0.691369 -0.6011486
000120 30 99 05 bf 4e 2a 99 be 07 03 08 bf cd d8 48 bf
       -0.5218687 -0.29915088 -0.5312962 -0.7845581
000130 27 3a 4f bf d2 57 33 bf e2 af 31 bf bc ab 3c be
       -0.8094811 -0.7005588 -0.69409 -0.18424886
000140 c4 2a 23 be db c0 9d bd ff 6d 0c bd 65 23 b3 3e
       -0.15934283 -0.077028 -0.034284588 0.3498794
000150 85 7d 28 bc f6 86 a8 3e 35 cb 8a 3e 71 b4 d0 bd
       -0.010283832 0.32915467 0.2710816 -0.101906665
000160 dd e2 2c be 75 7d bb 3e 79 b3 8a be 92 0d a9 bd
       -0.16883416 0.36619154 -0.27090052 -0.082545415
000170 f6 60 91 3e fc d5 09 bf 01 eb 5c bb 85 fe 9c be
       0.28394288 -0.5384214 -0.003370941 -0.30662933
000180 76 10 71 3e 06 6f 6a be 10 0f c9 3a f6 07 a1 be
       0.23541436 -0.22893915 0.0015339572 -0.31451386
000190 cc d2 16 be 9a 33 e7 3d f7 f6 2c 3d 2c 93 be 3d
       -0.1472885 0.11289139 0.04222771 0.093054146
0001a0 c6 f2 d7 3d 53 ba 1f 3d 0b 93 56 be 98 2e bc 3b
       0.10544352 0.038996052 -0.2095453 0.005742859
0001b0 7c 28 7a 3e 7a 0e 17 3e 44 43 a2 3c bb 8c 34 3e
       0.24429506 0.14751616 0.019807465 0.1763181
0001c0 37 c8 2f 3e 9e 60 ff 3d 2b f3 37 3f 49 9a 38 3e
       0.1716622 0.124696 0.7185542 0.18027605
0001d0 b0 ae 09 3f c9 98 0a 3e c5 29 43 3e 0b 11 9a be
       0.53782177 0.13534845 0.19058903 -0.30091128
0001e0 b3 d9 fe be af d6 8a be 6e 8d 60 be fa ea a5 be
       -0.49775466 -0.27116916 -0.21928951 -0.32405835
0001f0 c2 df f2 3d 73 73 9a 3d d6 3c ef bd 66 e4 57 be
       0.11859085 0.075415514 -0.116815254 -0.21083221
000200 d3 0e 57 bd b0 a7 2e be 3a 00 3a 3e be bb 92 3e
       -0.05250437 -0.17056155 0.18164149 0.2865886
000210 63 c6 a2 3e 8e 47 5c 3f f1 46 16 3f 02 a1 29 be
       0.31791982 0.86046684 0.58702 -0.16565326
000220 60 ea 12 3f 46 da 8f 3d 4f 14 78 3d 49 23 9a 3e
       0.5738888 0.07024054 0.060566243 0.30105045
000230 d0 1a 71 3e dc 6f c9 3e c5 a8 56 3e 5d 44 44 be
       0.23545384 0.39343154 0.20962818 -0.19166704
000240 21 88 1b bf 76 85 d4 be ba ab a6 be 76 8f 8f be
       -0.6075459 -0.41508073 -0.32552892 -0.2803914
000250 3f 21 cf be 7b 03 88 be c5 39 8e be 23 df c8 bd
       -0.40455052 -0.26565155 -0.2777845 -0.09808185
000260 e0 5f f3 bd 5f 47 92 bd 5c 6f 08 3e 1b 92 36 be
       -0.11883521 -0.07142519 0.1332373 -0.17829172
000270 e3 af 4a be bb 3f a5 bd de c4 4d be f1 c5 a4 bd
       -0.19793658 -0.08068796 -0.2009463 -0.08045567
000280 59 b8 d4 3e 9d e1 32 3f 63 80 19 3f c2 bc 23 3f
       0.41546896 0.6987551 0.5996153 0.63959897
000290 69 c8 17 3f be 56 21 3f f3 82 aa 3e 50 d9 4c be
       0.59290177 0.63022983 0.3330303 -0.20004773
0002a0 89 ef af be 53 9d c7 be 30 d8 db be d1 cd c5 be
       -0.34362438 -0.38987216 -0.42938375 -0.38633588
0002b0 35 fa ce be a9 99 06 be 24 7f 3b be c9 9e f1 3d
       -0.40425268 -0.13144554 -0.18310219 0.11797864
0002c0 7b ed 92 be 9e 17 11 bf cd a6 b9 bd 91 8a 33 be
       -0.28696808 -0.5667666 -0.09065018 -0.17533328
0002d0 e3 c2 7d be a9 f8 40 bf b6 0c 2e be 89 a5 fa 3e
       -0.24781375 -0.75379425 -0.16997036 0.48954418
0002e0 e1 2e 56 be e3 f2 1d bf ac 3e 1d be d5 13 1c bc
       -0.2091632 -0.6169874 -0.15355939 -0.009526213
0002f0 9a 80 d1 3e 01 cc 4b be 76 9e bf be 24 4e 96 3e
       0.40918428 -0.1990204 -0.37425584 0.29356492
000300 32 93 c4 3e 20 e3 31 3f 1a e8 43 3f ef d6 64 3f
       0.3839355 0.6948719 0.76526034 0.8939046
000310 8d e6 77 3f b2 95 66 3f d3 6b 52 3f ef 8c 8e 3f
       0.9683617 0.90072167 0.82195777 1.113676
000320 56 9f 7d 3f 9a da 50 3f 07 90 75 3f 91 06 9f 3f
       0.9907125 0.8158356 0.95922893 1.2423879
000330 30 ef 3b 3f ba bd 3a 3f 5b 06 a4 3f 14 c5 92 3e
       0.73411846 0.7294575 1.281444 0.28665984
000340 a0 1d a8 be bb d9 ee be 18 52 95 bf 88 8a 10 bf
       -0.32835102 -0.4665049 -1.1665678 -0.5646138
000350 33 22 89 be dd 6e d4 be 0b 39 16 3e 06 38 ac 3e
       -0.26783904 -0.41490832 0.14670198 0.33636492
000360 c9 6e d2 be 4c ac 6f 3e 24 f5 41 3e 40 9b c2 be
       -0.41100147 0.2340557 0.1894117 -0.3800907
000370 a2 7a b7 bd 7f 50 6a be 64 77 c5 bd 3c a2 82 3d
       -0.08958937 -0.2288227 -0.096419126 0.063786
000380 bb bc f7 bd 1c 6f 78 bd 53 59 b8 3d 5f c9 5a 3e
       -0.12096544 -0.060652837 0.09001412 0.2136588
000390 c8 2f 28 3e f7 b6 41 3f ea 70 9c 3e ff f3 09 bf
       0.16424477 0.7566981 0.30554897 -0.53887933
0003a0 2d 45 59 3d e1 e1 b1 be 70 8b 4a be 10 9f c3 be
       0.053044487 -0.34742644 -0.19779754 -0.38207293
0003b0 49 72 57 be 5c 22 11 3e 4b 35 01 bc ed f3 c2 bd
       -0.2103969 0.14173263 -0.007886241 -0.095191814
0003c0 ca d8 8b 3b a7 7d ae be 70 01 5c 3d 83 47 d6 bd
       0.0042677866 -0.3408024 0.05371231 -0.104628585
0003d0 89 b1 b9 bd ac 32 9b be 07 9e 86 bd 8a 7c 34 3e
       -0.09067065 -0.30312097 -0.0657311 0.17625633
0003e0 3f 27 3f 3e 17 a7 3d 3e 77 84 41 3d 84 5f dc 3b
       0.18667315 0.18520771 0.04724547 0.0067252535
0003f0 3e 1f 16 3e 54 4e 88 3e 9c 0b ae bd 86 43 20 3e
       0.14660355 0.2662226 -0.08498308 0.15650758

net.fc.bias f4 [32]
000000 59 43 42 3f 5e 39 dd 3f d9 cd d5 3f 9c 8c 9f bf
       0.75884014 1.7283132 1.6703445 -1.2464786
000010 40 33 25 3f bc ab a3 3f 14 97 89 bf 15 5e 98 be
       0.64531326 1.2786784 -1.074923 -0.2975928
000020 1c 1c 6a 3e 77 27 06 bf f8 3c c9 bf de ec 7b bf
       0.22862285 -0.5240397 -1.5721731 -0.98408306
000030 9a e8 a2 3f e7 46 28 3f 1e 31 19 bf 5b bf 66 bf
       1.2727234 0.6573319 -0.5984057 -0.90135735
000040 77 13 80 bf b3 77 6f bf ce e8 93 3f c0 c7 a6 3e
       -1.000594 -0.9354202 1.1555421 0.32574272
000050 b0 d4 9d bf 01 e9 3d bf e3 37 a2 3f 7a 46 53 bf
       -1.2330532 -0.7418366 1.2673305 -0.82529414
000060 71 77 12 3d 5f f7 20 bf aa dc 8d bf 8f ae dd bf
       0.03575844 -0.6287746 -1.1082966 -1.7318896
000070 ec 0a 96 3e 90 f0 66 bf e7 71 ea 3b a0 d7 23 3f
       0.29305208 -0.9021082 0.0071546915 0.6400089
