model/all_subjects_20240205_181004/checkpoints/epoch8_0.7031.pt (torch, 195725 bytes, 39 tensors)

net.conv.weight f4 [8, 1, 1, 256]
000000 42 4e 4b be 73 ef 8c be 57 9f d8 be 88 e6 01 bf
       -0.19854072 -0.27526435 -0.42309067 -0.5074239
000010 55 b6 d3 be c6 cc ed be d6 c5 18 bf c9 cf 2d bf
       -0.41350046 -0.46445292 -0.59676874 -0.6789518
000020 14 52 75 bf f2 b4 6f bf 2a f0 5c bf 31 79 39 bf
       -0.95828366 -0.93635476 -0.8630396 -0.7245055
000030 8e 8d ee be 57 45 02 be f8 54 23 3e 04 fc c8 3e
       -0.46592373 -0.12721764 0.15950382 0.39254773
000040 37 7c a1 3e 39 97 a7 3d d8 f3 26 be 6b cf fe be
       0.3154008 0.0818314 -0.16303957 -0.49767622
000050 3f 14 1a bf a6 de 25 bf 3d 3e 05 bf bb 8c 80 be
       -0.60187143 -0.6479286 -0.52048093 -0.2510737
000060 26 90 16 3e 2f 37 b7 3e 25 26 b6 3e 0d fc 9c 3e
       0.14703426 0.3578429 0.35575977 0.3066105
000070 90 85 58 3e 62 e9 ac bd 50 d5 bf bd b5 14 bb bd
       0.211447 -0.08442952 -0.09366858 -0.09134809
000080 cb a6 a9 3d e2 a5 f4 3e fd 2e 73 3f cb 8e 8e 3f
       0.08283766 0.4778281 0.94993573 1.1137327
000090 7d 00 a0 3f 67 07 94 3f e7 0f 7e 3f 4d e2 12 3f
       1.2500149 1.1564759 0.99243015 0.5737656
0000a0 f2 4b 4e 3e 74 48 d5 bd f0 94 85 be 83 7b 7d be
       0.20146158 -0.1041421 -0.26090193 -0.24754147
0000b0 ca 27 2e be b6 6a 00 3c fc 83 cd bd 0f fa f4 bd
       -0.17007366 0.007837942 -0.1003494 -0.119617574
0000c0 0e a6 a2 be 99 71 14 bf a2 19 30 bf de 9c 3f bf
       -0.31767315 -0.57985836 -0.6878911 -0.74848735
0000d0 93 14 4f bf 0e d7 0f bf e8 4e bc be 6d 9d ed bd
       -0.8089077 -0.5618752 -0.3677895 -0.11602292
0000e0 06 a8 91 bd f4 2a 12 be bd 9f 8e be 99 d3 e0 be
       -0.07112126 -0.14274198 -0.27856246 -0.43911436
0000f0 ad 65 3b bf 1b 50 7b bf 8b 8e 87 bf 77 93 73 bf
       -0.7320202 -0.98169106 -1.0590376 -0.9514689
000100 63 ea 43 bf 44 8a 05 bf a6 df d9 be 4f 0f 9d be
       -0.7652952 -0.521641 -0.42553443 -0.30675742
000110 2a 21 90 be aa 1f 84 be cd 5a ef bd 54 44 80 bd
       -0.28150302 -0.25805408 -0.11687241 -0.062630326
000120 53 64 81 3d 98 01 1e 3e 25 5e b6 3e 59 f7 12 3f
       0.063179635 0.15430295 0.35618702 0.5740867
000130 8e 6a 1e 3f 41 44 0e 3f e7 9a de 3e ae ee c9 3e
       0.6188134 0.555729 0.43477556 0.3943991
000140 67 1d 7d 3e 75 7e 48 3e 00 03 ec 3d 2b a1 a7 3e
       0.24718247 0.1957949 0.1152401 0.3274015
000150 ad 6d ea 3e 8e 6c 17 3f 63 aa 31 3f 99 aa 32 3f
       0.457868 0.59150016 0.69400615 0.6979156
000160 96 58 0e 3f 3e 54 99 3e 8b af bb 3d f3 91 1d be
       0.5560392 0.29947084 0.091643415 -0.15387706
000170 62 cb 7c be d9 8e c0 bd 50 55 21 3e 69 e2 09 3f
       -0.2468696 -0.09402246 0.157552 0.538611
000180 37 66 3a 3f 12 10 55 3f ec 96 27 3f e3 bc c2 3e
       0.7281222 0.83227646 0.65464664 0.38034734
000190 93 5d 21 bc 1e 31 b2 be 30 2b 17 bf 71 b5 1c bf
       -0.00984897 -0.34803098 -0.59050274 -0.6121436
0001a0 e7 24 0f bf 21 0c ce be f1 b6 40 be ec a9 57 be
       -0.55915684 -0.4024363 -0.18819787 -0.21060914
0001b0 1e 1d a1 be 32 41 28 bf 3e c9 82 bf 22 c0 c5 bf
       -0.31467527 -0.6572448 -1.0217664 -1.5449259
0001c0 e7 93 e3 bf e7 75 f0 bf ad aa cd bf df 94 86 bf
       -1.7779511 -1.8785981 -1.6067711 -1.0514182
0001d0 a9 a0 ea be f7 31 9e 3d 15 b8 a7 3e 50 5a f9 3e
       -0.458257 0.07724374 0.3275763 0.48701715
0001e0 fb ff d4 3e 49 b2 c4 3e 38 c2 36 3e c8 38 5f 3e
       0.41601548 0.3841727 0.17847526 0.21799004
0001f0 f9 c3 92 3e d1 7c 08 3f c4 6e 33 3f 5b ac 3d 3f
       0.2866514 0.53315455 0.7009089 0.7409112
000200 f1 25 39 3f a5 10 fc 3e 84 cb 90 3e 9d 62 5d 3d
       0.7232352 0.4923145 0.2828027 0.054049123
000210 1f dd 27 be a9 35 f9 bd 15 96 06 be af 21 a7 3d
       -0.16392945 -0.12168438 -0.13143189 0.081607215
000220 7f 58 b8 3e 86 71 1d 3f 9b 38 46 3f 8a e3 5d 3f
       0.36005017 0.6150135 0.77430123 0.8667532
000230 c7 d9 32 3f 2c 8c 0a 3f cc 20 89 3e 7a 41 fa 3d
       0.6986355 0.54120135 0.26782835 0.1221952
000240 23 21 32 3e 3d 42 c2 3e bd f0 00 3f 26 7b 14 3f
       0.17395453 0.3794116 0.5036734 0.5800041
000250 c3 fc 0a 3f 76 cf f4 3e 42 6d 1d 3e 15 49 c4 be
       0.54291934 0.4781453 0.1537371 -0.38337007
000260 09 98 42 bf ec 3d 7a bf 39 f5 7a bf f1 35 5c bf
       -0.7601324 -0.97750735 -0.9803043 -0.8601981
000270 e3 25 1b bf c5 e4 9f be 05 4e 48 be 27 e1 3a be
       -0.60604686 -0.31229225 -0.19561012 -0.18249951
000280 32 3d d5 be 98 a2 16 bf 3c 4a 70 bf 27 51 88 bf
       -0.4164825 -0.5884185 -0.9386327 -1.0649766
000290 b8 db 72 bf e6 5a 30 bf e4 b5 c5 be 04 8a 06 be
       -0.94866514 -0.688887 -0.38615334 -0.13138586
0002a0 c7 d0 60 3d ae ad 69 3e 30 23 a6 3d a5 6a 13 3d
       0.054886606 0.2282016 0.0811218 0.035990376
0002b0 72 26 2f be d6 1c a8 be 88 9e 95 be d5 d9 69 be
       -0.1710451 -0.328345 -0.29222512 -0.22837003
0002c0 45 93 62 3d f1 34 c3 3e 0b 2e 11 3f 93 44 2f 3f
       0.05531623 0.3812633 0.5671088 0.6846401
0002d0 5e ef 1a 3f 56 8d 04 3f db 67 c8 3e 58 10 86 3e
       0.60521495 0.5177816 0.39141735 0.26184344
0002e0 98 31 33 3e f9 d0 9d 3e 8e e3 0f 3f 72 80 7c 3f
       0.17499387 0.30823496 0.56206596 0.9863349
0002f0 27 de 99 3f 9b db 9c 3f 59 8d 9d 3f bd b8 80 3f
       1.202092 1.2254518 1.2308761 1.0056378
000300 5a 4f 1a 3f 7e 7a 97 3e ea c4 ec bc 81 bd 26 bd
       0.6027733 0.29585642 -0.02890249 -0.04070807
000310 08 80 8e bd 04 fa cc 3d 98 72 9e 3d cb a2 1c 3e
       -0.06958014 0.10008624 0.07736701 0.15296476
000320 66 f6 47 bc 5a 49 89 be 04 97 26 bf 00 61 59 bf
       -0.012204742 -0.26813775 -0.6507418 -0.84913635
000330 39 96 74 bf ad 63 56 bf 86 2f 02 bf 82 2d 2d be
       -0.9554172 -0.83745843 -0.50853765 -0.16911891
000340 14 62 83 3e c0 3f 12 3f 49 17 13 3f 17 9a c2 3e
       0.25660765 0.57128525 0.57457405 0.38008186
000350 38 76 08 3d 68 3f c7 be 9c 6b 3f bf 52 0e 83 bf
       0.033315867 -0.38915563 -0.74773574 -1.0238745
000360 64 63 88 bf d4 d7 6b bf 5c 38 12 bf e4 85 45 be
       -1.0655332 -0.921262 -0.5711725 -0.19289356
000370 bd 87 14 be 3c 51 ad bd ad e8 c3 be 5c e0 3e bf
       -0.14504905 -0.0846276 -0.38263455 -0.74561095
000380 42 31 62 bf a1 9a 36 bf 3b 4f f5 be d9 84 fc bd
       -0.8835641 -0.71329695 -0.4791201 -0.12330026
000390 99 19 ce 3e c6 9a 69 3f 3d 0d 96 3f af 6d 8f 3f
       0.40253904 0.9125179 1.172279 1.1205348
0003a0 49 75 7e 3f 68 84 1b 3f bd fd be 3d 1d ab 02 be
       0.9939771 0.6074891 0.093257405 -0.12760587
0003b0 d1 22 0b be 27 00 f9 3d 88 cf 16 3f bb cc 67 3f
       -0.135875 0.12158232 0.5891042 0.9054677
0003c0 0f b3 8f 3f b1 60 86 3f 40 79 47 3f 30 4e e1 3e
       1.1226519 1.0498258 0.7791939 0.44004965
0003d0 6b b9 44 3b b7 37 2a be 17 ae a4 be f5 e6 8a be
       0.0030017744 -0.16622816 -0.3216407 -0.2712933
0003e0 c5 92 88 be 64 df db bd 1e 97 aa bd 38 a7 25 be
       -0.26674476 -0.10735968 -0.083296046 -0.1617707
0003f0 e3 4d f8 be 7c 19 7c bf d6 58 bb bf 49 8b e0 bf
       -0.48496923 -0.98476386 -1.4636486 -1.7542506

net.bn1.weight f4 [8]
000000 6f 37 c5 3f ed c5 ef 3f e2 3d 04 40 7c b0 b5 3f
       1.5407542 1.8732277 2.066277 1.4194484
000010 60 91 90 3f aa 54 fc 3f 98 d7 92 3f c3 53 77 3f
       1.1294365 1.9713337 1.1472044 0.96612185

net.bn1.bias f4 [8]
000000 29 19 8d bd ed ea 2f bb fc e4 67 be 25 26 7d bd
       -0.068895645 -0.0026842908 -0.22645944 -0.061803956
000010 1c 65 ea bd d3 2a 7b 3e f4 83 79 bd ef 8d c3 3d
       -0.11445066 0.24528055 -0.060916856 0.09548556

net.bn1.running_mean f4 [8]
000000 43 41 38 3c c0 b9 09 3d 8d 87 15 3d 0a ac 39 3c
       0.011246028 0.03362441 0.036506224 0.011332521
000010 06 e3 c3 bb 08 24 d7 3c ba fe 05 bc de 5b 8c ba
       -0.005977991 0.026262298 -0.008178407 -0.0010708531

net.bn1.running_var f4 [8]
000000 be fc 51 44 c3 c3 71 44 60 7a 7f 44 cf 34 02 44
       839.9491 967.0588 1021.9121 520.82513
000010 c4 5b b2 43 db b9 78 44 09 e4 e6 43 bd 22 b9 43
       356.71692 994.904 461.78152 370.2714

net.depth_conv.weight f4 [16, 1, 32, 1]
000000 09 18 81 be c4 69 2c 3e 88 61 23 3f c4 38 95 b9
       -0.2521365 0.16837221 0.63820696 -0.00028461788
000010 d1 3a 18 3f 29 ed 2f bf a8 6f 52 3f 07 53 56 3f
       0.59464747 -0.6872125 0.82201624 0.8372044
000020 fd 97 50 bf 4d 44 13 3f 89 64 a0 bf 97 23 e2 be
       -0.81481916 0.57526094 -1.2530681 -0.44167778
000030 3d f3 02 bf 3d 53 e9 bb 88 3a b2 3e d4 ad 43 3f
       -0.511524 -0.0071205185 0.3481028 0.76437116
000040 a2 a4 66 3e f2 06 bd 3e 3a fd bf 3f 88 82 4c 3f
       0.2252374 0.3691936 1.4999154 0.79886675
000050 43 7f c0 be de dc c9 3d e9 1b 37 3e 9f 5d b5 bf
       -0.37597093 0.0985658 0.1788174 -1.4169196
000060 f2 1c ae bf 2a c6 9a 3f e0 4d 8f be de 63 b2 bf
       -1.3602583 1.2091725 -0.279891 -1.3936727
000070 68 d0 91 be 7e 18 1d bf 33 49 38 3f a1 fc 8b 3d
       -0.28479314 -0.613655 0.71986693 0.068352945
000080 d9 b1 84 be 5c 79 34 3f 81 76 3a 3f 19 c9 85 3e
       -0.25916937 0.7049768 0.7283707 0.26129988
000090 cd 27 a8 3f 40 dd 8a 3d 27 dc 11 bf 59 07 06 3e
       1.3137146 0.06780481 -0.5697655 0.1308874
0000a0 45 89 e7 bf 65 8f 73 3f bd 6d fc be 4e be 88 be
       -1.8088766 0.9514068 -0.49302474 -0.2670769
0000b0 24 e4 ac bf c4 44 38 bf 7c b6 c8 3d 0f 6a 08 3f
       -1.3507123 -0.7197993 0.09800431 0.5328683
0000c0 ae f4 b7 3d df 7c 04 3f 9f d5 55 3f 9a 1c 6d 3f
       0.08982216 0.5175304 0.83529085 0.9262177
0000d0 56 4b df 3e fc 45 ab 3f 21 85 2a 3f 11 0b 99 bf
       0.43612164 1.3380733 0.6660939 -1.1956502
0000e0 b7 e8 c3 bf 27 82 f3 3e 5f 3d 65 3d c0 3a 19 bf
       -1.5305394 0.47560236 0.05596673 -0.5985527
0000f0 eb 3a 6e bf d3 22 30 bf 33 e7 7d 3f 8f c6 6f 3e
       -0.9305865 -0.6880314 0.99180907 0.23415588
000100 ff 80 e1 3e 10 2e 90 3f 29 b2 0b 3f d0 31 eb be
       0.4404373 1.1264057 0.54568726 -0.4593644
000110 da 32 1a 3f 35 2d 97 be 2b dd 9a 3e e5 c7 87 be
       0.60233843 -0.29526678 0.30246863 -0.26519695
000120 a1 6c 95 be 6d 0a 1e c0 fc d0 8e 3d c1 f8 ea 3e
       -0.2918444 -2.4693863 0.06973454 0.4589291
000130 9a ad e5 3e d7 a1 a2 3f 2f 12 bf be ce 2f 89 3d
       0.4485901 1.270564 -0.3731856 0.06698571
000140 50 48 08 bc 7f c8 35 3d c6 4c b2 3e f0 d6 1b 3f
       -0.008318022 0.04438066 0.34824198 0.60874844
000150 dd b0 26 3f 03 51 8b be 07 e9 96 3c e0 f3 68 3d
       0.6511362 -0.27210245 0.018421663 0.056873202
000160 75 f4 8f bf 19 67 d3 be a5 db 7c bf 7e f2 49 be
       -1.1246477 -0.41289595 -0.9877265 -0.1972141
000170 1f 32 26 be b3 35 65 be 73 b3 ab 3e e8 2d 8c 3e
       -0.16230057 -0.22383766 0.33535346 0.27378774
000180 f0 e6 a6 be 21 92 2c bf ac 08 80 bf da ed 42 bf
       -0.32598066 -0.67410475 -1.0002646 -0.7614418
000190 d3 b7 79 bf 51 c0 db 3e 94 bd af 3e 33 3a c8 3f
       -0.9754612 0.42920163 0.34324324 1.5642761
0001a0 22 a8 16 bf 21 1f fb 3f c2 fd 0e bf 6e 5d 87 3e
       -0.588503 1.9618875 -0.55855954 0.2643847
0001b0 4f 3b c6 bd 11 93 90 be c0 32 9a bd 58 4a 9c be
       -0.09679281 -0.28237203 -0.07529211 -0.3052547
0001c0 e2 fd f7 3d f0 5a 21 bf f1 24 ab bd 01 99 8c be
       0.12108971 -0.63029385 -0.083566554 -0.27460483
0001d0 99 0d 19 bf f6 0e ab be b3 99 e1 be b0 69 51 3f
       -0.59786373 -0.33409852 -0.44062576 0.8180189
0001e0 58 91 86 3e 6b d5 09 bf 88 ce e0 3f ff 3e e3 3e
       0.26282763 -0.53841275 1.7563028 0.44384
0001f0 a6 94 1f bf 71 a3 31 3f 51 ac 02 bf 34 fe 62 3e
       -0.62336195 0.69390017 -0.51044184 0.22167283
000200 da 55 83 bc 27 ae 98 bf ee 92 17 bf 39 dd e1 be
       -0.016032148 -1.1928147 -0.5920857 -0.44114092
000210 dd 09 c3 be 70 96 5a 3e 26 1e 30 be 21 33 a6 3f
       -0.38093463 0.2134645 -0.17199 1.2984353
000220 a4 ea e1 3d 2a 0c 33 40 7d 62 9e bd 4c 34 a6 bd
       0.11031082 2.7976174 -0.07733629 -0.081154436
000230 22 09 35 bf dc 49 a3 bf 95 b3 85 3e 60 92 ac bc
       -0.7071706 -1.2756915 0.26113573 -0.02106589
000240 49 7d b1 be ee 08 9c be 5d b6 55 bf 26 9f b4 bd
       -0.34665897 -0.30475563 -0.8348139 -0.08819418
000250 80 c0 59 bf 67 c0 04 3f 04 c8 6e 3e 3c 27 f2 3e
       -0.85059357 0.5185608 0.23318487 0.47295558
000260 7c 9f 01 3f b3 2a 0f 3f d1 65 8c 3f 55 7e 80 3f
       0.5063398 0.5592453 1.0968572 1.0038553
000270 35 18 e9 be b1 13 5a be 80 2c 19 bf 9b d0 db 3e
       -0.4552628 -0.21296574 -0.59833527 0.4293259
000280 f2 6b 89 3e 85 44 81 3e 83 d7 c1 be cb 5a 72 bf
       0.26840168 0.2524759 -0.37859735 -0.9466979
000290 47 4b a0 bf fc 57 00 3f 3f 96 e4 3e 86 c6 a1 3f
       -1.2522973 0.50134254 0.4464588 1.263871
0002a0 78 c0 a1 bf d0 27 5b 3e 8f fd e5 be 5c 1a cc 3e
       -1.2636862 0.21401906 -0.44920012 0.3986386
0002b0 37 b5 34 3f 54 26 5c 3f 0a f0 21 bf 7e fe 5f be
       0.7058901 0.85995984 -0.63256896 -0.21874425
0002c0 19 e5 03 3e be 5f 2a bf 7a 5b 1e 3f aa 77 7a bd
       0.12880363 -0.6655234 0.6185833 -0.061149277
0002d0 76 4a bd 3d f1 bc 3f bf 4d 80 c1 be 3e 80 0b 3f
       0.09242718 -0.74897677 -0.37793198 0.5449256
0002e0 5e c8 0c bf 17 15 8e bf 65 79 a6 3f 32 da cc 3d
       -0.54993236 -1.1100186 1.3005797 0.10002555
0002f0 7c 80 62 bf c5 ff c6 3f 88 4d 62 bd f0 34 6f 3e
       -0.884773 1.5546805 -0.05524972 0.23360038
000300 79 53 ee 3e 78 fb 1c be 83 00 65 3e 89 28 f0 3b
       0.4654806 -0.15330303 0.22363476 0.007329051
000310 bc 7b 26 3f 35 e6 b7 bc 62 90 99 bf 4b d3 d5 3d
       0.65032554 -0.022448638 -1.1997187 0.104406916
000320 a1 fa 4c bd f9 e8 c6 be 62 4d 66 bf 57 d2 8e be
       -0.050043706 -0.3884962 -0.89961827 -0.27894852
000330 4c 00 f8 3e d3 78 a0 be b2 d9 f5 be ee 73 d9 3e
       0.48437726 -0.31342182 -0.4801765 0.4247126
000340 7e 08 91 be e7 75 03 3e 2e 75 48 bf c6 98 6f bf
       -0.28326792 0.12837945 -0.783038 -0.9359249
000350 98 00 8b bc 16 13 19 3b 29 bf fa bb 61 52 22 3f
       -0.016968057 0.0023357323 -0.0076521826 0.6340695
000360 5f 48 00 40 13 b2 cd bf da fe f6 3f 56 47 c8 3f
       2.0044172 -1.6069969 1.9296525 1.564677
000370 9b 75 c8 be 9d f1 64 bf fa ec 09 3f 06 b4 99 3e
       -0.39152226 -0.8943117 0.5387722 0.3002016
000380 5c 48 72 3d a5 11 5b be 46 44 96 3e 04 d4 69 bf
       0.05915104 -0.2139345 0.29348963 -0.91339135
000390 c4 91 82 3f 1f c3 3d 3e 49 6c e3 be b2 3d e7 3e
       1.0200734 0.18531464 -0.44418553 0.45164257
0003a0 e3 02 1f 3e 57 f9 8c be 7f 6b e4 bf 1c ab 43 be
       0.15528445 -0.2753398 -1.7845305 -0.19108242
0003b0 74 5a 8e bd 63 f2 2b bd 22 43 6b be 17 8a 83 3f
       -0.06950846 -0.041979205 -0.22974828 1.0276517
0003c0 8c dd 14 3f cf fe 7c 3d fc 3e 89 bd 12 dd 5f bf
       0.58150554 0.061766442 -0.067014664 -0.874467
0003d0 7d 8f 90 be e6 72 eb be 62 2c 83 3e f5 2f 04 3e
       -0.28234473 -0.45986098 0.256198 0.12908919
0003e0 c9 ab e5 3f 21 0b a6 bf 70 2d f4 3f 2f d5 b2 3f
       1.794305 -1.2972146 1.9076366 1.3971308
0003f0 73 2f f9 be d2 6c 8e bf 51 59 76 3e 21 41 9a bc
       -0.48669013 -1.1126959 0.24057509 -0.018829884

net.bn2.weight f4 [16]
000000 e3 75 da 3f 5a 26 d6 3f 03 74 11 40 5e d9 0c 40
       1.7067226 1.6730454 2.2727058 2.200767
000010 a3 4a 12 40 fc 4e 15 40 43 8c e1 3f b9 0a dc 3f
       2.2858055 2.3329458 1.762093 1.7190772
000020 7d fb 48 3f 90 b4 d0 3f e4 c9 12 40 dc 65 13 40
       0.7850874 1.6305103 2.2935724 2.303092
000030 55 f9 d2 3f 61 e6 dc 3f 82 15 c2 3f 16 92 c9 3f
       1.648234 1.7257806 1.5162814 1.5747707

net.bn2.bias f4 [16]
000000 1e 94 d4 be 7b 15 e9 be 2c b3 ed be 64 83 fc be
       -0.41519254 -0.455242 -0.4642576 -0.49318993
000010 ee 09 18 bf 16 0b 1f bf 9f 1d 8a be d1 8c d1 be
       -0.5939015 -0.6212629 -0.26975724 -0.40927747
000020 f0 fc 41 be 2f 95 d4 be 3c 34 da be be f0 0c bf
       -0.18944144 -0.41520068 -0.42617977 -0.55054843
000030 fa 8a a6 be 23 fb a1 be ee e1 70 be 37 93 db be
       -0.32527906 -0.31636915 -0.23523685 -0.42885754

net.bn2.running_mean f4 [16]
000000 99 cc 23 bc 07 ab 69 bd d2 f8 97 3c ac ff 70 3c
       -0.00999751 -0.05704787 0.018551264 0.014709394
000010 b8 78 22 be 04 4d 34 3d f4 22 fe bc c6 f3 34 bd
       -0.15866363 0.04401876 -0.031022526 -0.044177793
000020 23 10 c9 bd e0 71 ae 3b ca bd f7 bd bf 42 fb 3e
       -0.09817531 0.0053236336 -0.12096746 0.4907436
000030 c6 7e 92 bc ec 9f 8a 3c 6a 53 27 bd 7f c8 22 bd
       -0.017882716 0.01692196 -0.040851034 -0.03974199

net.bn2.running_var f4 [16]
000000 c0 20 a2 41 15 c1 20 41 74 13 aa 41 3d ae 48 41
       20.265991 10.047139 21.259499 12.542539
000010 77 fb aa 41 8f d7 d9 41 b7 2a 40 42 3e b5 4d 42
       21.372786 27.230253 48.041714 51.426994
000020 94 82 87 41 7a 1f c8 41 c6 27 c1 41 1e b7 66 41
       16.938759 25.01537 24.14442 14.419706
000030 8e fd 65 42 66 12 8d 42 25 f8 9d 41 8e 9f 89 41
       57.497612 70.535934 19.746164 17.202908

net.point_conv.weight f4 [16, 16, 1, 16]
000000 d1 bd ce 3e 6f 44 f0 3e ef 9a 27 3f d6 b0 f2 3e
       0.40379193 0.4692721 0.65470785 0.4740054
000010 a6 06 ea 3e 2c 01 a5 3e ac c2 52 3e 16 25 30 3e
       0.45708197 0.32227457 0.20582074 0.17201647
000020 87 6e c6 3c f4 b5 21 3e be 1d 93 3d b9 3d 41 3e
       0.024222625 0.15792066 0.07183407 0.18871202
000030 cb 65 7c 3e c0 c8 9a 3e 5c 39 b9 3e 91 b2 da 3e
       0.24648206 0.30231285 0.36176574 0.4271436
000040 a5 8b e6 3e a5 f9 e6 3e 89 b8 0e 3f c2 52 0c 3f
       0.45028415 0.4511234 0.5575033 0.5481378
000050 0d db 14 3f 5d 24 34 3f 7c d3 3c 3f 02 5f 63 3f
       0.58146745 0.70367986 0.737602 0.88816845
000060 f2 12 51 3f a6 fc 5c 3f 85 aa 38 3f ca d2 14 3f
       0.81669533 0.8632301 0.7213519 0.5813414
000070 e1 9f 00 3f 07 a2 cc 3e b9 4d a4 3e 30 57 c1 3e
       0.50243956 0.39967367 0.32090548 0.3776183
000080 44 3f 84 be 11 1b 29 be 79 16 0f be a3 82 6b bd
       -0.25829518 -0.16514231 -0.13973416 -0.05749763
000090 01 35 3e bd 9d 99 cd 3d 2d 1c e8 3d fc f8 10 3e
       -0.046437267 0.10039065 0.11333499 0.1415748
0000a0 d3 86 45 3e b2 78 04 3e aa 60 50 3e ec 17 70 3e
       0.19289713 0.12936667 0.20349374 0.23446625
0000b0 6b e0 2d 3e c2 36 3b 3e 09 6b fa 3d 17 e0 58 3e
       0.1698014 0.18282607 0.122274466 0.21179233
0000c0 dd 55 8a be f0 67 78 be 7d 44 c3 bd d6 91 df ba
       -0.27018633 -0.24258399 -0.095345475 -0.0017057012
0000d0 b1 d3 55 bd a3 04 5d bd c2 7b 90 bd 3b 01 a8 bb
       -0.052203838 -0.0539595 -0.07054855 -0.0051271
0000e0 e8 e6 8a bd 24 d5 9d 3d 61 60 39 bd ea 28 4e bc
       -0.06782323 0.07706669 -0.04525793 -0.012582997
0000f0 77 4b c3 bc 9b 71 7c 3d 64 4b 1c 3e 22 6e 09 3e
       -0.023839695 0.06163178 0.15263134 0.13420919
000100 6b 90 e6 3a c7 db 0c 3e ce 8d 47 3e 81 16 a0 3e
       0.0017590647 0.13755713 0.19487688 0.3126717
000110 c8 45 e3 3e 13 a3 b1 3e dc 0d d2 3e b3 31 c1 3e
       0.44389176 0.34694728 0.410262 0.3773323
000120 17 82 58 3e c7 fe 71 3d 84 f0 17 3a d4 52 fa 3d
       0.21143375 0.059080865 0.00057960325 0.122228295
000130 33 0e 9a 3d 96 60 7e 3e f1 f0 af 3e e5 6b a8 3e
       0.075222395 0.24841532 0.3436351 0.32894817
000140 e0 69 53 be b4 ef 08 be 76 c4 0e be 35 8a ce bd
       -0.20645857 -0.1337269 -0.13942131 -0.10084955
000150 bb 60 4a 3d de bf 3d bd 47 3f 63 3d 47 16 50 3c
       0.049408656 -0.046325557 0.055480268 0.012700624
000160 b0 a3 22 be f4 5f 10 be e2 c9 8c be 0b ee a7 be
       -0.15882754 -0.14099103 -0.27497774 -0.327988
000170 c4 6f d9 be 7c 2a 02 bf 11 4e e3 be d8 34 9e be
       -0.42468083 -0.50846076 -0.44395497 -0.30899692
000180 94 76 82 3f 4e 94 6d 3f 4c 0e 5c 3f f0 9c 49 3f
       1.0192437 0.9280442 0.85959315 0.7875509
000190 63 b8 59 3f ab 19 72 3f b1 44 70 3f db 71 63 3f
       0.85046977 0.94570416 0.93854815 0.88845605
0001a0 98 d2 54 3f 77 33 57 3f 59 37 62 3f fa 20 5f 3f
       0.8313384 0.84062904 0.88365704 0.87159693
0001b0 87 be 3f 3f 72 8e 0c 3f f9 82 00 3f 93 a3 e9 3e
       0.74900097 0.54904854 0.5019985 0.4563261
0001c0 09 8d 6f 3f 03 92 44 3f 66 28 2f 3f 13 61 47 3f
       0.9357458 0.76785296 0.6842102 0.778825
0001d0 26 c7 86 3f 92 a7 97 3f 41 3a 99 3f dd e2 7a 3f
       1.0529525 1.1848013 1.1970903 0.98002416
0001e0 5d 74 50 3f f7 94 65 3f 3e c5 7e 3f 2c 2e 67 3f
       0.81427556 0.8968043 0.9951972 0.9030483
0001f0 a0 71 5d 3f 12 03 31 3f cf 65 25 3f ab ec 18 3f
       0.86501503 0.6914531 0.6460847 0.59736127
000200 16 8c 45 bd 88 ed 70 3c b0 a0 bb 3d 26 b8 f0 3d
       -0.0482293 0.014705069 0.09161508 0.117538735
000210 9c 16 1b 3e 8d 7d 1e 3e d3 3c 9a 3e 45 c6 9b 3e
       0.15145344 0.15477581 0.3012453 0.30424705
000220 8d 38 c2 3e 6e 95 d4 3e 1a 7a 75 3e e1 55 3b 3e
       0.3793377 0.41520256 0.2397236 0.18294479
000230 d9 6d aa bc 55 84 2d bd 5f 79 d3 bd 38 27 bc bd
       -0.020804333 -0.04236253 -0.10325884 -0.09187168
000240 ed 6f b7 3e 68 ba e2 3e cc f2 de 3e 6c 05 ed 3e
       0.3582758 0.44282842 0.43544614 0.462932
000250 58 14 05 3f 52 87 08 3f b8 01 f2 3e b6 78 dd 3e
       0.5198417 0.5333148 0.47266936 0.43256158
000260 66 76 e8 3e aa 31 f9 3e 51 2c 16 3f 71 fd 2f 3f
       0.4540283 0.48670703 0.5866137 0.68746096
000270 86 c1 56 3f 96 9b 47 3f 53 f2 40 3f 0c e9 28 3f
       0.83889043 0.7797178 0.7536976 0.659806
000280 79 bf 5e be b5 ad 5a bd 9b 04 15 bc d6 7a ad 3c
       -0.21752729 -0.053388316 -0.009095336 0.021176737
000290 19 0b de 3c 3b 15 59 bd af 42 18 3d fc 73 0b 3d
       0.027104901 -0.052998763 0.03717297 0.03404616
0002a0 13 3a 18 bd c4 92 56 be c9 35 80 be 86 b7 66 be
       -0.03716476 -0.20954424 -0.25041035 -0.22530946
0002b0 98 56 12 be 34 b8 38 be 6e d8 40 be 5a dc 46 be
       -0.14290845 -0.18039018 -0.18832561 -0.19419995
0002c0 75 97 68 3e 53 7a 52 3e b6 7f ab 3e 97 cc a2 3e
       0.22714026 0.20554475 0.33495873 0.31796715
0002d0 f9 05 a1 3e 78 a4 5e 3e 65 1e 5a 3e 82 fd 56 3e
       0.3144987 0.21742427 0.21300657 0.20995143
0002e0 f3 b1 09 3e 17 c0 0c 3e ff 6a 66 3b 43 02 89 3d
       0.13446788 0.13745151 0.003515899 0.066898845
0002f0 73 fa a6 3d 4b 33 0a 3e d3 2e 91 3d 29 32 b4 3d
       0.08153238 0.13496129 0.07089009 0.0879863
000300 8c 18 5e 3f 64 51 58 3f 64 76 4a 3f 5a bf 52 3f
       0.86756206 0.8449919 0.790869 0.8232323
000310 04 2a 5f 3f ce 74 31 3f af a1 24 3f 95 79 2c 3f
       0.87173486 0.69318855 0.6430921 0.6737302
000320 96 17 13 3f 24 e6 f9 3e a9 57 07 3f d4 e2 c2 3e
       0.57457864 0.48808396 0.52868134 0.3806368
000330 34 f6 8d 3e b8 27 b8 3e 69 32 cc 3e a3 e6 e2 3e
       0.277269 0.35967803 0.3988221 0.44316587
000340 cd 26 27 3f c4 cb 10 3f 8c 9d 0d 3f c6 f0 cb 3e
       0.6529358 0.5656092 0.5531852 0.39832133
000350 c7 02 ee 3e f7 8c 06 3f d5 4c c6 3e cc 14 fb 3e
       0.46486494 0.52558845 0.38730493 0.49039304
000360 fc 0b d7 3e 10 a1 db 3e 5b 78 d6 3e 8f d7 09 3f
       0.4200133 0.42896318 0.418887 0.5384454
000370 bf 08 09 3f b2 b4 0e 3f 3f bc fd 3e 04 83 2d 3f
       0.5352897 0.5574447 0.49557683 0.6777804
000380 37 c3 b5 3e 2a 60 f0 3e bc 6b 0e 3f c2 d6 22 3f
       0.355005 0.46948367 0.5563314 0.63608944
000390 a6 af f5 3e 2a 0c dc 3e a9 f3 a9 3e 3d 58 c2 3e
       0.47985572 0.4297803 0.3319371 0.37957945
0003a0 7e d7 bd 3e 46 0b a3 3e bc 97 84 3e b9 17 76 3e
       0.3707847 0.31844538 0.25897014 0.24032487
0003b0 68 75 05 3e 05 67 14 3e 15 b4 35 3e 10 e2 8e 3e
       0.13033068 0.14492424 0.17744477 0.27906847
0003c0 f9 0d 85 3e 75 73 a6 3e c1 9b 6b 3e 87 4a a5 3e
       0.25987223 0.32509962 0.23008634 0.32283422
0003d0 7a 26 b9 3e e1 84 d1 3e b6 fa d5 3e d4 e5 f0 3e
       0.36162168 0.4092169 0.4179284 0.47050345
0003e0 42 c5 07 3f 1c 39 d0 3e e0 fc de 3e 35 0c a3 3e
       0.53035367 0.4066857 0.43552303 0.3184525
0003f0 da 5c 92 3e 64 4a a6 3e ed 07 98 3e b4 22 84 3e
       0.28586465 0.3247863 0.29693547 0.25807726

net.bn3.weight f4 [16]
000000 87 29 5f 3f 61 2d ee 3f 2b c9 02 40 88 f6 b8 3f
       0.8717274 1.8607599 2.0435283 1.4450235
000010 05 46 93 3f 96 3f b2 3f 6b 95 56 3f e8 5d 95 3f
       1.1505743 1.3925655 0.83821744 1.1669283
000020 f7 2c e5 3f 7f cd 92 3f 77 13 00 40 8c 17 ad 3f
       1.7904347 1.1468962 2.001188 1.3522811
000030 6a 35 70 3f 84 3d d6 3f 67 a9 9a 3f 9b 4b fd 3f
       0.93831503 1.6737523 1.2082947 1.9788698

net.bn3.bias f4 [16]
000000 d9 ff 35 bc 94 24 a8 be 06 e1 17 bf 3f 3a 14 3e
       -0.011108362 -0.32840407 -0.59327734 0.14475344
000010 13 32 f3 3d 03 18 cb be 6f 5b 9a 3d 40 70 09 bd
       0.11874785 -0.39666757 0.07536971 -0.033554316
000020 51 3a e2 be 11 72 0e 3e bd 00 1d bf 6b 25 b7 bc
       -0.44185117 0.139107 -0.6132925 -0.02235671
000030 fd af bd ba a3 9a fc be e0 8e a5 3d a5 1a 20 bf
       -0.0014472004 -0.49336728 0.08083892 -0.62540656

net.bn3.running_mean f4 [16]
000000 6b 4a f4 40 e8 12 48 3f 98 74 fb c0 9f 84 d2 40
       7.634084 0.7815385 -7.8579826 6.578689
000010 a4 c6 64 40 d5 14 ea c0 0a 08 41 40 0d 4a 57 40
       3.574624 -7.315043 3.0161157 3.3638947
000020 d8 05 2f bf 09 26 d6 40 9a 39 07 c1 bf e9 82 40
       -0.6836829 6.692143 -8.451563 4.0910335
000030 b6 9a c6 40 4a e8 f0 c0 50 d1 c4 40 e9 05 00 c1
       6.2063856 -7.5283556 6.150551 -8.001443

net.bn3.running_var f4 [16]
000000 79 97 14 44 5d bf 38 44 24 8c 8e 44 62 64 6a 44
       594.36676 738.99005 1140.3794 937.5685
000010 d4 dd 1c 44 00 78 81 44 18 79 d0 43 81 94 fa 43
       627.46606 1035.75 416.94604 501.1602
000020 82 13 20 44 4b 2e 4b 44 5b 0f 9a 44 74 20 1e 44
       640.3048 812.7233 1232.4799 632.5071
000030 11 7c 04 44 65 56 90 44 5c 49 3c 44 63 14 7d 44
       529.93854 1154.6998 753.14624 1012.31854

net.fc.weight f4 [32, 256]
000000 51 84 bd bd 32 6a 10 be 7b 66 3a bf 07 3e 7a be
       -0.09253753 -0.1410301 -0.7281262 -0.24437724
000010 6b 04 c7 be 5a 57 e8 be 55 34 85 bd a9 15 ab bc
       -0.38870558 -0.45379144 -0.06504122 -0.020884352
000020 cc 35 87 be 25 9d 8d be 2e 0a ba bd 73 ab 94 be
       -0.2640823 -0.27658954 -0.09083973 -0.29037055
000030 90 95 95 be 29 ef aa be 9f da 2b bf ec 48 bb be
       -0.2921567 -0.3338559 -0.67130464 -0.36579072
000040 f7 b5 d7 3d a6 d4 7e be 43 a4 b7 3e 1d 75 05 bf
       0.10532754 -0.24885806 0.3586751 -0.52131826
000050 4c d4 18 bf 70 64 e4 be 1f 0b 14 bf 9d ec d2 bd
       -0.5969894 -0.44607878 -0.5782947 -0.10299037
000060 a4 2a aa be e5 9e 1f be 54 96 87 3e 6d d0 b6 be
       -0.33235657 -0.15587957 0.2648188 -0.3570589
000070 ed 85 4b bf f2 7f 03 bf e7 4e 33 be 42 e2 dd 3e
       -0.7950123 -0.51367104 -0.17510568 0.43336684
000080 46 f1 c9 bd 0b 74 d1 3e 54 c1 34 bc 7d 7e 17 3f
       -0.098604724 0.40908846 -0.011032421 0.5917738
000090 ff 0f 65 3f 22 25 0f 3f 8c 84 14 3f 07 58 f4 3e
       0.89477533 0.55916035 0.5801475 0.4772341
0000a0 49 d4 3c 3f 62 35 f0 3e 86 92 80 3e 48 91 36 3e
       0.7376142 0.46915728 0.2511179 0.17828858
0000b0 9a a5 5c 3f dd ac 81 3f f0 13 87 3e ae c6 48 3e
       0.8619019 1.0130879 0.263824 0.1960704
0000c0 90 f3 80 3e ae 00 03 be b9 fa 63 bf ab 45 c7 be
       0.25185823 -0.12793228 -0.8905445 -0.3892034
0000d0 0b 75 00 bf 44 7e 3a bf e4 36 79 bf 68 cf 17 bf
       -0.50178593 -0.72848916 -0.9734938 -0.5930085
0000e0 63 5f a8 be dd 9f 51 be 36 d4 6e be 71 57 a5 be
       -0.32885274 -0.20471139 -0.2332314 -0.32293275
0000f0 e1 18 3c bf 81 92 60 bf bd a2 8d bd e3 66 e2 be
       -0.7347546 -0.8772355 -0.069158055 -0.4421912
000100 f2 84 9c be 78 57 10 bf c8 65 28 bd 6b 92 ce be
       -0.3057018 -0.56383467 -0.04111269 -0.40346083
000110 80 71 6f bf a7 74 2d bf f6 ed ac 3d e0 e0 9c be
       -0.9353256 -0.6775612 0.08443825 -0.30640316
000120 d6 6b 14 bf 21 fb 91 3d d2 e9 da 3e 77 9c 37 bf
       -0.57977045 0.07127977 0.42756516 -0.7172312
000130 41 6b 96 be 20 dc 92 bd 90 17 0c bd dc 55 40 be
       -0.29378703 -0.07170892 -0.03420216 -0.18782753
000140 7e fd d4 be 74 12 9b 3d 06 ff 7e 3d bb 10 b6 3e
       -0.4159965 0.07571879 0.062254928 0.3555964
000150 b6 67 73 3e 08 f7 99 3e d2 54 99 3e a1 0f 62 3e
       0.23770031 0.30071282 0.29947525 0.22076274
000160 7d cc 12 3e c9 9b d3 3d 51 43 41 bd bf 19 2c 3e
       0.14335819 0.10332448 -0.04718334 0.16806696
000170 3f 54 47 3f bc 43 18 3f 61 3b c3 bd 10 a7 55 be
       0.77862924 0.59478354 -0.0953281 -0.2086451
000180 f3 c7 ad bd 18 c7 6c bd d3 b0 d2 be 6b 54 ba 3d
       -0.08485403 -0.057807058 -0.4115053 0.09098133
000190 6d bf 18 3d 37 13 9b be d2 fe 7f 3a 14 fe 50 be
       0.037291933 -0.30288097 0.0009765449 -0.20409423
0001a0 0f 30 e7 bd f1 80 5a be 99 e6 23 bf 7e 6b cd be
       -0.11288463 -0.2133825 -0.6402374 -0.40121073
0001b0 0f 6c ae 3e 02 2f 66 bd 77 5b cd bd ef 5f 8f be
       0.34066817 -0.056197174 -0.10027211 -0.2800288
0001c0 6d 1d bc be bd 64 8e be 97 08 2c be f5 4a 25 be
       -0.367412 -0.27811232 -0.16800152 -0.16141875
0001d0 9a c4 00 be 58 e7 3c be e9 3f b7 3e 60 82 77 bc
       -0.12574998 -0.18447626 0.35790947 -0.015106767
0001e0 0c fa 42 be be 53 b9 bc 71 43 8b be 2f 5e 86 bd
       -0.19040698 -0.02262294 -0.2719989 -0.06560933
0001f0 7e c8 10 be 0b 76 9c be 4c 41 1e be 4b 75 8a be
       -0.14138982 -0.3055881 -0.15454596 -0.27042612
000200 f1 aa e6 3e 9e c3 0c 3e 44 c4 91 3d fd 78 94 bd
       0.45052293 0.13746497 0.07117513 -0.07249639
000210 4e a5 b1 be b2 fb ed be 0a 4d 4c 3d 93 6e 8e be
       -0.3469643 -0.4648109 0.049878158 -0.27818736
000220 61 d9 54 bf ab 65 8f 3d 73 71 aa 3e d9 b5 86 be
       -0.83144194 0.070018135 0.3328968 -0.26310614
000230 24 65 87 be 31 48 09 bf d0 ab d7 bd 4d dc 9c 3e
       -0.26444352 -0.5362578 -0.105308175 0.30636826
000240 10 d2 73 be f0 30 8a bd 2c 15 26 bf 1f 38 b8 be
       -0.23810601 -0.06747615 -0.64876056 -0.35980317
000250 7d cd b0 be 74 c7 c4 be 07 b7 c4 be 9b 87 80 be
       -0.34531775 -0.3843342 -0.3842089 -0.2510346
000260 a2 5c 4d be 19 9d 52 be 04 14 70 be 99 8e b8 be
       -0.20054868 -0.2056774 -0.23445135 -0.36046293
000270 00 46 26 bf 22 49 c7 bd 15 cb f1 be 4c f5 0a bf
       -0.6495056 -0.09730746 -0.47225252 -0.54280543
000280 d5 b3 b4 be eb e7 94 bc ac 26 1a 3e 95 05 57 3e
       -0.3529345 -0.018176993 0.15053815 0.20998223
000290 bf 42 1b 3f 0b a9 49 3f 30 58 3b 3f 92 87 cc 3e
       0.6064872 0.78773564 0.7318144 0.39947182
0002a0 81 0b 08 3f 38 5a fb 3e 69 f9 ca 3d 1b 07 e1 3e
       0.53142554 0.4909227 0.099108525 0.43950734
0002b0 a8 f8 50 3f f4 93 5c 3f 44 1c 10 3f 27 3c 02 3e
       0.8162942 0.8616326 0.5629313 0.12718259
0002c0 73 f0 33 3e 9b ed 03 bf 45 08 bc be 6c 2f 92 be
       0.17572193 -0.5153443 -0.3672506 -0.28551805
0002d0 db 29 c2 be b1 65 96 be 63 d9 d7 be e7 e1 6b be
       -0.37922558 -0.2937446 -0.4215804 -0.23035394
0002e0 53 c5 e8 bb fb e3 9e bd 92 04 29 3e 78 91 44 3c
       -0.007103601 -0.077583276 0.1650565 0.011997573
0002f0 06 b5 3e bf 7d 27 38 bf ee 65 e3 be fe b3 78 be
       -0.7449497 -0.71935254 -0.44413704 -0.24287412
000300 eb 00 90 be 71 74 9b be 10 d3 29 be 7e 03 80 bc
       -0.281257 -0.30362275 -0.1658442 -0.015626665
000310 02 f3 27 3d 13 69 9b bd c4 9e 45 3e 94 92 73 3e
       0.041003235 -0.07588401 0.19298846 0.23786384
000320 b3 e0 98 be 16 ac 8c 3e ce f4 86 be 37 fb 22 be
       -0.29858932 0.2747504 -0.26358646 -0.15916143
000330 94 fa 4f be ea 52 d9 be 1f cd f2 bd f7 74 e3 be
       -0.20310432 -0.4244607 -0.1185553 -0.44425175
000340 40 71 63 be b6 63 16 3e bb 45 e2 3d a4 61 f7 3e
       -0.2221117 0.14686474 0.11048456 0.4831668
000350 c5 e4 ed 3e a3 80 09 3f e3 f5 2d 3f 55 81 a2 3e
       0.464636 0.5371191 0.6795332 0.31739298
000360 1c b8 d0 3e 8a 9a 4a 3e 4d a9 bd be a1 d3 6f 3e
       0.40765464 0.19785514 -0.3704323 0.23420574
000370 63 93 27 3f 11 24 6b 3f 35 a2 f5 3e 23 3a 09 3d
       0.6545927 0.9185191 0.47975317 0.03350271
000380 f3 1c 9d 3e de d7 b1 bd 7f ae d2 bc 66 ad c3 be
       0.3068615 -0.086837515 -0.025717972 -0.3821823
000390 f9 f3 3b bf 94 a8 c7 be c5 00 00 bf b7 43 a3 be
       -0.7341915 -0.38995802 -0.50001174 -0.318876
0003a0 99 3a a7 be 86 a0 04 bf bc ed 81 bd 33 2c 2f 3e
       -0.32661894 -0.5180744 -0.06344172 0.17106704
0003b0 51 0b 04 bf df ea 00 bf fd 82 b2 be cf f1 5a bd
       -0.5157977 -0.50358385 -0.3486556 -0.053453263
0003c0 0f 41 43 bf a8 c6 d7 3e f8 dd f8 be 52 87 c6 3e
       -0.76271147 0.4214375 -0.4860685 0.38775116
0003d0 23 5b 9b 3f 24 30 72 3f 98 8f ed 3e a3 bd f0 3e
       1.2137188 0.94604707 0.46398616 0.4701968
0003e0 f4 fc 32 3f 78 d5 3e 3f 58 05 95 3e 86 38 ec 3e
       0.69917226 0.7454448 0.2910564 0.46136874
0003f0 e2 c8 57 3f 9c 7b 39 3f c5 f6 18 3f 79 39 b5 3e
       0.842909 0.7245424 0.5975154 0.3539541

net.fc.bias f4 [32]
000000 40 1b 78 bf 35 bf 86 3d 29 3a 23 bf 6c 27 6f 3f
       -0.9691658 0.065794386 -0.6376062 0.9341953
000010 0f ca 65 bf ae e5 b7 be 75 6a a4 bf 6f 11 43 3f
       -0.8976144 -0.3591742 -1.2844988 0.76198477
000020 5c 06 3b 3f 4d 3e 5d bf 17 76 05 c0 51 7d 36 3f
       0.7305658 -0.8642319 -2.0853326 0.7128497
000030 4d 21 ac bf a1 5b 24 3f 9a ad 10 3f 97 7e 28 bf
       -1.3447663 0.64202315 0.56514895 -0.6581816
000040 0e 18 93 bf fc 89 b9 bf 29 ec 72 3f 62 3f 68 3f
       -1.1491716 -1.4495234 0.948916 0.90721714
000050 1f 5d a5 3f ae d2 27 be 69 be bc 3e cf d8 64 bf
       1.2919043 -0.16388962 0.3686402 -0.89393324
000060 cb a1 d7 bf 32 3e a0 3d f0 95 6e 3f ba 20 eb be
       -1.684625 0.07824363 0.93197536 -0.45923406
000070 33 a4 de 3e 67 de 81 3f b7 46 96 3f 81 e9 9d 3f
       0.4348465 1.0145997 1.174033 1.2336885

exp_avg f4 [8, 1, 1, 256]
000000 27 4d 82 38 5a 27 b7 38 af 8b 0b 39 3b 05 3e 39
       6.213254e-05 8.73345e-05 0.00013308109 0.0001812176
000010 49 4e 5e 39 92 a7 5d 39 70 ee 36 39 eb fc e3 38
       0.00021200733 0.00021138627 0.00017445697 0.00010871313
000020 58 46 06 38 d8 0f 14 b8 bc e7 a0 b8 02 e4 b5 b8
       3.2013602e-05 -3.5300705e-05 -7.6725584e-05 -8.673222e-05
000030 79 d4 96 b8 68 5f 46 b8 7a c0 00 b8 d9 96 19 b8
       -7.1921335e-05 -4.7295733e-05 -3.0696836e-05 -3.661853e-05
000040 6d 78 95 b8 7b f1 06 b9 2b bb 4a b9 95 be 80 b9
       -7.127305e-05 -0.00012869194 -0.00019333947 -0.00024556057
000050 b3 90 8c b9 c2 33 85 b9 68 6a 5a b9 25 3a 19 b9
       -0.0002681069 -0.000254063 -0.0002082974 -0.00014612878
000060 37 a2 b9 b8 a6 6f 60 b8 09 e1 57 b8 10 ce a8 b8
       -8.851702e-05 -5.3509742e-05 -5.1469575e-05 -8.0492464e-05
000070 2f 38 05 b9 52 27 33 b9 56 ed 49 b9 f7 2a 3e b9
       -0.00012704798 -0.00017085418 -0.00019257268 -0.00018135818
000080 19 df 0f b9 77 a3 95 b8 85 10 69 b6 8e e9 43 38
       -0.00013720653 -7.135321e-05 -3.4729321e-06 4.6709138e-05
000090 63 83 89 38 0a da 55 38 78 20 5a 37 cb 22 fc b7
       6.557142e-05 5.0986222e-05 1.3001372e-05 -3.0056943e-05
0000a0 79 8a 70 b8 83 64 61 b8 e1 eb 87 b7 11 26 43 38
       -5.734942e-05 -5.373779e-05 -1.6203094e-05 4.6527075e-05
0000b0 a9 42 f3 38 7e f8 33 39 d4 23 4e 39 6c 47 42 39
       0.000115995594 0.00017163341 0.00019659038 0.00018527888
0000c0 9d 88 17 39 06 af bf 38 da d0 42 38 5c c9 df 37
       0.00014451375 9.1401904e-05 4.6447713e-05 2.6677437e-05
0000d0 9e f0 24 38 ab f4 a5 38 e9 8c 08 39 f7 4b 35 39
       3.932474e-05 7.913386e-05 0.00013022464 0.00017289804
0000e0 cd 89 46 39 b5 12 33 39 4c 47 fe 38 e2 62 6b 38
       0.00018934086 0.00017077739 0.00012124944 5.6120458e-05
0000f0 79 65 86 b6 94 d1 28 b8 fd b2 30 b8 61 af 54 b7
       -4.005324e-06 -4.0249506e-05 -4.2128366e-05 -1.2677018e-05
000100 c0 64 0d 38 d3 d8 9f 38 b8 33 c8 38 62 07 a7 38
       3.371085e-05 7.6220975e-05 9.5463765e-05 7.964556e-05
000110 6b fc f7 37 57 84 2c b8 c3 c6 e5 b8 3f d9 1f b9
       2.9562236e-05 -4.1131247e-05 -0.00010956593 -0.00015244352
000120 09 a2 23 b9 ba d9 fc b8 bc c8 75 b8 15 76 09 37
       -0.00015605254 -0.00012056851 -5.85995e-05 8.193329e-06
000130 37 e0 71 38 a5 34 9b 38 46 e7 5f 38 3e d2 a6 36
       5.7667694e-05 7.400782e-05 5.3382733e-05 4.971661e-06
000140 3d bc 57 b8 a9 22 c3 b8 e4 8a d7 b8 41 f2 9e b8
       -5.1435305e-05 -9.3047805e-05 -0.00010277869 -7.5791504e-05
000150 2d 6a b8 b7 3b d3 24 38 a3 31 b6 38 8b 69 d8 38
       -2.1983951e-05 3.929737e-05 8.687682e-05 0.000103193415
000160 c2 1a ae 38 68 95 11 38 1d a4 bf b7 b9 ed 8a b8
       8.3019506e-05 3.470984e-05 -2.2845396e-05 -6.624632e-05
000170 f9 47 a0 b8 b1 06 42 b8 70 01 92 37 31 49 c9 38
       -7.6428005e-05 -4.6259436e-05 1.7405226e-05 9.59806e-05
000180 f5 9d 2d 39 0c 66 57 39 7b 40 57 39 bb fc 32 39
       0.00016557409 0.00020542013 0.00020528019 0.00017069552
000190 93 44 f8 38 8f 85 95 38 0f 86 59 38 b9 0b 97 38
       0.000118383345 7.129751e-05 5.1861683e-05 7.2024246e-05
0001a0 f3 0f 07 39 dc 07 58 39 47 96 92 39 02 31 ab 39
       0.00012880545 0.00020602293 0.00027959255 0.00032652175
0001b0 dd 38 ae 39 6c f8 9b 39 ea a0 78 39 bb 44 36 39
       0.00033230233 0.00029748993 0.00023711068 0.00017382477
0001c0 73 d5 08 39 12 98 fe 38 90 36 1a 39 8a ed 4b 39
       0.00013049487 0.00012139989 0.0001470691 0.00019448079
0001d0 34 ce 7e 39 c8 fe 8d 39 eb 2c 8a 39 58 94 66 39
       0.00024300144 0.00027083443 0.00026354878 0.00021989772
0001e0 16 c8 1f 39 e3 0c af 38 a9 56 18 38 9c 6c e2 37
       0.0001523796 8.3470506e-05 3.6320333e-05 2.6991875e-05
0001f0 08 38 72 38 46 96 f5 38 fe a7 3f 39 5c 3c 71 39
       5.774948e-05 0.00011710501 0.00018277761 0.00023006037
000200 34 1c 7c 39 07 65 59 39 e2 66 12 39 59 a3 76 38
       0.00024043099 0.00020732368 0.00013961972 5.88031e-05
000210 33 5a 1a b7 9f b9 35 b8 ff 9a 14 b8 e5 b9 fe 36
       -9.200116e-06 -4.3326636e-05 -3.54303e-05 7.591431e-06
000220 a5 66 8b 38 99 75 f4 38 0b 80 0f 39 04 e6 f6 38
       6.6471555e-05 0.00011656731 0.00013685242 0.00011773038
000230 20 73 87 38 48 d6 89 b6 c1 3c 86 b8 4e 02 c5 b8
       6.458745e-05 -4.107864e-06 -6.400934e-05 -9.394121e-05
000240 17 27 b0 b8 11 07 21 b8 90 4e dd 37 9f a2 b7 38
       -8.399615e-05 -3.8391972e-05 2.6381837e-05 8.7564105e-05
000250 14 9f 02 39 43 55 04 39 7c 6b c7 38 22 05 44 38
       0.00012457027 0.00012620263 9.50908e-05 4.673482e-05
000260 ae d4 83 36 16 99 52 b7 56 7c 0f 37 b3 18 86 38
       3.9288634e-06 -1.25526185e-05 8.552413e-06 6.3942185e-05
000270 b0 6a 10 39 12 98 59 39 7d 29 84 39 1e 64 87 39
       0.00013772654 0.00020751383 0.00025207913 0.000258238
000280 07 4c 6d 39 10 dc 31 39 df f3 e8 38 52 5c 9a 38
       0.00022630404 0.00016962015 0.000111080466 7.360488e-05
000290 f9 39 96 38 28 65 dd 38 1a b8 2a 39 0a 6e 68 39
       7.1633556e-05 0.00010556943 0.00016281047 0.00022166237
0002a0 f3 2e 88 39 a7 fa 88 39 61 d3 69 39 df 2c 23 39
       0.0002597492 0.00026126692 0.00022299356 0.00015561607
0002b0 bd 9a a8 38 1a 8c ac 37 70 93 e3 b6 76 48 51 36
       8.0396865e-05 2.0569238e-05 -6.782291e-06 3.1185605e-06
0002c0 15 40 2e 38 fa 93 ba 38 e7 6a 01 39 98 b2 05 39
       4.1544514e-05 8.896734e-05 0.00012342223 0.000127504
0002d0 d5 75 c6 38 a7 da 04 38 1f 63 33 b8 37 72 de b8
       9.463324e-05 3.167489e-05 -4.276924e-05 -0.00010607059
0002e0 44 22 12 b9 6b 73 0e b9 10 fd d4 b8 d5 01 5f b8
       -0.0001393641 -0.00013585172 -0.00010156084 -5.316905e-05
0002f0 31 d5 4e b7 08 78 36 36 e5 68 8b b7 bf f7 8a b8
       -1.2328194e-05 2.718998e-06 -1.6618937e-05 -6.626499e-05
000300 c1 9a 08 b9 2c e1 43 b9 d8 37 62 b9 78 a1 58 b9
       -0.00013027621 -0.00018680532 -0.00021573843 -0.00020659517
000310 1e c9 29 b9 d9 dd c9 b8 f8 f5 fc b7 f5 ce 8d 37
       -0.00016192018 -9.625749e-05 -3.015528e-05 1.6904882e-05
000320 77 3b 0c 38 23 ec 9b 37 97 dd 85 b7 04 ca 5a b8
       3.3433982e-05 1.85874e-05 -1.5958021e-05 -5.2163392e-05
000330 82 3c 97 b8 ee 05 88 b8 51 d0 f2 b7 9f 32 d7 37
       -7.2115115e-05 -6.48609e-05 -2.8945653e-05 2.565357e-05
000340 8a 2d ab 38 b8 c8 fc 38 0a ed 08 39 ca dd e6 38
       8.162398e-05 0.00012053683 0.00013058275 0.00011008566
000350 cf b4 90 38 1c 30 d5 37 47 ef 55 b5 da 89 8c 36
       6.900133e-05 2.5413981e-05 -7.969688e-07 4.188373e-06
000360 5e ac 32 38 56 45 dc 38 5f a1 36 39 d0 36 71 39
       4.2599037e-05 0.00010503332 0.00017416988 0.0002300397
000370 67 b8 86 39 80 aa 82 39 8f 79 5e 39 38 d3 28 39
       0.00025695862 0.00024922565 0.00021216854 0.00016100414
000380 df 94 f1 38 6f d8 bd 38 c5 b5 c5 38 88 d5 ff 38
       0.00011519505 9.052536e-05 9.427549e-05 0.00012199121
000390 7f b6 27 39 0a 99 47 39 c4 1b 50 39 29 50 3a 39
       0.00015994346 0.0001903513 0.0001984677 0.00017768204
0003a0 b7 89 0a 39 64 47 9c 38 e4 c4 b7 37 99 cc 31 b7
       0.00013212008 7.451957e-05 2.1906984e-05 -1.0597659e-05
0003b0 50 ae 81 b7 0e 04 98 36 b4 d0 22 38 5c f7 95 38
       -1.5459169e-05 4.530425e-06 3.881818e-05 7.150948e-05
0003c0 4b 22 b8 38 9d f9 a4 38 15 4a 3e 38 a1 64 a0 b5
       8.780191e-05 7.8666235e-05 4.5368524e-05 -1.1950216e-06
0003d0 7b 5c 36 b8 3b 75 89 b8 78 01 73 b8 05 d5 b3 b7
       -4.347831e-05 -6.554505e-05 -5.7937083e-05 -2.1437658e-05
0003e0 9d 16 0b 38 ba 3a b9 38 84 91 05 39 a0 2c 11 39
       3.3161243e-05 8.832426e-05 0.00012738077 0.00013844902
0003f0 59 9f fb 38 7f 25 a9 38 1c 89 19 38 6b c1 a3 36
       0.000119982935 8.065532e-05 3.6605736e-05 4.8802954e-06

exp_avg_sq f4 [8, 1, 1, 256]
000000 ce c0 50 34 f4 66 3f 34 6c 15 3a 34 56 12 5b 34
       1.9441651e-07 1.7825715e-07 1.7330393e-07 2.0402635e-07
000010 3e 42 88 34 05 36 94 34 94 1a 84 34 1b 81 4c 34
       2.5380172e-07 2.7606453e-07 2.4606254e-07 1.9045949e-07
000020 ed 16 28 34 48 50 2b 34 b8 85 3a 34 23 14 3b 34
       1.565456e-07 1.5954822e-07 1.7371246e-07 1.7423058e-07
000030 85 6f 37 34 32 cc 4a 34 02 95 73 34 bf b0 86 34
       1.7083774e-07 1.8887002e-07 2.2685347e-07 2.5088045e-07
000040 d5 a6 7d 34 08 76 59 34 f1 1d 4f 34 ed 6b 6d 34
       2.3623154e-07 2.025264e-07 1.928927e-07 2.2111608e-07
000050 d9 c6 88 34 09 bd 89 34 5d 13 77 34 57 09 63 34
       2.5476655e-07 2.565578e-07 2.3010712e-07 2.114442e-07
000060 94 19 6c 34 4c 2d 7c 34 74 2e 75 34 1c 29 60 34
       2.1988518e-07 2.3485808e-07 2.2834303e-07 2.0876581e-07
000070 fd 39 66 34 2c 20 8c 34 58 c1 a7 34 58 69 aa 34
       2.1441515e-07 2.610044e-07 3.124685e-07 3.1741615e-07
000080 05 bc 8f 34 38 77 5d 34 7a 48 3d 34 7b e9 3e 34
       2.6772628e-07 2.06256e-07 1.7628363e-07 1.7780069e-07
000090 e7 be 43 34 de 7d 41 34 09 f5 4f 34 db 9c 7e 34
       1.823024e-07 1.8020316e-07 1.936752e-07 2.3712657e-07
0000a0 70 f6 97 34 9c e7 99 34 e7 02 82 34 d9 9f 52 34
       2.830525e-07 2.866699e-07 2.42165e-07 1.9615926e-07
0000b0 32 4e 52 34 31 1e 7c 34 e8 d9 8c 34 9a a2 83 34
       1.9586221e-07 2.3480312e-07 2.623558e-07 2.451896e-07
0000c0 83 d7 5a 34 e4 e8 41 34 87 2b 46 34 5a be 49 34
       2.0381235e-07 1.8059251e-07 1.8456022e-07 1.8788833e-07
0000d0 b3 a8 3b 34 72 5a 38 34 2c 10 65 34 2b c5 9a 34
       1.7477105e-07 1.7169239e-07 2.133317e-07 2.8828194e-07
0000e0 08 a2 b5 34 e5 40 ab 34 47 d1 85 34 27 eb 49 34
       3.383177e-07 3.189845e-07 2.492545e-07 1.8805132e-07
0000f0 66 95 34 34 df d2 37 34 94 6d 35 34 9e 5f 36 34
       1.6818157e-07 1.7119918e-07 1.6896803e-07 1.6984856e-07
000100 98 b3 5a 34 16 f9 8f 34 67 91 a8 34 95 3c 9f 34
       2.0368168e-07 2.681706e-07 3.1398233e-07 2.9660137e-07
000110 f8 81 7a 34 75 b4 4a 34 9a dc 58 34 00 d4 82 34
       2.3330347e-07 1.8878366e-07 2.0196822e-07 2.4368637e-07
000120 9b de 89 34 c9 b4 72 34 1f 33 4b 34 62 b0 43 34
       2.5680205e-07 2.2603776e-07 1.8924446e-07 1.8224958e-07
000130 31 77 51 34 c9 81 52 34 46 f4 48 34 28 df 60 34
       1.9508003e-07 1.960499e-07 1.8715318e-07 2.094281e-07
000140 10 e6 98 34 bb 44 c7 34 2e 6c d5 34 26 a5 b7 34
       2.84796e-07 3.7116646e-07 3.9753053e-07 3.4206568e-07
000150 2a 9c 89 34 a8 be 5d 34 05 77 5c 34 97 a0 66 34
       2.5631863e-07 2.0651589e-07 2.0532396e-07 2.1478841e-07
000160 06 61 60 34 fb 30 60 34 6b d9 82 34 a7 0d 9f 34
       2.0896923e-07 2.0879445e-07 2.437258e-07 2.962599e-07
000170 41 40 a7 34 6b 6f 8e 34 b4 77 57 34 9f 8e 42 34
       3.1152925e-07 2.6530628e-07 2.0066983e-07 1.8119543e-07
000180 e8 b8 69 34 aa 16 8b 34 b6 36 8a 34 33 e9 6f 34
       2.1767084e-07 2.5907258e-07 2.574431e-07 2.2343447e-07
000190 d6 2d 5a 34 aa 36 64 34 3e 92 6c 34 3e 4d 5a 34
       2.0319507e-07 2.1254041e-07 2.2032415e-07 2.0330933e-07
0001a0 2d d7 4e 34 68 61 81 34 8a df ba 34 c7 27 ed 34
       1.9263526e-07 2.4098995e-07 3.4807846e-07 4.4173632e-07
0001b0 8b c1 ef 34 80 a1 c2 34 29 d0 8b 34 ca 3f 59 34
       4.465804e-07 3.6252823e-07 2.6042224e-07 2.0232906e-07
0001c0 09 c0 49 34 b5 87 46 34 36 43 4b 34 3b 62 74 34
       1.8789446e-07 1.8489557e-07 1.89303e-07 2.2760007e-07
0001d0 82 fe a1 34 f6 a8 c1 34 31 82 bb 34 c0 07 95 34
       3.0173766e-07 3.6071987e-07 3.492619e-07 2.7759052e-07
0001e0 da e3 6a 34 1d 29 74 34 1d 25 95 34 12 de a0 34
       2.187584e-07 2.2739228e-07 2.7780416e-07 2.99639e-07
0001f0 4c 21 8e 34 61 52 67 34 59 f6 5a 34 e2 f2 73 34
       2.6473788e-07 2.1543521e-07 2.0392453e-07 2.2719499e-07
000200 dc 50 81 34 e1 e6 75 34 45 65 7a 34 c4 34 9e 34
       2.4086955e-07 2.2901396e-07 2.3319906e-07 2.9468185e-07
000210 1d 88 d0 34 c3 1c ec 34 b6 21 db 34 13 14 b2 34
       3.8842055e-07 4.3979352e-07 4.0816457e-07 3.316969e-07
000220 73 89 95 34 e9 ad 90 34 36 64 90 34 35 3b 85 34
       2.785342e-07 2.6948626e-07 2.6895003e-07 2.481626e-07
000230 28 4f 78 34 aa 5d 8b 34 81 98 ad 34 e5 64 c0 34
       2.3125597e-07 2.5958917e-07 3.2334722e-07 3.5836197e-07
000240 6f d3 ab 34 76 07 81 34 1a 2f 4f 34 c0 65 60 34
       3.200507e-07 2.403355e-07 1.9295513e-07 2.0898642e-07
000250 d2 81 84 34 47 01 86 34 6f 2b 66 34 24 c4 47 34
       2.4681373e-07 2.4960374e-07 2.143622e-07 1.8604675e-07
000260 cc 9d 4d 34 e0 84 5d 34 32 4b 55 34 98 1d 46 34
       1.9149519e-07 2.0630569e-07 1.9864527e-07 1.8450953e-07
000270 74 90 64 34 0b ec 9e 34 e4 cd ca 34 22 db cf 34
       2.1286706e-07 2.9601537e-07 3.7775237e-07 3.8716195e-07
000280 fd d2 a9 34 d8 4a 74 34 5a 8c 43 34 3f 00 42 34
       3.1632217e-07 2.2751499e-07 1.821185e-07 1.8067747e-07
000290 f0 ad 46 34 62 27 44 34 bb 99 58 34 c3 73 8b 34
       1.8503465e-07 1.826825e-07 2.0172494e-07 2.5974995e-07
0002a0 5f 5e ac 34 ce df af 34 08 5b 90 34 99 79 57 34
       3.210616e-07 3.275913e-07 2.6888324e-07 2.0067672e-07
0002b0 2b 05 45 34 8b 18 67 34 ca a3 81 34 f0 99 73 34
       1.8348935e-07 2.152248e-07 2.4147295e-07 2.268714e-07
0002c0 ad 49 50 34 90 6c 46 34 f0 28 59 34 18 a9 62 34
       1.9398313e-07 1.8479682e-07 2.0224593e-07 2.1109406e-07
0002d0 c4 a1 50 34 2f e0 46 34 30 3b 73 34 9b 9e a4 34
       1.943036e-07 1.8521744e-07 2.2652671e-07 3.066278e-07
0002e0 62 41 c1 34 1a 29 b5 34 db dd 8b 34 52 9c 4f 34
       3.5996624e-07 3.3743783e-07 2.605219e-07 1.9335246e-07
0002f0 71 85 38 34 8e 2f 3e 34 7b ff 3f 34 49 d2 44 34
       1.7184881e-07 1.7712429e-07 1.7881204e-07 1.8330424e-07
000300 2d 35 6c 34 0d ba 99 34 66 ad b2 34 52 a1 a9 34
       2.1998558e-07 2.863384e-07 3.3281248e-07 3.159608e-07
000310 2b ec 87 34 05 7e 5d 34 11 73 63 34 6f eb 82 34
       2.5317544e-07 2.0628075e-07 2.1182883e-07 2.4385687e-07
000320 2d 91 87 34 90 00 74 34 ef a3 5b 34 ec 08 66 34
       2.525134e-07 2.2724475e-07 2.0455603e-07 2.1423665e-07
000330 a2 60 80 34 a0 f4 81 34 10 3f 6d 34 1b 98 66 34
       2.3912168e-07 2.420611e-07 2.2095287e-07 2.1475755e-07
000340 a3 be 86 34 6e 61 a3 34 7b fc ac 34 0a 05 9a 34
       2.5098151e-07 3.0432005e-07 3.22212e-07 2.8688402e-07
000350 8c 93 7c 34 92 f3 63 34 60 ae 6b 34 37 67 70 34
       2.3523006e-07 2.1229633e-07 2.1949518e-07 2.2389291e-07
000360 60 d8 62 34 6f d6 5e 34 0f ab 80 34 59 07 9c 34
       2.1126607e-07 2.0753372e-07 2.396632e-07 2.906261e-07
000370 23 47 a7 34 d4 41 96 34 5f 39 76 34 5a 5b 63 34
       3.1157933e-07 2.7987574e-07 2.2931407e-07 2.1174256e-07
000380 f6 7e 7d 34 5d 7c 8c 34 91 53 87 34 b2 da 69 34
       2.3608649e-07 2.6167518e-07 2.5206512e-07 2.1779377e-07
000390 8f f1 52 34 de 30 58 34 3b a7 5f 34 6c 07 52 34
       1.9645653e-07 2.0134345e-07 2.0829332e-07 1.9560474e-07
0003a0 b8 3d 41 34 cc 11 53 34 f7 db 84 34 cf 17 9b 34
       1.7996979e-07 1.9657381e-07 2.4746961e-07 2.8888323e-07
0003b0 b4 bc 95 34 0e f8 72 34 b5 10 40 34 9c 4a 34 34
       2.7890712e-07 2.2628248e-07 1.7887471e-07 1.6790949e-07
0003c0 d4 fe 3f 34 94 69 42 34 db 57 3a 34 f1 85 45 34
       1.7880967e-07 1.8106067e-07 1.7354562e-07 1.8395782e-07
0003d0 6f 90 70 34 62 b9 8d 34 fe 78 8e 34 91 2e 77 34
       2.2404286e-07 2.639818e-07 2.6537595e-07 2.3020608e-07
0003e0 3f 3c 58 34 a8 38 63 34 c5 84 83 34 b3 e0 8a 34
       2.0138485e-07 2.1161634e-07 2.4497254e-07 2.5867993e-07
0003f0 23 9e 7d 34 6c 8a 5b 34 d4 70 52 34 e6 e4 5e 34
       2.3619991e-07 2.0446322e-07 1.959882e-07 2.0758634e-07

exp_avg f4 [8]
000000 d9 5d 2d 32 a2 2c 07 b2 ee df ba b0 52 da f6 31
       1.0091264e-08 -7.8681825e-09 -1.3596926e-09 7.1843624e-09
000010 be f1 9c 31 82 ec f0 b1 f1 cc f8 30 72 ae 94 31
       4.5676805e-09 -7.011807e-09 1.8102623e-09 4.327199e-09

exp_avg_sq f4 [8]
000000 b7 a3 a2 26 bb 8f 1c 27 b0 7f 2d 26 d8 8b 41 26
       1.1285383e-15 2.1727265e-15 6.019448e-16 6.714985e-16
000010 ba 79 03 25 fe cb 7a 26 af 07 72 25 df b7 02 26
       1.1403681e-16 8.7012635e-16 2.0992757e-16 4.5352e-16

exp_avg f4 [8]
000000 9f 8a 4b b0 5f a9 2e 30 5f 91 e4 ae 70 db af 30
       -7.404796e-10 6.354152e-10 -1.0394063e-10 1.2795294e-09
000010 33 3c 99 2d f4 c0 2d b0 c3 28 9b af 9d da 73 b0
       1.742082e-11 -6.3211236e-10 -2.82233e-10 -8.8713553e-10

exp_avg_sq f4 [8]
000000 c5 b3 1e 23 0c 71 8a 23 73 84 34 23 cf cc d3 22
       8.603265e-18 1.5009867e-17 9.785867e-18 5.7408514e-18
000010 7d 01 5f 21 22 3e 38 24 65 95 4d 22 85 2e 00 22
       7.555731e-19 3.995127e-17 2.786177e-18 1.7371862e-18
