model/all_subjects_20240205_181004/checkpoints/epoch1_0.5547.pt (torch, 195725 bytes, 39 tensors)

net.conv.weight f4 [8, 1, 1, 256]
000000 55 e8 3f 3d 1b c1 3b 3e 8f c6 4a 3e b8 2e 4d 3e
       0.04685243 0.18335383 0.19802307 0.20037353
000010 67 40 9d 3e 00 16 8f 3e 99 78 7a 3e 2c a0 a0 3e
       0.30713198 0.27946472 0.24460067 0.313722
000020 ce 08 10 3e 91 63 19 3e 97 ab 04 3e eb 1b 05 3e
       0.14065859 0.14979388 0.12956081 0.12998931
000030 29 ab 48 3e 82 01 93 3e 94 09 ab 3e 56 bd d9 3e
       0.19596542 0.28712088 0.33405745 0.42527264
000040 ed cc b6 3e 97 80 8c 3e 07 d1 78 3e 35 9b 99 3d
       0.3570322 0.27441856 0.24298488 0.075003065
000050 0a a6 54 3d 72 44 31 3b 8a 7d f0 3c 9a 75 ab 3d
       0.05191616 0.0027048853 0.029356737 0.0837204
000060 54 18 54 3e 5b d9 48 3e f9 71 a5 3d 6a 64 d6 3c
       0.20712405 0.19614165 0.08078379 0.026170928
000070 6f 8a 4a 3c ec 89 39 be e8 cc 10 be 7a 18 49 be
       0.012362107 -0.1811902 -0.14140666 -0.19638243
000080 58 fa 59 be 6b d2 f2 bd fb cb 67 3d d4 db f9 3c
       -0.21286905 -0.1185654 0.056591015 0.03050033
000090 a7 e1 b5 3d 1d 5a c0 3c 64 c9 d8 3c 3e 49 b1 bd
       0.088809304 0.02348047 0.026463218 -0.08656548
0000a0 e9 0a fe bd 6f cc 32 be 8f d5 3e be aa 72 00 be
       -0.12404425 -0.17460798 -0.18636154 -0.12543741
0000b0 ed 68 8d bd eb db 91 3d 54 70 12 bd 8c c8 14 3c
       -0.06904779 0.07122024 -0.035751656 0.009081017
0000c0 23 73 67 bd b3 da 1a be 37 28 00 be f8 c1 f9 bd
       -0.056506287 -0.1512249 -0.12515341 -0.121952
0000d0 eb c4 56 be c7 5f c3 bd a7 4f ad bd 5e d6 f0 3c
       -0.20973556 -0.095397525 -0.08462458 0.029399093
0000e0 fb 8b 8c 3c a2 3a d6 bc 65 aa 2e bd 81 32 3d 3a
       0.017156592 -0.026151005 -0.04264297 0.00072173035
0000f0 49 7a 79 bd 02 fc 07 be dc 7a e1 bd e5 a9 08 bc
       -0.060907636 -0.13279727 -0.11009762 -0.008341287
000100 83 85 48 3d 68 b7 dc 3d 00 c6 49 3d c0 c6 93 3d
       0.04895545 0.107771695 0.049261093 0.07215643
000110 c0 3d 2d 3d 82 87 0b 3c 17 c5 96 3d 9e c7 39 3d
       0.042295218 0.008516194 0.07361811 0.045356385
000120 d1 81 83 3d 79 fa 80 3b 0c a6 11 3d f2 87 08 3e
       0.06421245 0.0039361087 0.035558745 0.13333109
000130 2e 1c 13 3e c4 90 e1 3d e8 a5 78 3d 1a 70 e6 3d
       0.14366218 0.1101394 0.060705096 0.112518504
000140 db 32 52 3d c2 73 4e 3d 32 d0 34 bd 17 cb 98 3d
       0.05131803 0.050403364 -0.044143863 0.07460611
000150 cd fe 48 3d 15 e6 2e 3d d4 a2 c5 3d ca ab 0e 3e
       0.049071122 0.042699892 0.096501976 0.1393272
000160 02 da c8 3d d5 b5 17 ba 64 ac 84 bc 6f 29 dc bd
       0.09807207 -0.0005787288 -0.016195484 -0.1075009
000170 79 0c 2b be 99 06 13 be 91 ff 30 be d1 96 9a bd
       -0.16703977 -0.14357986 -0.17284991 -0.07548297
000180 80 3f d1 bc 0c 98 76 3d 97 56 4c bd 29 1e 23 be
       -0.025542974 0.060203597 -0.049887266 -0.15929474
000190 37 f4 8d be a0 ca a2 be 12 fc b4 be d1 ae 96 be
       -0.27725384 -0.31795216 -0.35348564 -0.2943025
0001a0 f4 3c 8a be 3e 32 57 be 97 17 98 bd 11 82 bb bd
       -0.2699963 -0.2101526 -0.074263744 -0.091556676
0001b0 71 cd 9a bd 94 b4 22 be 1e cd 01 be ec 28 75 be
       -0.07558716 -0.15889198 -0.12675902 -0.23941392
0001c0 7c 73 6b be 8b 9b 98 be 01 82 52 be 09 f2 61 bd
       -0.22993273 -0.2980617 -0.20557405 -0.055162463
0001d0 60 84 49 3d ae b3 49 3e f2 ba 4d 3e b0 c3 6a 3e
       0.04919851 0.19697449 0.20090845 0.22926211
0001e0 83 72 04 3e d1 25 20 3e d5 fa a7 3c 0f b7 88 3d
       0.12934308 0.15639426 0.020505348 0.06675541
0001f0 03 d4 71 3d d5 c9 2b 3e a2 d6 5b 3e 8b 60 64 3e
       0.05904008 0.16776212 0.21468595 0.22302453
000200 f2 bb 88 3e 7d b3 3d 3e c8 66 42 3e bf 16 26 3e
       0.2670589 0.185255 0.1898452 0.16219614
000210 be 8a 81 3d 9f 78 03 3e 98 41 48 3d 83 7d d2 3d
       0.06325291 0.12838982 0.04889068 0.10277846
000220 1b e8 21 3e ea d8 4c 3e ad ca 60 3e c5 f5 86 3e
       0.15811197 0.20004621 0.21952315 0.26359382
000230 53 ac 1e 3e bf 57 27 3e 4b 5c 91 3d 39 90 d3 3c
       0.15495424 0.16342066 0.070976816 0.025825607
000240 ca b6 84 3d a3 a2 1c 3e bd d0 01 3e 77 3a 0f 3e
       0.06480177 0.15296416 0.12677284 0.13987146
000250 10 df 18 3e 31 04 65 3e b6 27 16 3e 9c 0d 53 bd
       0.14928842 0.2236488 0.14663586 -0.05152665
000260 3d 89 f0 bd a8 b9 1e be 48 d7 e0 bd 5e 21 95 bd
       -0.11744926 -0.1550051 -0.10978562 -0.07281755
000270 34 f1 16 bd 22 3d ad 3c a2 35 13 3c 4d f9 bb 3c
       -0.036851123 0.021147314 0.008984955 0.022946024
000280 ca 56 ad bd aa e5 f2 bc c7 55 20 be 94 dd 4b be
       -0.08463819 -0.029650528 -0.15657721 -0.19908744
000290 30 36 24 be d8 63 e1 bd 39 5a b9 bd 4b 3f b8 bd
       -0.16036296 -0.11005372 -0.09050412 -0.08996447
0002a0 eb 98 83 bd 5e 94 40 3d 6e a4 9e bd 36 dd f8 bc
       -0.06425651 0.047016494 -0.07746206 -0.03037892
0002b0 8c fe d8 bd ee da 28 be 36 8b 03 be d2 c1 2f be
       -0.10595426 -0.16489765 -0.12846074 -0.1716378
0002c0 c0 30 a5 bd 3e 06 ff 3c 5a 9e 64 3d 30 b9 b6 3d
       -0.08065939 0.031130906 0.05581508 0.089220405
0002d0 e8 3b 77 bb 76 b0 15 bd f1 c6 4c bd fd 64 99 bd
       -0.0037724916 -0.03654524 -0.049994413 -0.07489965
0002e0 28 3b 19 be 97 37 07 be 4b 37 f5 bd 5c a0 cd 3b
       -0.14963973 -0.132048 -0.11973437 0.00627522
0002f0 80 7a 0c 3c 0d d8 17 bd f1 00 83 3c b6 93 06 bd
       0.008574128 -0.037071276 0.01599166 -0.032855712
000300 65 47 fc bd ff eb cd bd e4 54 54 be 9c ac 04 be
       -0.12318305 -0.10054778 -0.20735508 -0.1295647
000310 88 14 27 be 61 7a 2d bd 85 85 c7 bd d3 98 70 3c
       -0.16316426 -0.042353038 -0.09742264 0.014684874
000320 7c 5d 1b bc 89 b1 8c bc f8 a9 e4 bd 74 e7 00 be
       -0.009482738 -0.0171745 -0.111652315 -0.12588292
000330 e9 c3 53 be 00 c7 4c be 3d 7b e3 bd 1c 84 05 be
       -0.20680203 -0.19997787 -0.1110749 -0.13038677
000340 2e eb 88 bd 55 2c 11 3d 6b d6 a2 3c c1 00 06 bc
       -0.06685482 0.03544267 0.019877633 -0.008178891
000350 c3 1f e9 bc 04 69 84 bd 09 26 eb bd 96 f6 5c be
       -0.028457528 -0.06465343 -0.11481864 -0.2157844
000360 f4 df 5a be 6d 99 37 be 99 2c b1 bd e5 bb 02 3d
       -0.21374494 -0.17929621 -0.086510845 0.03191747
000370 ba ff 11 bd 14 48 b4 3d 05 a8 9c bb 81 c1 16 be
       -0.03564427 0.0880281 -0.0047807717 -0.14722253
000380 cd d1 50 be c1 4d fa bd ab cb 01 be 43 2c 23 be
       -0.20392533 -0.12221862 -0.1267535 -0.15934853
000390 22 76 d2 bd 39 c1 bc 3c 56 b3 a2 3d 8f 01 7e bb
       -0.10276438 0.023041354 0.07944362 -0.0038758253
0003a0 da 67 71 3c 7c 5f 63 bd a6 f6 61 be c8 c9 78 be
       0.014734233 -0.055510983 -0.22066745 -0.24295723
0003b0 ef b0 84 be 08 b9 53 be e1 cb 83 bd a3 a4 ae bc
       -0.2591624 -0.20676053 -0.06435371 -0.02131874
0003c0 e3 94 c2 3d c0 ab c3 3d e1 9e 5b 3d 29 b0 7b 3d
       0.09501054 0.09554243 0.053618316 0.061447296
0003d0 f5 fa 07 bd d0 7e de 3c bc 2f b0 bc ce af 22 3d
       -0.033198316 0.027160078 -0.021507137 0.03971844
0003e0 7a fb 2c bc d7 33 97 3d 99 d9 b9 3d 71 80 13 3e
       -0.010558004 0.073829345 0.090747066 0.14404465
0003f0 91 8e f7 3d 62 85 2a 3d 2a e5 2c bd a0 24 9a bd
       0.12087739 0.04163111 -0.042210735 -0.07526517

net.bn1.weight f4 [8]
000000 c4 44 4b 3f 2e 88 a2 3f af fc a8 3f ee 21 8c 3f
       0.79401803 1.2697809 1.3202113 1.0947855
000010 ce 2d 6f 3f f4 a8 b0 3f 27 b3 69 3f 67 2a 34 3f
       0.9342927 1.380156 0.9128899 0.703772

net.bn1.bias f4 [8]
000000 9f 8c 77 3b 7c 52 38 bd a5 4d 3d 3d df fb 93 bc
       0.0037773026 -0.04500054 0.046216626 -0.018064437
000010 a3 df 28 bd ac f0 7e bd b0 ed ee 3b 85 0a 5d 3d
       -0.0412289 -0.06224124 0.007291518 0.05396511

net.bn1.running_mean f4 [8]
000000 fd 7c dd 39 7b a9 91 3a 1a ba 72 3a 21 a3 e5 b9
       0.00042245528 0.0011113131 0.00092592987 -0.00043799824
000010 55 77 39 ba fc d6 df 3a 42 ab 37 ba c9 9a c3 b8
       -0.0007074972 0.001707762 -0.00070064154 -9.3271556e-05

net.bn1.running_var f4 [8]
000000 79 82 3b 42 aa cc 22 43 5e ef cd 42 3e c1 87 42
       46.877415 162.79947 102.967514 67.877426
000010 a1 27 90 42 b4 11 1c 43 d5 e8 8c 42 15 21 13 42
       72.0774 156.06915 70.45475 36.782307

net.depth_conv.weight f4 [16, 1, 32, 1]
000000 02 12 04 3f c6 52 55 3e 5f 2c 9f 3e 06 30 6d 3d
       0.5158998 0.20832357 0.3108854 0.057907127
000010 e4 6b ac 3d ba e4 b1 be e6 b9 3c 3e 73 31 9c 3e
       0.08419016 -0.34744817 0.1843029 0.30506477
000020 6e bb 3f 3e 08 95 3e 3e 7d 58 28 3d 3a fb 5e be
       0.18723843 0.18611538 0.041100014 -0.21775523
000030 99 1c 2c 3e 7d 80 a2 3e 33 bd 54 bd d8 b0 ef 3c
       0.16807784 0.31738654 -0.051938247 0.02925913
000040 a7 49 51 be 1c 6e 69 be 6f 77 0a be 8b 7a c9 be
       -0.20438252 -0.2279591 -0.13522123 -0.39351305
000050 ec 00 f8 be d0 42 59 3d 0c c7 6f b9 2f bd 97 3d
       -0.48438203 0.053042233 -0.00022866967 0.07409131
000060 07 45 c1 bd f7 16 80 be 58 46 4a 3e 94 be 20 be
       -0.09436994 -0.2501752 0.19753397 -0.156977
000070 ce 98 d2 bd 73 5d e1 be f9 ab 56 bc 7c 14 e2 bc
       -0.102830514 -0.4401661 -0.013102525 -0.027597658
000080 e3 93 c6 3e 0d d6 c8 3b 26 c1 9c 3e cc 1c 12 3e
       0.38784704 0.0061290325 0.3061611 0.14268798
000090 50 f9 1e be e5 af d9 3d 76 a6 e4 bc f2 e8 63 be
       -0.15524793 0.10629252 -0.027911406 -0.2225683
0000a0 7e e6 ac bd 52 22 34 3e c4 ce 2c be 2b cf e9 ba
       -0.084424004 0.17591217 -0.1687575 -0.001783823
0000b0 bc 49 ce bd 12 de b9 bc 4b db d3 3c 83 55 41 3d
       -0.100726575 -0.0226889 0.025861403 0.04720069
0000c0 9b 6c 96 3e 4c f8 d5 be 99 ab ee bd c7 c2 1a bd
       0.29379734 -0.41790998 -0.116538234 -0.03778341
0000d0 df 8e 1c 3d 2c 03 a9 3c 5b 01 09 3e 7e 62 d8 bd
       0.03822219 0.020631395 0.13379423 -0.10565661
0000e0 ff e5 0d 3e f7 e5 89 3e dd 22 b5 bd 2f 6f be 3e
       0.13857268 0.26933262 -0.0884454 0.371942
0000f0 76 91 8e 3e 1c a9 b4 3d 2e 3a 14 3e 91 5c 4b 3e
       0.27845353 0.088213176 0.14475319 0.1985953
000100 f1 56 7f 3d 7f 85 ea 3e 43 31 1a 3e f8 d2 80 be
       0.062338773 0.45804974 0.15057854 -0.25160956
000110 57 ad d0 3e c1 e9 8a be 65 6a 70 3d 1d 9f d9 3e
       0.40757248 -0.27131465 0.058695216 0.42504206
000120 ab ab 9a 3d 1b e0 3a bf ed 52 5e be d0 ed b6 3d
       0.07552274 -0.7299821 -0.21711321 0.08932078
000130 cc e6 09 be 2e 10 e2 3e 0c 39 4c be e9 7b a2 be
       -0.13466948 0.4415297 -0.19943637 -0.3173516
000140 7c 31 cc 3d ba 88 72 be 90 41 dd 3e 80 68 e1 3e
       0.09970376 -0.2368497 0.43214083 0.4402504
000150 18 44 32 3e c6 c9 1e 3d 5d 8f f4 be b4 66 5d 3e
       0.17408788 0.038766645 -0.47765628 0.2162121
000160 05 97 31 bf 79 08 99 be fa 6d 2c 3d ca 22 3f bc
       -0.6937106 -0.29889277 0.04209707 -0.011666009
000170 a4 12 b3 be 2f 9b a0 bd a5 f2 8e 3e d1 cf 31 3e
       -0.3497516 -0.07842099 0.27919498 0.17364432
000180 e6 25 77 bd 3d d1 d7 be 73 a1 a3 be 0c 91 71 3d
       -0.060338877 -0.42151824 -0.31959113 0.058976218
000190 8e 89 34 bf 36 0c 9d be 0d da 0a be 03 5e 7b bd
       -0.7052239 -0.3067338 -0.13559742 -0.061368953
0001a0 02 8a 4b be 31 bb c0 3e 6c f2 57 3d 05 0a 0e 3d
       -0.19876865 0.37642816 0.052721426 0.034677524
0001b0 a3 b5 af bd d9 5d 6a be 61 da e9 bc f2 e1 28 3e
       -0.08579566 -0.22887363 -0.028546514 0.16492441
0001c0 03 a5 b4 be fa e5 05 3e 37 f2 71 bd ef d9 0f 3e
       -0.35282144 0.1307601 -0.059068885 0.14047979
0001d0 13 80 8c bd e6 64 74 3d 27 3c 0d 3f 1d 5a 10 3e
       -0.06860366 0.059666537 0.5516991 0.14096875
0001e0 8b d5 e3 3e c4 63 86 3d d9 ab dd 3e 31 24 82 3c
       0.44498858 0.065619975 0.43295172 0.015886398
0001f0 f2 a4 9b 3e de f1 02 bd fa 5a 8a be c1 e8 47 bd
       0.3039928 -0.031968944 -0.27022535 -0.048805956
000200 80 c7 0e 3e 33 c6 ee be e3 1f 84 be a0 2d 61 3e
       0.1394329 -0.4663559 -0.25805578 0.21990061
000210 af 2f 05 bf aa c7 5e bd a2 d7 6e 3d 31 7c 63 be
       -0.52025884 -0.054389633 0.058311112 -0.22215344
000220 9b 3e 61 bd 6b 96 0f 3f 06 d4 40 3e e6 b6 c6 bd
       -0.054991346 0.56088895 0.1883088 -0.09702854
000230 c6 ba 16 be f5 2c 8e be 06 94 d9 3d b0 25 b6 3e
       -0.14719686 -0.27768674 0.10623936 0.35575628
000240 c1 0c 8b be e5 e6 69 3d 9f a5 bc be 79 f4 ed 3c
       -0.27158168 0.057104964 -0.3684511 0.029047238
000250 87 fb a0 be 55 b0 4c 3d 2b d3 08 3f 47 e2 28 be
       -0.314419 0.04997285 0.53447217 -0.16492568
000260 88 a5 df 3e f8 85 79 3d 24 c9 be 3d 6c 84 66 3e
       0.43680978 0.06091878 0.09315708 0.22511452
000270 06 2b 12 3e a2 9b a6 bd e1 c6 fe bc a7 3d b6 3d
       0.14274225 -0.08135153 -0.031100692 0.08898478
000280 ae e6 01 3d 17 d9 a5 bc ab 32 a6 3d 68 55 54 be
       0.031714134 -0.020245118 0.08115133 -0.20735705
000290 c3 a2 fe be dc fc 7d 3d 91 70 b9 3e 1a a8 00 3f
       -0.49733552 0.062008724 0.36218694 0.502565
0002a0 60 2c 88 be 4e 3b 18 bf 27 34 49 be 71 2d 07 3f
       -0.26596355 -0.5946549 -0.19648801 0.52803713
0002b0 1b 6f 97 3e d8 50 2c 3e 84 05 65 3d b8 cc a9 bd
       0.29576954 0.16827714 0.055913463 -0.08291
0002c0 7e 6c 00 3f 1c f6 48 be 69 35 7e 3e d3 3a 8c 3c
       0.50165546 -0.19625133 0.24825062 0.017117893
0002d0 82 1a 86 3e a3 25 48 be ac b9 a5 be c7 4a 3f 3f
       0.261921 -0.19545607 -0.3236822 0.74723476
0002e0 d3 2b a7 be f4 ed a5 be ad 6f 3f 3f ed f9 89 be
       -0.32650623 -0.32408106 0.7477978 -0.2694849
0002f0 86 d9 1b be b5 b4 a4 3e 48 14 62 3e b6 4c 18 3e
       -0.15219697 0.3216912 0.22078049 0.14873013
000300 0c 3f 9f 3e b1 b6 c9 3e cf 1c 84 3e 38 1d c1 be
       0.31102788 0.39397195 0.2580323 -0.37717605
000310 35 05 76 bd b8 18 9d 3d 2d 99 99 3d fe 8a e5 3d
       -0.06006356 0.0767073 0.07499919 0.11208151
000320 70 8d 84 3d c4 47 a6 be 43 50 b0 be 9b fb 80 bd
       0.064722896 -0.32476628 -0.34436235 -0.0629799
000330 e4 e2 0f be 4a 2f c3 be 88 06 7f 3d 18 9a 60 3e
       -0.14051396 -0.38122016 0.062262088 0.21933782
000340 71 9c 5b 3e 1b 7f 8a 3e 2d ca 12 3e 4b e6 f0 be
       0.21446396 0.270501 0.14334936 -0.470507
000350 41 31 f9 bd aa e2 04 3f 6a c7 d6 be fb ac ae be
       -0.121675976 0.5190836 -0.41949016 -0.3411635
000360 0d 58 e4 3d 97 f7 08 3d 60 18 1e 3e fe 90 ab 3e
       0.11149607 0.033439245 0.15438986 0.33509058
000370 00 0c 29 bd c7 27 95 3e 68 c2 95 bc 8c fb e0 3c
       -0.04127121 0.2913191 -0.018281177 0.027463697
000380 25 ad 47 bd 62 92 e4 bd a4 67 4f 3e c2 b9 1f bf
       -0.048749108 -0.11160733 0.2025438 -0.6239282
000390 1d 65 ee 3e eb c5 38 3e 49 72 50 be 11 4e 44 3b
       0.46561518 0.1804425 -0.20356096 0.0029953758
0003a0 5e 99 b4 3e bf e4 3a 3e 87 b5 97 be 43 ec 86 3d
       0.3527326 0.18251322 -0.29630682 0.06588032
0003b0 04 ae 2a be ba 19 f6 be 2a ef 89 3c 30 e5 40 3f
       -0.16667944 -0.48066503 0.016837675 0.7534971
0003c0 b3 01 5c 3e db 68 31 bd 99 b2 da 3d d9 00 bd 3d
       0.21485023 -0.04331289 0.10678596 0.09228677
0003d0 02 e0 57 3e c6 9f 08 3e 50 54 6c be 22 72 b2 bd
       0.21081546 0.13342199 -0.23079038 -0.08713175
0003e0 d4 73 c4 3e d0 4b 03 bf a3 3c cf bb 84 20 57 3e
       0.3836962 -0.51287556 -0.006324367 0.21008497
0003f0 15 fd 06 3d e7 37 fe 3d 57 cf 82 3d 6f 9a 27 bb
       0.0329562 0.12413006 0.06387203 -0.0025574227

net.bn2.weight f4 [16]
000000 85 c1 5a 3f be fa f6 3e 2e 99 d9 3f f2 90 ae 3f
       0.8545154 0.48238176 1.6999872 1.3637984
000010 67 ea 84 3f 62 ad dd 3f 9b 42 88 3f 25 c5 89 3f
       1.0384034 1.7318537 1.0645326 1.0763289
000020 85 b1 d7 3e 8b da 48 3f 1e c3 b8 3f 89 02 ce 3f
       0.42127624 0.7845847 1.4434545 1.6094524
000030 6d f4 82 3f 91 89 7c 3f d6 91 77 3f 40 37 10 3f
       1.0230843 0.9864741 0.96706903 0.56334305

net.bn2.bias f4 [16]
000000 1a 45 99 bc 5a 18 3d be b7 6f ba be 11 e5 57 be
       -0.018709708 -0.1846632 -0.36413357 -0.21083476
000010 56 a9 31 be 0d 0b 87 be 67 f6 e6 bd d5 73 a8 be
       -0.17349753 -0.2637562 -0.11277466 -0.32900873
000020 27 aa 2d bd 7a 30 8d be 38 2e c9 be f2 10 d1 be
       -0.042398598 -0.27576047 -0.39293075 -0.4083324
000030 09 18 f9 bd e7 7e 80 be 10 9d 40 be df 67 94 bd
       -0.121627875 -0.2509682 -0.18809915 -0.07246374

net.bn2.running_mean f4 [16]
000000 73 c0 d7 b9 83 35 de 3b 00 f5 68 3c 48 e0 96 3c
       -0.0004115138 0.0067812814 0.014218569 0.018417493
000010 18 0f f8 3a af fe 99 3d 7b 7d 17 bc 07 9b 8e bc
       0.0018925397 0.0751928 -0.0092462255 -0.017407907
000020 fd e8 bf 3b 2d b2 8c bd 99 55 fb 3c 52 69 a0 bd
       0.005856632 -0.06869922 0.030680465 -0.07832588
000030 9b 13 9a 3a 67 3e 24 bc 7d 7a a3 bd 62 b0 9f bd
       0.001175511 -0.0100246435 -0.07982347 -0.07797314

net.bn2.running_var f4 [16]
000000 50 42 23 40 3f 50 04 40 45 99 9d 40 16 3a b7 40
       2.5509224 2.0673978 4.9249597 5.7258406
000010 d4 8a 37 40 9f c4 32 41 8f 08 c9 40 fc e0 11 41
       2.8678484 11.173003 6.2822948 9.117428
000020 83 d6 36 40 65 8f da 40 a4 bf fc 40 4e 43 1a 41
       2.8568428 6.830004 7.8983936 9.641432
000030 f8 75 d5 40 cc c0 e5 40 40 0d a8 40 c9 26 2f 40
       6.6706505 7.179785 5.2516174 2.7367423

net.point_conv.weight f4 [16, 16, 1, 16]
000000 0a 84 82 3e 41 ea 24 3e 3d e2 58 3e 2a b9 a8 3c
       0.25491363 0.16104986 0.21180053 0.020596106
000010 c0 fb a3 bc e2 f9 bf bd 2b 36 0b be 35 4d 08 be
       -0.020017505 -0.09373833 -0.13594882 -0.13310702
000020 27 1a 34 be 50 4f d3 bd bb 0e 23 be 8b 74 77 bd
       -0.17588101 -0.10317862 -0.15923588 -0.06041388
000030 c5 5f 8d bc f4 c4 79 3c 3b 26 a4 bc 8a 28 b7 3c
       -0.01725758 0.015244711 -0.020037761 0.022358198
000040 39 f3 6b bc 8e 5a 12 bd 9f 8c 9d bc d6 3e 90 bd
       -0.0144012505 -0.03573089 -0.019232092 -0.07043235
000050 f1 71 12 be 21 5c e3 bd 75 a8 1f be d2 c9 d1 bd
       -0.14301278 -0.111015566 -0.15591605 -0.10243572
000060 78 e0 3f be 26 34 27 be 7a 65 31 be 48 4f 10 be
       -0.18737972 -0.16328487 -0.17323866 -0.14092743
000070 02 db bc bd 35 3c de bd d4 2f 0b be 4a d3 7a bd
       -0.0922146 -0.10851327 -0.13592464 -0.061236657
000080 1a c2 f6 bd d8 0e 1a be 08 7c 72 be 73 8a 65 be
       -0.12048741 -0.15044725 -0.23680127 -0.22416095
000090 e6 fe 77 be 2a 40 c0 bd 2b 21 8b bd c3 28 1a bd
       -0.2421833 -0.09387238 -0.06793436 -0.03763653
0000a0 c5 b2 0c 3d 09 7e 82 bc 71 55 c9 3d 69 f6 5c 3e
       0.034350175 -0.015929239 0.0983075 0.21578373
0000b0 e4 de 6f 3e 93 f2 8d 3e de 23 1f 3e af d3 af 3d
       0.2342487 0.27724132 0.15541026 0.08585297
0000c0 ef 8a 11 3c b9 9f 8b 3d be d9 46 3e e0 44 86 3e
       0.008883222 0.06817574 0.19419 0.26224422
0000d0 4f 58 6e 3e 4c 9a 84 3e 42 cd 47 3e 81 12 1d 3e
       0.23275875 0.2589897 0.19511893 0.1533909
0000e0 70 ee 32 bd 9b 8e 5a bc 80 1c 1e be 55 d2 d0 bd
       -0.043684423 -0.013339664 -0.1544056 -0.10196368
0000f0 be e3 0f be 68 4a ca bd 7f b9 21 3b 24 c8 65 3d
       -0.1405172 -0.09877473 0.0024677215 0.056099072
000100 6c 91 b7 bd 95 e2 bc 3d ea eb 22 3e 1d 8e 57 3e
       -0.08963284 0.092229046 0.15910307 0.21050306
000110 4c 3b 81 3e a6 ca 91 3d fa d7 3a 3d c3 0d ad bd
       0.25240552 0.0711873 0.045616128 -0.084498905
000120 5f df 9e be 91 7d d1 be 58 ad c2 be e1 96 26 be
       -0.31029794 -0.40916112 -0.38022876 -0.16268493
000130 f9 fa f0 bd 8b e1 d1 3d b8 51 4b 3e c5 b2 30 3e
       -0.11766619 0.10248097 0.19855392 0.17255695
000140 3a 4a f0 bb d9 6a d4 bd 7c 20 59 be 7d 2c 45 be
       -0.0073330672 -0.10371942 -0.21203798 -0.19255252
000150 59 11 89 3b 54 1c 69 3c bf db 6b 3e 7b 7f 9d 3e
       0.004182976 0.014227945 0.23033045 0.30761322
000160 7c fb 89 3e a0 1c cb 3e a1 e4 a0 3e 2d e8 64 3e
       0.2694968 0.39670277 0.3142443 0.22354193
000170 50 be 6a 3c 1d 5a 3d be 68 62 39 be 51 f4 5c bd
       0.014327601 -0.18491407 -0.18103945 -0.053943936
000180 17 8e a1 3d 43 7b a5 3d e0 a6 cd 3d e8 f6 d3 3d
       0.078884296 0.08080151 0.100415945 0.10349828
000190 54 4c 16 3e ed 5f 3b 3e 73 80 0d 3e e4 ac fb 3d
       0.14677554 0.18298312 0.1381853 0.12288836
0001a0 fb eb 03 3e c5 35 89 3d bd 57 a4 bc 98 28 9b bd
       0.12882988 0.06699709 -0.020061368 -0.07576102
0001b0 9c dc 86 bd 63 3e b9 bd 82 d0 fa bc a1 94 c1 3c
       -0.06585047 -0.090451024 -0.030617002 0.023630442
0001c0 ca 0f 93 be c0 1d 9c be 11 b9 73 be 41 fa 17 be
       -0.28722984 -0.30491447 -0.23801066 -0.14841558
0001d0 38 ea a2 bc d4 76 29 3d 46 b9 eb 3d dc 72 ea 3d
       -0.019887075 0.04137309 0.115099475 0.11447689
0001e0 aa 89 cb 3d 76 58 c8 3d 9d 00 0d 3e 49 69 2f 3d
       0.09938367 0.097824976 0.13769765 0.042825017
0001f0 5e 8b 0c 3e 81 57 15 3e b6 a5 05 3e 41 92 31 3d
       0.1372504 0.14584161 0.13051495 0.04335237
000200 3c 2e 04 3d ca fd 4c 3d 5c 65 bc 3d 27 05 bf 3d
       0.032270655 0.05004672 0.0919902 0.093271546
000210 dc 26 d9 3d 55 47 a0 3d 2a eb 34 3e 19 75 e0 3d
       0.10603115 0.078261055 0.17667833 0.109598346
000220 4e 3a eb 3d e7 da ca 3d c2 56 8f bd b6 05 7c bd
       0.1148573 0.099050336 -0.069989696 -0.061528884
000230 8e a6 40 be 81 47 20 be e2 65 24 be a6 fd a9 bd
       -0.18813536 -0.15652277 -0.1605449 -0.08300333
000240 87 40 10 3d 7f eb aa 3d 3a 27 bb 3c c9 d6 66 3c
       0.035217788 0.083456986 0.022845853 0.014089295
000250 af 59 d5 3c 2b cb d7 3c 18 9e 87 bc 8b e3 a2 bd
       0.026043741 0.026341995 -0.016554877 -0.079535566
000260 56 ac b4 bd db df c7 bd 4a b3 fa bc 46 b9 50 bc
       -0.08821933 -0.09759494 -0.03060307 -0.012739485
000270 9b 6f 2d 3d fa 87 75 bd d2 22 15 bd fb 32 7e bd
       0.042342763 -0.05994413 -0.03641016 -0.062060338
000280 4a ad c3 bd 5e 46 9f bd af 0a 39 be e7 aa 8c be
       -0.09554537 -0.07777093 -0.18070482 -0.27474138
000290 98 60 af be ae 52 d6 be 15 c4 71 be 63 89 b0 bd
       -0.34253383 -0.41859955 -0.23609956 -0.086199544
0002a0 ae b4 1b bc 9d c1 79 bd c0 65 24 bd 1f 1f c6 bc
       -0.009503527 -0.06097566 -0.0401361 -0.024184762
0002b0 f1 9e 27 bc c0 8f 0b be 66 c4 5a be a4 d9 8f be
       -0.010230766 -0.13629055 -0.21363983 -0.28095734
0002c0 09 fe 81 3d 7c d8 9d bd 72 54 a2 bd 12 2f 2b be
       0.063472815 -0.07707307 -0.07926263 -0.16717175
0002d0 21 a2 20 be 7a cd 38 be 56 5a 8e bd 6c 53 84 3d
       -0.15686847 -0.18047133 -0.06950824 0.06461224
0002e0 89 e7 ea 3d 5a 91 5f 3e 40 1c 18 3e 6b 47 54 3e
       0.11469943 0.21832791 0.14854527 0.20730369
0002f0 db 1c 18 3e 4f db 88 3d 16 51 f2 bd f2 4b 46 be
       0.14854757 0.06682455 -0.11831872 -0.19364908
000300 1c e4 39 3c 59 0c e3 bc 2c 5d d4 3c 40 94 6b 3d
       0.011345889 -0.027715849 0.025923334 0.05751443
000310 81 3a 34 3e ec 88 5b 3e 15 75 95 3e 88 8b 9a 3e
       0.17600442 0.2143895 0.2919089 0.3018458
000320 ce a6 a0 3e 8a 28 a7 3e f5 ef 5f 3e 8f 09 b9 3d
       0.31377262 0.32648116 0.2186888 0.09035026
000330 f3 04 f7 bc b0 43 11 bd c9 be d0 bd 48 ef cc bd
       -0.030153727 -0.035464942 -0.101926394 -0.10006577
000340 4c 80 91 be b8 09 9b be d8 9f 7b be 88 5e bb be
       -0.28418195 -0.30280852 -0.24572694 -0.3659556
000350 d3 a7 70 be ab 78 e6 bd b2 63 e1 bd d2 88 e9 3c
       -0.2350152 -0.11253484 -0.110053435 0.028507624
000360 6f 5e 4d bd 16 0f 6a 3d d4 a3 8f 3b 0b 4f ae 3d
       -0.050138887 0.057143293 0.0043835435 0.0851117
000370 02 98 7e 3d d5 e8 96 3d d2 c5 86 bc f0 af a6 3d
       0.062156685 0.07368628 -0.01645175 0.08139026
000380 a1 37 51 bc c4 54 78 3d 6c 1f 91 3d f7 46 ac 3d
       -0.012769611 0.060627714 0.07086071 0.08411973
000390 31 9d 8d bc 2f e3 02 bc bc 94 bd bd 10 5a 84 bd
       -0.017286869 -0.007988735 -0.092568845 -0.064624906
0003a0 de ca 64 bd c9 71 d2 bd b0 81 43 be 8f 9c 04 be
       -0.05585753 -0.10275609 -0.1909244 -0.12950347
0003b0 2d 94 05 be d5 6e b1 bd aa f9 48 bd dd cf 9a 3d
       -0.13044806 -0.08663718 -0.049066223 0.07559178
0003c0 d4 50 37 3e c4 13 44 3e 96 72 a5 3d 2b 35 05 3e
       0.17901927 0.19148165 0.08078496 0.13008563
0003d0 bf 8f dd 3d b6 33 91 3d 44 54 c4 bc 9c 62 96 bd
       0.10818433 0.07089941 -0.023965962 -0.07343027
0003e0 67 09 80 bd 78 d7 44 be 85 65 03 be 6b b2 d9 bd
       -0.06251793 -0.1922282 -0.12831695 -0.10629734
0003f0 3c 4c 6a bd a6 00 3e bd 09 1f c7 bd ee 98 ee bc
       -0.05720161 -0.046387337 -0.09722716 -0.029125657

net.bn3.weight f4 [16]
000000 80 59 62 3f 5a 49 87 3f b6 ab 9d 3f 06 62 96 3f
       0.88417816 1.056926 1.2318027 1.1748664
000010 03 20 89 3f 68 1c 93 3f d1 93 98 3f 25 54 8b 3f
       1.0712894 1.1493044 1.192011 1.0885054
000020 22 d4 8f 3f 5b 84 62 3f 5c dc a7 3f ef 9e 9a 3f
       1.1236613 0.8848321 1.3114123 1.2079753
000030 e7 f6 86 3f 77 65 96 3f 02 ae 83 3f ed 25 8a 3f
       1.0544099 1.1749715 1.0287478 1.0792824

net.bn3.bias f4 [16]
000000 46 11 93 3e f4 60 42 3d 0e c7 19 be 7d ef 84 3e
       0.28724116 0.047455743 -0.1501734 0.25963965
000010 cf 7b 2c 3e c4 7c 3d 3e b9 be 8e 3e cc 04 46 3e
       0.16844104 0.18504626 0.27879885 0.19337767
000020 44 11 9a bd bd 43 0b 3e 2c 34 49 bd eb eb cb 3d
       -0.075228244 0.13600059 -0.04912202 0.09957107
000030 58 2f 8d 3e a5 64 09 3e 75 75 4a 3e 07 f4 15 be
       0.27575183 0.13417299 0.19771369 -0.1464387

net.bn3.running_mean f4 [16]
000000 59 37 33 3f 11 6f a9 3f 23 96 9f bf 3e 65 de 3f
       0.7000633 1.323702 -1.2467693 1.7374647
000010 29 cb cd 3f 61 e9 95 bf c5 c3 98 bf 71 ac 85 bf
       1.6077625 -1.1711847 -1.1934744 -1.044325
000020 90 7a 91 3f a2 76 92 3f 53 a4 b8 bf e8 d8 dc 3f
       1.1365528 1.1442454 -1.4425148 1.7253695
000030 32 7d b9 bd 9e 3a a6 bf e9 36 fc 3f 86 b0 ee bf
       -0.09057082 -1.2986639 1.9704257 -1.8647621

net.bn3.running_var f4 [16]
000000 b0 da 3c 42 e7 f3 ab 42 95 40 81 42 d5 6d 9c 42
       47.213562 85.97637 64.62614 78.214516
000010 d5 99 57 42 76 9c 1c 42 c3 6e 39 42 f5 54 35 42
       53.900227 39.152794 46.358166 45.332966
000020 5a a3 76 42 5a ec 1d 42 19 a8 47 42 72 f3 93 42
       61.659523 39.480812 49.914158 73.97548
000030 ca e9 da 41 c3 47 2c 42 24 40 7a 42 4c 15 1b 42
       27.364155 43.07008 62.562637 38.770798

net.fc.weight f4 [32, 256]
000000 af e1 89 be 2f c0 ba 3d ec 6e b7 be 26 a4 a0 bd
       -0.26929995 0.09118687 -0.35826814 -0.07843809
000010 bc 95 d5 bd e8 19 50 ba 8e a4 4b be 83 ba d6 bd
       -0.1042895 -0.00079384306 -0.19886991 -0.10484793
000020 9b 80 71 be 52 94 0f be 22 3a e9 bc 39 ae 77 be
       -0.23584215 -0.14021423 -0.028470103 -0.24187554
000030 89 d7 4a bd ab 96 80 3e 82 5b 44 be 01 f6 c8 bd
       -0.049521957 0.2511495 -0.19175532 -0.098125465
000040 a6 cb 0e be f1 b5 e0 3c a7 7e aa bd f5 d9 3a be
       -0.13944873 0.027430506 -0.08324938 -0.18247207
000050 2c 5c b5 bd 43 81 05 be 5f 23 b0 be 9b ce 27 be
       -0.08855471 -0.1303759 -0.34401986 -0.16387407
000060 e0 1a 24 be 75 88 ea be 9c 44 82 bd ca c7 ce bc
       -0.16025877 -0.45807233 -0.063607424 -0.025241751
000070 ee 97 39 be 14 73 da bd f2 69 7d be 4e 9c 1e bd
       -0.18124363 -0.10666481 -0.24747446 -0.038723283
000080 87 2f 9b 3b 12 41 82 3c b8 26 e2 bc a3 df 3a 3e
       0.0047358903 0.015900169 -0.027606353 0.18249373
000090 26 3a 7f 3e 2e 70 97 3d e9 2b 01 bc 03 cc d6 bc
       0.24924526 0.073944435 -0.007884004 -0.026220327
0000a0 59 50 d4 3e 64 92 0f 3e 49 c5 dd 3c 17 b4 8f 3b
       0.4146755 0.14020687 0.027071612 0.004385482
0000b0 67 fe 45 3e e0 15 6e 3e fc bf 92 bd 0e 9a 0f 3e
       0.19335328 0.23250532 -0.07165524 0.14023611
0000c0 53 73 b5 bc ce 40 80 be e2 c4 93 be f7 96 a3 bd
       -0.022149717 -0.25049442 -0.28861147 -0.07987779
0000d0 cb bc b4 be 3b a8 05 bf 79 18 a6 be e9 3d 08 be
       -0.35300288 -0.52209824 -0.32440546 -0.13304867
0000e0 6b 1e 46 be 48 d9 6c be 01 42 46 be bd c8 12 be
       -0.19347541 -0.23129761 -0.19361116 -0.14334388
0000f0 e0 9e 2c be 08 0b be be f3 91 57 3e a8 d9 a2 bc
       -0.16857481 -0.3711779 0.21051769 -0.019879177
000100 47 97 ff bd e6 85 01 be b3 1c 70 3c 10 ba 18 be
       -0.12480026 -0.12648734 0.01465528 -0.14914727
000110 1e 51 0b be 6c b9 a4 be 57 f0 50 be 3a 1d 81 be
       -0.13605163 -0.32172716 -0.20404182 -0.2521761
000120 7d 73 a5 be 2b 2e d5 bd d0 7c 2c be c5 4e a2 be
       -0.32314673 -0.104091965 -0.16844487 -0.3170072
000130 88 b6 cf bd a7 8c 0d be 52 ef 57 bd b7 30 df bd
       -0.10142237 -0.13823186 -0.052718468 -0.108979635
000140 1b 3c 89 be ea a0 00 be f5 86 ba bb e6 18 8a ba
       -0.2680367 -0.12561384 -0.0056923577 -0.0010535985
000150 54 a6 3c bd 98 38 d0 3d a9 3a 34 be 8c 69 8c bd
       -0.04605706 0.101670444 -0.17600502 -0.06856069
000160 2d e5 44 3c 49 60 00 3e e7 af 14 bd 68 dd 0f bd
       0.01201753 0.1253673 -0.036300566 -0.03512326
000170 23 2b 9c 3e 3f f4 6b 3c fb 70 1a be 54 d4 25 be
       0.3050166 0.0144014945 -0.15082161 -0.16194278
000180 eb 3b b2 bd cc 0c 1b be 9a 38 2c be bf 0a dd bd
       -0.08702835 -0.151416 -0.16818467 -0.10793065
000190 5f ac 75 bd 1a 4e 9a bd f6 ff 1c bd 33 96 9f bc
       -0.05997884 -0.07534428 -0.03833004 -0.0194808
0001a0 5c 0a 94 3d b0 d8 dc 3d 9d 2e c9 bd 06 85 49 be
       0.072285384 0.10783517 -0.09823344 -0.1967965
0001b0 39 3b 15 3e 4e e1 b7 bd ae 57 c4 3d 7e 39 4e 3c
       0.14573373 -0.0897852 0.09587036 0.012586949
0001c0 cf 4b 4f be ff 63 8b be 2b 55 d9 3d 84 69 b3 3d
       -0.20243762 -0.27224728 0.106119476 0.0876036
0001d0 9d 2a c3 3b 5c d3 b7 bd e8 43 fe bd 87 24 45 bd
       0.0059560076 -0.089758605 -0.12415296 -0.04813054
0001e0 95 94 48 be b7 b7 57 bd 07 af 2d bd 3e 9b 04 3d
       -0.1958793 -0.05266544 -0.042403247 0.032374613
0001f0 20 dc c5 bd a6 9a e0 3d e8 02 6a 3d b1 4f 3e bc
       -0.09661126 0.10966997 0.057131678 -0.01161568
000200 5a 4a 12 be 8f fc 20 bd e9 90 2e bd e0 56 76 bb
       -0.14286175 -0.03930336 -0.042618666 -0.0037588403
000210 60 2c a2 3a 2e 94 e8 bc 34 6a 10 be 5b 25 5e be
       0.0012372844 -0.02839097 -0.14103013 -0.21693937
000220 1e 10 09 bf 3a 45 69 be 79 26 53 be 0a 1b 8c be
       -0.5354022 -0.22780314 -0.20620145 -0.2736438
000230 82 e3 a9 bd 37 0a 50 be 38 a7 51 be 08 62 90 bd
       -0.08295347 -0.20316397 -0.20473945 -0.07049948
000240 2f 7d 63 be e6 28 68 3e a5 24 29 be f4 c6 c8 be
       -0.22215723 0.22671852 -0.16517885 -0.3921429
000250 0a 1d bf bc 9f bc b2 bc d4 6e a7 be cd 90 89 be
       -0.023329277 -0.021818457 -0.32701743 -0.26868287
000260 05 80 28 be e0 d7 67 be d2 1c a6 bd 01 bf b3 bd
       -0.16455086 -0.22640944 -0.08110966 -0.087766655
000270 7a 32 26 be fc b7 be 3c 30 68 1d be 19 df 4f be
       -0.16230193 0.02328109 -0.15371776 -0.20299949
000280 11 e4 26 be d9 94 c6 bd 29 26 de bb bb 3f 9f bd
       -0.16297938 -0.09696359 -0.0067794514 -0.077758275
000290 a6 c2 4e 3e 9e df d2 3d 61 11 8d 3e 6c 8d 90 bd
       0.2019144 0.10296558 0.27552322 -0.07058224
0002a0 ef 99 8c 3d 1d 49 11 3d 11 20 95 3e c3 c4 82 bd
       0.06865298 0.035470117 0.29126027 -0.063851856
0002b0 02 f8 0e 3e ec 0c 62 3e c2 7c 62 bd ce a5 cf 3d
       0.13961795 0.22075242 -0.05529476 0.101390466
0002c0 d3 b7 0d be 53 05 51 be c4 87 64 be b2 65 39 be
       -0.13839655 -0.20412187 -0.22317415 -0.181052
0002d0 14 39 a0 be 9a cf 9d be 15 d4 be bd 83 6f f4 bd
       -0.31293547 -0.3082245 -0.09317795 -0.11935332
0002e0 e2 89 79 be 54 da f9 bd 5c 35 ee bd b5 e8 48 be
       -0.24369004 -0.12199846 -0.11631271 -0.1962002
0002f0 65 d3 b0 be 4f f9 79 be 45 38 6f be 7d bc 10 bd
       -0.3453628 -0.2441151 -0.23361309 -0.035336006
000300 9b 9a 42 3a 89 32 2e be 13 27 09 bd b6 87 d7 bd
       0.00074235507 -0.17011465 -0.03348453 -0.10523932
000310 4e ac 91 bc cb 4b 42 3c 97 92 1a bc 76 3e 1a be
       -0.017782357 0.011858891 -0.009434364 -0.1506289
000320 f9 b7 21 be 2d 2a 4a 3e 21 25 53 bd ab c5 47 be
       -0.15792836 0.19742651 -0.05154908 -0.19508998
000330 f4 c5 f1 bc ec 87 b0 bd ff 01 71 be 7b 57 c9 bc
       -0.029513337 -0.08619675 -0.23535918 -0.024577847
000340 dc c1 3a 3e 0a 06 4a be 50 c8 e8 3d 98 1e 22 3d
       0.18238014 -0.19728866 0.113663316 0.039579958
000350 7c 43 e3 3d 28 b7 11 3e 0a ec 5d 3e 83 93 89 bc
       0.11096856 0.14230025 0.21672073 -0.016793972
000360 e9 39 b1 3d ae 19 c0 3d a9 56 90 bd c0 67 64 3e
       0.086536236 0.09379898 -0.07047779 0.22305202
000370 28 85 3e 3e 0d 7a 64 3b 42 4a 45 3e cb ba e4 bd
       0.18605483 0.0034862787 0.19266608 -0.111684404
000380 55 d5 1a be 89 81 4b 3b 81 c6 e8 bd 36 bb 6d be
       -0.15120442 0.003105255 -0.113659866 -0.23215947
000390 f1 1f 9a be 4d 04 9d be 27 af 41 bd 8b 40 27 be
       -0.30102494 -0.30667344 -0.04728618 -0.16333215
0003a0 f6 b4 5c be ac 17 25 be 54 4d 7e be 01 46 fb bc
       -0.21553406 -0.16122311 -0.24834186 -0.030673029
0003b0 33 44 21 be ce 83 aa bd ec cb 84 bd 11 e1 60 bd
       -0.15748672 -0.08325921 -0.064842075 -0.05490214
0003c0 ef b2 4a be 27 b9 06 3d 18 ce 1b be 58 e0 31 3e
       -0.1979482 0.03289142 -0.15215337 0.17370737
0003d0 e9 5b 2a 3e c5 bc 6a bb c7 ec f8 3d 1b e7 96 3c
       0.16636623 -0.0035818082 0.12154537 0.018420747
0003e0 c2 c3 37 3e 5b 97 87 3e e2 13 c9 3a 45 26 90 3e
       0.1794577 0.26482663 0.0015341009 0.28154197
0003f0 d6 60 61 3e 15 9a cb 3d fb 74 6b 3e 50 52 35 bd
       0.22009596 0.09941498 0.22993843 -0.044267952

net.fc.bias f4 [32]
000000 00 4f ce be 1d 04 26 3d 5d 42 70 be 2f 64 a1 3e
       -0.40294647 0.040531266 -0.23462816 0.31521747
000010 0a bd cc be a2 3c c4 bd 6d 9f 35 3d 87 a3 99 3e
       -0.39987975 -0.09581877 0.044341493 0.30007574
000020 24 2c d1 39 d0 fc a3 bd 93 69 a7 be 90 5f 1d 3e
       0.00039896474 -0.080072045 -0.32697734 0.15368485
000030 3f 93 ef bd e7 e0 a5 3e ff 80 93 bd 48 22 3d be
       -0.11698007 0.3239815 -0.072023384 -0.18470109
000040 e9 30 e7 be f8 e4 4d be 36 7e 9c 3e 00 29 d2 3e
       -0.45154503 -0.20106876 0.3056504 0.41046906
000050 7d bc bd bc d7 34 80 bd c9 eb d2 3d 6c 78 79 be
       -0.023161167 -0.062600784 0.10298879 -0.24362344
000060 39 e6 98 be d2 5d 15 3d 75 55 d4 3e 16 03 d8 bd
       -0.29863146 0.036466427 0.4147145 -0.105474636
000070 83 56 27 3e fd 94 cf 3e ce 1d 82 3e f9 a1 5e 3b
       0.16341595 0.40543357 0.25413364 0.0033971055

exp_avg f4 [8, 1, 1, 256]
000000 2c 01 59 38 8c b7 3c 38 21 14 17 38 a3 5b e1 37
       5.1737923e-05 4.4993634e-05 3.6019952e-05 2.6864762e-05
000010 e8 3e a1 37 8b df 6c 37 20 ce 4d 37 cc ae 5b 37
       1.9221989e-05 1.4118744e-05 1.2266944e-05 1.3094115e-05
000020 46 60 80 37 ee d0 87 37 b0 7b 66 37 45 92 f6 36
       1.530362e-05 1.6190545e-05 1.37378665e-05 7.3483993e-06
000030 cf 17 25 b6 1b 7f 64 b7 1d d3 c7 b7 34 f4 02 b8
       -2.4600774e-06 -1.3619453e-05 -2.3820956e-05 -3.1221847e-05
000040 f4 1e 10 b8 79 c2 0a b8 89 7b ed b7 c5 aa be b7
       -3.4361103e-05 -3.308288e-05 -2.8310127e-05 -2.2729286e-05
000050 37 ea 9f b7 9f cc 9d b7 96 aa b6 b7 9a e1 e2 b7
       -1.9063342e-05 -1.8811143e-05 -2.1775526e-05 -2.7046353e-05
000060 c2 68 07 b8 1d 8d 15 b8 23 f0 14 b8 8b 2a 04 b8
       -3.228407e-05 -3.565579e-05 -3.5509594e-05 -3.1510874e-05
000070 87 78 cf b7 ba 25 98 b7 e4 99 6e b7 98 57 73 b7
       -2.4732448e-05 -1.813738e-05 -1.4221736e-05 -1.4504323e-05
000080 09 9a 9e b7 53 84 dc b7 2c 8d 12 b8 f9 99 31 b8
       -1.8906796e-05 -2.6287662e-05 -3.494059e-05 -4.2343487e-05
000090 6b 20 43 b8 c7 d7 41 b8 f9 ed 31 b8 3b 27 1e b8
       -4.6521815e-05 -4.6215744e-05 -4.2421718e-05 -3.770667e-05
0000a0 79 56 12 b8 c8 96 15 b8 c1 93 27 b8 1c 45 42 b8
       -3.4889646e-05 -3.5664794e-05 -3.995351e-05 -4.6317567e-05
0000b0 b8 16 5d b8 60 2b 70 b8 f2 ed 74 b8 78 f2 69 b8
       -5.2711664e-05 -5.7260855e-05 -5.8395737e-05 -5.5777346e-05
0000c0 59 b5 52 b8 1d b1 38 b8 09 a5 26 b8 20 5d 23 b8
       -5.0236795e-05 -4.4033968e-05 -3.9731185e-05 -3.8948958e-05
0000d0 3f ef 2e b8 88 c1 44 b8 db de 5c b8 8f fd 6f b8
       -4.1707648e-05 -4.691028e-05 -5.2659638e-05 -5.7218185e-05
0000e0 bf 47 78 b8 41 86 74 b8 e3 db 64 b8 be 35 50 b8
       -5.9194626e-05 -5.8299167e-05 -5.456422e-05 -4.9641116e-05
0000f0 26 3a 40 b8 66 9e 3d b8 1f 14 49 b8 00 78 5e b8
       -4.5830522e-05 -4.520863e-05 -4.7940874e-05 -5.3040683e-05
000100 63 e0 76 b8 ef 7f 86 b8 44 3b 8c b8 c8 81 8a b8
       -5.8859947e-05 -6.4134474e-05 -6.686759e-05 -6.6045264e-05
000110 10 42 81 b8 86 2d 68 b8 f3 62 4e b8 37 55 3e b8
       -6.1635044e-05 -5.5355507e-05 -4.920638e-05 -4.5378893e-05
000120 e6 24 3c b8 ba 30 47 b8 8a be 58 b8 c9 d0 69 b8
       -4.4857057e-05 -4.7490677e-05 -5.1675866e-05 -5.5745975e-05
000130 c2 2c 74 b8 44 25 73 b8 ad ab 64 b8 cd f1 4c b8
       -5.8215817e-05 -5.797042e-05 -5.451932e-05 -4.8862585e-05
000140 93 b4 34 b8 15 85 26 b8 5e f4 26 b8 5e 7b 35 b8
       -4.3083517e-05 -3.9701426e-05 -3.980507e-05 -4.3268657e-05
000150 cf 82 4c b8 71 ff 64 b8 de 04 77 b8 24 8b 7c b8
       -4.8759215e-05 -5.4597334e-05 -5.8893922e-05 -6.0211067e-05
000160 c9 c0 72 b8 41 51 5b b8 fa 29 3f b8 f9 50 28 b8
       -5.787684e-05 -5.2289342e-05 -4.5577042e-05 -4.0129733e-05
000170 25 f4 1d b8 03 d8 20 b8 d2 90 2c b8 cc a1 39 b8
       -3.7659094e-05 -3.834815e-05 -4.114287e-05 -4.4258122e-05
000180 60 f4 3f b8 45 5c 38 b8 67 bc 1f b8 87 25 f1 b7
       -4.576554e-05 -4.395495e-05 -3.8084017e-05 -2.8746914e-05
000190 ca ef 96 b7 c3 92 11 b7 f4 75 74 b6 40 ef 81 b6
       -1.7993054e-05 -8.676844e-06 -3.642749e-06 -3.872352e-06
0001a0 34 8b 0e b7 50 6a 80 b7 e8 31 b9 b7 57 ea de b7
       -8.49627e-06 -1.5308295e-05 -2.2076958e-05 -2.6573585e-05
0001b0 26 7b e5 b7 c2 04 cb b7 83 e1 9f b7 7d 17 80 b7
       -2.7356273e-05 -2.4201701e-05 -1.905929e-05 -1.5269727e-05
0001c0 24 6f 86 b7 49 67 bc b7 bb 5d 0e b8 8e 0b 4a b8
       -1.6025799e-05 -2.2459442e-05 -3.394273e-05 -4.8171314e-05
0001d0 41 86 82 b8 35 53 99 b8 7d a6 a4 b8 89 b3 a2 b8
       -6.22389e-05 -7.311107e-05 -7.85114e-05 -7.758203e-05
0001e0 ac f1 95 b8 c0 f8 84 b8 22 f0 6e b8 43 4e 65 b8
       -7.1498886e-05 -6.340584e-05 -5.6967263e-05 -5.467074e-05
0001f0 d6 ac 6e b8 c9 3e 82 b8 f0 80 8e b8 f2 6a 96 b8
       -5.6904588e-05 -6.210578e-05 -6.795104e-05 -7.1724775e-05
000200 97 58 95 b8 76 df 88 b8 90 bc 62 b8 ed a7 28 b8
       -7.121375e-05 -6.526608e-05 -5.405821e-05 -4.0210714e-05
000210 99 60 e5 b7 b8 95 9a b7 41 57 70 b7 27 fd 6f b7
       -2.734391e-05 -1.8427949e-05 -1.432543e-05 -1.4304452e-05
000220 b2 5a 8a b7 ee 5e 9b b7 13 06 97 b7 c4 22 5e b7
       -1.6493115e-05 -1.8521645e-05 -1.8003431e-05 -1.3240326e-05
000230 78 39 88 b6 39 5d 00 37 9f b7 9d 37 37 07 de 37
       -4.059806e-06 7.6511e-06 1.8801364e-05 2.6467822e-05
000240 69 81 f6 37 87 d8 ed 37 f9 fa d5 37 ef 71 c3 37
       2.9385747e-05 2.835343e-05 2.5508447e-05 2.3298866e-05
000250 da cc ca 37 e6 9b fa 37 48 49 29 38 47 4a 60 38
       2.4175668e-05 2.9874918e-05 4.036099e-05 5.3474938e-05
000260 3f c0 89 38 59 2f 9a 38 0f f9 9d 38 6f 45 96 38
       6.568478e-05 7.3521114e-05 7.532734e-05 7.1654904e-05
000270 dc 8d 87 38 61 1c 6f 38 e3 10 58 38 3c b9 52 38
       6.463725e-05 5.700847e-05 5.151414e-05 5.0240415e-05
000280 51 6d 61 38 4e 64 7d 38 48 4c 8c 38 7f b2 91 38
       5.374599e-05 6.0413317e-05 6.689929e-05 6.947386e-05
000290 4f df 8a 38 ae 27 70 38 f0 9a 3b 38 47 69 04 38
       6.621947e-05 5.7257414e-05 4.472857e-05 3.15693e-05
0002a0 17 5f ad 37 26 e3 71 37 6b 65 67 37 01 e1 94 37
       2.0667487e-05 1.44176065e-05 1.3792286e-05 1.774775e-05
0002b0 e8 ba c3 37 e9 1a e2 37 31 23 d9 37 c3 7d a3 37
       2.3332846e-05 2.695383e-05 2.5884803e-05 1.9489677e-05
0002c0 0e 47 1c 37 b3 f8 08 b6 87 fd 41 b7 11 83 8c b7
       9.314868e-06 -2.0410341e-06 -1.1562725e-05 -1.6750333e-05
0002d0 cf 60 88 b7 86 53 33 b7 00 50 27 b6 be d5 a7 36
       -1.6257543e-05 -1.0688678e-05 -2.4931505e-06 5.0018707e-06
0002e0 ed 0a 13 37 51 85 f5 36 13 41 c7 35 86 7d d8 b6
       8.764427e-06 7.317089e-06 1.4845594e-06 -6.4519145e-06
0002f0 11 08 64 b7 f5 cb 92 b7 16 f5 86 b7 0f 12 1c b7
       -1.3591737e-05 -1.7499531e-05 -1.6088172e-05 -9.302529e-06
000300 1c 04 7b 35 d7 f9 3c 37 eb 2f 9c 37 8d b8 b2 37
       9.3510766e-07 1.1263844e-05 1.8618963e-05 2.1305192e-05
000310 06 61 a2 37 6e d3 75 37 8e 4e 23 37 51 ba f4 36
       1.9357085e-05 1.4652365e-05 9.733847e-06 7.2934567e-06
000320 7f d4 1b 37 e0 1a 86 37 7e d0 d8 37 30 8b 15 38
       9.2881955e-06 1.598656e-05 2.5846293e-05 3.5653997e-05
000330 06 97 2e 38 73 6f 2d 38 7e 7a 11 38 cb 6f c6 37
       4.1625484e-05 4.135021e-05 3.4684774e-05 2.3655497e-05
000340 32 61 37 37 c0 9d 30 b5 14 80 0d b7 7f d0 39 b7
       1.093028e-05 -6.5794666e-07 -8.434075e-06 -1.1075404e-05
000350 fc 7f 18 b7 2a 45 a9 b6 4f 4d 14 b6 a1 a9 57 b6
       -9.089705e-06 -5.0446442e-06 -2.2098718e-06 -3.2136234e-06
000360 fd 12 15 b7 98 8b 99 b7 5e b7 f3 b7 f8 5b 22 b8
       -8.885513e-06 -1.8304025e-05 -2.9053244e-05 -3.8709462e-05
000370 c1 2f 3c b8 80 bc 41 b8 d0 81 33 b8 15 5f 1a b8
       -4.4867167e-05 -4.619034e-05 -4.2797823e-05 -3.6805013e-05
000380 49 a7 03 b8 47 85 f7 b7 45 5b 07 b8 d9 9d 23 b8
       -3.138863e-05 -2.9506757e-05 -3.227151e-05 -3.9009235e-05
000390 fe 1a 48 b8 6a c4 6a b8 1a 27 81 b8 42 38 84 b8
       -4.7708854e-05 -5.5972872e-05 -6.1584826e-05 -6.304729e-05
0003a0 02 8a 7c b8 e3 8a 66 b8 fa e9 51 b8 70 24 49 b8
       -6.021001e-05 -5.496562e-05 -5.004739e-05 -4.795607e-05
0003b0 3d 1f 52 b8 d7 9e 6b b8 b8 51 87 b8 97 29 99 b8
       -5.0096995e-05 -5.6176297e-05 -6.452523e-05 -7.303355e-05
0003c0 61 84 a6 b8 9b f8 ab b8 fc f9 a7 b8 e7 4b 9c b8
       -7.940154e-05 -8.200222e-05 -8.009744e-05 -7.4527976e-05
0003d0 dc ed 8d b8 b8 26 82 b8 50 5b 79 b8 4c c1 7b b8
       -6.767709e-05 -6.206095e-05 -5.9451268e-05 -6.0023085e-05
0003e0 79 e7 83 b8 dd ce 8a b8 9a 86 8e b8 ea 88 8b b8
       -6.289682e-05 -6.618884e-05 -6.796159e-05 -6.653539e-05
0003f0 82 29 80 b8 1d 34 5b b8 36 79 31 b8 fe f4 0d b8
       -6.111247e-05 -5.2262203e-05 -4.2312975e-05 -3.3845186e-05

exp_avg_sq f4 [8, 1, 1, 256]
000000 7c 1a bb 33 f7 31 c1 33 08 ce be 33 0a b3 b9 33
       8.7126836e-08 8.9963514e-08 8.885041e-08 8.647301e-08
000010 0a 4a b6 33 69 8a b4 33 9f d6 b1 33 f4 07 b1 33
       8.488503e-08 8.40708e-08 8.281244e-08 8.2436515e-08
000020 fb 57 b4 33 17 f7 b9 33 ca 54 b9 33 58 53 ae 33
       8.397907e-08 8.659679e-08 8.630157e-08 8.1176665e-08
000030 2a 8e 9c 33 42 0b 8d 33 97 83 86 33 78 2c 85 33
       7.2901756e-08 6.567872e-08 6.263797e-08 6.201384e-08
000040 b8 81 82 33 7a f3 7b 33 5a d9 7a 33 d6 e0 84 33
       6.0771924e-08 5.8661932e-08 5.840534e-08 6.1876264e-08
000050 dc ed 8f 33 70 e9 94 33 d6 5b 8e 33 ab a2 81 33
       6.702223e-08 6.934249e-08 6.629095e-08 6.03662e-08
000060 66 0e 6f 33 01 f2 66 33 b1 a8 64 33 56 86 61 33
       5.565962e-08 5.377115e-08 5.323881e-08 5.2509073e-08
000070 10 c8 5e 33 85 2d 5f 33 90 7a 61 33 fc 05 5d 33
       5.187036e-08 5.1962633e-08 5.2498365e-08 5.1461015e-08
000080 81 7b 51 33 fa fd 4b 33 3d 8b 5a 33 10 00 7b 33
       4.877393e-08 4.749561e-08 5.0883717e-08 5.844055e-08
000090 8b 72 8d 33 68 22 93 33 d6 89 90 33 40 70 8c 33
       6.5866594e-08 6.8514794e-08 6.730595e-08 6.539676e-08
0000a0 4d 79 8a 33 35 d3 8b 33 a0 7c 91 33 13 59 a2 33
       6.44819e-08 6.51111e-08 6.774758e-08 7.5599154e-08
0000b0 6a 85 c3 33 4c 2c ee 33 78 da 09 34 13 01 12 34
       9.104663e-08 1.1090796e-07 1.2838598e-07 1.35977e-07
0000c0 d1 f1 0e 34 90 d5 07 34 a3 28 01 34 67 9c fe 33
       1.3312753e-07 1.2650548e-07 1.2028845e-07 1.1856246e-07
0000d0 41 d1 04 34 59 21 16 34 b7 f6 34 34 3a 8d 5c 34
       1.2369584e-07 1.398197e-07 1.685356e-07 2.0540475e-07
0000e0 87 b3 80 34 bf 82 8a 34 0a 1a 8a 34 f1 93 82 34
       2.397248e-07 2.5799633e-07 2.572345e-07 2.4322028e-07
0000f0 d6 40 72 34 f7 35 68 34 32 ee 68 34 a2 88 78 34
       2.2561593e-07 2.1626316e-07 2.1693339e-07 2.3146507e-07
000100 06 98 8b 34 84 07 9f 34 06 ae af 34 f3 9c b5 34
       2.600138e-07 2.9621526e-07 3.272291e-07 3.3828073e-07
000110 68 87 af 34 92 7e a0 34 a6 8a 8e 34 03 37 7d 34
       3.269481e-07 2.9894414e-07 2.655044e-07 2.3582474e-07
000120 19 45 67 34 b1 e2 5c 34 ad 73 60 34 74 58 70 34
       2.1538689e-07 2.0571566e-07 2.0903708e-07 2.2383921e-07
000130 ab 32 82 34 e0 9b 87 34 04 e1 86 34 4f 76 7f 34
       2.4251253e-07 2.5259124e-07 2.5123165e-07 2.3791766e-07
000140 c1 a8 68 34 cb 6c 4f 34 03 87 37 34 85 2c 26 34
       2.1668076e-07 1.9317956e-07 1.709232e-07 1.5476151e-07
000150 d3 fb 1c 34 66 98 1c 34 65 f9 1f 34 35 47 1d 34
       1.4620245e-07 1.4584074e-07 1.4898758e-07 1.464767e-07
000160 4a 46 10 34 ac 20 f5 33 04 cf c6 33 b7 63 a0 33
       1.3436616e-07 1.14146445e-07 9.2577494e-08 7.4687186e-08
000170 cb 18 86 33 68 7b 67 33 69 13 55 33 00 56 5a 33
       6.244371e-08 5.3896116e-08 4.961058e-08 5.0835297e-08
000180 84 52 70 33 36 12 81 33 cd 08 81 33 e1 ba 77 33
       5.5954402e-08 6.010343e-08 6.0086315e-08 5.7679134e-08
000190 06 de 77 33 9e c5 89 33 06 db 9c 33 fc 4c ac 33
       5.7711098e-08 6.415506e-08 7.304156e-08 8.0233775e-08
0001a0 6a c1 b7 33 a0 12 c5 33 89 f0 d7 33 f0 a5 e9 33
       8.5567834e-08 9.176915e-08 1.0055471e-07 1.0880092e-07
0001b0 66 35 ef 33 0d e1 e2 33 4b 3e ce 33 72 e1 b9 33
       1.1139018e-07 1.05648816e-07 9.6039535e-08 8.655742e-08
0001c0 8b e1 a7 33 bb 16 97 33 77 08 8c 33 bd 0c 90 33
       7.8175695e-08 7.03562e-08 6.520798e-08 6.7078396e-08
0001d0 ca 82 a9 33 c7 e6 d0 33 0e 4d f6 33 95 0b 08 34
       7.893466e-08 9.727733e-08 1.1469284e-07 1.26702e-07
0001e0 eb 7f 11 34 e3 da 1a 34 ff 99 27 34 d6 c3 34 34
       1.3550714e-07 1.4421998e-07 1.560911e-07 1.6835051e-07
0001f0 59 2d 40 34 90 a2 4c 34 92 7e 59 34 28 ff 64 34
       1.7897891e-07 1.905812e-07 2.0255746e-07 2.132698e-07
000200 5f c4 6a 34 75 3f 67 34 7b 13 61 34 a7 1b 5f 34
       2.1864388e-07 2.1536637e-07 2.0961845e-07 2.0778553e-07
000210 87 85 64 34 ca 51 6f 34 09 5d 7a 34 ec 79 81 34
       2.1282732e-07 2.2288364e-07 2.331691e-07 2.4116832e-07
000220 6b 3b 84 34 81 68 83 34 fe a4 7a 34 88 1b 61 34
       2.4630148e-07 2.4476688e-07 2.3343088e-07 2.0964774e-07
000230 62 b4 3e 34 85 a7 1d 34 18 5e 04 34 05 db e7 33
       1.7760752e-07 1.4682708e-07 1.2327689e-07 1.0796615e-07
000240 9d 07 d3 33 d5 ed c7 33 73 25 c6 33 d9 3c ca 33
       9.826838e-08 9.309921e-08 9.2269055e-08 9.417426e-08
000250 a2 ce ca 33 f8 08 c1 33 69 a5 af 33 e1 b2 a2 33
       9.443944e-08 8.988894e-08 8.1791605e-08 7.576251e-08
000260 6d b3 a2 33 15 84 ac 33 e0 02 b6 33 ad 63 b9 33
       7.57635e-08 8.0334e-08 8.4755584e-08 8.632865e-08
000270 21 42 ba 33 19 f9 be 33 ac 3b c6 33 d6 ee ca 33
       8.673329e-08 8.892875e-08 9.230948e-08 9.449802e-08
000280 32 29 cb 33 33 9f cc 33 b9 10 d7 33 a8 a4 ea 33
       9.4604175e-08 9.5284484e-08 1.00147595e-07 1.0926425e-07
000290 aa 3c 00 34 3e c7 0a 34 b9 22 15 34 f2 b8 21 34
       1.1942998e-07 1.2924735e-07 1.3889338e-07 1.5061576e-07
0002a0 5c 25 30 34 52 3e 3c 34 86 77 44 34 f7 69 4a 34
       1.6404869e-07 1.7531536e-07 1.8297405e-07 1.8851266e-07
0002b0 f6 dc 50 34 c8 53 57 34 5e 2f 58 34 b0 2e 50 34
       1.9451895e-07 2.0053915e-07 2.01338e-07 1.9388494e-07
0002c0 a4 bd 41 34 44 ba 34 34 10 0a 2d 34 40 12 2a 34
       1.8043517e-07 1.683157e-07 1.6115541e-07 1.5839123e-07
0002d0 5d 39 29 34 6b b3 29 34 b9 87 2d 34 2d 3b 34 34
       1.576022e-07 1.5804623e-07 1.6161256e-07 1.6785334e-07
0002e0 98 6d 39 34 55 5c 38 34 5e d2 30 34 0f 8d 27 34
       1.7269338e-07 1.7169926e-07 1.6467808e-07 1.5604404e-07
0002f0 47 f5 1f 34 00 42 19 34 cd e1 10 34 00 9d 06 34
       1.489726e-07 1.4273246e-07 1.3493191e-07 1.2536839e-07
000300 fb 0a fb 33 c5 8b ef 33 e2 a2 e7 33 24 17 dc 33
       1.1690096e-07 1.1154729e-07 1.0786404e-07 1.02487576e-07
000310 86 30 cc 33 66 25 be 33 b1 55 b7 33 4f a0 b5 33
       9.5083166e-08 8.854367e-08 8.537189e-08 8.457629e-08
000320 b9 90 b2 33 bd 51 ab 33 6e 49 a5 33 fd e8 a4 33
       8.315096e-08 7.977676e-08 7.696768e-08 7.6792254e-08
000330 1c 37 a7 33 40 ea a4 33 29 e6 9a 33 d6 3b 8e 33
       7.786568e-08 7.679455e-08 7.21305e-08 6.6232744e-08
000340 7f e3 86 33 c3 f6 85 33 13 18 86 33 6c ea 84 33
       6.2812425e-08 6.238181e-08 6.24424e-08 6.18937e-08
000350 e8 01 87 33 dd e4 8f 33 ed d7 9b 33 9c a9 9e 33
       6.286774e-08 6.7005864e-08 7.2570266e-08 7.3883e-08
000360 dc 92 90 33 5d 2b 6e 33 f1 39 40 33 03 f4 27 33
       6.732236e-08 5.5453132e-08 4.475618e-08 3.9104645e-08
000370 bd 19 20 33 d8 b5 1c 33 59 de 1c 33 ea 89 2b 33
       3.7276312e-08 3.6486966e-08 3.6523804e-08 3.9939472e-08
000380 59 aa 4a 33 8a f8 69 33 f1 ac 78 33 80 78 76 33
       4.718672e-08 5.4475585e-08 5.789929e-08 5.7385932e-08
000390 f2 b8 71 33 98 56 76 33 9f 61 7a 33 f5 51 70 33
       5.6280392e-08 5.7355095e-08 5.8296447e-08 5.5953894e-08
0003a0 d1 5f 5a 33 8e 13 4b 33 f1 dc 4d 33 61 1b 5d 33
       5.0844225e-08 4.7282406e-08 4.7931227e-08 5.1480473e-08
0003b0 04 fa 6a 33 78 f4 76 33 64 42 89 33 84 7e a6 33
       5.470976e-08 5.749868e-08 6.391636e-08 7.7529904e-08
0003c0 ac 73 cf 33 37 aa f9 33 a8 54 0b 34 90 88 12 34
       9.660229e-08 1.1625928e-07 1.2976182e-07 1.3646991e-07
0003d0 91 5a 15 34 60 76 15 34 71 d4 13 34 3f f0 10 34
       1.3909654e-07 1.3919771e-07 1.3767728e-07 1.3498446e-07
0003e0 53 8f 0e 34 e8 7f 0d 34 82 34 0a 34 ae 9f 00 34
       1.3276922e-07 1.317818e-07 1.2871354e-07 1.197902e-07
0003f0 3c 33 e0 33 4a 66 b7 33 6e ec 98 33 65 38 8a 33
       1.0440132e-07 8.540208e-08 7.121058e-08 6.436384e-08

exp_avg f4 [8]
000000 8d 14 fe 2f 35 28 2e 32 c0 70 fb af e7 a7 84 b0
       4.6216933e-10 1.0137275e-08 -4.5736748e-10 -9.651985e-10
000010 ad c7 15 30 bd b5 11 31 f8 82 33 b1 7b 55 23 b2
       5.448964e-10 2.1203583e-09 -2.6122375e-09 -9.507285e-09

exp_avg_sq f4 [8]
000000 b0 51 af 26 31 7d 2c 27 fa 3d 3a 26 41 c5 19 26
       1.2165206e-15 2.3937661e-15 6.4615707e-16 5.3349867e-16
000010 3d 76 16 26 98 34 f5 26 99 dc 95 25 19 a1 8a 26
       5.2201947e-16 1.7014546e-15 2.5996863e-16 9.619339e-16

exp_avg f4 [8]
000000 7e 5a 12 2f e2 ed fc ae c1 1f 56 30 12 5c 2a ab
       1.3310772e-10 -1.150189e-10 7.789787e-10 -6.0523906e-13
000010 97 74 31 2f 91 cc 3d 2f bc 88 e4 ad 76 f3 01 2f
       1.6139477e-10 1.7262126e-10 -2.5981321e-11 1.1818976e-10

exp_avg_sq f4 [8]
000000 4b 94 e1 20 74 e7 6e 22 18 34 47 22 b2 90 31 21
       3.8214615e-19 3.2377545e-18 2.6997107e-18 6.0161435e-19
000010 69 96 21 21 6d e4 8c 22 7f f7 09 20 e0 b3 48 21
       5.474799e-19 3.818893e-18 1.1686241e-19 6.80007e-19
