model/all_subjects_20240205_181004/checkpoints/epoch2_0.6562.pt (torch, 195725 bytes, 39 tensors)

net.conv.weight f4 [8, 1, 1, 256]
000000 8e 13 38 3d c5 24 49 3e 16 c9 7b 3e a2 83 95 3e
       0.044940524 0.19642933 0.24588427 0.2920199
000010 de 72 de 3e fe ae d7 3e 1c 7a be 3e de f5 ca 3e
       0.43447012 0.42125696 0.37202537 0.39640707
000020 84 5c 29 3e 00 93 04 3e ee 97 b4 3d 86 4d be 3d
       0.16539198 0.12946701 0.08818041 0.0929213
000030 a9 6b 40 3e 00 ae a6 3e 12 08 d6 3e fc 17 08 3f
       0.18791069 0.32554626 0.41803032 0.531616
000040 8f 90 e5 3e 35 91 9f 3e d3 62 51 3e b0 eb f8 bc
       0.44836852 0.31165472 0.20447855 -0.030385822
000050 b4 91 c4 bd e7 3a 26 be fb 5b 05 be 90 a1 4d bd
       -0.09598103 -0.16233407 -0.13023369 -0.050202906
000060 c7 57 e9 3d b2 df 0b 3e a1 85 b6 3c 41 cd 94 bd
       0.11393695 0.13659552 0.022280516 -0.072657116
000070 07 aa 1d be ec 79 d2 be db 33 d2 be 8a 33 f4 be
       -0.15396892 -0.41108644 -0.41055188 -0.4769557
000080 1e f6 f1 be a6 36 a2 be ed fc 5e bd 63 38 77 bc
       -0.47258085 -0.31682318 -0.054440428 -0.015089127
000090 d2 e2 76 3d db d8 23 bd f2 8d ec bd 62 f3 a3 be
       0.060274906 -0.04000173 -0.115505114 -0.32021624
0000a0 20 40 d9 be c2 61 00 bf 40 fb fc be 77 68 ba be
       -0.42431736 -0.50149167 -0.4941044 -0.36407825
0000b0 4a 15 5d be d7 9e a9 bb 7c 07 a5 bd 4b 81 30 bd
       -0.21590152 -0.005176406 -0.08058068 -0.043092053
0000c0 dc 1a 1a be d8 7a 9c be eb fc a8 be 9c 31 b2 be
       -0.15049309 -0.30562472 -0.3300546 -0.34803474
0000d0 3c b8 d7 be c8 1f 85 be 65 2c 42 be d7 7a f8 bc
       -0.42132747 -0.2600081 -0.18962248 -0.030332012
0000e0 19 85 c9 bc 94 36 a2 bd 41 13 09 be 7d 2b 14 be
       -0.024599599 -0.07920566 -0.13386251 -0.14469714
0000f0 bb 50 83 be 7d 9b b5 be 70 a0 a7 be ea a3 43 be
       -0.2564753 -0.3547019 -0.32739592 -0.19105497
000100 25 ca a8 bd 3b b5 c6 3c ea d2 a2 bb 85 b7 bc 3c
       -0.08241681 0.02425634 -0.0049689906 0.023036728
000110 b3 bb cf bc 5c d1 c1 bd 10 60 8a bd 19 f8 f5 bd
       -0.025358057 -0.0946376 -0.06756604 -0.120102115
000120 84 52 cf bd 32 eb 09 be fb df 68 bd a8 9e b5 3d
       -0.101231605 -0.13468626 -0.05685423 0.08868152
000130 36 8e 05 3e 67 1a d3 3d 91 39 08 3d 74 1d 36 3d
       0.1304253 0.1030777 0.033258025 0.044461682
000140 54 91 80 bd bd b6 c6 bd 92 34 4d be 8e 73 78 bd
       -0.06277719 -0.09702823 -0.20039585 -0.060657077
000150 47 d0 1d bd 0b 33 66 3c 7f ac e6 3d 33 b1 2c 3e
       -0.038528707 0.0140502555 0.1126337 0.16864471
000160 60 1b d1 3d 71 3d 7e bd d4 db 2d be b9 47 b0 be
       0.102102995 -0.062070314 -0.16978389 -0.3442972
000170 4c 97 e3 be 36 c1 ce be a6 a5 b2 be 90 7d 07 be
       -0.44451368 -0.40381783 -0.34892005 -0.13231492
000180 19 9b b5 3b a1 fe ff 3d 1f ea a7 bb 67 ec 40 be
       0.0055421707 0.124997385 -0.005124345 -0.1884018
000190 9c 0c d6 be 1e 96 0d bf 4d 93 1f bf f5 37 0a bf
       -0.41806495 -0.55307186 -0.6233414 -0.53991634
0001a0 0c 84 e3 be 50 e8 94 be f0 8e 9c bd 42 84 5f bd
       -0.4443668 -0.2908349 -0.07644451 -0.05456949
0001b0 e8 51 3d bd f3 d4 3f be 86 be 83 be a8 79 f6 be
       -0.04622069 -0.18733577 -0.25731295 -0.4813969
0001c0 42 64 0b bf b6 81 20 bf b7 8a f8 be 33 4b 69 be
       -0.54449856 -0.62697923 -0.4854333 -0.22782592
0001d0 ae 5b 6d bb f4 cf 62 3e c6 1d 7a 3e 06 4e 73 3e
       -0.0036217975 0.2214964 0.2442542 0.23760232
0001e0 01 d3 8c 3d 9a 6c ed 3c 66 51 15 be 24 49 d8 bd
       0.06876183 0.02898245 -0.14581832 -0.105608255
0001f0 7a 0f b9 bd d2 c6 7f 3d df d2 23 3e 43 56 52 3e
       -0.09036155 0.06244547 0.1599841 0.20540719
000200 85 fb 82 3e 4d d5 11 3e a5 aa b5 3d 2a 33 9d 39
       0.2558252 0.14241524 0.088704385 0.00029983494
000210 5d 60 0e be 33 1b ae bd 07 19 17 be 93 4e 5d bd
       -0.13903947 -0.085012816 -0.14755641 -0.054030012
000220 59 ce 5b 3d ca 70 12 3e 79 ec 3d 3e d0 0a 5c 3e
       0.053663585 0.14300838 0.18547238 0.214885
000230 72 e1 54 3d f2 4b 8d bc 54 31 37 be f3 e9 84 be
       0.051972814 -0.017248128 -0.17889911 -0.2595974
000240 b8 4a 5b be e2 10 9b bd d5 86 6b bc d9 e4 b7 3d
       -0.21415222 -0.075715795 -0.014375408 0.08979196
000250 39 22 1b 3e 50 db 62 3e d8 17 a7 3d 3b 63 62 be
       0.15149774 0.22153974 0.08158845 -0.22108166
000260 d2 50 c4 be 3f 8f ef be bd 08 d5 be 24 f9 a6 be
       -0.3834291 -0.46788976 -0.4160823 -0.32611954
000270 e7 22 4f be 9d db 60 bd 36 f0 54 bc df 35 78 3b
       -0.20228158 -0.05489694 -0.012996724 0.0037873907
000280 71 da 1e be 8e d1 47 be 02 4f d8 be 88 0c 06 bf
       -0.15513016 -0.19513533 -0.42247778 -0.5236287
000290 2b 79 fa be 21 a4 ca be 0b d0 98 be 67 a7 58 be
       -0.4892057 -0.39578345 -0.29846224 -0.21157609
0002a0 28 c0 fb bd bf 4c 2d 3c 83 4a 09 be 70 30 0f be
       -0.1229251 0.01057738 -0.1340733 -0.13983321
0002b0 67 7d 8c be dd 45 bc be 25 48 a7 be 77 1f a7 be
       -0.27439424 -0.3677205 -0.3267223 -0.32641193
0002c0 3a 16 22 be b6 ea 3f 3d 7a c8 1a 3e 51 f9 67 3e
       -0.15828791 0.046854697 0.15115538 0.226537
0002d0 eb 8c 05 3e a6 d9 57 3d 15 1a ee bc d1 34 e6 bd
       0.13042037 0.0526978 -0.029065171 -0.11240543
0002e0 11 68 56 be 9d f8 2f be 43 3a d0 bd d7 f0 d3 3d
       -0.20938136 -0.17184682 -0.101673625 0.10348671
0002f0 48 8b 37 3e b0 77 37 3e 9f 03 78 3e f8 97 2a 3e
       0.17924225 0.17916751 0.24220131 0.16659534
000300 a6 38 9c 3c 73 52 a5 bc 80 4f 20 be 96 51 6a bd
       0.01906998 -0.020180916 -0.15655327 -0.057206713
000310 c4 22 94 bc a9 01 53 3e e2 f4 76 3e 99 2f ce 3e
       -0.018082984 0.20606102 0.24116853 0.4027069
000320 76 a4 c5 3e 7f e3 b0 3e 4b 07 33 3e b1 a2 82 3d
       0.38602036 0.34548566 0.17483251 0.06378687
000330 43 41 a8 bd 62 08 9d bd 5a 12 9c 3d 66 dc 2b 3e
       -0.08215573 -0.076676145 0.07620688 0.16783294
000340 e9 71 ae 3e 4e ec 01 3f e1 86 01 3f 2a c2 e2 3e
       0.34071282 0.507512 0.50596434 0.4428876
000350 4c 6a a9 3e 40 ae 2a 3e 19 94 53 3c 24 31 02 be
       0.3308891 0.16668034 0.012913727 -0.12714058
000360 b8 97 c3 bd 4a 9c f7 3c ef 64 7a 3e 74 4c e8 3e
       -0.095504224 0.030225892 0.24452566 0.4537083
000370 37 8d d3 3e 7c 04 00 3f 21 62 9a 3e 75 4b 91 ba
       0.41318676 0.5000684 0.3015299 -0.001108511
000380 84 d0 48 be 2d fc 36 be 93 c2 32 be e8 25 0d be
       -0.19610792 -0.17869635 -0.17457037 -0.13783991
000390 16 bc bb 3c 71 d3 74 3e 96 f2 ab 3e 5a 19 71 3e
       0.022916835 0.23908783 0.33583516 0.23544827
0003a0 91 6d 34 3e a4 e0 ba bc b9 ba 9f be 25 89 ca be
       0.17619921 -0.022812195 -0.31197146 -0.39557758
0003b0 6a 3d cc be 07 20 89 be 4b 82 d3 bb 5b e3 13 3e
       -0.39890605 -0.26782247 -0.006454741 0.14442198
0003c0 29 53 a3 3e 40 cd a6 3e 04 a8 7e 3e 71 30 46 3e
       0.31899384 0.32578468 0.2486878 0.19354416
0003d0 c6 d2 07 3d 7f 55 61 3d 63 fa 26 3c 32 06 ef 3d
       0.033159994 0.055013176 0.010191533 0.116711035
0003e0 bf 07 10 3e 3f d6 99 3e de 17 bc 3e c7 a1 dd 3e
       0.14065455 0.3004627 0.3673696 0.4328749
0003f0 26 10 c3 3e 90 cb 6e 3e 12 5a 5c 3d 21 f8 5f bd
       0.38098258 0.2331984 0.053796835 -0.054679994

net.bn1.weight f4 [8]
000000 7e b8 6a 3f c9 0e a8 3f 32 43 cb 3f 2f 00 a2 3f
       0.9168776 1.3129512 1.5879881 1.2656306
000010 ab 9c 7d 3f 82 f2 c1 3f 8e 0e 92 3f 23 a5 52 3f
       0.9906718 1.5152133 1.1410692 0.8228323

net.bn1.bias f4 [8]
000000 50 fd fc bc 1a 13 73 bc 8b 40 b5 bd 88 c1 0b bd
       -0.030882508 -0.014836097 -0.08850201 -0.034120113
000010 62 2e 85 bc c7 56 00 bd a0 9c 3d bd 45 c3 df 3d
       -0.016257469 -0.031332757 -0.046291947 0.109259166

net.bn1.running_mean f4 [8]
000000 fa 1c f7 ba ec 61 4c bb cd 12 08 bb 4f 63 85 ba
       -0.001885324 -0.0031186296 -0.002076316 -0.0010176691
000010 de 3b 75 ba 3f 05 e1 b8 15 cf 9b b9 dd 90 d6 3a
       -0.0009354929 -0.00010729813 -0.00029718192 0.0016370077

net.bn1.running_var f4 [8]
000000 c8 21 03 43 b5 a2 8b 43 76 e9 a8 43 c7 79 02 43
       131.13196 279.27115 337.8239 130.4757
000010 56 ac c6 42 07 e5 90 43 dc 78 14 43 f6 7e c1 42
       99.33659 289.78928 148.4721 96.74797

net.depth_conv.weight f4 [16, 1, 32, 1]
000000 2d f1 47 3e 4e 7b d6 3e 8f a6 bf 3e 26 e7 ae bd
       0.19525595 0.4189095 0.37431762 -0.08540182
000010 25 f9 ce bd 0c bf 80 be fb 88 25 3f e0 fc 24 3f
       -0.10106114 -0.25145757 0.6466214 0.64448357
000020 ce a2 96 3e b7 99 ab 3e 2d d8 75 be 71 15 bf be
       0.29421085 0.33515713 -0.24008246 -0.37321046
000030 43 00 b5 3d 10 65 cc 3d 99 c1 85 bd 1f ae 96 3e
       0.088379405 0.09980214 -0.065310664 0.2942972
000040 2c 79 50 be 1d a4 12 3e c0 2a 6d 3e 63 9c 32 bf
       -0.20358723 0.14320417 0.23160839 -0.6976988
000050 75 09 5d bf 1e 19 3d 3d a2 37 3f be f2 fc f0 be
       -0.86342555 0.04616653 -0.18673566 -0.47067982
000060 ba a5 eb be ba 5a 8e 3a 7e 0b 68 bd 4e 27 a9 be
       -0.46024877 0.0010860779 -0.056651585 -0.330378
000070 b2 3b 81 bc 2b 5f ca be f7 ac 64 3e 76 97 a6 bb
       -0.015775535 -0.39525732 0.22331606 -0.0050839735
000080 83 49 fb 3e 1f da b6 3d 1e cb d0 3e 0a 1d bb 3e
       0.49079522 0.08928322 0.40779966 0.36545593
000090 bd 7c 00 be 1f c1 50 3e 30 0c 38 3e b7 dd 34 3c
       -0.12547584 0.2038617 0.17973399 0.011039189
0000a0 d9 13 2d be 67 df 41 3e 85 cd 1f be e3 f7 92 bd
       -0.16902103 0.18932877 -0.15605743 -0.07176187
0000b0 b2 a0 99 be 7b a8 9c bd 56 9c 29 bc 28 92 cf 3d
       -0.30005413 -0.076493226 -0.010352215 0.10135299
0000c0 23 df 86 3e b9 c4 ee be c6 7f 31 be 0c c1 88 bd
       0.26342115 -0.46634462 -0.17333898 -0.06677446
0000d0 b1 50 4c be 7e cc 10 be 24 91 e0 3d 62 95 9d be
       -0.19952656 -0.14140508 0.109651834 -0.30778033
0000e0 1c 0b 21 be ac 9e 70 3e 5d c9 5b be 20 69 9c 3e
       -0.15726894 0.23498029 -0.21463533 0.30548954
0000f0 b0 98 fe 3e fe 97 37 3e 14 81 f8 3d ef d9 c5 bc
       0.49725866 0.17929074 0.12133995 -0.02415177
000100 a0 95 d6 bc d4 1c 18 3f cb ea 4f 3e 82 01 8a be
       -0.026194394 0.5941899 0.2030441 -0.26954275
000110 2d 44 08 3f 3b e5 a4 be 39 61 a8 3d a3 6c 97 3e
       0.5322903 -0.3220614 0.08221669 0.2957507
000120 16 f6 73 3d d6 3b 97 bf f5 81 2d bd 16 8e 32 3e
       0.059560858 -1.1815135 -0.042360265 0.17437014
000130 05 ee b6 3c 7a 6d 27 3f d2 4c aa be ee c8 9a be
       0.022330293 0.6540142 -0.33261734 -0.30231422
000140 3a c4 d1 3d be 3e e0 bd c2 18 e1 3e 8d 32 9f 3e
       0.10242505 -0.10949467 0.439642 0.31093255
000150 72 9c d8 3e 0e 9b 60 39 a6 92 b1 be 0f 06 ac 3e
       0.42306858 0.00021420067 -0.34682196 0.33598372
000160 93 1a 71 bf 31 4c b7 be b3 4c 41 be 7b dc 35 be
       -0.94181174 -0.35800317 -0.18876915 -0.17759888
000170 34 18 9d be 17 35 97 bd 6c d1 89 3e 99 73 c6 3d
       -0.30682528 -0.07383173 0.2691759 0.09690017
000180 06 b1 c1 ba e9 be fd be 36 4f 2d bf fd 55 5a be
       -0.0014777489 -0.49559715 -0.6769899 -0.21321864
000190 6f 51 7c bf 6c fd f1 3d d9 4b 88 3e f2 f1 73 3f
       -0.9856176 0.118159145 0.26620367 0.95291054
0001a0 3c b2 c6 be 31 3d 7e 3f 3e 28 d0 be 7b c7 28 3e
       -0.38807857 0.9931212 -0.40655702 0.16482346
0001b0 90 0a c7 bc 95 1b 9b be df 96 00 3d 81 6f 65 3d
       -0.024297029 -0.3029448 0.031393882 0.05601454
0001c0 2e a7 b6 3d 7b 0c 53 be 26 dd db 3d f0 41 2f be
       0.08918606 -0.2061023 0.1073554 -0.17114997
0001d0 cb dc c9 be 99 13 0f be c0 c4 99 3d 96 3d a2 3e
       -0.39426264 -0.1397232 0.0750823 0.3168761
0001e0 48 d4 c7 3e 0b 69 b5 be 29 35 7f 3f 19 44 88 3e
       0.39029145 -0.35431704 0.9969049 0.26614454
0001f0 c0 d5 07 3d a5 43 f6 3d af b1 87 be d6 ad 14 3e
       0.033162832 0.12024621 -0.2650275 0.14519438
000200 b2 1f ef 3d f0 40 6a bf 89 87 05 bf 06 97 ad bc
       0.11675967 -0.91505337 -0.52159935 -0.021190178
000210 fb e0 55 bf a5 7d 92 bc 51 b9 21 3e 8a 6b 4d 3f
       -0.8354642 -0.017882178 0.15793349 0.80242217
000220 89 d8 e7 bd e4 f7 f1 3f cf 5c 81 bc de 1b 75 be
       -0.11320598 1.8903775 -0.015791325 -0.23936412
000230 24 20 cd be ce de 28 bf d4 79 8d 3e dc aa 6c 3e
       -0.40063584 -0.6596497 0.2763201 0.23112053
000240 7e a4 b6 be fc c6 80 be 30 4f b6 be 69 7f c3 3d
       -0.35672373 -0.25151813 -0.3560729 0.09545786
000250 4b b0 24 bf 16 84 06 3c ef f6 d7 3e a4 7a ef 3d
       -0.643315 0.008210203 0.42180583 0.11693314
000260 08 b3 19 3f 7e 4b 5e 3e 60 04 3a 3f 06 92 e6 3e
       0.60038805 0.21708485 0.72662926 0.45033282
000270 fc 29 15 be d0 9a cd be b6 c9 93 be f3 62 95 3e
       -0.14566797 -0.40157175 -0.2886483 0.29177055
000280 d2 83 96 3d 3e 49 e4 3d 1b 29 03 be bb 12 db be
       0.073493615 0.11146782 -0.12808649 -0.42787728
000290 45 75 43 bf db 93 5f 3e e9 ea 08 3f 15 58 72 3f
       -0.76350814 0.21833746 0.53483444 0.9466565
0002a0 8e 73 f4 be b8 da fe be f1 57 b1 be ac 82 c1 3e
       -0.4774441 -0.49776244 -0.34637406 0.37795007
0002b0 57 9b f6 3e bb a1 0a 3f e2 78 90 be 18 f8 8d be
       0.4816539 0.5415303 -0.28217226 -0.27728343
0002c0 ef e2 8f 3e 12 38 81 be 98 be ba 3e dc 42 dc bc
       0.28102824 -0.2523809 0.36473536 -0.02688735
0002d0 9c f9 93 3e a0 6a b4 be ee c3 c6 be 2c 45 31 3f
       0.28901374 -0.35237598 -0.38821357 0.6924617
0002e0 b0 0a c8 be d7 e6 1b bf c8 3e 66 3f 0a 2d 1f be
       -0.39070654 -0.6089911 0.89939547 -0.15544525
0002f0 75 46 e5 be 77 c4 17 3f 04 0f d7 3d 23 50 0d 3e
       -0.44780317 0.59284157 0.10500911 0.13800101
000300 6a 40 e3 3e 82 62 93 3e 74 e8 9b 3e 75 19 e2 be
       0.44385082 0.28786093 0.30450785 -0.44160047
000310 39 cb d7 3d 40 cc 12 3d 34 68 17 bf 00 de 79 3e
       0.105368085 0.03583932 -0.59143376 0.24401093
000320 1f 7e 5e bc c7 1f a6 be 9c 54 ed be 89 7d 00 3d
       -0.013579874 -0.3244612 -0.46353614 0.03136972
000330 14 49 e4 3b 22 68 42 bf fd 33 de 3d 33 ad 17 3f
       0.0069667194 -0.75940144 0.1084976 0.59248656
000340 33 a3 16 3e c9 22 09 3e 90 e9 43 bd 40 4e f6 be
       0.14710693 0.13392176 -0.047830164 -0.48106575
000350 bf a9 00 3b 40 37 22 3f 8c f0 6f be 08 fa 8f 3d
       0.0019632427 0.63365555 -0.23431605 0.070301116
000360 d4 31 2c 3f f9 5c e0 be 0e 34 ef 3e b9 2b f9 3e
       0.6726353 -0.43820933 0.46719402 0.4866617
000370 21 e8 a1 be b8 f4 6a 3e f2 27 13 3d 3a 01 14 3e
       -0.31622413 0.22944915 0.035926767 0.14453593
000380 b9 b0 17 3e 81 db 19 bd 21 4d b0 3e 94 a4 50 bf
       0.14813508 -0.03756285 0.34433845 -0.81501126
000390 6d d6 06 3f 3d a5 c4 3e 65 a4 06 bf ba 22 0d 3e
       0.5267094 0.38407317 -0.52594596 0.13782778
0003a0 71 13 99 3d e1 c0 8f 3e b2 d9 28 bf 32 11 84 3d
       0.07474411 0.28076842 -0.65957177 0.06448592
0003b0 96 d5 07 be 80 66 d8 be 20 ab 94 3d 75 28 68 3f
       -0.1326507 -0.422657 0.07259202 0.9068673
0003c0 bf 0c 3c 3f 71 f3 c9 bd d6 ac 29 3e 45 ee 00 bf
       0.7345695 -0.09860886 0.16569838 -0.5036357
0003d0 49 7b d4 bc 98 0b f7 3d e3 5c 4d 3d e7 5d 93 bd
       -0.025937693 0.12062758 0.05013741 -0.07195645
0003e0 2b 4a 53 3f 56 20 3c bf 08 82 98 3e 76 84 08 3f
       0.82535046 -0.7348684 0.29786706 0.5332712
0003f0 85 c1 97 bd 09 c7 12 be a9 ca 7b 3c ac 91 aa bd
       -0.07409958 -0.14333738 0.015368142 -0.08328566

net.bn2.weight f4 [16]
000000 a2 67 9d 3f fd 61 e8 3e 61 d2 df 3f 18 89 d2 3f
       1.2297251 0.4538726 1.7486078 1.6448088
000010 cd 7c e8 3f e9 55 eb 3f ad 39 a0 3f 85 2b aa 3f
       1.8163086 1.8385593 1.2517601 1.3294531
000020 a8 2a 55 3f 07 39 88 3f d8 b3 dd 3f 0b 24 e7 3f
       0.83268213 1.0642403 1.7320509 1.8057874
000030 04 4e a5 3f 6d 26 a9 3f 4f 53 85 3f 69 58 74 3f
       1.2914433 1.3214852 1.0416049 0.95447403

net.bn2.bias f4 [16]
000000 55 ae 0e be a5 3d a9 3c b6 1c ad be 42 e1 e5 be
       -0.1393369 0.020659277 -0.33810967 -0.4489842
000010 80 88 db be a1 0a d6 be c7 cc ca bd 3b 32 c6 be
       -0.4287758 -0.41804984 -0.099023394 -0.38710198
000020 7c 7e ef bd 75 74 99 be 95 3c 9a be 63 60 c2 be
       -0.11694047 -0.29971662 -0.30124345 -0.37964162
000030 7a f0 97 be 73 b9 a3 bd 88 ea a0 be 50 10 3f be
       -0.29675657 -0.07994356 -0.31428933 -0.18658566

net.bn2.running_mean f4 [16]
000000 b5 4d bb 3c 33 48 fd bc 46 54 ab 3b ae 0c a0 ba
       0.022864202 -0.030918216 0.005228552 -0.001221081
000010 70 12 b7 bc d5 07 90 bd 73 ee 3c bd 34 74 53 bd
       -0.022347659 -0.07032744 -0.04612584 -0.05162449
000020 53 ac 21 bc 8b bf be bc 04 b1 9f 3c fc 29 11 bd
       -0.009867745 -0.023284694 0.019493587 -0.03544043
000030 de 9a 02 3c 55 ae 2d 3d f8 be ca bd e9 11 69 bb
       0.0079714935 0.042402584 -0.09899706 -0.0035563654

net.bn2.running_var f4 [16]
000000 4d 0a 1f 41 2d c0 92 40 67 aa e9 40 4c 1f 99 40
       9.940015 4.585959 7.302051 4.7850704
000010 03 45 31 41 e9 dd 27 41 06 cf 7e 41 9c f7 8e 41
       11.079349 10.491677 15.925543 17.870903
000020 59 84 f8 40 ff 48 91 41 41 ab 2d 41 90 a2 d7 40
       7.7661557 18.160643 10.85431 6.738594
000030 38 38 cb 41 b2 60 ff 41 d5 4c 15 41 91 f9 db 40
       25.40245 31.922215 9.331258 6.8742146

net.point_conv.weight f4 [16, 16, 1, 16]
000000 2a b6 ca 3e 17 af 98 3e d0 60 b2 3e c4 35 11 3e
       0.39592105 0.29821083 0.34839487 0.14180666
000010 94 62 cd 3d b2 d0 87 3c 22 f3 e9 bc 74 ea 9e bc
       0.10028568 0.016579006 -0.028558318 -0.019398905
000020 1a 23 9e bd 33 24 f7 3b 49 98 98 bd 34 5d ad 3c
       -0.07721539 0.007542157 -0.07450921 0.021162607
000030 bb 26 60 3d 03 b1 73 3d 1d e5 ec 3c 83 91 81 3d
       0.054724436 0.059494983 0.028917843 0.06326582
000040 5d fb 9b 3b f9 da c9 3b 56 f5 5e 3d d0 98 04 3d
       0.0047601894 0.006160137 0.05443319 0.032372296
000050 92 f8 de bb 07 9b 39 3d d1 dd 34 3c c7 a6 8c 3d
       -0.0068045342 0.04531386 0.011039213 0.06867748
000060 17 48 ba bc 4e 91 66 bc a3 74 69 bd 39 11 6d bd
       -0.022739453 -0.014072729 -0.056996 -0.057877753
000070 50 ab f1 bc f1 5a 6f bd 35 d8 ae bd bb ad 52 bc
       -0.029500633 -0.058436338 -0.08537332 -0.012858803
000080 f0 1d 2d bd 91 7f b7 bd b8 66 57 be 36 04 5b be
       -0.04226488 -0.08959878 -0.21035278 -0.21388325
000090 68 5b 69 be 40 63 b4 bd f2 9d c2 bd 2e a4 da bd
       -0.22788775 -0.08807993 -0.09502782 -0.10675846
0000a0 dc ff 39 bd e6 a2 87 bd 17 f3 e7 3d f9 3a 8f 3e
       -0.045410022 -0.06622867 0.113256626 0.2797468
0000b0 f1 43 a3 3e 69 0b b6 3e 84 cf 79 3e e6 91 46 3e
       0.31887773 0.3555558 0.24395567 0.19391593
0000c0 4f af 84 bd 1e 34 bd 3b 31 36 0a 3e 10 15 5c 3e
       -0.0647875 0.005774035 0.13497235 0.2149241
0000d0 a6 66 53 3e 5b 2a 76 3e fd f3 29 3e 18 73 cb 3d
       0.20644626 0.24039595 0.1659698 0.09934062
0000e0 e2 33 0a be 2f 36 0a be 53 c7 97 be 25 b9 82 be
       -0.13496354 -0.13497232 -0.2964426 -0.2553188
0000f0 0c da 97 be ad 1e 79 be 18 f5 ed bd 97 8f 89 bc
       -0.29658544 -0.24328108 -0.116190135 -0.016792102
000100 09 bc 48 3d b3 c0 8a 3e bf 5a bc 3e ec b0 db 3e
       0.04900745 0.27100143 0.36787984 0.42908418
000110 e0 0a e8 3e 90 f7 70 3e e0 47 2f 3e 1f 0c 72 3b
       0.45320797 0.23531938 0.17117262 0.0036933494
000120 71 12 8a be 6a 26 d5 be d6 aa c8 be 57 08 08 be
       -0.26967195 -0.4163087 -0.39192837 -0.13284431
000130 0d 9c bd bc 19 77 86 3e d0 07 cc 3e 13 7d c3 3e
       -0.0231457 0.2626274 0.3984971 0.38181362
000140 72 bb 52 3c ef 79 9f bd 8f 9e 35 be 45 b9 16 be
       0.012862073 -0.07786929 -0.17736267 -0.14719112
000150 f1 9b 7a 3d ea 68 9d 3d f0 c5 96 3e f1 c9 be 3e
       0.061183874 0.076860264 0.2944789 0.37263444
000160 34 3a ae 3e df 3e ef 3e 6d e5 c2 3e 0b 0c 8f 3e
       0.3402878 0.46727654 0.38065663 0.27938876
000170 6e bc 5e 3d 8b f8 21 be f5 b0 26 be 1f 58 17 bd
       0.05437892 -0.15817468 -0.16278441 -0.036949273
000180 b0 9b 67 3e 17 ae 76 3e be fa 89 3e 5c 31 85 3e
       0.22617984 0.24089848 0.26949114 0.2601422
000190 ef ec 8b 3e 81 bd 8f 3e 6f 28 53 3e c6 79 16 3e
       0.27329203 0.28074268 0.20620893 0.1469489
0001a0 c4 bc 01 3e 3c 3a 3e 3d 97 e2 60 bd dd a5 ee bd
       0.12669665 0.046442255 -0.054903593 -0.1165273
0001b0 1c 12 c8 bd 07 dd a8 bd 08 32 81 3c 0e 4f db 3d
       -0.09769079 -0.082452826 0.015770927 0.10708438
0001c0 27 8c a6 be 0c 90 bb be fb ff 83 be 12 01 c2 bd
       -0.32528803 -0.36633337 -0.25781235 -0.094728604
0001d0 d8 7f a7 3d 2d 22 11 3e 77 10 49 3e ef 73 2c 3e
       0.08178681 0.14173193 0.19635187 0.168411
0001e0 19 e8 fb 3d df 8c d0 3d a0 6f c7 3d e1 55 7b bd
       0.123001285 0.10183119 0.09738088 -0.061361197
0001f0 a8 e7 05 bd ef cd 92 bd ed dd b3 bd 1c 73 d8 bd
       -0.032691628 -0.07168185 -0.08782563 -0.1056883
000200 03 4f 8a 3d 45 71 b9 3d fe 9a 0a 3e 3e f1 0e 3e
       0.067533515 0.090548076 0.13535687 0.13959214
000210 8a 10 24 3e b3 a8 1a 3e 32 2e 8c 3e 79 e5 5f 3e
       0.16021934 0.15103416 0.27378994 0.2186488
000220 ad 86 67 3e 06 00 50 3e 43 92 5a 3c 3e 91 9d bb
       0.22609968 0.20312509 0.013340536 -0.004808574
000230 66 cc 22 be aa 9f 24 be 45 0e 55 be 59 da 31 be
       -0.15898284 -0.16076532 -0.20806225 -0.1736845
000240 f4 58 b0 3b 16 39 26 3d c9 df da bc 33 9b 25 bd
       0.005381698 0.040581785 -0.026718037 -0.040431213
000250 78 36 0a bd 6e 26 1c bd 33 ce a3 bd d4 74 09 be
       -0.03374335 -0.038122587 -0.07998314 -0.13423473
000260 04 ab 02 be ec a8 f3 bd 97 a5 08 bd b1 fa 24 3c
       -0.1276055 -0.11897454 -0.033361044 0.010069535
000270 40 ab c0 3d 72 d8 b2 3c b0 38 96 3d eb 97 86 3d
       0.09407663 0.021831725 0.07335031 0.06571945
000280 86 7c 09 be 8b b3 b4 bd 5e ca 2d be 14 25 81 be
       -0.13426408 -0.088233076 -0.16971728 -0.252236
000290 e5 0e a8 be eb 3a dd be 49 bb 8f be a8 bc 18 be
       -0.32823864 -0.43209013 -0.28072575 -0.14915717
0002a0 25 ba a4 bd 3d cc 08 be 22 52 de bd cf db a3 bd
       -0.08043317 -0.1335916 -0.10855509 -0.080009095
0002b0 4d 8b 43 bd bf 70 21 be 42 03 71 be 82 a1 a6 be
       -0.04774027 -0.15765665 -0.23536399 -0.32545096
0002c0 36 1f 70 ba e3 32 36 be 3c 6a 5d be e4 de a8 be
       -0.0009159924 -0.17792849 -0.21622556 -0.32982552
0002d0 fe f6 a8 be 05 49 b0 be ea 0b 37 be d2 9b 57 3c
       -0.3300094 -0.3443071 -0.17875639 0.013159709
0002e0 53 2c dc 3d a5 9c 65 3e 24 29 11 3e 96 97 39 3e
       0.10750642 0.22423036 0.1417585 0.18124232
0002f0 08 5a d3 3d 67 8a 27 3b 32 61 53 be 67 44 99 be
       0.103199065 0.0025564672 -0.20642546 -0.29935
000300 98 96 ad 3d 3b bb 8b 3d fa 50 e8 3d 85 6e 10 3e
       0.08475989 0.06822821 0.1134357 0.1410466
000310 d8 e2 74 3e 23 94 7f 3e 04 d2 a5 3e 08 d9 aa 3e
       0.23914659 0.24958853 0.32386792 0.33368707
000320 63 93 b2 3e 07 64 b6 3e 1c 43 82 3e 6d 34 ff 3d
       0.34878072 0.3562319 0.25441825 0.12461171
000330 33 85 63 3c d5 db a0 3c c1 d3 1c bd 55 85 0d bd
       0.013886738 0.019636074 -0.03828788 -0.034550983
000340 0b 31 51 be f8 25 43 be ba 48 b5 bd 0b bb 3b be
       -0.20428865 -0.19057453 -0.08851762 -0.1833307
000350 9e 49 17 bd 2a f2 ae 3d da b9 8c 3d 01 1d 35 3e
       -0.03693544 0.08542283 0.06871386 0.17686845
000360 33 3b a0 3d 43 ac 2c 3e bf 8d b0 3d 4a ae 01 3e
       0.07823791 0.16862588 0.08620786 0.12664142
000370 2a 91 84 3d 2d c1 05 3d 5d 78 c3 bd 18 33 35 bc
       0.06473 0.03265493 -0.09544442 -0.011059545
000380 82 c6 8b bc 25 a9 73 3d 20 a3 87 3d b0 5c 80 3d
       -0.01706243 0.05948748 0.066229105 0.06267679
000390 e9 26 80 bd 02 76 a5 bd 46 6d 38 be 64 bb 0e be
       -0.062574215 -0.08079149 -0.18010435 -0.13938671
0003a0 41 47 ed bd 00 4b 3a be c3 52 8f be 58 87 59 be
       -0.11585856 -0.18192673 -0.2799283 -0.21243036
0003b0 d6 d1 5a be 04 c9 2c be 11 4b 03 be 33 81 c7 bb
       -0.21369109 -0.16873556 -0.12821604 -0.0060884
0003c0 31 ea b8 3d 3d ba 16 3e c0 cc a1 3d a9 dd 14 3e
       0.090290435 0.14719482 0.07900381 0.14537682
0003d0 a0 ed 0a 3e ab 68 ee 3d 79 e3 09 3d ca 76 31 bc
       0.13567209 0.116410576 0.0336642 -0.010831544
0003e0 86 05 22 3b 2c 54 0d be a3 f2 c0 bd 7d 92 9b bd
       0.002472253 -0.1380164 -0.09421279 -0.075963
0003f0 74 a8 00 bd f2 6d 34 bd 96 d7 09 be 64 a8 d5 bd
       -0.03141065 -0.044050165 -0.13461146 -0.104325086

net.bn3.weight f4 [16]
000000 ea d4 3f 3f 42 f5 83 3f c4 5f be 3f b0 fc 8f 3f
       0.74934256 1.0309222 1.4872975 1.1248989
000010 e2 6b 8a 3f 8f 40 88 3f ec 7d 87 3f 14 04 8c 3f
       1.0814173 1.0644702 1.0585303 1.0938745
000020 53 59 a8 3f d8 13 84 3f 1d 70 c2 3f 2e 8f 8d 3f
       1.315226 1.0318556 1.5190464 1.105932
000030 2c 25 57 3f 91 a6 b3 3f c1 85 98 3f f6 95 ac 3f
       0.84041095 1.4035207 1.1915818 1.3483264

net.bn3.bias f4 [16]
000000 96 cf a2 3e 80 c6 4e 3d 4b eb 9a be 2a 61 61 3e
       0.31799 0.050482273 -0.3025764 0.22009721
000010 2a d9 25 3e 0c c3 df 3d 74 3c 65 3e f8 d0 2a 3e
       0.16196123 0.10925874 0.22386342 0.16681278
000020 39 cb d2 3c 9b c1 df 3d f5 5a 6c be 85 94 39 3e
       0.02573167 0.10925599 -0.23081572 0.18123062
000030 60 63 5c 3e 7e 18 ee bd 88 8e 07 3e 01 cf cd be
       0.21522284 -0.11625765 0.13237965 -0.40196994

net.bn3.running_mean f4 [16]
000000 8d 8c d9 3e 60 02 0b 40 a7 87 16 c0 71 32 25 40
       0.42490044 2.17202 -2.3520296 2.5812037
000010 c0 40 1a 40 2d 9c ce bf 2f ef 56 bf b3 32 5b bf
       2.410202 -1.6141411 -0.83958715 -0.85624236
000020 90 fe 89 3f 7c 97 a2 3f ee 2e 07 c0 34 45 12 40
       1.0780811 1.2702479 -2.1122394 2.2854738
000030 9f d3 b9 bd f3 cc df bf 62 5b af 3f 83 47 cf bf
       -0.09073567 -1.748442 1.3699763 -1.6193699

net.bn3.running_var f4 [16]
000000 c3 6a b1 42 35 05 00 43 22 ed 10 43 15 75 0a 43
       88.70852 128.02034 144.9263 138.45735
000010 a4 84 d9 42 31 ed cd 42 3c af af 42 c0 f9 19 43
       108.75906 102.963264 87.842255 153.97559
000020 bb 29 01 43 a8 0d 05 43 22 45 0a 43 e6 18 d8 42
       129.16301 133.05334 138.27005 108.04863
000030 da 50 88 42 45 b5 f4 42 c1 2b e1 42 89 d2 d4 42
       68.15791 122.35404 112.58546 106.4112

net.fc.weight f4 [32, 256]
000000 a0 8b 9a be 88 34 f8 3c 35 7b c5 be 61 2b 3b be
       -0.3018465 0.030298486 -0.38570562 -0.18278266
000010 94 66 73 be 0c 06 15 be f5 80 94 be a1 7e 2e be
       -0.23769599 -0.14553088 -0.29004636 -0.17040493
000020 db 14 3b be 97 5e bd be c4 07 9f bd 84 61 86 be
       -0.18269674 -0.3698623 -0.07765153 -0.26246274
000030 a6 d3 50 be dc 7a af 3d d8 f1 bb be 9b e6 23 be
       -0.20393237 0.085683554 -0.3670795 -0.16005938
000040 4a 9e ff bd 01 a1 f8 bd bd 8c 95 bd f1 bd 85 be
       -0.12481363 -0.12140084 -0.07302234 -0.26121476
000050 79 d8 94 be 66 30 79 be da c0 e2 be 13 f1 77 be
       -0.29071406 -0.24334869 -0.4428776 -0.24213056
000060 2e 04 27 3c 41 d1 ba be 58 6f 7e be c4 3c 4e be
       0.010193868 -0.36487773 -0.24847162 -0.20140368
000070 f0 24 9f be 67 24 a6 be 83 5c 01 bf 02 40 b0 bd
       -0.3108287 -0.32449648 -0.50531787 -0.086059585
000080 cf 5b 01 bc de be 06 3e 82 93 63 3e ba 2e fc 3e
       -0.007895424 0.13158748 0.22224239 0.492544
000090 3f a1 ca 3e 87 38 57 3e 09 6f 92 3e a0 a2 d9 3d
       0.39576146 0.21017657 0.28600338 0.106267214
0000a0 4e 61 ca 3e 5b fa 06 3e f2 f4 7b 3e a4 14 ac 3e
       0.39527363 0.1318144 0.24605158 0.33609498
0000b0 ad 88 bb 3e 75 7b 60 3e 9a b3 07 be 73 71 5d 3d
       0.36627713 0.21922095 -0.13252106 0.05406327
0000c0 5b 46 6e 3c 7d 31 e4 bd 31 42 cd be 1f 17 48 be
       0.014543141 -0.11142252 -0.40089563 -0.1954007
0000d0 12 61 a6 be e8 3a 13 bf 1d ee 02 bf 92 3e 3c be
       -0.32495934 -0.5751176 -0.5114458 -0.18383244
0000e0 c0 eb 42 be 58 0b 15 be f1 11 6e be 0e a3 5f be
       -0.19035244 -0.14555109 -0.23249032 -0.21839544
0000f0 a2 b2 96 be ad b6 cd be 5d e3 a5 bd 66 72 4d be
       -0.2943316 -0.40178433 -0.08100007 -0.20063171
000100 81 33 a3 be 08 a5 90 be 2e da dc bd 21 8f 32 be
       -0.31875232 -0.2825091 -0.10783802 -0.17437412
000110 66 49 86 be 8a b1 09 bf 4f 5e 8a be ac fd 98 be
       -0.26227874 -0.5378653 -0.27025077 -0.29881036
000120 af c8 95 be 8c b9 23 be 69 fa 30 be 2a f4 de be
       -0.29254672 -0.1598875 -0.17283024 -0.43545657
000130 d8 5d 88 be e8 df 9a be 64 b3 71 be ad 23 5e be
       -0.26634097 -0.30248952 -0.23603588 -0.21693297
000140 4f c2 42 be 2f 3c ef bd 63 80 a9 bd 96 5e d1 3d
       -0.19019435 -0.11681401 -0.08276441 0.10223119
000150 da f1 04 be 7e 2c 3e 3e 2b 72 0a 3d 5d f3 dd bd
       -0.12982884 0.1857166 0.033800285 -0.108374335
000160 5b 54 92 bc de b7 47 3c ea fa 9d bd 83 20 d1 3d
       -0.01786249 0.012189833 -0.07713874 0.10211279
000170 de a0 fb 3e f3 37 9a 3d 27 ad 3e be 4c fe 85 be
       0.4914617 0.07530203 -0.1862074 -0.26170576
000180 ea 72 81 bd 59 36 98 bd dc c5 5b be c6 aa a4 bd
       -0.06320746 -0.07432241 -0.21462196 -0.08040385
000190 81 a2 bc bd 26 ca 2a be 33 7f ad bd 52 1c 26 bd
       -0.09210683 -0.16678676 -0.08471527 -0.040554352
0001a0 af 05 17 bc 75 3f b9 3d 8b 54 13 be f7 64 73 be
       -0.009217664 0.090453066 -0.1438772 -0.23768984
0001b0 b0 3d 5b 3e 8b b5 7a 3b bd bf fd 3d 3f 36 1a 3d
       0.2141025 0.003825518 0.12390087 0.03764939
0001c0 e8 04 6f be 0f 2a bf be 9a 1f 3f 3e cd fa 36 3d
       -0.23341715 -0.37336776 0.18664399 0.044672776
0001d0 56 2f ef bd 2d 8d 9c be 24 a3 49 be 78 74 76 bc
       -0.116789505 -0.3057646 -0.1969114 -0.015042417
0001e0 13 6e 8b be 34 a3 4e be ca 63 45 3c d4 f1 c0 bd
       -0.27232417 -0.20179445 0.012047717 -0.09421125
0001f0 86 f8 06 3b be 0a 83 3e fe de 5d bd 66 32 4e be
       0.002059491 0.25594133 -0.05416774 -0.20136413
000200 c0 38 51 be 85 48 20 be dc 60 89 bb 81 cb 24 be
       -0.20431805 -0.15652664 -0.0041924547 -0.16093256
000210 d4 fb 5f be b9 77 72 be 88 5a c5 be 2f 50 b0 be
       -0.21873409 -0.23678483 -0.38545632 -0.34436175
000220 ce 6c 1c bf ef 9b 67 be d5 8e aa be 1d 6d c3 be
       -0.6110352 -0.22618078 -0.33312097 -0.38169184
000230 57 72 60 be de ad df be 24 8f f8 bd 15 06 f3 3a
       -0.21918617 -0.43687338 -0.12136677 0.0018541241
000240 3b ec 95 be 46 4b 6a 3e 91 12 eb be 10 a3 e3 be
       -0.29281792 0.22880277 -0.45912603 -0.44460344
000250 a3 c5 62 3d 05 f2 c0 bd 10 5e f5 be 19 2b 08 bf
       0.055364262 -0.094211616 -0.47923326 -0.5319076
000260 92 fe f9 bd b4 61 b3 be a7 0c 88 be a8 75 2f 3c
       -0.122067586 -0.3503548 -0.26572153 0.010709204
000270 07 f6 b9 be 77 b3 2a be 52 30 5e be e8 82 a7 be
       -0.36320516 -0.16670023 -0.2169812 -0.3271706
000280 ee 99 d5 bd 99 11 17 bd 99 a0 e5 3d 3d 8b 88 bc
       -0.104297504 -0.036882017 0.11212272 -0.016667956
000290 df d6 7a 3e b4 2c 20 3e 01 5e b1 3e e5 38 90 3d
       0.2449603 0.15642053 0.34642032 0.07042102
0002a0 7c db 04 3e ab b0 7f 3e 34 db df 3e b5 e5 25 bd
       0.12974352 0.24969737 0.43721926 -0.04050227
0002b0 de 3b 2e 3e 90 59 0f 3f 2e 1a 84 3e 2d 6d 58 3e
       0.17015025 0.55996037 0.25801224 0.21135397
0002c0 44 dc e3 bd 31 2a 43 be 9a 9e 1d be 1f a4 da bd
       -0.11125997 -0.19059063 -0.15392533 -0.10675835
0002d0 0f fc 99 be ce a2 b2 be 1b d5 1a bd dd b2 8f bd
       -0.30075118 -0.34889835 -0.03780089 -0.07016537
0002e0 0b ba 27 be 4a 7a 49 3d 80 20 20 3c 37 a8 46 be
       -0.16379564 0.04918889 0.009773374 -0.19400106
0002f0 e6 f3 e5 be d2 7f c1 be 16 1a dd be dd 85 70 be
       -0.44912642 -0.37792832 -0.43183964 -0.23488565
000300 93 da 5a 3d 09 da 3c bd 34 14 7e bd 54 9c 39 3d
       0.053431105 -0.046106372 -0.062030986 0.0453151
000310 60 f9 25 be 1d df 0e be 16 b2 f5 bc 21 81 ba bd
       -0.1620841 -0.13952298 -0.029992145 -0.09106661
000320 90 42 23 be 20 36 8c 3e b8 96 8d bb 57 7e 53 be
       -0.1594336 0.27385044 -0.0043209456 -0.20653664
000330 88 ff ad 3c 27 65 c6 3d 5b d9 56 be e4 20 40 be
       0.02124001 0.09687262 -0.20981352 -0.18762547
000340 71 b3 90 3e 1f 0b 6b be c6 f7 33 bc 1b 3f d3 3c
       0.28261903 -0.22953461 -0.010984367 0.025786927
000350 cf 97 44 3e 20 3a 08 3e 78 99 e0 3e 50 77 55 3e
       0.19198535 0.13303423 0.43867087 0.20846295
000360 d2 7f 49 3e db 30 df 3d 70 dd 3b bd 21 1f af 3e
       0.19677666 0.1089799 -0.045865476 0.34203437
000370 d3 ca 50 3e 0a f9 87 3e a2 79 55 3e 21 44 80 bd
       0.20389871 0.2655719 0.2084718 -0.062629946
000380 54 23 63 be 47 ed 37 3d 61 f1 63 be c8 58 99 be
       -0.22181445 0.04490402 -0.22260047 -0.29950547
000390 9e 3e 1c bf f7 ab 3c be ea e5 3d be 62 1a 0a be
       -0.61033046 -0.18424974 -0.18544737 -0.13486627
0003a0 ba 5c 50 bd 35 c2 bd be 45 11 85 be ea 35 14 be
       -0.05086968 -0.3706223 -0.25989738 -0.14473692
0003b0 cd 72 b7 be 20 49 20 be 56 f1 16 be 09 f4 f8 3c
       -0.35829774 -0.15652895 -0.147405 0.030389803
0003c0 af c5 6f be 0f c0 b2 3e f2 d7 19 3e 37 47 61 3e
       -0.23415254 0.34912154 0.15023783 0.21999823
0003d0 96 a9 c4 3e 87 79 95 3e d9 e5 a3 3e f5 b2 68 3e
       0.38410634 0.2919428 0.32011297 0.22724517
0003e0 2f c8 44 3e 8b de 15 3e ab 32 17 3e 18 2b c3 3e
       0.19216989 0.14635675 0.14765422 0.38118815
0003f0 62 fb 15 3f ba 7f da 3e 95 70 a2 3e 92 fe 37 3c
       0.58586705 0.42675573 0.31726518 0.011230128

net.fc.bias f4 [32]
000000 5b 74 3c bf 4d c8 92 3d b7 0a 91 be 7d f7 33 3f
       -0.73615044 0.071671106 -0.28328487 0.7029951
000010 95 8e 1a bf c1 09 14 be 93 04 6b 3e 4b a7 08 3f
       -0.6037381 -0.14456846 0.22950964 0.5338027
000020 16 f8 ae 3c 20 7e 2d be 57 90 22 bf 24 27 fc 3d
       0.021358531 -0.16942644 -0.63501495 0.12312153
000030 ec 56 87 be 30 5e ff 3e a2 b0 2b be 5c df 9e be
       -0.26433504 0.49876547 -0.16766599 -0.31029785
000040 63 ac 3c bf f4 0f b3 be c5 31 06 3f c9 f6 4d 3f
       -0.7370054 -0.3497311 0.5241969 0.8045469
000050 2c 67 46 3e c7 19 2b bd 14 85 42 3e b9 91 24 bf
       0.19375294 -0.04177263 0.18996078 -0.64284855
000060 b0 f2 eb be 8f 86 62 3d ad 7e 47 3f c9 fc f3 bd
       -0.46083593 0.055304106 0.77927667 -0.11913449
000070 fa 49 aa 3e ba 2f 1c 3f 8a e1 d3 3e 9e ad 34 3d
       0.33259565 0.61010325 0.4138301 0.044110887

exp_avg f4 [8, 1, 1, 256]
000000 9f 42 f0 38 3b 44 ea 38 f3 3b a8 38 cc b4 1c 38
       0.00011456501 0.000111706984 8.022031e-05 3.736168e-05
000010 e7 98 79 36 1b 41 90 b6 5e d9 a7 37 f5 e3 94 38
       3.7192892e-06 -4.2991137e-06 2.000917e-05 7.09965e-05
000020 ef ee 0a 39 20 d4 41 39 db 46 5c 39 83 c3 51 39
       0.00013249715 0.00018484937 0.0002100723 0.00020004627
000030 d2 c8 26 39 c6 01 d7 38 d9 26 54 38 14 8c aa 37
       0.00015905805 0.00010252329 5.058092e-05 2.0330808e-05
000040 6d 86 ab 37 c8 24 48 38 11 e8 b8 38 50 97 00 39
       2.0447385e-05 4.771797e-05 8.8170294e-05 0.000122634
000050 f4 db 0a 39 91 c9 e1 38 74 be 4f 38 d1 be e7 b7
       0.00013242644 0.00010766381 4.953002e-05 -2.7626202e-05
000060 88 26 d6 b8 63 f6 21 b9 4b 8a 34 b9 20 bb 22 b9
       -0.00010211492 -0.00015445943 -0.00017217656 -0.00015519233
000070 be 79 f1 b8 67 b6 94 b8 75 da 33 b8 b6 0f 3c b8
       -0.00011514452 -7.091165e-05 -4.288038e-05 -4.4837325e-05
000080 16 31 a7 b8 f2 95 0e b9 7e 29 4b b9 79 b9 73 b9
       -7.9723235e-05 -0.00013598034 -0.00019375046 -0.0002324338
000090 18 58 79 b9 14 a0 59 b9 72 98 1f b9 d6 ec be b8
       -0.00023779308 -0.00020754366 -0.00015220212 -9.10402e-05
0000a0 34 e0 3b b8 37 ce f9 b7 9c 1b 54 b8 55 e8 ce b8
       -4.479308e-05 -2.977914e-05 -5.0570452e-05 -9.866121e-05
0000b0 77 b2 22 b9 2c f2 4f b9 a2 b7 5d b9 26 03 46 b9
       -0.00015516007 -0.00019831274 -0.00021144611 -0.00018883924
0000c0 b9 b4 10 b9 db 64 a1 b8 59 ff dd b7 7d 52 b0 b6
       -0.00013800235 -7.695864e-05 -2.6464159e-05 -5.2548116e-06
0000d0 96 42 b0 b7 17 86 8e b8 c2 0c 07 b9 79 29 3e b9
       -2.1011841e-05 -6.796064e-05 -0.00012879356 -0.00018135262
0000e0 f7 af 58 b9 c8 46 4d b9 ec c1 1f b9 fe 21 c1 b8
       -0.00020664917 -0.00019576692 -0.00015235663 -9.209289e-05
0000f0 70 d1 16 b8 a4 cf 99 b6 ca 03 1d b7 f7 ff 4b b8
       -3.595784e-05 -4.583928e-06 -9.358811e-06 -4.8637357e-05
000100 f7 70 e1 b8 66 e8 2b b9 64 9d 4d b9 63 74 47 b9
       -0.000107498774 -0.00016394406 -0.00019608956 -0.00019021476
000110 70 59 19 b9 7b 61 a3 b8 56 17 e9 b6 f7 9d 37 38
       -0.00014624535 -7.790603e-05 -6.946658e-06 4.3777716e-05
000120 8c d8 75 38 b7 d1 13 38 72 6a 6d b7 fe 36 8f b8
       5.8614227e-05 3.5242843e-05 -1.41510845e-05 -6.8290145e-05
000130 a7 66 dc b8 32 86 e3 b8 cd 48 9f b8 4f 5d 9f b7
       -0.00010509538 -0.00010849199 -7.595271e-05 -1.8997727e-05
000140 96 d9 2e 38 df 94 af 38 a6 50 bb 38 e8 5d 62 38
       4.1687475e-05 8.37238e-05 8.931877e-05 5.3970056e-05
000150 eb f1 44 b7 2f 78 b5 b8 d0 b2 19 b9 f3 85 34 b9
       -1.1738836e-05 -8.6531385e-05 -0.0001465783 -0.00017216038
000160 77 0c 24 b9 67 22 e1 b8 cc 4e 3a b8 ea ef 0d 37
       -0.00015644902 -0.00010735244 -4.441924e-05 8.460114e-06
000170 f8 65 fd 37 1b 13 42 37 d3 62 2e b8 ee 51 e7 b8
       3.0207433e-05 1.1567749e-05 -4.157687e-05 -0.00011030199
000180 10 0f 32 b9 6d dd 50 b9 40 98 44 b9 f4 e8 11 b9
       -0.00016981014 -0.00019918913 -0.00018748734 -0.0001391506
000190 63 d9 95 b8 42 c5 0f b7 c5 c7 e3 37 01 da c5 37
       -7.145365e-05 -8.569392e-06 2.7153534e-05 2.3585746e-05
0001a0 d7 8f 89 b7 23 3b 9e b8 c1 4a 06 b9 3a db 1e b9
       -1.6398653e-05 -7.545042e-05 -0.00012807084 -0.00015149722
0001b0 d5 ec 0a b9 5a 45 98 b8 4b 7a 4d 37 7b 51 cd 38
       -0.00013248932 -7.2608425e-05 1.2247426e-05 9.790339e-05
0001c0 84 24 27 39 29 7c 3d 39 af 2e 29 39 24 92 f2 38
       0.00015939964 0.00018070698 0.00016134487 0.0001156668
0001d0 1a bc 8d 38 d2 a7 2c 38 b6 5d 5d 38 11 78 da 38
       6.7584406e-05 4.116429e-05 5.277778e-05 0.00010417414
0001e0 84 94 3e 39 a7 11 89 39 15 d9 a6 39 e7 29 af 39
       0.00018175138 0.00026143828 0.00031823726 0.0003340982
0001f0 a1 23 a0 39 8c 1f 80 39 af 91 37 39 af ba 01 39
       0.00030544124 0.00024437567 0.00017506511 0.00012371944
000200 f6 59 e5 38 0a ed 0f 39 34 1d 50 39 e3 24 8e 39
       0.000109363275 0.00013725847 0.00019847305 0.00027111833
000210 a2 c1 ac 39 e4 49 b9 39 5b 93 af 39 ac 91 93 39
       0.00032950664 0.00035341003 0.0003348839 0.0002814656
000220 d2 b1 5f 39 7e 36 23 39 f9 b0 07 39 5f 92 16 39
       0.0002133318 0.00015565191 0.0001294053 0.00014359642
000230 5d a8 49 39 dd a6 86 39 23 79 a3 39 49 70 af 39
       0.00019231574 0.00025682795 0.00031180037 0.0003346226
000240 27 64 a4 39 a0 42 84 39 77 fd 30 39 dd 2f bb 38
       0.00031355137 0.0002522664 0.00016879091 8.92577e-05
000250 ff 5a 20 38 2c 81 f8 37 bd e6 80 38 d0 bf f5 38
       3.823172e-05 2.9624054e-05 6.146494e-05 0.00011718238
000260 26 ec 33 39 2c 1d 52 39 d0 5f 45 39 26 6f 0d 39
       0.00017158742 0.00020038028 0.00018823077 0.00013488214
000270 a6 25 68 38 cd 6f d2 b7 1b 43 aa b8 66 2e ca b8
       5.5348173e-05 -2.5086012e-05 -8.118731e-05 -9.640753e-05
000280 63 e4 91 b8 ba bc 75 b7 18 55 3c 38 29 b3 b0 38
       -6.956679e-05 -1.4647079e-05 4.4901943e-05 8.425705e-05
000290 5d 3d b5 38 a0 58 4a 38 03 12 a6 b7 6e c3 c6 b8
       8.6421824e-05 4.824309e-05 -1.979713e-05 -9.477777e-05
0002a0 95 4b 1e b9 29 47 31 b9 9b 04 17 b9 4c b7 b4 b8
       -0.0001509621 -0.00016906545 -0.00014402198 -8.6172106e-05
0002b0 67 d4 90 b7 9e 28 1c 38 05 0d 70 38 31 6f 16 38
       -1.7265045e-05 3.7231126e-05 5.7232584e-05 3.5866342e-05
0002c0 5c a3 98 b7 81 41 b0 b8 19 37 0f b9 86 68 23 b9
       -1.8195882e-05 -8.404535e-05 -0.00013658068 -0.0001558383
0002d0 d9 2b 0d b9 e2 a4 a8 b8 1c d2 5c b7 4c c6 2f 38
       -0.00013463142 -8.041576e-05 -1.3161942e-05 4.190793e-05
0002e0 16 ff 86 38 98 55 40 38 8f 9f e5 b6 a2 5f 9c b8
       6.4371314e-05 4.5856083e-05 -6.843307e-06 -7.456473e-05
0002f0 fa 09 0b b9 c2 b0 26 b9 ff 2e 16 b9 8f 66 bc b8
       -0.0001325979 -0.00015896841 -0.00014322622 -8.9836416e-05
000300 25 17 88 b7 a5 40 63 38 21 a3 cf 38 d9 c5 dc 38
       -1.622324e-05 5.4181222e-05 9.900914e-05 0.000105272695
000310 63 47 9c 38 fd 58 b2 37 fe f1 03 b8 6b 53 81 b8
       7.4519565e-05 2.1260692e-05 -3.1458207e-05 -6.166737e-05
000320 f9 5a 6c b8 ee 31 85 b7 cf 05 44 38 2e 23 e8 38
       -5.635151e-05 -1.5878086e-05 4.673545e-05 0.00011069175
000330 c6 58 21 39 5b 81 29 39 c1 d6 0a 39 4d 1b a2 38
       0.00015387227 0.00016165285 0.00013240708 7.729847e-05
000340 83 f1 8f 37 e6 79 db b7 66 d7 1c b8 4c 3a 62 b7
       1.7159391e-05 -2.6163598e-05 -3.7393904e-05 -1.3484223e-05
000350 31 83 17 38 10 55 c3 38 c3 94 0f 39 2d a0 1e 39
       3.6123387e-05 9.314169e-05 0.00013692961 0.00015127724
000360 6c f1 09 39 fb 3b b3 38 75 15 01 38 ed 03 57 b7
       0.00013155275 8.5465574e-05 3.077598e-05 -1.2815913e-05
000370 07 e7 f7 b7 96 02 6d b7 91 d6 e2 37 54 ee a3 38
       -2.9552275e-05 -1.4126903e-05 2.7041215e-05 7.816838e-05
000380 19 43 fa 38 df 70 0b 39 0a f3 e8 38 dd ee 76 38
       0.00011933427 0.00013298121 0.000111078916 5.887343e-05
000390 f0 00 13 b7 30 0c 93 b8 7e 09 dd b8 cf 74 db b8
       -8.762101e-06 -7.011776e-05 -0.00010539869 -0.00010464491
0003a0 55 d1 93 b8 1a 0a 8c b7 12 8c 19 38 94 74 92 38
       -7.048497e-05 -1.6694004e-05 3.6608493e-05 6.983537e-05
0003b0 19 bb 95 38 b8 53 32 38 3b da 89 b6 4d f8 4c b8
       7.139723e-05 4.2516476e-05 -4.1083235e-06 -4.886864e-05
0003c0 df df 94 b8 69 4c 76 b8 64 b0 5a b7 fe 30 62 38
       -7.098889e-05 -5.8722133e-05 -1.3034882e-05 5.3928226e-05
0003d0 92 f4 ff 38 ac 8e 33 39 ff fa 44 39 97 36 32 39
       0.00012204902 0.0001712392 0.0001878552 0.00016995739
0003e0 e5 6a 06 39 7c a6 a9 38 6d 8f 47 38 09 6e 2f 38
       0.00012819057 8.089558e-05 4.7578873e-05 4.182573e-05
0003f0 a7 dd 89 38 77 77 e6 38 48 79 24 39 29 35 46 39
       6.573955e-05 0.00010989507 0.0001568544 0.00018902555

exp_avg_sq f4 [8, 1, 1, 256]
000000 f7 91 3d 34 e5 fc 31 34 ea f9 16 34 b3 21 fe 33
       1.7655098e-07 1.6576412e-07 1.4060757e-07 1.18339265e-07
000010 94 44 e6 33 5e 27 df 33 a2 b7 e1 33 57 aa fa 33
       1.0722684e-07 1.03914076e-07 1.05107816e-07 1.1672517e-07
000020 32 2b 1a 34 a6 9b 3c 34 56 a6 4c 34 22 b7 3c 34
       1.4358082e-07 1.7565489e-07 1.9059493e-07 1.7575488e-07
000030 1c 4c 17 34 65 ac e8 33 38 ae c5 33 7d 46 be 33
       1.409066e-07 1.08347e-07 9.2052176e-08 8.860386e-08
000040 2f ff bf 33 c5 e1 cb 33 b1 69 ef 33 0a cd 11 34
       8.940548e-08 9.4939914e-08 1.114853e-07 1.357877e-07
000050 77 4a 22 34 a5 a3 1a 34 82 0f 01 34 1a b5 d6 33
       1.5114516e-07 1.4401901e-07 1.2019703e-07 9.998094e-08
000060 11 7d cf 33 34 77 df 33 4a 7e e6 33 a7 27 da 33
       9.661938e-08 1.04059296e-07 1.07331815e-07 1.0158629e-07
000070 6c 57 ce 33 46 90 d3 33 58 42 de 33 6f 39 d8 33
       9.6085245e-08 9.851696e-08 1.03497484e-07 1.0068731e-07
000080 c1 8c c5 33 37 0a c5 33 b2 ca e9 33 63 1c 0f 34
       9.19913e-08 9.1753854e-08 1.0886778e-07 1.332824e-07
000090 65 66 1b 34 bd 0c 10 34 7b d6 f4 33 ac 4a da 33
       1.4472751e-07 1.3415679e-07 1.1401149e-07 1.0164999e-07
0000a0 1f 24 d7 33 98 13 da 33 0e 38 de 33 2a 1c fa 33
       1.0018288e-07 1.015498e-07 1.0347877e-07 1.1646655e-07
0000b0 7f 47 1f 34 f0 93 49 34 22 fe 61 34 69 72 58 34
       1.4834039e-07 1.8773403e-07 2.1047211e-07 2.015819e-07
0000c0 89 63 38 34 dd 0a 1c 34 67 1e 0f 34 aa 81 0c 34
       1.7172546e-07 1.4532584e-07 1.3328973e-07 1.3085688e-07
0000d0 84 9d 0e 34 05 a2 1d 34 83 07 43 34 e8 41 76 34
       1.3282084e-07 1.4680707e-07 1.8163523e-07 2.2934512e-07
0000e0 34 3d 8e 34 ac 3e 8f 34 34 3a 81 34 4d 88 62 34
       2.6494092e-07 2.6681425e-07 2.407047e-07 2.1097476e-07
0000f0 fa 5e 51 34 79 fb 4e 34 10 92 50 34 fb 1e 5a 34
       1.9499194e-07 1.927673e-07 1.9424647e-07 2.0314103e-07
000100 aa 66 76 34 79 5b 91 34 33 f6 a3 34 ab 71 a6 34
       2.2947884e-07 2.707491e-07 3.054025e-07 3.1002614e-07
000110 db a3 99 34 26 45 89 34 35 ee 7e 34 3f f9 75 34
       2.861769e-07 2.556855e-07 2.3742253e-07 2.2908078e-07
000120 45 b6 6a 34 06 d6 5b 34 15 71 58 34 30 9b 69 34
       2.1859258e-07 2.0473826e-07 2.0157707e-07 2.1756273e-07
000130 36 50 81 34 32 8c 85 34 39 91 7d 34 af 28 68 34
       2.4086484e-07 2.4875186e-07 2.3615293e-07 2.1621484e-07
000140 2f 15 5b 34 5d ac 54 34 73 d6 46 34 0f 6f 30 34
       2.0403671e-07 1.9806744e-07 1.8518203e-07 1.643168e-07
000150 9d cb 20 34 d2 cb 26 34 82 ab 3a 34 fe 9f 42 34
       1.4975235e-07 1.5534104e-07 1.7384994e-07 1.8125863e-07
000160 3c 49 30 34 7a 6e 0e 34 83 a7 e7 33 b5 4f d0 33
       1.641792e-07 1.3264972e-07 1.0787246e-07 9.7002534e-08
000170 be 0f c4 33 5c c5 b4 33 d2 1d b8 33 e2 5b e9 33
       9.129825e-08 8.4178026e-08 8.573592e-08 1.08666214e-07
000180 75 8b 1d 34 f8 2b 3b 34 04 0b 38 34 6b 6f 1b 34
       1.4672499e-07 1.7431728e-07 1.7140343e-07 1.4476034e-07
000190 04 86 00 34 e2 11 f3 33 5e 39 ff 33 9f 49 07 34
       1.1969684e-07 1.1318822e-07 1.1884798e-07 1.2599638e-07
0001a0 15 dd 13 34 6d 7b 30 34 ab e0 59 34 b0 31 77 34
       1.3770871e-07 1.643618e-07 2.0291434e-07 2.3021744e-07
0001b0 b2 7b 70 34 18 07 49 34 be f6 1e 34 1b b7 09 34
       2.2396742e-07 1.8722164e-07 1.4804661e-07 1.2825733e-07
0001c0 74 45 05 34 8e fe ff 33 6a 4b eb 33 d4 ab e5 33
       1.2411857e-07 1.1920666e-07 1.0956758e-07 1.0694899e-07
0001d0 ac 8a 00 34 ba 28 14 34 fa 0b 1c 34 71 92 18 34
       1.1971377e-07 1.379839e-07 1.4532989e-07 1.4209378e-07
0001e0 36 2b 1f 34 b1 f9 3d 34 0f 1f 68 34 cf 56 7f 34
       1.4823749e-07 1.7692834e-07 2.1617983e-07 2.3780306e-07
0001f0 45 fe 76 34 3e ad 60 34 7b 0c 53 34 c8 e7 53 34
       2.3003038e-07 2.0924651e-07 1.9655447e-07 1.9735228e-07
000200 1c d7 57 34 aa 8b 58 34 f8 aa 63 34 52 8f 82 34
       2.0101692e-07 2.0167377e-07 2.120322e-07 2.4318666e-07
000210 5b 43 98 34 b8 fb a3 34 92 58 9d 34 c2 a1 8b 34
       2.8361214e-07 3.0544265e-07 2.9307972e-07 2.6008462e-07
000220 1d b3 79 34 f4 53 6c 34 9c 00 64 34 ab 35 53 34
       2.3255093e-07 2.2009755e-07 2.1234376e-07 1.967043e-07
000230 59 cf 3f 34 a8 45 3a 34 52 80 42 34 9c c7 44 34
       1.7863694e-07 1.734794e-07 1.811434e-07 1.832654e-07
000240 0a f5 31 34 ff cd 14 34 69 d1 05 34 cd 79 0e 34
       1.6573554e-07 1.3858515e-07 1.2462773e-07 1.3269091e-07
000250 53 e8 1d 34 bc 8c 1d 34 21 84 0b 34 eb eb f5 33
       1.4706283e-07 1.4672963e-07 1.2993452e-07 1.1451615e-07
000260 32 84 f3 33 97 70 00 34 fb 1e 01 34 95 8d fc 33
       1.13396155e-07 1.1961889e-07 1.2025332e-07 1.1760418e-07
000270 2c c9 08 34 1f 8a 27 34 4b 33 48 34 e4 f6 4f 34
       1.2739173e-07 1.5603335e-07 1.8645112e-07 1.9368196e-07
000280 2e 7e 38 34 6f 4c 17 34 60 75 05 34 36 45 06 34
       1.7182239e-07 1.4090777e-07 1.2429291e-07 1.2504901e-07
000290 ed bf 0c 34 e5 60 14 34 eb 96 26 34 b8 3c 4a 34
       1.3108338e-07 1.3818824e-07 1.5514858e-07 1.8834805e-07
0002a0 cf 67 71 34 25 fa 80 34 c2 90 72 34 8b bc 55 34
       2.248264e-07 2.4023862e-07 2.2590669e-07 1.9905762e-07
0002b0 16 c4 45 34 e3 4a 48 34 e8 c1 4c 34 de 35 47 34
       1.841839e-07 1.8653695e-07 1.9069523e-07 1.8552916e-07
0002c0 72 5c 3f 34 0e 54 44 34 7f 64 54 34 20 68 5d 34
       1.7821893e-07 1.8284501e-07 1.9780599e-07 2.062011e-07
0002d0 3d 15 53 34 96 f1 3f 34 76 13 3a 34 8f dc 46 34
       1.9658633e-07 1.787615e-07 1.732968e-07 1.8520426e-07
0002e0 84 e7 54 34 28 cf 52 34 d1 5c 44 34 37 84 3b 34
       1.9828263e-07 1.9633137e-07 1.8287689e-07 1.7463832e-07
0002f0 18 ac 3f 34 eb dd 44 34 32 ea 3c 34 93 f2 2b 34
       1.7850869e-07 1.8334656e-07 1.7594064e-07 1.6013864e-07
000300 b5 b5 24 34 85 62 2f 34 2e 70 3d 34 87 b3 3a 34
       1.5339795e-07 1.6333986e-07 1.7642807e-07 1.7387912e-07
000310 d0 3f 26 34 27 de 11 34 7e ae 0b 34 62 b9 0e 34
       1.548317e-07 1.3584996e-07 1.3008864e-07 1.3292222e-07
000320 c1 2c 0d 34 7c 7a 05 34 5d 0c 06 34 8a f2 17 34
       1.314793e-07 1.243115e-07 1.248422e-07 1.4151206e-07
000330 3e 9b 2e 34 60 e5 33 34 ef 77 21 34 d1 34 07 34
       1.626149e-07 1.675412e-07 1.5037925e-07 1.2592069e-07
000340 0b ae f0 33 19 3c ee 33 44 e9 ef 33 fb 9f eb 33
       1.1207529e-07 1.109367e-07 1.11717355e-07 1.09721405e-07
000350 75 ce f5 33 c2 91 10 34 4f 21 2d 34 8e e0 38 34
       1.1446256e-07 1.3464071e-07 1.6123998e-07 1.7218028e-07
000360 05 0d 28 34 d4 d9 07 34 09 c0 de 33 c9 78 cf 33
       1.5650956e-07 1.26521e-07 1.03726116e-07 9.661159e-08
000370 85 9c cf 33 ff ec cb 33 36 c2 cd 33 9d 34 eb 33
       9.6676594e-08 9.4960335e-08 9.581383e-08 1.09526106e-07
000380 9c 4a 0f 34 6b bf 20 34 a9 c5 1b 34 28 82 07 34
       1.3345056e-07 1.4970799e-07 1.4507408e-07 1.2620205e-07
000390 ae a1 ef 33 c8 75 ee 33 4e df f9 33 f0 a8 f8 33
       1.1158714e-07 1.1104163e-07 1.1635585e-07 1.15791295e-07
0003a0 5e 81 ee 33 5a 99 f6 33 d2 05 0d 34 ec ee 1e 34
       1.11062704e-07 1.1483162e-07 1.3133766e-07 1.4801816e-07
0003b0 09 ca 20 34 cd a2 13 34 f9 6c 08 34 e3 2b 0c 34
       1.4974661e-07 1.3749668e-07 1.2705631e-07 1.3054482e-07
0003c0 48 7d 1a 34 e5 18 27 34 24 d9 2d 34 b6 a1 38 34
       1.4387945e-07 1.5562144e-07 1.6190876e-07 1.7195165e-07
0003d0 f9 ba 4d 34 8a 25 62 34 25 c7 64 34 d4 14 52 34
       1.9160133e-07 2.1061547e-07 2.1306603e-07 1.9565351e-07
0003e0 7b c0 38 34 91 d2 28 34 54 87 22 34 18 38 1b 34
       1.720636e-07 1.5722823e-07 1.5136658e-07 1.4455907e-07
0003f0 9a 59 0e 34 c3 01 04 34 39 4a 07 34 ae a0 12 34
       1.3257377e-07 1.2294099e-07 1.2599857e-07 1.3655765e-07

exp_avg f4 [8]
000000 b3 e5 29 32 a7 92 0c b2 bd c2 a8 b2 9d 0f ea b0
       9.889322e-09 -8.182417e-09 -1.964633e-08 -1.7030178e-09
000010 dd 3c 20 b0 fa 04 ac 31 b2 99 97 b1 bd 5b 55 b1
       -5.8294153e-10 5.0064246e-09 -4.4121515e-09 -3.1047727e-09

exp_avg_sq f4 [8]
000000 4b 9e af 26 1b 3f ad 27 42 49 c0 26 e6 2a 27 26
       1.218597e-15 4.8085565e-15 1.3342533e-15 5.79979e-16
000010 45 de da 25 b6 ec 26 27 00 5d 18 26 e0 ee 97 26
       3.7967587e-16 2.316545e-15 5.286163e-16 1.0542477e-15

exp_avg f4 [8]
000000 fd 6b 91 2f e1 5e e8 af 8f b0 f3 2f b8 17 d5 af
       2.6452077e-10 -4.226797e-10 4.4326895e-10 -3.8761327e-10
000010 38 03 bb af 84 b6 8d b0 3e 62 11 30 c2 a2 3e 2f
       -3.401739e-10 -1.0310974e-09 5.2890303e-10 1.7338223e-10

exp_avg_sq f4 [8]
000000 f1 dd 9d 21 15 46 ef 22 a5 91 5c 23 56 6e 34 22
       1.0697481e-18 6.485528e-18 1.1957065e-17 2.445296e-18
000010 97 40 b1 21 7e 56 78 23 2e 14 1e 22 7b c5 08 22
       1.2011083e-18 1.3462422e-17 2.1423676e-18 1.8535982e-18
