model/all_subjects_20240205_181004/checkpoints/epoch4_0.6797.pt (torch, 195725 bytes, 39 tensors)

net.conv.weight f4 [8, 1, 1, 256]
-0.6799005 -0.5674907 -0.5439273 -0.480569 -0.28083932 -0.24413674 -0.27993983 -0.25067213
-0.44768408 -0.42658892 -0.41164672 -0.3553733 -0.20170754 0.014430486 0.20206873 0.38801065
0.3166288 0.13293533 -0.044044748 -0.32980183 -0.41689974 -0.47580403 -0.39307022 -0.20204815
0.10627181 0.2471759 0.20572379 0.14623864 0.06681988 -0.20810705 -0.21351865 -0.24138188
-0.13790478 0.1516718 0.5175059 0.6084366 0.7059879 0.6095677 0.499995 0.19742623
-0.04262709 -0.23180354 -0.28735617 -0.17930886 -0.032755557 0.17931288 0.09476301 0.10413647
-0.06315745 -0.31678388 -0.45851484 -0.57669747 -0.70666766 -0.5388466 -0.41194522 -0.19496855
-0.15876359 -0.21657002 -0.3083688 -0.3815107 -0.55476975 -0.686292 -0.6584714 -0.48178595
-0.2977468 -0.109726824 -0.076191284 -0.008505755 -0.03400689 -0.087757915 -0.043516576 -0.070379466
-0.0059068096 0.03471331 0.20354816 0.42460874 0.5101129 0.504356 0.440562 0.43467835
0.2874845 0.21557984 0.10563482 0.28104404 0.3673624 0.46721983 0.5701309 0.6065917
0.514169 0.31529406 0.15379202 -0.07653206 -0.18880151 -0.091857456 0.06686044 0.3545895
0.5048131 0.61419547 0.46732658 0.25015742 -0.05804732 -0.318325 -0.50669104 -0.49669138
-0.43109643 -0.2815356 -0.07115357 -0.07524146 -0.12963378 -0.38543087 -0.6268993 -1.0310178
-1.2026863 -1.3030374 -1.0882484 -0.6590403 -0.22347774 0.17303024 0.3112058 0.37416914
0.22788835 0.16596736 -0.041140668 -0.012167099 0.021837587 0.2173316 0.3579256 0.41962
0.44979763 0.27925676 0.14197098 -0.025661116 -0.21373312 -0.17193061 -0.20897053 -0.04925902
0.16026077 0.35916048 0.48967332 0.5788915 0.44182953 0.3546136 0.15693434 0.067706466
0.1585471 0.40045983 0.57155204 0.6954099 0.69921154 0.68545735 0.43399593 -0.025152322
-0.36103487 -0.5770222 -0.59477395 -0.51203126 -0.33637106 -0.12684295 -0.061144266 -0.06836619
-0.3032362 -0.47255406 -0.84753156 -1.0390043 -1.0094485 -0.8439516 -0.6164915 -0.39575523
-0.21649644 -0.042653967 -0.18932304 -0.2291903 -0.40586185 -0.51278245 -0.44255733 -0.3712277
-0.09560336 0.22478238 0.41487026 0.5367001 0.4553088 0.35988536 0.22748278 0.088288814
-0.030622385 0.035112154 0.17902455 0.47467172 0.60987264 0.6192118 0.64909106 0.49611425
0.22893384 0.07155206 -0.1393223 -0.06593172 -0.0152649395 0.24162278 0.2951242 0.4274278
0.32559553 0.15260205 -0.15655369 -0.34549728 -0.50039643 -0.4608655 -0.24326001 -0.05949671
0.20621891 0.41255513 0.36380947 0.16451144 -0.13393547 -0.45471427 -0.69220513 -0.8647822
-0.83202803 -0.65192366 -0.31181565 0.042389326 0.08598348 0.17284267 -0.07884044 -0.41995215
-0.593983 -0.50196826 -0.37461078 -0.15893121 0.21230313 0.6037397 0.80135655 0.7367798
0.65172106 0.36089545 -0.05055528 -0.21404628 -0.22159667 -0.017409028 0.3633128 0.6145027
0.82536244 0.80390257 0.63717306 0.43799007 0.12466815 0.03323833 -0.07831636 -0.00448574
0.0067387694 0.15933806 0.20022629 0.19523726 0.015125479 -0.2914611 -0.60071576 -0.7871655
00000000: f60d 2ebf 1247 11bf d23e 0bbf 240d f6be
00000010: 2cca 8fbe fbfe 79be 4654 8fbe 1958 80be
00000020: d936 e5be dd69 dabe 5cc3 d2be 7df3 b5be
00000030: 6c8c 4ebe d86d 6c3c 1beb 4e3e 55a9 c63e
00000040: 2c1d a23e 3320 083e 4468 34bd c9db a8be
00000050: e273 d5be 969c f3be 8040 c9be b6e5 4ebe
00000060: 09a5 d93d ae1b 7d3e 42a9 523e 95bf 153e
00000070: dcd8 883d 041a 55be a2a4 5abe d02c 77be
00000080: e936 0dbe da4f 1b3e 447b 043f 80c2 1b3f
00000090: 9fbb 343f a10c 1c3f 58ff ff3e 1a2a 4a3e
000000a0: be99 2ebd e85d 6dbe 5920 93be be9c 37be
000000b0: b12a 06bd cc9d 373e 1c13 c23d 8045 d53d
000000c0: b158 81bd 7f31 a2be 75c2 eabe 72a2 13bf
000000d0: 2ce8 34bf daf1 09bf 7cea d2be d6a5 47be
000000e0: ec92 22be 88c4 5dbe 84e2 9dbe 5f55 c3be
000000f0: 6405 0ebf d5b0 2fbf 9591 28bf a6ac f6be
00000100: 4572 98be 75b8 e0bd 2d0a 9cbd b95b 0bbc
00000110: cf4a 0bbd 6cba b3bd 703e 32bd 1c23 90bd
00000120: e98d c1bb 8b2f 0e3d ee6e 503e 5166 d93e
00000130: c296 023f 7a1d 013f 5891 e13e 298e de3e
00000140: 2b31 933e f6c0 5c3e 1257 d83d 01e5 8f3e
00000150: ed16 bc3e 7037 ef3e 19f4 113f 9849 1b3f
00000160: 94a0 033f 396e a13e a87b 1d3e d7bc 9cbd
00000170: 2f55 41be c31f bcbd 20ee 883d c18c b53e
00000180: 6e3b 013f ea3b 1d3f 6e45 ef3e a214 803e
00000190: 07c3 6dbd 7ffb a2be 81b6 01bf 554e febe
000001a0: acb8 dcbe 6f25 90be f7b8 91bd 3218 9abd
000001b0: b8be 04be 3257 c5be 797c 20bf 64f8 83bf
000001c0: a0f1 99bf eec9 a6bf b94b 8bbf ddb6 28bf
000001d0: 59d7 64be d72e 313e 5e56 9f3e 1993 bf3e
000001e0: 905b 693e 59f3 293e 1e83 28bd 8358 47bc
000001f0: bde4 b23c 2d8c 5e3e 0642 b73e 6fd8 d63e
00000200: e04b e63e befa 8e3e d760 113e 4337 d2bc
00000210: dbdc 5abe 940e 30be 5ffc 55be d3c3 49bd
00000220: 661b 243e e2e3 b73e 76b6 fa3e 3c32 143f
00000230: 7b37 e23e ea8f b53e 65b3 203e b0a9 8a3d
00000240: 2c5a 223e 1209 cd3e 3c51 123f 6206 323f
00000250: 87ff 323f 227a 2f3f b734 de3e 3e0c cebc
00000260: 90d9 b8be bab7 13bf 1b43 18bf 7b14 03bf
00000270: d438 acbe 1ee3 01be 6972 7abd 9303 8cbd
00000280: c641 9bbe 9bf2 f1be d4f7 58bf 18fe 84bf
00000290: 9c35 81bf 360d 58bf 63d2 1dbf 6ea0 cabe
000002a0: 3eb1 5dbe edb5 2ebd e6dd 41be ddb0 6abe
000002b0: 20cd cfbe b645 03bf e096 e2be 8f11 bebe
000002c0: b2cb c3bd 5a2d 663e e069 d43e 2e65 093f
000002d0: 3c1e e93e e542 b83e 3ff1 683e c4d0 b43d
000002e0: ccdb fabc c3d1 0f3d 3652 373e 2c08 f33e
000002f0: 9d20 1c3f aa84 1e3f d52a 263f b002 fe3e
00000300: a26d 6a3e e389 923d 81aa 0ebe 3607 87bd
00000310: cc19 7abc f66b 773e 851a 973e d1d7 da3e
00000320: 75b4 a63e b643 1c3e 9c4f 20be 05e5 b0be
00000330: fb19 00bf 90f6 ebbe 2719 79be d2b2 73bd
00000340: 0d2b 533e 6d3a d33e 3c45 ba3e b075 283e
00000350: 6126 09be 4fd0 e8be 5b34 31bf 5e62 5dbf
00000360: caff 54bf 78e4 26bf 4da6 9fbe 6ea0 2d3d
00000370: 1b18 b03d abfd 303e 1977 a1bd f803 d7be
00000380: 450f 18bf fe80 00bf fccc bfbe ddbe 22be
00000390: fe65 593e af8e 1a3f b425 4d3f 9a9d 3c3f
000003a0: 31d7 263f 4ac7 b83e 0e13 4fbd f32e 5bbe
000003b0: 3dea 62be 619d 8ebc 2304 ba3e 0d50 1d3f
000003c0: f44a 533f 8fcc 4d3f c61d 233f 3c40 e03e
000003d0: 0452 ff3d ea24 083d 5464 a0bd 1dfd 92bb
000003e0: e5d0 dc3b 8429 233e 1f08 4d3e 47ec 473e
000003f0: dbd0 773c 643a 95be 82c8 19bf ae83 49bf

net.bn1.weight f4 [8]
1.0644915 1.5223261 1.7872603 1.2717191 1.029819 1.717857 1.303401 0.8868743
00000000: 4241 883f 95db c23f f2c4 e43f b1c7 a23f
00000010: 1cd1 833f bde2 db3f d8d5 a63f 320a 633f

net.bn1.bias f4 [8]
-0.00030361934 0.047628026 -0.113017276 -0.03483652 -0.0960185 0.057664417 -0.074133985 0.13021195
00000000: 192f 9fb9 9b15 433d 9a75 e7bd bdb0 0ebd
00000010: 59a5 c4bd 8631 6c3d 8fd3 97bd 4856 053e

net.bn1.running_mean f4 [8]
-0.004384298 -0.015225378 -0.012839571 -0.0037922284 0.0076384107 -0.009659128 -0.0011778465 -0.0015734809
00000000: 28aa 8fbb dd73 79bc 105d 52bc 0987 78bb
00000010: a24b fa3b 5241 1ebc f861 9aba 423d ceba

net.bn1.running_var f4 [8]
443.42657 494.62866 610.1524 373.4791 191.91989 527.12006 341.88928 185.2459
00000000: 9ab6 dd43 7850 f743 c189 1844 53bd ba43
00000010: 7eeb 3f43 afc7 0344 d4f1 aa43 f33e 3943

net.depth_conv.weight f4 [16, 1, 32, 1]
-0.11817281 -0.25291285 0.40265194 -0.12797251 0.067627855 -0.39458185 1.4059837 0.82289636
-0.25034288 0.70978594 -0.34854773 -0.1552232 0.109530255 -0.2428726 0.3435215 0.73102045
0.15567525 0.15901443 1.0985122 0.46229285 -0.3923179 0.040440515 0.14852488 -1.1844057
-1.3039544 0.41161713 -0.36522374 -1.0906352 0.039808266 -0.30623326 0.51286894 0.07795592
-0.18050201 -0.07647127 0.731361 0.14505048 0.6389594 0.44513854 0.40402275 0.43598518
-0.7842974 0.7352074 -0.18919034 -0.49127108 -0.6420062 -0.27821034 -0.18234992 0.16326848
0.33464667 -0.050233833 1.1527674 0.8211194 -0.056124683 0.2758097 0.12720211 -1.1680602
-1.123289 0.1625826 -0.5208569 -0.1108357 0.2770827 -0.15469033 0.3167729 -0.005573878
0.10729289 0.81553704 0.3866921 -0.28015402 0.5903006 -0.21182173 0.10845087 0.09340721
0.043461617 -1.697558 -0.033619188 0.23470609 0.17669775 0.8049338 -0.40831706 -0.17697927
0.13064277 -0.10096593 0.42317298 0.44103113 0.6338472 -0.07006178 -0.23137505 0.16506113
-1.0406821 -0.22299036 -0.62657684 -0.30129042 -0.2669155 -0.044081 0.45905638 0.187997
0.037686173 -0.6686801 -0.8358966 -0.5098519 -1.0300968 0.3643879 0.34492195 1.1197025
-0.4462993 1.625661 -0.25201312 -0.07047219 0.0184987 -0.37487113 -0.33357176 -0.115373075
-0.018549979 -0.5665305 0.117350474 -0.3125829 -0.54204464 -0.18170716 -0.14626667 0.41206506
0.48913914 -0.42906466 1.3286365 0.42283732 -0.3544971 0.39965823 -0.48037788 0.26584554
-0.08625776 -1.1171746 -0.72290665 -0.25090018 -0.6904912 0.08701338 -0.0014646037 1.0079612
0.12768002 2.3439407 -0.08073044 -0.1676268 -0.53352803 -0.8665774 0.2990361 0.061439916
-0.1775248 -0.10645463 -0.5405368 -0.050549377 -0.7298746 0.26382944 0.24151269 0.3282307
0.5874888 0.26474273 0.93561465 0.9441962 -0.3470369 -0.32873294 -0.531942 0.28996405
0.26896 0.07761562 -0.25925437 -0.81564313 -1.1608388 0.33952987 0.47302246 1.106034
-0.9094941 0.15148182 -0.41545215 0.49556908 0.7377501 0.53679943 -0.29262477 -0.072944276
0.20384201 -0.5802535 0.55629194 -0.12178945 0.17765135 -0.4259115 -0.34672314 0.6020432
-0.2508802 -0.8331431 1.024518 -0.087798506 -0.6209263 1.0898004 -0.046832174 0.18057868
0.3979641 0.097043134 0.22115369 -0.32128868 0.46260935 -0.07939218 -1.5073168 0.088553645
-0.04646532 -0.40512085 -0.4812527 -0.21805431 0.35856006 -0.1834139 -0.3090323 0.077031136
-0.38357866 0.23837301 -0.47496176 -0.7134806 0.014731545 0.47405705 -0.081314966 0.5163649
1.5915289 -1.1289139 1.0754105 0.9162634 -0.45855474 -0.5676998 0.06262581 -0.0192011
0.10716651 -0.30399764 0.32416824 -0.6474052 0.66563475 0.05196851 -1.1471175 0.34005055
0.16878074 -0.058940824 -1.1593989 -0.17678505 -0.13781704 0.14767043 -0.18717623 0.5477973
0.38143325 0.010663916 -0.22901306 -0.5588296 -0.22493404 -0.25496355 0.4935515 0.36365825
1.7378839 -0.92533815 0.9630118 0.76325303 -0.34699225 -0.65092176 -0.049341977 0.0013612325
00000000: 9604 f2bd cb7d 81be 6528 ce3e 3a0b 03be
00000010: 7980 8a3d a206 cabe 46f7 b33f 56a9 523f
00000020: f12c 80be 88b4 353f d974 b2be d5f2 1ebe
00000030: 6651 e03d 98b3 78be 0de2 af3e 2824 3b3f
00000040: 5569 1f3e aed4 223e 0c9c 8c3f a6b1 ec3e
00000050: e4dd c8be f4a4 253d e816 183e 9b9a 97bf
00000060: fae7 a6bf 7bbf d23e 9bfe babe ef99 8bbf
00000070: fe0d 233d 9bca 9cbe 614b 033f 5aa7 9f3d
00000080: 85d5 38be f89c 9cbd 793a 3b3f 1d88 143e
00000090: d892 233f 33e9 e33e 12dc ce3e 7339 df3e
000000a0: b7c7 48bf 8d36 3c3f 1dbb 41be e287 fbbe
000000b0: 855a 24bf 9671 8ebe f0b9 3abe da2f 273e
000000c0: cf56 ab3e fec1 4dbd e28d 933f e234 523f
000000d0: ffe2 65bd ee36 8d3e 4541 023e ff82 95bf
000000e0: efc7 8fbf 0e7c 263e e156 05bf d4fd e2bd
000000f0: c9dd 8d3e 2467 1ebe 0f30 a23e 14a5 b6bb
00000100: 60bc db3d 09c7 503f 82fc c53e 5970 8fbe
00000110: f11d 173f cce7 58be 7d1b de3d 484c bf3d
00000120: cf04 323d 9549 d9bf 46b4 09bd cb56 703e
00000130: 41f0 343e 2410 4e3f ef0e d1be 0e3a 35be
00000140: 38c7 053e 3ac7 cebd 21aa d83e d5ce e13e
00000150: cf43 223f 8d7c 8fbd 95ed 6cbe c905 293e
00000160: 1235 85bf 9657 64be 5767 20bf bd42 9abe
00000170: 26a9 88be 478e 34bd 7009 eb3e 4982 403e
00000180: d15c 1a3d 9e2e 2bbf 52fd 55bf a785 02bf
00000190: 36da 83bf 0d91 ba3e 9c99 b03e 6952 8f3f
000001a0: 5881 e4be a915 d03f dd07 81be b953 90bd
000001b0: 968a 973c 1cef bfbe ebc9 aabe b848 ecbd
000001c0: 20f6 97bc 2508 11bf 7255 f03d de0a a0be
000001d0: 70c3 0abf 7111 3abe eec6 15be 31fa d23e
000001e0: 7270 fa3e 5dae dbbe c310 aa3f 227e d83e
000001f0: a580 b5be 01a0 cc3e 17f4 f5be e81c 883e
00000200: e9a7 b0bd 94ff 8ebf 6910 39bf fd75 80be
00000210: 08c4 30bf 1234 b23d f2f7 bfba df04 813f
00000220: 8dbe 023e 2003 1640 0056 a5bd 5ca6 2bbe
00000230: 4b95 08bf 04d8 5dbf 421b 993e 6ca8 7b3d
00000240: 10c9 35be e304 dabd 9f60 0abf dd0c 4fbd
00000250: 10d9 3abf a714 873e 1a4f 773e db0d a83e
00000260: aa65 163f 5c8c 873e 7184 6f3f d8b6 713f
00000270: d2ae b1be af4f a8be 5a2d 08bf 2b76 943e
00000280: 20b5 893e f0f4 9e3d fdbc 84be fdcd 50bf
00000290: 5e96 94bf dcd6 ad3e 0030 f23e 8692 8d3f
000002a0: 9bd4 68bf 0d1e 1b3e 25b6 d4be 3bbb fd3e
000002b0: 31dd 3c3f b06b 093f ead2 95be cf63 95bd
000002c0: f6bb 503e 7e8b 14bf 2669 0e3f bf6c f9bd
000002d0: 3cea 353e 1211 dabe b285 b1be 811f 1a3f
000002e0: 5f73 80be de48 55bf 6823 833f b4cf b3bd
000002f0: 07f5 1ebf 947e 8b3f 18d3 3fbd 9ee9 383e
00000300: f3c1 cb3e 8dbe c63d 1d76 623e f37f a4be
00000310: 22db ec3e 5e98 a2bd c2ef c0bf 9d5b b53d
00000320: 6b52 3ebd 006c cfbe c166 f6be a149 5fbe
00000330: 2f95 b73e dad0 3bbe 7b39 9ebe 80c2 9d3d
00000340: 6c64 c4be 0e18 743e 302e f3be aaa6 36bf
00000350: 945c 713c 9bb7 f23e 7688 a6bd 7d30 043f
00000360: 38b7 cb3f 4080 90bf 0da7 893f 3d90 6a3f
00000370: b0c7 eabe c654 11bf f641 803d a04b 9dbc
00000380: 1d7a db3d 94a5 9bbe 61f9 a53e 59bc 25bf
00000390: 0a67 2a3f efdc 543d bfd4 92bf 1b1b ae3e
000003a0: dcd4 2c3e ef6b 71bd 2f67 94bf 2407 35be
000003b0: e91f 0dbe eb36 173e 20ab 3fbe 723c 0c3f
000003c0: 384b c33e b5b7 2e3c 6682 6abe 750f 0fbf
000003d0: 1c55 66be 958a 82be c8b2 fc3e 6a31 ba3e
000003e0: fb72 de3f f6e2 6cbf f187 763f 8d64 433f
000003f0: f8a8 b1be cfa2 26bf d01a 4abd 626b b23a

net.bn2.weight f4 [16]
1.4177706 1.2933743 1.9669267 1.8953608 2.13728 2.1308162 1.5305547 1.6090945
0.72551465 1.3108766 1.8971246 2.1073477 1.5866464 1.4433199 1.2402041 1.2078031
00000000: 8279 b53f 4a8d a53f 41c4 fb3f 2f9b f23f
00000010: 32c9 0840 4b5f 0840 37e9 c33f cff6 cd3f
00000020: 54bb 393f ceca a73f fbd4 f23f c9de 0640
00000030: 3b17 cb3f b5be b83f 02bf 9e3f 4b99 9a3f

net.bn2.bias f4 [16]
-0.3431837 -0.20638019 -0.42322904 -0.44131073 -0.4784516 -0.45206854 -0.29003882 -0.14952601
-0.11218369 -0.31995994 -0.37755105 -0.45163807 -0.28112978 -0.19792081 -0.40328875 -0.2885302
00000000: c6b5 afbe 5455 53be 7ab1 d8be 7bf3 e1be
00000010: 9cf7 f4be 8775 e7be f87f 94be 591d 19be
00000020: 90c0 e5bd cad1 a3be 5f4e c1be 1b3d e7be
00000030: 3ef0 8fbe c1ab 4abe dd7b cebe 3bba 93be

net.bn2.running_mean f4 [16]
0.0012716613 0.0012796205 -0.0009560914 -0.04585137 -0.06345383 -0.097544506 0.028949492 0.00189017
0.028233731 -0.044220675 -0.05604784 0.06357744 0.00081670925 0.014693272 -0.18414368 -0.0416154
00000000: dfad a63a f0b8 a73a 35a2 7aba a5ce 3bbd
00000010: 15f4 81bd 6ac5 c7bd 7c27 ed3c 95bf f73a
00000020: 6d4a e73c bd20 35bd 6b92 65bd e434 823d
00000030: 6e18 563a 0dbc 703c 2990 3cbe e974 2abd

net.bn2.running_var f4 [16]
8.824688 6.6063433 10.873204 5.0704174 17.288269 11.120843 26.548094 20.246082
13.902356 21.113947 23.189247 15.961161 57.162086 59.989265 20.223309 18.589376
00000000: ec31 0d41 2a67 d340 a5f8 2d41 dc40 a240
00000010: 604e 8a41 f9ee 3141 7f62 d441 faf7 a141
00000020: 0d70 5e41 5de9 a841 9483 b941 ea60 7f41
00000030: faa5 6442 02f5 6f42 56c9 a141 0bb7 9441

net.point_conv.weight f4 [16, 16, 1, 16]
0.28121898 0.21018338 0.34174168 0.21243952 0.27568352 0.30211973 0.34167686 0.45072174
0.39172667 0.4582924 0.32226157 0.34272626 0.31510004 0.21553126 0.13693802 0.15950668
-0.010073749 0.0014209723 0.083438866 0.07052013 0.045448996 0.107248016 0.06338254 0.13515382
0.042829946 0.009949997 -0.075449035 -0.12233517 -0.12729467 -0.20208326 -0.2556758 -0.1612243
-0.35504636 -0.32180828 -0.28714925 -0.13196284 -0.03895562 0.13572049 0.10752907 0.084488414
0.104316086 0.035550993 0.14532267 0.22753127 0.18116288 0.17540218 0.059916537 0.06182738
-0.1338412 -0.05245597 0.1238344 0.22840834 0.19203472 0.19002694 0.12238868 0.109051414
-0.048780724 0.0045062588 -0.12086318 -0.023251217 0.026907219 0.13716993 0.2340883 0.20800185
0.04567195 0.22179148 0.29282734 0.3599822 0.40518242 0.21479273 0.20069312 0.11826963
-0.06712788 -0.21418363 -0.25262097 -0.106657736 -0.102078825 0.12550701 0.25307858 0.24107195
0.17245655 0.10416719 -0.037648033 -0.061158504 0.098716855 0.052837346 0.17937893 0.15396108
0.051196344 0.18363102 0.18642937 0.2113446 0.099408165 -0.034587663 0.0054113367 0.1533831
0.9820335 0.980025 0.95094466 0.83693373 0.7781276 0.72634447 0.5797817 0.50659263
0.48838913 0.46231073 0.44289342 0.42873657 0.40522453 0.33820096 0.37975755 0.43590653
0.14299826 0.013066865 0.08114215 0.25123405 0.5321155 0.66594726 0.68503296 0.568414
0.46812114 0.46287587 0.4366443 0.21627918 0.15574698 0.07443697 0.08757772 0.109225184
-0.06433548 -0.071744785 -0.053078063 -0.079561174 -0.09733904 -0.1488628 -0.04039425 -0.054060377
0.011129618 0.04548096 -0.09168072 -0.06392548 -0.15497155 -0.06680704 -0.045887027 0.00205164
0.32042077 0.31782204 0.21239512 0.13809201 0.050576095 -0.08002701 -0.23738772 -0.3693048
-0.40718776 -0.38886246 -0.25602275 -0.16348037 -0.01351027 -0.020196583 0.083885685 0.11958263
0.020679083 0.12670426 0.09872945 0.049120802 -0.009879329 -0.11767069 0.0022781377 0.07277081
0.0708951 -0.05346351 -0.06531731 -0.024324257 0.05506229 0.0005901906 -0.025433911 -0.055469785
0.011249528 -0.045031052 0.056814123 0.019599346 0.029317504 -0.017704245 0.055101663 0.1274644
0.10062532 0.14566801 0.060513906 0.15805027 0.18338192 0.21290456 0.12835342 0.14216152
0.3320296 0.31357852 0.31567147 0.32628626 0.4373819 0.44698298 0.5132274 0.54187924
0.6075751 0.6735572 0.5955916 0.4450069 0.3382798 0.3243785 0.23882681 0.18868583
0.04975472 0.08216722 0.1812657 0.1013427 0.24510531 0.34056556 0.2915816 0.3562136
0.2502936 0.3095744 0.21016571 0.27534464 0.23825131 0.23779403 0.11841467 0.1971876
0.08318931 0.12699206 0.13937125 0.16023365 0.031951223 0.0239461 -0.05425429 0.011052085
0.08881879 0.10169038 0.050208528 0.11304752 0.12375045 0.2164468 0.30707005 0.46203658
0.17472237 0.22084779 0.12418603 0.15415494 0.09993968 0.04845965 -0.07866499 -0.15783083
-0.12013542 -0.18778162 -0.10847654 -0.11443986 -0.07831282 -0.053995125 -0.06119419 0.051670194
00000000: effb 8f3e 503a 573e c4f8 ae3e bf89 593e
00000010: 6426 8d3e 70af 9a3e 45f0 ae3e 00c5 e63e
00000020: 6690 c83e 4da5 ea3e 78ff a43e d179 af3e
00000030: cb54 a13e 3ab4 5c3e 7b39 0c3e b855 233e
00000040: 5e0c 25bc eb3f ba3a ffe1 aa3d dc6c 903d
00000050: ba28 3a3d d9a4 db3d b5ce 813d c365 0a3e
00000060: 746e 2f3d 5005 233c 0685 9abd dd8a fabd
00000070: 8959 02be eaee 4ebe f0e7 82be fc17 25be
00000080: a3c8 b5be 0ec4 a4be 3a05 93be 4421 07be
00000090: ee8f 1fbd 50fa 0a3e 3338 dc3d 4308 ad3d
000000a0: aca3 d53d eb9d 113d 77cf 143e f5fd 683e
000000b0: c382 393e a19c 333e 0b6b 753d b53e 7d3d
000000c0: ab0d 09be 12dc 56bd e49c fd3d e0e3 693e
000000d0: c0a4 443e 6c96 423e eba6 fa3d 5956 df3d
000000e0: 4cce 47bd 3da9 933b 1d87 f7bd 5679 bebc
000000f0: 876c dc3c 4676 0c3e d8b4 6f3e 70fe 543e
00000100: 8312 3b3d 4e1d 633e 77ed 953e 964f b83e
00000110: 1274 cf3e a0f2 5b3e 7f82 4d3e 5937 f23d
00000120: 587a 89bd f452 5bbe 8957 81be 5f6f dabd
00000130: b40e d1bd e984 003e 8493 813e 91db 763e
00000140: 7398 303e 9c55 d53d d334 1abd 5781 7abd
00000150: 102c ca3d f96b 583d 1caf 373e f9a7 1d3e
00000160: 42b3 513d c509 3c3e 57e7 3e3e b86a 583e
00000170: 8296 cb3d cbab 0dbd 9551 b13b 7610 1d3e
00000180: 8c66 7b3f ebe2 7a3f 1c71 733f 4a41 563f
00000190: 5f33 473f b6f1 393f 936c 143f 0eb0 013f
000001a0: 240e fa3e feb3 ec3e edc2 e23e 5c83 db3e
000001b0: 9779 cf3e ad28 ad3e 956f c23e 242f df3e
000001c0: 236e 123e 6716 563c db2d a63d c0a1 803e
000001d0: b938 083f 857b 2a3f 525e 2f3f 9483 113f
000001e0: 93ad ef3e 11fe ec3e d78f df3e 4a78 5d3e
000001f0: 237c 1f3e 6972 983d f35b b33d 74b1 df3d
00000200: 52c2 83bd eeee 92bd 6268 59bd f8f0 a2bd
00000210: b159 c7bd 7d6f 18be 7174 25bd 6a6e 5dbd
00000220: 0059 363c 3e4a 3a3d 1ac3 bbbd 5deb 82bd
00000230: ddb0 1ebe 21d2 88bd 09f4 3bbd cf74 063b
00000240: 310e a43e 92b9 a23e 1b7e 593e fe67 0d3e
00000250: e128 4f3d 33e5 a3bd c415 73be 8515 bdbe
00000260: ea7a d0be fb18 c7be 6a15 83be 6667 27be
00000270: 2e5a 5dbc 4e73 a5bc 42cc ab3d bde7 f43d
00000280: 2e67 a93c c3be 013e aa32 ca3d e532 493d
00000290: e9dc 21bc 55fd f0bd cf4c 153b dd08 953d
000002a0: 7331 913d 8efc 5abd 15c5 85bd aa43 c7bc
000002b0: ff88 613d 05b7 1a3a c75a d0bc 4934 63bd
000002c0: f14f 383c 7b72 38bd edb5 683d cf8e a03c
000002d0: 432b f03c 7e08 91bc 48b2 613d 0786 023e
000002e0: a614 ce3d ff29 153e 6edd 773d eed7 213e
000002f0: 78c8 3b3e a703 5a3e 146f 033e ca92 113e
00000300: c9ff a93e 5d8d a03e b19f a13e fe0e a73e
00000310: 85f0 df3e f4da e43e df62 033f 99b8 0a3f
00000320: 0b8a 1b3f 3f6e 2c3f b178 183f f2d7 e33e
00000330: 0333 ad3e f014 a63e 048f 743e dc36 413e
00000340: 9bcb 4b3d 4a47 a83d b79d 393e c38c cf3d
00000350: e3fc 7a3e 9c5e ae3e 2f4a 953e a161 b63e
00000360: 7c26 803e 8980 9e3e ae35 573e f9f9 8c3e
00000370: 27f8 733e 4780 733e 6483 f23d 8ceb 493e
00000380: 285f aa3d 350a 023e 56b7 0e3e 4a14 243e
00000390: 49df 023d 9d2a c43c bf39 5ebd ce13 353c
000003a0: a0e6 b53d 0c43 d03d 75a7 4d3d 7585 e73d
000003b0: e070 fd3d 3ba4 5d3e 4938 9d3e 0f90 ec3e
000003c0: 6cea 323e ec25 623e 3f55 fe3d cbda 1d3e
000003d0: 2dad cc3d a07d 463d 1c1b a1bd 689e 21be
000003e0: 8f09 f6bd d349 40be f328 debd 725f eabd
000003f0: 7962 a0bd fe29 5dbd c2a6 7abd 20a4 533d

net.bn3.weight f4 [16]
0.76710474 1.255397 1.6732366 1.0753986 1.0164258 1.1068333 1.026524 0.9131194
1.3048017 0.808571 1.8496215 0.87996036 0.89601535 1.5621403 0.97691387 1.6667879
00000000: fa60 443f d9b0 a03f 9e2c d63f a9a6 893f
00000010: 3e1a 823f b7ac 8d3f 2365 833f 31c2 693f
00000020: be03 a73f 82fe 4e3f 66c0 ec3f 1545 613f
00000030: 4361 653f 37f4 c73f 0717 7a3f 4e59 d53f

net.bn3.bias f4 [16]
0.29533195 -0.0154675525 -0.5440722 0.28974852 0.10618411 -0.062004 0.02533567 0.04088018
-0.082438566 0.10583852 -0.35175797 0.07147074 0.0485603 -0.32336274 0.11559108 -0.50895035
00000000: c035 973e 9e6b 7dbc 5148 0bbf eb59 943e
00000010: 0e77 d93d e8f7 7dbd c08c cf3c fa71 273d
00000020: 8dd5 a8bd dec1 d83d 9f19 b4be 405f 923d
00000030: 2ae7 463d cd8f a5be 04bb ec3d 924a 02bf

net.bn3.running_mean f4 [16]
3.631432 2.791486 -5.159027 4.190437 4.463931 -2.3731623 0.51419574 -0.7113624
1.0622331 4.069121 -5.624162 2.5313766 -0.16172528 -4.524556 3.0892892 -6.382219
00000000: 6269 6840 b5a7 3240 c016 a5c0 0f18 8640
00000010: 86d8 8e40 e4e1 17c0 55a2 033f d91b 36bf
00000020: 41f7 873f 3d36 8240 23f9 b3c0 1302 2240
00000030: 509b 25be 2ac9 90c0 eab6 4540 233b ccc0

net.bn3.running_var f4 [16]
137.97034 279.21536 407.11053 349.2368 331.81805 248.26064 145.04626 246.3242
281.51138 326.16187 386.2785 216.55704 152.29857 401.68393 271.83554 445.29
00000000: 68f8 0943 919b 8b43 268e cb43 4f9e ae43
00000010: b6e8 a543 b942 7843 d80b 1143 ff52 7643
00000020: 75c1 8c43 b814 a343 a623 c143 9a8e 5843
00000030: 6f4c 1843 8bd7 c843 f3ea 8743 1fa5 de43

net.fc.weight f4 [32, 256]
-0.45844957 -0.20989683 -0.3366123 -0.24572958 -0.21724539 -0.16882761 -0.030290449 -0.16033898
-0.23823322 -0.06398089 0.11624709 -0.20401154 -0.0044202455 -0.12562811 -0.49598047 -0.21202333
0.04882061 -0.16178733 -0.31323487 -0.7020545 -0.38515615 -0.37837064 -0.4242462 -0.24433957
-0.1135707 0.0155888675 0.29236212 -0.2779729 -0.7140663 -0.22311199 -0.2767942 -0.1430916
-0.43625692 0.043672 0.22824366 0.38976437 0.4418984 0.3074088 0.467992 0.41615704
0.89843905 0.17048156 0.16617882 0.296706 0.6823095 0.52264386 0.2010546 0.15910295
0.063919224 -0.034151185 -0.34859282 -0.09901803 -0.31682888 -0.8080597 -0.4738675 -0.17931852
-0.22611651 0.078778185 -0.1524196 -0.08978839 -0.5684735 -0.71507454 -0.21792144 -0.51172274
-0.06943674 -0.34250244 -0.29617167 -0.09386767 -0.11931597 -0.49918342 -0.0011621757 -0.20712441
-0.2235124 0.030836532 -0.03353364 -0.5659748 -0.10570535 -0.06593017 -0.15485024 -0.16773994
-0.29303282 -0.1736735 -0.07230807 0.08975935 -0.07575787 0.2059061 0.1279251 -0.0767094
0.013763707 0.20064586 -0.1523283 -0.023114445 0.33996218 0.13568906 -0.005967519 -0.24366023
-0.11756077 -0.033549562 -0.10753573 -0.058659617 -0.03563099 -0.21263571 -0.24094668 -0.05611843
0.17550747 0.12649769 -0.36377162 -0.46160302 0.31100485 0.08467711 0.24438468 0.07846565
-0.39571786 -0.3277663 0.21068902 -0.027967347 -0.23141976 -0.25517163 0.047338046 -0.11833843
-0.32563883 -0.1428739 -0.12633152 -0.08474993 -0.2525722 -0.07383049 0.093562014 -0.25445464
0.045810517 0.13017575 0.027216502 0.04478402 -0.18223092 -0.6048821 -0.18086253 -0.16062926
-0.6464524 0.15329269 -0.05962907 -0.10390737 -0.18996212 -0.36229995 -0.21648642 -0.083400756
-0.1549474 0.17251685 -0.40777558 -0.55781674 -0.012928728 -0.21668889 -0.3996991 -0.37222195
-0.20430656 -0.18358622 -0.0914146 0.04828897 -0.28113112 -0.24095115 -0.2558944 -0.40901873
-0.4324332 0.11571313 0.20883875 0.047363244 0.4659805 0.27657083 0.49475443 0.0652288
0.34817368 0.2624567 0.037086885 -0.10288055 0.5701067 0.56434363 0.16626434 0.15823811
0.023015274 -0.16064715 -0.2855905 -0.07254625 -0.24979623 -0.5889003 -0.1314336 -0.023972344
0.06359114 0.090522386 -0.13475579 -0.08705825 -0.28330198 -0.45959735 -0.43621933 -0.30435988
-0.12366727 -0.079127856 -0.021026675 -0.0419704 -0.015960477 -0.08499674 -0.014094554 0.040604983
-0.38494503 0.12916087 -0.07776661 -0.17743313 -0.17185344 -0.08352348 -0.14856645 -0.19855736
0.039369013 -0.079960994 0.13372344 0.3785845 0.21196985 0.17143518 0.49264607 0.24485894
0.3902386 0.15039259 -0.23570973 0.2738407 0.42389703 0.44411469 0.51544577 0.016866215
-0.09494422 -0.063593835 -0.027005652 -0.4228668 -0.6719774 -0.2492119 -0.28789008 -0.06735242
-0.14353037 -0.39859033 -0.124925315 -0.11352587 -0.42000988 0.006963157 -0.121723816 0.11777515
-0.34474102 0.49320483 0.069251604 0.4552719 0.6434812 0.8440772 0.55752695 0.28523445
0.40182048 0.49312052 0.21105908 0.23947412 0.6394531 0.639691 0.527684 0.041644163
00000000: e7b9 eabe 32ef 56be 7358 acbe 89a0 7bbe
00000010: 9375 5ebe 25e1 2cbe ad23 f8bc e72f 24be
00000020: 69f3 73be 6a08 83bd f412 ee3d 67e8 50be
00000030: b5d7 90bb a8a4 00be 27f1 fdbe a51c 59be
00000040: 1ff8 473d 94ab 25be 5260 a0be d8b9 33bf
00000050: 3033 c5be ccb9 c1be cc36 d9be 2734 7abe
00000060: c197 e8bd 7368 7f3c 7db0 953e 7752 8ebe
00000070: 0dcd 36bf 7877 64be f8b7 8dbe 9b86 12be
00000080: 115d dfbe 69e1 323d b5b8 693e 328f c73e
00000090: 8240 e23e b064 9d3e a69c ef3e 8912 d53e
000000a0: 1a00 663f b892 2e3e c82a 2a3e d9e9 973e
000000b0: d6ab 2e3f fdcb 053f 42e1 4d3e e2eb 223e
000000c0: 15e8 823d 1de2 0bbd c27a b2be f7c9 cabd
000000d0: 6537 a2be 00dd 4ebf c39e f2be 469f 37be
000000e0: 168b 67be 7556 a13d e213 1cbe fae2 b7bd
000000f0: 7b87 11bf 200f 37bf cc26 5fbe 4300 03bf
00000100: d934 8ebd 7b5c afbe d0a3 97be b13d c0bd
00000110: ee5b f4bd f894 ffbe 2554 98ba 6c18 54be
00000120: 6fe0 64be e59c fc3c 925a 09bd b9e3 10bf
00000130: 0c7c d8bd 6606 87bd 1091 1ebe 05c4 2bbe
00000140: 6608 96be 77d7 31be 4116 94bd c0d3 b73d
00000150: f126 9bbd 0cd9 523e ccfe 023e d119 9dbd
00000160: 2c81 613c 1c76 4d3e f3fb 1bbe 815a bdbc
00000170: 860f ae3e 13f2 0a3e 2d8b c3bb 1182 79be
00000180: b3c3 f0bd 446b 09bd b13b dcbd 1145 70bd
00000190: cdf1 11bd 2dbd 59be baba 76be 70dc 65bd
000001a0: 3bb8 333e 9c88 013e 4640 babe 3b57 ecbe
000001b0: 073c 9f3e 316b ad3d fa3f 7a3e 99b2 a03d
000001c0: 889b cabe fcd0 a7be ddbe 573e c71b e5bc
000001d0: 4df9 6cbe dba5 82be 8ae5 413d 6b5b f2bd
000001e0: 22ba a6be 894d 12be 0d5d 01be 5f91 adbd
000001f0: 2551 81be 7134 97bd 719d bf3d e147 82be
00000200: cfa3 3b3d cb4c 053e 24f5 de3c 736f 373d
00000210: be9a 3abe 8ed9 1abf 0734 39be ff7b 24be
00000220: e87d 25bf c2f8 1c3e 9d3d 74bd 63cd d4bd
00000230: 6e85 42be 617f b9be 9eae 5dbe 04ce aabd
00000240: 88aa 1ebe 42a8 303e f6c7 d0be 14cd 0ebf
00000250: 04d3 53bc b1e3 5dbe 5ca5 ccbe e093 bebe
00000260: bd35 51be 07fe 3bbe 9437 bbbd a8ca 453d
00000270: 6bf0 8fbe e6bb 76be 9704 83be e76a d1be
00000280: e267 ddbe 01fb ec3d d3d9 553e f6ff 413d
00000290: ff94 ee3e b19a 8d3e 7450 fd3e ad96 853d
000002a0: d243 b23e b960 863e 6be8 173d 0ab3 d2bd
000002b0: 83f2 113f d378 103f 3341 2a3e 2c09 223e
000002c0: 878a bc3c b080 24be eb38 92be 2193 94bd
000002d0: 95ca 7fbe 2cc2 16bf 8896 06be a661 c4bc
000002e0: 123c 823d cd63 b93d 6cfd 09be 994b b2bd
000002f0: f50c 91be 5850 ebbe 2458 dfbe 0fd5 9bbe
00000300: 4445 fdbd c90d a2bd 2240 acbc 27e9 2bbd
00000310: 8cbf 82bc c512 aebd d8ec 66bc 6951 263d
00000320: 8417 c5be bf42 043e 1a44 9fbd 08b1 35be
00000330: 59fa 2fbe 5c0e abbd ce21 18be 9f52 4bbe
00000340: 6741 213d 97c2 a3bd ccee 083e d4d5 c13e
00000350: a00e 593e b48c 2f3e 1b3c fc3e 4dbc 7a3e
00000360: 5bcd c73e 8400 1a3e e45d 71be d934 8c3e
00000370: 0809 d93e 0063 e33e 41f4 033f 042b 8a3c
00000380: 1d72 c2bd 7c3d 82bd f53a ddbc ff81 d8be
00000390: b606 2cbf 6831 7fbe 5466 93be 11f0 89bd
000003a0: a0f9 12be 0814 ccbe d8d8 ffbd 4080 e8bd
000003b0: 890b d7be 322b e43b 564a f9bd 1934 f13d
000003c0: e581 b0be 5885 fc3e c9d3 8d3d 6619 e93e
000003d0: 2fbb 243f 7215 583f 16ba 0e3f 400a 923e
000003e0: 6abb cd3e 4b7a fc3e df1f 583e b438 753e
000003f0: 33b3 233f cac2 233f 4c16 073f 1293 2a3d

net.fc.bias f4 [32]
-1.0349323 0.14466931 -0.8498581 1.1401944 -1.0526446 -0.39232183 0.15476593 0.8169545
0.28962722 -0.51331866 -1.3197657 0.5864859 -0.5316897 0.9933552 -0.26557103 -0.7266668
-1.2845246 -0.73928005 1.088051 1.0926908 0.14006902 -0.28315863 0.19702017 -0.92338
-0.8184951 -0.054818656 1.0631206 -0.2947776 0.701904 1.2334763 0.70946985 0.32224348
00000000: a978 84bf 3124 143e 4d90 59bf e4f1 913f
00000010: 0fbd 86bf 68de c8be f67a 1e3e ee23 513f
00000020: 054a 943e da68 03bf 15ee a8bf f123 163f
00000030: d11c 08bf 874c 7e3f edf8 87be d606 3abf
00000040: 4d6b a4bf 7541 3dbf 4145 8b3f 4bdd 8b3f
00000050: 416e 0f3e 2bfa 90be a8bf 493e a262 6cbf
00000060: e588 51bf 8789 60bd 5614 883f 17ed 96be
00000070: fbaf 333f 8de2 9d3f d19f 353f 19fd a43e

exp_avg f4 [8, 1, 1, 256]
-0.00015356856 -0.00012818187 -0.000117853335 -0.00011920983 -0.00012656618 -0.00013462594 -0.00014008212 -0.00014132114
-0.00014095155 -0.0001429904 -0.00015125578 -0.00016674162 -0.00018736758 -0.00020745743 -0.00022065702 -0.00022171166
-0.00020944761 -0.00018627178 -0.00015664921 -0.0001280534 -0.00010652772 -9.475347e-05 -9.206831e-05 -9.4869574e-05
-9.832646e-05 -9.647424e-05 -8.537489e-05 -6.615175e-05 -4.2837397e-05 -2.2080927e-05 -1.1071385e-05 -1.324933e-05
-2.8279945e-05 -5.129246e-05 -7.5488475e-05 -9.2051494e-05 -9.626854e-05 -8.764294e-05 -6.933424e-05 -4.7282225e-05
-2.8749891e-05 -1.825938e-05 -1.7103202e-05 -2.2713357e-05 -3.082475e-05 -3.607518e-05 -3.4322158e-05 -2.5058398e-05
-9.511551e-06 8.586054e-06 2.2990798e-05 2.8385126e-05 2.3443376e-05 9.723519e-06 -8.917174e-06 -2.619351e-05
-3.6233843e-05 -3.4699195e-05 -2.1388038e-05 7.4317364e-07 2.6038146e-05 4.7804224e-05 6.150518e-05 6.556727e-05
6.173589e-05 5.3890977e-05 4.6554294e-05 4.1679446e-05 4.0212533e-05 3.980859e-05 3.6574223e-05 2.7785749e-05
1.2305256e-05 -8.026061e-06 -3.0019259e-05 -4.9778122e-05 -6.307746e-05 -6.718862e-05 -6.15749e-05 -4.8221285e-05
-3.1567542e-05 -1.7242402e-05 -9.658845e-06 -1.03621705e-05 -1.6815044e-05 -2.5108851e-05 -2.941873e-05 -2.5193762e-05
-1.153805e-05 8.7700255e-06 2.957426e-05 4.423242e-05 4.8339432e-05 4.0978277e-05 2.4597675e-05 3.7281673e-06
-1.5906735e-05 -2.9040886e-05 -3.3392982e-05 -2.9514771e-05 -2.0445306e-05 -1.006495e-05 -2.8403872e-06 -1.8010924e-06
-7.119527e-06 -1.6406693e-05 -2.5571926e-05 -2.985372e-05 -2.5768915e-05 -1.2847179e-05 5.044344e-06 2.2379747e-05
3.3851557e-05 3.6235477e-05 2.8382035e-05 1.2532703e-05 -6.879391e-06 -2.4308774e-05 -3.6092453e-05 -4.064984e-05
-3.9436934e-05 -3.5505873e-05 -3.299335e-05 -3.4174962e-05 -3.8625643e-05 -4.3423377e-05 -4.50501e-05 -3.9833503e-05
-2.556569e-05 -2.7511458e-06 2.5058791e-05 5.1885603e-05 7.137818e-05 7.8943056e-05 7.397979e-05 5.8995003e-05
3.8842256e-05 1.8155893e-05 1.2038873e-06 -9.825352e-06 -1.5096184e-05 -1.760134e-05 -2.0608828e-05 -2.6754673e-05
-3.611292e-05 -4.686534e-05 -5.4936474e-05 -5.648947e-05 -4.8686372e-05 -3.1400137e-05 -6.45805e-06 2.1362532e-05
4.6549914e-05 6.484862e-05 7.417953e-05 7.404374e-05 6.59755e-05 5.3019154e-05 3.9707997e-05 2.9429448e-05
2.4024457e-05 2.1959897e-05 2.0198228e-05 1.58737e-05 7.1619147e-06 -4.870839e-06 -1.7363156e-05 -2.6421812e-05
-2.894454e-05 -2.330264e-05 -1.0564476e-05 6.3964503e-06 2.3658331e-05 3.826228e-05 4.879914e-05 5.590543e-05
6.217157e-05 6.9217385e-05 7.8195175e-05 8.96415e-05 0.00010322215 0.00011717619 0.00012915487 0.00013646774
0.00013710423 0.00012976688 0.00011576797 9.865646e-05 8.261645e-05 7.080328e-05 6.530034e-05 6.6020344e-05
6.97842e-05 7.284358e-05 7.280781e-05 6.8132e-05 5.956687e-05 4.993291e-05 4.2493288e-05 4.0384974e-05
4.586514e-05 5.8375674e-05 7.5603115e-05 9.409092e-05 0.00011009029 0.00012085908 0.00012537264 0.00012442522
0.000120591576 0.00011725678 0.000117483876 0.00012373246 0.00013501379 0.0001478372 0.00015869742 0.00016449564
0.00016381741 0.000157716 0.00014931515 0.00014148564 0.00013715765 0.00013772005 0.00014237818 0.00014791671
0.00015061599 0.00014819537 0.00014048151 0.00012853078 0.000115435265 0.000104430495 9.884936e-05 0.00010099216
0.00011014936 0.000123382 0.00013725065 0.00014848582 0.000153812 0.00015075495 0.00014141161 0.0001291042
0.00011671535 0.00010611568 9.9041084e-05 9.493155e-05 9.283414e-05 9.063224e-05 8.758972e-05 8.309502e-05
7.7535806e-05 7.1741364e-05 6.6969566e-05 6.472435e-05 6.53579e-05 6.809109e-05 7.243121e-05 7.805915e-05
00000000: 3f07 21b9 8f68 06b9 0728 f7b8 4a00 fab8
00000010: dab6 04b9 602a 0db9 02e3 12b9 9b2f 14b9
00000020: 65cc 13b9 b1ef 15b9 6a9a 1eb9 5dd7 2eb9
00000030: 1a78 44b9 ee88 59b9 2b60 67b9 457b 68b9
00000040: 2a9f 5bb9 f351 43b9 3442 24b9 1346 06b9
00000050: a267 dfb8 62b6 c6b8 cc14 c1b8 b7f4 c6b8
00000060: 9e34 ceb8 3752 cab8 4c0b b3b8 f3ba 8ab8
00000070: 4eac 33b8 6e3a b9b7 3dbf 39b7 7049 5eb7
00000080: b83a edb7 dc22 57b8 914f 9eb8 c50b c1b8
00000090: c7e3 c9b8 f2cc b7b8 8967 91b8 e750 46b8
000000a0: ec2b f1b7 b82b 99b7 d978 8fb7 9088 beb7
000000b0: d349 01b8 6e4f 17b8 23f5 0fb8 8034 d2b7
000000c0: cd93 1fb7 d20c 1037 5ddc c037 981c ee37
000000d0: 44a8 c437 3222 2337 f89a 15b7 22ba dbb7
000000e0: cbf9 17b8 fa89 11b8 766a b3b7 817e 4735
000000f0: 7e6c da37 6581 4838 58fc 8038 2981 8938
00000100: 3478 8138 ff08 6238 4b43 4338 f7d0 2e38
00000110: e1a9 2838 26f8 2638 4667 1938 7115 e937
00000120: ac72 4e37 aba7 06b7 ded1 fbb7 dac8 50b8
00000130: 7448 84b8 9ee7 8cb8 c621 81b8 3641 4ab8
00000140: 6467 04b8 c7a3 90b7 6c0c 22b7 2fd9 2db7
00000150: 080e 8db7 d9a0 d2b7 3ec8 f6b7 3157 d3b7
00000160: 8c93 41b7 f922 1337 3d16 f837 3386 3938
00000170: 12c0 4a38 17e0 2b38 1b57 ce37 6d31 7a36
00000180: 746f 85b7 d49c f3b7 710f 0cb8 7d96 f7b7
00000190: f681 abb7 a2dc 28b7 7b9d 3eb6 10bd f1b5
000001a0: 45e4 eeb6 1ba1 89b7 4b83 d6b7 606e fab7
000001b0: 532a d8b7 378a 57b7 9642 a936 24bc bb37
000001c0: d5fb 0d38 8cfb 1738 f515 ee37 8d43 5237
000001d0: 85d5 e6b6 b2ea cbb7 fa61 17b8 6f7f 2ab8
000001e0: 1669 25b8 24ec 14b8 5762 0ab8 1657 0fb8
000001f0: f801 22b8 7f21 36b8 2df4 3cb8 e612 27b8
00000200: e775 d6b7 53a0 38b6 5835 d237 be9f 5938
00000210: deb0 9538 3b8e a538 9925 9b38 6771 7738
00000220: 8eea 2238 7c4d 9837 4195 a135 91d7 24b7
00000230: 9e45 7db7 97a6 93b7 1fe1 acb7 396f e0b7
00000240: f477 17b8 4791 44b8 976b 66b8 1bef 6cb8
00000250: 9834 4cb8 a4b3 03b8 3ab2 d8b6 b033 b337
00000260: 973e 4338 56ff 8738 d590 9b38 ee47 9b38
00000270: 545c 8a38 e260 5e38 238c 2638 42df f637
00000280: 2188 c937 8536 b837 5d6f a937 8328 8537
00000290: 6150 f036 3070 a3b6 18a7 91b7 69a4 ddb7
000002a0: edcd f2b7 0a7a c3b7 143e 31b7 17a1 d636
000002b0: e175 c637 cf7b 2038 adad 4c38 007c 6a38
000002c0: 1c62 8238 cd28 9138 b7fc a338 eafd bb38
000002d0: f878 d838 7dbc f538 bf6d 0739 c818 0f39
000002e0: a3c3 0f39 0812 0839 75c8 f238 c9e5 ce38
000002f0: 5e42 ad38 397c 9438 daf1 8838 6774 8a38
00000300: 1b59 9238 99c3 9838 65b0 9838 17e2 8e38
00000310: 71d7 7938 0e6f 5138 d23a 3238 0963 2938
00000320: 525f 4038 67d8 7438 1d8d 9e38 ae52 c538
00000330: 46e0 e638 b975 fd38 7676 0339 2478 0239
00000340: 1ce6 fc38 c1e7 f538 ad61 f638 2ebe 0139
00000350: 7d92 0d39 bf04 1b39 0468 2639 767c 2c39
00000360: 67c6 2b39 9160 2539 7b91 1c39 c35b 1439
00000370: fad1 0f39 f268 1039 5a4b 1539 171a 1b39
00000380: acee 1d39 e464 1b39 384e 1339 38c6 0639
00000390: d615 f238 b201 db38 594d cf38 c1cb d338
000003a0: fdff e638 1a60 0139 f1ea 0f39 dcb2 1b39
000003b0: 9848 2139 f913 1e39 e447 1439 2560 0739
000003c0: 14c5 f438 6c8a de38 47b4 cf38 fd15 c738
000003d0: f3af c238 d011 be38 5fb0 b738 4d43 ae38
000003e0: b89a a238 da73 9638 0372 8c38 9fbc 8738
000003f0: c110 8938 20cc 8e38 36e6 9738 b0b3 a338

exp_avg_sq f4 [8, 1, 1, 256]
2.0458317e-07 1.9352171e-07 1.822488e-07 1.9118616e-07 2.1547585e-07 2.2828573e-07 2.1421423e-07 1.9027267e-07
1.8520835e-07 2.0401923e-07 2.2250653e-07 2.1976982e-07 2.0431975e-07 2.0097418e-07 2.1714864e-07 2.3306033e-07
2.2915539e-07 2.1380538e-07 2.1325452e-07 2.3617552e-07 2.6003394e-07 2.5913485e-07 2.3775894e-07 2.244361e-07
2.3528911e-07 2.5419746e-07 2.5535414e-07 2.3827963e-07 2.2878925e-07 2.4360156e-07 2.6621507e-07 2.6679297e-07
2.4117722e-07 2.1692811e-07 2.189104e-07 2.3888913e-07 2.4797723e-07 2.3424637e-07 2.1666055e-07 2.1690802e-07
2.2878548e-07 2.2813295e-07 2.0971423e-07 1.9990195e-07 2.2432792e-07 2.7137074e-07 2.9957346e-07 2.8195527e-07
2.3473527e-07 1.9573547e-07 1.8094781e-07 1.7755907e-07 1.7523057e-07 1.8957664e-07 2.4025599e-07 3.1355472e-07
3.6218694e-07 3.496826e-07 2.9007583e-07 2.3189646e-07 2.0758279e-07 2.0962494e-07 2.1510863e-07 2.2424817e-07
2.5446343e-07 3.0452227e-07 3.414866e-07 3.3405038e-07 2.9386052e-07 2.6621092e-07 2.7946157e-07 3.128649e-07
3.2359165e-07 2.9784837e-07 2.6326094e-07 2.4981316e-07 2.5522866e-07 2.5763052e-07 2.562013e-07 2.7641997e-07
3.32517e-07 3.9478462e-07 4.1140936e-07 3.6449475e-07 2.894634e-07 2.367049e-07 2.2089651e-07 2.1861607e-07
2.1094968e-07 2.0958723e-07 2.3369222e-07 2.7084644e-07 2.8222797e-07 2.4915934e-07 2.0189286e-07 1.8769661e-07
2.1697075e-07 2.5288244e-07 2.563982e-07 2.3009285e-07 2.0756875e-07 2.0767122e-07 2.151857e-07 2.1445828e-07
2.2230338e-07 2.701089e-07 3.5504027e-07 4.2598955e-07 4.2970413e-07 3.6573135e-07 2.8564872e-07 2.3705591e-07
2.2208238e-07 2.1608561e-07 2.118436e-07 2.2638068e-07 2.6498142e-07 2.9822885e-07 2.9093604e-07 2.4947255e-07
2.222474e-07 2.4472152e-07 2.9586087e-07 3.2049067e-07 2.9287838e-07 2.4215754e-07 2.1127549e-07 2.0914057e-07
2.1301362e-07 2.1371606e-07 2.358846e-07 3.0225598e-07 3.8870164e-07 4.359283e-07 4.0946355e-07 3.3595703e-07
2.7120245e-07 2.4162148e-07 2.3105966e-07 2.1963687e-07 2.1846664e-07 2.505274e-07 3.048645e-07 3.3325497e-07
3.009152e-07 2.2958196e-07 1.7598346e-07 1.708005e-07 1.9117323e-07 1.9644386e-07 1.7793231e-07 1.6145806e-07
1.6489628e-07 1.7354327e-07 1.6740142e-07 1.5954923e-07 1.8702977e-07 2.608214e-07 3.3913594e-07 3.6352276e-07
3.1800005e-07 2.4290122e-07 1.8917397e-07 1.7095296e-07 1.7186524e-07 1.853111e-07 2.2581432e-07 2.971977e-07
3.6471377e-07 3.7843444e-07 3.2633332e-07 2.5146227e-07 2.0878026e-07 2.1070645e-07 2.2498142e-07 2.229204e-07
2.1191083e-07 2.1563525e-07 2.3400558e-07 2.4196726e-07 2.2702825e-07 2.1324236e-07 2.3467042e-07 2.8837061e-07
3.3018785e-07 3.2220214e-07 2.741166e-07 2.2868157e-07 2.1225206e-07 2.1343793e-07 2.1117401e-07 2.097992e-07
2.3185754e-07 2.784441e-07 3.1456486e-07 3.0428174e-07 2.534511e-07 2.0460267e-07 1.8956571e-07 1.9867753e-07
2.0169644e-07 1.8997228e-07 1.8445492e-07 2.0146793e-07 2.2526355e-07 2.2647905e-07 2.0215785e-07 1.8242162e-07
1.9355348e-07 2.2436559e-07 2.3924085e-07 2.2127212e-07 1.9090062e-07 1.7785062e-07 1.8477982e-07 1.8962785e-07
1.8172817e-07 1.7898374e-07 2.0235912e-07 2.4217445e-07 2.629887e-07 2.4366994e-07 2.03022e-07 1.7821736e-07
1.8231651e-07 1.944538e-07 1.9267122e-07 1.8307746e-07 1.8788447e-07 2.1106197e-07 2.2922124e-07 2.2127418e-07
1.9751931e-07 1.887595e-07 2.0747177e-07 2.3178237e-07 2.3292581e-07 2.1033689e-07 1.898166e-07 1.8960998e-07
1.9996402e-07 2.0181261e-07 1.960487e-07 2.0439866e-07 2.373208e-07 2.7341022e-07 2.8113683e-07 2.5551606e-07
2.2442491e-07 2.1521149e-07 2.2476779e-07 2.2929088e-07 2.1771781e-07 2.0492871e-07 2.0965689e-07 2.2574926e-07
00000000: 65ab 5b34 d8ca 4f34 2bb0 4334 da48 4d34
00000010: 8d5d 6734 b41e 7534 c202 6634 c14d 4c34
00000020: afdd 4634 6110 5b34 21ea 6e34 def9 6b34
00000030: fc62 5b34 5dcb 5734 5d29 6934 233f 7a34
00000040: c10d 7634 6092 6534 f5fa 6434 6f97 7d34
00000050: cb9a 8b34 391f 8b34 ae4a 7f34 87fc 7034
00000060: c7a3 7c34 a278 8834 9b17 8934 ced9 7f34
00000070: 1ca9 7534 58c8 8234 52ec 8e34 bf3b 8f34
00000080: 257b 8134 bfec 6834 a20d 6b34 ac40 8034
00000090: bb21 8534 2785 7b34 33a3 6834 39e7 6834
000000a0: 13a8 7534 b5f4 7434 cf2d 6134 a1a4 5634
000000b0: cade 7034 e9b0 9134 10d5 a034 a35f 9734
000000c0: 8a0b 7c34 5b2b 5234 8e4a 4234 11a7 3e34
000000d0: 0327 3c34 6e8e 4b34 88fc 8034 a256 a834
000000e0: 9872 c234 03bc bb34 b8bb 9b34 37ff 7834
000000f0: ece3 5e34 4415 6134 9cf8 6634 dec8 7034
00000100: 309d 8834 397d a334 9055 b734 8957 b334
00000110: e2c3 9d34 c0eb 8e34 e808 9634 d3f7 a734
00000120: 19ba ad34 f8e7 9f34 4f56 8d34 0f1e 8634
00000130: 5c06 8934 7850 8a34 0a8c 8934 df66 9434
00000140: ca84 b234 c9f2 d334 acdf dc34 c7af c334
00000150: 8c67 9b34 f328 7e34 922f 6d34 babc 6a34
00000160: 6881 6234 e60a 6134 d4ec 7a34 da68 9134
00000170: 1e85 9734 33c4 8534 e3c7 5834 a789 4934
00000180: 77f8 6834 e6c3 8734 1aa7 8934 710f 7734
00000190: 10e0 5e34 3bfc 5e34 cb0d 6734 d845 6634
000001a0: 4ab2 6e34 7c03 9134 5d9c be34 8fb3 e434
000001b0: 16b2 e634 bc59 c434 435b 9934 6f89 7e34
000001c0: 8a75 6e34 2905 6834 2077 6334 0c13 7334
000001d0: c542 8e34 431c a034 f231 9c34 3fef 8534
000001e0: e6a2 6e34 4562 8334 cfd6 9e34 e70f ac34
000001f0: e63c 9d34 e101 8234 f7da 6234 1f90 6034
00000200: bdb8 6434 d379 6534 7747 7d34 bf45 a234
00000210: bfae d034 8809 ea34 3ed4 db34 955d b434
00000220: c899 9134 34b8 8134 3219 7834 53d5 6b34
00000230: a793 6a34 3980 8634 42ac a334 37ea b234
00000240: 788d a134 0283 7634 f7f5 3c34 4965 3734
00000250: 4c45 4d34 14ee 5234 a90d 3f34 415d 2d34
00000260: 580e 3134 3657 3a34 f4be 3334 8f50 2b34
00000270: 5ad2 4834 0507 8c34 7d12 b634 302a c334
00000280: 98b9 aa34 1768 8234 bf1f 4b34 318f 3734
00000290: f589 3834 edf9 4634 5e77 7234 8a8e 9f34
000002a0: e1cd c334 a22b cb34 e932 af34 b600 8734
000002b0: 152d 6034 8c3e 6234 6c92 7134 e55b 6f34
000002c0: 9b89 6334 5e89 6734 f742 7b34 bae7 8134
000002d0: 0dc5 7334 9df7 6434 b7f9 7b34 5bd1 9a34
000002e0: ac44 b134 20fb ac34 4c2a 9334 838b 7534
000002f0: 67e7 6334 5f2d 6534 12bf 6234 2a45 6134
00000300: 84f4 7834 117d 9534 77e1 a834 2a5c a334
00000310: 0e12 8834 c1b0 5b34 6d8b 4b34 1054 5534
00000320: e591 5834 2ffb 4b34 950e 4634 1553 5834
00000330: f9df 7134 162e 7334 ba10 5934 acdf 4334
00000340: 93d3 4f34 25e9 7034 0371 8034 d196 6d34
00000350: 5dfa 4c34 35f7 3e34 e467 4634 829c 4b34
00000360: 0f21 4334 ad2e 4034 0d48 5934 3404 8234
00000370: e430 8d34 bed1 8234 43fe 5934 045c 3f34
00000380: c8c2 4334 0ecb 5034 10e1 4e34 f393 4434
00000390: 4abd 4934 46a0 6234 db1f 7634 6297 6d34
000003a0: b215 5434 d1ad 4a34 68c5 5e34 dadf 7834
000003b0: 291a 7a34 f7d8 6134 64d0 4b34 9897 4b34
000003c0: b1b5 5634 d4b1 5834 7581 5234 ad78 5b34
000003d0: 3fd2 7e34 37c9 9234 27ef 9634 dc2d 8934
000003e0: 73f9 7034 e214 6734 b357 7134 ff32 7634
000003f0: d1c5 6934 600a 5c34 0c1e 6134 7c65 7234

exp_avg f4 [8]
-3.1506433e-09 -5.4685856e-09 -5.066404e-09 -2.6548261e-09 -9.3077673e-10 -1.4516872e-09 -2.6075058e-09 5.739894e-10
00000000: b482 58b1 30e6 bbb1 9014 aeb1 3270 36b1
00000010: 97d9 7fb0 b484 c7b0 ba2f 33b1 eac6 1d30

exp_avg_sq f4 [8]
2.0956853e-15 5.8648265e-15 1.6530419e-15 6.537775e-16 1.9794672e-16 2.1868824e-15 3.9604516e-16 6.270099e-16
00000000: 9202 1727 7a4d d327 7b3a ee26 4470 3c26
00000010: 8f37 6425 dc94 1d27 f34d e425 2ab9 3426

exp_avg f4 [8]
-6.0247085e-10 2.434325e-09 -3.3633532e-10 5.7226857e-10 8.543423e-11 4.2534823e-10 4.2405933e-11 8.3941226e-10
00000000: 1e9b 25b0 1949 2731 fde6 b8af d24d 1d30
00000010: 32df bb2e 71d6 e92f d680 3a2e 63bc 6630

exp_avg_sq f4 [8]
6.834557e-18 1.4314382e-17 1.3107074e-17 4.58308e-18 1.0794957e-18 3.0041638e-17 1.830994e-18 2.4746252e-18
00000000: 9126 fc22 e106 8423 68c8 7123 f715 a922
00000010: 324e 9f21 e88a 0a24 801a 0722 5998 3622
